ana-class100_0169_s2.tflite (tflite, 481384 bytes, 28 tensors)

model_2/conv2d_12/BiasAdd/ReadVariableOp f4 [32]
00000000: cb1c b1bc 7de9 42be dff6 0cbd 58ff efbd
00000010: cfca 02be 5630 9cbd 0144 a63d ecef 60be
00000020: f698 c0bd 68d1 263e dfb3 80be 998a 553e
00000030: 33fe c7bd 087e c63d ed29 4a3d d44f 913d
00000040: fd10 533d dcdf a5be ff7e efbd b599 86bd
00000050: 61f4 2d3e fb8f 32be 7db8 0d3d 7be9 6abd
00000060: 3dc3 703d 4c4a ac3d 040a c2bd b11e a3be
00000070: 17a9 71bd 0938 8ebd 1554 98bd bc94 c73c
-0.021620175 -0.19034381 -0.034415122 -0.11718625 -0.12772678 -0.07626407 0.081184395 -0.21966523
-0.09404175 0.1629082 -0.2513723 0.20853652 -0.097652815 0.09692007 0.04935639 0.07095304
0.051529873 -0.32397354 -0.116941445 -0.06572286 0.16987754 -0.17437737 0.03459977 -0.05735157
0.058779944 0.084126085 -0.094745666 -0.31859353 -0.058999147 -0.069442816 -0.074379124 0.024362914

model_2/conv2d_13/BiasAdd/ReadVariableOp f4 [32]
00000000: 1731 0bbf f277 a9bb d82c ca3e 4dd8 cfbd
00000010: 2d34 03be 7c79 893e 044e bc3e f560 d83e
00000020: 2e1e d73d fb86 0c3e b9be dcbd cf91 9b3e
00000030: 3091 f43e 6c97 463f 7183 53bd 4697 0cbd
00000040: 8043 c03e ab8c b93d 8710 4c3e c422 063f
00000050: 9f53 c03e 4bdd b63e 1fd0 343e 60ab 803e
00000060: c817 86be 703d 593e 9f5f 5f3e 037b a0be
00000070: 59f9 a53e a04d 3e3f 6d6d 763f 7a02 f8bd
-0.5437178 -0.0051717693 0.39487338 -0.10148678 -0.12812872 0.26850498 0.3677827 0.42261472
0.10503803 0.13723366 -0.10778565 0.3038468 0.4776702 0.775748 -0.051639024 -0.034323953
0.37551498 0.090600334 0.1992818 0.523968 0.37563798 0.35715708 0.17657517 0.2513075
-0.2619002 0.21214843 0.2181382 -0.3134385 0.324168 0.74337196 0.9626072 -0.12109847

model_2/conv2d_14/BiasAdd/ReadVariableOp f4 [48]
00000000: e653 c1be 29dc 0dbf 6740 d4be cc59 3fbe
00000010: 45f4 cfbe 56ab 94be af3c 82be 8e4d dcbe
00000020: cd86 fbbe 8ca7 55be aac7 38be f82f 1bbf
00000030: 8b73 c8bd ea5a 80be 238f b7be 1223 dcbe
00000040: 3e89 9cbe 963e b7be f6ea 8ebe dc3c bebe
00000050: 281f b8be 9519 17bf 42af 15bf 70fa d1be
00000060: 2db9 aebe 6b56 6ebe d2ae ccbd 5a80 37be
00000070: 6877 88be 75d5 94be d556 2dbe fede e1be
00000080: 7566 cbbe 9bd0 b4be b972 b7be 9bf2 f2be
00000090: 948f 09be 8e64 81be c992 81be f1c5 b2be
000000a0: f558 56bd 841f b7be 32c9 bdbe 99ca 4ebe
000000b0: e770 abbe b2de a8be 27c9 adbd 4941 6cbe
-0.37759322 -0.5541406 -0.41455385 -0.18686599 -0.4061605 -0.2903697 -0.25436923 -0.4302792
-0.49126282 -0.20864695 -0.18044916 -0.6062007 -0.09787663 -0.25069362 -0.35851392 -0.42995507
-0.30573457 -0.35789937 -0.27913636 -0.37155807 -0.3596127 -0.5902341 -0.5847055 -0.4101138
-0.34125653 -0.23275153 -0.09994282 -0.17920056 -0.266536 -0.29069105 -0.16927655 -0.44115442
-0.39726606 -0.35315403 -0.35829714 -0.47450718 -0.13433677 -0.2527203 -0.253073 -0.34916642
-0.05233093 -0.35766232 -0.37067562 -0.20194472 -0.33484575 -0.32982403 -0.084856324 -0.2307178

model_2/conv2d_15/BiasAdd/ReadVariableOp f4 [48]
00000000: c88c c33d acec b63e bf22 d73e ca52 db3d
00000010: 32c7 043e 349a 2c3e 50ec 26be eaac 7f3e
00000020: e906 903c eaa1 9e3d 2f8a aabb db24 00be
00000030: 98de 713e 10d6 243e bc0e 363e 628e 143d
00000040: 0f87 243d 4c35 813e 9bb5 873e 4b00 973e
00000050: 2a89 b8bd 301c b43e 5b21 4e3e c1ae 813e
00000060: dc6b 70bd 881f b43b 86e4 533e 3c4e 8c3c
00000070: d595 ddbb 584c 29bd 77fe 703d 6e78 a03d
00000080: f670 ff3e aec3 37bd a001 0e3e 74d5 41bd
00000090: 6577 f63d cb5a 44be faa3 cf3d 028c ef3d
000000a0: e1f9 183e 37a5 a03e 21a3 843d 251e ae3b
000000b0: 692a 813e 2c1c 633e 8f1a 973e 4ed2 503e
0.09548336 0.3572744 0.42018697 0.1070915 0.12966612 0.16855699 -0.16301084 0.24968305
0.01758142 0.077457264 -0.005204461 -0.12514059 0.23620069 0.16097283 0.17779058 0.0362686
0.040167864 0.25235975 0.2650574 0.2949241 -0.09010537 0.35177755 0.20129912 0.2532864
-0.058696613 0.005496923 0.20692644 0.017127149 -0.006762246 -0.041332573 0.058836427 0.0783547
0.4989087 -0.04486435 0.13867807 -0.047322705 0.120344914 -0.1917526 0.10138698 0.11696626
0.14939071 0.3137605 0.06476427 0.005313652 0.2522767 0.22178715 0.2951245 0.20392725

model_2/conv2d_16/BiasAdd/ReadVariableOp f4 [64]
00000000: e344 003e 4703 65bd d51a e23d e298 56bd
00000010: 3b86 94be 83c4 42be 7b75 a13e bc0d 03be
00000020: 5b5a 4f3e 92f6 b3be eb45 8abe c72c 5d3e
00000030: e9f8 a0bd 9fb6 c4bd 4f35 aebd 91bd 3e3e
00000040: 8dc4 743d 7ce5 fe3d 2b38 69be 2dc7 833d
00000050: 4a5e a63d 741a d43d 67a3 c4bd f4fe f2bd
00000060: a831 4ebe 46b0 67bd 1b00 c83e 2766 17be
00000070: 4ee0 423d b166 a9bd 4226 eb3c 0af9 0bbe
00000080: ca6f bebc c36f c63d fc76 afbb fac5 3e3e
00000090: dd95 3fbd b17a a8bd 18d9 063e dc51 acbb
000000a0: 3b3a 94bd aa22 a4bd 6cab 013e 146d dabe
000000b0: ace4 8bbe 96e0 68be 3c12 53be b4e4 da3d
000000c0: 080b bebd 56f5 933d 238d 3ebe 2b70 96bc
000000d0: 2127 dfbc 59ab af3c 60b1 263d 0783 aebd
000000e0: 7724 5dbd d3b9 a8bd 97a6 183e 8d41 603b
000000f0: 0d01 483e 1bb1 82bd 7660 c43e 51b9 1abe
0.12526278 -0.05591133 0.11040274 -0.052391894 -0.2900866 -0.19020276 0.31534943 -0.12798208
0.20249312 -0.35149056 -0.27006468 0.21599112 -0.07859976 -0.09605145 -0.085062616 0.18627001
0.059757758 0.124461144 -0.22775333 0.06434474 0.08123453 0.10356608 -0.09601479 -0.11865035
-0.2013613 -0.05656459 0.3906258 -0.14785062 0.047577195 -0.0827154 0.028704766 -0.1366922
-0.023246665 0.096892856 -0.00535476 0.1863021 -0.04677378 -0.082265265 0.13168752 -0.005258782
-0.07237669 -0.08014424 0.12663049 -0.42661345 -0.273229 -0.22741923 -0.20612425 0.10688153
-0.09279448 0.072245285 -0.18608527 -0.018364033 -0.027240338 0.02144401 0.0406965 -0.08521085
-0.053989854 -0.08238568 0.14907299 0.0034218759 0.19531651 -0.063814364 0.38354844 -0.15109755

model_2/conv2d_17/BiasAdd/ReadVariableOp f4 [64]
00000000: 5c37 e53e 5ccc 43bd 1024 2c3e 5978 c13e
00000010: 0b66 1b3d 586c 15bd 1e5e 77bd 7f25 2f3f
00000020: 33cb df3e 8712 193f a8ac 2c3f 79b2 303f
00000030: 1d67 ba3e 5bee 993e 5747 473e 893a 3a3f
00000040: 3074 7b3d d271 8d3e b8c4 e53e 424a c6bd
00000050: ea49 ed3d 3778 88bd 19fb 1cbd adf2 1f3f
00000060: 6236 ddbd c446 863e d62c 053f f284 bb3e
00000070: bb22 a4bd ee4d 583e e367 bf3e 121b 243f
00000080: bb36 8cbd ca62 513f 3ac0 9a3d daf8 5c3e
00000090: 8b3a 77bd f6ec 07bd 9493 183e 3163 d33e
000000a0: 4680 743d 0377 0f3f b2b6 0ebd f9de 36bd
000000b0: c7ae 393f be0f 8d3e e711 c2bd 0112 c93e
000000c0: 4314 093f f171 873e b6a4 1cbd 369a 55bd
000000d0: 921b a63e a4f4 e4bd 23fe 41bd c115 95bd
000000e0: b720 9b3e 0dd4 bf3e 0adc cf3e f08d 52bd
000000f0: caf7 69bd 2bd1 47bd a98f 9d3e aa95 8fbd
0.44768798 -0.047802314 0.16810632 0.3778713 0.037939113 -0.036480278 -0.06039249 0.6841659
0.43709716 0.59793895 0.6745095 0.6902233 0.36406794 0.30064663 0.19460808 0.7274557
0.061390102 0.276259 0.44876647 -0.09682132 0.115863636 -0.06663554 -0.038325403 0.6247967
-0.10801388 0.26225865 0.5202154 0.36624867 -0.08014437 0.21123478 0.37383947 0.64103806
-0.068463765 0.81791365 0.075561956 0.21579304 -0.060358565 -0.033184968 0.14900047 0.41286615
0.059692644 0.5604097 -0.0348422 -0.044646237 0.72532314 0.27551073 -0.09476071 0.39271548
0.5354654 0.26454118 -0.038243018 -0.05214902 0.3244291 -0.11179474 -0.047361504 -0.0727954
0.30298397 0.3746647 0.40597564 -0.051404893 -0.057121076 -0.048783462 0.30773667 -0.07010968

model_2/conv2d_12/Conv2D f4 [32, 5, 5, 3]
00000000: 1225 233e 11c7 8bbe 360b b6bd 9322 163e
00000010: f98d 01be 14ca ea3c 1548 863b 39bf 903d
00000020: 3b32 673d 15e6 64bd 00b3 263c 7dc8 283e
00000030: 22bb b0bd 63a4 933d ef85 943d 8c24 833e
00000040: b8dd b5be 38de 38bd b209 06bb 356f e1bd
00000050: ba55 00bd 880f 04bd e658 083e 77d8 483e
00000060: d187 1bbe 0329 003e c7a7 443e ddc5 16be
00000070: 08fd 9d3d 5fbf da3c 115f 6b3e be4d b7be
00000080: fd16 dd3b b06e 383b 4e2c a0bc 0744 f83c
00000090: 7229 5abe 75f1 c83d 3f5f 693e 4596 b9bd
000000a0: 723a 053e 4e7b 6b3d e825 a1bd 182e 913d
000000b0: 2601 923d ffbc 423e 9b79 86be 7d64 0ebe
000000c0: dca8 4a3d 1abb 9cbd 1725 1d3d 291e cfbb
000000d0: 0b34 843d dbed 2f3e c66a 03be d406 123e
000000e0: cb51 593e fda3 c6bd 3353 f23c 055a c53d
000000f0: ac82 643e 6eee 87be 838a a7bd 77da f73d
00000100: 3111 04be d645 813d 6d63 c4bd 99f5 6f3d
00000110: e4ba ac3c ce7e 2ebe fcbe ca3d 3907 0c3e
00000120: 502e 31be 9fe2 063e cd2d 163e b6ed 48be
00000130: bec3 a1bd 4fad 62bd d021 ba3d aa07 613d
00000140: 1e64 913d af94 c43d 7e86 01be d284 70bd
00000150: bdb2 c03e efbd e13c 7e44 633b 316a ad3e
00000160: 4251 073e ecba 1a3d 12c8 7dbe cf88 c1bd
00000170: e797 c4bd 5658 e7bd 55ff 0ebd 17b5 4c3c
00000180: f1ba 72be 35dd 69be 3ca1 e0bd ea3e 91bd
00000190: f983 febd fa33 fbbd 7be3 df3d 28c2 5cbe
000001a0: 0eb7 4abe 0cb4 00be ad19 b5bd 07dc 89bd
000001b0: c233 17bd 6807 0dbc 27d8 d3bb 9c59 7abe
000001c0: 99e7 19be 1558 183d 33cb 9cbd 9b8b 2abe
000001d0: 7f45 a5bd b9c3 103c ff40 8cbe 0da7 3dbe
000001e0: 71e1 8b3d 301b 6d3e 9c7a e13d 57c5 303d
000001f0: 0048 c13d 4d13 273e 31c9 8a3d 4e8a 033e
00000200: 9883 213e 1432 c53b 8c88 c2bd 214a 73bd
00000210: 1ecd 4cbd 0997 f9bd 4f0d 4bbe 20c6 923c
00000220: 375f 583e 6c35 dd3d d867 f73d 93db 3e3e
00000230: 5f79 1f3e c2ad da3d aa42 413e d015 243e
00000240: a588 d73d 4728 2bbd e713 69bd 60a8 8a3d
00000250: 0ed4 c1bd a88b 5fbc 3a5b dabc 84a0 2bbe
00000260: 1083 cdbc 708a cbbe e46f 80be d6b3 9ebd
00000270: 5bf1 60be 30f7 823b d55e 54bc b57b df3d
00000280: a64c ea3d 945a a43e bf0e d83d a5cc 323d
00000290: c817 5d3e e719 5cbe f68d 1cbe 5112 3abe
000002a0: efe7 55be 4aa5 523d 4ed9 873d 3844 613d
000002b0: 1464 e93c 8e82 183e 42a2 ccbd 6233 2e3d
000002c0: e3b5 923d 7013 7d3d a269 3b3e 677f 713e
000002d0: 2e10 40be 687b 2cbe 1414 35be 7acb 39be
000002e0: 5e30 06bd 60fa 50bc 1509 97bd 7371 6d3d
000002f0: 0748 1b3c c04e d43c 1e84 fb3c fe6a 3c3e
00000300: 8ba2 133e 6abc 1d3e 2d8d 073e 6c59 a5bd
00000310: 7a94 b3bd 7076 f5bd 8260 59be 2971 88bd
00000320: 5436 30bd c9a2 2cbe 14aa c3bd a1fe 71bd
00000330: 2efa 1dbd 74de 073d aa15 fb3d f3b1 253e
00000340: a188 273e daef 8a3e aa34 5f3c e0ef af3b
00000350: a5af e1bd 923d 18be a8fd bfbc 162d cabd
00000360: f096 2d3d d98b 1c3d a60a ff3d 3e57 adbc
00000370: 7d33 103e 0cad b73d 842d f43d b2b1 643e
00000380: fd5c 413e 91eb b83d 7e42 bdbd 7d63 10bd
00000390: 09b7 5e3d 195a d3bd 0602 a6bc 85ab 0abe
000003a0: bde6 cf3d 202c e33d 52fa 40be bc31 4a3e
000003b0: 97b6 833e d63a 2fbe 3481 383e 5e07 093e
000003c0: 26d7 e33d a1ff 05be 122c e4bd c4ea 103e
000003d0: 0e9c 4bbe 55aa 0abd d417 0cbe ed3f 793d
000003e0: 4cdc 873d 96f1 25be a656 023e 9524 393e
000003f0: f89b 4dbe 4daf 403e 7c0d 1e3e 68e0 643e
0.1593211 -0.27300313 -0.08888857 0.14661627 -0.12651815 0.028660811 0.0040979483 0.07067723
0.056444388 -0.055883486 0.010174513 0.1648273 -0.08629443 0.07209089 0.07252108 0.2561382
-0.3552072 -0.0451338 -0.0020452556 -0.11007539 -0.031331755 -0.032241374 0.13315162 0.19613825
-0.15188529 0.12515645 0.19204627 -0.14723916 0.077142775 0.026702581 0.22985484 -0.358015
0.006747125 0.0028142147 -0.019552376 0.030305875 -0.21304873 0.09811679 0.2279024 -0.09061865
0.13010576 0.05749064 -0.07868558 0.0708887 0.07129125 0.19017409 -0.26264653 -0.1390552
0.049477443 -0.07652874 0.03836545 -0.006320734 0.06455239 0.17180578 -0.128337 0.14260417
0.21222608 -0.09699247 0.029580688 0.096363105 0.22315472 -0.26549095 -0.08180716 0.12102216
-0.12897183 0.06312148 -0.095892765 0.05858383 0.02108521 -0.1704056 0.09899709 0.1367463
-0.17302823 0.13172387 0.14665909 -0.1962193 -0.07898663 -0.05534106 0.090884805 0.05493895
0.07099174 0.09598672 -0.12648961 -0.058720417 0.37636366 0.027556388 0.0034678276 0.3387008
0.13214591 0.03777592 -0.24783352 -0.09449922 -0.095992856 -0.112961456 -0.034911472 0.012494347
-0.23704125 -0.2283829 -0.10968253 -0.07092078 -0.124275155 -0.12265773 0.1093206 -0.2155844
-0.19796392 -0.12568682 -0.08842788 -0.0673142 -0.036914594 -0.008607723 -0.0064649764 -0.24448246
-0.15029754 0.037193377 -0.07655945 -0.16654818 -0.08069896 0.008835726 -0.27393338 -0.18520756
0.06830109 0.23154902 0.11009714 0.043156948 0.09437561 0.16315956 0.067766555 0.12845728
0.15772855 0.0060179327 -0.094987005 -0.059396867 -0.050000302 -0.12187011 -0.19829296 0.017916739
0.21130072 0.10801205 0.120803535 0.18638448 0.15573643 0.10677673 0.18873087 0.16023946
0.1052411 -0.04178646 -0.056903746 0.06770396 -0.09464274 -0.0136441365 -0.026654828 -0.1676045
-0.02508691 -0.39754057 -0.25085366 -0.07749145 -0.2196707 0.003996752 -0.012962063 0.10912267
0.11440401 0.32100356 0.105496876 0.043652195 0.21591103 -0.21494256 -0.15288529 -0.1817105
-0.20889257 0.051427163 0.066332445 0.0549967 0.028490104 0.14893553 -0.09991886 0.04252947
0.071635984 0.061786115 0.18302014 0.23583756 -0.18756172 -0.16843951 -0.1768344 -0.18144026
-0.03276097 -0.012755007 -0.07374779 0.05796952 0.009477622 0.025916457 0.030702647 0.1840019
0.14417474 0.15403906 0.13237448 -0.080736965 -0.08768554 -0.11985481 -0.21228221 -0.066622086
-0.04302056 -0.16858973 -0.09553924 -0.059080724 -0.038568668 0.033171132 0.122599915 0.16181163
0.16360714 0.27136117 0.013623396 0.0053691715 -0.1101983 -0.14867237 -0.023436382 -0.09871881
0.042380273 0.038219307 0.12453203 -0.021159764 0.14082141 0.08968553 0.11922744 0.2233341
0.18883128 0.09029306 -0.09241198 -0.03525113 0.054373775 -0.10319919 -0.020264637 -0.13541992
0.10151432 0.110924006 -0.1884549 0.19745535 0.25725242 -0.17112288 0.18018037 0.13381717
0.11125021 -0.13085796 -0.11141218 0.14152056 -0.19883749 -0.033853848 -0.13680965 0.06085198
0.06633815 -0.16205439 0.12728366 0.18080361 -0.20079029 0.18816872 0.15434831 0.22351229

model_2/conv2d_13/Conv2D f4 [32, 3, 3, 32]
00000000: e939 d43d 05b2 a53d 949d e63b a217 17be
00000010: 9593 a93e 2026 06be 498f 933b 9d29 84bd
00000020: f759 d83d 03b6 ee3d 91f3 493e 78a6 11be
00000030: 45cb a13d ba8a 73be c499 0e3e 207d 3f3e
00000040: 23e9 053e c92e f5bd 950f 393e 5091 c73d
00000050: 7eed 39be 902c 08be 0bb7 9bbe 0709 21be
00000060: 967b 50bd 3869 0c3c e0fb 533d a912 06be
00000070: 53c6 3c3b 99fa 503d 9e7c a53e 71b3 9abd
00000080: a3c8 ef3c 2160 3b3e d455 96bd cfdc 78bd
00000090: 1091 61bd aea2 c0bc 2346 633e 88af 2a3c
000000a0: 3d3a c43d 166c 123c 38bd 983d 17a7 433d
000000b0: c59e ea3c fd4b f9bd 68b7 e93c ab52 fe3c
000000c0: 590b dfbc a534 d7bc c837 2ebd 7c0d 463c
000000d0: ba82 eabc c2aa 09be ecc4 1ebe 79b6 8fbd
000000e0: 5d9a ef3c d6b6 ee3d 2e08 233d b7cc 063e
000000f0: 4a52 51bd 0c12 6a3e 84ee 123e b824 fabe
00000100: 719e e9bc ce49 0fbd 0a52 283d e36d a6ba
00000110: 022d 87be 9d60 973d b4f3 75bc 1350 343e
00000120: 5ddb 6bbd 4a07 753d d2f2 1f3d cab5 aebc
00000130: aedc e4bb 1d9e 233e f972 243d b6cc ffbd
00000140: 493d f43c 60e0 85bd 59b9 77bd aa0f 183d
00000150: 163e 323e 04ac 9ebd 79d0 b1bd fa57 30bd
00000160: 42b5 d23d be92 c33d 2afc 6e3d df08 b13e
00000170: cc86 19be 179d 74be cc20 53be 0a84 0fbe
00000180: d451 5f3e 5328 0ebe a1c5 343d aaed febc
00000190: c29e 763e e606 78bd 6bb0 e2bb d8d8 b83d
000001a0: 4a84 01be 65a7 c93e ec62 dfbd 3729 7cbd
000001b0: 1e8c 923d 53b5 3bbe ccc0 c7be 6235 503e
000001c0: 2abe d0be 3c20 0b3d 0113 343e ae33 a83d
000001d0: ef89 923d ff55 f23d 4a83 283d 79a4 72be
000001e0: 0785 f13c 7591 c43d 9eb6 733d 3c5e 3abe
000001f0: 7e4a 023f 9b78 50be 824d 1abe 2be3 0dbe
00000200: 1e4c 6bbd 39f4 0abe a3f0 e7bd 46d0 55bd
00000210: ef83 ebbd c8de 7f3d a986 ae3b 699d 14be
00000220: 17fd bebc 4cba 8dbd 167f 8b3d da48 1f3e
00000230: f41e f43d 55db 27bd 9c93 e83d 950f f13c
00000240: 5dd7 953d 35d6 13be ca4a fd3d 6d2f 023e
00000250: e94d 83bd d189 06be c216 fabd 1164 333d
00000260: ed06 d3bb f609 e7bc ddfb 0c3d 98d3 843e
00000270: 8631 81be 3575 6fbd 8a89 ac3c 54d5 f8bd
00000280: 9b42 35bd ab50 24bc 1eaf f03d 75c8 73bc
00000290: ee67 4abe f203 96bb 03be f8bd 585d 85b9
000002a0: f915 063d 92ea 0dbe 4093 7e3c e7a8 7ebe
000002b0: ea4d c43c c5f4 f6bd 2541 7c3d 7794 48be
000002c0: 4904 cebd 3e34 5a3d 7729 febc 28fe a0bd
000002d0: 1041 09be 9946 813d 96b8 a4bd 014d c8bd
000002e0: abbc 413e 9cd8 b13d 2ff5 103d 08f7 99bd
000002f0: cfc2 d43c 19d9 523d 5424 2cbd 20d4 3b3d
00000300: c65c b03c 9c5f cabd 8fa1 55be 10aa 92bc
00000310: e9ed cf3d 0559 02be d2a1 e33d a5c7 35be
00000320: 6b11 8dbe 0a81 24bd 42b4 83be 09e2 193e
00000330: 46cb 123e b2bf 10bd 5da2 50be 1ca5 67be
00000340: 864d 143e d4dc 2ebe 5658 093d 48a3 32be
00000350: b0b2 4fbe 481d f9bd 8555 45be 3c51 24be
00000360: 496f bb3d 9aa4 dfbb d603 afbd a476 4fbd
00000370: 2ad8 db3d a8f7 1ebe ac16 43be 171d a6be
00000380: 1aae 37be 8235 1bbe 1bf1 d53d 6173 073e
00000390: 1af1 cc3d 2aea d1be 7389 963d f522 d9bd
000003a0: a10f 833a a4a0 6bbe c0b4 8e3d ed3b 3e3c
000003b0: b441 8b3d 7b74 5c3e 2ca5 ef3e 5b0b 34bd
000003c0: 1ab7 8d3d c4b8 45be 2eb8 20be bf40 2e3e
000003d0: 0ef6 5d3c 076c 9bbd f122 18bd 130f be3d
000003e0: 9993 6dbd 6eb5 393d 8b6d 213e 1afa 953e
000003f0: 3fa8 0ebf ada0 b8bc 8ed5 793e 7c02 cdbd
0.10362608 0.08090595 0.0070378277 -0.14755109 0.3312041 -0.13100481 0.004503165 -0.064532496
0.105640344 0.1165581 0.1972182 -0.14223659 0.07900099 -0.23783389 0.13925844 0.18700075
0.13077216 -0.11971814 0.1807235 0.09744513 -0.18157002 -0.13298249 -0.30413088 -0.157261
-0.05089911 0.008570008 0.05175388 -0.13093056 0.0028804734 0.05102024 0.32321638 -0.07553757
0.029270476 0.18298389 -0.07340589 -0.060757454 -0.055069983 -0.023515072 0.22194724 0.0104178265
0.095814206 0.0089369025 0.074579656 0.04776677 0.02864016 -0.12172697 0.028529838 0.031045279
-0.02722709 -0.02627022 -0.042533666 0.012088176 -0.028626788 -0.13444045 -0.15504807 -0.07017226
0.02924841 0.11655967 0.039802723 0.1316403 -0.051103868 0.22858447 0.14348799 -0.4885614
-0.028517934 -0.034982495 0.041093864 -0.0012697544 -0.26401526 0.073914744 -0.015011717 0.17608671
-0.057582248 0.059821405 0.03904993 -0.021326918 -0.006984315 0.15978284 0.04014871 -0.124902174
0.02981438 -0.06536937 -0.060479496 0.037124313 0.17406496 -0.07747653 -0.08682341 -0.04305265
0.102884784 0.09549473 0.05834595 0.3457708 -0.14992827 -0.2388805 -0.2061798 -0.14015213
0.21808559 -0.1388257 0.044133786 -0.031119186 0.24083999 -0.060553454 -0.0069180033 0.09025735
-0.1264812 0.39385524 -0.1090754 -0.061562743 0.071556315 -0.18330888 -0.3901428 0.20332864
-0.40770084 0.033966288 0.17585374 0.08212982 0.07155215 0.11832809 0.041140832 -0.23695554
0.029482378 0.09598056 0.05950033 -0.1820001 0.50894916 -0.20358507 -0.1506863 -0.13856189
-0.057445638 -0.13569726 -0.11325195 -0.05220058 -0.11499774 0.06246832 0.0053261113 -0.14513172
-0.023314042 -0.06920299 0.06811349 0.15555134 0.11919966 -0.040980656 0.11356279 0.029426375
0.07316468 -0.14437182 0.123677805 0.12713404 -0.064113446 -0.1313851 -0.12211372 0.043796603
-0.0064400346 -0.028202992 0.034419883 0.25942683 -0.25233096 -0.058461387 0.021061677 -0.12150064
-0.044252973 -0.010028998 0.11752151 -0.014879336 -0.19766209 -0.004578107 -0.12145617 -0.00025437283
0.0327358 -0.13859013 0.015538037 -0.24869119 0.023962934 -0.12058405 0.061585564 -0.19587885
-0.10059411 0.05327248 -0.031025631 -0.078609765 -0.13403726 0.063122936 -0.080430195 -0.09780312
0.18919627 0.08683893 0.035390075 -0.075178206 0.025971798 0.05147657 -0.042026833 0.045856595
0.021528613 -0.09881517 -0.20862411 -0.017903358 0.101528 -0.12729271 0.11114849 -0.1775194
-0.2755235 -0.040162124 -0.25723463 0.15027632 0.14335355 -0.035339065 -0.20374437 -0.22621578
0.14482698 -0.17076427 0.03353151 -0.174451 -0.20283008 -0.12163788 -0.19270904 -0.16046613
0.09152085 -0.006825042 -0.085456535 -0.050650254 0.107345894 -0.15524161 -0.19051617 -0.3244407
-0.17937508 -0.1515713 0.10446378 0.13227607 0.10006924 -0.40998966 0.07350435 -0.10602371
0.0009999165 -0.23010498 0.06968069 0.011610967 0.06799641 0.21528809 0.46805704 -0.043956142
0.069196895 -0.19308764 -0.15695259 0.17016886 0.013547434 -0.07588964 -0.037142698 0.09280219
-0.05800209 0.04533904 0.15764444 0.29292375 -0.55725473 -0.022537554 0.24397871 -0.100102395

model_2/conv2d_14/Conv2D f4 [48, 3, 3, 32]
00000000: 4ba8 88bc bb47 6dbd 7dc8 ee3c b505 873e
00000010: 912c 063e dff6 b3bd 7b84 cabc f8af 67bd
00000020: 71e2 f3bb 88c3 a4bc a702 15be 9886 933e
00000030: 9fc4 3fbd 51ea 203e 3482 4bbe 7ed5 1ebd
00000040: 55db 49be cf52 963d 27cb 21be 4387 62bc
00000050: f003 d4bc 7274 343e 16b8 e73d f523 6bbe
00000060: d3cb 85be 1a41 f1bd 06cc eebc 3742 813c
00000070: 3f97 df3d 0b58 48be 9194 49be 867b a6bd
00000080: 1149 f3bd edcd 51be 6c29 b6bd 30b8 583c
00000090: 83e7 ebbc 8792 013d 3d75 8a3e 2a64 1cbe
000000a0: 47c4 8e3e 1a6d 9cbd 4842 4e3e 7599 debd
000000b0: db55 0d3e a65d 6fbd af87 443c 325e f03c
000000c0: 7eff f8bb 4729 a63e 1423 e9bd 92b5 343e
000000d0: a44e 063e 1a3d 753c a980 b5bd 1a31 a5be
000000e0: 67ff 97bc dab8 b3bd 8123 0a3d dad6 ddbb
000000f0: 5aaa 12bd 2049 583e 86a4 36be 132f 033c
00000100: 9b94 0ebe e41a 313e 74b5 4cbe d8bd 833e
00000110: da27 013e 17a5 dfbd f43c 2bbe b0a0 9abd
00000120: 790b 92bd 9d71 493e 64f4 133e 0a8e 02be
00000130: 4f93 81be 670e f0bd 6844 bb3d fa08 63bb
00000140: ee29 babd f3c9 2bbe 213a 0cbe 56b1 103e
00000150: 300d 2cbe aee7 1ebe f9f2 fb3d dc1b 3b3d
00000160: 5f9a abbe 3821 e73c 507a 0dbd 43dd febc
00000170: 4a1f 8d3d 5715 0cbe bef8 333d 2ee7 3abd
00000180: d703 7bbd c9aa 84be 3b72 3bbd 39d8 2bbb
00000190: 4347 063e 2d5d 173e 8ec1 31be caaf 9d3d
000001a0: 2441 d3be 448c d93d 2582 613b c301 5e3e
000001b0: 98ed 4dbc e11c 473d 3dde 1fbe e1eb 423d
000001c0: 775c 013c 6bb9 16be 8598 03be 82de 413c
000001d0: 8f5a a73e f011 003e 7d2f 503e fcd6 733e
000001e0: 0a6c a2bd c25d 073e fdb5 2dbe d320 683e
000001f0: 7077 ddbb 3dfc 3b3e c43f 71be d10c 21be
00000200: 1f28 4d3d 211c a0be 7e68 a63d bc3d bf3b
00000210: 6d82 b4bc ee11 1b3e ab8e 2f3e 7b0f 44be
00000220: fa18 85be 8768 bb3b d297 8e3d ac38 a3bd
00000230: f7a0 00be a22e 26be 5aaf 79be fe5c 003e
00000240: 8895 c4bb ccd9 5c3d f3f7 88bd 4ecf 6cbd
00000250: a661 cbbd 5d74 54be 58da 0b3d 6900 593e
00000260: 0a3d 8c3c da81 0abd 08b5 75be 4579 92bd
00000270: 6a32 15be 6994 133d 8576 1ebe 41d7 43be
00000280: 8ab5 20bd 11d8 6b3d ac23 8e3c 3036 d23d
00000290: ef76 043e 2108 a3bc 31f2 69be 2158 dcbe
000002a0: dc74 4f3e e940 1bbd f1d3 33bd c341 dabd
000002b0: 0308 c5be 1251 74be bf87 f53b d80c 15be
000002c0: d674 f0bd 81cc ffbd 8616 683e de2b d7bd
000002d0: af4a 4a3d 3333 2ebd df40 983d dca9 7ebc
000002e0: 95a8 b4bc 4c0f 81bd b0fa 2a3e fde9 63be
000002f0: 5342 db3d 9fb3 23be 7d49 2b3d e635 2abe
00000300: 42de 85bb 2672 b9bd 0525 263e cef8 81be
00000310: d720 2cbe 9940 c43d b817 9bbd 3e40 87be
00000320: 47e3 edbd 19b6 a53d 0158 11be 2cce dc3b
00000330: 08d3 903d 2fe6 3dbd e0db b53d 30a1 573d
00000340: 8a8c 303d 17b8 853c 8ba4 38be c5ac 253e
00000350: 91b4 dc3d 62aa c9be 6a42 263e 78a3 343e
00000360: 13ad fe3d a37a 86bd 94c0 203e 74aa af3d
00000370: 2bd7 7c3d f20c c63d d897 65be 9ae9 81be
00000380: 5ca7 babe 0ecb f6bd f10b 2fbe f899 593e
00000390: 2b96 80bd 012e dd3c 13c2 82bd 80a5 11be
000003a0: de1d 7abd fe62 2e3d f052 63be 316e e9bc
000003b0: 192f aebd b02b 63be 01d1 cb3d 4ff8 8c3e
000003c0: 823a 30bc df02 46bd dcf0 48be 2f58 e1bd
000003d0: e751 ce3d 523d a9be 11a2 4d3a 13d7 59bd
000003e0: ba77 3b3e e449 58be 3ec6 ddbc 4e4b cb3d
000003f0: b2a8 273e f3f0 3bbd 2f31 003c 7c69 fabd
-0.01668181 -0.057929736 0.029148335 0.26371542 0.13102938 -0.08787321 -0.024721375 -0.0565643
-0.0074427654 -0.020112768 -0.14551793 0.28813624 -0.04681837 0.15714385 -0.19873887 -0.03877782
-0.19712575 0.07340013 -0.15800153 -0.013826194 -0.025880784 0.17622545 0.113144085 -0.22962935
-0.26132068 -0.11779995 -0.02915002 0.015778644 0.1091752 -0.19564836 -0.1968558 -0.08129029
-0.11879171 -0.2048871 -0.08894619 0.0132275075 -0.028796917 0.03163388 0.2704257 -0.15272585
0.27884123 -0.07637997 0.20142472 -0.10869113 0.13802283 -0.05843892 0.01199524 0.02934179
-0.0075988164 0.32453367 -0.11383644 0.17647389 0.13115937 0.014968181 -0.088624306 -0.32264024
-0.018554403 -0.08775492 0.033725265 -0.006769997 -0.03580699 0.21121645 -0.17836198 0.008006829
-0.13923876 0.17295414 -0.19991094 0.25730777 0.12612858 -0.1092016 -0.1672247 -0.0755018
-0.071310945 0.19672246 0.14448696 -0.12749496 -0.253077 -0.11721497 0.09143907 -0.0034642802
-0.09090029 -0.16776256 -0.1369405 0.14130148 -0.16801906 -0.15518066 0.12302203 0.045680866
-0.33516213 0.028214082 -0.034540474 -0.031111365 0.068907335 -0.13680016 0.04393839 -0.045630626
-0.06128296 -0.2591155 -0.045763236 -0.0026221408 0.13113122 0.14781637 -0.17358992 0.07699545
-0.41260636 0.10622457 0.0034409848 0.2168036 -0.012568854 0.048611525 -0.15612121 0.047588233
0.0078955805 -0.14719169 -0.1285115 0.011832835 0.32686278 0.12506843 0.20330615 0.23812479
-0.07930763 0.1321936 -0.16963954 0.22668771 -0.006758623 0.1835794 -0.23559481 -0.15727545
0.05008709 -0.3127146 0.08125399 0.0058362167 -0.022034848 0.15143558 0.17144267 -0.1914653
-0.25995618 0.0057192477 0.06962551 -0.07969794 -0.12561403 -0.16228727 -0.24383298 0.12535474
-0.005999271 0.053918645 -0.066879176 -0.05781489 -0.09930734 -0.20747514 0.034143776 0.21191563
0.01711895 -0.033815242 -0.23994839 -0.071520366 -0.14570013 0.036030207 -0.15474899 -0.19125082
-0.03923563 0.057579104 0.017350994 0.10264242 0.12935995 -0.019901337 -0.22846295 -0.43035987
0.20259422 -0.0379037 -0.043903295 -0.10657074 -0.38482675 -0.23859051 0.007492989 -0.14555681
-0.11741035 -0.12490178 0.22664842 -0.10506414 0.04938763 -0.042529296 0.07434248 -0.015543427
-0.022053042 -0.06301746 0.16697192 -0.22257228 0.1070601 -0.15986489 0.04181813 -0.16622123
-0.004085333 -0.09054975 0.1622506 -0.25385135 -0.16809402 0.095826335 -0.07572883 -0.264162
-0.11615615 0.08091373 -0.14193727 0.006738445 0.07071501 -0.0463621 0.088798285 0.052643955
0.04310278 0.016323132 -0.18031518 0.16179188 0.10776628 -0.39387804 0.16236272 0.17640483
0.12435355 -0.0656636 0.15698463 0.08577433 0.061728638 0.09670438 -0.22421205 -0.25373536
-0.3645581 -0.12050448 -0.17094399 0.2125014 -0.06278642 0.026999475 -0.06384673 -0.1422329
-0.06106364 0.042574875 -0.22199607 -0.028494926 -0.08505077 -0.22184634 0.09951974 0.27533194
-0.010756137 -0.04834258 -0.1962313 -0.11003148 0.100742154 -0.33054596 0.0007844279 -0.053183626
0.18307391 -0.21121937 -0.027072068 0.099264726 0.16372946 -0.045884084 0.007824226 -0.12227151

model_2/conv2d_15/Conv2D f4 [48, 3, 3, 48]
00000000: 5d26 96be 9a47 473e 4ca4 de3c 2533 853e
00000010: 3990 5f3d 23b7 6bbe ad7d 363d 7f22 19be
00000020: 85f6 4ebe c87d 083e 3103 483e f6c1 1dbd
00000030: d62c 313e 6479 a9be 29a4 c83d 3b44 fd3c
00000040: b31d b73d 87a0 2ebd 34f3 70be 903c cabd
00000050: 363c 3f3e 084f fcbc fa65 203e f6dd 8abb
00000060: 35c6 d3be d22c 83bd d8fb 263e aff2 41be
00000070: 1b9e 4cbe 6ce2 8bbc 19e1 4bbe 5941 023c
00000080: 2b7d b13d c4bf 603e 5986 05be 1c8a fc3d
00000090: 548e 44be 7878 aebd d51c f33d 1d9b bdbd
000000a0: 8da0 3a3c f84a 89be 63d2 cbbd e6cd 30bd
000000b0: 2299 bdbd a098 3abc afbd 96bd 50c1 98bd
000000c0: cd1b 16be 0663 423d 4d31 48bd 9546 3abe
000000d0: 44b0 62be 0edd 303e 55e5 593d f067 343c
000000e0: 8523 803a 7294 f9bc dd91 95bd e83e 6f3e
000000f0: 8d72 983d cbe5 623e b557 31be acd2 5fbe
00000100: 4231 303e b1a9 f73c a05d 8b3d c582 1e3d
00000110: a6ab a43d f552 f5bd 0162 b4bd ebe2 b23c
00000120: d50e 823e 5ebf 85bd 62e8 113e 8365 b03d
00000130: 8203 29be 584a f2bd 0572 8cbd 86e0 183d
00000140: ad16 b9bd 548d ffbd 9e52 6fbe 9b77 e33c
00000150: ed7e c8bd 2d81 71bd ffb5 243e 4fd3 043e
00000160: 1190 043e ef0f 0abb c8f2 993c 7bd2 20bc
00000170: a4ea bdbe 05c1 b43c 590a 4abe d42c 433d
00000180: a44a c63c d41c 82be 5252 dabe 8ff0 e3be
00000190: aad7 89be d73d e0be 25ce 7fbe 73c5 193d
000001a0: becb 413d 10b9 9abc 054b abbd 23c6 06be
000001b0: 5d2f 6fbe f48d a8bc c875 7a3e 43eb 3fbe
000001c0: cadf 9f3d 6b5f 75be e1eb c03d 464f 5abe
000001d0: 55b1 283d 381f 69be bfb4 bebd bb08 e9bc
000001e0: 2c35 a7bd ab19 64be 452d b1be f22b c1bc
000001f0: d058 87bc e62e d9be 43bf 4ebe 2f73 0abe
00000200: 78fb d13d 24b7 6bbd 0dd3 0fbe 3a37 5dbe
00000210: 0139 be3d 4bf4 87bc f773 3b3c 364f 95bd
00000220: 95ef 343d c072 f0bd 571e 23be c903 50be
00000230: 26c9 64bd ce9a 813d cbb8 d4be 0f35 1c3d
00000240: 7805 92be 7a03 85be 748b acbe 3049 803c
00000250: f009 5fbe 3b89 243d 2571 0fbe ba3c 07be
00000260: 81fc 1b3e ddbb 04be d883 99bd 1b8e 4d3e
00000270: 53ae 7e3e 70e7 a33d 4f2b d8bd 8c8e e0bd
00000280: e3c2 fbbc f684 99bd 5cf7 5f3d b5e2 d43d
00000290: 84fa 603e 290a c0bd fca8 df3d 1d47 513d
000002a0: 3d50 e2bc 742c 103e 4a27 343d 714f 223e
000002b0: ecc6 2cbd 915c c4bd 5441 22be 26d6 bf3e
000002c0: fbb6 7e3d eeaa 523d 2fd2 b53d b2ea 80be
000002d0: 97fb 703d 8370 5f3d fa55 b3be 569b 113e
000002e0: c58b 3cbd a704 38be 01b8 db3d cacb 2e3d
000002f0: e3c2 f6bd 0840 083e 7e61 a83d 5b4e 503e
00000300: 0746 04bb b31a 6c3c 7f51 32be 6b4a 923d
00000310: 51c1 313e 1f23 af3b bcfd e2bd d94a 18be
00000320: 1744 1a3e 8cbd b2bc d39f 5a3d 58ba a5bd
00000330: 6cad d43d 1964 863d c87b f53c ea5e 0dbe
00000340: f469 d83d 0333 ccbc 6669 7b3e 23fb 813e
00000350: cbd8 d63d 6c83 3ebe 44ca 22bd 718f 113e
00000360: 8b00 38be fa62 423d 2644 9c3d c4e4 8b3b
00000370: 8bb7 41be 9926 d4bd fe57 9bbd d957 a23d
00000380: 548e 2cbd 5ef4 62bd 9f0d 393e 632c a9bc
00000390: 9098 c43d a821 0e3e a402 a43d 5773 09be
000003a0: 6c4c 63bc 6d48 d43d 9e7a 213e 7c55 fe3b
000003b0: f2fe 423e e6c2 9b3e 2469 febc b734 083d
000003c0: a806 a03d 2fee ebbd 347b a73d db8a 02be
000003d0: 86bf 1ebe 1390 69bd 58c0 bbbd 6a30 6cbd
000003e0: 5d85 c23d b254 583e c86e 403c 259c 38bd
000003f0: c59e 66be 4f48 0dbe b20a aabe 94c9 b13d
-0.29326144 0.19460908 0.027177952 0.26015583 0.0545809 -0.2301908 0.044553448 -0.14954565
-0.20211227 0.13329232 0.19532467 -0.038515054 0.1730226 -0.33100426 0.09796936 0.030916324
0.089412116 -0.04263356 -0.23530275 -0.09874833 0.18675312 -0.030799404 0.15663901 -0.0042378856
-0.41362157 -0.06405033 0.16307008 -0.18940233 -0.19982187 -0.01707574 -0.19910087 0.00795015
0.08666452 0.21948153 -0.13039531 0.1233103 -0.19194919 -0.08519071 0.11870734 -0.09258101
0.011390817 -0.2681501 -0.099522375 -0.04316511 -0.092577234 -0.011388928 -0.07360398 -0.074587464
-0.14659043 0.047457717 -0.048875142 -0.18190987 -0.22137552 0.17271826 0.053197224 0.011011109
0.0009776211 -0.030466292 -0.07303212 0.2336384 0.07443724 0.22157972 -0.17318614 -0.21857709
0.1720629 0.030232282 0.06804967 0.03869893 0.08040552 -0.119787134 -0.08807755 0.021836719
0.2540194 -0.06530641 0.14248803 0.08613112 -0.16505244 -0.11830586 -0.06857685 0.037323497
-0.09037528 -0.12478128 -0.2337136 0.027766993 -0.09789834 -0.058961082 0.16085051 0.12971233
0.12945582 -0.0021066626 0.018792525 -0.009815807 -0.3709308 0.022064695 -0.1973051 0.047650173
0.024205513 -0.2541262 -0.4264093 -0.4451947 -0.2692235 -0.4379718 -0.24980982 0.037541818
0.047313444 -0.018887073 -0.08363918 -0.1316152 -0.23357911 -0.020575501 0.24458992 -0.18742089
0.07806356 -0.2396218 0.0941999 -0.21319303 0.041184742 -0.22765815 -0.09311818 -0.028446546
-0.081644386 -0.22275417 -0.3460485 -0.023580525 -0.016521841 -0.42418593 -0.20190148 -0.13520502
0.10253042 -0.057547703 -0.14045353 -0.21603099 0.092882164 -0.01659598 0.011441222 -0.07290499
0.044173796 -0.11740637 -0.15929542 -0.20313944 -0.055855893 0.06328355 -0.41547236 0.038136538
-0.28519797 -0.25979215 -0.33700144 0.015659899 -0.21781135 0.040169936 -0.14008005 -0.13206759
0.15233041 -0.12962289 -0.0749585 0.2007374 0.24871187 0.080031276 -0.105551355 -0.10964689
-0.030732578 -0.074960634 0.05467926 0.103948034 0.21970564 -0.09376938 0.10920903 0.05109321
-0.027626151 0.14079458 0.04398278 0.15850617 -0.042181894 -0.09587968 -0.15845233 0.3746807
0.062186223 0.051432543 0.0887798 -0.25179058 0.058833685 0.05455066 -0.35026532 0.14219412
-0.046031732 -0.17970525 0.10728455 0.042674817 -0.120488904 0.13305676 0.0822172 0.2034239
-0.002018334 0.014410662 -0.17413901 0.071431 0.173589 0.005344763 -0.11083552 -0.14872302
0.15065037 -0.021818899 0.053375077 -0.08092183 0.1038464 0.06562061 0.02996625 -0.13805738
0.10567084 -0.024926668 0.24551925 0.25386915 0.10490569 -0.18604821 -0.039743677 0.14214875
-0.17968957 0.047457673 0.07630186 0.0042692143 -0.18917672 -0.103589244 -0.075851426 0.07926912
-0.042127922 -0.055408828 0.18071602 -0.020651048 0.095994115 0.13880026 0.08008316 -0.13422905
-0.013873201 0.103653766 0.15769431 0.0077616554 0.19042566 0.30422133 -0.031055994 0.033253398
0.078137696 -0.11520039 0.08177796 -0.12748282 -0.15502748 -0.057022166 -0.09167546 -0.05766336
0.09498093 0.21126059 0.011745162 -0.045070786 -0.22521503 -0.13797115 -0.33211285 0.08681026

model_2/conv2d_16/Conv2D f4 [64, 3, 3, 48]
00000000: 16e4 a73d 668f f6bd e1b4 293d 18f6 923e
00000010: e210 3b3d c869 34be f5a3 943d 7d25 8abd
00000020: c875 7d3d 948f 063e 159e bebd 6ec4 0ebd
00000030: 9ef6 063e 49f9 f63b 2b59 ff3d 0a99 eebd
00000040: b73d cbbc 6aa0 643c c736 60bd 62c0 06be
00000050: 8fe2 0abe 41af 343e 0c21 a33d e2a8 11be
00000060: 34e0 ed3d 7d0d 713e 18d9 783d 517a 5c3e
00000070: bcaf 863b ae79 3c3e 01d9 b2bd eb82 88bd
00000080: 7c5c aabb cec6 9c3e e0a1 4abe 79b6 903d
00000090: 20d4 6a3c e9ef 413d 1149 ba3c f8dd a5bd
000000a0: 3cd3 b53d a5e3 5bbe 2bbf a5bd b01d cfbc
000000b0: 5cae 893c 3275 27bc d994 8dbc 808d 383e
000000c0: 057a b9be cac6 c33d 637b 81be 86f1 5b3d
000000d0: 7f0c 093a b87d abbd 4511 d93d 72c4 cabe
000000e0: 3ba9 413c 2b81 4b3e e5df 0f3e db24 1fbe
000000f0: c09f 2c3e 9089 4bbc 9a7d 703e bee1 55bd
00000100: 25d5 263d 9eae 253d de21 6fbd 994e dabd
00000110: 9914 26bc 34b6 a7be 0ae4 e73d d6b1 9e3d
00000120: 411f 9e3b b0e3 013e 8a63 2e3d 6669 033e
00000130: dfb8 093d 5328 0c3c b8a3 0b3e d591 27bd
00000140: 31c7 87bd 2316 e93c b8bb ccbd a77d ea3d
00000150: 15cc 803c 1688 23bc c9f0 a4bd 0b2f d13d
00000160: d27c 26bd ced1 593e af66 c33d 0037 423e
00000170: 84eb 833e af78 243e d365 223d befb 51bd
00000180: ac0b 7bbb 3a11 5abd 0ec3 8dbe 06e7 bcbd
00000190: 4fdf 57be 04fc cc3c 6a7c 32bd 1794 f63d
000001a0: 2813 07be c06f bb3d c45f c93d a82b 82bc
000001b0: c12a d7be 8b81 e4bd 971e 573d 572b 053d
000001c0: e630 8dbd a3b7 0fbe c8aa 2b3e eee8 d23d
000001d0: d5b5 063e 1bcf cb3e 3be3 5fbd 5bac 53be
000001e0: 989a 2d3d 9cd2 ddbd 6766 2d3d a3ba ec3d
000001f0: 674c f83d 8a3a 2b3c ba62 ca3d e829 093d
00000200: e8fa c3bd eab3 1dbd 84ca 4abd 59ed b3bc
00000210: e2ec 433b edb8 7e3d d038 a83d 9fd2 80be
00000220: d889 243e 5b0a 793c e863 143e 1058 b43d
00000230: cc87 68be fcd4 1f3e 5922 6ebe a398 443d
00000240: e7b8 5c3e a5dd 6dbc 2f7f 33bd 6097 e9bc
00000250: 7884 a83d 099a 1a3c 1bc4 2dbb f378 0f3d
00000260: ee07 e0bd 75c8 b3be d4da 843d e8a3 a6bc
00000270: 1457 03be 4d5b 2a3d 5094 85bd 0563 29be
00000280: 5786 f0bc 7805 d4bd 65d7 8c3d c2b5 32bd
00000290: aba4 52bd 8719 12bd 94c6 c1bd 126e 143d
000002a0: 291b 683d b82d 2cbd 3a1d 51be c416 57be
000002b0: 84e4 dcbd 9bdb 443e 6b38 96be d6f9 123e
000002c0: d492 9bbc a00c 26bd 44c4 b0bd 5c98 81be
000002d0: bc4a ff3c de5d debc aaac 4abe 3a83 4dbe
000002e0: e10e 42bd 80fa 29be f587 a1bd 7241 7fbe
000002f0: 797b 3a3d 3b85 503e b1a6 d8bd 78fd e1bd
00000300: 8db8 e5bc 6ca2 0f3e 8f08 b7bd 16cc 713c
00000310: ef96 91bd 34b8 003d 0e2c 75bd c297 1d3d
00000320: 4c33 513d d55c 0a3c 491e aebe 1666 92bc
00000330: 3fdf 7ebd 1a36 e53d 39f0 5a3e f55f 0abf
00000340: ccb9 03bd a5c5 a9bd e4d3 93bd 8d43 84be
00000350: 0c8c 19be 2b43 b03d f339 3ebd 60aa b43d
00000360: 264c d3bd 9bda e6bc a43f 29b8 ddcb 713d
00000370: 0cf8 b53d 0a9d 813b 684b d53c ce1b 53bd
00000380: db7f 45be 4cd8 7ebd b758 af3c a631 713c
00000390: 6cf9 64be 435b 27bc 2357 e53c 04a3 09be
000003a0: de4f 02bc 0356 873c 98b8 55be ae2e 453d
000003b0: 22ae 3cbd 6ac6 443e ea0e 47bd 5924 163e
000003c0: 9308 efbd 04e4 733e 2b90 903c 17ec a23b
000003d0: bb88 4dbe 7c49 e23d 92a2 7c3b f45a 91bb
000003e0: a83d 12bc a547 913d 81f6 fa3c 8d7b acbd
000003f0: 377a d4be 7a6a 8dbe b47b 113e 0bba fc3d
0.08197801 -0.1203907 0.041432265 0.2870338 0.045670398 -0.17618477 0.07257835 -0.067454316
0.061879903 0.13140708 -0.093074955 -0.0348553 0.13180014 0.0075370413 0.12468179 -0.11650284
-0.024809701 0.013954261 -0.05473974 -0.13159326 -0.13562988 0.17644979 0.079652876 -0.1422458
0.11615029 0.23540302 0.06075391 0.21531035 0.0041103046 0.18405792 -0.087327965 -0.066655956
-0.0051990133 0.30620426 -0.19788313 0.07066054 0.014332801 0.047347937 0.022739919 -0.08098978
0.088781804 -0.21473558 -0.08093103 -0.02528271 0.016806774 -0.010220813 -0.01728289 0.18022728
-0.36225906 0.095594004 -0.2528945 0.05369713 0.00052279973 -0.08373588 0.10598997 -0.39603
0.011820133 0.19873492 0.14050253 -0.15541403 0.16857815 -0.012422934 0.23485413 -0.052217238
0.040730614 0.04044973 -0.058381908 -0.106595226 -0.010136747 -0.32756197 0.11322792 0.07748763
0.004825503 0.12684512 0.042575397 0.12833175 0.033623572 0.008554536 0.13636672 -0.04091056
-0.066297896 0.028452938 -0.09996742 0.114497475 0.015722314 -0.009981176 -0.080537386 0.10214051
-0.04064638 0.2127144 0.0954107 0.18966293 0.25765622 0.16061662 0.03964789 -0.05126547
-0.0038306518 -0.053239085 -0.27687877 -0.09223752 -0.21081279 0.025022514 -0.04357568 0.12039965
-0.13190901 0.09152174 0.09832719 -0.015889958 -0.42024806 -0.11157521 0.052519407 0.032512035
-0.06894092 -0.14034896 0.16764367 0.10298334 0.13155301 0.39806446 -0.054660063 -0.20671217
0.04238376 -0.10831186 0.042333987 0.11559036 0.121239476 0.0104509685 0.09882112 0.03348723
-0.09569341 -0.038501658 -0.04950954 -0.021963762 0.0029895832 0.062188078 0.08213961 -0.2516069
0.16068208 0.015200223 0.14491236 0.08805859 -0.22708052 0.15608591 -0.2325529 0.04799713
0.2155491 -0.014518176 -0.043822464 -0.028514564 0.082283914 0.009436139 -0.0026514593 0.035027456
-0.109390125 -0.35113874 0.06487051 -0.020341828 -0.12826186 0.041590977 -0.06522429 -0.16541679
-0.029360933 -0.103526056 0.06877021 -0.04363037 -0.05142657 -0.035668876 -0.09461704 0.036237784
0.056666527 -0.04203579 -0.20421305 -0.21004778 -0.107857734 0.19224398 -0.29339918 0.14353117
-0.018990912 -0.040539384 -0.08631185 -0.25311553 0.031163566 -0.027144369 -0.19792429 -0.2006959
-0.04737747 -0.16599464 -0.0788726 -0.24927309 0.04552791 0.20363323 -0.10578669 -0.110346735
-0.028042102 0.14026803 -0.08937179 0.014758131 -0.071088664 0.03142567 -0.059856467 0.038474806
0.05107431 0.008444984 -0.3400748 -0.017870944 -0.062224623 0.1119196 0.213807 -0.5405267
-0.03215961 -0.08289651 -0.07218149 -0.25832787 -0.1499483 0.08606561 -0.046441983 0.08821559
-0.103172585 -0.028180411 -4.035201e-05 0.05903231 0.08885202 0.003955488 0.026036933 -0.05154019
-0.19287054 -0.062217996 0.021404607 0.01472131 -0.22360772 -0.01021463 0.027995652 -0.13441092
-0.007953612 0.016520506 -0.20871198 0.04814022 -0.046064503 0.19216314 -0.048598208 0.14662303
-0.11671557 0.2381745 0.01764687 0.0049719918 -0.2007169 0.11049172 0.0038549048 -0.0044358913
-0.008925833 0.07093743 0.03063512 -0.08422003 -0.41499493 -0.27620298 0.14207345 0.123401724

model_2/conv2d_17/Conv2D f4 [64, 3, 3, 64]
00000000: 20ec d0bb a83f 1f3d 0052 5ebb 2cb3 20bc
00000010: 2010 d7bb 6601 71bd b9b1 55bd 14de 95bc
00000020: 04f6 8a3d 52db 00bd b833 073c 3c3b fd3c
00000030: 8037 34bb 8062 753d 0000 733d 84b1 7a3d
00000040: f07d 443c 7fe3 7ebd 00a0 7bba 40d2 7abb
00000050: c938 85bd b09c f9bb 18c7 7dbd b091 dabc
00000060: a8d6 e83c 1c99 d0bc 64d5 eabc e055 643d
00000070: 88bc 3ebd f092 b73c 8438 6d3d 8ac7 43bd
00000080: ff28 68bd e507 3ebd 603d 6a3b 16c4 183d
00000090: 80b4 7e3d 60af 19bc 0019 6b3d 06bf 58bd
000000a0: 88e2 a7bc 08f1 813d aa38 123d 2516 08bd
000000b0: b433 63bc cc10 15bd a008 8dbb ca4a 50bd
000000c0: daaa 833d 5c9a 72bc 3035 4c3d 4ad5 8e3d
000000d0: 401a 9d3b bebf bebc d29a 01bd 94d5 abbc
000000e0: 2066 febb c4ee 2abd 70b2 1cbc 1427 abbc
000000f0: 3278 64bd 147f 3bbd 76e9 75bd ead0 8fbd
00000100: e012 83bd 0cb6 e33c 2057 193d 9095 963c
00000110: 3cf9 7ebd f074 f03b 5828 7abc 563c 523d
00000120: 9c5b 103d d89b 7c3c 3ca0 47bc d05b e5bb
00000130: 3c82 91bd edb2 4bbd 14e1 493d eba6 8dbd
00000140: 2eb3 803d a098 023d 46ec 81bd d666 13bd
00000150: 305f fe3c e89d 333c 0060 8fba 38a4 7d3d
00000160: 81a3 53bd 347e 663d 60fc 80bd 3433 143d
00000170: d843 a23c 4c56 ac3c 001a b7ba 20ef e7bb
00000180: b4d0 3cbd 6d78 5cbd 5e87 15bd 2cf7 7a3d
00000190: 8ec2 513d bf6f 8fbd daa1 12bd 8c98 e0bc
000001a0: e2b8 87bd d87b 5c3d e4a6 613d 1e93 1e3d
000001b0: dc5f 4c3d 6ce1 7fbd 76fc 75bd ce4a 363d
000001c0: a81c c33c eed2 e2bc c02d bebc 2e40 33bd
000001d0: 8afd 8bbc 905e 833d 40e4 6c3b 1616 363d
000001e0: 3083 38bc 210c 37bd 3e89 11bd 885a 35bc
000001f0: b871 e03c 6473 abbc b2dd c2bc 4c58 87bd
00000200: 6c9a e0bc 7afe 74bd 3098 4cbd d048 a43b
00000210: 522c 22bd e83a aa3c d040 bb3b d646 063d
00000220: b8e4 e03c ea2c 87bd 0ea3 373d 7a81 393d
00000230: d0f9 32bd ec98 933d 2102 32bd a883 183d
00000240: 4062 e8ba 20e2 f9bb e0a0 1a3c 2063 193d
00000250: 9010 e53c a7cc 32bd f488 a43c d28b 44bd
00000260: ead1 58bd e613 2d3d 6030 663d 8cff a93c
00000270: a803 8d3d b2e1 06bd c6cf 453d 6c47 aabc
00000280: 1296 2d3d 2c0d 763d 845f d23c c095 7cbb
00000290: 9600 1f3d 5815 803c dac4 8d3d 043d 813c
000002a0: 16f9 133d 2851 183d 3e36 6fbd 5cc1 7fbd
000002b0: b069 313d 36d6 c1bc b033 753c a0d3 59bb
000002c0: 3e59 a0bc 7cae 9d3c 90de 463d f0c1 363d
000002d0: 7c98 76bc e8bd 793d 97a1 1dbd 1e4b 8cbc
000002e0: 6780 86bd 6c58 463d a875 7d3d 4ca6 c53c
000002f0: 496f 4cbd fe02 123d 6ea7 143d 300b 2b3c
00000300: a0ac c8bc e42c 33bc 0e2e 093d 50df 7b3d
00000310: 16ed 74bd 0c53 fdbc aad4 8b3d 04fa be3c
00000320: 8aff 70bd c858 04bc ccde 6d3d d367 8dbd
00000330: eb40 68bd a893 16bc 8c7c 693d 40f8 6dbb
00000340: c480 53bc de98 8fbd 1c00 743d d67e 7dbd
00000350: 88ae 6f3d 5833 5ebd a2fa 0bbd cc2b a7bc
00000360: 3c78 1cbd 249e c53c 40cc e93a aa29 9fbc
00000370: 1ad7 68bd 3c7e 243d 80ac b43c 688f 3dbd
00000380: 2860 d3bc 88f3 703c e02e b5bc 0266 2ebd
00000390: 7e68 27bd e8ff f43c 5c57 8cbd f024 f43c
000003a0: 40e5 9fbb 745d 27bc f0cc fa3b daa9 913d
000003b0: 201a 8bbb 7c33 413d 3a8b f9bc 889f d0bc
000003c0: d89d d63c 78f4 ca3c 8550 93bd f016 ef3b
000003d0: e073 453b 60cd 28bc f19d 65bd b44b 7e3d
000003e0: 705d 553c e8b3 51bd 1055 743d 883d 85bc
000003f0: b80d 22bc f019 903c 602c aa3b fc54 7cbc
-0.0063758045 0.038879067 -0.0033923388 -0.009808343 -0.0065632015 -0.058839224 -0.052171443 -0.018294372
0.06785205 -0.03145916 0.008252077 0.030912034 -0.00274989 0.05990839 0.059326172 0.06120445
0.011992916 -0.062228676 -0.0009598732 -0.0038272291 -0.065049715 -0.0076175556 -0.06195745 -0.026680797
0.028422669 -0.025463633 -0.028666206 0.05574596 -0.046566516 0.022408932 0.057915226 -0.047797717
-0.056679722 -0.046394248 0.0035742149 0.037296377 0.062183857 -0.009380192 0.05739689 -0.05291655
-0.02049376 0.06344801 0.03569857 -0.033224244 -0.013867307 -0.036392972 -0.0043040067 -0.050852574
0.06429072 -0.01480731 0.04985541 0.069742754 0.004794389 -0.02328479 -0.03164179 -0.020975865
-0.007763639 -0.04173161 -0.009564027 -0.020892657 -0.05577869 -0.045775488 -0.0600371 -0.07022269
-0.064000845 0.027796768 0.037436604 0.018381864 -0.062249407 0.007338159 -0.015268408 0.051327072
0.035243616 0.015418015 -0.012184199 -0.0069994703 -0.07104918 -0.049731184 0.049286917 -0.06916603
0.06284176 0.031883836 -0.06343894 -0.035986744 0.031051248 0.010962941 -0.0010938644 0.06192419
-0.0516696 0.0562727 -0.06298137 0.036181644 0.019807741 0.021037243 -0.0013969541 -0.0070780665
-0.046097472 -0.053825784 -0.03650605 0.061270878 0.051210932 -0.07003736 -0.035798885 -0.02741649
-0.066270605 0.053829044 0.0550908 0.03871452 0.049896106 -0.06247084 -0.06005522 0.044504933
0.023817375 -0.02768847 -0.023215175 -0.04376238 -0.01708867 0.06414521 0.003614679 0.044454657
-0.011261746 -0.0446893 -0.035531275 -0.011068948 0.027397975 -0.020929046 -0.023787353 -0.06608638
-0.027417384 -0.059813 -0.049949825 0.0050135627 -0.03959305 0.020780042 0.0057145134 0.0327824
0.027452812 -0.066003636 0.044833235 0.045289494 -0.04369527 0.07206902 -0.04345906 0.037234932
-0.0017729476 -0.007625833 0.00943777 0.03744805 0.027962 -0.043652203 0.020084836 -0.047984906
-0.052934565 0.042255305 0.056198478 0.020751737 0.06885463 -0.032930084 0.04829385 -0.02078601
0.042379446 0.060071155 0.025680311 -0.0038541406 0.03881892 0.015635177 0.06922312 0.015776165
0.03612622 0.03718677 -0.05840134 -0.06244026 0.043313682 -0.023661714 0.014965937 -0.003323771
-0.019573804 0.01924824 0.048552096 0.044618547 -0.015051004 0.060972124 -0.038484182 -0.017125662
-0.065674596 0.04842417 0.061879784 0.024127148 -0.049910817 0.035647385 0.036292486 0.010439679
-0.024496377 -0.010935996 0.033491187 0.061492264 -0.059796415 -0.030923389 0.06827672 0.023312576
-0.05883745 -0.008077808 0.058073804 -0.069045685 -0.056702536 -0.009190477 0.057003543 -0.0036311299
-0.012909118 -0.07011579 0.059570417 -0.06188854 0.058516055 -0.054248184 -0.03417457 -0.020406626
-0.038200602 0.024123259 0.001783736 -0.019429047 -0.05684576 0.04015945 0.02205491 -0.04627934
-0.025802687 0.0147065 -0.022117078 -0.04257775 -0.040871136 0.029907182 -0.068526 0.02980277
-0.0048796237 -0.010215152 0.007653825 0.07112475 -0.0042450577 0.04716824 -0.030461896 -0.025466695
0.026198313 0.024774775 -0.07193092 0.0072964355 0.0030128881 -0.0103028715 -0.056058828 0.062083915
0.0130227655 -0.051196963 0.059651434 -0.016264692 -0.009890966 0.017590493 0.005193278 -0.015401121

model_2/dense_2/BiasAdd/ReadVariableOp f4 [100]
00000000: a07f 313e 649c a83d 49b7 483c cfc3 e9bd
00000010: 8e09 3dbe 3c3e 41be 2e6d b2bd 39fe c63d
00000020: b29f babd 0743 efbd 943d 973c 6615 48bc
00000030: 158d 793e 99d1 d73b 1b7d 0dbe 99f5 2cbd
00000040: 24c9 813d a5fe 1ebe f56c 1b3e a659 8d3e
00000050: afa3 57bd 908f 86be e981 b23c d8bf bb3d
00000060: f34c 15bd b7a3 133e be89 babd 08b4 90bd
00000070: c661 40be cea3 e5bd aca1 fabb 29a9 163e
00000080: d815 763d 5b2e c33c 6fcf cdbd 1fe2 3fbe
00000090: 0a53 fbbd de2b 663d a325 1ebd 038c b0bd
000000a0: cce3 493e 5c51 40bd 5303 743d 0700 95bd
000000b0: 6894 7c3c 76c6 0e3e 4d5f 0fbb 3e1a f53c
000000c0: 95c2 8cbd 1a1f 96bd d780 5c3e 131d 04be
000000d0: 9ae6 31bc 7ba8 0bbe ef6d 143e 62a4 8fbe
000000e0: f3eb 023e 4ea5 c039 25ef 26bc 4615 073e
000000f0: 4a2c 12be 41dc 6dbd 7de0 5abd 0093 f23d
00000100: e96e 293e 24b0 503d 448b 223d 433e 5dbe
00000110: 2f73 bebd 8fac 40be 8081 a13c 5986 e83c
00000120: e7f3 51be d254 eabd bcb6 3dbd 1507 0b3d
00000130: d402 52be 912c 1cbe 23ad 1e3e e6c2 01bd
00000140: 98e6 b53c ecf5 80bd 6bc7 afbd b1e0 c93d
00000150: 3d34 cfbd b1d3 31be 76aa 70bd 52ca 253d
00000160: 1f8f 083e 989c 6fbd a376 0ebe 19d7 f63d
00000170: 870d 433d 703d 283d d2c7 43bd e70c e43d
00000180: 4a96 673c 032f 9d3c 6c92 06bc 3862 333c
0.17333841 0.08232954 0.01225073 -0.11414301 -0.18460676 -0.18871397 -0.087122306 0.09716458
-0.09112491 -0.11682706 0.01846198 -0.012212133 0.24370225 0.0065862653 -0.13817255 -0.042226408
0.06337193 -0.15526827 0.15178283 0.2760746 -0.052646335 -0.26281404 0.021790462 0.09167451
-0.036450338 0.14417921 -0.091083035 -0.07065588 -0.18787298 -0.11212884 -0.0076486673 0.14712967
0.060079426 0.023825815 -0.100493304 -0.18738602 -0.12271698 0.05619418 -0.038610112 -0.08620455
0.19715804 -0.04695259 0.059573483 -0.07275396 0.015416242 0.13942894 -0.0021876872 0.02991974
-0.06873051 -0.07330151 0.21533523 -0.12901716 -0.010858202 -0.13638489 0.14495061 -0.28055102
0.1278532 0.00036744255 -0.010188852 0.13191709 -0.14274707 -0.05807138 -0.053436745 0.11844444
0.16546215 0.05094923 0.039683595 -0.21605782 -0.09299313 -0.18815826 0.01971507 0.028384374
-0.20503198 -0.114419594 -0.046316847 0.0339423 -0.20508891 -0.15251376 0.15495734 -0.03168001
0.022204682 -0.06296906 -0.08582958 0.098573096 -0.101173855 -0.1736591 -0.058756314 0.04047615
0.13335846 -0.05849895 -0.13912444 0.12052745 0.047620323 0.041074216 -0.047797985 0.111352734
0.014134953 0.019187456 -0.008213621 0.01094871

model_2/batch_normalization_14/FusedBatchNormV3 f4 [3]
00000000: 379a ac3c 0616 963c 8383 163c
0.02106963 0.018321048 0.009186628

model_2/batch_normalization_14/FusedBatchNormV31 f4 [3]
00000000: 1aac 33c0 eda1 18c0 ba5f 85bf
-2.8073792 -2.3848832 -1.0419838

model_2/batch_normalization_15/FusedBatchNormV3 f4 [32]
00000000: d266 cb3f 4b94 a23f ded4 953f 9c91 f73f
00000010: 81a3 aa3f f48a a83f e265 ad3f 7ef0 1240
00000020: 230d 3140 4945 783f a001 1740 9ffa ba3f
00000030: e2eb fb3f 42c2 e53f 72a9 0640 2da4 9e3f
00000040: 8aca da3f 040b c03f de96 1140 d6ec 1540
00000050: 01f4 a53f b91a 0340 1fbc f83f 2e2e df3f
00000060: 3f76 d53f 20fb c03f 43db 4240 4778 0040
00000070: 0a08 b63f e32e 413f dcdf 0c40 6f5d 403f
1.5890753 1.2701505 1.1705587 1.9341311 1.3331147 1.3167405 1.3546717 2.2959285
2.7664268 0.9698072 2.3594742 1.4607733 1.9681361 1.7949908 2.1040921 1.2393852
1.709306 1.5003362 2.2748332 2.3425803 1.2965089 2.048506 1.943241 1.7435968
1.6676711 1.5076637 3.0446327 2.0073411 1.4221203 0.7546217 2.2011633 0.7514257

model_2/batch_normalization_15/FusedBatchNormV31 f4 [32]
00000000: baf5 3fbf 2d4b 82bf 700d 5fbf e092 3fbf
00000010: 1de7 00bf 10d3 50bf d43b 81bf 1405 81bf
00000020: 4866 51bf 0ed2 42bf d9d7 4dbf 1e94 6bbf
00000030: fb3d 68bf 7615 97bf 9a9d a8bf d6db 47bf
00000040: 2e81 61bf 6293 09bf aa2a 4bbf 5c2f 73bf
00000050: e658 7fbf 4a1b 47bf 9ad7 7bbf 0210 4bbf
00000060: c151 66bf ce38 7cbf c760 3abf 173b 8abf
00000070: 82f4 69bf 32f0 42bf 062f 64bf 7884 c7be
-0.74984324 -1.0179192 -0.8712988 -0.7483349 -0.5035265 -0.81572056 -1.0096383 -1.0079675
-0.81796694 -0.7610177 -0.8040748 -0.92022884 -0.90719575 -1.1803424 -1.3173096 -0.7806982
-0.8808774 -0.53740513 -0.79361975 -0.9499414 -0.99745023 -0.77776015 -0.98375857 -0.793213
-0.89968497 -0.9852418 -0.7280392 -1.0799283 -0.91388714 -0.7614776 -0.8913425 -0.38968253

model_2/batch_normalization_16/FusedBatchNormV3 f4 [32]
00000000: 3ea5 033f 45ad a23e b0dc a63e 8bde a13e
00000010: 4d42 c73e f13f ba3e 3c12 963e 1123 b03e
00000020: c2e1 a93e c5a5 913e f0fc c83e 4a67 8c3e
00000030: b8a3 9c3e a8a1 673e 705e de3e de1b 8e3e
00000040: e4dd 8b3e 226e a63e b953 863e 2e93 a73e
00000050: b53a 913e a0bf 9a3e 12db 853e fc5c 8e3e
00000060: b2fd 003f db36 8e3e a75f 943e 46ce bb3e
00000070: 1e3a 9f3e 9769 9b3e 558c 943e 1188 af3e
0.51424015 0.3177282 0.32590246 0.316151 0.3891777 0.36376908 0.29310787 0.34401754
0.33180052 0.28446785 0.39255476 0.27422553 0.30593657 0.2262026 0.43431425 0.27755636
0.27317727 0.325059 0.2623575 0.32729477 0.28365102 0.30224323 0.261437 0.27805316
0.5038711 0.27776226 0.28979227 0.36680812 0.31099027 0.30353996 0.29013315 0.34283498

model_2/batch_normalization_16/FusedBatchNormV31 f4 [32]
00000000: 6c78 bbbe 1ee7 ddbe 067a d6be 0b98 08bf
00000010: cc55 d9be db66 9dbe 553b 1abf 4008 15bf
00000020: c1d8 b8be ca98 01bf cc14 febe 5305 0cbf
00000030: 10d3 3abf d067 07bf 3a50 3bbe 9a67 40bf
00000040: 3513 5dbf 87f2 03bf 8c30 3abf 20db 7fbe
00000050: f043 4bbf e2a1 24bf 1466 11bf e271 38bf
00000060: 96a2 25be 8e4c d2be 5e26 11bf 7c00 febe
00000070: 8f95 27bf 5a85 28bf 2c33 71bf 81f5 fbbe
-0.36615312 -0.4334039 -0.41889971 -0.53357 -0.4244827 -0.30742535 -0.60246783 -0.58215714
-0.3610287 -0.5062376 -0.49625242 -0.54695624 -0.72978306 -0.5289278 -0.18292323 -0.75158083
-0.8635743 -0.5154194 -0.72730327 -0.24985933 -0.7940054 -0.64309514 -0.56796384 -0.7204877
-0.16175303 -0.41074032 -0.5669917 -0.49609745 -0.65462583 -0.6582848 -0.9421871 -0.49210742
