ana-class100_0170_s2.tflite (tflite, 481300 bytes, 28 tensors)

model_1/conv2d_6/BiasAdd/ReadVariableOp f4 [32]
00000000: 0725 f7bd 6690 93bd 7d4b bbbd 4f6f 39bd
00000010: 373f 3fbe 9e20 12bd e378 fbbd dbb3 d4bd
00000020: 688b b1bd cda1 953c d7e5 0ebe 7fa1 76be
00000030: f080 06be 866d 91bd 67b3 1dbe 7c5b c3bd
00000040: f67e a2bd 039c 063e 5528 843e d9f0 1a3e
00000050: 7fdf 03bd a9f7 b8bd 7213 473d 2402 86bd
00000060: ae9a 80be c0d8 f4bd bbb8 8c3e edcb 82bd
00000070: d4e5 1ebd 39c2 0e3e bd3f afbd 09ea 8ebe
-0.12067609 -0.07205276 -0.091452576 -0.045272168 -0.18676458 -0.035675637 -0.12278917 -0.10385867
-0.08669168 0.01826563 -0.13954864 -0.24085043 -0.13135123 -0.07100968 -0.15400468 -0.09538934
-0.07934372 0.13145451 0.2581202 0.15130939 -0.032195564 -0.090316124 0.04860253 -0.06543377
-0.2511801 -0.11955404 0.27484688 -0.06386552 -0.0387934 0.13941278 -0.08557079 -0.2791293

model_1/conv2d_7/BiasAdd/ReadVariableOp f4 [32]
00000000: 45fe 8fbc c0cd 2cbe 5f4b ab3e 5c64 33be
00000010: e70c 983e 38e4 d13d 4d45 aabe e47e 103f
00000020: 5c4c 2f3e 6c31 c43c 7308 f5bc 35c2 843e
00000030: 2f4c 813e f0fc 23be d863 11be 440c 2d3e
00000040: 8e26 813e 67e4 493e f325 df3c c43e 0cbd
00000050: b751 3a3e 7270 ca3e 96be ab3d aa8c 9f3e
00000060: 6ee3 b53e 37fa 2e3e 4c9e ef3e 618e 9b3d
00000070: b2a0 163f fd38 b63e b0f8 f33e 430b a3bd
-0.0175773 -0.16875362 0.3345594 -0.17518753 0.29697344 0.102486074 -0.33255997 0.5644362
0.17118973 0.023949347 -0.029911255 0.25929418 0.25253436 -0.16014457 -0.14198244 0.1689921
0.25224727 0.19716035 0.027239775 -0.034239545 0.18195234 0.39538914 0.08385961 0.31162006
0.35525078 0.17087637 0.46800458 0.07595516 0.5883895 0.35590354 0.4765067 -0.079611324

model_1/conv2d_8/BiasAdd/ReadVariableOp f4 [48]
00000000: 2557 d7be aeb5 57be eecf 8dbd ff65 fbbd
00000010: 32d7 b4be a7b2 62be 8ed0 b0be 961c 66be
00000020: 8a90 91be 6738 1fbe f9b3 e8be 6882 14be
00000030: 5ac6 77be 431f b3be b75d f4be 0efb 20be
00000040: 98f0 97be dc2b a8be 47d1 e6be 9ebc b9bd
00000050: 1025 8fbe 0929 9bbe 3854 e6be 1c7a 8ebe
00000060: 707c d5be 4d6d 63be 5692 96be 34c4 e0be
00000070: b703 2ebe ad0d 80be 594f fbbd e184 85be
00000080: 3115 d5be 4142 2abe dff5 c1be 3f1c d0bd
00000090: cede c9bc 2adc e0be 31c3 d8be 54bf 6ebe
000000a0: a184 b2be 704b 2abe 6a2f 0ebe e7d9 0ebe
000000b0: 2747 e8bd 104e 98be 8799 58be 744f 8fbe
-0.42058674 -0.21065399 -0.06924425 -0.122753136 -0.3532043 -0.22138463 -0.34534115 -0.22471842
-0.28430587 -0.1554886 -0.45449808 -0.14502871 -0.24196759 -0.34984788 -0.4772775 -0.1572077
-0.29675746 -0.32845962 -0.4508154 -0.09069179 -0.27957964 -0.30304745 -0.4498613 -0.27827537
-0.416965 -0.22209664 -0.2940852 -0.4389969 -0.16993605 -0.25010434 -0.12270994 -0.2607794
-0.4161773 -0.16626836 -0.37882897 -0.101616375 -0.024642374 -0.43917972 -0.4233642 -0.23315173
-0.34866813 -0.1663034 -0.13885275 -0.1395031 -0.11341696 -0.29747057 -0.21152316 -0.27990305

model_1/conv2d_9/BiasAdd/ReadVariableOp f4 [48]
00000000: 673b 723d f03a 783e a6d5 273c e68d 233e
00000010: f89e 633e d48c 053e 0817 c43d d253 7f3d
00000020: f78e 013e 5a70 d23d f5f5 8c3e 08b4 063e
00000030: 3198 0c3e 5ba2 6f3d a477 f53b d8f8 c73d
00000040: c11f 093d aede 0e3e a0e2 5a3d c619 e5bc
00000050: b2cb 023e 2496 bf3d 9e47 d63d 4e75 513d
00000060: 63ee 773d 3c17 5dbd d2bb 97bc be1c 023e
00000070: 5992 0f3e 0e50 a73d cc01 083e 6b0f e93d
00000080: 5c2f 6c3d 2cf3 c63d ff37 20bc dca4 c8bd
00000090: e48c 9ebc abf0 ec3d 00a7 ba3e ba9a 35bd
000000a0: bba5 9ebd 3528 023e 5e65 a53c 542a 463e
000000b0: 5039 7b3e c9c5 523e d0f6 703e c0c7 553d
0.05913868 0.24241233 0.010243809 0.15972099 0.2222861 0.13042003 0.09574705 0.062335797
0.12652193 0.102753356 0.275314 0.13154614 0.13729931 0.058504444 0.007491069 0.0976426
0.03347755 0.13952133 0.053438783 -0.027966391 0.12773016 0.09354809 0.10462879 0.05113726
0.060530078 -0.053977236 -0.018522177 0.12706277 0.14020671 0.08169566 0.13281935 0.11379894
0.057662353 0.0971435 -0.0097789755 -0.097970694 -0.019354291 0.11569341 0.36455536 -0.044337012
-0.07746454 0.1271065 0.020189937 0.19352084 0.24533582 0.20583262 0.23531651 0.05219245

model_1/conv2d_10/BiasAdd/ReadVariableOp f4 [64]
00000000: 3a4d e7bd 28f1 b63d 3f99 3fbe a1f6 70bd
00000010: ca6a f9bb 4bd1 99bd 87e2 173e 9a1a bbbd
00000020: c319 cdbd 88ab e3bd 7e44 c9bd c588 03bc
00000030: 299d 5ebd 2339 2a3d 5c64 0fba 87cd b9bd
00000040: b7a6 883e 8602 ccbb 77c5 983e 8f5e e1bd
00000050: 909f b43b 866b ce3e 11ec 173e 0cbf c3bd
00000060: b248 5dbe c0c2 5c3e 2cbc cebc ce19 04bd
00000070: 6e45 0d3e d58e 74be e641 29be 597f 4cbe
00000080: 0797 8b3c 665f 4e3d c060 a03d 9a90 1c3e
00000090: c09b 88bd d065 94bd 16cd 0cbe 0ec0 803c
000000a0: 45a0 f1bd ef20 c33d a74b 44be a8c3 373d
000000b0: 2a3d b73d 3cf8 c5bd b718 f3bd 449a 39bb
000000c0: c53c 0f3e 2035 00bc e35b 30be bfe2 0abc
000000d0: 4dc8 98bd 21d4 d9bd 948a 073e d185 ed3d
000000e0: ac6b f9bc 8b1a 12be 0065 d6bd 7269 773d
000000f0: b436 1d3e e25a de3b d45a 2dbe e6aa f43c
-0.11294027 0.08932716 -0.18710802 -0.058828954 -0.007611607 -0.075106226 0.14832507 -0.09135933
-0.10014679 -0.11116701 -0.09827517 -0.008028214 -0.0543491 0.041558396 -0.0005469972 -0.09072404
0.26689693 -0.0062258868 0.29838154 -0.11004364 0.0055121854 0.4031641 0.14836146 -0.09557924
-0.21609762 0.21558666 -0.025236212 -0.03225117 0.13796017 -0.23882611 -0.16529045 -0.19970454
0.017039789 0.050383948 0.078309536 0.15289536 -0.06670332 -0.07245982 -0.13750109 0.015716579
-0.11798147 0.09527766 -0.19169484 0.044864327 0.08947213 -0.096664876 -0.11869948 -0.002832071
0.13988025 -0.007825166 -0.17222552 -0.008476912 -0.07460079 -0.106361635 0.13236457 0.11597789
-0.03044685 -0.14267938 -0.10468483 0.060403295 0.15352899 0.0067857364 -0.1692918 0.029866647

model_1/conv2d_11/BiasAdd/ReadVariableOp f4 [64]
00000000: f198 3e3e 3458 153e 88ae 2d3e f980 b53e
00000010: b980 3a3e d50c e6bc 60d8 883d df33 a13e
00000020: 7536 8ebd 73f5 80bd f782 76bd f626 303e
00000030: ad1b de3e e301 22bd 7d42 ed3e fe04 a23e
00000040: 3fbd 0b3d fcad d0bc c6a5 c43e af88 293e
00000050: 86de 5cbd 7a1a b23d 1ff0 63bd 5aa7 d1bc
00000060: e32e 083e 9507 273e 3131 6c3e 0d61 56bd
00000070: 3d46 1f3f 86d6 683e d14a a4bd c327 3f3e
00000080: b09e 9c3e bcc5 803e f323 82bd 925d 8e3e
00000090: b434 9b3e 4612 2a3e ba1f 01be 1e2e 293e
000000a0: c6f5 c93e 4bb9 c1bd 20a0 b33e 1a25 e9bd
000000b0: 0b1e 80bd ea52 0d3f a2bb 0b3f 4e27 883e
000000c0: 77cb 073f 1f6f 9e3e 3cd2 2b3e 80e3 6e3e
000000d0: 7c9f 803e 4d36 443e 72b3 3b3f 75ba a73e
000000e0: 0edd aa3e a96a c03e 1809 733e 77bc 60bd
000000f0: 9d81 9b3c baac 9bbd f4c2 453e da9a ef3e
0.1861303 0.14584428 0.1696111 0.3544996 0.18213166 -0.02808229 0.06681895 0.31484887
-0.069439806 -0.06296816 -0.06018349 0.17202362 0.4338049 -0.03955258 0.4633979 0.31644434
0.034116026 -0.025473587 0.38407725 0.16556047 -0.053923152 0.08696456 -0.05564892 -0.025592495
0.13299136 0.16311486 0.2306564 -0.05233865 0.6221655 0.22738084 -0.080220826 0.18667512
0.3058982 0.2515086 -0.06354513 0.27805763 0.30313647 0.16608533 -0.12609759 0.16521499
0.39445323 -0.0945917 0.35083103 -0.1138403 -0.0625573 0.5520464 0.5458318 0.26592487
0.5304484 0.30944154 0.16779417 0.23328972 0.25121677 0.19161339 0.73320687 0.32759443
0.33371776 0.37581375 0.23733938 -0.054867234 0.018982703 -0.07601304 0.1931265 0.4679783

model_1/conv2d_6/Conv2D f4 [32, 5, 5, 3]
00000000: 4746 443d 904d 63bd cc43 86bd e774 d43d
00000010: 41ce 3fbe 45bd dfbd 8704 f73d c0b4 6dbe
00000020: b794 2bbe 5c8f 023e 1c74 c8bd 5074 14bd
00000030: c51c 2dbd 3862 09bc 15df b53d ae2d 42bd
00000040: bc88 1a3e 7b07 0e3d 2d64 00bd bf52 b0bd
00000050: 7593 c83c c184 0d3e 6757 75bd 2d2d 40be
00000060: c8c3 8c3e c451 49be 08f8 ddbd d197 513e
00000070: 104e 43be 187b 0bbd c176 12be 364f e83d
00000080: 703c 343d 66c4 2dbe f46b 043e a0b5 0e3e
00000090: c788 96bc 1fe9 683d 2604 7dbd 77a3 de3d
000000a0: 23be 37be fba4 aebd a499 5a3e d7c0 c0bd
000000b0: d0f8 c5bd 412b 39be ee06 343e dd8b 333e
000000c0: fe09 6dbc 5a17 403e 0ff7 f43d d223 dcbd
000000d0: b15c 143e af2a a43c e6ef a8bc 50b4 24bd
000000e0: 613e 4dbc 336f b83d 5d08 9dbd 814a 86bd
000000f0: e659 58be 4fad 2f3e f063 753e 871d d7bd
00000100: 3e46 193e 5ca2 193e 3c9d 47be 44a5 773d
00000110: ae06 abbc 457a 8cbd bb7c a23c 4ff8 43bd
00000120: 68a5 c1bc fb5a 983c 0a32 8ebd 3430 09be
00000130: 9d70 e63d f81e 2d3e a962 bbbd 6eb7 cd3c
00000140: 6aca 193e 79a1 e9bd 9fca ea3d caf0 323e
00000150: 33eb 06be ee12 303e 4156 fe3d 7470 0abe
00000160: cfd4 393e cdda 203e ad0b bdbc adba 083d
00000170: 3548 a53d c7ca 54bd 580e 9dbd 1313 a73d
00000180: 1cee 1abc 60f1 25bd dfaa 683d d41a abbd
00000190: dc6c 663b b10b c43d 06f8 333d 6936 0fbe
000001a0: c6fd fc3c ce44 dd3d 960f f3bd dfa3 0fbe
000001b0: 8de5 7a3e f496 92be 9752 e6bd 11ec 7d3e
000001c0: 7884 84be 6844 1abe ca9d 7b3e 5227 94be
000001d0: acd2 c2bd c31f 5a3e 7f63 84be 0e67 1ebe
000001e0: 966c 383e 9873 52be ea54 4bbd 00be c73d
000001f0: 96d3 85bd 80cf e8bc f4fb c63b d940 a3bc
00000200: a98c c6bc 0126 113e c2c0 82bd 860a e4bd
00000210: cdaa a43d 6543 60bd 1c23 92bd 7289 f2bc
00000220: 6186 50bd bc99 c23d 37c0 b7bd 9cf5 d73d
00000230: 381e 2e3e 965b 59be a5be 413e 3585 0e3e
00000240: 41c6 30be ad7e cb3d 44eb 4a3e 11e9 05be
00000250: b2b5 213e 1161 933d e5a3 a1be 17ae 7a3b
00000260: 9fcf 313b ede8 35be 7733 a53d 38fb 103e
00000270: 61b8 303d 27d6 8c3d 81b8 a63d 6262 913d
00000280: 42a2 383e ecec 273e 774a 4a3c 0d85 393e
00000290: fc66 213e 16c9 86be 4bfb 1a3e 9741 3e3e
000002a0: 53b5 a6bd fb96 1b3e ce3a 303e ad6e 2f3e
000002b0: fe9d ff3d ae5d 1a3e 1fb8 f5bc 9afd 973d
000002c0: 4445 eabc 7615 b93b 9b0f 75bd 33e9 6ebd
000002d0: dcb1 44bd 3034 d43d d05e 843d 043e c53d
000002e0: bb57 ed3c 6d66 173e 1ff7 b73d f0d5 52be
000002f0: d915 acbd 1ef4 4d3d 9e53 f0bd 04b9 eabd
00000300: 64a3 533d 06b5 60be e1a3 9ebd db75 233e
00000310: 393b a1bd e98d 903c 567f 0c3e c3dc efbd
00000320: 1ac7 883d b6d3 f73d c6a1 37be 3519 38be
00000330: fb76 8abc 1528 c3bd a762 4cbd 5bf6 9ebc
00000340: 7d88 0abe 37a0 11be 2f54 3a3e 3b98 34be
00000350: 1972 30be d55f c73d d54b 21be fa23 94bd
00000360: 3ed2 debd 28c3 68be 0247 54bd 6e52 cbbd
00000370: 3c76 853d c637 a63b a622 0ebe 4331 933d
00000380: b82d 24bd 4a80 5f3e d230 7abe d352 0ebe
00000390: e4ab 483e 5013 6ebe 3be0 99bd 3082 503e
000003a0: 8d8b 87be e612 35bd d414 723e bac0 3bbe
000003b0: 96a2 e4bd 18f8 6d3e d3aa 5ebe 5d71 3fbe
000003c0: 3d91 323e c6dd 67be 8261 bebd 7273 753d
000003d0: af9e e0bd 7be0 e43c 4fb3 5f3d d199 b1bd
000003e0: 2a2b ce3b 8d1b cf3d c9bb c0bd a71f adbc
000003f0: ebb3 263e 271c b5bd 0857 51be 0bb2 7ebd
0.047918584 -0.05549389 -0.065559 0.1037386 -0.18731023 -0.10924772 0.120614104 -0.23213482
-0.16755949 0.1275 -0.09787771 -0.036243737 -0.042263765 -0.008385234 0.0888044 -0.047406845
0.15091223 0.034675103 -0.031345535 -0.086095326 0.024484375 0.13820173 -0.059897806 -0.18767233
0.2749312 -0.19660097 -0.10838324 0.2046807 -0.19072747 -0.03405294 -0.14303114 0.11343233
0.04400295 -0.16969451 0.12931806 0.13936472 -0.018375767 0.056862947 -0.061771534 0.10871022
-0.17943625 -0.08527561 0.21347672 -0.09411781 -0.09666598 -0.18082906 0.17580768 0.17533822
-0.014467714 0.18758908 0.11961185 -0.1074902 0.14488484 0.020039884 -0.020622205 -0.040211022
-0.012527079 0.090055846 -0.07667611 -0.06557179 -0.21128044 0.17155956 0.23963904 -0.10503679
0.14968202 0.15003341 -0.19493574 0.060460344 -0.020877209 -0.068592586 0.019834867 -0.047844227
-0.023638442 0.01859807 -0.06943138 -0.13397294 0.11251948 0.16906345 -0.09149677 0.02511188
0.15018621 -0.114077516 0.11464428 0.17474666 -0.13175659 0.17194721 0.124187954 -0.1351946
0.18147586 0.15708466 -0.023076857 0.033381153 0.08070413 -0.051951196 -0.076687515 0.08157935
-0.009456184 -0.040513396 0.05680358 -0.083547264 0.00351601 0.095725425 0.043937705 -0.139856
0.030882727 0.10804139 -0.11868207 -0.14027356 0.24501629 -0.28630793 -0.112462215 0.24797083
-0.25882316 -0.15065157 0.2457191 -0.2893625 -0.09512839 0.21301179 -0.2585716 -0.15469
0.18010172 -0.20551908 -0.049641527 0.097530365 -0.065344974 -0.028419256 0.0060725156 -0.019928383
-0.024236994 0.14174654 -0.06384422 -0.1113482 0.0804039 -0.054751772 -0.07135603 -0.029606555
-0.050909404 0.09501979 -0.08972209 0.10544893 0.17003715 -0.21226344 0.18920381 0.13918002
-0.17263128 0.09936271 0.19816309 -0.13077189 0.15791968 0.07196248 -0.31570354 0.0038250738
0.0027131808 -0.17764635 0.08066457 0.14158332 0.043144587 0.06876784 0.0814066 0.07098843
0.18030646 0.16398972 0.012346855 0.18117161 0.15761942 -0.2632529 0.15134923 0.18579708
-0.081400536 0.15194313 0.17209932 0.17132063 0.124813065 0.15074798 -0.029995022 0.074214175
-0.028597482 0.0056483103 -0.059829336 -0.058327865 -0.048021182 0.103615165 0.064633965 0.09630969
0.028972497 0.14785166 0.089826815 -0.20589423 -0.084026046 0.050281636 -0.11734699 -0.1146107
0.051669493 -0.21944055 -0.07746101 0.15962927 -0.07872624 0.017645793 0.1372045 -0.11712029
0.066786006 0.121009275 -0.17932805 -0.17978366 -0.016902437 -0.095291294 -0.04989877 -0.01940458
-0.13528629 -0.14221273 0.18196176 -0.17636196 -0.17231025 0.097350754 -0.15751584 -0.072334245
-0.10879944 -0.22730696 -0.05182553 -0.099278316 0.06516692 0.0050725667 -0.13880405 0.0718713
-0.040082663 0.21826282 -0.24432686 -0.13898782 0.19596821 -0.23249555 -0.07513472 0.20362163
-0.26473656 -0.044207476 0.23640758 -0.18335238 -0.11163823 0.23239172 -0.21744852 -0.18695588
0.17438217 -0.22643194 -0.09295942 0.05992455 -0.109677665 0.027939072 0.05461436 -0.08671916
0.0062917667 0.10112677 -0.09410817 -0.021133257 0.16279571 -0.0884326 -0.20443356 -0.062181514

model_1/conv2d_7/Conv2D f4 [32, 3, 3, 32]
00000000: 4b38 83bd ba33 1abe d1b2 88bd bb2f a9bd
00000010: 0f97 87bc d2a3 0bbd 6a87 c1bd 0f07 b3bd
00000020: b80f 99be e7a0 2abe 2494 04be 59b2 7bbd
00000030: 1892 b33d a550 d03d bd7a 183e 8fe1 383c
00000040: 6315 f5bc e700 1fbe abbe a1bd 1ea9 62be
00000050: a8e8 15be 75e4 adbd b1f4 8fbe 9f4c a73d
00000060: 1bea 8e3d 1907 26bd bb66 763c c859 dd3c
00000070: 8ced 71bd aded 7abd 1a9c 17be 5928 2fbe
00000080: 0bc1 433e 45fc e9bc 5932 90be 3221 82bd
00000090: d52a 3dbe e608 5b3e 1a09 adbd 99d5 a6bd
000000a0: 51f2 f93d eabc cdbd 344e 84bd b41d 30be
000000b0: d4f9 08be d4c0 12be 5599 d1bb bd50 5a3e
000000c0: 5fd8 14be 3410 243b 62f5 913d 4c29 0f3c
000000d0: 3fbd 2e3c faa2 963d 082f 153e e422 90be
000000e0: 72db 7bbd 20e4 7bbe 928b a2bd 56be b0bd
000000f0: 7261 e4bd 27fe 1dbe 436d aabe f61d 073d
00000100: c524 423e 5e3a 853b 993b d7bc 6c24 a63d
00000110: a43c a23e ed39 6c3d 6896 843e 2282 92bd
00000120: d3d3 11bc 689b 923d a627 483d 92d5 ad3d
00000130: e327 8b3d 0478 05be 0d6f 8cba b5a5 d63d
00000140: f4f3 d6bd a459 28be a44a 20be f466 6f3c
00000150: 4979 86bd 1423 1f3d 19b4 6b3e 9af0 cebc
00000160: ac12 d7bd bec9 24be 1988 d63d 9f49 413e
00000170: d1df 49be 0b30 11be de08 953c 0923 093d
00000180: 9083 c13b 7e4f 0f3e 3835 5739 a108 4abd
00000190: fe6d 0c3e b2b6 3bbc 4abc 533e a006 47bd
000001a0: bb8f 96be 6ff7 adbd 0169 0fbd 629e 363e
000001b0: 7cf5 173e 226b a23d 1f9d b7bd ff54 abbd
000001c0: 2e5d 7c3d fc05 9f3d dd0d 1a3b 8596 1abe
000001d0: 049c 143e ae59 393d f3eb d03d afba 173e
000001e0: 9a53 f0bd 7d68 893d d90d 36bd 8072 63be
000001f0: b6eb 58bd 0343 12be 399d 7c3c 84a5 52be
00000200: b6bf b4be 7245 adbc 6c05 00bd e7f8 23be
00000210: ebff 99bc 85df db3d 7156 4e3c 9432 943c
00000220: 3b08 4abe bb9c a9be 11f6 eebc def7 68bd
00000230: 0037 d13c 595f 0e3e 55ce 98bd e2a5 083d
00000240: 880e f73c e614 a7be e4b8 093e b44d 92be
00000250: 980f 1d3e 7259 643e 9e14 4ebe 6d16 bcbc
00000260: 2391 d0bd daa9 41be 325a 863d 3d00 5bbe
00000270: 85dd 75be 3a0d 1bbd 8541 79bd 101a 5dbe
00000280: 97cf 873d ad14 21be 5429 163d 1375 26be
00000290: 9a9a e03d a480 ae3c 9abb 073d 1e0c 4b3c
000002a0: 1a9a 4a3d b644 70bd 0ddc 013c 6a33 4dbd
000002b0: b039 bcbc a611 bfbd a380 febd 7618 be3d
000002c0: 6e7f a7bd 47b8 29be 15ac 943d e036 b3bd
000002d0: f810 823d e3ef 82bc 363e 9d3d aa72 d6bd
000002e0: 24ae 90b9 d1d3 32bd 3016 7b3d 8d24 4b3c
000002f0: 6c91 36be 8579 76bd 9d5f 46bc 2e3f 003e
00000300: f62b ff3d a51c c7bd a1f1 64be 6632 083e
00000310: ca89 e83b e82f 80be 38d5 d63d e67a cb3c
00000320: b413 36be 878a ebbc 9414 1ebe 5378 86bd
00000330: 77c9 25be 5106 443d d066 bbbd 767d a1be
00000340: 2d20 2a3e 9787 edbd 04c9 22be cfc8 acbc
00000350: a733 c7be bfc5 b9bc c8dc 553e 9c9b 0cbe
00000360: 0537 a43c 176e 3e3d 33bf 6fbd 9272 23be
00000370: a9ed 24be 806e 673e 3bd0 12be ed26 29be
00000380: cfab 46bc b1c4 95bd 8e5e 33be 0648 7c3d
00000390: a7d4 a4be 1bc3 2a3e 49f1 d03d 47b2 1bbe
000003a0: 41bc d9b9 940b 293b 5c34 393e 90f8 89bd
000003b0: fe5c 25be d1f4 87bd 09e0 12bd 70ba 473d
000003c0: 52f9 933e 337a 43be 9b87 4f3e c35f 2fbe
000003d0: 9288 eb3c cb6e b23e 10e5 b8bd 435b 6bbd
000003e0: 5c5f 55bd b574 0dba 0df9 abbd 9c07 8bbd
000003f0: 0c75 69be 8f89 38be 66a7 e2bd 1d49 65be
-0.064072214 -0.15058795 -0.066747315 -0.08261057 -0.016551523 -0.034091778 -0.09449656 -0.08741581
-0.29894805 -0.16662942 -0.12947136 -0.061449382 0.087680995 0.10171632 0.14890571 0.011284246
-0.029917425 -0.15527688 -0.07897695 -0.22134826 -0.14639533 -0.0849084 -0.28116372 0.08168911
0.06978246 -0.040534113 0.015039141 0.02702035 -0.059064433 -0.06126182 -0.14805642 -0.17105235
0.19116609 -0.028562674 -0.28163412 -0.06353988 -0.1847337 0.21390113 -0.084490016 -0.08146209
0.12204421 -0.10045798 -0.064602286 -0.17198831 -0.13376552 -0.1433137 -0.0063964524 0.21319862
-0.14535664 0.0025034072 0.07126881 0.008737873 0.010665237 0.07355304 0.14568722 -0.2815162
-0.061488576 -0.24598742 -0.07936777 -0.08630054 -0.11151399 -0.15428983 -0.33286485 0.032987557
0.18959339 0.004065796 -0.026273536 0.08112416 0.3168689 0.05767243 0.25896 -0.07153727
-0.0089006005 0.07158548 0.048865937 0.08488001 0.06794717 -0.13034064 -0.0010714248 0.10480825
-0.10495749 -0.16440445 -0.15653473 0.014611948 -0.06566102 0.038851812 0.2301792 -0.025261212
-0.10501608 -0.16092584 0.10475177 0.1887574 -0.19714285 -0.14178483 0.018192705 0.033480678
0.005905576 0.13995168 0.00020523823 -0.049324635 0.13713834 -0.011457132 0.20677295 -0.048590302
-0.29406533 -0.0849446 -0.03501225 0.17833856 0.14839739 0.0793059 -0.08965515 -0.08365821
0.0616123 0.07764813 0.0023506798 -0.15096481 0.1451264 0.04525154 0.10201254 0.14817308
-0.11734696 0.06709383 -0.0444468 -0.22211647 -0.052959166 -0.14283375 0.015418344 -0.20570952
-0.35302514 -0.021151278 -0.03125517 -0.16012917 -0.018798789 0.10735992 0.012593851 0.018090524
-0.19729702 -0.33127388 -0.029170068 -0.05687701 0.025538921 0.1390356 -0.0746123 0.033361323
0.030158296 -0.32633132 0.13449436 -0.28574908 0.1533798 0.22299746 -0.20125052 -0.022959912
-0.10183933 -0.1891245 0.06560172 -0.2138681 -0.24010284 -0.03785441 -0.0608535 -0.21591973
0.066313915 -0.15730543 0.036660507 -0.16255598 0.10966988 0.021301575 0.033137895 0.012393026
0.04946337 -0.058659278 0.007925999 -0.05009786 -0.022976726 -0.09329538 -0.12426879 0.09282009
-0.08178602 -0.16574202 0.072593845 -0.08750701 0.06350893 -0.015983528 0.076778814 -0.10471089
-0.00027595565 -0.043659035 0.061300457 0.012398851 -0.17828912 -0.060174484 -0.012107757 0.12524101
0.12459557 -0.097222604 -0.22357799 0.13300475 0.007096504 -0.2503655 0.10489887 0.024838876
-0.17780954 -0.028752578 -0.15437537 -0.06565919 -0.16190134 0.047857586 -0.09150469 -0.31541032
0.16613837 -0.11598127 -0.15896994 -0.021091847 -0.38906595 -0.0226773 0.20885003 -0.13731235
0.020045767 0.04649171 -0.05853195 -0.15961674 -0.16106285 0.22600746 -0.14337246 -0.16518755
-0.012125923 -0.073129065 -0.17516539 0.061592124 -0.3219349 0.1667599 0.102022715 -0.15204726
-0.00041529725 0.0025794255 0.1808638 -0.06736863 -0.16148755 -0.06638492 -0.035858188 0.048761785
0.28901154 -0.19089584 0.20266573 -0.17126374 0.028751645 0.34850153 -0.09028065 -0.05746008
-0.052092895 -0.0005396114 -0.08397112 -0.06788561 -0.22798556 -0.18021224 -0.11067085 -0.22391172

model_1/conv2d_8/Conv2D f4 [48, 3, 3, 32]
00000000: 1517 55bd fe4f 813e 0a1c 823d f6c9 b9bc
00000010: 3e2d 5e3d 0787 2ebe 5d9b 9d3d 36dc 423c
00000020: ead9 3f3c 6bfb 95bd 93e1 6f3d 9f64 eebd
00000030: 30a1 0bbe 1fcc 78bd 41b3 443d 557a 65bc
00000040: dfc3 dd3c 0b6f 8f3d d484 843e e7de b3bd
00000050: 32da 213e 6aee 1bbd 94a9 a4bd a176 883e
00000060: a143 abbd 6d33 773d 254c 93be cb15 703b
00000070: fe2c a9bd 6947 80bd b09f 69bd b05a 353d
00000080: 123a 1bbe 9eaa 53be df26 d2bb 4b8f 3a3e
00000090: e7fe 133e 5f39 26be 6461 ca3d 470c f9bd
000000a0: c511 a03d 24cc 633e ba65 8cbd f4a3 39bd
000000b0: f07f 0abe 8135 c6bd 41cc 0bbe 811c 093e
000000c0: f550 b93d 1c60 adbd 31ad 143e c249 933d
000000d0: dc4e 19bd ef8b 9ebb 0978 13be 1bab e33c
000000e0: 06bf 193d e70d 913c 9f15 c13b d590 383d
000000f0: a4fa 91bd 8254 773c 1b50 013e 14bd 153e
00000100: 6587 c9bc 9096 033e 0ec9 433c 3dbf 7b3c
00000110: 3e3d 16bd 80c5 a7bd 2c09 e3bd d660 acbd
00000120: 49bc f8bc 5179 88bc 084a 0cbe 080f 88bd
00000130: 9159 bcbd d1b4 b9bd af3c 5fbe 3ecf 7fbd
00000140: 3ef2 fa3d 96a2 17be 6c63 11be d909 873d
00000150: 8556 91bc 03c6 c93d 5a6f 953d a87c 3cbc
00000160: d878 9a3e 3bb2 debd b30d 483d 6e67 2bbe
00000170: 5418 ccbd a11a 7a3d 60ee a6bd 54d5 b43e
00000180: 1796 2fbd e0c1 4b3e 996b 84be 9038 1b3e
00000190: 7bb2 00be cec4 bfbb 1071 3dbe 5ced 643e
000001a0: 0b45 4ebe b324 d93d ddbd a13d 7d97 513c
000001b0: 0990 f0bd 8ae3 7c3c 91e0 ea3c 01a5 11be
000001c0: df27 ba3c 6133 a5bd 711b 3a3e d4c2 2ebc
000001d0: 9aa0 fe3d d257 a73d 7ed8 69be c544 dabd
000001e0: 8ecd e83d eb01 cbbd 6f05 cdbd fae4 a2bb
000001f0: 92a9 66bd 821f 32be 0b88 09be aa22 92be
00000200: 2b0a 663d 13b8 5abc 5d0a 8dbd 56f7 313d
00000210: 1349 01bd 9a77 dbbd 80f3 743d 4d26 7dbc
00000220: 7276 17be fdb1 413e 21e3 97bd af60 d3bc
00000230: ddc2 b93d a49e b13d d2bd 873e 06c4 4fbe
00000240: f8bd fdbd a7c8 a1bd fac8 3d3d 6ba1 a93b
00000250: 7d50 8dbd 03d2 be3c f4a7 72bd 0cab 503a
00000260: 15b7 b8bd 2c95 6a3d 307b e83d 1835 17bd
00000270: 70b0 66bd 66e8 fbbd 71f6 b8bc 220b 0cbe
00000280: 19d3 25be fe07 8abd da46 a93d 9fe2 fe3d
00000290: efa8 90bd 842f ebb9 3196 593d e8b9 bfbd
000002a0: 608c c53d ef33 293e 82e3 cc3d 6194 3dbd
000002b0: 8fac 83bd 11d0 483e 391d 2f3e b615 063e
000002c0: fc77 f73d 50b2 79be 358d bd3d ccde c23d
000002d0: 4493 b3bb 11e0 cebd 66d3 163e b1a7 10be
000002e0: 102d 9bbb a46f 953d 108c b43d ccc8 e7bd
000002f0: 3a11 86bd 712a c4bd 7405 ad3d ae2a 91bc
00000300: 7ae0 1cbe bb8a 53bc 9f88 dcbd 9e64 8f3e
00000310: 89ff 713e b937 1fbd daea 40bd 46ab 5b3e
00000320: 3252 683e 909f 92bd 99ec d63d 940c 9fbb
00000330: 4a7b ecbe 3638 aebd de43 7cbe 9086 40be
00000340: 4e4d 79bd 777f a1be 7722 83bc 5951 5abe
00000350: 117a 9e3c ca64 59bd 415d 353e 427d 3abe
00000360: 90af 16bd f1b4 d5ba 66a2 28be dc63 8ebe
00000370: b58b 4cbd b583 bebd d07a 1dbd 7966 5fbe
00000380: 3d5c 14be c5a3 5c3c b427 91bd e8e4 a23e
00000390: dae9 7ebe e4f0 0ebc e991 7fbd 5190 b7bd
000003a0: 8d8e 31bc d212 8f3c 9f21 bdbd e9ee e03d
000003b0: d2d7 ca3d 63da aa3d 3d3e 933e 1f80 a3bd
000003c0: 6134 62bd 47cd 3e3e 3241 d9bd 2b85 86bb
000003d0: 0da2 9dbd e9d0 2ebe a09d 643e 9cd7 87be
000003e0: 419d 7ebe b4d5 3b3e e4b2 233d 3e25 6e3d
000003f0: a054 59bd 7338 55be 9250 92be 5946 9dbe
-0.052023966 0.25256342 0.06353004 -0.02267931 0.054242365 -0.17043696 0.07695649 0.011893323
0.01170967 -0.07323345 0.058564734 -0.11640286 -0.13635707 -0.06074154 0.048022512 -0.014006217
0.027070938 0.07003602 0.2588259 -0.087827496 0.15805891 -0.038069166 -0.08040157 0.26653007
-0.083625086 0.060351778 -0.2876903 0.0036634083 -0.08260535 -0.062636204 -0.057037055 0.04427594
-0.15158871 -0.20670554 -0.006413325 0.18218724 0.14452706 -0.16232823 0.09881857 -0.12160545
0.07815889 0.22245842 -0.0685534 -0.045322374 -0.13525367 -0.09678174 -0.13652135 0.1338978
0.090486445 -0.08465597 0.14519192 0.071918026 -0.03742872 -0.0048384587 -0.14401259 0.02779155
0.03753569 0.017706824 0.00589247 0.045059998 -0.07127884 0.015095832 0.12628214 0.14622909
-0.024600694 0.12850404 0.011949791 0.015365419 -0.0366795 -0.08191967 -0.11085734 -0.084169075
-0.030363219 -0.01665941 -0.13700116 -0.06643492 -0.09196771 -0.09067691 -0.21800493 -0.0624535
0.12253235 -0.14808115 -0.14198083 0.06593675 -0.017741451 0.09852221 0.07296629 -0.01150433
0.3017032 -0.108738385 0.04884119 -0.16738674 -0.09965578 0.06106055 -0.08150935 0.35319006
-0.042867746 0.19898176 -0.2586334 0.15158296 -0.12568085 -0.0058523184 -0.18500161 0.2235617
-0.20143525 0.10602703 0.07897542 0.012792465 -0.117462225 0.015435109 0.028671535 -0.142231
0.02272409 -0.080664404 0.1817453 -0.010666568 0.12432976 0.08171047 -0.22836491 -0.10657648
0.113673314 -0.09912475 -0.10010802 -0.004971144 -0.05631406 -0.17394832 -0.13430803 -0.28542072
0.05616204 -0.013349551 -0.06886742 0.04344877 -0.03156383 -0.107161716 0.059802532 -0.015451026
-0.14791277 0.18915553 -0.07416368 -0.025802938 0.0907037 0.086728364 0.2651201 -0.20289621
-0.12389749 -0.078995995 0.046334244 0.005176713 -0.069001175 0.0232935 -0.059242204 0.0007960058
-0.09019295 0.057271168 0.11351621 -0.03691587 -0.056320608 -0.12300186 -0.02257845 -0.13676122
-0.16193809 -0.06739806 0.08265467 0.12445568 -0.070634715 -0.00044858095 0.05312175 -0.09361631
0.09645915 0.16523717 0.10004331 -0.046284083 -0.06429397 0.19610621 0.17100991 0.1309422
0.12083432 -0.24384427 0.09255449 0.095151514 -0.005480202 -0.10101331 0.1472908 -0.14126469
-0.0047355965 0.072966844 0.08815777 -0.11317596 -0.065462545 -0.095784076 0.08448306 -0.017720547
-0.15320006 -0.012911494 -0.10768246 0.28006452 0.23632635 -0.0388715 -0.047098972 0.21452054
0.22687605 -0.071593404 0.10494346 -0.0048537944 -0.46187812 -0.08506815 -0.24635264 -0.18801332
-0.06086474 -0.3154256 -0.016007645 -0.21320094 0.019345315 -0.053074636 0.17711355 -0.18211845
-0.036788523 -0.0016304535 -0.164682 -0.27810562 -0.049937923 -0.09302465 -0.0384472 -0.21816434
-0.14488311 0.01346678 -0.07087651 0.31815267 -0.24893895 -0.008724425 -0.06239501 -0.08963073
-0.010837209 0.017465029 -0.09234928 0.109830685 0.09904446 0.08342435 0.28758422 -0.079834215
-0.055225734 0.18632995 -0.10608138 -0.0041052303 -0.07696924 -0.1707188 0.22325754 -0.26531684
-0.24864675 0.1834324 0.039965525 0.058140986 -0.05305922 -0.20822315 -0.28577095 -0.30717734

model_1/conv2d_9/Conv2D f4 [48, 3, 3, 48]
00000000: 041a 3cbd 0839 2ebd a54e 1dbd 8012 ec3d
00000010: 1c27 0c3c d624 f53d 5160 fdbc 69bd 5bbe
00000020: 0dd8 1d3e 7159 c4bd a431 993c 1309 963c
00000030: 8dbe 793e 7856 593c d598 f23d 68c6 efbd
00000040: 1788 cf3c eb7f 0cbe 16ec 153d 8c7d 63bd
00000050: 38a2 7dbc 1ad9 dcbc e9bd e03d 31ac 87bb
00000060: b222 d5bd 9282 673c 8df5 ee3d eb73 95bd
00000070: 4ec4 f83c 6a8a 123e 56a1 c33c b24a 27bd
00000080: cac0 1a3e d3e5 a53d da53 163e 8dbd ca3d
00000090: 43aa 873d c973 913e 3f62 28be db97 943d
000000a0: 84a2 223c be3d 03bd c3fd 423d 5362 3dbe
000000b0: 406f e1bd c99a 813e a632 293e 0082 5b3c
000000c0: 7333 4a3e 0432 c93d b1d2 1a3e 41cd 38bd
000000d0: 72ba 3a3e 4ea3 c73c 9219 683d c59b d33d
000000e0: 910e 80bd 2383 13bd 1b4e be3b bf1e 1f3d
000000f0: 282c cf3d 3408 943c 95a7 ea3c 1ac4 f5bd
00000100: d286 853d 3c32 b8bd a1e0 51bd 2d24 26bd
00000110: 233c 8fbd cd36 f6bd e403 2a3d f8bf 9c3d
00000120: 9986 c1bd 4dd5 b1bc ee8c 9c3e 30a8 903d
00000130: 5cec 033e 5718 1b3e 2367 aa3c 5fb5 9d3c
00000140: 0316 d03b 3772 95bd b3a8 073e 8e5b 85bb
00000150: 6122 36be cbd7 243e b1b8 a2bd 535e 673d
00000160: e7d6 d13c 3b6f 37bc b6e6 223e ef5b ca3d
00000170: 606c 26be 2ef4 0f3e 6a34 e13d 606c b23b
00000180: 345f 8dbe 0258 a9bd 1b8a 60be eca9 32be
00000190: fc6b e43d e0e2 bdbe 7a6d d2bd d0c9 483e
000001a0: ffd3 62be 79ac e03b 7ecb e6bd c739 013e
000001b0: ed03 a6bd d3e0 423d 6e7a 1fbe 6f51 6ebe
000001c0: 6177 c33c 5c33 05be 8cf9 ee3c 8009 70be
000001d0: 26df 80be 49f2 763e 6cc4 87bd 0270 15bd
000001e0: fb64 fdbd a547 9bbc 73e4 54bd 5f59 513e
000001f0: 6ef5 48bc f04d 32be 266f dfbe d778 29be
00000200: 8595 b63d 8a6e 653d 0895 18bd 1f86 ad3c
00000210: 7f6a c1be 54fa cfbd 4e0e 49bd fb6e 7cbd
00000220: f24f 2bbe 6c92 623d 531f 103d c5fd 533c
00000230: 0121 b5bd ec74 a4bc 6954 1cbe 4311 c73d
00000240: dff4 0d3c 9934 f8bc c075 443e 14ba 313e
00000250: 4995 423d 843d dc3e b265 243e f4b0 4dbe
00000260: 4b55 f73d 1c0e 6abe fa8b eabc 17e8 85be
00000270: 2b17 babd 5600 7abc ccdb b2be 4cd4 ce3d
00000280: 6980 2d3d 9072 1d3e f9b2 2bbe e6bb a5bd
00000290: 9886 8c3d bff6 933d b207 44be eb0f a13e
000002a0: d6e5 09bb b4a6 0b3e 231a 05be 91ac f03d
000002b0: d8f3 46be da93 fcbd 0dad 33bb 8460 5cbd
000002c0: bd0d 543d 8f52 593d 4fe5 09bf f32a 8ebe
000002d0: 6cc5 783e 7ea6 80be b3cb 7f3c bdff f1bc
000002e0: d6ab ed3d 75a0 84bc 5966 0dbd d619 d0ba
000002f0: 9253 82be b919 d7bd 4d35 8ebe c14e 5bbe
00000300: 52c5 0b3e 0972 253d 7784 7d3d e588 c7bd
00000310: e393 af3c 72da 1cbe c454 a83d dc14 75bc
00000320: db48 52be ea76 253e 3314 ba3d dc6e 9f3d
00000330: 4b5c 89bd ff45 3ebe 3ded c2bb 56a7 b8bd
00000340: c716 d53c ac5d d8bd 6ed8 87bd 3656 1e3e
00000350: 4f49 8fbd bcc0 323e 4758 3e3e b2d3 693d
00000360: e369 d7bd 7abe 42bd d84a cd3d b59c db3d
00000370: 28d3 1c3e b68c 673d 6922 313e 5e35 f63d
00000380: 1f1f 3dbe 4e5b 813d b29f 2cbe 3b17 3bbd
00000390: e1e6 a4be 7edb 8cbd bd95 6d3d c3bb 113e
000003a0: 1da1 0fbe 0f29 9f3c 73a1 f5bd 874a 9b3d
000003b0: 716d 6a3c 4ac9 42bd 9e18 d73d d719 ccbd
000003c0: ff97 403e 5cb1 4ebd 0d52 21be c2a6 313e
000003d0: 3726 113e bd6a b23d 324c 7fbe 04f7 17be
000003e0: c454 a73c f87c 01be 440e 15bd db65 19bd
000003f0: 5547 02be 5664 093e 2b0a 0cbd 6500 cfbd
-0.045923248 -0.042534858 -0.03840508 0.11526966 0.008554246 0.119699165 -0.030929716 -0.21458973
0.15414448 -0.09587372 0.018700428 0.018314874 0.24389096 0.013265245 0.11845557 -0.11707765
0.025333447 -0.13720672 0.036602102 -0.055539653 -0.0154805705 -0.02695899 0.109737225 -0.0041404
-0.10407008 0.0141302515 0.11667929 -0.072975 0.030367043 0.14310613 0.023880642 -0.04084272
0.15112606 0.08100476 0.14680424 0.09899435 0.06624272 0.2840865 -0.16443728 0.07255527
0.009926442 -0.032041304 0.047605287 -0.18494539 -0.110075474 0.25313404 0.16523227 0.013397694
0.19746189 0.09823993 0.15119435 -0.04511762 0.18235186 0.024369862 0.05666501 0.10332445
-0.06252778 -0.036013734 0.0058076507 0.03884768 0.10115844 0.018070318 0.028644362 -0.12000294
0.065198556 -0.089939564 -0.051239613 -0.040561844 -0.06993892 -0.12022171 0.041507617 0.07653803
-0.094495006 -0.021708155 0.3057627 0.07063329 0.12883133 0.15146004 0.020801133 0.019251524
0.0063502803 -0.072971754 0.13247947 -0.004069752 -0.17786552 0.16097943 -0.07945383 0.05648644
0.025615169 -0.011195953 0.15908322 0.09880816 -0.1625228 0.14057991 0.10996325 0.005445048
-0.27611697 -0.08268739 -0.21927683 -0.17447633 0.11153409 -0.37087154 -0.10274787 0.19608235
-0.22151183 0.006856498 -0.11269282 0.12619697 -0.081062175 0.04757769 -0.15574047 -0.23273252
0.023860635 -0.13007873 0.029171728 -0.23441124 -0.2517025 0.24115862 -0.066292614 -0.036483772
-0.12372776 -0.018955061 -0.05197568 0.20444249 -0.012265546 -0.17412543 -0.43639487 -0.16550003
0.08915237 0.05601362 -0.037251502 0.021182118 -0.37776563 -0.10155168 -0.049085908 -0.061629277
-0.16729715 0.05531542 0.035186123 0.012938921 -0.088441856 -0.020075284 -0.15266575 0.09720089
0.008664339 -0.030298518 0.19185543 0.1735614 0.04750565 0.43015683 0.16054419 -0.20087034
0.12076815 -0.22856945 -0.0286312 -0.26153633 -0.0908645 -0.015258869 -0.34933317 0.10099086
0.04235879 0.15375733 -0.16767491 -0.080924794 0.06861609 0.072247975 -0.1914356 0.31457457
-0.0021041534 0.13637811 -0.12998252 0.117516644 -0.19428957 -0.12332888 -0.0027416379 -0.053802982
0.051770914 0.05305725 -0.5386552 -0.27767143 0.2429406 -0.25127023 0.0156125305 -0.02954089
0.11605041 -0.016189793 -0.034521434 -0.001587684 -0.25454384 -0.10502953 -0.2777504 -0.21416761
0.1364949 0.040391956 0.061893906 -0.097429074 0.021432823 -0.15317705 0.08219293 -0.014958587
-0.20535605 0.16158643 0.09085884 0.077848166 -0.067070566 -0.18581389 -0.005948691 -0.09016292
0.026011838 -0.105647415 -0.066330776 0.15462574 -0.069964044 0.17456335 0.18588363 0.057086654
-0.10518243 -0.047544934 0.10024041 0.10723249 0.15314925 0.056530677 0.17298283 0.12021898
-0.18468903 0.06316243 -0.16857794 -0.04567645 -0.32207397 -0.06877802 0.05800413 0.14231782
-0.14026304 0.019428758 -0.119936846 0.07582574 0.014308319 -0.047555245 0.10502742 -0.09965866
0.18807982 -0.05046211 -0.15753956 0.1734877 0.14174734 0.08711765 -0.2493141 -0.14840323
0.020426162 -0.12645328 -0.036390558 -0.037450653 -0.12722524 0.13417181 -0.034189384 -0.10107497

model_1/conv2d_10/Conv2D f4 [64, 3, 3, 48]
00000000: bc6f 1ebe 59bf fc3d dd8c 5dbe cce8 9cbd
00000010: af6a 52bb aba7 3fbd d71f d33b 9d8d 173e
00000020: 640e 30bc f5f8 71be 2a14 01be e370 17bc
00000030: 6650 303e bcd7 fc3d 633d 643e b934 193e
00000040: 94f9 daba 2038 ee3d d2f8 0f3e cb9d 99bd
00000050: 0e3e 8f3e b3a0 b13d 62f5 f4bc ca8a 5e3e
00000060: c003 563e bfd8 003e 15d7 7c3c 76c5 0b3e
00000070: 86ad 153d 83cd 9e3e 6c89 843a f104 48bd
00000080: c94f ae3d 1ca9 e23d 5b0e 803c 6027 bd3d
00000090: 8b53 02be b3aa 8a3e 635e 22be 26d9 64be
000000a0: 285e 96bc b697 07be e7ce 183d 53b5 8fbd
000000b0: 9eaa eaba 314d 4c3e 1fcf 7e3d 9e45 f0bd
000000c0: 31bd ddbc 822c 5fbd 95b3 a23d 7a4e 363e
000000d0: 63da 09bc bbcd cdbc ca1a f03d 1c1d ff3c
000000e0: d84d d83d cd95 77bc 2cb2 8f3c 8855 b43d
000000f0: 754c 683c 6e6e 7a3d 9dfd eb3c 331e d1bb
00000100: f585 4b3d 6525 803d cb03 393e bb2b 47be
00000110: 46b1 243e ab03 c53d d0cb 99bd b0f4 153e
00000120: 334a a53d 3cd0 91bd d2bb cc3d 37fd 92bd
00000130: 91c9 43bd 158c a63d 17c9 8ebd 2972 59be
00000140: 00ab 033e b107 4cbc 4e3e 4ebc 229e 013e
00000150: 0e9b 6bbb aaf6 323c 6226 953e b81c 303d
00000160: afc9 153e e8e3 2bbe 5e62 243d 1e34 50bd
00000170: cc0a 403e 312f b33d 07ff aa3c 5ba7 883d
00000180: 52e6 973c 2d79 d43d 3f08 2a3e 6ebf 853e
00000190: 5916 71be 6ff6 53bd 6a36 38bd 4085 f1bd
000001a0: dbdd 40bd 3152 453e bbae ccbd d34e 87bd
000001b0: 191d 61bd 4fdf b93d d16e 2e3d 28e6 1b3e
000001c0: b5db c03d 97ae 31bd 563c b13c 07d1 0cbe
000001d0: 0af7 6cbe a631 0d3d 0bb1 753e 8a9f bc3b
000001e0: a7a9 bebd 66de 18be bcb8 073e a038 d0bd
000001f0: f517 43bc df6b 063e 10c6 53be 41a1 1b3e
00000200: 8919 153e ab1a 893e 0991 18be fb36 cb3d
00000210: 3161 3f3d 0b48 473e a0aa 083d 51f9 723e
00000220: f994 593d 75e7 923e 2f89 cbbd 6bf6 ef3c
00000230: a595 c4bc d1dd 053d b646 94bd 4ba8 093e
00000240: 08b7 5c3d b71e 5e3d c47f 78bd 68f2 683d
00000250: ffa9 26be d568 5a3b f6cf 39be cfee 603e
00000260: 9b0d ab3c e845 6abe c474 07bd 5ff3 32bd
00000270: e68b 013d 784d 2bbd 3a77 133e d6cf 743e
00000280: 0098 763c 91e2 063e b81d 00bc 163f 7dbd
00000290: d1b2 d13d 6386 873e fdf1 11be 9802 9a3d
000002a0: fbbd 013e 0317 523e 2a58 8dbd 6734 933e
000002b0: 581e 1abd f225 57bc c525 9dbc 7ea3 f23b
000002c0: fda3 303e 740f 0e3e 63d2 b03d 0471 863c
000002d0: 8fdc cfbd 57da 613e 7a0c 20be f822 44be
000002e0: 9a1a 8c3d 33f2 fc3d c639 1b3e 1770 09be
000002f0: 51ba 093e c9dc 153e c0fd 76bd e751 05be
00000300: c4f9 27bd 533c 90bd 797f b5bd b377 20be
00000310: 55ac 27bd 6b02 bc3c 129e 953a 429e 753d
00000320: 5a80 753d 843a 03be 7ca0 64bd 870a b93c
00000330: a228 27bd 1f3a 0abc 9f7e b4bd 0692 973c
00000340: d0be 313d ef12 05be 37ee a53d 5126 4f3e
00000350: 2546 92bc cf89 11be 0918 1f3e 7b82 2b3e
00000360: a28b 8d3d 72d4 463d 507b 2d3d dcb8 223d
00000370: 4643 b63b ef5f c5bc 6c8c adbe 8a8f c4be
00000380: 081b 333e eea0 02bd d698 2dbd 6402 5dbb
00000390: 7109 18bd 1fc1 afbd 4011 8bbd e41d d63b
000003a0: c764 9f3d 4443 1ebe b561 f73c f6a7 3b3c
000003b0: 31ba bbbd 5ede 66bd 06cb 53bc 827b 2b3d
000003c0: 7920 513e e602 3dbe 2bb3 1a3e c519 1e3d
000003d0: e786 81bd 5f47 83be 8417 7fbd 53d2 ccbc
000003e0: 8f61 383c dc24 05be 14b6 213c 502f 863e
000003f0: 6ef0 c5be b3b3 3c3d 70a3 18be be85 533d
-0.15472311 0.12341184 -0.21635766 -0.0766159 -0.0032107045 -0.04679076 0.0064430046 0.14800115
-0.0107456185 -0.23630126 -0.12605348 -0.009243223 0.1721817 0.123458356 0.22289042 0.14961518
-0.001670646 0.11631799 0.14059761 -0.075008 0.2797703 0.08673229 -0.029902164 0.21732631
0.20899868 0.12582682 0.015432139 0.13649544 0.036542438 0.31016168 0.0010111756 -0.048832837
0.085113116 0.11067411 0.015631845 0.09236026 -0.12727182 0.27083358 -0.15856318 -0.2234846
-0.018355444 -0.13241467 0.037306692 -0.07017007 -0.0017903631 0.19951321 0.062209245 -0.117320284
-0.027067753 -0.054485805 0.07944409 0.17803374 -0.008413884 -0.025122514 0.117238596 0.03114181
0.105617225 -0.015111399 0.017541014 0.08805376 0.014178385 0.06114047 0.028807456 -0.006381774
0.0496883 0.062571324 0.18067853 -0.19450276 0.1608325 0.0961984 -0.07509577 0.14644122
0.08070793 -0.07119796 0.099967614 -0.07177203 -0.04779965 0.08132187 -0.069719486 -0.21234955
0.128582 -0.012453006 -0.012588097 0.12657979 -0.0035950574 0.010923067 0.29130846 0.04299614
0.14627717 -0.16786158 0.040132873 -0.050830953 0.18754119 0.087492354 0.02087356 0.066725455
0.018542442 0.10374675 0.16604708 0.26122612 -0.23543681 -0.05174869 -0.04497377 -0.117929935
-0.047086578 0.19269635 -0.09994265 -0.066068314 -0.05495939 0.09075796 0.04258615 0.15224516
0.09416906 -0.043379392 0.021635216 -0.13751613 -0.23141113 0.034471177 0.23993318 0.005756323
-0.09309702 -0.14928588 0.13254064 -0.1016705 -0.011907567 0.13127087 -0.20681024 0.15198232
0.14560522 0.2677816 -0.14899077 0.09922596 0.04672355 0.19461076 0.033365846 0.23727919
0.053120587 0.28692213 -0.09938275 0.029292306 -0.023997137 0.032682244 -0.072400495 0.13443105
0.05388549 0.05422851 -0.06066872 0.0568718 -0.16275786 0.0033326645 -0.18145737 0.21966098
0.020880511 -0.2287823 -0.03307034 -0.043689128 0.03162756 -0.041821927 0.1440095 0.23907408
0.015050888 0.13172366 -0.0078195855 -0.06182774 0.10239185 0.26469716 -0.14252467 0.07520026
0.12670128 0.20516591 -0.069015816 0.28750917 -0.037626594 -0.013131605 -0.019183049 0.0074047437
0.17250057 0.13873082 0.08633878 0.016411312 -0.1014949 0.22055946 -0.1562976 -0.19153965
0.06841011 0.12350883 0.15158758 -0.13421665 0.1344998 0.14635004 -0.06030059 -0.13019525
-0.04100968 -0.07042756 -0.08862204 -0.15670662 -0.040935833 0.022950372 0.0011414906 0.05996538
0.05993686 -0.1281529 -0.055817112 0.022588028 -0.040810235 -0.008436709 -0.088132136 0.018502247
0.043394864 -0.12995504 0.081020765 0.2022946 -0.017855713 -0.14212726 0.15536512 0.16748993
0.069113985 0.048542447 0.042353928 0.039727077 0.005562219 -0.024093596 -0.33896196 -0.38390762
0.1749078 -0.031891756 -0.042382084 -0.0033723349 -0.03711838 -0.08581757 -0.067903996 0.006534325
0.07782894 -0.15455347 0.030197958 0.011453619 -0.091663726 -0.05636441 -0.0129268225 0.041865833
0.20422544 -0.18458137 0.1510741 0.038598794 -0.06324559 -0.2564039 -0.062278286 -0.025002634
0.0112537285 -0.13002342 0.009870071 0.26207972 -0.38659996 0.046069812 -0.14906096 0.05164122

model_1/conv2d_11/Conv2D f4 [64, 3, 3, 64]
00000000: 3e2f a8bc 5246 083d 4e5a cbbc b80c 43bc
00000010: 302c 8ebd 3002 15bc 4efb f1bc f2d6 71bd
00000020: 9c04 a1bc f026 04bd e099 813d d422 833c
00000030: 281a db3c 16e0 31bd c8b2 b0bc 0017 b0bc
00000040: 1688 5ebd 929f 233d 58b4 5d3c 30f1 9a3c
00000050: 3c2a 79bd 5af6 4cbd a8b3 88bc d0b3 9bbb
00000060: c0a8 a3bb 75de 79bd 72d3 27bd 7c2a e0bc
00000070: c039 cfba 6006 6bbd f833 1e3d b410 3abc
00000080: 4074 ae3c 604d 8f3c fbee 72bd 5407 b73c
00000090: 648f 533d 6a11 1bbd dcc4 9bbc a8b2 1d3d
000000a0: a49b 8b3d 40c9 863d 346b 2b3d 2e60 92bd
000000b0: 727e 023d 5cd3 87bd 4072 cc3c 1098 b7bb
000000c0: 2efb 76bd 2033 8fbb 95d6 22bd 72ec e2bc
000000d0: 0ca1 50bd ba76 063d 99d0 8ebd bb6a 3fbd
000000e0: 784f 113d 8cbe 8d3d d8ac 9cbc c4d7 4e3d
000000f0: 432f 26bd f4b6 69bd cc56 43bd ba29 8f3d
00000100: 4c5d 363d 872e 45bd b034 dbbb 40b4 be3a
00000110: 1c70 46bc 16fd 523d 621b fabc e019 a23c
00000120: 0c06 923d a254 92bd 2aa4 183d 10e5 44bc
00000130: a817 953c 6cbe 4e3d 60fb 38bb 34dd 2abc
00000140: 00b0 553c 24c8 80bc b469 49bc c815 38bc
00000150: eeda b7bc a07a 443c c02f 5e3d f0ba 1f3d
00000160: 90ba f13c c05b 88bd ea3b a8bc 88fb 8a3c
00000170: 2438 283d 319d 3dbd ea6d 813d a47c bb3c
00000180: 0736 26bd 1012 703d ca1c c2bc b5dc 11bd
00000190: d849 cb3c 70e1 4dbc 4823 40bd 809a 323a
000001a0: 508b d13c a80c 14bc f0f1 0dbd e47a 573d
000001b0: 303f 453c c084 753d 0d1d 69bd 5b4d 57bd
000001c0: 84ba 733d 74dd 523d 54d1 bf3c 07c2 65bd
000001d0: b87e ea3c f838 2d3c f8f2 dcbc 4438 913d
000001e0: ff63 92bd e473 84bc 7f09 91bd 0ea5 1d3d
000001f0: 98d3 83bd 083b 65bc 8037 28ba 1ca0 50bd
00000200: e695 edbc f063 373d 3209 0d3d 9483 c33c
00000210: 00cc 32b9 c075 783b 44e0 783d 484a 543c
00000220: 40b3 c53b c254 303d 8865 6ebd 3a99 0fbd
00000230: 1004 4e3d 5c97 eabc b585 2dbd b8f6 0fbc
00000240: 0080 78b7 36c2 35bd 70eb eb3b adab 90bd
00000250: b51d 8cbd 3061 873c f92c 11bd b0e4 8d3d
00000260: c091 c93a c085 6b3d a5ba 88bd fadc 8e3d
00000270: 9e53 093d d619 c6bc 102f d03c 903e f6bb
00000280: 5063 bf3c 4028 303d 14c0 333d 1887 0ebc
00000290: 602e 83bc 60d2 e13b 8641 2a3d 5617 223d
000002a0: c886 93bd d854 5f3c 4003 c13b 1875 4e3d
000002b0: 38a7 1f3d a71b 27bd 28ca 0f3d 08f6 503d
000002c0: 13bd 26bd e074 47bb 7887 8f3c fc5c 42bd
000002d0: 3012 e5bc d008 483c a495 46bc f1ce 8abd
000002e0: 6c80 133d 48e0 73bc d26d 7bbd 8c30 723d
000002f0: 183a 553c 78c9 4a3c 16e9 82bc e82a 80bd
00000300: 1818 0f3c ca27 4f3d a47d 7ebc f2cb a9bc
00000310: 66b5 19bd 381c 64bd bccb fe3c 34dc 9f3c
00000320: a071 ddbc d8af fe3c 8a94 8abd b60d e7bc
00000330: c044 563c c46f 2d3d fc78 44bd 9c8c f43c
00000340: 2ef7 8bbd e425 813c 6a84 513d 8a81 c8bc
00000350: 2c10 b93c dc4d 823c b837 8c3d acc9 31bc
00000360: 2ccd 93bd aa46 a6bc 0048 c439 f49d 813d
00000370: 98a0 1b3d 702c 0ebc 764c 903d 3c23 603d
00000380: d093 c6bb 6c89 22bc c01b 763d 0806 693d
00000390: 28c8 1d3c 284e 933d 6835 e1bc 5cd6 683d
000003a0: 8485 1e3d 42ca 0a3d 40dd 323d 70c5 843d
000003b0: 9c65 ddbc 34eb 9cbc f033 c73c 3400 72bc
000003c0: 201c 2a3d 4cf8 5a3d 2c1d 14bd a000 7a3d
000003d0: 529b 42bd 442e e53c d0a4 c2bb 10f6 833b
000003e0: d4f0 043d a622 b9bc 4c71 883d e212 91bc
000003f0: 5007 973c e8e6 303c d89a 7b3c 980c 3a3c
-0.02053034 0.033270188 -0.024823334 -0.011904888 -0.06942022 -0.00909476 -0.029538777 -0.05904288
-0.019655518 -0.032263696 0.063281775 0.016007818 0.02674587 -0.043426596 -0.021569625 -0.021495342
-0.054329 0.0399471 0.013531767 0.018913835 -0.060831293 -0.050039627 -0.01668723 -0.00475166
-0.004994482 -0.061003167 -0.040973134 -0.027364008 -0.0015810058 -0.057379127 0.03862378 -0.011356521
0.021295667 0.01749295 -0.05930994 0.022342362 0.05165042 -0.037858404 -0.019014768 0.038500458
0.068167955 0.06581354 0.041850284 -0.07147251 0.03185887 -0.066321105 0.024956822 -0.005602844
-0.060298137 -0.0043701082 -0.039755423 -0.027700637 -0.050934836 0.03282807 -0.069733806 -0.046732645
0.035476178 0.069211096 -0.019125387 0.05049874 -0.040572416 -0.057059243 -0.047690198 0.069903806
0.04452257 -0.048140075 -0.0066896304 0.0014549568 -0.01211169 0.051510893 -0.030530635 0.019787729
0.071300596 -0.07145049 0.037265934 -0.012017503 0.018199757 0.05047457 -0.0028226003 -0.0104287155
0.01304245 -0.015720434 -0.012293268 -0.011235662 -0.022443261 0.011992127 0.054244757 0.038996637
0.029507905 -0.06658125 -0.020536382 0.016965643 0.041069165 -0.046292488 0.063197926 0.022886582
-0.04057887 0.058610976 -0.023695368 -0.035610873 0.024815485 -0.0125659555 -0.046908647 0.00068131834
0.025579125 -0.009036221 -0.034654558 0.052607432 0.012038991 0.059941053 -0.05691247 -0.052564006
0.059504047 0.051480725 0.023415245 -0.056093242 0.028624877 0.010572664 -0.026971325 0.0709081
-0.07147979 -0.016168542 -0.07081889 0.038487487 -0.06436843 -0.013991125 -0.00064169616 -0.050933942
-0.029002141 0.044773042 0.034432597 0.023866452 -0.00017051399 0.0037911981 0.06076075 0.012957163
0.006033331 0.04304958 -0.058202296 -0.035058238 0.050296843 -0.028636627 -0.04236384 -0.00878685
-1.4811754e-05 -0.044374667 0.007199697 -0.070639946 -0.06841604 0.016525835 -0.03544328 0.06928384
0.001537852 0.0575006 -0.066762246 0.06975742 0.03352701 -0.024182241 0.025413066 -0.0075147822
0.023362786 0.043007135 0.04388435 -0.008699201 -0.016013324 0.0068915337 0.041566394 0.039573036
-0.07203442 0.013631068 0.00589028 0.050404638 0.03897783 -0.040797856 0.0351049 0.051015884
-0.04070766 -0.0030434653 0.017520651 -0.047451958 -0.027962774 0.012209132 -0.012120638 -0.06777752
0.036011145 -0.014885016 -0.06138403 0.05912833 0.013014339 0.012377135 -0.015980285 -0.06258184
0.008733772 0.050575055 -0.015532885 -0.020727132 -0.03752651 -0.055690974 0.031103007 0.01951418
-0.02703172 0.031089708 -0.06766613 -0.02820478 0.013077915 0.042342916 -0.047966942 0.029852204
-0.06834255 0.015765138 0.05115167 -0.024475832 0.02259072 0.015906267 0.06846565 -0.010851305
-0.07216868 -0.020297367 0.00037437677 0.06328955 0.03799495 -0.008677587 0.07045834 0.054721102
-0.006060101 -0.009920459 0.06008506 0.056890517 0.0096302405 0.071926415 -0.027491286 0.056845054
0.03870155 0.033884294 0.04366803 0.06482971 -0.02702599 -0.019155122 0.024316758 -0.014770556
0.04153073 0.05345945 -0.036160633 0.061035752 -0.047511406 0.027976163 -0.0059400573 0.0040271357
0.032456234 -0.02259953 0.06662235 -0.0177092 0.018436104 0.01079724 0.015356742 0.011355542

model_1/dense_1/BiasAdd/ReadVariableOp f4 [100]
00000000: a1c4 023e 3d8b 1f3d 2860 f1bc cc52 1ebd
00000010: 4d42 60be f620 27be e6d0 923d d8b7 693e
00000020: 1ea7 20bd 60de 26be c864 4bbc 91c9 e63c
00000030: b0e7 273e 8f73 46bd 98ad 3fbd 60db 03be
00000040: c073 cabc bb92 1dbe 11e9 e23c 9180 693e
00000050: d8c7 c63c f956 91be 7eed 06bd ec52 893d
00000060: 008c bcbd 0399 423d 5534 f2bc 7295 a6bd
00000070: 1a6f c9bd e45e 43be 6734 78bd c2b6 1d3d
00000080: 2491 483e b5a9 143c 499d fbbd 5794 a53d
00000090: a6f4 f5bd ba11 163e 7aa3 f2bd f7bf d53c
000000a0: 3bd3 193e 59d6 733d b0ca e6bd bc41 debd
000000b0: 6c4e 1abd c194 873d e3ef 303d ac2b bf3d
000000c0: 2b53 d8bd 2475 69bd ab10 1bbd 68c8 313d
000000d0: c86b 923d fd0f 2fbc 9f0f 163e 55a5 59be
000000e0: 9866 203e 052a 21be 093b d13c 49ca 213a
000000f0: 6a11 b53d 6038 26be 2a05 9cbd 5ae2 cc3d
00000100: ecbc 693d cadf 9bbd cf93 203d e2ba 18be
00000110: 9e02 103d 5c9e 0cbe 07a5 b83d f5ed 79bc
00000120: 167f 1abe c4a1 2d3d f361 9abd a843 fd3c
00000130: 243c 85be 9d78 c1bd 124f 2ebd 7479 163e
00000140: c7ce eb3d ef54 06be 7345 31be dc55 833c
00000150: 92cd 0abe 55c7 d8bd 129b 8bbd a267 353e
00000160: 5ec6 3a3e 5451 07be 41c5 d1bd 7ea3 7b3d
00000170: d136 713c 86f1 8eb9 21ed 203d 79c0 5e3e
00000180: 988e 7abd 5350 20bd e41b 04bd 1fba 843d
0.1277032 0.038951147 -0.029464796 -0.03865318 -0.21900292 -0.16321167 0.071687505 0.22824037
-0.039221875 -0.16295767 -0.012414165 0.028172286 0.16396976 -0.04845005 -0.04679641 -0.12876654
-0.024713397 -0.15388004 0.027699025 0.2280295 0.024265215 -0.28386667 -0.032941334 0.06705269
-0.092063904 0.047509205 -0.02956597 -0.08133973 -0.09835644 -0.19079167 -0.06059685 0.03850437
0.19586617 0.009073664 -0.12285859 0.08084934 -0.120095536 0.146552 -0.11847587 0.026092513
0.15021984 0.05953059 -0.11269128 -0.108523816 -0.037672445 0.066201694 0.043197524 0.093345016
-0.10562738 -0.05699648 -0.037857693 0.043404013 0.07149464 -0.010684964 0.14654396 -0.21254475
0.15664136 -0.15738685 0.025540845 0.00061718054 0.08841212 -0.16232443 -0.076181725 0.10004111
0.057064936 -0.07611044 0.03920346 -0.1491504 0.035158746 -0.13732284 0.090158515 -0.015254487
-0.15087542 0.0423906 -0.075382136 0.03091605 -0.26022446 -0.09446833 -0.042555876 0.14694768
0.11514049 -0.13118337 -0.17311649 0.016032152 -0.13554981 -0.105848946 -0.06816687 0.17715314
0.18239734 -0.13214618 -0.10242701 0.061435215 0.014722542 -0.000272643 0.039288644 0.2175311
-0.061171144 -0.039139103 -0.03225316 0.06480812

model_1/batch_normalization_7/FusedBatchNormV3 f4 [3]
00000000: 3c7e ae3c cd7d 903c a072 3a3c
0.021300428 0.017638111 0.011379868

model_1/batch_normalization_7/FusedBatchNormV31 f4 [3]
00000000: 32c7 3ac0 3e8a 0ec0 1044 a5bf
-2.918408 -2.2271876 -1.2911396

model_1/batch_normalization_8/FusedBatchNormV3 f4 [32]
00000000: 4d8f f63f 257b 4540 d2b5 e53f f699 f03f
00000010: 5cd8 b73f 5229 cb3f c85f 2740 60d6 de3f
00000020: faa9 0140 8b28 d23f f9fd 0240 350c 1f40
00000030: aa6e 0d40 7f06 f13f c70e 0040 63c0 963f
00000040: 9273 b53f 5c10 e83f 10cf 523f 97b1 aa3f
00000050: 8f5f 1c40 fb34 bb3f 42c0 c03f 0528 da3f
00000060: 8cc3 ef3f 0aee 0d40 c735 cc3f 54f3 e43f
00000070: 032b 0840 9b10 e73f 7e6c 1340 edda cf3f
1.9262482 3.0856411 1.7946112 1.8796985 1.4362903 1.5871985 2.615221 1.7409172
2.0259995 1.6418623 2.0467513 2.48512 2.2098794 1.8830107 2.000902 1.1777462
1.4175894 1.8129992 0.823472 1.3335446 2.4433324 1.4625543 1.5058672 1.7043463
1.8731551 2.2176538 1.5953912 1.7886758 2.1276252 1.8051943 2.3034968 1.6238686

model_1/batch_normalization_8/FusedBatchNormV31 f4 [32]
00000000: 28d2 45bf 02bb 20bf 05c0 4cbf 400f fcbe
00000010: da2a 5cbf f91c aabf 8e39 7cbf 141c 70bf
00000020: 064a 7bbf 507a 3ebf df34 afbf 4667 0abf
00000030: d9db 60bf 8ec7 79bf 3a80 77bf 8054 8ebf
00000040: 304c 82bf 3eac 32bf 80ac 80bf 78db 10bf
00000050: 1512 87bf d677 63bf a5ae 2fbf e3c1 36bf
00000060: 53a9 52bf 10b1 0fbf 1c3c bdbf f41a 43bf
00000070: 760e 63bf 2a7a 8dbf 7e52 e2be 25e1 73bf
-0.772738 -0.6278535 -0.799805 -0.49230385 -0.86002886 -1.3290092 -0.9852532 -0.93792844
-0.98159826 -0.74405384 -1.368801 -0.5406383 -0.8783546 -0.9757012 -0.96680033 -1.1119537
-1.01795 -0.6979407 -1.0052643 -0.5658488 -1.0552393 -0.8885473 -0.6862586 -0.713896
-0.8228962 -0.5612955 -1.4783969 -0.76213 -0.8869394 -1.1052907 -0.44203562 -0.9526542

model_1/batch_normalization_9/FusedBatchNormV3 f4 [32]
00000000: 5b64 c43e 96a7 b63e 9f91 9a3e fbf9 883e
00000010: 1b25 7d3e 18c3 9b3e 696c c03e 9e7b ad3e
00000020: 2663 b63e 55d0 6e3e 9cfe b53e c72c a73e
00000030: 206f c13e 57ae 0c3f e56f bb3e d465 b23e
00000040: e4bf a63e c33b 933e d348 b43e 2596 c53e
00000050: 88cb 9c3e b078 963e ca5e a03e d92d c23e
00000060: ae67 993e c620 983e bb5d c83e c3ac 9a3e
00000070: a154 773e 5e08 b73e a275 b23e 92e9 c03e
0.38357815 0.35674733 0.30189225 0.2675322 0.24721186 0.30422282 0.3758271 0.33883375
0.3562252 0.2332166 0.35545814 0.3265135 0.37780094 0.5495352 0.36608806 0.34843314
0.32568276 0.28756532 0.3521181 0.38591114 0.30624032 0.29388952 0.31322318 0.37925604
0.29961914 0.29712504 0.3913401 0.30209932 0.24153377 0.3574857 0.34855372 0.376782

model_1/batch_normalization_9/FusedBatchNormV31 f4 [32]
00000000: b28c 66be ce73 dcbe 0278 eebe 5b34 19bf
00000010: 30e7 09bf 12a3 1dbf 648d e7be 7e89 4dbf
00000020: ad33 14bf 8614 07bf 8bf6 0cbf d8e1 f4be
00000030: 863d 3fbf e21d cfbe 06f2 08bf 821c 93be
00000040: 9ab8 82be 2d70 e8be 99ab 95be 9278 c2be
00000050: d45c 0cbf ccdc 4dbf dec5 10bf bf76 b5be
00000060: ceca 0ebf 3353 d9be b970 11bf bd23 80be
00000070: 1071 57bf 1c73 1cbf 9ec2 2cbf 0e66 06bf
-0.22514609 -0.43057102 -0.46575934 -0.59845513 -0.5386839 -0.6157695 -0.4522506 -0.8028792
-0.5789135 -0.5276569 -0.55063695 -0.47828555 -0.7470325 -0.40452486 -0.534943 -0.28732687
-0.25531465 -0.45398083 -0.2923248 -0.37982613 -0.54829144 -0.80415034 -0.5655192 -0.3544216
-0.55778205 -0.42446288 -0.56812626 -0.25027266 -0.84156895 -0.6111314 -0.6748446 -0.52499473
