ana-cont_1210_s2.tflite (tflite, 183756 bytes, 14 tensors)

model/dense/BiasAdd/ReadVariableOp f4 [128]
0.30936825 0.24244994 -0.14078002 0.07599909 0.113642335 0.16965032 0.3007312 0.1308059
0.13855267 0.46441033 -0.0849012 0.062713236 -0.061683778 -0.048890874 0.19248477 0.30535865
-0.02320122 -0.02121581 0.0449368 0.01794828 0.003097674 -0.013379835 0.17801334 0.15748806
0.3259862 -0.077032365 0.0009701077 0.016495995 0.08147784 -0.048677005 0.39119607 0.3577483
0.04344405 0.025247104 0.26579058 0.1986185 0.32774487 0.13577393 0.04699075 0.21590742
0.3766122 0.12828162 -0.029406134 -0.041699156 0.17651673 0.057827145 -0.03719173 0.3117306
0.45040536 0.20276056 0.5174111 0.05372061 0.056256074 0.30796325 0.117030144 -0.03043065
-0.07150169 0.040897746 -0.07123383 -0.06174657 -0.043308873 -0.060206387 0.0769255 0.21014464
0.39601398 0.09119597 0.0075216135 -0.0783931 0.2452915 -0.013805749 0.05944695 0.26496142
0.3470755 0.28080276 -0.009305246 -0.01428195 0.13819961 -0.059861705 0.12751263 0.28627864
0.10306806 0.004157029 0.095638566 0.12722227 0.32684398 0.29856253 -0.03649796 0.22493136
0.33373865 0.30631122 0.014196965 -0.08455207 0.18513098 0.23755114 0.19708689 0.23200884
0.1874735 0.07435828 -0.049145184 0.20998213 0.03370548 0.15694655 -0.028515156 -0.05223491
0.14247099 0.3502156 0.04598858 0.09013673 0.15790133 0.18649009 0.0530553 -0.056301188
0.45995998 0.094340645 0.37845963 -0.064568184 -0.25932372 0.26591596 -0.010055289 0.075006716
-0.052546155 -0.0851103 0.071790494 -0.047616545 -0.009296732 0.43030426 0.4025282 0.03438943
00000000: 8465 9e3e cc44 783e a328 10be 69a5 9b3d
00000010: 50bd e83d d0b8 2d3e 71f9 993e fbf1 053e
00000020: c0e0 0d3e 31c7 ed3e aee0 adbd cc6f 803d
00000030: 21a8 7cbd cc41 48bd ba1a 453e f857 9c3e
00000040: 7c10 bebc c7cc adbc a60f 383d 4508 933c
00000050: 5902 4b3b 1837 5bbc 2149 363e 8d44 213e
00000060: aae7 a63e 25c3 9dbd d34e 7e3a 9c22 873c
00000070: dbdd a63d 8a61 47bd da4a c83e c92a b73e
00000080: 63f2 313d 04d3 ce3c b415 883e a662 4b3e
00000090: 2dce a73e 5208 0b3e 5f79 403d d616 5d3e
000000a0: 50d3 c03e 425c 033e 22e5 f0bc bccc 2abd
000000b0: cdc0 343e 28dc 6c3d 5b56 18bd 279b 9f3e
000000c0: 889b e63e 77a0 4f3e 0e75 043f 240a 5c3d
000000d0: c56c 663d 5cad 9d3e 80ad ef3d b349 f9bc
000000e0: 7a6f 92bd 6584 273d 0be3 91bd f9e9 7cbd
000000f0: a564 31bd f99a 76bd 1e8b 9d3d 2830 573e
00000100: 58c2 ca3e f4c4 ba3d de77 f63b 908c a0bd
00000110: b22d 7b3e 8231 62bc a57e 733d 06a9 873e
00000120: e1b3 b13e 61c5 8f3e 0875 18bc d7fe 69bc
00000130: 3384 0d3e 8c31 75bd ac92 023e 1d93 923e
00000140: 5915 d33d b037 883b 27de c33d 8e46 023e
00000150: 1858 a73e 30dd 983e e37e 15bd 6854 663e
00000160: cbdf aa3e d3d4 9c3e 639a 683c a329 adbd
00000170: fa92 3d3e 9b40 733e 25d1 493e ba93 6d3e
00000180: 0ef9 3f3e 2749 983d 764c 49bd 8e05 573e
00000190: c20e 0a3d 99b6 203e 9e98 e9bc 46f4 55bd
000001a0: eae3 113e 764f b33e 855e 3c3d 9b99 b83d
000001b0: e3b0 213e 42f7 3e3e 8450 593d 139c 66bd
000001c0: e07f eb3e ab35 c13d 76c5 c13e 533c 84bd
000001d0: 14c6 84be 2326 883e f0be 24bc 1f9d 993d
000001e0: a33a 57bd 4f4e aebd e506 933d 9109 43bd
000001f0: 5251 18bc d750 dc3e 2d18 ce3e eedb 0c3d

model/dense_2/BiasAdd/ReadVariableOp f4 [2]
0.158025 0.05954106
00000000: 4ed1 213e 54e1 733d

model/dense_1/BiasAdd/ReadVariableOp f4 [64]
0.24129002 -0.18276784 0.13242154 0.17172626 0.15260957 -0.2436899 -0.23042512 -0.16365129
0.10123442 0.15749003 0.2930107 0.12587592 -0.14580098 0.16691886 0.15844534 0.18124132
-0.12170614 0.18920274 -0.08218893 0.15532114 0.1876414 0.12487828 0.22321476 -0.15701988
0.19335546 -0.14500986 -0.15746403 0.25497043 0.24785104 0.13419914 0.16062538 0.24779728
-0.17997211 -0.28067786 -0.18077342 0.15709572 0.23607358 0.18000293 0.22623383 -0.17838044
-0.17796735 0.19773246 0.17036666 -0.14680628 0.1887231 0.16194677 -0.1741495 -0.14776279
0.25915012 0.1524536 0.14915065 0.16132447 -0.1611698 0.17282784 -0.11911807 0.20721024
-0.1506327 0.13800329 -0.1730663 0.21997996 -0.1740758 -0.10433594 0.19314373 0.14600532
00000000: bb14 773e 7e27 3bbe 8399 073e 02d9 2f3e
00000010: af45 1c3e d889 79be 90f4 6bbe 3494 27be
00000020: fe53 cf3d 1145 213e 8005 963e 9ee5 003e
00000030: da4c 15be c7ec 2a3e 7f3f 223e 5397 393e
00000040: 1241 f9bd 5dbe 413e ab52 a8bd 810c 1f3e
00000050: 1125 403e 2fc0 ff3d 6992 643e d2c9 20be
00000060: f9fe 453e 777d 14be 403e 21be 7c8b 823e
00000070: aacc 7d3e 806b 093e fb7a 243e 92be 7d3e
00000080: 9c4a 38be 02b5 8fbe ab1c 39be b3dd 203e
00000090: 46bd 713e b052 383e d7a9 673e 5da9 36be
000000a0: 133d 36be 617a 4a3e 9974 2e3e 6354 16be
000000b0: a140 413e 60d5 253e 3f54 32be 214f 17be
000000c0: 53af 843e cc1c 1c3e f3ba 183e 3e32 253e
000000d0: b209 25be c8f9 303e 2df4 f3bd ec2e 543e
000000e0: 753f 1abe bc50 0d3e 4b38 31be 6d42 613e
000000f0: ed40 32be 15ae d5bd 78c7 453e 6b82 153e

model/conv2d/BiasAdd/ReadVariableOp f4 [32]
0.034801047 -0.23732422 -0.23546134 -0.4016429 -0.24447206 0.031017495 -0.20906495 -0.2201768
-0.27287838 0.07119668 -0.21091606 -0.19128715 -0.22834666 -0.16868596 -0.15551831 -0.11912747
-0.079789996 -0.1953653 -0.09516735 -0.15696102 -0.08088973 -0.34829268 -0.09320972 -0.16984713
-0.12222163 0.17278153 -0.22812928 -0.15954712 -0.2987204 -0.14879346 -0.3142822 -0.0937393
00000000: 8b8b 0e3d 1f05 73be c71c 71be 23a4 cdbe
00000010: e256 7abe 6718 fe3c 1f15 56be 0776 61be
00000020: b7b6 8bbe 91cf 913d 61fa 57be c7e0 43be
00000030: b5d3 69be 03bc 2cbe 3140 1fbe 1af9 f3bd
00000040: f068 a3bd d70d 48be 19e7 c2bd 64ba 20be
00000050: 84a9 a5bd 6b53 b2be bde4 bebd 68ec 2dbe
00000060: 554f fabd a4ed 303e b99a 69be 5260 23be
00000070: e1f1 98be 505d 18be 99e9 a0be 64fa bfbd

model/conv2d_2/BiasAdd/ReadVariableOp f4 [32]
0.008433544 -0.22615342 -0.8182389 -0.7296176 -0.43579945 0.31568763 -0.02780097 0.17001238
0.037893776 -0.28741977 -0.5463865 0.00063368096 -0.12848608 -0.10124809 -0.076124124 0.16966067
0.1606641 0.15197806 -0.18866314 0.022920744 -0.14884819 -0.081700616 -0.495258 -0.11599386
0.024923805 -0.33195034 -0.18986632 0.08551521 -0.18838397 -0.030348318 0.039242443 0.18597604
00000000: d92c 0a3c c394 67be 1b78 51bf 38c8 3abf
00000010: 1b21 dfbe cfa1 a13e dcbe e3bc ba17 2e3e
00000020: 8136 1b3d af28 93be fcdf 0bbf 9c1d 263a
00000030: db91 03be 295b cfbd f7e6 9bbd 87bb 2d3e
00000040: 2185 243e 23a0 1b3e e930 41be 49c4 bb3c
00000050: a96b 18be a752 a7bd 7592 fdbe 308e edbd
00000060: 022d cc3c 65f5 a9be 516c 42be 9922 af3d
00000070: bae7 40be 099d f8bc afbc 203d 8170 3e3e

model/conv2d_1/BiasAdd/ReadVariableOp f4 [16]
0.072353974 -0.13951428 0.002636072 -0.1954497 0.3369073 0.09074453 0.00047756365 0.035160515
0.16073282 -0.029127093 0.05054728 0.12536664 0.05305158 0.1542856 0.27347162 -0.069502056
00000000: 522e 943d d5dc 0ebe f3c1 2c3b f723 48be
00000010: 1d7f ac3e 45d8 b93d 8261 fa39 7904 103d
00000020: 2597 243e f19b eebc aa0a 4f3d 1d60 003e
00000030: 9d4c 593d 0bfd 1d3e 7904 8c3e 1857 8ebd

model/batch_normalization/FusedBatchNormV3 f4 [3]
0.0050082444 0.0034469971 0.002025292
00000000: 331c a43b 04e7 613b c3ba 043b

model/batch_normalization/FusedBatchNormV31 f4 [3]
-0.5798471 -0.44301492 -0.1612598
00000000: dc70 14bf dad2 e2be 4a21 25be

model/dense/MatMul f4 [128, 128]
0.34478456 0.19071609 0.013337269 0.033218637 0.08743644 -0.046940014 -0.23953435 0.12504187
0.08382671 0.15327844 0.10712725 0.013742408 0.10876032 -0.20833345 -0.08805677 0.1040547
-0.017660167 -0.021663088 -0.23043497 -0.16372217 -0.2020819 -0.1594259 -0.25227118 -0.1696682
-0.17571336 -0.17141403 -0.08737326 -0.040788118 -0.2305317 -0.08606185 -0.010414615 -0.13107249
-0.13028203 -0.24443084 -0.029645357 0.09569951 -0.17236742 0.32583222 0.20581657 0.016457481
0.14489423 0.23203397 -0.07352836 -0.12965944 -0.23927003 -0.031882703 0.07684452 0.013664241
0.1170961 -0.013390925 0.1846858 -0.036483437 -0.07423123 -0.0040341113 0.06029183 -0.14794119
-0.008397016 0.017488696 -0.19400771 0.08930283 0.00035022368 -0.012536131 0.09549644 -0.20031576
-0.17381078 -0.055183847 0.011947947 0.027005667 0.018788913 0.082784325 -0.33245182 -0.062442325
-0.20349534 -0.23694228 0.028703824 0.14118011 -0.21961321 -0.17564188 -0.0614072 -0.35758916
-0.074113466 -0.12346734 -0.21746361 0.0575099 0.044063553 -0.10326043 -0.04527765 -0.11294406
-0.111171976 0.09577515 -0.05707693 0.017268393 -0.026733698 -0.029627912 0.033931885 -0.12378945
-0.14716667 -0.07281674 0.12282968 -0.11280903 -0.113461666 0.0632111 -0.046580203 0.15501155
-0.05968193 -0.15721193 0.21414906 -0.1989574 -0.08570985 0.2676835 -0.00056761643 -0.048416607
-0.115943246 0.07206803 -0.057471834 -0.01611448 0.0405428 -0.09471322 -0.09330943 -0.03648324
0.09337589 -0.09161491 -0.0062370705 -0.19844726 0.05138446 -0.022401262 0.1443678 -0.031246612
0.022151554 0.088592365 0.046806455 -0.03588233 -0.013884981 -0.15388097 -0.14208956 0.1685296
-0.04996606 -0.0105245 0.11218128 -0.029405877 0.048888326 0.06580622 0.050691836 -0.23284474
-0.05710482 -0.081031784 -0.21846063 -0.076909944 0.10163139 -0.16324605 -0.13889274 0.25696084
0.020076517 -0.21698645 -0.1671867 0.09701513 0.019873304 0.2865828 -0.004573849 -0.022953779
-0.1261378 -0.20352784 -0.07779049 -0.06333563 -0.16882417 -0.008951085 -0.27813503 0.056868922
0.012069453 -0.0032130806 -0.20629542 -0.034361344 0.016151162 -0.118501775 -0.029168695 -0.077273235
0.019182283 -0.0008569849 -0.15702131 0.04760949 -0.024499407 -0.1577053 -0.2485185 0.07545346
-0.0487835 -0.106817126 -0.11543506 -0.12763432 -0.07037741 0.03133736 -0.057054523 -0.0057965457
-0.19317129 0.015459261 -0.023589276 0.09324885 -0.07076801 0.21124342 0.12537101 0.027552783
-0.079562485 -0.027447972 -0.21767522 -0.024537206 -0.025373152 -0.14127216 -0.006076702 0.020492764
-0.24921982 -0.14822476 -0.13986057 -0.03959497 -0.019812671 -0.06748475 -0.01790108 -0.33618596
0.18256988 -0.12339279 0.09139535 0.020328289 -0.19793361 -0.060566068 -0.0096950745 0.04272099
-0.09506484 -0.10163192 -0.061300162 0.08429872 -0.058083583 -0.045312732 -0.109863915 -0.042717524
-0.017695606 -0.036920372 -0.15189694 0.046117075 -0.08569032 0.13012862 -0.22885878 0.0008991375
0.07357296 -0.2129182 -0.12571698 0.13116278 -0.113956004 -0.0007342105 0.024272785 -0.0011044339
-0.09559341 0.057215124 -0.13014764 0.17022671 0.073684245 -0.056518063 0.018459005 -0.08962293
00000000: 9a87 b03e 144b 433e 9084 5a3c 4410 083d
00000010: e011 b33d 2c44 40bd 7e48 75be fa0a 003e
00000020: 57ad ab3d 06f5 1c3e 8865 db3d d627 613c
00000030: bbbd de3d 5d55 55be 1c57 b4bd a11a d53d
00000040: 0eac 90bc ca76 b1bc 25f7 6bbe c9a6 27be
00000050: 8fee 4ebe 8b40 23be b029 81be 80bd 2dbe
00000060: 34ee 33be 2987 2fbe c0f0 b2bd 7111 27bd
00000070: 8110 6cbe 3241 b0bd 10a2 2abc de37 06be
00000080: a768 05be 144c 7abe d2da f2bc 1bfe c33d
00000090: 1681 30be 7bd3 a63e 94c1 523e d7d1 863c
000000a0: 275f 143e 509a 6d3e 0996 96bd 72c5 04be
000000b0: 3403 75be 7097 02bd a960 9d3d fbdf 5f3c
000000c0: 14d0 ef3d 9c65 5bbc 461e 3d3e a86f 15bd
000000d0: 8b06 98bd 9430 84bb 91f4 763d e57d 17be
000000e0: a393 09bc 7444 8f3c f5a9 46be 67e4 b63d
000000f0: 3a9e b739 5864 4dbc a393 c33d 931f 4dbe
00000100: 74fb 31be 7508 62bd 52c1 433c fd3a dd3c
00000110: 35eb 993c d48a a93d 2037 aabe 86c3 7fbd
00000120: 1561 50be ffa0 72be 4824 eb3c 8591 103e
00000130: 49e2 60be 77db 33be 1e86 7bbd ed15 b7be
00000140: cdc8 97bd 72dc fcbd c8ae 5ebe 808f 6b3d
00000150: fc7b 343d 347a d3bd 0f75 39bd 374f e7bd
00000160: 22ae e3bd c325 c43d 80c9 69bd 7276 8d3c
00000170: a100 dbbc 3cb6 f2bc 29fc 0a3d 5385 fdbd
00000180: dcb2 16be f120 95bd 218e fb3d 6c08 e7bd
00000190: 975e e8bd d274 813d e2ca 3ebd 59bb 1e3e
000001a0: 0a75 74bd 2afc 20be e449 5b3e 7dbb 4bbe
000001b0: a588 afbd d00d 893e 18cc 14ba 7e50 46bd
000001c0: a773 edbd 6798 933d 9667 6bbd 8402 84bc
000001d0: 3510 263d 01f9 c1bd 0419 bfbd 736f 15bd
000001e0: dc3b bf3d 99a0 bbbd 5760 ccbb c235 4bbe
000001f0: 8378 523d da82 b7bc 27d5 133e e5f8 ffbc
00000200: 2d77 b53c ea6f b53d 20b8 3f3d 5af9 12bd
00000210: d57d 63bc f992 1dbe ed7f 11be 0693 2c3e
00000220: 36a9 4cbd f46e 2cbc 4dbf e53d 98e4 f0bc
00000230: 203f 483d 69c5 863d 3ea2 4f3d da6e 6ebe
00000240: bee6 69bd fef3 a5bd 25b4 5fbe f682 9dbd
00000250: 1e24 d03d f929 27be e639 0ebe 5f90 833e
00000260: 8277 a43c b231 5ebe fe32 2bbe deaf c63d
00000270: 57cd a23c fbba 923e 3ae0 95bb 9009 bcbc
00000280: 442a 01be 9a69 50be 9f50 9fbd 1cb6 81bd
00000290: 3ee0 2cbe 92a7 12bc b767 8ebe 63ef 683d
000002a0: f4be 453c 8c92 52bb 1b3f 53be 7bbe 0cbd
000002b0: 714f 843c 0fb1 f2bd 30f3 eebc 6e41 9ebd
000002c0: 2a24 9d3c 48a7 60ba 32ca 20be 2b02 433d
000002d0: fbb2 c8bc 807d 21be a27b 7ebe 5887 9a3d
000002e0: 35d1 47bd f0c2 dabd 3769 ecbd 92b2 02be
000002f0: 0822 90bd 9b5b 003d 01b2 69bd f3f0 bdbb
00000300: b2ce 45be d748 7d3c 4c3e c1bc 41f9 be3d
00000310: d2ee 90bd 3250 583e 4261 003e 60b6 e13c
00000320: a8f1 a2bd 92da e0bc 41e6 5ebe 4002 c9bc
00000330: 5bdb cfbc a6a9 10be 121f c7bb 71e0 a73c
00000340: 7b33 7fbe 3bc8 17be 9c37 0fbe 562e 22bd
00000350: 2f4e a2bc 7235 8abd 49a5 92bc 9120 acbe
00000360: 99f3 3a3e 5cb5 fcbd 7c2d bb3d 8387 a63c
00000370: 1caf 4abe 2014 78bd 17d8 1ebc 34fc 2e3d
00000380: 5bb1 c2bd 6524 d0bd e115 7bbd cfa4 ac3d
00000390: 0de9 6dbd d899 39bd 5500 e1bd 92f8 2ebd
000003a0: 60f6 90bc d139 17bd df8a 1bbe 42e5 3c3d
000003b0: 687e afbd 7040 053e f559 6abe 19b4 6b3a
000003c0: 6cad 963d 3b07 5abe f4bb 00be 894f 063e
000003d0: c461 e9bd 0878 40ba b8d7 c63c a7c2 90ba
000003e0: 7ac6 c3bd 685a 6a3d 6c45 05be e94f 2e3e
000003f0: c4e7 963d 7c7f 67bd 5737 973c 3a8c b7bd

model/dense_1/MatMul f4 [64, 128]
0.022231683 -0.35223892 -0.04730819 0.0732119 0.21733668 0.02732748 -0.15947199 0.12096728
-0.12850173 -0.26323286 -0.05877982 0.038021307 0.010385338 -0.13516603 0.030269245 0.07550216
-0.077486366 -0.082682684 0.065366425 -0.011549055 0.046466533 -0.14785153 -0.09893775 -0.11523181
0.060023226 -0.08584153 -0.16697696 0.08701276 0.13978584 -0.032945916 -0.20675586 -0.30217943
0.07884407 -0.012884252 -0.22391792 0.10356043 -0.3165515 -0.02167728 0.018819628 0.062996805
-0.32283425 0.09459252 -0.0056127734 -0.10942914 -0.10773278 0.01867449 0.105576284 -0.1452554
0.23158023 0.29813948 -0.15851012 0.038106065 0.13209014 -0.176094 -0.0122075 -0.11258264
-0.123912275 0.037114505 -0.13237303 -0.0872036 0.13496165 -0.16155866 0.007925536 0.15752096
-0.206737 0.10594623 -0.037408445 -0.019796023 0.14272977 -0.06710448 0.070703626 0.16381668
-0.19174618 -0.117708065 -0.003584628 0.12977286 0.11266246 -0.15089324 -0.1307689 -0.14545336
-0.05249673 -0.06649279 -0.23532565 0.025411775 0.17737272 -0.2842839 -0.040367894 -0.017668236
-0.18691348 0.13321285 0.14188437 -0.15934066 -0.014103373 -0.11658147 -0.2362424 -0.14986144
0.03005258 -0.031992204 -0.1848384 -0.006104563 0.14766634 0.07683057 -0.028855983 0.11686808
-0.10313695 0.030098181 -0.22965351 0.013189689 0.11661996 -0.04594652 -0.08569485 0.07217149
-0.32160732 -0.03988528 0.18647698 0.090162955 -0.053662583 0.08503589 -0.01476728 -0.051574286
0.06360262 0.044530887 0.06785504 0.1549511 0.037122287 -0.32962617 -0.060859844 0.1458808
-0.19229862 -0.14027737 0.055489384 -0.10147429 -0.0093227485 -0.09031015 0.08090411 -0.012157479
-0.075887084 0.022876143 0.1567031 0.12655334 -0.12797196 0.05663182 -0.11806991 0.030938834
-0.08266897 0.121681534 0.028301978 0.055920642 -0.031563826 -0.06893594 -0.027480222 -0.05359424
-0.10662432 0.13342279 -0.17189968 0.06836843 -0.09690161 -0.11682216 0.024911132 0.003218059
-0.05158563 0.17316993 0.042190094 -0.018328097 -0.0076057957 0.032722063 -0.016757216 -0.1221549
-0.05688886 -0.077075556 0.056001138 -0.073489815 -0.018000709 0.17538162 -0.12118043 0.05077932
0.19749267 0.14295694 -0.008471961 -0.14868075 0.08136486 -0.28762233 -0.01966027 -0.005685521
0.092846334 0.044141017 -0.16522932 0.11857892 -0.08780875 0.06181467 -0.1439775 -0.11923631
-0.10247832 0.04754436 -0.01941977 -0.013114205 -0.26110753 0.12387204 0.016359758 -0.007957713
-0.04150206 -0.11556499 0.045391392 -0.1472635 -0.13783614 -0.069970906 0.08732217 -0.076618254
-0.1332557 0.010552858 0.040856503 0.028838275 -0.09363262 -0.11295775 -0.13077168 -0.15396455
-0.029733581 0.028215522 -0.08947689 -0.0117421625 0.030609922 -0.20336203 -0.11443555 -0.10714048
0.047135975 -0.14809792 -0.15547882 -0.15480983 -0.08430766 0.039761104 0.13842899 -0.07864732
-0.06752713 -0.2658932 -0.0860607 0.06432628 0.042556413 -0.100294404 -0.091954604 0.100823246
-0.11080725 0.17413218 -0.17544349 -0.14174856 0.055879086 0.228716 0.10345017 0.028685467
-0.09188028 -0.018938381 -0.024693701 0.12874912 0.09703317 0.014278679 -0.18545161 -0.043669686
00000000: 381f b63c a958 b4be 3cc6 41bd 1ff0 953d
00000010: 828d 5e3e e1dd df3c a04c 23be b1bd f73d
00000020: f595 03be 75c6 86be 1cc3 70bd 3bbc 1b3d
00000030: 4427 2a3c f768 0abe 35f7 f73c e0a0 9a3d
00000040: 2cb1 9ebd 8a55 a9bd d5de 853d 3f38 3dbc
00000050: b153 3e3d 6466 17be e09f cabd a8fe ebbd
00000060: eada 753d afcd afbd 02fc 2abe bf33 b23d
00000070: 0524 0f3e 4cf2 06bd cfb7 53be 43b7 9abe
00000080: 0079 a13d 7818 53bc bd4a 65be 7e17 d43d
00000090: 0a13 a2be 8d94 b1bc 9f2b 9a3c 7804 813d
000000a0: 884a a5be b9b9 c13d 5beb b7bb 631c e0bd
000000b0: 01a3 dcbd 3efb 983c 6138 d83d d5bd 14be
000000c0: 5e23 6d3e bda5 983e 7a50 22be 1b15 1c3d
000000d0: a342 073e fc51 34be f701 48bc ba91 e6bd
000000e0: b8c5 fdbd 6105 183d cc8c 07be cd97 b2bd
000000f0: 6333 0a3e a26f 25be 1bda 013c 2d4d 213e
00000100: ddb2 53be 56fa d83d 9939 19bd 452b a2bc
00000110: c127 123e 136e 89bd 10cd 903d 8fbf 273e
00000120: 1c59 44be ed10 f1bd 14ec 6abb 2de3 043e
00000130: 93bb e63d c283 1abe 48e8 05be baf1 14be
00000140: d006 57bd 5f2d 88bd 35f9 70be 5b2c d03c
00000150: 32a1 353e a98d 91be ce58 25bd fabc 90bc
00000160: 3f66 3fbe f368 083e 234a 113e 332a 23be
00000170: d511 67bc 44c2 eebd 87e9 71be 4775 19be
00000180: d430 f63c 420a 03bd 4746 3dbe c908 c8bb
00000190: d835 173e 5959 9d3d 6263 ecbc 8858 ef3d
000001a0: 7739 d3bd 7690 f63c 4a2a 6bbe 9119 583c
000001b0: 72d6 ee3d 6b32 3cbd c880 afbd a5ce 933d
000001c0: b7a9 a4be bf5e 23bd d2f3 3e3e 5ba7 b83d
000001d0: 4ccd 5bbd 4c27 ae3d 76f2 71bc 8f3f 53bd
000001e0: 1742 823d 0566 363d 95f7 8a3d 80ab 1e3e
000001f0: 8a0d 183d c3c4 a8be 2c48 79bd c761 153e
00000200: eee9 44be dfa4 0fbe d648 633d c1d1 cfbd
00000210: 71be 18bc 87f4 b8bd 0eb1 a53d 2a30 47bc
00000220: b06a 9bbd c066 bb3c c776 203e 3397 013e
00000230: 150b 03be c4f6 673d a3ce f1bd 7073 fd3c
00000240: 594e a9bd 2b34 f93d 8dd9 e73c 0b0d 653d
00000250: 1249 01bd 492e 8dbd 341e e1bc a285 5bbd
00000260: da5d dabd fc9f 083e 7806 30be bf04 8c3d
00000270: 5a74 c6bd 7540 efbd 6e12 cc3c 12e6 523b
00000280: 744b 53bd 7553 313e 85cf 2c3d ce24 96bc
00000290: 0a3a f9bb 9207 063d 6e46 89bc 592c fabd
000002a0: 4b04 69bd cad9 9dbd 7361 653d d481 96bd
000002b0: 3976 93bc 3d97 333e 722d f8bd fafd 4f3d
000002c0: 853b 4a3e 4e63 123e fbcd 0abc c43f 18be
000002d0: 9fa2 a63d 3c43 93be 930e a1bc 9b4d babb
000002e0: 3826 be3d 36cd 343d e031 29be 81d9 f23d
000002f0: 13d5 b3bd 6131 7d3d d66e 13be 2b32 f4bd
00000300: 27e0 d1bd e0bd 423d 3616 9fbc f6dc 56bc
00000310: e3af 85be a0b0 fd3d e604 863c 1161 02bc
00000320: 10fe 29bd 56ad ecbd 53ec 393d 3ecc 16be
00000330: eb24 0dbe e84c 8fbd f7d5 b23d 08ea 9cbd
00000340: 2f74 08be e5e5 2c3c 2659 273d 3f3e ec3c
00000350: 76c2 bfbd 6556 e7bd 03e9 05be e2a8 1dbe
00000360: d793 f3bc 3d24 e73c a93f b7bd 3362 40bc
00000370: a9c1 fa3c 233e 50be 305d eabd 786c dbbd
00000380: a711 413d fba6 17be d735 1fbe 7886 1ebe
00000390: 7fa9 acbd 8adc 223d 54c0 0d3e d911 a1bd
000003a0: aa4b 8abd 2723 88be 9840 b0bd 7fbd 833d
000003b0: a24f 2e3d 2767 cdbd b252 bcbd 6b7c ce3d
000003c0: e9ee e2bd b54f 323e 75a7 33be 8926 11be
000003d0: 78e1 643d 8734 6a3e afdd d33d c9fd ea3c
000003e0: ba2b bcbd aa24 9bbc 724a cabc cfd6 033e
000003f0: 54b9 c63d 1ff1 693c 07e7 3dbe fcde 32bd

model/dense_2/MatMul f4 [2, 64]
0.283243 -0.10201574 0.33668515 0.32568306 -0.061307605 0.18318625 -0.5494084 -0.47881734
0.31700364 -0.28177318 -0.19240566 0.052017983 -0.21697937 0.08853474 0.10318842 -0.07628492
0.45954096 -0.15562543 -0.11615225 -0.06271023 0.25684664 0.1820152 -0.04746258 0.18397279
0.08559654 0.72667253 0.039613567 -0.12860982 -0.28553146 -0.10830695 0.2119384 -0.2546785
-0.07793094 -0.15286994 0.0336903 0.06032859 -0.13020694 0.13638814 -0.47843462 0.5658606
-0.5866757 -0.22324394 -0.08811492 0.11095236 0.31169453 -0.13881664 0.28968185 0.19807802
-0.28245646 -0.15657645 0.08611718 0.11366407 0.2565411 -0.38664034 0.5375345 -0.020885186
-0.13594511 -0.046971917 -0.031004962 0.20107296 0.09377859 -0.016674818 -0.284602 0.09439796
-0.031573597 0.12844701 0.3467689 -0.19680046 0.32255557 0.05611566 -0.51516426 0.17553608
0.36978215 -0.40348053 -0.1942886 -0.10496166 0.45156732 -0.2970206 -0.17168853 -0.16896759
0.41905355 -0.34590742 0.024293665 0.45967734 -0.09799444 -0.008552664 -0.3364274 -0.55057377
0.16336608 -0.07007908 -0.27989364 -0.0032026332 0.18733746 -0.012641402 0.09812472 -0.20049682
-0.3967281 -0.18294674 0.50016993 0.1008502 0.17017347 -0.268972 0.03707258 -0.43206474
0.2292482 0.52378535 -0.12891237 -0.08656363 -0.10005363 0.05010719 -0.02550819 -0.06805954
-0.07973663 -0.20777215 -0.041226104 0.114223614 0.2635545 0.38346112 0.47597075 -0.13271342
0.082429044 -0.030523183 0.388097 -0.016699841 0.16409971 -0.13268654 0.034778286 -0.2221295
00000000: 3a05 913e a1ed d0bd ff61 ac3e eebf a63e
00000010: af1d 7bbd 2d95 3b3e 07a6 0cbf 8c27 f5be
00000020: 4d4e a23e 9344 90be fd05 45be cf10 553d
00000030: d72f 5ebe b451 b53d 7354 d33d 453b 9cbd
00000040: f448 eb3e 465c 1fbe 3be1 edbd 396e 80bd
00000050: 6781 833e 3162 3a3e 1f68 42bd 5d63 3c3e
00000060: 3d4d af3d 3607 3a3f d641 223d 4bb2 03be
00000070: 2e31 92be 09d0 ddbd 6106 593e 3865 82be
00000080: 429a 9fbd f089 1cbe d7fe 093d 1d1b 773d
00000090: f854 05be 55a9 0b3e 62f5 f4be 3edc 103f
000000a0: 6130 16bf 0f9a 64be 9875 b4bd fe3a e33d
000000b0: 6d96 9f3e f325 0ebe 2e51 943e f7d4 4a3e
000000c0: 229e 90be 9455 20be 345e b03d b5c8 e83d
000000d0: 5b59 833e b9f5 c5be dc9b 093f 6917 abbc
000000e0: 3235 0bbe a065 40bd 1efe fdbc 12e6 4d3e
000000f0: fd0e c03d a199 88bc 5ab7 91be b853 c13d
00000100: 5153 01bd 9d87 033e b18b b13e 0f86 49be
00000110: 0126 a53e 89d9 653d cee1 03bf bbbf 333e
00000120: 1654 bd3e 0095 cebe 97f3 46be 24f6 d6bd
00000130: d533 e73e 1613 98be 1ecf 2fbe d705 2dbe
00000140: 308e d63e c71a b1be 8203 c73c d45a eb3e
00000150: 4fb1 c8bd 7920 0cbc 3640 acbe 67f2 0cbf
00000160: 7049 273e 9f85 8fbd 384e 8fbe 45e3 51bb
00000170: 64d5 3f3e e21d 4fbc 9df5 c83d 0a4f 4dbe
00000180: f21f cbbe 6456 3bbe 230b 003f 8d8a ce3d
00000190: f441 2e3e b3b6 89be 6bd9 173d 9737 ddbe
000001a0: 0ac0 6a3e cc16 063f 9b01 04be 4648 b1bd
000001b0: ebe8 ccbd 323d 4d3d 8df6 d0bc cd62 8bbd
000001c0: f54c a3bd 39c2 54be b4dc 28bd 12ee e93d
000001d0: 9ef0 863e 0455 c43e 70b2 f33e 07e6 07be
000001e0: 8fd0 a83d c10b fabc a6b4 c63e 1bce 88bc
000001f0: c109 283e fbde 07be ad73 0e3d ea75 63be

model/conv2d/Conv2D f4 [32, 5, 5, 3]
0.19827433 -0.080995925 0.19673872 -0.19776784 -0.02635225 -0.14260356 -0.020382956 0.07862341
0.08741247 -0.031462226 0.12589175 0.13787328 -0.03282477 0.045042306 -0.048429206 0.015632259
-0.033613715 0.07371735 0.06754157 0.079482324 0.030066995 -0.05225178 0.078395545 0.0847763
0.047477722 0.0022344377 -0.080892436 0.07469722 0.102680854 0.06820668 -0.26314497 -0.071352966
-0.05136164 0.025076585 0.035461124 0.084043406 -0.1675617 -0.02298148 -0.15274104 -0.1549119
-0.065922596 0.01890432 0.004124454 0.023725595 0.07614813 -0.23614874 -0.055336393 -0.16362555
-0.14043757 0.0407086 0.09583384 -0.09539733 0.20595291 0.14865969 -0.03666855 0.08353344
0.05115469 -0.12194301 0.0049710106 0.09108033 -0.12945437 0.029136363 0.055644482 -0.07771111
0.18642862 0.061875027 0.05754668 0.21290901 0.21790329 -0.09326595 0.17239717 0.107520536
-0.15859906 0.1068638 0.09882876 -0.07580059 0.047782756 0.21231212 0.029901735 0.059056763
0.22925149 -0.06982036 -0.08183115 0.03474667 0.28317893 0.1968923 0.15512331 -0.065280914
-0.15472335 -0.10686812 -0.39221355 -0.14536323 -0.008453327 -0.05452666 0.011601755 0.05481078
0.20033924 0.13904494 0.23612182 0.10765891 -0.07137168 0.0431756 0.02595292 -0.32089815
-0.21284819 -0.19378436 -0.041192178 0.17496558 0.0050549293 0.12807634 0.17020614 0.23354247
0.107673116 0.23858598 -0.14386795 -0.18389143 0.0035512093 0.042656634 -0.27801064 -0.18371232
-0.20174359 -0.08030028 0.1534187 0.121225655 0.166149 0.2969354 0.13971654 -0.018103559
-0.021497054 -0.09791565 -0.25616053 -0.06743415 0.0999502 -0.20057292 -0.1593434 -0.032099534
0.09931294 0.26059687 0.12564471 0.1387992 0.15370151 -0.113051526 -0.3075696 -0.2474205
0.041404705 -0.10412 0.012434062 0.1627713 -0.015958523 -0.1384094 0.09955183 0.19605502
0.3092957 0.035957504 -0.07107865 0.040220078 -0.058007162 -0.098473124 -0.16908653 0.021534834
0.20329231 0.12307075 -0.22980048 0.1794469 0.21781081 -0.09814225 -0.25094947 -0.17746298
0.08749675 -0.24744938 -0.061020896 0.16862777 -0.07036186 0.017440507 -0.007975659 0.11611167
0.024592455 -0.11010373 0.023456825 0.07244265 0.25367194 -0.22518496 -0.014597402 -0.011895296
-0.36759847 -0.24522448 0.23088674 -0.12612908 0.077203706 0.21534061 -0.046248596 -0.0343804
0.11166678 0.15235849 0.1486445 0.06583168 -0.08131484 0.070818 0.13503294 -0.23319185
-0.0863695 0.048302483 -0.26505753 -0.19090961 0.069286145 -0.14523701 -0.15797852 0.07146104
0.08222228 0.1320404 0.010013193 0.040522523 0.13084671 -0.012370831 0.043922227 0.06691215
0.09822653 -0.20113492 -0.1728539 -0.059352983 -0.06842517 -0.16450709 -0.12573338 0.031016273
0.054691814 0.16743106 0.007099337 0.15392764 0.1606837 0.08347507 0.19842991 0.010769935
-0.10308283 0.08874838 -0.059864886 -0.064345755 0.124964036 0.08402052 -0.002669075 -0.0039482135
0.051518742 0.031473387 0.11153978 0.16645604 0.107062876 0.17898768 -0.0369819 -0.061152354
0.04580058 -0.25312 -0.35442853 -0.23625492 0.27802813 0.16235965 0.18900876 -0.14446123
00000000: 6d08 4b3e 31e1 a5bd e075 493e a783 4abe
00000010: ace0 d7bc ab06 12be 28fa a6bc 4f05 a13d
00000020: 4f05 b33d 89de 00bd c4e9 003e a72e 0d3e
00000030: 4473 06bd 487e 383d b45d 46bd 390f 803c
00000040: 89ae 09bd 1ff9 963d 3c53 8a3d a1c7 a23d
00000050: 0f4f f63c f605 56bd d88d a03d 329f ad3d
00000060: 0078 423d a56f 123b efaa a5bd dbfa 983d
00000070: 574a d23d f2af 8b3d f0ba 86be 8121 92bd
00000080: 9560 52bd 696d cd3c af3f 113d f31e ac3d
00000090: 4b95 2bbe a843 bcbc 2668 1cbe 3aa1 1ebe
000000a0: 6d02 87bd 3cdd 9a3c 6e26 873b 2e5c c23c
000000b0: 8df3 9b3d fad0 71be 6aa8 62bd 758d 27be
000000c0: dece 0fbe 10be 263d 8844 c43d ad5f c3bd
000000d0: 52e5 523e 3f3a 183e c331 16bd 9513 ab3d
000000e0: 9587 513d 42bd f9bd dce3 a23b 5388 ba3d
000000f0: b08f 04be 62af ee3c 78eb 633d 0127 9fbd
00000100: 25e7 3e3e ab70 7d3d 11b6 6b3d d204 5a3e
00000110: 0a22 5f3e 3802 bfbd e288 303e ba33 dc3d
00000120: cb67 22be 68db da3d bc66 ca3d 573d 9bbd
00000130: dab7 433d 5968 593e 7cf4 f43c 81e5 713d
00000140: e7c0 6a3e fafd 8ebd 1797 a7bd 8652 0e3d
00000150: d4fc 903e 239e 493e a5d8 1e3e 00b2 85bd
00000160: cc6f 1ebe acdd dabd 37d0 c8be 19da 14be
00000170: d37f 0abc 5957 5fbd 4a15 3e3c 4581 603d
00000180: bb25 4d3e cc61 0e3e ebc9 713e 467c dc3d
00000190: 512b 92bd e6d8 303d 389b d43c c34c a4be
000001a0: e0f4 59be 686f 46be 21b9 28bd 2d2a 333e
000001b0: d2a3 a53b 7226 033e 854a 2e3e c225 6f3e
000001c0: b983 dc3d e24f 743e 1f52 13be 094e 3cbe
000001d0: 68bb 683b b9b8 2e3d 6957 8ebe 151f 3cbe
000001e0: df95 4ebe 7974 a4bd cb19 1d3e 2845 f83d
000001f0: f722 2a3e eb07 983e da11 0f3e ea4d 94bc
00000200: 971a b0bc 0088 c8bd 7927 83be ea1a 8abd
00000210: b1b2 cc3d fd62 4dbe eb2a 23be cd7a 03bd
00000220: 9564 cb3d f46c 853e 02a9 003e 6121 0e3e
00000230: ee63 1d3e 8f87 e7bd c379 9dbe cd5b 7dbe
00000240: fb97 293d de3c d5bd 3cb8 4b3c 85ad 263e
00000250: 73bb 82bc 32bb 0dbe d4e1 cb3d a6c2 483e
00000260: 025c 9e3e 2d48 133d af91 91bd cfbd 243d
00000270: eb98 6dbd 47ac c9bd 0525 2dbe d269 b03c
00000280: dc2b 503e 840c fc3d d150 6bbe eec0 373e
00000290: cc09 5f3e cefe c8bd 737c 80be dbb8 35be
000002a0: 7f31 b33d 5f63 7dbe 0cf1 79bd c2ac 2c3e
000002b0: e119 90bd 65df 8e3c 57ac 02bc f5cb ed3d
000002c0: 1e76 c93c 107e e1bd 8728 c03c d05c 943d
000002d0: 4ae1 813e e396 66be f129 6fbc 7de4 42bc
000002e0: de35 bcbe 201c 7bbe 936d 6c3e fb27 01be
000002f0: fa1c 9e3d 4082 5c3e 2b6f 3dbd 76d2 0cbd
00000300: 8eb1 e43d dd03 1c3e 4436 183e c3d2 863d
00000310: 6588 a6bd 0709 913d 1346 0a3e d8c9 6ebe
00000320: 7ee2 b0bd d3d8 453d 9fb5 87be cf7d 43be
00000330: e5e5 8d3d 03b9 14be 1fc5 21be 2a5a 923d
00000340: 2864 a83d 9935 073e 600e 243c f2fa 253d
00000350: aefc 053e 07af 4abc cbe7 333d 3d09 893d
00000360: fe2a c93d 50f6 4dbe 9d00 31be 1d1c 73bd
00000370: 7f22 8cbd 8c74 28be 40c0 00be d715 fe3c
00000380: 8604 603d 0c73 2b3e 8ea1 e83b 359f 1d3e
00000390: 458a 243e faf4 aa3d 3631 4b3e 6274 303c
000003a0: 171d d3bd b6c1 b53d e234 75bd b5c7 83bd
000003b0: 25ed ff3d f312 ac3d a6eb 2ebb 0460 81bb
000003c0: 5105 533d 3dea 003d f86e e43d 7473 2a3e
000003d0: c843 db3d 8c48 373e 557a 17bd e47a 7abd
000003e0: 6499 3b3d f298 81be a877 b5be cfec 71be
000003f0: b459 8e3e 9c41 263e 838b 413e a5ed 13be

model/conv2d_1/Conv2D f4 [16, 5, 5, 32]
-0.14223842 0.027453471 -0.08321375 -0.12816718 0.1283879 0.016192159 -0.32361862 -0.16236216
-0.104482904 0.08960736 0.120614536 -0.092996836 -0.071781 0.15777919 -0.11622207 0.037987966
0.012242119 0.022390021 0.115898795 0.2895395 0.15081166 0.0941976 -0.051728226 -0.10483483
-0.1568031 -0.33920226 -0.039338715 0.10201269 0.16331686 -0.034692686 -0.15406525 -0.27389583
-0.21116555 -0.13381383 0.3210996 -0.104108155 -0.026537845 0.14421484 -0.3312209 -0.4849957
-0.2549875 -0.021271877 0.07319575 0.025997777 -0.10361656 0.25288838 -0.33892882 -0.25840452
0.01079543 0.20783886 -0.08638194 0.049600843 0.24791087 0.38910532 0.32065663 -0.27598548
-0.18911114 -0.16293857 0.0334659 0.3475625 0.08166631 0.056598086 -0.28254038 -0.033296473
-0.09569789 -0.2252407 0.27312413 -0.10319669 0.103197515 -0.00044652997 0.091276415 -0.2723758
-0.1335406 0.033844613 -0.06043555 0.0104483925 0.028797839 0.25656173 -0.18911405 -0.18818448
0.21145704 -0.026106872 -0.3522588 0.07083215 0.15438718 0.64363635 0.3790827 0.19723125
0.23256573 -0.10196702 0.13025716 0.061404563 0.02787429 0.18486272 -0.15325212 -0.09148649
0.16842352 -0.03690142 0.025158282 0.1342759 0.12323039 -0.26600593 -0.24010506 0.2389505
0.16862378 0.071083695 0.12386733 0.044201646 0.04397283 -0.26729658 0.0707018 -0.08634483
0.18950568 -0.09734002 -0.4517589 -0.0062426263 -0.18974449 0.28537318 0.1296218 0.22128475
0.070189044 0.16829206 -0.056066606 -0.24062714 0.10918644 0.19113949 -0.08565749 0.13545364
0.11343511 -0.08134689 0.003429798 -0.05330732 -0.07891273 -0.15255503 -0.011764245 0.18015161
-0.07756664 0.16754735 0.113761865 0.052890535 0.08803393 -0.37637615 0.14170954 0.19531778
-0.114109956 -0.08492739 -0.05392482 -0.11174562 -0.059813786 -0.06525026 -0.12478317 0.075417675
0.1440113 0.2270872 -0.12808613 -0.16163307 -0.04189866 -0.026142536 -0.17479463 0.11017513
0.20837311 -0.011214923 -0.26509896 0.004218084 0.17567772 0.071955316 0.26073393 0.14250027
0.14956371 -0.087916724 0.04142171 -0.10326472 -0.21855007 -0.13503507 -0.0444234 -0.083594635
0.065166585 -0.27866054 0.12423358 0.20989315 0.11593644 0.013878716 -0.28161815 -0.17742886
0.10622741 -0.07589076 -0.018376237 -0.014114106 0.21690996 -0.21334016 0.120114595 0.16841501
0.29199356 -0.08867185 -0.26266277 0.032876674 -0.10310977 0.047709156 -0.016046539 0.068909325
-0.020636406 -0.007797157 -0.026153741 -0.11288377 -0.18341857 -0.07607772 0.11525576 -0.06491696
0.02288991 0.08089842 -0.14827158 0.25051495 0.30014446 0.24429849 0.05908579 -0.1353511
-0.2059367 0.14681445 0.01845262 0.18312061 0.02297471 0.25565284 -0.29380295 0.23058937
-0.13416936 -0.16783147 0.05635234 0.00835794 -0.21021193 -0.1586545 -0.09234111 -0.41362125
-0.13045216 -0.2250238 -0.018071994 -0.13735093 0.16874976 0.38014853 -0.113513 0.040934853
-0.06827873 0.47075856 -0.26450807 -0.026157215 0.72087777 0.3402861 0.44418922 -0.06883764
-0.10593205 -0.11982492 0.39977005 -0.08610608 -0.32571736 0.004749011 -0.2577175 -0.048280757
00000000: f3a6 11be 1ae6 e03c f86b aabd 423e 03be
00000010: 1e78 033e 6ba5 843c 57b1 a5be 4442 26be
00000020: 22fb d5bd 1084 b73d c104 f73d 2075 bebd
00000030: eb01 93bd de90 213e d605 eebd 4599 1b3d
00000040: 2b93 483c 476b b73c 595c ed3d 853e 943e
00000050: 5f6e 1a3e acea c03d fae0 53bd a5b3 d6bd
00000060: fe90 20be ebab adbe a221 21bd 07ec d03d
00000070: 893c 273e eb19 0ebd 48c3 1dbe 133c 8cbe
00000080: c83b 58be 7e06 09be 2b67 a43e a836 d5bd
00000090: e565 d9bc 0ead 133e c995 a9be 5b51 f8be
000000a0: b98d 82be 5c42 aebc a7e7 953d 4af9 d43c
000000b0: eb34 d4bd 967a 813e 1488 adbe 994d 84be
000000c0: 51df 303c b6d3 543e 04e9 b0bd 412a 4b3d
000000d0: 59dc 7d3e d038 c73e 1b2d a43e f84d 8dbe
000000e0: 5aa6 41be 5ed9 26be 8a13 093d b6f3 b13e
000000f0: ab40 a73d 65d3 673d 22a9 90be e261 08bd
00000100: 41fd c3bd 80a5 66be edd6 8b3e c958 d3bd
00000110: 3859 d33d 3d1c eab9 21ef ba3d d774 8bbe
00000120: debe 08be a6a0 0a3d 448b 77bd bc2f 2b3c
00000130: 72e9 eb3c 0f5c 833e 1da7 41be 6fb3 40be
00000140: 3288 583e 14de d5bc 445b b4be 7210 913d
00000150: ac17 1e3e 5ac5 243f 2117 c23e fdf6 493e
00000160: b625 6e3e 16d4 d0bd 2262 053e 5a83 7b3d
00000170: 9f58 e43c a74c 3d3e 20ee 1cbe 455d bbbd
00000180: 3777 2c3e f225 17bd be18 ce3c 9f7f 093e
00000190: 3760 fc3d ee31 88be 1ade 75be 71af 743e
000001a0: b6ab 2c3e 5494 913d 28ae fd3d c90c 353d
000001b0: db1c 343d 19db 88be 1bcc 903d 8fd5 b0bd
000001c0: c70d 423e 345a c7bd f14c e7be f28e ccbb
000001d0: 614c 42be 6f1c 923e 94bb 043e 7898 623e
000001e0: 46bf 8f3d c154 2c3e 19a6 65bd f666 76be
000001f0: 249d df3d 12ba 433e 326d afbd 5cb4 0a3e
00000200: ab50 e83d 3399 a6bd 76c6 603b c758 5abd
00000210: ff9c a1bd 6337 1cbe d2be 40bc aa79 383e
00000220: 42db 9ebd 8891 2b3e fbfb e83d bfa3 583d
00000230: 224b b43d 60b4 c0be 4e1c 113e 6201 483e
00000240: 7bb2 e9bd 69ee adbd 46e0 5cbd e3da e4bd
00000250: 4dff 74bd eea1 85bd 528e ffbd 9574 9a3d
00000260: b377 133e 8c89 683e 0329 03be 2483 25be
00000270: ee9d 2bbd df28 d6bc 5dfd 32be 80a3 e13d
00000280: c35f 553e ccbe 37bc 0dbb 87be da37 8a3b
00000290: dce4 333e 4f5d 933d eb7e 853e 97eb 113e
000002a0: 3b27 193e af0d b4bd d0a9 293d 747c d3bd
000002b0: 97cb 5fbe a246 0abe 50f5 35bd aa33 abbd
000002c0: 0f76 853d 98ac 8ebe 2d6e fe3d 3bee 563e
000002d0: 1670 ed3d 8e63 633c 4130 90be e9af 35be
000002e0: c28d d93d 9d6c 9bbd c389 96bc da3e 67bc
000002f0: a51d 5e3e d875 5abe a4fe f53d fc74 2c3e
00000300: 2e80 953e 9699 b5bd bc7b 86be b1a9 063d
00000310: 372b d3bd ad6a 433d 0874 83bc 5520 8d3d
00000320: ae0d a9bc 4b7f ffbb 5f40 d6bc 9b2f e7bd
00000330: 14d2 3bbe a3ce 9bbd 360b ec3d 2ff3 84bd
00000340: 9f83 bb3c 12ae a53d 81d4 17be 7f43 803e
00000350: 89ac 993e 6229 7a3e f103 723d 7b99 0abe
00000360: 12e1 52be 8756 163e f329 973c f883 3b3e
00000370: 7635 bc3c eee4 823e 576d 96be 9f1f 6c3e
00000380: b163 09be 03dc 2bbe b6d1 663d beef 083c
00000390: cc41 57be 5376 22be 561d bdbd 2ac6 d3be
000003a0: 4095 05be a46c 66be b80b 94bc b9a5 0cbe
000003b0: bdcc 2c3e d4a2 c23e 8179 e8bd 4eab 273d
000003c0: b8d5 8bbd 4407 f13e 9a6d 87be a847 d6bc
000003d0: 728b 383f fb39 ae3e c56c e33e c0fa 8cbd
000003e0: e7f2 d8bd c566 f5bd a9ae cc3e 6258 b0bd
000003f0: 6dc4 a6be 979d 9b3b 8cf3 83be 0bc2 45bd

model/conv2d_2/Conv2D f4 [32, 3, 3, 16]
0.0014352577 0.028779082 -0.06950552 -0.045433555 -0.08489045 -0.26253507 0.061697423 -0.18318975
-0.0053622806 -0.06281813 -0.11441293 -0.108845934 -0.06042592 0.024024924 0.15049239 0.016197449
-0.0022119929 -0.02754163 0.059568644 -0.27583385 0.25785652 -0.074145086 0.15633784 0.11041023
0.114665285 -0.22470924 -0.21238585 0.04752046 0.20899497 -0.107976444 -0.020178244 -0.024636576
-0.0062656435 0.026326356 -0.04005653 -0.07688139 0.05561733 0.24727601 -0.21015966 -0.11450994
0.055472486 0.06877027 -0.011183607 -0.0636486 0.034421075 -0.01735697 0.15315981 0.002993194
-0.0072223865 -0.09142662 0.14507876 0.0722855 -0.15193364 0.07504599 0.036031496 -0.39340657
0.014851637 0.054212082 0.11013403 -0.15322416 0.086106084 0.08795245 0.19570142 0.0741516
-0.29464042 -0.036060162 -0.02537427 -0.10736784 -0.2576341 -0.18107781 -0.12732561 -0.1286256
0.10752743 0.059752595 -0.057265017 0.17341322 -0.020148905 0.04287323 0.005028917 -0.1969805
0.18014324 -0.12346244 -0.06199595 -0.10507554 0.016862998 -0.12257906 -0.08712217 0.0025076177
-0.20504133 0.08039855 -0.02064563 0.05533144 -0.15085118 -0.08050213 0.14249972 0.20107536
0.19047028 0.033043414 -0.056367986 0.21678114 0.080439255 -0.068077765 0.07504933 0.1696225
0.10141545 -0.02881722 -0.32857436 0.100681275 0.066565484 0.12096495 0.104319625 -0.025569387
-0.08873943 0.07451304 0.04333029 -0.11969589 0.015488666 0.043261614 -0.1841979 0.016560724
-0.073477566 -0.048427466 0.08552523 -0.11672479 0.05001714 -0.20207168 0.038091704 0.19931348
-0.02850404 0.13371949 -0.16787851 -0.35565603 0.00541784 0.13012709 0.093645394 -0.08812696
-0.117869645 -0.0055340044 -0.19920279 0.14160323 -0.031743545 0.0668229 -0.06675846 -0.2918011
0.093038335 0.096495375 -0.18776405 -0.024573201 0.102018096 -0.11549274 -0.070021376 -0.14928144
-0.1278061 -0.031624224 -0.24662773 0.08018828 0.02940758 0.16342086 0.12601165 -0.21955037
0.037208304 -0.11417437 -0.18719661 0.18062651 -0.4410185 -0.13109149 0.04689458 -0.007954234
0.08169181 -0.124145746 -0.3515591 -0.22780222 0.047140677 -0.19023955 0.057306092 -0.49955994
0.230674 -0.027218103 -0.20599993 0.27413228 0.17810266 -0.17008568 -0.23241684 -0.30123255
-0.109872244 -0.033723176 0.04633567 -0.012779978 0.0845743 -0.14677669 0.13726023 0.19923353
0.20798147 -0.15758294 -0.018617561 0.23419191 -0.032371365 0.15943797 0.0030006382 -0.14879923
0.3408845 -0.11504629 0.020060882 -0.15980482 -0.006481101 0.002047129 0.093285486 0.06278768
-0.05006747 0.023680924 0.021272432 -0.34305516 0.020543098 0.039128248 -0.20508263 -0.18370529
0.15793073 0.085288376 -0.037079003 -0.22343142 -0.17181776 -0.18233697 0.14024355 0.01619007
-0.08267526 0.072354056 0.025598565 0.19163783 -0.13431086 0.15893602 -0.19276196 -0.0442081
0.029922863 0.012827474 0.020207847 0.34462208 0.06896086 -0.07950637 -0.046112623 -0.26755044
-0.07515143 -0.010175321 -0.1365397 -0.24070881 -0.18223044 0.010353422 0.016473489 0.27975044
-0.053514846 -0.11123498 0.004640171 0.13378556 -0.11341934 -0.039065704 0.03556383 0.09190317
00000000: 421f bc3a 1cc2 eb3c e958 8ebd 8918 3abd
00000010: 0bdb adbd ff6a 86be 70b6 7c3d 1896 3bbe
00000020: 12b6 afbb cba6 80bd 5451 eabd 9eea debd
00000030: 2b81 77bd ebcf c43c ad1a 1a3e 83b0 843c
00000040: 15f7 10bb fc9e e1bc 40fe 733d 183a 8dbe
00000050: c505 843e 61d9 97bd 0717 203e c21e e23d
00000060: a2d5 ea3d 2e1a 66be ad7b 59be d0a4 423d
00000070: c702 563e c122 ddbd d84c a5bc a5d2 c9bc
00000080: 0750 cdbb 5faa d73c 5112 24bd fd73 9dbd
00000090: ffce 633d ec35 7d3e 1834 57be 3084 eabd
000000a0: 1e37 633d 6dd7 8c3d 733b 37bc 325a 82bd
000000b0: 1dfd 0c3d 3430 8ebc edd5 1c3e 7629 443b
000000c0: c5a9 ecbb e13d bbbd 878f 143e 6c0a 943d
000000d0: 7e94 1bbe b6b1 993d c395 133d 966c c9be
000000e0: 4854 733c 7d0d 5e3d f38d e13d cbe6 1cbe
000000f0: 6358 b03d 6a20 b43d f465 483e cbdc 973d
00000100: 1cdb 96be d2b3 13bd b3dd cfbc ace3 dbbd
00000110: 9ee8 83be 766c 39be a561 02be 6eb6 03be
00000120: 5737 dc3d 23bf 743d b98e 6abd 3c93 313e
00000130: 510f a5bc d79b 2f3d 9dc9 a43b 42b5 49be
00000140: 7877 383e e0d9 fcbd 77ef 7dbd d831 d7bd
00000150: 4524 8a3c bb0a fbbd 1c6d b2bd d856 243b
00000160: 5bf6 51be ffa7 a43d 0621 a9bc 38a3 623d
00000170: bb78 1abe 4dde a4bd 72eb 113e b3e6 4d3e
00000180: a40a 433e 8858 073d 1ee2 66bd e0fb 5d3e
00000190: 56bd a43d 5b6c 8bbd 77b3 993d 85b1 2d3e
000001a0: e7b2 cf3d 1712 ecbc e63a a8be fc31 ce3d
000001b0: 7c53 883d 79bc f73d 87a5 d53d e476 d1bc
000001c0: 05bd b5bd 4b9a 983d 1a7b 313d 1e23 f5bd
000001d0: 2cc4 7d3c 1733 313d 609e 3cbe 5baa 873c
000001e0: 687b 96bd e15b 46bd da27 af3d 680d efbd
000001f0: c6de 4c3d e1eb 4ebe 0c06 1c3d d518 4c3e
00000200: 4e81 e9bc c3ed 083e 58e8 2bbe 8c18 b6be
00000210: 2388 b13b 0940 053e 28c9 bf3d e87b b4bd
00000220: a465 f1bd 9856 b5bb d1fb 4bbe 7000 113e
00000230: 8505 02bd 72da 883d a9b8 88bd f466 95be
00000240: e28a be3d 5e9f c53d 3845 40be bd4d c9bc
00000250: ddee d03d 7587 ecbd 5e67 8fbd 3cdd 18be
00000260: 9adf 02be 6788 01bd fb8b 7cbe c139 a43d
00000270: 2ae8 f03c cc57 273e 3309 013e d0d1 60be
00000280: bc67 183d 41d4 e9bd 78b0 3fbe 28f6 383e
00000290: 2dcd e1be d93c 06be 8814 403d 7a52 02bc
000002a0: 094e a73d 2040 febd 8eff b3be fc44 69be
000002b0: 9516 413d 28ce 42be cbb9 6a3d 52c6 ffbe
000002c0: ce35 6c3e 80f8 debc a5f1 52be 115b 8c3e
000002d0: 8b60 363e f12a 2ebe aefe 6dbe 273b 9abe
000002e0: b304 e1bd 5021 0abd 79ca 3d3d 1d63 51bc
000002f0: 4a35 ad3d a14c 16be f28d 0c3e e003 4c3e
00000300: 18f9 543e 6c5d 21be db83 98bc 01d0 6f3e
00000310: d697 04bd b543 233e 5ba6 443b d35e 18be
00000320: 6a88 ae3e 649d ebbd b856 a43c e0a3 23be
00000330: 6a5f d4bb 2029 063b 760c bf3d d496 803d
00000340: 8c13 4dbd 7ffe c13c 8643 ae3c eda4 afbe
00000350: 004a a83c f144 203d 2e01 52be 3d1d 3cbe
00000360: 98b8 213e acab ae3d 27e0 17bd 35cb 64be
00000370: fff0 2fbe 8bb6 3abe 019c 0f3e 0aa1 843c
00000380: a651 a9bd 5d2e 943d 15b4 d13c b53c 443e
00000390: c988 09be 20c0 223e 6463 45be 8d13 35bd
000003a0: cb20 f53c 532a 523c ed8a a53c 4e72 b03e
000003b0: 5a3b 8d3d 3cd4 a2bd 97e0 3cbd 5ffc 88be
000003c0: fee8 99bd 64b6 26bc 10d1 0bbe 5f7c 76be
000003d0: 9e9a 3abe 66a1 293c 69f3 863c 733b 8f3e
000003e0: 6232 5bbd 2acf e3bd 930c 983b 15ff 083e
000003f0: 6648 e8bd 5c03 20bd 61ab 113d bb37 bc3d
