ana-cont_16.00.00_s2-LeakyReLU.tflite (tflite, 186468 bytes, 18 tensors)

arith.constant f4 [64, 128]
0.0045934306 0.0039803176 0.022968737 -0.014949433 -0.085188836 -0.008447674 0.0041953675 0.0022526183
-0.025533415 -0.01194235 -0.020215033 0.008005115 -0.025724648 -0.008700426 0.017168459 -0.04707683
0.022035163 0.007434789 0.006459325 0.0025792862 0.044813074 0.025088478 -0.04731408 -0.06829722
0.017262226 0.022735503 -0.012356022 0.017894069 0.03687363 0.029731523 0.0075651086 -0.04494286
-0.059338447 0.030416911 0.008687506 0.0041506523 0.031335164 -0.02351383 0.026587503 -0.0036712643
-0.020087624 0.032535534 -0.008793938 -0.0010966307 -0.03722368 0.04196774 -0.028110217 -0.0034041512
0.014960499 0.009601402 0.030352335 0.031206554 0.015891746 0.016660877 -0.014718971 -0.009475258
-0.032904368 0.016667228 0.028275736 -0.031404648 -0.018204505 -0.0008892291 -0.011177247 -0.0020423518
-0.070050694 -0.020836314 -0.010505117 0.002624595 0.0047284146 0.0017408163 -0.05160982 -0.016413813
-0.06285416 -0.010449642 0.0035702903 -0.04451762 -0.00048418902 0.02167615 -0.017261593 0.010130469
-0.025786383 0.010529022 -0.019574475 -0.042932976 -0.031148888 -0.020334471 -0.06213132 0.009524204
0.009752341 -0.032380756 0.0013600042 0.014890233 -0.010368731 -0.05226971 -0.028402481 -0.009660478
-0.050036147 0.0010961689 -0.015494258 -0.00800419 -0.017331606 0.031729206 -0.045053832 -0.018039288
-0.03429947 -0.043469988 -0.0017989515 -0.07437163 -0.0060537844 0.033730295 -0.051424943 0.007548827
0.009100151 -0.0022445347 0.03918819 0.004795108 -0.006521814 -0.0350915 -0.018379493 -0.041698016
-0.05098322 -0.06324347 -0.028459325 0.015717335 0.005765415 -0.004816287 0.01706649 0.0022683146
0.03813669 -0.049231775 -0.035631243 -0.025417786 0.002806747 -0.013361769 0.010229168 0.01654973
0.0010653193 0.0078433305 0.0011320192 -0.049368143 -0.09215313 -0.09449859 0.0025564716 -0.069062114
-0.05464746 0.019960873 -0.024862409 -0.030325092 0.00086985924 -0.0010472456 0.037122022 -0.062412705
0.006054788 0.001629662 0.008832878 0.0042129597 -0.059191685 0.01723366 -0.00087855605 -0.010075345
-0.014144285 -0.00019145884 -0.023453811 -0.036620684 0.008668386 0.02358688 -0.0399082 -0.069915615
0.02121043 0.0066111516 -0.07191495 0.0010096093 -0.009480379 0.022290561 0.02040273 0.0037701346
-0.008479825 -0.006033305 -0.08314823 -0.047621682 0.039636824 -0.043315947 -0.056047924 0.005904892
0.026442625 -0.052174807 0.037597537 -7.174853e-05 0.0527789 0.030074643 -0.052666057 -0.034104493
0.015600144 0.034122285 -0.05198955 0.0014761061 -0.04286395 -0.06683195 0.0057790023 0.011236533
0.020130051 0.00368066 -0.030953022 -0.019170081 0.010929408 -0.0071724337 -0.008428097 0.003950888
-0.05580058 -0.01230956 -0.009678506 0.019803058 -0.0686749 -0.025755327 0.007739472 0.052089974
-0.07471276 0.0016733098 -0.05138043 -0.022341942 -0.0004402185 -0.028695257 0.03820473 0.012263633
0.00399905 -0.018644435 0.0109840855 0.0040387153 -0.0029250847 -0.009799399 0.009608018 0.01554882
-0.06139962 0.012600998 0.0043186983 0.040375695 0.028287593 -0.030882725 -0.0069577866 -0.02510201
-0.055559624 -0.033918582 0.028990563 0.0023088732 0.024318188 -0.011527904 -0.05448947 0.010401298
-0.008430021 -0.024660071 -0.0052012764 -0.03148009 -0.042212225 -0.05070446 -0.052345593 -0.005032429
00000000: 7d84 963b 536d 823b ef28 bc3c 77ee 74bc
00000010: 7c77 aebd 1d68 0abc 4b79 893b aaa0 133b
00000020: 742b d1bc d9a9 43bc ff99 a5bc e327 033c
00000030: 7fbc d2bc 3b8c 0ebc dea4 8c3c a2d3 40bd
00000040: 1683 b43c 889f f33b bfa8 d33b 3e09 293b
00000050: ea8d 373d 5a86 cd3c 69cc 41bd 6adf 8bbd
00000060: 8369 8d3c ce3f ba3c ea70 4abc 9596 923c
00000070: ce08 173d 868f f33c bbe4 f73b 0116 38bd
00000080: df0c 73bd e32c f93c 0b56 0e3c 3202 883b
00000090: 4d59 003d 13a0 c0bc 09ce d93c 9899 70bb
000000a0: cd8e a4bc fb43 053d 7314 10bc d2bc 8fba
000000b0: dc77 18bd 5de6 2b3d 6647 e6bc 2e18 5fbb
000000c0: e11c 753c 334f 1d3c 76a5 f83c e3a4 ff3c
000000d0: 682f 823c 647c 883c d727 71bc 1d3e 1bbc
000000e0: bbc6 06bd b689 883c 84a2 e73c 29a2 00bd
000000f0: 9d21 95bc 281b 69ba c620 37bc fad8 05bb
00000100: bd76 8fbd ebb0 aabc a71d 2cbc 6601 2c3b
00000110: d1f0 9a3b 1a2c e43a d264 53bd 4376 86bc
00000120: afb9 80bd fa34 2bbc 88fb 693b 1c58 36bd
00000130: c0da fdb9 2e92 b13c 2f68 8dbc 44fa 253c
00000140: f73d d3bc eb81 2c3c a65a a0bc 7dda 2fbd
00000150: f42b ffbc 7a94 a6bc 697d 7ebd 680b 1c3c
00000160: 48c8 1f3c afa1 04bd 2b42 b23a 2af6 733c
00000170: 9ce1 29bc c318 56bd 52ac e8bc fb46 1ebc
00000180: b4f2 4cbd 53ad 8f3a a1db 7dbc 0224 03bc
00000190: 03fb 8dbc 7cf6 013d 5e8a 38bd 21c7 93bc
000001a0: 9a7d 0cbd 960d 32bd ccca ebba 2750 98bd
000001b0: d35e c6bb c728 0a3d f6a2 52bd 275c f73b
000001c0: cd18 153c 0b19 13bb cc83 203d 4820 9d3b
000001d0: f1b4 d5bb 1bbc 0fbd 9790 96bc 8acb 2abd
000001e0: c8d3 50bd cb85 81bd 8823 e9bc a4c1 803c
000001f0: ceeb bc3b f2d1 9dbb 06cf 8b3c 01a8 143b
00000200: 3835 1c3d 42a7 49bd 11f2 11bd f638 d0bc
00000210: 67f1 373b 52eb 5abc 3e98 273c 4d93 873c
00000220: 2fa2 8b3a 5081 003c 4360 943a 4036 4abd
00000230: c8ba bcbd 7a88 c1bd 7a8a 273b 7070 8dbd
00000240: 04d6 5fbd fc84 a33c 40ac cbbc 546c f8bc
00000250: 4407 643a bb43 89ba 430d 183d 77a4 7fbd
00000260: 3e67 c63b 629a d53a c7b7 103c de0c 8a3b
00000270: fb72 72bd 9b2d 8d3c e64e 66ba 0f13 25bc
00000280: 6ebd 67bc 57c2 48b9 3522 c0bc 92ff 15bd
00000290: d905 0e3c 4639 c13c c876 23bd eb2f 8fbd
000002a0: 7fc1 ad3c 5ca2 d83b 2548 93bd de54 843a
000002b0: 9753 1bbc b29a b63c a023 a73c 5d14 773b
000002c0: f7ee 0abc 08b3 c5bb 9f49 aabd f40e 43bd
000002d0: 395a 223d 106c 31bd 8292 65bd d37d c13b
000002e0: 349e d83c 40b5 55bd e0ff 193d b377 96b8
000002f0: b02e 583d 195f f63c 5db8 57bd 27b1 0bbd
00000300: bf97 7f3c cfc3 0b3d fff2 54bd e779 c13a
00000310: 1c92 2fbd 30df 88bd c95d bd3b 6f19 383c
00000320: c7e7 a43c 3a37 713b 3191 fdbc 930a 9dbc
00000330: 4211 333c bc06 ebbb 0016 0abc 7376 813b
00000340: 268f 64bd 09ae 49bc 9992 1ebc 063a a23c
00000350: 6da5 8cbd d6fc d2bc 669b fd3b 4c5c 553d
00000360: 0103 99bd f652 db3a 4974 52bd 7306 b7bc
00000370: 20cd e6b9 5112 ebbc 907c 1c3d 68ed 483c
00000380: 760a 833b 37bc 98bc 98f6 333c 3357 843b
00000390: c7b2 3fbb a98d 20bc f36a 1d3c 7ac0 7e3c
000003a0: 2b7e 7bbd 6b74 4e3c de83 8d3b fc60 253d
000003b0: 62bb e73c c5fd fcbc 25fe e3bb bba2 cdbc
000003c0: 7d92 63bd 36ee 0abd 9e7d ed3c 7750 173b
000003d0: f036 c73c 89df 3cbc 5a30 5fbd 356a 2a3c
000003e0: 121e 0abc eb03 cabc 786f aabb 44f1 00bd
000003f0: bae6 2cbd 7baf 4fbd 5568 56bd 13e7 a4bb

arith.constant1 f4 [64]
0.4608123 0.34550554 -0.70253646 0.5337839 0.029926931 0.86558306 -0.48559844 0.071748845
0.7009488 0.6544915 -0.5493236 -0.56472117 -0.3955038 -0.6854048 0.11669857 0.9724956
-0.17112823 0.72158945 -0.5324282 0.83103657 0.36391485 -0.28151393 0.361651 -0.5091098
-0.18689144 0.9930992 -0.35485688 -0.70131826 0.15583228 0.49097905 0.39185947 -0.93070555
0.46676996 -0.059223533 -0.55537397 0.6692423 0.0062538236 1.0926355 -0.32762927 0.6149051
-0.66374516 0.6573564 0.739317 0.381881 -0.44620734 -0.12001243 0.69640565 1.1195209
0.5179498 0.9340677 -0.43185124 -0.7312013 0.3997317 -0.3654424 0.5564135 0.8690173
-0.035180695 0.26825982 -0.5750116 -0.6594406 0.7000033 0.62370336 0.9232043 0.68106186
00000000: 97ef eb3e 1ae6 b03e 6ed9 33bf 10a6 083f
00000010: 5329 f53c da96 5d3f 5ca0 f8be 0ff1 923d
00000020: 6171 333f c18c 273f 79a0 0cbf 9191 10bf
00000030: 797f cabe b076 2fbf a9ff ee3d 79f5 783f
00000040: 3d3c 2fbe 16ba 383f 374d 08bf d0be 543f
00000050: 0c53 ba3e 9822 90be 522a b93e 0555 02bf
00000060: 7860 3fbe c03b 7e3f cdaf b5be 9889 33bf
00000070: 7f92 1f3e 9b61 fb3e cea1 c83e b842 6ebf
00000080: 79fc ee3e 6094 72bd fd2c 0ebf 7753 2b3f
00000090: e0ec cc3b 7bdb 8b3f 06bf a7be 6c6a 1d3f
000000a0: 34eb 29bf 8248 283f e143 3d3f e885 c33e
000000b0: 4a75 e4be 14c9 f5bd a447 323f 764c 8f3f
000000c0: 5c98 043f 101f 6f3f 9b1b ddbe 0230 3bbf
000000d0: a2a9 cc3e 441b bbbe 1d71 0e3f eb77 5e3f
000000e0: a219 10bd 5a59 893e f633 13bf 19d1 28bf
000000f0: 6b33 333f 06ab 1f3f 1e57 6c3f 125a 2e3f

arith.constant2 f4 [128, 128]
-0.031973522 -0.36764932 -0.042469714 0.037838105 -0.14178433 -0.0567452 0.05316788 -0.115207486
-0.26708877 0.011497151 0.11548546 -0.017924389 0.00083154126 0.16005018 0.27786288 0.19028738
-0.19328478 -0.14273278 -0.14493395 -0.15172955 -0.09828065 0.061768055 0.11088401 -0.04389556
-0.10371505 -0.034170136 -0.13351905 0.05951529 -0.042860605 0.047520407 0.3295726 -0.051189963
-0.3089186 -0.03860994 0.3231712 0.033615127 -0.14212352 0.028408583 -0.11137518 -0.20174573
0.10854718 0.097 -0.24995816 0.16241087 -0.1523904 0.1755337 -0.19780473 0.088908
0.07307735 0.055243712 -0.20003255 -0.10207522 -0.14029703 -0.06604343 -0.08337863 0.5134536
-0.0014427962 -0.05769683 -0.45097917 0.7450373 -0.026135087 -0.026838169 0.08506933 0.029428566
0.08252145 0.037502956 0.010563962 -0.060243275 -0.022436554 -0.2537255 -0.2921966 -0.014448558
0.12132339 -0.028013064 -0.07930281 -0.015387257 0.20492819 0.15191463 -0.0658266 -0.010490634
-0.12636566 -0.12939408 -0.007377198 0.009083406 -0.07835783 0.020179287 -0.2952705 -0.09702428
-0.13178359 -0.0030081943 -0.02665328 0.035790563 -0.045453493 -0.23552826 -0.10432129 0.15217905
-0.17495881 0.06777517 -0.15534157 -0.084890574 0.11366329 0.075782456 -0.08387233 0.3030162
0.15515329 -0.15796612 -0.13182545 -0.37169227 -0.121215306 0.09355137 -0.14669116 -0.118442744
-0.07668377 -0.07020384 -0.1011337 0.10643705 0.13680938 0.049273886 -0.05618995 -0.015885131
-0.046434317 -0.026701698 0.02277631 -0.173481 0.13700016 -0.05801996 -0.113180734 -0.23394366
0.008732238 0.0733502 -0.08070223 0.039593868 -0.03230991 -0.12652603 -0.018797867 0.031698637
0.12669049 -0.14825179 -0.02991758 0.12874101 -0.009199229 0.2502669 -0.18581203 -0.05198827
-0.07762744 -0.29772684 -0.26023182 -0.19776961 -0.50891846 0.06354068 0.10350685 0.289274
-0.54854006 -0.04673313 0.1257715 0.04300305 0.1197664 -0.2697197 0.052440345 -0.060176544
-0.16146195 -0.03283916 0.29198253 0.1608315 -0.04412916 -0.080676705 0.26993245 0.06785773
-0.04327246 0.10899722 0.024780076 0.21414079 -0.044619508 0.2000449 -0.024772378 -0.019644659
0.059499495 0.098695755 -0.04647348 -0.017527776 -0.04444284 -0.05060914 -0.0052349432 0.35911244
-0.086762205 0.094637945 0.094442196 0.16552489 -0.19733767 -0.17863913 0.097061165 -0.01210306
-0.2533651 0.07240299 0.1014543 -0.13869283 0.23501118 -0.095410995 -0.085998245 0.050111677
-0.15462469 -0.16011682 -0.4547017 0.20840956 0.3508273 -0.31297687 0.119395584 -0.41659382
0.014107777 0.13114959 -0.2524846 -0.15387301 0.03153884 0.061940294 0.05230027 0.05027988
-0.073306546 0.17593044 -0.07710067 0.08605184 0.054563746 -0.04465747 0.15530491 -0.18029249
-0.1366018 0.17525128 -0.07446364 0.09654716 -0.18954273 0.12696481 0.15355866 -0.14512025
0.09896704 0.13250045 0.0009822472 -0.15715545 -0.033159323 0.17554678 0.0027781439 0.095685475
0.020570666 0.102095686 0.06184243 0.21317823 0.09940372 0.03867608 -0.11124684 -0.22417797
-0.04326912 -0.03571472 0.021701563 -0.0035084565 0.18085013 0.12029533 0.12877174 0.098461665
00000000: abf6 02bd 883c bcbe b9f4 2dbd 21fc 1a3d
00000010: e92f 11be a86d 68bd 90c6 593d e7f1 ebbd
00000020: dcbf 88be 8c5e 3c3c a483 ec3d 2bd6 92bc
00000030: cafb 593a 32e4 233e 0b44 8e3e b2da 423e
00000040: 72ec 45be 8b28 12be 9169 14be fe5e 1bbe
00000050: 5e47 c9bd 8000 7d3d 2817 e33d d5cb 33bd
00000060: 8e68 d4bd fcf5 0bbd 38b9 08be 4ec6 733d
00000070: 9a8e 2fbd c2a4 423d bdbd a83e 91ac 51bd
00000080: 942a 9ebe 7525 1ebd b276 a53e 04b0 093d
00000090: d488 11be 1eb9 e83c ac18 e4bd 6f96 4ebe
000000a0: fc4d de3d f0a7 c63d 08f5 7fbe 094f 263e
000000b0: 3b0c 1cbe 1bbf 333e 538d 4abe 6615 b63d
000000c0: 94a9 953d 3b47 623d 55d5 4cbe d00c d1bd
000000d0: 06aa 0fbe c741 87bd 6ac2 aabd b271 033f
000000e0: 351c bdba 8353 6cbd bee6 e6be c4ba 3e3f
000000f0: 4019 d6bc b8db dbbc d438 ae3d 2d14 f13c
00000100: 0201 a93d b39c 193d 7814 2d3c a7c1 76bd
00000110: ddcc b7bc 4fe8 81be cb9a 95be a5b9 6cbc
00000120: 6678 f83d a77b e5bc 8369 a2bd d51a 7cbc
00000130: b2d8 513e 828f 1b3e 19d0 86bd e8e0 2bbc
00000140: 0066 01be e27f 04be 6cbc f1bb 91d2 143c
00000150: 127a a0bd 084f a53c b22d 97be aab4 c6bd
00000160: 47f2 06be 2025 45bb fb57 dabc 2099 123d
00000170: 712d 3abd 522e 71be 67a6 d5bd d3d4 1b3e
00000180: 6728 33be b5cd 8a3d dc11 1fbe 1cdb adbd
00000190: 4dc8 e83d d533 9b3d 42c5 abbd f024 9b3e
000001a0: 81e0 1e3e dfc1 21be 40fd 06be 734e bebe
000001b0: bb3f f8bd dc97 bf3d 3536 16be 1c92 f2bd
000001c0: 610c 9dbd 08c7 8fbd 2f1f cfbd abfb d93d
000001d0: c217 0c3e 6ad3 493d 6f27 66bd 8921 82bc
000001e0: e931 3ebd 85bd dabc 6295 ba3c 01a5 31be
000001f0: c549 0c3e 56a6 6dbd 4dcb e7bd ed8e 6fbe
00000200: a911 0f3c a138 963d 3647 a5bd 2e2d 223d
00000210: 6557 04bd 0a90 01be fcfd 99bc 6ed6 013d
00000220: 27bb 013e 51cf 17be b615 f5bc afd4 033e
00000230: 5db8 16bc fc22 803e 8245 3ebe a7f1 54bd
00000240: 23fb 9ebd a76f 98be 1b3d 85be 1e84 4abe
00000250: 7b48 02bf 9e21 823d 66fb d33d b91b 943e
00000260: 1f6d 0cbf 3d6b 3fbd 3eca 003e f723 303d
00000270: 1648 f53d b318 8abe b0cb 563d ae7b 76bd
00000280: 4856 25be 5b82 06bd bc7e 953e 03b1 243e
00000290: c7c0 34bd d439 a5bd 9634 8a3e fef8 8a3d
000002a0: 773e 31bd ef39 df3d 96ff ca3c b947 5b3e
000002b0: f2c2 36bd 92d8 4c3e 71ef cabc d6ed a0bc
000002c0: beb5 733d 0021 ca3d fa5a 3ebd 6996 8fbc
000002d0: b209 36bd 884b 4fbd e389 abbb 96dd b73e
000002e0: 62b0 b1bd 8ad1 c13d e96a c13d 5b7f 293e
000002f0: e312 4abe 2ded 36be 01c8 c63d ea4b 46bc
00000300: 12b9 81be 0548 943d 46c7 cf3d 7e05 0ebe
00000310: c5a6 703e d766 c3bd d91f b0bd e741 4d3d
00000320: ef55 1ebe aaf5 23be a9ce e8be 5169 553e
00000330: a39f b33e 813e a0be ac85 f43d c94b d5be
00000340: 4e24 673c 144c 063e a945 81be e390 1dbe
00000350: df2e 013d 1bb5 7d3d cf38 563d 47f2 4d3d
00000360: be21 96bd 1c27 343e f5e6 9dbd f23b b03d
00000370: 3c7e 5f3d c0ea 36bd 4008 1f3e 989e 38be
00000380: 58e1 0bbe 1275 333e 6580 98bd 84ba c53d
00000390: 7d17 42be 1003 023e 7b3e 1d3e 679a 14be
000003a0: 3baf ca3d 33ae 073e bfbe 803a 5ced 20be
000003b0: 12d2 07bd 89c2 333e 8511 363b bff6 c33d
000003c0: d083 a83c 8b17 d13d 7d4e 7d3d 654b 5a3e
000003d0: 2d94 cb3d cf6a 1e3d 62d5 e3bd e98e 65be
000003e0: f63a 31bd 9949 12bd 7ac7 b13c 22ee 65bb
000003f0: c730 393e 665d f63d bddc 033e 45a6 c93d

arith.constant3 f4 [128]
7.39701 0.798072 6.003883 -1.8413 0.07643729 6.349569 11.033493 -1.8843267
0.5826834 -4.077355 0.5451351 0.22612266 6.081797 2.5948913 2.3398807 5.048495
1.2178692 3.2879424 2.2654846 7.9797964 -5.19483 -2.6863801 2.338147 -2.9795575
-1.2511784 5.9307547 -0.6665205 2.4718509 4.3432574 -5.5725393 3.6155417 3.3672743
2.2727215 7.209654 6.3663163 7.831725 8.584244 0.8569836 -2.427715 -3.0660899
2.07183 6.2819047 6.474253 -12.566034 3.8497567 2.601722 3.5115545 8.208993
4.1157675 0.7435562 2.1099205 -0.5887358 6.0676394 4.8444877 2.1045997 3.8312974
3.5704315 1.5302563 11.293818 -0.69427705 3.9643624 4.0246434 8.230938 5.27317
5.73101 1.1272724 -1.8571632 -1.7787212 0.2548067 1.9241539 0.21903913 6.131111
-1.2741814 -3.0189216 4.6512485 -4.392022 3.7355027 -1.2322615 -1.3605752 5.42641
5.6398253 0.59899706 4.632728 2.212636 2.631447 0.9899311 4.2838902 5.86927
3.526153 2.3754294 1.6976602 5.4422264 3.9248075 1.107894 5.3235793 -3.3054583
4.4119315 12.303145 -1.4732021 1.2473341 1.5673544 4.1742783 -1.5055687 -1.2810473
3.4692128 8.5066 1.0815948 3.2974274 5.6790905 5.6969295 -1.0695853 10.531571
-1.4967314 2.7774532 -0.96154004 0.3004011 -1.1802874 3.1218424 4.898321 -2.7785263
-6.1461453 1.7764454 -1.3868299 5.817392 0.14236285 3.7907743 4.264864 10.170793
00000000: 4eb4 ec40 724e 4c3f cf1f c040 b8af ebbf
00000010: 278b 9c3d ab2f cb40 3089 3041 9e31 f1bf
00000020: bd2a 153f b179 82c0 f98d 0b3f b38c 673e
00000030: 159e c240 b312 2640 9bc0 1540 458d a140
00000040: 23e3 9b3f a66d 5240 b3fd 1040 7e5a ff40
00000050: 0c3c a6c0 a7ed 2bc0 33a4 1540 12b1 3ec0
00000060: 9d26 a0bf bec8 bd40 16a1 2abf ce32 1e40
00000070: f7fb 8a40 3e52 b2c0 0965 6740 6c81 5740
00000080: 4574 1140 7cb5 e640 ddb8 cb40 7e9d fa40
00000090: 1059 0941 4763 5b3f af5f 1bc0 d13a 44c0
000000a0: dd98 0440 5d05 c940 152d cf40 7a0e 49c1
000000b0: 6a62 7640 9d82 2640 4fbd 6040 0958 0341
000000c0: 5eb4 8340 b359 3e3f f008 0740 64b7 16bf
000000d0: 1a2a c240 0b06 9b40 c3b1 0640 fa33 7540
000000e0: f381 6440 70df c33f 7bb3 3441 24bc 31bf
000000f0: 1db8 7d40 e1c9 8040 ecb1 0341 cfbd a840
00000100: 6f64 b740 764a 903f 86b7 edbf 23ad e3bf
00000110: 0676 823e ad4a f63f cb4b 603e 1032 c440
00000120: 6018 a3bf 0336 41c0 07d7 9440 728b 8cc0
00000130: 7a12 6f40 bfba 9dbf 5427 aebf 27a5 ad40
00000140: 7379 b440 df57 193f 4f3f 9440 d49b 0d40
00000150: a169 2840 206c 7d3f a115 8940 0fd1 bb40
00000160: 7eac 6140 0907 1840 ee4c d93f b826 ae40
00000170: 0c30 7b40 78cf 8d3f c35a aa40 a18c 53c0
00000180: 8b2e 8d40 afd9 4441 e391 bcbf a5a8 9f3f
00000190: 129f c83f b093 8540 7ab6 c0bf 5cf9 a3bf
000001a0: 9507 5e40 091b 0841 b371 8a3f 0d09 5340
000001b0: 1cbb b540 3f4d b640 2ce8 88bf 5181 2841
000001c0: e594 bfbf cbc1 3140 7d27 76bf 2cce 993e
000001d0: a813 97bf 44cc 4740 0cbf 9c40 60d3 31c0
000001e0: 39ad c4c0 9062 e33f a483 b1bf 1328 ba40
000001f0: 91c7 113e 0c9c 7240 c479 8840 91bb 2241

arith.constant4 f4 [32]
-0.14452499 -0.21846835 -0.12051281 -0.10816563 -0.23638552 -0.13994366 -0.21625434 -0.19671933
-0.29481956 -0.28760085 -0.057431273 -0.17363739 -0.13002291 -0.5203888 -0.12350601 -0.3263449
-0.1757492 -0.1815383 -0.25001356 -0.010365994 0.007983803 0.12771371 -0.25056955 -0.43228307
-0.24565694 -0.34730032 -0.34845006 -0.2312567 -0.1494381 -0.120370395 -0.3567361 -0.21095912
00000000: 5cfe 13be 2bb6 5fbe 6ccf f6bd f185 ddbd
00000010: 0c0f 72be 644d 0fbe c771 5dbe cb70 49be
00000020: 97f2 96be 6b40 93be 0e3d 6bbd 00ce 31be
00000030: ba24 05be 3338 05bf b8f0 fcbd ae16 a7be
00000040: 99f7 33be 2de5 39be c701 80be 21d6 29bc
00000050: 7fce 023c 62c7 023e a74a 80be 3554 ddbe
00000060: 7e8d 7bbe 59d1 b1be 0c68 b2be 8ece 6cbe
00000070: 4d06 19be c184 f6bd 1da6 b6be ab05 58be

arith.constant5 f4 [16]
-0.43253332 -0.09412394 -0.20611677 -0.23468937 -0.08496108 -0.26236308 -0.33170402 -0.33911368
-0.64131504 -0.16476998 -0.3436721 -0.35825658 -0.13048118 -0.07833923 -0.39305416 -0.6359914
00000000: 0275 ddbe 0dc4 c0bd 4610 53be 6952 70be
00000010: 1300 aebd 7454 86be 1cd5 a9be 4fa0 adbe
00000020: 392d 24bf 76b9 28be caf5 afbe 686d b7be
00000030: dc9c 05be 5170 a0bd 653e c9be 55d0 22bf

arith.constant6 f4 [32]
-0.20596617 0.2900612 0.2502659 -0.21383266 0.16035017 0.1365421 0.15160975 -0.11066986
0.41327754 -0.2898576 0.3538941 -0.2977352 0.56717736 -0.07147764 0.42425215 0.6059786
0.42910656 0.47557068 0.14969984 -0.3378006 0.04062812 0.25901785 0.304038 -0.12668623
0.16088331 0.5721574 -0.17707294 0.6844192 -0.16838023 -0.7896936 0.12438362 0.3381514
00000000: cce8 52be e782 943e da22 803e f3f6 5abe
00000010: d632 243e b1d1 0b3e 963f 1b3e e1a6 e2bd
00000020: 1d99 d33e 3768 94be 9c31 b53e c070 98be
00000030: 8932 113f de62 92bd 9437 d93e 6a21 1b3f
00000040: dbb3 db3e 007e f33e ea4a 193e 33f4 acbe
00000050: ac69 263d fd9d 843e deaa 9b3e 09ba 01be
00000060: 98be 243e e878 123f 9c52 35be 1936 2f3f
00000070: de6b 2cbe 5c29 4abf d7bc fe3d 2e22 ad3e

arith.constant7 f4 [32, 3, 3, 16]
0.09772445 -0.3036807 -0.25865242 0.15558717 -0.0650619 -0.08712905 -0.06913535 -0.12776276
-0.118890755 -0.0043116664 0.091078214 -0.23621517 -0.1263639 0.21217324 -0.0738703 -0.003932849
-0.1975631 -0.009002652 -0.19290775 -0.049236685 -0.1929325 -0.20560552 0.092894346 -0.30071834
-0.20260854 0.19505101 -0.22353065 -0.112252 0.07006621 -0.123709515 -0.25177163 0.05903025
-0.12317281 0.077176936 0.10792881 -0.1219767 -0.09044397 -0.019977149 0.21053502 0.26085278
0.21418123 -0.19129506 0.10114249 -0.035178993 0.019191232 0.05043539 -0.00029209576 -0.0083782105
0.036798555 0.0799558 -0.2941771 -0.19538982 0.10865174 0.021573782 -0.15332958 0.0054098926
-0.018918043 -0.106697395 0.09666758 0.12934497 0.21158962 -0.1738012 -0.046174232 0.030676184
0.12938797 0.07505033 -0.40763074 0.027506014 -0.059162874 -0.100291885 0.032979198 -0.33935174
-0.11556286 0.084264114 -0.17563547 -0.036419526 0.23303199 -0.21475202 -0.025055308 -0.00041385877
0.009041692 0.0141791515 0.28927025 0.08274485 0.027913481 -0.13084452 -0.032195434 0.02024081
0.2099097 -0.13867944 0.07728555 -0.16094024 -0.04878552 0.0810587 0.09669092 0.06552438
-0.08800152 0.10468267 0.20666061 -0.025169503 0.07782 -0.14458781 0.11696639 0.10783974
0.15402858 -0.15678039 -0.059812386 -0.038734294 0.13796541 0.035051793 0.0004387605 0.10165647
0.046974614 -0.064902656 0.12790468 0.015970692 0.08701432 0.04303381 -0.22499897 0.035408095
-0.13119832 -0.22623882 0.16777013 0.04794131 0.1047891 0.226318 0.3052909 -0.015811604
-0.18692753 -0.16182473 0.1336022 0.059856243 0.28701156 0.05035231 -0.41104126 -0.2869188
-0.3009046 -0.09360417 0.070729494 -0.22070448 -0.11667602 -0.09813412 -0.019039996 -0.06664087
0.15471937 0.1925259 0.331141 -0.11321348 -0.13230225 0.2381473 -0.13106103 0.24930623
0.117355205 -0.040770598 0.0019550645 -0.30802605 0.042415805 -0.097418085 -0.06909422 -0.0039732745
0.315392 -0.033255856 -0.033091094 -0.22142513 -0.38169232 0.03813248 -0.22536448 -0.11072943
0.019296167 -0.2189373 -0.21444285 0.021894852 -0.17639987 -0.09143539 -0.12505412 -0.057000525
0.1112833 0.005816643 0.10148364 -0.22015525 -0.13325489 0.0060360706 -0.09498632 -0.060383026
-0.06602748 -0.09665641 0.21725881 -0.04901156 0.018264081 -0.010833532 0.020500848 -0.05000197
-0.4064039 0.120714635 0.027941072 -0.052515503 0.15580323 0.0063066715 -0.087115265 0.037263382
0.032036673 -0.25352225 0.083658986 -0.33143848 -0.18247579 -0.13161913 0.09039551 -0.044118904
0.07808329 -0.025276534 -0.07018737 -0.109385565 -0.014315669 0.034742817 -0.12139641 0.1290478
0.3954762 0.017859792 0.244402 -0.12262682 -0.26528832 0.28937918 0.19336429 -0.2784043
-0.1806307 0.053708706 -0.068320185 -0.07260183 0.08507548 -0.006578502 0.073119305 0.009485051
0.10586668 0.13409746 -0.08416168 -0.056472197 0.017259033 -0.25363508 -0.19758356 0.06924639
-0.19161583 -0.16134956 -0.19458114 0.07401718 -0.074272424 -0.40817735 0.256344 -0.0849783
-0.02215063 -0.07642642 -0.49458647 -0.17576714 0.10119 0.20648415 0.21763106 0.08158432
00000000: c223 c83d 097c 9bbe 176e 84be 3e52 1f3e
00000010: 2c3f 85bd b770 b2bd d696 8dbd 3ed4 02be
00000020: ff7c f3bd e148 8dbb 3787 ba3d 64e2 71be
00000030: 8a65 01be f143 593e 5049 97bd 21df 80bb
00000040: fb4d 4abe dc7f 13bc 9c89 45be 68ac 49bd
00000050: 1990 45be 418a 52be 643f be3d c1f7 99be
00000060: 9d78 4fbe 74bb 473e 38e5 64be 60e4 e5bd
00000070: e07e 8f3d 6a5b fdbd 36e8 80be b4c9 713d
00000080: 0742 fcbd f10e 9e3d c809 dd3d ecce f9bd
00000090: b03a b9bd 1ea7 a3bc 7e96 573e 7f8e 853e
000000a0: 5352 5b3e dae2 43be cb23 cf3d d917 10bd
000000b0: ee36 9d3c 5795 4e3d 6e24 99b9 c344 09bc
000000c0: 15ba 163d debf a33d 619e 96be 4514 48be
000000d0: ce84 de3d 80bb b03c 6e02 1dbe 7845 b13b
000000e0: 03fa 9abc 2a84 dabd a7f9 c53d 0273 043e
000000f0: f3aa 583e f1f8 31be 3121 3dbd 9f4c fb3c
00000100: 487e 043e fdb3 993d fab4 d0be 4b54 e13c
00000110: c554 72bd d565 cdbd 3215 073d 83bf adbe
00000120: 39ac ecbd aa92 ac3d c9d9 33be a42c 15bd
00000130: f09f 6e3e f4e7 5bbe ca40 cdbc 2ffb d8b9
00000140: 9b23 143c ac4f 683c 3b1b 943e 2276 a93d
00000150: d0aa e43c 1bfc 05be 5cdf 03bd 0ed0 a53c
00000160: 92f2 563e fc01 0ebe e347 9e3d 85cd 24be
00000170: 53d3 47bd 1b02 a63d e405 c63d a531 863d
00000180: 243a b4bd de63 d63d d79e 533e 4630 cebc
00000190: 1860 9f3d d40e 14be 138c ef3d 15db dc3d
000001a0: abb9 1d3e 0a8b 20be d5fd 74bd daa7 1ebd
000001b0: ce46 0d3e 7892 0f3d 7009 e639 4431 d03d
000001c0: 7468 403d afeb 84bd 72f9 023e f8d4 823c
000001d0: 9034 b23d 3844 303d 2166 66be 1408 113d
000001e0: da58 06be 26ab 67be efcb 2b3e 1b5e 443d
000001f0: ab9b d63d e8bf 673e 174f 9c3e 5687 81bc
00000200: ee69 3fbe 62b5 25be 04cf 083e d22b 753d
00000210: 2ef3 923e 393e 4e3d 0074 d2be 05e7 92be
00000220: 2b10 9abe 8bb3 bfbd a0da 903d 5b00 62be
00000230: d6f3 eebd 8bfa c8bd c4f9 9bbc 027b 88bd
00000240: c16e 1e3e 8225 453e 508b a93e 78dc e7bd
00000250: 3e7a 07be e3dc 733e dd34 06be 224a 7f3e
00000260: ed57 f03d 12ff 26bd 8a20 003b 97b5 9dbe
00000270: 32bc 2d3d 2283 c7bd 4581 8dbd 3e32 82bb
00000280: 0f7b a13e 4b37 08bd 878a 07bd 45bd 62be
00000290: 2d6d c3be ce30 1c3d f2c5 66be 1dc6 e2bd
000002a0: ff12 9e3c 1931 60be e896 5bbe d55c b33c
000002b0: 2ba2 34be 7a42 bbbd 300e 00be 6279 69bd
000002c0: 80e8 e33d 8a99 be3b a8d6 cf3d 6170 61be
000002d0: f873 08be 3bca c53b 3088 c2bd 3154 77bd
000002e0: 6a39 87bd ccf3 c5bd 1879 5e3e 58c0 48bd
000002f0: 8e9e 953c 207f 31bc 65f1 a73c dece 4cbd
00000300: 2c14 d0be 3c39 f73d ade4 e43c 7f1a 57bd
00000310: e28a 1f3e 32a8 ce3b 7d69 b2bd 7da1 183d
00000320: e338 033d abcd 81be 6755 ab3d 4eb2 a9be
00000330: efda 3abe 2ac7 06be 4821 b93d 06b6 34bd
00000340: 22ea 9f3d bc10 cfbc 65be 8fbd 8a05 e0bd
00000350: 458c 6abc 7c4e 0e3d ae9e f8bd 1b25 043e
00000360: db7b ca3e b34e 923c 8544 7a3e c523 fbbd
00000370: dfd3 87be 8229 943e 4a01 463e 028b 8ebe
00000380: 41f7 38be a9fd 5b3d 74eb 8bbd 45b0 94bd
00000390: 0e3c ae3d 7990 d7bb 93bf 953d 3067 1b3c
000003a0: a1d0 d83d d850 093e f55c acbd 644f 67bd
000003b0: d162 8d3c 75dc 81be 5853 4abe 0dd1 8d3d
000003c0: f136 44be d238 25be 4740 47be 5296 973d
000003d0: 241c 98bd 9ffc d0be 853f 833e 1a09 aebd
000003e0: 3d75 b5bc 7485 9cbd 703a fdbe 4dfc 33be
000003f0: b43c cf3d 9570 533e adda 5e3e ae15 a73d

arith.constant8 f4 [16, 5, 5, 32]
0.10018232 -0.18134071 0.12695244 -0.33305058 0.15395604 0.020263521 -0.11443338 -0.15973468
-0.30336347 0.17824757 -0.17305337 0.24224974 -0.16371858 0.08422392 -0.16642031 -0.19791026
-0.17770526 0.30085403 0.15808848 -0.031002548 -0.09752882 -0.02746032 -0.072131254 0.05138337
0.00035307644 0.021475252 -0.08049339 0.05788173 0.020774381 -0.2832142 -0.3122341 -0.19704829
-0.06608316 -0.25978175 -0.16345388 0.04832084 -0.061018053 0.03548725 0.31025907 -0.035022166
-0.01495025 0.060105626 0.06530407 0.024176659 0.13006663 0.04403395 0.017996777 0.1594748
0.041206986 0.023783712 0.19480874 -0.1588914 0.023401612 -0.03875397 -0.25253206 0.1676051
0.14567587 0.12409672 -0.052000456 -0.14668564 -0.027709961 0.104006335 -0.07488122 0.21738997
0.05874946 -0.0051163156 -0.11600831 -0.02387249 -0.18404044 0.12218282 0.019612348 -0.08966818
-0.1678257 0.16184738 0.20249163 0.23764054 0.23002948 -0.11833433 -0.018667072 -0.071799986
0.12940496 -0.03897679 -0.024914166 -0.06574299 0.07034978 0.039186392 -0.08421345 -0.006220151
0.026061598 0.0100026615 -0.08913269 -0.13942988 0.0684757 0.08203193 0.14744224 0.16595435
-0.02995022 -0.08370302 -0.13491213 0.034079943 -0.070888095 0.230052 -0.08789826 -0.022540158
0.07901655 -0.03979902 0.0285026 -0.025910584 -0.004873353 0.09533216 -0.000942482 0.19877471
0.12985519 -0.09448226 -0.17353733 -0.06003255 -0.09813318 0.21144736 -0.061820075 0.034312826
0.14368737 0.16849616 -0.07320828 -0.043029033 -0.005048127 -0.007847613 0.03802458 0.11601582
0.07634732 0.007552786 -0.045297142 -0.20047735 -0.04493834 -0.23768221 -0.014492149 -0.0036009585
0.033227276 -0.13639228 -0.12862147 0.0401712 0.11705757 -0.12136402 -0.05412689 0.06811186
-0.2316084 -0.02294688 -0.2355787 0.18567805 -0.15050219 0.16526785 -0.11390609 0.25436768
0.2805224 0.12243518 -0.000952049 0.16616641 -0.048185978 0.011056758 0.013143421 -0.32046854
-0.17947885 0.010629144 -0.04447958 -0.24292669 -0.112839356 -0.08381598 -0.078813195 -0.07531016
-0.15967092 0.04428697 -0.33401883 0.11295267 -0.018550329 -0.10224707 0.009426856 0.16202694
0.13422756 0.08956059 0.14772767 0.04311144 0.07496538 -0.24417785 -0.17555691 0.030669937
0.11383628 0.07633308 0.008572801 0.18054308 -0.14216463 -0.10029578 -0.14365247 -0.050032903
-0.08425719 -0.012718302 -0.13167617 -0.08770175 -0.010782518 -0.116819955 -0.018734636 0.020047422
0.23867166 0.04875822 -0.020369705 0.07100969 0.0174869 -0.025315396 0.19353548 0.098100096
0.10768011 0.04086343 0.21433434 0.103814445 0.09774451 -0.063199915 0.1919192 -0.021175383
-0.01404271 -0.019344801 -0.011127062 0.017347364 -0.063172676 -0.020135982 -0.07539663 0.0828675
-0.26646924 -0.121163025 -0.004335368 0.07846947 -0.016582925 0.0029455996 0.28166923 -0.10532419
0.006316809 0.37526914 0.10700012 0.3485255 -0.29546478 -0.13812873 0.04472779 -0.030184474
0.112759545 -0.04004977 0.2543251 -0.23122784 0.104512736 -0.18187329 0.21452816 -0.25042444
-0.0738423 -0.074320786 -0.09372896 -0.032779973 -0.13771853 0.03649052 -0.13017473 0.12986672
00000000: 632c cd3d 61b1 39be d2ff 013e 9b85 aabe
00000010: a7a6 1d3e afff a53c 0c5c eabd 7d91 23be
00000020: 7552 9bbe 8886 363e e734 31be 5110 783e
00000030: d8a5 27be 977d ac3d 166a 2abe fda8 4abe
00000040: 5ef8 35be 8a09 9a3e f2e1 213e 0ef9 fdbc
00000050: 31bd c7bd 77f4 e0bc 8db9 93bd 5e77 523d
00000060: 1e1d b939 deec af3c b8d9 a4bd 6515 6d3d
00000070: 092f aa3c 7401 91be 26dd 9fbe 07c7 49be
00000080: 9c56 87bd 1d02 85be 7460 27be 13ec 453d
00000090: 11ee 79bd 145b 113d 47da 9e3e 6773 0fbd
000000a0: e5f1 74bc 5131 763d 24be 853d 210e c63c
000000b0: 3030 053e f15c 343d fa6d 933c 5d4d 233e
000000c0: a8c8 283d 0fd6 c23c f17b 473e 6db4 22be
000000d0: bdb4 bf3c 7cbc 1ebd e24b 81be aca0 2b3e
000000e0: 0e2c 153e 6c26 fe3d 6efe 54bd c334 16be
000000f0: 0000 e3bc 4601 d53d 535b 99bd 7a9b 5e3e
00000100: 46a3 703d c4a6 a7bb c495 edbd 3d90 c3bc
00000110: 1975 3cbe fd3a fa3d 13aa a03c f3a3 b7bd
00000120: 80da 2bbe 52bb 253e f759 4f3e 0b58 733e
00000130: d98c 6b3e 4559 f2bd b0eb 98bc df0b 93bd
00000140: bc82 043e 20a6 1fbd cb18 ccbc 43a4 86bd
00000150: 8c13 903d e981 203d 1a78 acbd 69d2 cbbb
00000160: 227f d53c 34e2 233c 338b b6bd b5c6 0ebe
00000170: fd3c 8c3d 5b00 a83d 19fb 163e f0ef 293e
00000180: 2a5a f5bc 7d6c abbd 6826 0abe 6997 0b3d
00000190: c72d 91bd c092 6b3e 0104 b4bd 23a6 b8bc
000001a0: 6ed3 a13d 4c04 23bd 497e e93c 6f42 d4bc
000001b0: a6b0 9fbb 823d c33d e510 77ba 998b 4b3e
000001c0: c2f8 043e ea7f c1bd c5b3 31be b1e4 75bd
000001d0: 0cfa c8bd a885 583e 0c37 7dbd 9b8b 0c3d
000001e0: c822 133e 428a 2c3e 39ee 95bd 363f 30bd
000001f0: c26a a5bb 4693 00bc a9bf 1b3d b499 ed3d
00000200: fc5b 9c3d 5c7d f73b 7f89 39bd ef49 4dbe
00000210: 4411 38bd f762 73be 7b70 6dbc 0ffe 6bbb
00000220: 5319 083d 6baa 0bbe 59b5 03be 8e8a 243d
00000230: e1bb ef3d b38d f8bd 28b4 5dbd 3b7e 8b3d
00000240: c12a 6dbe 18fb bbbc 8b3b 71be 6322 3e3e
00000250: 3f1d 1abe fa3b 293e 9947 e9bd 7b3c 823e
00000260: a2a0 8f3e 4cbf fa3d ed92 79ba 8727 2a3e
00000270: a95e 45bd 6827 353c 8157 573c 7414 a4be
00000280: 4ec9 37be dc25 2e3c 3830 36bd c6c1 78be
00000290: 5218 e7bd b6a7 abbd d068 a1bd 373c 9abd
000002a0: c680 23be 4166 353d 8404 abbe bb53 e73d
000002b0: dcf6 97bc e966 d1bd 1a73 1a3c 64ea 253e
000002c0: f372 093e 8b6b b73d ec45 173e 9f95 303d
000002d0: 7387 993d c209 7abe 31c5 33be 853f fb3c
000002e0: ff22 e93d 8554 9c3d ef74 0c3c 49e0 383e
000002f0: 9b93 11be e067 cdbd a219 13be 4def 4cbd
00000300: 098f acbd 6d60 50bc 1ed6 06be fa9c b3bd
00000310: 29a9 30bc 4d3f efbd 6179 99bc 7e3a a43c
00000320: 5866 743e b3b6 473d 5ede a6bc 876d 913d
00000330: b040 8f3c 3c62 cfbc 2a2e 463e b4e8 c83d
00000340: 6487 dc3d 6960 273d 767a 5b3e ab9c d43d
00000350: 462e c83d f56e 81bd 7786 443e ff77 adbc
00000360: 6513 66bc fd78 9ebc 484e 36bc 0f1c 8e3c
00000370: ad60 81bd 37f4 a4bc 8c69 9abd 70b6 a93d
00000380: a86e 88be 5224 f8bd b40f 8ebb 9ab4 a03d
00000390: ead8 87bc f60a 413b f336 903e 35b4 d7bd
000003a0: 3cfd ce3b 4723 c03e e122 db3d ef71 b23e
000003b0: 2947 97be 9e71 0dbe 7d34 373d 6e45 f7bc
000003c0: 7aee e63d 3a0b 24bd e636 823e fec6 6cbe
000003d0: c60a d63d fe3c 3abe 45ad 5b3e a237 80be
000003e0: a23a 97bd 7f35 98bd f8f4 bfbd 4b44 06bd
000003f0: 1606 0dbe 1577 153d 864c 05be c8fb 043e

arith.constant9 f4 [32, 5, 5, 3]
0.22178005 -0.094266444 -0.10862335 0.18189527 -0.062394083 -0.20640248 0.22158906 -0.12719238
-0.15332404 0.29474548 -0.22610858 -0.12657307 0.18452576 -0.13172081 -0.13774942 0.08361532
-0.09269583 -0.020591721 0.1922644 -0.07238889 -0.09715584 0.1805443 -0.12333495 -0.060810704
0.2381741 -0.13772991 -0.106288135 0.11283334 -0.082471386 -0.093227714 0.006280293 -0.0056506535
-0.023266885 -0.028095832 0.060251858 -0.057969987 -0.024838109 0.026066236 0.0031045908 0.044830125
0.010072803 -0.055383883 0.07294069 -0.06671255 0.032629315 -0.16758026 0.08431512 -0.012784911
-0.2202337 0.09981823 0.06708408 -0.20428379 0.09427386 0.12908356 -0.16789578 0.10885084
0.06718894 -0.13740806 0.057691373 0.058543254 -0.23253304 0.15471719 0.1424193 -0.24686624
0.1961541 0.060232002 -0.19314973 0.109414615 0.17181908 -0.18616255 0.1399583 0.123720065
-0.18374565 0.14342697 0.019490246 -0.21038371 -0.030599061 0.06479465 -0.17612249 0.10855796
0.1893491 -0.18326618 0.09695493 0.16569264 -0.09359295 0.031750187 0.23254064 -0.12543042
-0.14030215 -0.039088983 -0.17983626 -0.07926878 0.014981624 -0.134998 0.068192646 0.058319308
-0.21812357 0.112973 0.17278145 -0.15698831 0.114914745 0.22416566 -0.17407502 0.13631114
0.2900637 0.017732788 -0.003191753 0.007976394 -0.06464344 0.012969982 0.04356715 -0.035416827
0.060398243 0.13891791 -0.0570099 0.08650923 0.15893266 -0.08275486 0.15014018 0.18114078
0.15285678 -0.079572305 -0.013001273 0.18832463 -0.08492123 -0.07657973 0.15144663 -0.026614277
-0.069976985 0.105503365 -0.060282763 -0.113206275 0.04175191 0.0315797 -0.007813165 0.29188704
-0.19884479 -0.09698641 0.19754453 -0.101347394 -0.12705576 0.11427997 -0.23208494 -0.1733264
0.097981334 -0.25961876 -0.22728117 0.19436482 -0.16438226 -0.15602483 0.096793555 -0.188262
-0.08572077 0.0871197 -0.11930417 -0.09199269 0.021201352 -0.23169033 -0.017462265 -0.11849174
-0.11169624 0.03442706 -0.13262518 -0.05292879 0.06957138 0.010098461 -0.16641182 -0.075996995
0.10298526 -0.09425517 0.02808022 -0.047012888 -0.13009958 -0.026764046 -0.0065520452 -0.020936904
0.106519856 -0.14067982 0.05657811 0.15219903 0.030344008 -0.14898603 -0.18572326 0.07949733
-0.10506433 -0.11334693 -0.10665342 -0.12519473 0.069292456 0.052358624 0.08696704 0.18537733
-0.015733406 0.13954161 0.28292334 -0.12527701 -0.14302751 -0.14539695 -0.10929754 -0.1374337
-0.122081146 -0.0044742855 -0.008772297 0.1341428 0.015658205 0.21822096 0.25251648 -0.0031950183
0.25344655 0.24962372 -0.0048848107 -0.16218178 -0.11455944 0.13265316 0.04812343 0.14885512
0.10541584 0.21271195 0.2630886 0.060837295 0.19458729 0.1535097 -0.025291758 0.1898449
0.1573783 -0.20047365 0.104874276 0.122244924 -0.28070748 0.13585952 0.16176029 -0.3097798
0.17744683 0.22458541 -0.14104137 0.14447996 0.094979875 -0.10208085 -0.049324587 0.07201949
-0.16362487 0.014870918 0.21454823 -0.18748683 -0.018145759 0.18507157 -0.18577734 0.038552705
0.117123365 -0.061442155 0.07696444 0.11417693 0.15037589 0.0031941272 0.0001715949 -0.06414491
00000000: 4f1a 633e c40e c1bd eb75 debd c142 3a3e
00000010: f090 7fbd 2c5b 53be 3ee8 623e b83e 02be
00000020: fa00 1dbe e1e8 963e 0289 67be 5f9c 01be
00000030: 52f4 3c3e d2e1 06be 2f0e 0dbe 823e ab3d
00000040: 50d7 bdbd f8af a8bc f5e0 443e a040 94bd
00000050: a4f9 c6bd 9be0 383e 0997 fcbd a514 79bd
00000060: e9e3 733e 1209 0dbe 98ad d9bd 2b15 e73d
00000070: c2e6 a8bd 2cee bebd ebca cd3b 1e29 b9bb
00000080: 329a bebc 3b29 e6bc a7ca 763d f071 6dbd
00000090: 4a79 cbbc dc88 d53c 6476 4b3b cb9f 373d
000000a0: 6608 253c 36da 62bd ee61 953d 97a0 88bd
000000b0: 51a6 053d 299a 2bbe 68ad ac3d ce77 51bc
000000c0: f184 61be 806d cc3d 6163 893d c52f 51be
000000d0: a712 c13d 7b2e 043e dfec 2bbe 30ed de3d
000000e0: 5b9a 893d b3b4 0cbe ca4d 6c3d 0dcb 6f3d
000000f0: 241d 6ebe 2f6e 1e3e 5dd6 113e 81ca 7cbe
00000100: 9fdc 483e d5b5 763d 0bc9 45be c514 e03d
00000110: 57f1 2f3e 65a1 3ebe 3b51 0f3e f260 fd3d
00000120: d227 3cbe 85de 123e 02aa 9f3c d46e 57be
00000130: e2aa fabc 0fb3 843d 7459 34be a353 de3d
00000140: bbe4 413e 21aa 3bbe 4e90 c63d 55ab 293e
00000150: a9ad bfbd 7c0c 023d 221f 6e3e d570 00be
00000160: 5eab 0fbe c51b 20bd ff26 38be ac57 a2bd
00000170: 7c75 753c ea3c 0abe 96a8 8b3d 3ae0 6e3d
00000180: c95b 5fbe 635e e73d 9fed 303e 8bc1 20be
00000190: 6c58 eb3d af8b 653e b940 32be 2695 0b3e
000001a0: 3b83 943e 5a44 913c bb2c 51bb 6caf 023c
000001b0: c863 84bd 0c80 543c 7873 323d 3c11 11bd
000001c0: 2664 773d 7f40 0e3e 3783 69bd c02b b13d
000001d0: 3ebf 223e 617b a9bd 59be 193e f87c 393e
000001e0: 7d86 1c3e cef6 a2bd 4b03 55bc 2cd8 403e
000001f0: 2feb adbd d5d5 9cbd d314 1b3e 2f06 dabc
00000200: 1850 8fbd 2612 d83d 0feb 76bd b1d8 e7bd
00000210: 0d04 2b3d b759 013d ca02 00bc 3872 953e
00000220: f89d 4bbe d0a0 c6bd 1d49 4a3e 398f cfbd
00000230: e81a 02be 9e0b ea3d ada7 6dbe 7a7c 31be
00000240: 70aa c83d c0ec 84be 65bc 68be 9207 473e
00000250: d353 28be f9c4 1fbe b33b c63d c1c7 40be
00000260: 5f8e afbd d06b b23d bf55 f4bd aa66 bcbd
00000270: 75ae ad3c 3b40 6dbe 060d 8fbc ccab f2bd
00000280: 00c1 e4bd 6403 0d3d e5ce 07be dccb 58bd
00000290: 717b 8e3d 0474 253c dc67 2abe 50a4 9bbd
000002a0: f0e9 d23d db08 c1bd 7d08 e63c 9690 40bd
000002b0: d338 05be 4640 dbbc 8ab2 d6bb df83 abbc
000002c0: 1527 da3d 5f0e 10be 73be 673d 10da 1b3e
000002d0: ff93 f83c cb8f 18be 3d2e 3ebe 7fcf a23d
000002e0: f82b d7bd 6f22 e8bd 1c6d dabd 0c33 00be
000002f0: 34e9 8d3d ff75 563d c71b b23d 8ed3 3d3e
00000300: 58e3 80bc ffe3 0e3e 54db 903e 9e48 00be
00000310: ce75 12be f0e2 14be 63d7 dfbd 6bbb 0cbe
00000320: ae05 fabd 079d 92bb aeb9 0fbc bb5c 093e
00000330: a345 803c 5175 5f3e d749 813e 8363 51bb
00000340: bfc3 813e 5c9d 7f3e c310 a0bb fb12 26be
00000350: 249e eabd 3bd6 073e 131d 453d 7a6d 183e
00000360: 43e4 d73d 29d1 593e 8db3 863e 8730 793d
00000370: e441 473e a631 1d3e a930 cfbc b466 423e
00000380: c727 213e f748 4dbe 53c8 d63d 8c5b fa3d
00000390: e4b8 8fbe c21e 0b3e 7da4 253e 759b 9ebe
000003a0: 9fb4 353e b8f9 653e 266d 10be 8ef2 133e
000003b0: cf84 c23d c40f d1bd 9408 4abd f47e 933d
000003c0: 478d 27be 27a5 733c 88b2 5b3e 8cfc 3fbe
000003d0: 6aa6 94bc 6783 3d3e 6a3c 3ebe 71e9 1d3d
000003e0: 60de ef3d c5aa 7bbd 889f 9d3d 98d5 e93d
000003f0: 23fc 193e 9054 513b 28ee 3339 685e 83bd

arith.constant10 f4 [2, 64]
-0.07237275 -0.10048352 0.02249682 -0.012063082 -0.07861015 -0.062228777 -0.20842998 0.15295039
-0.13549314 -0.063679434 0.12940697 0.14555533 -0.19925465 -0.034391243 -0.095924884 -0.1610897
-0.014497455 0.037855256 -0.08951393 0.08620828 0.0024277372 -0.055348445 0.055718224 0.03418606
0.12305295 -0.0043738396 -0.03671191 0.24819326 0.1123691 0.12252735 -0.03513599 0.07982697
0.06681018 0.1952716 -0.06860106 -0.0256323 -0.14933683 0.15097967 -0.022085233 0.12401472
0.13058612 0.08360455 0.029696163 -0.16502619 -0.2336849 0.08747949 -0.07832791 0.07690853
0.028986095 -0.04592366 -0.009009119 0.17869952 -0.054610774 -0.15517735 -0.085762605 0.13077866
-0.0063627637 -0.13993238 0.110186815 -0.14893761 0.036261823 -0.004711272 -0.16955231 0.14193733
-0.08693701 0.13517497 -0.25962272 0.046915747 -0.11269159 0.057980843 0.056127254 0.05898646
-0.07058165 -0.024444146 -0.06759544 -0.033049833 0.13124576 0.19856796 -0.1033998 -0.019776074
0.0059045926 -0.088561594 -0.1765066 0.032539 -0.07628085 -0.10148416 -0.009928038 0.17917679
0.08026085 0.19475287 -0.18357007 -0.17642789 0.009287513 -0.036168784 0.12295377 0.16031432
-0.14024822 -0.020695077 0.1476755 -0.14740273 0.21651232 -0.023118727 -0.011244554 0.09776941
-0.21745212 -0.04990321 -0.112674475 0.13465036 -0.15312874 0.052633904 -0.025385857 0.21561956
0.06686533 0.075276166 -0.038950127 0.1465937 -0.01853127 -0.054245587 0.032879207 0.0667034
-0.09348138 -0.1245618 0.0723654 0.019543232 -0.1665912 -0.12836565 0.01950325 -0.109925374
00000000: 2a38 94bd 4eca cdbd 404b b83c 3ca4 45bc
00000010: 5cfe a0bd 9ae3 7ebd ab6e 55be 079f 1c3e
00000020: b7be 0abe 5d6a 82bd 4383 043e 750c 153e
00000030: 6909 4cbe d5dd 0cbd 4474 c4bd b3f4 24be
00000040: bc86 6dbc 1d0e 1b3d 1453 b7bd f78d b03d
00000050: ac1a 1f3b 0db5 62bd cb38 643d af06 0c3d
00000060: 2f03 fc3d 6d52 8fbb 3a5f 16bd 6026 7e3e
00000070: c521 e63d 9fef fa3d c1ea 0fbd 537c a33d
00000080: c7d3 883d 47f5 473e b67e 8cbd d4fa d1bc
00000090: c1eb 18be 6a9a 1a3e 17ec b4bc 6efb fd3d
000000a0: 5eb8 053e dd38 ab3d 5e45 f33c a0fc 28be
000000b0: 184b 6fbe 7228 b33d 626a a0bd 3882 9d3d
000000c0: 3f74 ed3c 731a 3cbd fc9a 13bc 02fd 363e
000000d0: 8caf 5fbd d0e6 1ebe 4ea4 afbd d7ea 053e
000000e0: bb7e d0bb 6f4a 0fbe a0a9 e13d 1a83 18be
000000f0: 4787 143d 0461 9abb 1f9f 2dbe 0558 113e
00000100: 080c b2bd 4f6b 0a3e 45ed 84be ba2a 403d
00000110: d9ca e6bd 527d 6d3d b1e5 653d c99b 713d
00000120: 1d8d 90bd 173f c8bc 7a6f 8abd 435f 07bd
00000130: 4a65 063e 6655 4b3e 46c3 d3bd 6f01 a2bc
00000140: 507b c13b c85f b5bd 25be 34be 9d47 053d
00000150: 2239 9cbd edd6 cfbd 36a9 22bc 1f7a 373e
00000160: cd5f a43d 4c6d 473e cbf9 3bbe 83a9 34be
00000170: a72a 183c b825 14bd 30cf fb3d 7029 243e
00000180: 3b9d 0fbe b988 a9bc 3f38 173e bef0 16be
00000190: 68b5 5d3e 7c63 bdbc 143b 38bc 543b c83d
000001a0: c5ab 5ebe 4f67 4cbd e0c1 e6bd c9e1 093e
000001b0: c8cd 1cbe a696 573d 00f6 cfbc 60cb 5c3e
000001c0: b1f0 883d 642a 9a3d 2b8a 1fbd a91c 163e
000001d0: e4ce 97bc 9f30 5ebd 59ac 063d cb9b 883d
000001e0: 2a73 bfbd 421a ffbd 5034 943d 2119 a03c
000001f0: e296 2abe 4972 03be 48c5 9f3c 8e20 e1bd

arith.constant11 f4 [2]
0.04146421 -0.0179606
00000000: 60d6 293d 1c22 93bc

functional_1/batch_normalization_1_2/batchnorm/mul f4 [32]
2.1481674 1.4258902 0.586963 1.577965 1.8775026 1.5606719 1.1834985 0.96059084
1.2947705 2.0695157 0.65479606 1.8296852 1.2321141 1.2575173 0.6289574 1.0189587
1.1942898 1.5755934 0.665982 1.0259043 1.6641761 1.7242744 1.0276966 0.62167597
0.46993697 0.46862665 0.63273203 0.6921874 0.9527256 1.0590649 1.5343537 1.3006464
00000000: 937b 0940 9283 b63f 3543 163f c2fa c93f
00000010: 0152 f03f 19c4 c73f e17c 973f 48e9 753f
00000020: 0abb a53f f272 0440 b7a0 273f 2033 ea3f
00000030: eab5 9d3f 54f6 a03f 5a03 213f 3d6d 823f
00000040: 7dde 983f 0bad c93f cc7d 2a3f d550 833f
00000050: b903 d53f 06b5 dc3f 908b 833f 2826 1f3f
00000060: 949b f03e d5ef ef3e bafa 213f 3233 313f
00000070: d3e5 733f 708f 873f b465 c43f 957b a63f

functional_1/batch_normalization_1_2/batchnorm/sub f4 [32]
-0.45274642 -1.5279225 -0.58297193 -0.84478414 -0.8318143 -0.71462965 -1.161135 -0.40648776
-1.5754728 0.16356975 -0.7212175 0.052736104 -1.4636481 -0.7795768 -0.7132277 -0.6835612
-1.1333331 -1.1574144 -0.71428 -0.52972656 -0.57859045 -0.73781174 -0.87486386 -0.12655142
-0.36676592 -0.29132593 0.14245465 -0.50179607 -0.028655946 -0.37779677 -1.3819728 -1.1616912
00000000: 61ce e7be f792 c3bf a63d 15bf c643 58bf
00000010: c8f1 54bf f8f1 36bf 12a0 94bf 2a1f d0be
00000020: 18a9 c9bf d47e 273e b6a1 38bf d001 583d
00000030: d258 bbbf 5892 47bf 1796 36bf defd 2ebf
00000040: 0f11 91bf 2826 94bf 0edb 36bf 299c 07bf
00000050: 811e 14bf 3be1 3cbf 14f7 5fbf b296 01be
00000060: bec8 bbbe ac28 95be a2df 113e b575 00bf
00000070: e0bf eabc 946e c1be 7ce4 b0bf 4cb2 94bf

functional_1/batch_normalization_1/batchnorm/mul f4 [3]
0.017229713 0.019562572 0.012877023
00000000: 5425 8d3c b041 a03c 26fa 523c

functional_1/batch_normalization_1/batchnorm/sub f4 [3]
-2.1902702 -2.6042721 -1.4961584
00000000: 632d 0cc0 65ac 26c0 1e82 bfbf

functional_1/batch_normalization_2_1/batchnorm/mul f4 [16]
0.23832372 0.22634454 0.22883736 0.19092415 0.21626079 0.106378734 0.23788287 0.2569336
0.26151648 0.17842026 0.26080942 0.19485222 0.22869602 0.18160763 0.26258212 0.23946209
00000000: 220b 743e ddc6 673e 5754 6a3e 9f81 433e
00000010: 7873 5d3e 18dd d93d 9197 733e cd8c 833e
00000020: 7de5 853e cdb3 363e d088 853e 5787 473e
00000030: 4a2f 6a3e 5af7 393e 2a71 863e 8d35 753e

functional_1/batch_normalization_2_1/batchnorm/sub f4 [16]
-0.90555406 -0.56691146 -0.47600377 -0.626764 -0.46420282 -0.5688001 -0.64151466 -0.29744887
-0.5098944 -0.36997285 -0.47117203 -0.2275762 -0.83069026 -0.5186645 -0.57367265 -0.4816482
00000000: 64d2 67bf 1c21 11bf c4b6 f3be 9b73 20bf
00000010: feab edbe e29c 11bf 4e3a 24bf 384b 98be
00000020: 7088 02bf 156d bdbe 763d f1be bc09 69be
00000030: 1ea8 54bf 32c7 04bf 36dc 12bf 989a f6be
