ana-cont_16.00.01_s1.tflite (tflite, 255584 bytes, 18 tensors)

arith.constant f4 [32]
000000 51 50 de 3c 19 94 e2 bd 13 b7 69 be a4 8d 5e be
       0.027137907 -0.11063404 -0.22823744 -0.21733719
000010 08 e5 01 bf 41 dc 04 bf 98 ce f5 bd 2a 42 76 be
       -0.507401 -0.5189858 -0.12002295 -0.24048677
000020 ca 52 57 be 84 b1 03 be 03 58 85 be 9e c5 90 be
       -0.21027675 -0.12860686 -0.2604371 -0.2827577
000030 35 11 2b 3c 96 2a 53 b9 a9 41 55 be 56 e3 d6 bd
       0.010441114 -0.00020138393 -0.20825829 -0.1049258
000040 02 1f 7e be af 57 ae be 54 a6 05 bf f9 d1 46 be
       -0.24816516 -0.34051272 -0.5220692 -0.19416036
000050 34 aa 85 be 6f 99 89 be 34 d2 b1 be d9 c7 b3 be
       -0.26106417 -0.26874873 -0.34730685 -0.3511341
000060 a3 f6 e7 be e3 6f b1 be 1b 10 ab bd cf 5f 23 be
       -0.45305356 -0.34655675 -0.08352681 -0.15954517
000070 e4 e5 e2 bd 41 ce 33 be 0a 9e 87 bc fa ee c6 be
       -0.110790044 -0.17559148 -0.016554851 -0.388542

arith.constant1 f4 [32]
000000 56 ef 91 be 5a 35 87 be 47 b7 72 bd f2 06 b7 bd
       -0.2850291 -0.26407892 -0.05925682 -0.089368716
000010 9f 66 c3 be 5d 84 4d be c6 34 d3 bd e9 64 82 be
       -0.3816423 -0.20070024 -0.103128 -0.25467613
000020 9d 0b d6 bd a0 dc 31 be ae e3 be be 78 f7 73 be
       -0.10451434 -0.17369318 -0.3728308 -0.2382487
000030 14 e5 33 bd 89 b8 be be 19 5e c1 be e2 10 97 bd
       -0.043919638 -0.37250164 -0.37767103 -0.07376267
000040 97 28 99 be 7c d4 13 be e9 e1 9c be c5 dc 45 be
       -0.2991378 -0.14436525 -0.30641106 -0.19322498
000050 51 63 ee bd ae de 24 be 3e 43 7a be 8c 33 02 be
       -0.11640037 -0.1610057 -0.24439713 -0.12714976
000060 23 3c 34 bd ad 0c 3e 3c 8c 9c f4 bd e6 a9 65 be
       -0.044002663 0.011599702 -0.119439214 -0.22428092
000070 79 08 ae be 79 d6 7c be 27 38 24 be 97 bc 2d 3c
       -0.3399084 -0.2469119 -0.16037045 0.010604045

arith.constant2 f4 [32]
000000 e3 f1 78 3e eb 7c 59 bd bf 1f 95 3e 7b 73 b4 3d
       0.24311022 -0.053097647 0.29125783 0.08811089
000010 22 19 01 3f 2c ca 2f 3e 06 13 0a 3e 4e 60 e0 3e
       0.50428975 0.17166966 0.1348382 0.43823475
000020 de 3d a1 3e 1f a2 41 3e 60 2c 16 3e 93 84 d9 be
       0.31492513 0.189095 0.14665365 -0.4248396
000030 2f e7 80 3e c5 c3 68 3d b9 4c af 3e cb ec 9c be
       0.2517638 0.056827325 0.34238222 -0.3064941
000040 ce 19 99 be 2b e8 91 3d 70 bd 4b 3f 52 23 91 be
       -0.299025 0.07124361 0.79585934 -0.2834726
000050 fd 6d b8 3e 0a 28 36 3d 54 39 a7 be 6c c7 3c 3c
       0.36021414 0.044471778 -0.32660925 0.011522155
000060 09 7c 8e 3d ec 44 0a 3f ac a6 ad bb 8f 36 12 bd
       0.069572516 0.54011416 -0.00529941 -0.035696562
000070 c4 80 3d be 13 52 1b 3d a0 53 eb 3d 10 bf 90 3e
       -0.18506151 0.03792007 0.114905596 0.2827077

arith.constant3 f4 [64, 128]
000000 de 36 49 bd 4b c1 6b 3c 6c 7f bc bd 96 af 7b bd
       -0.04912459 0.014389346 -0.09203991 -0.06144675
000010 6b ed 8d 3c b0 f7 01 bd 27 82 01 bd 16 43 87 3b
       0.017325124 -0.031730354 -0.031618264 0.0041278703
000020 75 d6 74 bd 70 8d a4 3b 01 15 d3 bc dd 77 3c 3c
       -0.059774835 0.0050217435 -0.025766851 0.011503187
000030 6a 21 9f bc 2b ab 96 bb cc e0 22 bd 7f d7 db bc
       -0.019425113 -0.0045980415 -0.039765164 -0.026836155
000040 ca dc 99 bc ef bd 4a 3c dc d0 b1 bb b3 7a b3 b9
       -0.018782038 0.012374385 -0.0054265093 -0.0003423296
000050 d0 b7 19 bb e3 c4 c9 3b 72 56 15 3b d5 d0 14 3c
       -0.0023455508 0.006157504 0.002278712 0.009082993
000060 2a a1 c6 3c df 2d 8c bc 4c cb 62 3c c1 79 c6 3b
       0.02424677 -0.017111717 0.013842415 0.0060569947
000070 88 36 cf bc 28 5f 07 3d e5 38 e9 ba 3e fd 92 bd
       -0.025294557 0.033049732 -0.0017793445 -0.07177208
000080 b7 3d 32 bd e8 f8 04 3d a6 37 bf b9 01 eb 09 3c
       -0.043515887 0.032463938 -0.0003647182 0.008417846
000090 82 58 28 3c 0e a0 cf 3c 39 98 93 bc 5c a9 10 bd
       0.010275008 0.025344875 -0.018016921 -0.035317764
0000a0 0f 8a 8a 3c e7 a2 5a bd e0 3d a5 bd 39 57 aa bb
       0.016911535 -0.053378012 -0.08068442 -0.005198386
0000b0 b0 bd 59 3c f1 ac a8 3b 8a e1 a9 3c f4 7b ee bc
       0.013289854 0.0051475693 0.020737428 -0.02911184
0000c0 f7 48 cb bc 95 e3 49 bd 2b a8 a7 bb f5 4c 19 3c
       -0.024815066 -0.049289305 -0.0051164827 0.009356727
0000d0 a2 15 57 3c 9b b0 94 3c 4b 4f 97 bc 3b 1b f3 3b
       0.013127716 0.018150618 -0.018470427 0.0074190176
0000e0 01 87 51 3c c8 6b ce bd 8d 56 09 3d c1 64 ac bc
       0.012788535 -0.100791514 0.033529807 -0.021044137
0000f0 fb 90 ac 3c 47 00 f7 bb c0 7d d2 ba 25 a0 ee bb
       0.021065226 -0.007537875 -0.0016059205 -0.0072822743
000100 64 85 0d bd 7d 6b 40 bc 06 4d bb bc 5f b0 98 bb
       -0.03455104 -0.011744377 -0.022863876 -0.004659697
000110 c5 89 51 bc 6a 15 84 ba cb 5c 1d bd ed 35 27 3c
       -0.0127891945 -0.0010077183 -0.038418572 0.010205728
000120 dd b5 98 bd d7 5f af 3a cd 41 02 3c 64 60 f2 3b
       -0.07456563 0.0013380003 0.007950258 0.0073967446
000130 a1 a5 98 3c de 38 09 bd 87 b0 b8 ba fe 1c 3a 3c
       0.018633666 -0.0335015 -0.0014090695 0.011359451
000140 ef af 46 bc 6e 3a 9e 3c dc c8 1c 3c 3e 84 59 bc
       -0.012126907 0.01931497 0.009569373 -0.013276158
000150 b7 24 8b 3b 9d 45 b9 bd b7 37 4c bc 46 5e 59 3b
       0.00424632 -0.09046481 -0.012464455 0.0033167764
000160 88 c4 2c 3c 6e 25 1e 3c 35 d7 2c 3b ec ca 66 bd
       0.010544904 0.009652479 0.002637339 -0.056345865
000170 da f3 af bc da c7 ae ba bd 6c 35 ba d9 55 09 bd
       -0.021478582 -0.0013334707 -0.00069208053 -0.033529136
000180 46 fb 7d bc f3 20 a2 bc 4f 1f fb bc 02 32 5c 3c
       -0.015501803 -0.019791102 -0.030654578 0.013439657
000190 37 fa ac 3b ef be ca bb 9c e8 cc bd b5 ba 11 3d
       0.0052788514 -0.006187312 -0.10005304 0.03557845
0001a0 56 ab 25 bc c2 d7 15 bc 12 6d 4e bc 97 8a 75 3c
       -0.01011165 -0.009145679 -0.012599247 0.014986656
0001b0 fa dd 13 3c 9e 45 cb bc e3 40 9f 3b e3 1a be 3b
       0.009025091 -0.02481347 0.00486003 0.005801545
0001c0 5a 95 e9 bc d5 6d 04 bd bb af 80 3c b1 90 ad 3c
       -0.0285136 -0.032331306 0.015708795 0.021187158
0001d0 83 f0 c4 bd 02 19 b4 bd 9f e9 26 3c 0a a1 bb 3c
       -0.096161865 -0.08793832 0.010187536 0.022903938
0001e0 49 19 11 3b 05 8c a9 bd fa e2 e5 3c 14 0f 23 3c
       0.0022140315 -0.0827866 0.028062332 0.009952325
0001f0 df 6f b8 3b b3 f6 28 3c 98 68 37 3c ed 53 77 3c
       0.0056285704 0.010312724 0.011194371 0.015095693
000200 fc b6 b8 3c 26 ba ab bd 79 de f9 bb 2e e3 aa 3c
       0.022548191 -0.08385114 -0.0076253978 0.02086028
000210 37 ac 1d 3d 93 bf 78 3c 84 e8 2c 3a 50 cd 38 bd
       0.038494315 0.015182394 0.0006595927 -0.045117676
000220 d3 51 0f bc 83 d0 78 bd d7 bf e7 3c 0d 2a 06 3d
       -0.008747536 -0.060745727 0.028289719 0.032754947
000230 69 77 32 3c e1 6f ee 3a 94 90 93 bd 0b f3 bb bd
       0.010892727 0.0018191301 -0.072053105 -0.09177216
000240 09 21 54 3c b7 65 80 bc 0f 9d 85 3c ba ac 05 3c
       0.012947329 -0.015673501 0.016310243 0.008158857
000250 b1 4d b4 ba f5 66 43 3b 4b 86 20 bd e3 ac 71 bd
       -0.0013756064 0.0029816006 -0.03919057 -0.05900277
000260 e6 8b 67 3c 3d b2 9b 3c 4f 5c 91 3c e8 32 87 bd
       0.0141324755 0.01900589 0.017744211 -0.066015065
000270 7d 40 b0 3c a0 bd 1d 3c 3e 8b 37 bc dc 6f 95 bb
       0.021515125 0.00962773 -0.0112026315 -0.004560454
000280 b3 76 53 3b 84 4c 5d 3c 15 b8 00 3d 33 f9 fe 3b
       0.0032266795 0.013507012 0.031425554 0.0077811717
000290 4b 16 60 bc ba cb e3 bb cd a4 6d 3b d0 90 6f 3c
       -0.01367719 -0.0069517763 0.003626156 0.014621928
0002a0 57 20 cc bd ab 49 ac bd 27 d7 f6 3b dd 90 89 3c
       -0.09967106 -0.084124885 0.0075329724 0.016792709
0002b0 2c 74 59 3a 13 a6 69 3c ba 77 22 ba 6c ea 17 3d
       0.0008295204 0.014260787 -0.000619765 0.037088796
0002c0 49 5c 7d bb 8b 1c 9d 3c 92 45 f1 bb ed 96 4c bb
       -0.0038659743 0.01917865 -0.0073630298 -0.0031217888
0002d0 dd da 64 3b b9 d3 05 bd b6 a7 82 3c 93 0b 2e 3c
       0.0034920492 -0.032672618 0.015949111 0.010622877
0002e0 9c 61 39 3b ec 21 46 3c b3 14 c7 bc df 31 6a bd
       0.002828694 0.012093049 -0.024301862 -0.057176467
0002f0 86 3e 24 3c 3e 34 0c bc 7e c5 2b 3c f9 e4 ac bc
       0.010024672 -0.008557377 0.0104840975 -0.021105276
000300 15 3e 09 bc 7c 34 18 3c c2 0b 29 bc 24 b3 4c bc
       -0.008376618 0.009289857 -0.010317745 -0.012493882
000310 b2 7c bd bc ea 25 a0 bd 76 8f 74 bc ac b1 ea 3b
       -0.023130748 -0.078197315 -0.014926782 0.0071622934
000320 77 42 8c 3c 82 30 4b 3b ff f4 4d bc 35 56 51 bd
       0.017121537 0.0031004255 -0.012570619 -0.051107604
000330 df e4 94 bd 59 03 a3 bb e6 d4 89 bd b1 b8 3a 3b
       -0.07270216 -0.0049747643 -0.0673006 0.0028491432
000340 83 50 44 bd 03 b0 14 3c 5c a3 89 bd 9f 72 19 3c
       -0.047928344 0.009075168 -0.067206115 0.009365707
000350 51 26 e7 b9 51 d6 68 ba c9 63 00 3c c8 d0 03 bd
       -0.000440883 -0.0008882033 0.007836291 -0.03218153
000360 df 44 97 bc 15 4e 28 bd f5 a8 5e 3c bb 15 42 bd
       -0.018465457 -0.04109009 0.013590087 -0.047384005
000370 0d d0 33 b9 59 b5 85 bd 98 84 18 bd 8b ee cd 3c
       -0.00017148275 -0.0652873 -0.037235826 0.02513816
000380 6a d5 e3 3b da da cd 3a 77 cc 95 3c c2 e0 2c bd
       0.006952931 0.0015705482 0.018285973 -0.042206533
000390 de a9 b9 3c 87 26 b7 3c 18 80 18 bd bb 4f 80 bc
       0.022664007 0.022357238 -0.037231535 -0.015663018
0003a0 7f 2d 0a 3c 89 a6 fb bc e2 61 b7 bc 9a 6a d9 bc
       0.008433699 -0.030719059 -0.022385541 -0.02654009
0003b0 14 7f 2c 3b 11 18 8c 3c 21 4e 37 bd 07 f6 b6 ba
       0.0026320862 0.01710132 -0.044752244 -0.001395882
0003c0 b2 15 1a bc 78 19 3d 3b 7d 03 23 3c 8f 11 bc bd
       -0.009404587 0.0028854292 0.009949562 -0.091830365
0003d0 2d 53 1c bd 4e b0 16 bd 5b 5d 60 bc 73 01 cc 3b
       -0.03816526 -0.03678923 -0.013694133 0.0062257587
0003e0 65 bb 3b 3c 98 ed 8d 3c 2d 8d 6f bc 6c 75 96 bc
       0.011458253 0.017325208 -0.014621061 -0.018366538
0003f0 d2 cc 92 3c d4 57 92 3c 9a 27 18 bc 8f a6 e3 b9
       0.017919932 0.017864145 -0.0092867855 -0.0004342091

arith.constant4 f4 [64]
000000 3d e9 d2 be c0 26 77 be d1 11 3b be 5d 26 bc 3e
       -0.41193572 -0.24135876 -0.18268515 0.3674802
000010 da 70 82 3f 84 01 83 3f 3d 62 da 3d b8 5e 3c 3f
       1.019069 1.0234838 0.10663269 0.7358203
000020 04 4b 08 bd 4b 6f 69 be 85 8f fd 3e fb 00 52 3f
       -0.033274665 -0.22796361 0.4952356 0.82032746
000030 6f 3e 6f 3f 51 e7 2d bf 30 c7 94 3f ba 9e 25 3e
       0.9345464 -0.67931086 1.1623287 0.1617383
000040 67 15 09 3f 11 d4 a8 3d 87 8d fa 3e 19 9c 8c bd
       0.5354828 0.082435735 0.48936102 -0.06865711
000050 d3 27 73 3e d9 55 d4 be f0 4f d6 3e 22 31 81 3f
       0.2374566 -0.41471747 0.41857862 1.0093119
000060 c7 c0 66 3f 04 c3 03 bf f4 7c 98 3f 8f cd 05 bf
       0.90137905 -0.51469445 1.1913133 -0.5226678
000070 8e a4 5c 3f 19 d6 42 bd db 5f e8 be 0b df 96 3f
       0.8618859 -0.04756746 -0.45385632 1.1786817
000080 8a 57 1f bf 94 aa e5 be 12 a0 87 3f 2a 75 66 3f
       -0.6224295 -0.44856703 1.0595725 0.9002253
000090 cb 61 a5 be a4 db 84 3f e7 81 57 3f d5 92 92 3e
       -0.32301173 1.0379529 0.8418259 0.2862765
0000a0 28 dc 10 3f bb 05 d6 be 4e 7e 43 3f 88 2e 7b be
       0.5658593 -0.41801247 0.763646 -0.24529469
0000b0 5d 30 7a 3f c2 55 a8 3e b4 87 2a be a4 ec 36 be
       0.97730047 0.32877928 -0.16653329 -0.17863709
0000c0 be e9 b7 bd 91 3d 7c 3f 45 42 c2 3e a0 3a 81 3f
       -0.0898013 0.9853144 0.37941185 1.0096016
0000d0 77 9e b8 be 4a 70 89 3e e0 8c 88 bd d5 d7 fe be
       -0.360584 0.26843482 -0.06667495 -0.49774042
0000e0 86 6e 21 3f dd 8a 3b 3f 7e 45 09 3f e2 32 32 3f
       0.6305927 0.73258764 0.5362166 0.6960889
0000f0 b9 a0 7e 3f 90 6a 14 bb 49 8d ad 3f f4 48 7d 3f
       0.99463993 -0.0022646524 1.3558742 0.9893944

arith.constant5 f4 [128, 128]
000000 39 a1 01 3e 98 fa 85 3d 3e 6d f3 bd 29 9a 6d bd
       0.12659158 0.065419376 -0.11886071 -0.058008347
000010 11 fc 6a bd a4 3e 28 3d 89 11 5b bb 44 ed 80 3c
       -0.057369296 0.041075364 -0.00334272 0.015738137
000020 cb f5 b5 bd 68 0e 1a bd 0b 32 80 3c 75 74 8a bd
       -0.08884772 -0.037611395 0.015648862 -0.06760494
000030 aa 01 3d 3d a7 f2 f8 3d 7a 71 ba ba ce 5b d0 3d
       0.046144165 0.12155657 -0.0014224492 0.1017376
000040 1d 30 85 3d 4b e9 46 bc e7 5f 81 3d 95 67 46 3e
       0.065033175 -0.012140582 0.0631712 0.19375451
000050 43 5c c1 bd c3 b6 82 3d 2e b9 ff 3d 7e ee 30 bc
       -0.09441426 0.06382515 0.12486492 -0.0107990485
000060 e1 ab 5b 3d 94 bf 30 3e 2b 72 28 bd cf fb ad bd
       0.053630713 0.17260581 -0.041124504 -0.08495294
000070 f6 35 85 3b f1 07 07 bb 89 9f be bd ee 63 1a 3d
       0.0040652705 -0.0020604099 -0.09307773 0.037692957
000080 f8 12 82 3d b6 c3 1d be 1a 1d 9b bd 08 a4 2b bd
       0.06351274 -0.15406689 -0.0757391 -0.04190448
000090 8b bb 02 bc fb 2b c3 bd fb 6f 42 bd 99 8b 13 be
       -0.007979284 -0.09529873 -0.047470074 -0.14408721
0000a0 d3 dd 29 3d ec 55 1c bd c1 cf 1e 3d dc d4 12 3c
       0.041471314 -0.03816788 0.03877235 0.008961882
0000b0 b5 d3 e0 bc d9 b2 68 bd 83 14 94 bd 2e c9 70 bc
       -0.0274447 -0.056811187 -0.07230475 -0.0146964025
0000c0 f5 8d 3b 3c 8a 4e 82 be 0e fa a7 bc 09 ef f8 bc
       0.011447419 -0.25450546 -0.020504978 -0.030387418
0000d0 e7 69 09 bd 8c 45 ce bb 88 3d a4 3d 31 cc e7 bc
       -0.033548262 -0.0062949117 0.08019549 -0.028295608
0000e0 bd d8 d5 bc f4 0b fe bd ee b3 b8 bd 13 30 f1 3d
       -0.026104325 -0.12404624 -0.09018694 0.117767476
0000f0 1c 52 a8 bc 8c 63 07 be 42 26 b5 bd 4a 8e 0e 3d
       -0.020546965 -0.13221568 -0.08845188 0.034803666
000100 8b 23 97 bc 27 55 e9 3c 87 99 5c 3c 81 07 85 bd
       -0.018449565 0.028482987 0.013464338 -0.06495572
000110 0f 40 ab 3c d6 f1 ff 3c e6 92 fe bd ea 04 6d bd
       0.020904569 0.031243246 -0.124303624 -0.057866015
000120 94 11 25 3d e2 6d 3a 3d 74 23 25 3d 08 52 82 bd
       0.040299967 0.04551495 0.040317014 -0.063633025
000130 a0 07 96 3d ef 08 cb bc e1 5a c3 3c eb 6c 01 3e
       0.07325673 -0.024784533 0.023847045 0.12639205
000140 c5 14 66 bd cc 7e d0 3d 9b e6 81 3d 08 54 40 3d
       -0.05617215 0.101804346 0.06342813 0.04695514
000150 d2 0d 30 3c c7 66 e4 bd a6 45 e6 3c b8 36 58 bc
       0.0107454825 -0.11152416 0.028109383 -0.01319664
000160 b3 49 2e be 3d 89 44 3d 2a 1c 3d bd 06 f1 8a 3c
       -0.17020302 0.047982443 -0.046169437 0.016960632
000170 8b b0 15 3d eb 81 56 bc 79 79 7e bd 48 8b 9f 3d
       0.036545318 -0.013092498 -0.062127564 0.07790238
000180 23 d5 43 bd b3 66 14 3d 6d d1 46 bd 1e 3d 29 3e
       -0.047810685 0.036230754 -0.048539568 0.1652722
000190 c7 9f 33 bd 9f 02 da 3d 81 b7 8e bd ba 49 24 bd
       -0.043853547 0.10645031 -0.06968594 -0.040109374
0001a0 68 19 57 3d 7f 1d 60 3e 1b 64 80 3d 69 19 94 bd
       0.052514464 0.21886252 0.062690936 -0.07231409
0001b0 9c cb c0 bd 7f 8a 35 3d 70 3b f5 bd 83 6f 82 3d
       -0.094138354 0.044321533 -0.119742274 0.063689254
0001c0 8e ea 54 be 0a 21 77 bd 64 51 ad 3c 3b d9 b0 bd
       -0.207926 -0.060334243 0.021156974 -0.086351834
0001d0 1a b2 a8 bd 03 6c 1e be 62 36 de bc 16 04 65 be
       -0.08237095 -0.1547089 -0.027125541 -0.2236484
0001e0 e8 ef 24 bd a5 3c 61 bc 9b 90 ff 3d 54 f7 82 3d
       -0.040267855 -0.013747369 0.12478753 0.0639483
0001f0 bd cd be bc 89 31 0f 3d 60 d7 ac bd 60 f0 9d bd
       -0.023291463 0.03495935 -0.08439517 -0.077118635
000200 70 5a 3f bd f6 aa d8 3d ea bd fd bd 9b 8c 71 be
       -0.046717107 0.10579483 -0.12389739 -0.23588793
000210 7e d4 b0 bc 6b 42 13 3e 1c fd f5 bd fa f5 b9 3d
       -0.0215857 0.14380805 -0.120111674 0.090801194
000220 9c 27 21 3d d6 92 72 bd 7c 20 f5 bb 20 2c 93 3c
       0.039344415 -0.059222065 -0.007480679 0.017965376
000230 df a1 62 3c 10 80 36 be d0 53 f4 bd b3 76 97 3d
       0.013832538 -0.1782229 -0.119300485 0.07395687
000240 52 9a 87 3e 34 f0 cf 3d f1 7c 18 3e d2 3e 66 3d
       0.26484925 0.10153237 0.14891411 0.056212254
000250 62 e0 9d 3d de 05 29 3e a7 19 e4 bc f0 f9 f3 bd
       0.07708813 0.16506144 -0.027844263 -0.11912906
000260 f0 f8 22 3e c1 59 25 3d da 48 56 bd 02 7a 25 be
       0.15915275 0.0403688 -0.05231557 -0.16159824
000270 ad 07 68 bd f8 06 ff 3d f7 56 18 bd 25 ee 90 3d
       -0.056647945 0.12452501 -0.03719231 0.070766725
000280 ed 9c 8b bc 35 54 8d bd 00 6e c1 bd 9d c9 00 be
       -0.017042601 -0.06900827 -0.09444809 -0.1257691
000290 20 c7 1f bd f3 9c 0c bd 5f 30 6b bd 93 19 45 be
       -0.03900826 -0.034329366 -0.057419177 -0.19248037
0002a0 e4 19 2e be 3d 3e 0a 3e 39 24 ae 3d 0a 82 b0 bc
       -0.17002064 0.13500305 0.08503003 -0.021546382
0002b0 3a 14 4d bd a6 30 f2 bc fd e5 07 3e 37 4c 15 be
       -0.050068118 -0.029564213 0.13271327 -0.14579855
0002c0 bb d5 a6 3c 4d c4 03 3e 1e f2 9c bd 5a d0 e8 3a
       0.020365587 0.12867852 -0.07663368 0.0017762289
0002d0 13 26 bf 3c b8 54 d4 bc 7b 63 c2 bd 6d e5 b4 3d
       0.023333585 -0.025919303 -0.09491631 0.08832822
0002e0 5d 07 59 bd b9 b7 f6 bc 31 56 52 3d 8b 9d 3a 3d
       -0.052985538 -0.030116903 0.05135173 0.0455604
0002f0 34 b9 31 3d 09 f5 69 bd ff 18 81 3d f4 91 b1 3b
       0.043389514 -0.05711845 0.06303596 0.0054190103
000300 28 96 8f 3d 79 9c 29 3d e5 33 65 3d 20 1b b6 bc
       0.07011062 0.04140899 0.055957694 -0.022229731
000310 b3 4f 30 bc df e1 30 3d d2 ac fa 3c 87 98 48 ba
       -0.010761189 0.043184157 0.030599985 -0.0007652123
000320 21 37 7f 3d 6b 53 7e 3d 23 4d 30 3b 5d 72 10 be
       0.062308434 0.062091272 0.0026901446 -0.14106126
000330 cd 64 3e 3d 8d 15 3e bd 20 8d 86 3c e0 c4 a4 3d
       0.04648285 -0.04640727 0.016424716 0.080453634
000340 23 b3 fd 3b e7 9c c3 bb f7 80 e7 3c d8 85 2d 3d
       0.007742302 -0.005969632 0.028259737 0.04236397
000350 9f 2d 6a b8 51 a8 12 ba 5b 3a 0f 3e 2a e6 8f 3d
       -5.5832435e-05 -0.0005594539 0.13987105 0.07026322
000360 3b c9 db bd f3 c3 a4 3d 32 db 4d bc 8e 7f 87 bc
       -0.10731741 0.08045187 -0.012564467 -0.016540315
000370 6e 79 ac 3c 17 e7 51 3d b3 b6 f3 bd b6 27 e5 bb
       0.021053996 0.051245775 -0.119000815 -0.0069932593
000380 59 0c c0 3b 50 a3 ad bd 3f 70 a1 3d 9b 15 45 bd
       0.005860847 -0.08478415 0.07882737 -0.048116308
000390 de bc b7 bd e4 67 2e 3e 17 64 e3 3b 36 de 3b bd
       -0.089715704 0.17031819 0.006939422 -0.045866214
0003a0 b4 26 8a bc c8 cb 1f 3d eb e4 e9 3d 90 58 6d bd
       -0.016864158 0.0390127 0.11420616 -0.057945788
0003b0 4a 7d 58 bc 93 b9 89 3d a8 51 57 bd 1c 9f 1b bc
       -0.013213465 0.067248486 -0.052568108 -0.009498384
0003c0 ee 13 51 be 16 20 98 bd 72 cf d9 3c 7e c9 41 3c
       -0.20417759 -0.07427995 0.026588175 0.011827825
0003d0 d0 4e cf bd f0 bf 37 be a2 de 3e bd 18 8a 73 bd
       -0.10122454 -0.17944312 -0.046599038 -0.05945787
0003e0 2c ba 0a 3d 1b d1 de bd 36 c9 83 3d 07 80 f1 3d
       0.033868954 -0.108797275 0.06434862 0.117919974
0003f0 3c 53 bb bc a9 c2 8e 3d 12 fe 7b bd ce 9f e2 3c
       -0.022866838 0.06970722 -0.061521597 0.027664091

arith.constant6 f4 [128]
000000 f2 b8 5b 40 48 bd da 3d 70 72 84 40 d3 8d 8b 40
       3.4331632 0.10680634 4.1389694 4.3610625
000010 c9 62 93 40 0d c6 b9 40 ea 51 f3 40 41 56 26 40
       4.6058087 5.805426 7.6037493 2.5990145
000020 54 53 4f c0 13 67 fb bf 15 ee ad 3f c0 77 93 40
       -3.239461 -1.9640831 1.3588282 4.608368
000030 00 d3 96 c0 95 42 9c bf 70 54 aa 40 32 54 6a 40
       -4.713257 -1.2207819 5.3228073 3.6613889
000040 27 78 ca 3f 86 39 7b 40 99 e9 ed 40 dc e5 82 40
       1.5817918 3.925386 7.4347653 4.090559
000050 ab 57 3e c0 b6 65 8f 40 4c 8e 3a 40 ea 13 17 40
       -2.9741008 4.481166 2.914935 2.3605905
000060 3a 65 88 40 52 6e de 40 16 88 9f 3e 7c 12 ac 40
       4.2623568 6.950967 0.31158513 5.3772564
000070 b6 07 c7 40 65 c9 cf bd bd 87 7e bf 94 2c cb 40
       6.2196913 -0.10145835 -0.9942587 6.3491917
000080 83 31 af be fb a0 62 40 0a a4 39 3f 0b a9 08 bf
       -0.34217462 3.5410755 0.7251593 -0.5338294
000090 f4 58 96 3f 9f 96 bb 3f 87 bb 6a 40 02 18 8e c0
       1.1745896 1.4655341 3.6676958 -4.4404306
0000a0 3d 4e c3 3f b3 92 01 c0 0f c9 37 be 8e ab 22 3f
       1.5258251 -2.0245788 -0.17947792 0.6354302
0000b0 70 87 16 41 10 74 a8 40 b6 cd f5 40 8c 5b 5a 40
       9.408066 5.264168 7.681361 3.4118376
0000c0 00 f9 64 bf e6 a9 18 c0 0c ec bd 3f d2 a6 15 40
       -0.89442444 -2.3853698 1.4837661 2.338307
0000d0 6e b7 7c 3d 82 8d fe 40 a3 f4 47 40 01 3a ad 40
       0.06169837 7.954774 3.1243064 5.4133306
0000e0 1b 25 2e 40 9c 40 b2 c0 54 3d 59 40 eb f7 ec 3f
       2.7210147 -5.570387 3.3943682 1.8513159
0000f0 77 ce a2 40 17 63 6a 3f 2c ab 42 40 39 67 f5 bf
       5.087703 0.9155745 3.0416975 -1.9172126
000100 82 42 f9 40 eb 20 a1 3f 6a 02 49 3f 07 e3 c4 3f
       7.7893686 1.2588171 0.7851931 1.5381783
000110 5e 65 23 40 4f ba 47 40 bf c4 26 c0 cf f1 4a 40
       2.553062 3.1207464 -2.6057584 3.1710088
000120 03 1f c8 40 23 0f a7 40 4e 72 a3 40 36 57 2f 41
       6.2537856 5.2205977 5.107703 10.958792
000130 67 7e 6f 40 df dd 99 c0 31 74 e6 3f bc 72 e4 40
       3.74209 -4.808334 1.8004209 7.1390057
000140 f7 2b cc 40 7c c3 fc 40 c5 39 5a 3f 75 73 9f 40
       6.380367 7.898863 0.852444 4.982844
000150 12 00 ab bf 58 75 1b bf 09 a1 1c 3f 63 5e da 40
       -1.3359396 -0.6072593 0.6118322 6.824022
000160 fc 46 eb bf 6f f0 50 40 16 ce 49 40 ee c1 82 40
       -1.8381038 3.264675 3.1532035 4.086173
000170 75 b2 25 40 cc 40 2a c0 74 3e d2 40 58 73 a7 3f
       2.5890172 -2.660205 6.5701237 1.3082075
000180 55 ca 24 c0 67 f7 83 40 83 3a 97 40 c3 ad 09 40
       -2.5748494 4.1239505 4.7258925 2.1512306
000190 57 a9 00 41 b1 45 89 bf 44 e5 bb bf 85 4b 8e 40
       8.041343 -1.0724393 -1.4679341 4.4467187
0001a0 a1 da 5a c0 5b 9d 93 bf 3d b9 f6 40 3f 95 a7 40
       -3.419594 -1.1532396 7.710112 5.2369685
0001b0 0b a5 ca 40 35 1c 34 40 88 0c bb 40 d2 49 32 c0
       6.332647 2.8142216 5.8452797 -2.7857556
0001c0 67 e4 be 40 b2 5e 08 41 78 4a ef 40 96 68 11 41
       5.965381 8.523119 7.4778404 9.088034
0001d0 71 09 be 40 8b c8 57 40 f0 1b 6b 40 12 93 72 bd
       5.9386525 3.3716152 3.6735802 -0.05922229
0001e0 67 a0 9f 40 db e7 84 40 0a ed 97 3f 47 f8 db be
       4.9883304 4.1533027 1.1869214 -0.42962858
0001f0 82 6f b5 40 db 0c 92 40 b5 7d d3 c0 54 e4 63 40
       5.669862 4.5640693 -6.609095 3.560811

arith.constant7 f4 [32, 3, 3, 32]
000000 61 bc 66 3e c7 6a 56 be 23 04 37 3d 9f 25 a0 3d
       0.22532798 -0.2093917 0.04468168 0.07819676
000010 a7 3f 0c 3d 7a 78 71 3d a7 1f 3b be 6e 5b dd 3b
       0.03424039 0.058952786 -0.18273793 0.006755284
000020 77 6d ea bd fc 40 91 bd 16 0a 05 3e aa 8a 88 bd
       -0.1144666 -0.07092473 0.12992129 -0.06667073
000030 28 50 8c bb 16 3e 7e be 8a ce 8e bd b1 13 b5 be
       -0.0042820163 -0.24828371 -0.06972988 -0.35366586
000040 57 15 39 3d a8 9c f9 bd 9a b9 75 bd 8c cf 4a bd
       0.045186367 -0.12188083 -0.059991457 -0.04951434
000050 58 43 e7 bd 43 69 2a bd dc a2 1a bc c1 1d 05 be
       -0.11292142 -0.04160429 -0.009438243 -0.12999631
000060 a1 da 63 bc 17 fa ba 3e fa c3 10 3d 8e ea 0f be
       -0.013907106 0.36518928 0.035343148 -0.1405432
000070 b3 66 a9 be 8e 86 ea bb 89 e1 07 be 1c 5e f5 bd
       -0.33086166 -0.0071571534 -0.13269629 -0.119808406
000080 99 58 51 be f5 ef 7e bd ed 8c 5b be 81 79 1a 3d
       -0.20443954 -0.06224056 -0.21440478 0.03771353
000090 44 8a f5 bd 73 d4 80 bc 6e 13 14 3c 48 71 0e 3d
       -0.11989263 -0.015726304 0.0090378355 0.034776002
0000a0 e3 71 98 3e 7f 31 d5 bd c8 6b 41 be 9c c1 9c 3d
       0.2977439 -0.10409831 -0.18888772 0.076541156
0000b0 b0 74 ac 3c b7 f5 c9 3d 12 c8 3e 3d b8 2c 47 be
       0.021051735 0.098613195 0.04657752 -0.19450653
0000c0 06 c8 53 3e 6e 76 de 3d 6d f2 0d be ce dc d6 3d
       0.20681772 0.108624324 -0.1386201 0.10491334
0000d0 70 7a f3 3d ca bd b4 3d 15 5e 9d 3e d8 88 09 be
       0.118885875 0.08825262 0.3073584 -0.13431108
0000e0 fa b8 55 3e 79 24 e2 bd 2d 7b a7 be d5 a9 f3 3b
       0.20871344 -0.11042113 -0.32711163 0.007436017
0000f0 54 79 ed bd f1 b6 a9 3e 8f 11 21 be 34 7c dc 3c
       -0.11595407 0.33147386 -0.15729354 0.026914693
000100 20 42 22 bd de 83 49 3d be 4c 8a bd 57 22 58 bb
       -0.039613843 0.049198024 -0.06752919 -0.0032979453
000110 df 05 47 be 1d 3c 1e 3d 26 7f 54 be 1a 2a 5a be
       -0.19435833 0.038631547 -0.20751628 -0.21305123
000120 85 e4 b4 3d 5b bc f6 3d 78 33 e0 bd 3c 82 85 bd
       0.08832649 0.12047645 -0.10947317 -0.06518981
000130 47 38 f4 3d 38 cb 15 bc 30 30 4a bd d4 0c a8 bd
       0.119247966 -0.009142689 -0.04936236 -0.08205572
000140 d8 ba 6e 3b 40 03 1c be 6c 28 2d 39 ab ab 57 3d
       0.0036427286 -0.15235615 0.00016513624 0.05265395
000150 01 92 29 bd 41 91 19 3d b8 6c 42 3e 6e be 4a be
       -0.041399006 0.03749204 0.18986785 -0.19799206
000160 26 db 5f 3e 49 91 1b be 2e da c7 bd 18 ad a0 bd
       0.21860942 -0.1519214 -0.09758411 -0.07845515
000170 38 64 86 be 3e ba 57 3e d0 f4 da bd 1e 0e 39 3e
       -0.26248336 0.2106714 -0.106912255 0.18071792
000180 fe 72 8a 3d 6c 2a 50 3e d0 16 8f 3c f8 30 10 be
       0.06760214 0.20328683 0.017466933 -0.1408118
000190 ef e6 2e 3e 47 2a a4 3e 84 09 67 3e 37 e5 d0 3d
       0.17080282 0.32063505 0.22562224 0.10199969
0001a0 97 c6 8b 3e 31 32 ef bc 2d 4c e6 3b d1 3b 05 bd
       0.2729995 -0.029198738 0.007028124 -0.03252775
0001b0 3a c1 47 bb 7b 1f 8d be 6c 22 9d 3e 02 de 8f 3e
       -0.0030480162 -0.2756308 0.30690324 0.28099066
0001c0 26 67 09 be 9a a6 4e be 96 ea e2 bd bc ca 61 be
       -0.13418254 -0.20180741 -0.110799 -0.22049993
0001d0 40 17 9a bc 3d 8e 4f 3e 92 e8 97 be 78 10 4d 3e
       -0.018809915 0.20269103 -0.29669625 0.20025814
0001e0 90 9c cf 38 73 a5 6e 3e d7 b1 7e 3e fa e3 c9 3d
       9.899691e-05 0.23305301 0.24872528 0.09857936
0001f0 0b 57 80 bd 1f fc 31 be 06 8c 11 3e d6 61 eb 3d
       -0.06266602 -0.17381333 0.14213571 0.1149327
000200 07 37 a8 bd 72 da bf 3c 23 a0 05 3c c9 36 8c be
       -0.08213621 0.023419593 0.008155855 -0.27385548
000210 14 6a 89 bd d1 2d e0 3d 64 4d a6 3d d6 5b d6 3c
       -0.06709686 0.10946239 0.0812023 0.026166838
000220 4e 43 57 bc 14 a8 87 3d 54 4e 5f ba 8c 4f 24 3c
       -0.013138605 0.06623855 -0.00085184467 0.010028731
000230 4d 88 b0 3e 65 fe 73 3d 04 a9 1f 3e 25 0f 3f 3e
       0.3447899 0.05956878 0.15591818 0.18658121
000240 4b bf 92 3e a6 19 66 be 22 c2 8f bd 3e 48 56 3d
       0.2866157 -0.22470722 -0.0701945 0.05231499
000250 cf 44 8e bd 0c ac 1a 3e 5d 98 ce bd 0a 00 5c bc
       -0.06946718 0.15104693 -0.10087655 -0.013427744
000260 d8 d6 1a bd 81 bd 5b be f5 9d 53 3d 23 9a c3 3d
       -0.037802547 -0.21459009 0.05166431 0.095508836
000270 f4 73 26 3e 2e 6c c3 bd c9 d5 c0 bd a9 90 7b be
       0.1625517 -0.09542118 -0.09415776 -0.24566902
000280 86 d7 dc 3d 94 7b 15 bd d6 8c 27 be 3b fd a7 be
       0.10783295 -0.036494806 -0.16362318 -0.32810387
000290 2a 75 2c bc 2b 12 b7 3d 28 05 7c 3d 9d d0 ed 3d
       -0.010525981 0.08939012 0.061528355 0.116120555
0002a0 61 61 f3 3d e6 7d 7c be f2 dc ee bd be aa d1 3b
       0.11883808 -0.24657401 -0.11663236 0.006398528
0002b0 e4 f5 5c 3d c6 47 3f 3e 33 04 d1 bd 7b 38 34 3e
       0.053945437 0.18679723 -0.10205879 0.1759967
0002c0 3c a7 96 3d 32 02 35 be 8d 4a 88 bd 87 43 36 bd
       0.07356116 -0.17676619 -0.066548444 -0.044497993
0002d0 f8 b7 eb bd fd 7b 03 be ff f5 19 be 21 2b b6 3a
       -0.11509699 -0.12840267 -0.15035246 0.0013898351
0002e0 96 84 80 bd 38 66 81 be b7 71 45 3e 88 41 da bd
       -0.06275289 -0.252733 0.1928166 -0.1065703
0002f0 1b 3e fb bd cd e2 24 bc e7 ee a7 3e fd ee 6f be
       -0.12267705 -0.010063839 0.32799456 -0.2343101
000300 7d 70 05 bc 7f fa ea 3c 6b bc c6 bd cc bb 1c 3e
       -0.008144495 0.028683899 -0.097039066 0.15306014
000310 33 8c 31 be 3f f5 09 3d 0d 32 4f be 6f f9 96 3d
       -0.17338638 0.03368115 -0.20233937 0.073717944
000320 7a e8 8a 3c 99 1c fa bd a2 2d 3b bd 0f b5 fb 3c
       0.016956557 -0.12212486 -0.045697816 0.030725984
000330 0e 4e b6 bc 86 da 87 be cf 48 0a 3e 5e 5a f4 3c
       -0.022254016 -0.26533908 0.13504337 0.029828247
000340 2a df 60 be ce 54 0e 3e cd a8 04 3e 66 27 83 3d
       -0.2196013 0.13899538 0.12955017 0.06403999
000350 4a 39 64 bc 21 d3 b9 bd 3c cc 21 3d 76 10 0a be
       -0.013929674 -0.09073473 0.039501414 -0.13482842
000360 ce c2 10 3e f9 37 23 3d 75 4e 54 3c 69 5a ba 3d
       0.14136812 0.0398483 0.012958159 0.090992756
000370 f3 0b d2 3c 6e 29 1e be 87 d9 b0 3c d2 66 9c 3e
       0.025640463 -0.15445492 0.0215881 0.30547196
000380 3b 8a ee 3d bc 16 84 bd 6a ed 2f 3e 7e 67 b3 bd
       0.11647459 -0.06449649 0.1718041 -0.08759974
000390 35 c1 80 bd f5 3f a4 bd bd 9c 35 be 20 39 bf bd
       -0.06286851 -0.08020011 -0.17735572 -0.093370676
0003a0 38 9b b8 3d 52 60 b1 3c fc 69 c3 bd 47 77 3b bc
       0.090139806 0.021652374 -0.09541699 -0.011442012
0003b0 b0 be ac bc 98 97 e8 3a 0d fd 03 3d 43 a2 46 3d
       -0.02108702 0.0017745374 0.03222375 0.04849459
0003c0 4f 31 31 be ab 98 46 3d 2a c6 8e 3d 71 24 3d be
       -0.17303966 0.04848544 0.069713905 -0.18470933
0003d0 f7 09 83 3d c9 cd 21 3c 61 8b 02 3d 69 22 5b bd
       0.06398385 0.009875723 0.031871203 -0.053499613
0003e0 4d 37 7d bd be 62 66 3d b0 c2 28 bc ff 2b af 3d
       -0.061820317 0.05624651 -0.010300323 0.085533135
0003f0 40 c2 9a 3d 1c eb c5 3c 76 88 a7 3d 44 cb f8 3d
       0.075565815 0.02415996 0.08180325 0.12148145

arith.constant8 f4 [32, 5, 5, 32]
000000 a7 31 16 3e 44 2e 5f bd 8c 3d e5 3c c4 d1 22 be
       0.14667378 -0.05448748 0.02798345 -0.15900332
000010 e1 67 05 3e 70 e3 75 3e 09 d0 47 3d ad a9 0e bd
       0.13027908 0.24012542 0.048782382 -0.034829784
000020 d2 4a 15 3e 85 0a 94 bc 11 bc 6e be 0a d8 21 3d
       0.14579323 -0.018071422 -0.23313929 0.03951267
000030 c1 f6 58 3e fc 1f ad bd c0 52 6f 3e 74 13 48 3e
       0.21187879 -0.08453366 0.2337141 0.19538671
000040 e8 15 8c 3a 70 c5 a1 bd 0e db db bd c2 c8 72 be
       0.0010687681 -0.07898986 -0.10735141 -0.23709396
000050 2e ea 6d 3e 3e 70 ed 3c 1f 7f ba 3b 4c d2 bc bd
       0.23233864 0.028984185 0.0056914235 -0.092197984
000060 26 c4 e4 bd 03 8e 7a bc fa 90 57 be b5 9a 30 be
       -0.11170225 -0.015292647 -0.21051398 -0.17246516
000070 27 9e 2a be 17 04 86 3e 15 1f 0e 3d 25 3f 12 3e
       -0.16661893 0.26174995 0.03469761 0.142819
000080 e4 4e a8 bc 26 7d 37 3e 7b e5 ca bd ed a6 51 be
       -0.02054543 0.17918834 -0.09907051 -0.20473833
000090 80 6b 23 3d 82 b5 16 3e 2b 43 34 3e 81 73 48 bc
       0.039897442 0.14717677 0.17603748 -0.0122345695
0000a0 ae dd 99 3e 27 32 95 be 8a c4 31 3b 91 ed 9b bd
       0.3005194 -0.29139826 0.0027125203 -0.076136716
0000b0 ee 7d 5c be 2a 65 37 3d 4f 01 9a 3b 85 14 b2 bc
       -0.21532413 0.044774212 0.004699863 -0.0217383
0000c0 d4 b3 9b 3d b2 52 e6 bd 78 c9 3c 3d 06 3a ce 3d
       0.07602659 -0.11246242 0.046090573 0.10069661
0000d0 4a 7d 38 3d 71 be 3d bd b8 8d 44 be 22 40 9d 3c
       0.04504136 -0.046324197 -0.19194686 0.01919562
0000e0 18 d9 3c 3e 5d 9f 26 be a3 83 4f 3d 45 4e 35 be
       0.1844219 -0.1627173 0.050662648 -0.17705639
0000f0 3d b2 86 bd 8f a5 23 3e b1 9a 10 bd 79 10 b2 3d
       -0.06576965 0.15981124 -0.035303775 0.08694548
000100 d2 10 85 bd 36 28 16 3e b5 be d8 bd 5c e6 c7 bb
       -0.06497349 0.14663777 -0.105832495 -0.006100459
000110 1f 52 21 be 87 15 a6 bb 06 b2 34 3e fb 46 f1 bd
       -0.15753983 -0.005068484 0.17646036 -0.117811166
000120 73 b9 b5 3d d0 f7 f9 bd 85 f3 1d 3e e6 71 15 3e
       0.08873262 -0.122054696 0.15424927 0.1459423
000130 2f d1 d7 bd 42 bf 7d 3e 67 da cc bc 8d 4d 19 be
       -0.105379455 0.2477999 -0.025006486 -0.1497099
000140 46 53 8e bd c2 75 92 ba 93 c0 ef 3d 09 66 06 3e
       -0.06949477 -0.001117401 0.117066525 0.13124861
000150 34 2a 04 be a2 20 54 be 20 65 92 bd 2d 87 57 3d
       -0.12906724 -0.20715573 -0.07148194 0.052619148
000160 ec 61 e0 bd dd 73 ba bd d6 15 52 3e 90 57 e1 bd
       -0.10956177 -0.091041304 0.20516142 -0.11003029
000170 df 68 df 3d 59 56 e8 3d df 77 32 be 28 83 1b bc
       0.109086744 0.113445945 -0.1742854 -0.009491719
000180 5f a2 fe bd c7 31 5e 3e ca e4 95 3e 8b 4d 93 3e
       -0.124333136 0.21698676 0.29276115 0.28770098
000190 d9 2b 84 bd 43 17 75 be f5 48 1c 3d 0e 87 6f 3e
       -0.06453676 -0.23934655 0.038155515 0.23391363
0001a0 01 40 d5 bd e9 3c fa 3b 34 be 96 3e 66 39 2b 3e
       -0.104125984 0.0076366556 0.29441988 0.16721115
0001b0 09 ef 2e 3c a2 59 7e 3e d2 98 64 3d 6c bd d1 bd
       0.010677108 0.2483888 0.055809803 -0.102412075
0001c0 63 01 1f bd f5 52 00 3d a5 1d 4c 3d 2e 7a 00 3e
       -0.03881968 0.031329114 0.04983296 0.12546608
0001d0 64 7d 29 3c be 09 12 be a4 f6 ee bc 93 4b a4 bc
       0.010344837 -0.14261529 -0.029170342 -0.020055568
0001e0 b9 bc 20 bd 3a b9 82 bc a1 15 05 be 33 80 8f bc
       -0.03924248 -0.015957464 -0.12996532 -0.017517185
0001f0 21 b2 8c 3c d4 77 3f bc 7a 84 79 be d7 c7 7a bd
       0.017174782 -0.011686284 -0.24366942 -0.06122574
000200 7d c8 1f bd b5 74 b1 bd 6c 64 c7 bd 5e dd 8d bd
       -0.03900956 -0.08664838 -0.09735951 -0.06926988
000210 e8 b5 64 3e 27 36 26 3e 43 3b 21 bd a1 c2 27 3e
       0.22335017 0.16231595 -0.039363157 0.16382839
000220 39 78 21 bd 4c 56 cc 3c ed ea 83 3d 80 70 ee 3d
       -0.039421294 0.024943493 0.06441293 0.116425514
000230 b3 e4 d4 3a 1c 77 8b 3d 1a b7 5b 3e 42 d4 bf bd
       0.0016242474 0.06809828 0.21456566 -0.09366657
000240 29 0d a4 bd e8 63 e5 3d 14 aa 9a 3d ee 63 1b be
       -0.080103226 0.11200696 0.07551971 -0.15174839
000250 7f 1f ad bd 33 e2 0d bd c0 3e 88 3d 6c c9 d6 bd
       -0.08453273 -0.03463955 0.066525936 -0.10487637
000260 ca aa 83 3d 95 15 fd 3d 64 95 f9 bd 1b cf ee 3d
       0.0642906 0.12357632 -0.12186697 0.11660596
000270 49 e6 96 3d 6f db 32 3c 9e c0 a6 3c 1c 58 27 be
       0.07368142 0.010916575 0.020355519 -0.16342205
000280 61 a0 df 3d 22 10 86 be bd d2 6a 3d fc 21 97 3d
       0.10919262 -0.26184183 0.057329882 0.07379529
000290 9a a8 89 3d af 4b 62 be 66 00 77 be 25 6e 1b be
       0.06721611 -0.22099183 -0.24121246 -0.15178736
0002a0 01 c2 8d 3d a3 f2 86 bd e5 dd 89 be 2b 16 87 bd
       0.06921769 -0.06589248 -0.26927105 -0.06596025
0002b0 5c 09 d6 3a 27 4b 94 be 06 c4 00 3e 0c ab 98 3d
       0.0016329694 -0.28963587 0.12574777 0.074544996
0002c0 62 1e c1 3b a0 8b 97 bd 93 a8 15 be 3d 44 d7 be
       0.0058935145 -0.07399678 -0.14615087 -0.4204425
0002d0 49 8a a8 3d 41 87 6e 3e 03 08 53 3d 5d 03 21 be
       0.08229501 0.23293783 0.051521312 -0.15723939
0002e0 69 b9 b8 bd 4c 16 b0 3d f5 81 76 be 8a 8b 16 be
       -0.09019739 0.08598003 -0.24073012 -0.14701667
0002f0 58 4a 3a bd de 40 4a bd 5f 0a 2f 3e 64 69 22 be
       -0.045481056 -0.04937827 0.170938 -0.15860516
000300 90 53 e1 bd 4a 02 e0 bd b1 69 08 be 20 ef 6d be
       -0.110022664 -0.109379366 -0.13321568 -0.2323575
000310 c8 78 55 3d bc ff d9 bd 85 08 3d be 67 74 b1 3c
       0.05211714 -0.106444806 -0.18460281 0.02166195
000320 25 bd 92 bd d8 1f 1c be b0 3e 44 3d aa 5f 9e bd
       -0.07164983 -0.15246522 0.047911346 -0.0773309
000330 3a 0f 10 be c9 84 d9 bc da f3 62 3c 38 0f 9d bb
       -0.14068308 -0.026552575 0.013852084 -0.004793074
000340 e5 1c 82 bc c0 47 33 3d 9e f8 81 3d 8e 0f 2e be
       -0.015882919 0.043769598 0.06346248 -0.16998121
000350 89 6b d6 3d c1 8a 62 be 2f ee 2a be 4a d3 16 be
       0.104697295 -0.22123243 -0.16692422 -0.14729038
000360 da 25 58 3e f3 52 38 3d 15 fd c5 be 97 e5 69 be
       0.21108189 0.04500098 -0.3866965 -0.22841488
000370 f0 bd 83 3d c7 5d 88 bb 9e 62 46 be 61 53 9b bd
       0.06432712 -0.0041615698 -0.19373557 -0.07584263
000380 25 51 8c 3c cb e6 1c be 8c 51 b2 bd af 2b 19 be
       0.017128536 -0.15322416 -0.0870696 -0.1495807
000390 41 31 87 3d f5 06 f5 bd fe 46 6b be fb 96 b9 3c
       0.06601191 -0.119642176 -0.229763 0.022655
0003a0 e7 30 b2 3c 1f b1 39 be 7f 9a 4a 3d f4 77 14 be
       0.021751834 -0.18133973 0.049463745 -0.14498883
0003b0 57 c5 1d be 49 9b 81 3b 3f 05 1e 3d d3 43 05 be
       -0.1540731 0.003955279 0.03857922 -0.13014154
0003c0 99 23 84 bd eb e2 00 3e a7 74 2b 3e b0 80 23 be
       -0.06452102 0.12586562 0.16743718 -0.15967059
0003d0 69 43 b9 bd af e4 83 be 39 ee 02 be 6d ab 8f be
       -0.090460606 -0.2576041 -0.12786187 -0.28060475
0003e0 ed 97 69 3d 56 fc f9 3d 71 97 2c be f4 96 02 3e
       0.057029653 0.122063324 -0.16854645 0.12752897
0003f0 61 0b 8a bd ce a5 da bd f6 66 e5 3d 65 03 8e bd
       -0.067404516 -0.10676156 0.11201279 -0.06934241

arith.constant9 f4 [32, 5, 5, 3]
000000 3f e7 49 3d 9d 54 27 3e 94 43 4c 3e 13 37 1f 3d
       0.0492928 0.16340871 0.19947654 0.038870882
000010 5e 85 1a 3e aa 3a 80 3d dd f7 dd bd bf 95 e8 3c
       0.15089938 0.06261189 -0.10838292 0.028391717
000020 d6 b6 56 bd e6 ad 6c 3d 9f 6e 94 3d 63 96 e3 bd
       -0.05242046 0.05778303 0.07247662 -0.11112668
000030 44 4a 54 3e da ed a8 3c 3b 79 d5 bd 53 ae f1 3b
       0.20731455 0.020621229 -0.104235135 0.0073755174
000040 5e 77 9a 3d 1f 1a 41 3e fe 6c 6e bd 69 b2 1c 3e
       0.07542299 0.1885762 -0.05820941 0.15302433
000050 30 7b 5f 3e 09 f1 be bd de 1f 76 3d b6 a7 9b bc
       0.21824336 -0.093233176 0.060088985 -0.01900087
000060 bc 72 85 bd cd 95 be 3d 68 d9 25 bd aa ed 8d bc
       -0.065160245 0.09305916 -0.040490538 -0.017325241
000070 28 86 eb 3d 55 a9 bf bb 1e 67 36 be 74 f3 26 bd
       0.11500198 -0.0058490434 -0.17812774 -0.04075952
000080 3f bf bd bd 0f b6 ee bd b8 25 5a bd 99 ce 00 3e
       -0.09264993 -0.11655819 -0.053258628 0.12578811
000090 46 80 54 be f4 97 a3 3d e2 f9 0f 3e 68 9b c1 bd
       -0.20752057 0.07987967 0.14060166 -0.094534695
0000a0 8d 79 6c 3d 92 a4 56 3d b0 dd bc bd fb c9 27 3e
       0.057733107 0.05240304 -0.09221971 0.16385643
0000b0 77 80 fc 3d e5 d4 90 3d c7 8d 40 be fe a7 e7 bd
       0.1232919 0.070718564 -0.18804084 -0.11311339
0000c0 9e ba 7e bc db 49 92 bd 31 f7 08 bc d2 67 05 be
       -0.015547423 -0.07142993 -0.008359716 -0.13027886
0000d0 7a 6a 10 3d 73 f5 41 bd b9 51 a7 bd a2 b7 11 3e
       0.035257794 -0.04735322 -0.08169884 0.14230207
0000e0 a8 a7 47 3e 19 52 62 bd 5d 24 f0 3d ad de 4c 3e
       0.1949755 -0.055254076 0.11725686 0.20006819
0000f0 ae 17 13 bd f8 63 8c be cc b8 20 be af 2a ee bd
       -0.035911255 -0.2742002 -0.15695494 -0.11629235
000100 f3 2c 9e be 2a 65 0f be 62 40 15 be c6 b6 5f be
       -0.3089367 -0.14003435 -0.14575341 -0.21847066
000110 cd dc 27 be b6 77 91 bd 78 4b 51 3b 21 6b b3 3d
       -0.16392823 -0.07102911 0.0031935852 0.087606676
000120 d6 18 a3 3c f3 13 af 3d 6b 12 2a 3e d1 b1 6b 3e
       0.019909304 0.08548727 0.16608588 0.2301705
000130 95 99 47 be 49 33 ae bd f0 46 19 3e 7b a9 9c bd
       -0.1949218 -0.085058756 0.14968467 -0.07649513
000140 d4 5e 27 be 74 4e 3a 3e f4 6c 15 be 84 20 db bd
       -0.16344768 0.1819399 -0.14592344 -0.10699561
000150 48 57 56 3e d2 8e 1a be 3b d4 80 bd 28 7b 0b 3e
       0.20931733 -0.15093544 -0.0629048 0.13621199
000160 38 ba 28 be 7e 04 21 be 30 1a 31 3e bb 79 9a bd
       -0.16477287 -0.1572437 0.17295146 -0.075427495
000170 42 d0 08 bd fc 3b 10 3e 44 6e 64 3c 01 36 da bd
       -0.033401735 0.14085382 0.013942305 -0.10654832
000180 6a 6c 86 3d 67 b3 d1 bd d3 3b bc bd 6d 0a 0a 3e
       0.06563647 -0.102392964 -0.09191098 0.1348054
000190 eb e6 67 be 73 47 f6 bd e0 57 ef 3d fa f4 e1 bd
       -0.22646682 -0.120253466 0.11686683 -0.11033054
0001a0 ec 22 0b be 10 44 06 be 11 ed c8 3d 82 9f 17 bd
       -0.1358754 -0.13111901 0.09810842 -0.037017353
0001b0 48 45 96 bd 0a 24 1d 3d fc 9c 67 ba 95 fd 8d bd
       -0.07337433 0.038364448 -0.0008835343 -0.069331326
0001c0 6d 06 78 bd 0d 3d 81 bd f7 97 8a bd 12 e1 46 bd
       -0.060553003 -0.06310473 -0.06767266 -0.048554488
0001d0 75 f7 9f 3d 7c af 08 bd fa 85 be 3d 88 41 1a bc
       0.078108706 -0.03337048 0.09302898 -0.009415038
0001e0 35 05 47 be 24 2f 26 3e bb 11 f0 3c c0 4e d4 bd
       -0.1943558 0.1622892 0.02930533 -0.10366583
0001f0 9d 01 12 3e 20 c0 10 bd 9b 72 e8 bd 8b 9b 4c 3e
       0.14258428 -0.035339475 -0.11349984 0.1998121
000200 e5 d7 d2 3b 5f 14 2a be 5b 18 1f 3e 8b 75 d4 3d
       0.006434428 -0.16609333 0.15536635 0.10373982
000210 f6 e8 ac bd a0 3f 39 3e d7 9f f3 3c 9c 7b 3c be
       -0.08442871 0.18090677 0.029739304 -0.18406528
000220 25 75 45 3e 5d 59 cb 3d 3d d7 16 be c2 d0 f7 3d
       0.19282968 0.09929154 -0.14730544 0.12100364
000230 a4 71 1a 3e bd 5f 04 be 0a 05 09 3e 35 0b d2 3d
       0.15082413 -0.12927146 0.13380828 0.10256044
000240 20 29 3d be c5 26 40 3e ca b6 9f 3d 58 0d 33 be
       -0.18472719 0.1876479 0.07798536 -0.17485559
000250 cf bf e8 3d 93 0a af 3d f1 a4 7e 3e 57 98 40 be
       0.113647096 0.08546939 0.24867608 -0.18808113
000260 22 85 c7 bd ea 65 36 3e 68 96 41 be c4 06 26 be
       -0.0974219 0.17812315 -0.18905032 -0.16213518
000270 1c d7 d1 3c 69 cf dc bd 1c 25 a1 3b 6e 75 be bc
       0.025615267 -0.10781748 0.004917754 -0.023249354
000280 ea 15 0a 3d a4 64 ae 3c 71 52 93 bd b9 83 e1 3d
       0.033712305 0.021288224 -0.07193459 0.11011452
000290 fe e4 bc bc ca 18 6a 3e c4 52 0b be 93 19 2f be
       -0.02305841 0.22861019 -0.13605791 -0.170996
0002a0 6e e1 65 3d 89 15 21 be 52 66 38 bd 6f 09 a0 3c
       0.05612319 -0.15730871 -0.045019455 0.019535748
0002b0 e9 37 bc ba d2 57 15 bd fd 65 4c bc ff c0 c6 3d
       -0.0014359924 -0.036460705 -0.012475488 0.0970478
0002c0 df d7 8c 3d 1c ff ae bd 46 be 8f 3d 3f f5 4f 3d
       0.06877112 -0.08544752 0.07018714 0.050770994
0002d0 0c df 8b 3d b3 7b 56 be 30 f5 a2 be ef 83 c2 bc
       0.06829652 -0.20945625 -0.31827688 -0.023744551
0002e0 98 22 8e bd e1 ef 0c be d1 33 bc 3b a1 8e 06 3d
       -0.06940192 -0.13763382 0.0057434817 0.032850865
0002f0 62 73 21 3e 60 ad 1b be 04 cb d8 3d 99 49 1e 3e
       0.15766671 -0.15202856 0.10585597 0.15457763
000300 73 89 80 be 90 2e c7 3d ab 98 8d 3d 3a d1 96 3d
       -0.25104865 0.09725678 0.06913885 0.073641255
000310 b5 50 97 be a0 54 7a be 48 a1 e7 3c 14 4c c9 3c
       -0.29553762 -0.24446344 0.028275147 0.02457241
000320 3c 21 4e 3d bb 32 b0 bd 0a b8 c8 3d 9a ae 03 3e
       0.050324664 -0.08603426 0.09800728 0.12859574
000330 d3 18 57 be 2f 29 32 3e 2f 24 84 3d b2 8c d2 bd
       -0.21005563 0.17398523 0.06452214 -0.10280742
000340 2b b1 dc 3d a1 ec 68 3d 18 f8 ed bc f1 42 16 be
       0.107759796 0.056866292 -0.029048964 -0.14673974
000350 8a d8 8e bd 2b 6c 86 3c 23 77 38 3e 6e fd 69 3e
       -0.06974895 0.016409 0.18014197 0.22850582
000360 ba 45 38 be a7 b4 aa 3d 32 a9 19 3e 0d 61 ba bd
       -0.17995349 0.08335238 0.15005949 -0.09100542
000370 ff bf b8 3d 37 2d 24 3e 07 a9 b9 bd 22 7e 5a 3b
       0.09020995 0.16032873 -0.090654425 0.0033339341
000380 ab 1f 8b 3b be 61 53 3e 77 5f 7c bd 83 f8 15 bd
       0.0042457185 0.20642754 -0.06161448 -0.036613952
000390 be dc d0 3d 72 7d e7 bd a1 28 89 bd 6c 6d da 3d
       0.10198353 -0.11303224 -0.066972025 0.10665402
0003a0 fe 3a 99 bd 58 2d f9 bd 46 82 e3 bd 90 12 a6 bd
       -0.07481955 -0.12166852 -0.11108832 -0.08109009
0003b0 cd 7d 87 3d fe ba 09 be df d0 fc 3d 27 b0 2b 3e
       0.066157915 -0.13450238 0.123445265 0.16766416
0003c0 32 a7 5b 3e 5b 1d 31 be e7 f9 50 bd 12 23 62 3e
       0.21450499 -0.17296354 -0.051019575 0.22083691
0003d0 3d 01 e3 bd ad e1 9f bd 70 c0 51 3d 92 8d fa bc
       -0.110842206 -0.07806716 0.051208913 -0.030585084
0003e0 9a d3 c2 bd 81 83 d0 bd b5 bb 80 3d 78 7f 4b 3c
       -0.09513016 -0.101813324 0.06285802 0.012420528
0003f0 79 55 8a be 07 de ec 3d 4e 06 67 3e a8 66 4b 3e
       -0.27018335 0.11565786 0.22560999 0.19863379

arith.constant10 f4 [2, 64]
000000 e3 2b 61 be e8 c6 9d 3c 80 82 f8 3d cd 2f 2c 3d
       -0.21989398 0.019259885 0.12134266 0.042037774
000010 78 ba b3 bd 04 b5 fb bd 24 82 56 bd 63 d1 c9 3c
       -0.087758005 -0.12290385 -0.052370206 0.024635976
000020 8f cb b0 bd 25 71 2e 3d 32 78 5b 3d 1e 87 c1 3d
       -0.08632576 0.04258837 0.053581424 0.094496
000030 0e e5 22 3e 3b cd e6 bd eb 40 39 be f5 c9 11 bd
       0.1590769 -0.11269613 -0.1809117 -0.03559299
000040 71 82 86 bd c1 d9 0f be d7 35 64 bd ee af 0b 3e
       -0.065678485 -0.1404791 -0.05571541 0.1364133
000050 a4 34 65 bd 4d 56 47 bd a5 db da 3c c1 a3 22 3e
       -0.055958405 -0.048666287 0.026716063 0.1588278
000060 67 e1 2a bd 87 59 4c 3e 6f 35 d2 bd e7 be f1 bd
       -0.041718867 0.19956027 -0.10264098 -0.1180399
000070 80 a5 10 3d 43 b7 08 3d 81 ea cb 3d a8 3d 1d bc
       0.035314083 0.033377897 0.099568374 -0.0095972195
000080 2f fc f4 3d 4b 3d 59 bc 6e 71 3b 3d 4d fe 77 3d
       0.11962163 -0.013259242 0.04576247 0.060545254
000090 c5 1e ae bd d9 aa c9 3d cb 55 12 3e 6f 14 81 bd
       -0.085019626 0.0984704 0.1429054 -0.063027255
0000a0 28 44 12 3d 31 db e3 3c ea b6 2f 3e af 24 10 3e
       0.03570953 0.02781448 0.1715962 0.14076494
0000b0 e5 ea d3 bc 91 6d 08 bd 54 de ce bd d3 ed eb bd
       -0.025868842 -0.033307616 -0.101009995 -0.11519971
0000c0 45 d5 b7 3d 5f d5 5a bd 57 5d de 3d cd 08 e6 bd
       0.08976225 -0.053426143 0.10857647 -0.11232147
0000d0 d8 9c 1b be 5e a5 99 3d f4 38 e1 bd fe 53 8f be
       -0.1519655 0.075022444 -0.10997191 -0.27993768
0000e0 37 89 5e bc 28 ad 90 3d 1e 1b fe 3d f5 f7 8b 3d
       -0.013582519 0.07064277 0.12407516 0.068344034
0000f0 95 5f d0 bb 3e 6c fb 3c e9 17 1e 3d f0 84 44 3d
       -0.0063590505 0.030691262 0.03859702 0.04797834
000100 26 da 62 bd 6b ac 2d be 0f 18 d3 bd fe 74 f8 3c
       -0.055383824 -0.16960303 -0.10307323 0.030329224
000110 f9 9d 02 3e 57 15 8d bd 4c d2 a3 bd c5 3c 9c bd
       0.12755574 -0.06888836 -0.07999095 -0.07628778
000120 04 3a 8a bc 19 c0 90 bd 62 a3 60 bd cf 40 11 3e
       -0.016873367 -0.0706789 -0.054843314 0.14184879
000130 0d 7c b0 bb 0a f1 13 be 66 21 11 3d 69 fe 88 3d
       -0.0053858818 -0.14447418 0.03543224 0.0668915
000140 72 f7 75 ba 68 4d 5a bd cc a9 a1 3d f4 04 a6 bc
       -0.00093828805 -0.053296477 0.07893714 -0.020266034
000150 da 3f b6 3d 66 27 8f be 39 36 5f bd f2 e4 9f 3d
       0.088988975 -0.27959746 -0.05449507 0.0780734
000160 f5 10 30 3d c8 67 06 bd c6 fa 00 be 4e d6 20 3e
       0.04298492 -0.032813817 -0.12595662 0.15706751
000170 0e e0 33 3d 3b 63 5e 3d f2 ff 25 be aa de 76 bd
       0.043914847 0.054293852 -0.16210917 -0.060270943
000180 6b aa d5 3d 07 15 8c 3e 5c 65 26 be 75 14 5a bd
       0.10432895 0.27359793 -0.16249603 -0.053242166
000190 b9 e8 cc bd 88 c9 07 be 7b 53 0a 3e dc 2b 1c bd
       -0.10005326 -0.13260472 0.13508408 -0.038127765
0001a0 22 76 4e 3d 62 48 2b bd 13 7b d1 bd 66 d1 06 3e
       0.05040563 -0.041817077 -0.10228553 0.13165817
0001b0 e9 d2 fe bd 73 00 0b bd 4f 90 b4 bd fc b4 34 3d
       -0.12442572 -0.033935975 -0.08816587 0.044117913
0001c0 4f 53 86 3d 4e 7e 3e 3d 00 3d 6e b8 02 a2 8b 3d
       0.065588586 0.046507172 -5.6800433e-05 0.0681801
0001d0 d9 39 c0 3d ce a7 89 bd ce 90 ac bd cc 94 5b bc
       0.093860336 -0.06721459 -0.08426057 -0.013402175
0001e0 8e 4b 84 3d e8 c7 d6 3c 97 64 98 3c 5a 87 0e bb
       0.064597234 0.02621837 0.018602652 -0.0021748156
0001f0 07 7f 31 3e ba 16 86 bd b8 c2 2c bd 0e 4c 5c 3e
       0.17333613 -0.065473035 -0.042177886 0.21513388

arith.constant11 f4 [2]
000000 2f bc a2 bd 98 e4 80 bd
       -0.079460494 -0.06293601

functional_1/batch_normalization_1_2/batchnorm/mul f4 [32]
000000 35 a3 59 3f 98 53 bf 3f 52 a6 a1 3f 4d bd fc 3f
       0.8501466 1.4947386 1.2628882 1.974527
000010 de b2 2d 3f 2f f2 8b 3f 8b bc e3 3f 15 fb b2 3f
       0.67851055 1.0933284 1.7791914 1.3982874
000020 30 49 20 3f fa e6 14 40 6e 0c 0d 40 8a 83 b9 3e
       0.62611675 2.3265977 2.2038836 0.3623317
000030 67 db bb 3f 2c 70 6d 3f 18 36 d4 3e bd e4 10 40
       1.4676331 0.92749286 0.4144752 2.263961
000040 f4 ed 80 3f fd 8b db 3e a1 fc 25 3f db 06 81 3f
       1.0072618 0.4288024 0.64838606 1.0080217
000050 d9 08 97 3f 55 41 00 40 aa 51 0f 40 ab 15 69 3f
       1.1799575 2.0039876 2.2393594 0.9104869
000060 c6 29 84 3f 87 d6 67 3f a3 69 46 3f af 27 dd 3f
       1.0325248 0.9056172 0.7750494 1.7277735
000070 25 d1 3c 3f 8a 6c 3b 3f 16 74 be 3f 87 bf a8 3f
       0.7375663 0.7321249 1.4879177 1.318345

functional_1/batch_normalization_1_2/batchnorm/sub f4 [32]
000000 48 42 85 bf 8c bb 43 be 3e 77 8d bf 18 58 86 bf
       -1.0410852 -0.19114512 -1.1052015 -1.0495634
000010 5a ab 1c bf fe b4 d8 bf dc 46 be bf 1d f8 d4 bf
       -0.6119896 -1.6930234 -1.4865375 -1.6638218
000020 ca 89 19 3e 9b 52 71 bf a4 d2 8c bf 07 c1 4a be
       0.14993969 -0.9426667 -1.1001782 -0.19800197
000030 44 76 86 bf c1 e9 88 be 72 d7 f8 be 00 41 48 bd
       -1.0504842 -0.2674084 -0.48601872 -0.048890114
000040 b5 b0 bc be f2 0b 3e be 24 b6 7d be 50 70 ce 3c
       -0.36853567 -0.18559244 -0.24776512 0.02520004
000050 bc 32 8a bf 11 9b cc bf 39 9f 97 be 61 ce 68 bf
       -1.0796733 -1.5984823 -0.29613665 -0.9093991
000060 ce 46 29 bf 0c 2b 19 bf ea ab 68 bf 06 58 ea bf
       -0.66123664 -0.5983131 -0.9088732 -1.8308113
000070 5b 16 af 3e 30 a1 39 bf 2f ee 9b bf 6c 0f af bf
       0.34196743 -0.7251158 -1.2182063 -1.3676581

functional_1/batch_normalization_1/batchnorm/mul f4 [3]
000000 e4 51 8e 3c a8 88 a3 3c b7 14 54 3c
       0.017373033 0.019962624 0.012944392

functional_1/batch_normalization_1/batchnorm/sub f4 [3]
000000 76 bc 10 c0 2e 17 35 c0 50 3d a4 bf
       -2.2615027 -2.8295398 -1.2831211

functional_1/batch_normalization_2_1/batchnorm/mul f4 [32]
000000 5a 8e 99 3e 1c 5a a3 3e c5 ba 66 3e 03 12 9d 3e
       0.29991418 0.31904685 0.22532184 0.30677804
000010 20 f5 bc 3e 28 56 8d 3e c4 f1 45 3e e2 4b 68 3e
       0.36905766 0.27604795 0.19330508 0.22685197
000020 eb 21 75 3e e7 f0 80 3e 79 b5 57 3e 89 13 9b 3e
       0.2393872 0.25183794 0.2106532 0.30288342
000030 9d 64 91 3e 34 ae b5 3e 23 25 be 3e 2a 1f 64 3e
       0.28397074 0.3548447 0.37137708 0.22277513
000040 16 00 ac 3e 85 cd 87 3e bf b1 01 3f 6d 67 5f 3e
       0.33593816 0.26523986 0.50661844 0.21816798
000050 13 ed 89 3e a4 b9 6d 3e d8 91 8f 3e 2e 5e 5e 3e
       0.26938686 0.23215348 0.28040957 0.21715614
000060 0d 6d 42 3e 40 1b 8c 3e 3e 15 8c 3e dc 91 d0 3e
       0.18986912 0.2736454 0.27359957 0.40736282
000070 9a df 7d 3e 3c b9 85 3e 84 ac 7d 3e 4c a8 5c 3e
       0.24792328 0.26117885 0.2477284 0.21548575

functional_1/batch_normalization_2_1/batchnorm/sub f4 [32]
000000 73 d9 19 bf e7 15 0d bf 6e 7f 3f bf c8 a7 a5 be
       -0.60097426 -0.55111545 -0.7480382 -0.3235457
000010 67 4d 3a bf 9e 35 53 bf a8 8b 71 bf aa e7 08 bf
       -0.72774357 -0.8250369 -0.94353724 -0.5347849
000020 99 21 1b bf 76 53 f9 be b2 c6 19 bf 43 97 71 bf
       -0.6059814 -0.48696488 -0.6006881 -0.9437143
000030 3f 46 1d bf 12 c5 16 bf bc 41 26 bf e5 60 6c bf
       -0.6143531 -0.58894455 -0.6494405 -0.9233535
000040 aa 15 2b bf 14 0a 11 bf 12 8d 2e bf d5 ae 12 bf
       -0.6682993 -0.56656003 -0.68184006 -0.5729802
000050 7a 4f 43 bf 5e e3 25 bf 68 8d ef be 54 63 55 bf
       -0.76293147 -0.6480006 -0.46787572 -0.8335469
000060 78 7d b8 be 20 06 b5 be 65 9a 44 bf d2 ef 1c bf
       -0.36033225 -0.35356236 -0.7679809 -0.61303437
000070 d0 a0 6e bf c3 5c ba be 95 e1 10 bf 36 78 51 bf
       -0.9321413 -0.36398897 -0.5659421 -0.8182405
