ana-cont_1106_s2_q.tflite (tflite, 53328 bytes, 6 tensors)

model/conv2d/Conv2D i1 [32, 5, 5, 3]
00000000: d3a9 bfa1 8dc9 d91b 0728 3e28 230b 410d
00000010: babd bff3 e0ed edee 6462 7f20 1356 0aad
00000020: ce1f f0f5 e7f2 e1fd 2227 bae3 2be8 b29f
00000030: 2bfe fc26 3b1d d614 0a07 3249 05da c617
00000040: f7be 422a 54a9 da09 d5f8 f632 c744 0afc
00000050: 4bd5 d543 ee06 34e0 ddfa 54f8 31ef 0e44
00000060: cab9 09f8 1460 e636 133c d6fd 4d5a 340f
00000070: 1a70 b681 cefe bb20 1703 d92e f10a 5d62
00000080: 6703 f22f e6d5 f5d5 81e3 c5d0 9ed7 0912
00000090: 1e2d 7519 0517 e84d 7610 5473 0f45 461e
000000a0: d2de fcc0 ca12 7a7f de3c 33ee c9da e78f
000000b0: bb01 c9d2 fd1e 58d1 cbe8 e9b6 c002 aac2
000000c0: 19e6 fae1 e818 05a9 02fb 9a9b 09b6 dd1e
000000d0: 01fe 2eb8 1424 c7fe 3fd3 f10f 080f 3355
000000e0: 5015 535b 2037 12c4 fed7 100d 11fe eaff
000000f0: dd24 3bd2 25f5 cc07 55ca eaec 1d1a 43e5
-45 -87 -65 -95 -115 -55 -39 27
7 40 62 40 35 11 65 13
-70 -67 -65 -13 -32 -19 -19 -18
100 98 127 32 19 86 10 -83
-50 31 -16 -11 -25 -14 -31 -3
34 39 -70 -29 43 -24 -78 -97
43 -2 -4 38 59 29 -42 20
10 7 50 73 5 -38 -58 23
-9 -66 66 42 84 -87 -38 9
-43 -8 -10 50 -57 68 10 -4
75 -43 -43 67 -18 6 52 -32
-35 -6 84 -8 49 -17 14 68
-54 -71 9 -8 20 96 -26 54
19 60 -42 -3 77 90 52 15
26 112 -74 -127 -50 -2 -69 32
23 3 -39 46 -15 10 93 98
103 3 -14 47 -26 -43 -11 -43
-127 -29 -59 -48 -98 -41 9 18
30 45 117 25 5 23 -24 77
118 16 84 115 15 69 70 30
-46 -34 -4 -64 -54 18 122 127
-34 60 51 -18 -55 -38 -25 -113
-69 1 -55 -46 -3 30 88 -47
-53 -24 -23 -74 -64 2 -86 -62
25 -26 -6 -31 -24 24 5 -87
2 -5 -102 -101 9 -74 -35 30
1 -2 46 -72 20 36 -57 -2
63 -45 -15 15 8 15 51 85
80 21 83 91 32 55 18 -60
-2 -41 16 13 17 -2 -22 -1
-35 36 59 -46 37 -11 -52 7
85 -54 -22 -20 29 26 67 -27

model/conv2d_1/Conv2D i1 [16, 5, 5, 32]
00000000: e8fe f70a 1cdd 1bd3 da22 fa0d 1402 1ee7
00000010: 241c 2ffd 31c0 e3ee e911 03cd e0f6 c1e8
00000020: 2dc1 15ec ca1c ffd8 c6c1 b41a f4fd e4e5
00000030: cbca c830 24b5 0a0e a5bf cfb1 c709 b8cb
00000040: c1e3 d0e4 45dc c1b6 d4d9 4ab2 4cbe c31f
00000050: c603 4f27 f008 34dc 3de3 c3fc 2147 1b19
00000060: dbb7 d5d3 e520 19d4 1c47 dcfe 04dd d81e
00000070: 2ae1 53a9 10ef dfbf fae6 fdef 4f0a f738
00000080: 1ec0 dfb8 f526 19ff 0cc8 b41f f821 1ce1
00000090: e0ff f7e8 c238 f6cc 3c2b 1933 48d8 c3db
000000a0: e2e1 d237 09f5 c117 d640 27df d907 f4d9
000000b0: f2cf f6f9 33be eed4 0fca 19f2 2807 d92c
000000c0: c817 d807 10fd 1fd4 13f5 b3ca 1aec bffb
000000d0: ed1b f5e9 3cf3 b3c6 0dc2 c7da 18f2 bfd7
000000e0: d32b 19dc 332b e919 f0dd 2e2f 50cd edc3
000000f0: f911 1c32 fc6e 2929 0f35 bee5 4e34 042b
-24 -2 -9 10 28 -35 27 -45
-38 34 -6 13 20 2 30 -25
36 28 47 -3 49 -64 -29 -18
-23 17 3 -51 -32 -10 -63 -24
45 -63 21 -20 -54 28 -1 -40
-58 -63 -76 26 -12 -3 -28 -27
-53 -54 -56 48 36 -75 10 14
-91 -65 -49 -79 -57 9 -72 -53
-63 -29 -48 -28 69 -36 -63 -74
-44 -39 74 -78 76 -66 -61 31
-58 3 79 39 -16 8 52 -36
61 -29 -61 -4 33 71 27 25
-37 -73 -43 -45 -27 32 25 -44
28 71 -36 -2 4 -35 -40 30
42 -31 83 -87 16 -17 -33 -65
-6 -26 -3 -17 79 10 -9 56
30 -64 -33 -72 -11 38 25 -1
12 -56 -76 31 -8 33 28 -31
-32 -1 -9 -24 -62 56 -10 -52
60 43 25 51 72 -40 -61 -37
-30 -31 -46 55 9 -11 -63 23
-42 64 39 -33 -39 7 -12 -39
-14 -49 -10 -7 51 -66 -18 -44
15 -54 25 -14 40 7 -39 44
-56 23 -40 7 16 -3 31 -44
19 -11 -77 -54 26 -20 -65 -5
-19 27 -11 -23 60 -13 -77 -58
13 -62 -57 -38 24 -14 -65 -41
-45 43 25 -36 51 43 -23 25
-16 -35 46 47 80 -51 -19 -61
-7 17 28 50 -4 110 41 41
15 53 -66 -27 78 52 4 43

model/conv2d_2/Conv2D i1 [32, 3, 3, 16]
00000000: f313 2c06 d7da 16d3 1614 2100 fe2f e8e9
00000010: 1d1f e8e3 3a81 f00d ece0 1f12 e0e9 decd
00000020: ea22 02db 1de9 1bf2 e724 0b0e 04b8 fce5
00000030: eafc 04ed 11eb feeb 220d 0fdc f93a 1f08
00000040: 13b7 f9eb c6db f70f f5e1 cfff 1e1f 3bb4
00000050: ef27 f8dd ef39 e603 fc18 faff 17f8 17ec
00000060: e00d f5fd f9d5 12bf fc0b 11e0 18de bee2
00000070: ebe6 1423 00de 17f3 0426 dc10 efda 02e0
00000080: dc03 1ac3 3715 1609 e401 dff2 0eed c005
00000090: 12cc 28e7 0218 fb4b ecff 0f1f 20d7 e30c
000000a0: e0be deb4 ffb2 f616 0a1c e9fd ecec e8fc
000000b0: 1cf5 1d0b f800 eede fff1 171b 0215 f83c
000000c0: 1eaa e81a eb02 04db eefc a6f4 e571 e5f8
000000d0: 1af8 1ff4 eddf caee 20ed ad1a f8f5 e8ec
000000e0: fc45 26ec d2e9 07d8 e0fa 16eb 0ace ce0d
000000f0: 12d3 f7fc e458 07e6 0114 77f7 e2e7 f2e8
-13 19 44 6 -41 -38 22 -45
22 20 33 0 -2 47 -24 -23
29 31 -24 -29 58 -127 -16 13
-20 -32 31 18 -32 -23 -34 -51
-22 34 2 -37 29 -23 27 -14
-25 36 11 14 4 -72 -4 -27
-22 -4 4 -19 17 -21 -2 -21
34 13 15 -36 -7 58 31 8
19 -73 -7 -21 -58 -37 -9 15
-11 -31 -49 -1 30 31 59 -76
-17 39 -8 -35 -17 57 -26 3
-4 24 -6 -1 23 -8 23 -20
-32 13 -11 -3 -7 -43 18 -65
-4 11 17 -32 24 -34 -66 -30
-21 -26 20 35 0 -34 23 -13
4 38 -36 16 -17 -38 2 -32
-36 3 26 -61 55 21 22 9
-28 1 -33 -14 14 -19 -64 5
18 -52 40 -25 2 24 -5 75
-20 -1 15 31 32 -41 -29 12
-32 -66 -34 -76 -1 -78 -10 22
10 28 -23 -3 -20 -20 -24 -4
28 -11 29 11 -8 0 -18 -34
-1 -15 23 27 2 21 -8 60
30 -86 -24 26 -21 2 4 -37
-18 -4 -90 -12 -27 113 -27 -8
26 -8 31 -12 -19 -33 -54 -18
32 -19 -83 26 -8 -11 -24 -20
-4 69 38 -20 -46 -23 7 -40
-32 -6 22 -21 10 -50 -50 13
18 -45 -9 -4 -28 88 7 -26
1 20 119 -9 -30 -25 -14 -24

model/dense/MatMul i1 [128, 128] scale=0.003354407 zero_point=0
00000000: ecdf 18f3 1dce e2cf e0ee e100 dd10 29f7
00000010: 0e0f f113 dde3 f416 d004 f81e e5ef 01e3
00000020: d3e5 d50a f3d2 0305 f1d4 e103 1ed9 e505
00000030: e5da d605 04dd d51a dfd4 0f12 d804 eff5
00000040: 13f5 d8fc e2ee 0a22 fee0 1ff9 fef9 02df
00000050: 1e21 06dd ebf3 1f0a 05db 0d04 de02 eb18
00000060: 00e7 1520 020b f0ea e5e5 fcde 1e01 eed5
00000070: 1e14 df21 000d e2d2 d2d1 e9fa f70e e706
00000080: fff1 ca16 da08 d7f7 2e3a e5f4 eff6 15e5
00000090: 010b 25dd d2eb e7eb 2cc8 08b3 d8ea 07fb
000000a0: e625 fae4 f1ed 17f7 0617 c1ed deb3 cfef
000000b0: c013 22c6 a0f1 b917 07cf f7d2 dc28 f4eb
000000c0: ef84 2204 9dc1 0f23 facd e704 06d0 9acd
000000d0: f1cb d7d5 26fa c50b b6c6 1cfb c4b5 f728
000000e0: 0308 e2be 15b1 061b e0fb 0bd2 deee b84a
000000f0: eee5 14d9 b1c4 cce5 48d6 dd16 2525 dfd6
-0.06708814 -0.11069543 0.080505766 -0.04360729 0.0972778 -0.16772035 -0.100632206 -0.16436593
-0.10734102 -0.060379326 -0.10398661 0.0 -0.117404245 0.05367051 0.13753068 -0.030189663
0.046961695 0.050316103 -0.050316103 0.063733734 -0.117404245 -0.0972778 -0.040252883 0.07379695
-0.16101153 0.013417628 -0.026835255 0.100632206 -0.09056899 -0.05702492 0.003354407 -0.0972778
-0.15094832 -0.09056899 -0.1442395 0.03354407 -0.04360729 -0.15430272 0.010063221 0.016772036
-0.050316103 -0.1475939 -0.10398661 0.010063221 0.100632206 -0.13082187 -0.09056899 0.016772036
-0.09056899 -0.12746747 -0.14088508 0.016772036 0.013417628 -0.117404245 -0.1442395 0.08721458
-0.11069543 -0.1475939 0.050316103 0.060379326 -0.13417628 0.013417628 -0.05702492 -0.036898475
0.063733734 -0.036898475 -0.13417628 -0.013417628 -0.100632206 -0.060379326 0.03354407 0.11404984
-0.006708814 -0.10734102 0.10398661 -0.023480847 -0.006708814 -0.023480847 0.006708814 -0.11069543
0.100632206 0.11069543 0.020126441 -0.117404245 -0.07044254 -0.04360729 0.10398661 0.03354407
0.016772036 -0.12411305 0.04360729 0.013417628 -0.11404984 0.006708814 -0.07044254 0.080505766
0.0 -0.083860174 0.07044254 0.10734102 0.006708814 0.036898475 -0.05367051 -0.07379695
-0.09056899 -0.09056899 -0.013417628 -0.11404984 0.100632206 0.003354407 -0.060379326 -0.1442395
0.100632206 0.06708814 -0.11069543 0.11069543 0.0 0.04360729 -0.100632206 -0.15430272
-0.15430272 -0.15765713 -0.07715136 -0.020126441 -0.030189663 0.046961695 -0.083860174 0.020126441
-0.003354407 -0.050316103 -0.18113798 0.07379695 -0.12746747 0.026835255 -0.13753068 -0.030189663
0.15430272 0.1945556 -0.09056899 -0.040252883 -0.05702492 -0.03354407 0.07044254 -0.09056899
0.003354407 0.036898475 0.12411305 -0.117404245 -0.15430272 -0.07044254 -0.083860174 -0.07044254
0.1475939 -0.18784678 0.026835255 -0.25828934 -0.13417628 -0.07379695 0.023480847 -0.016772036
-0.08721458 0.12411305 -0.020126441 -0.09392339 -0.050316103 -0.063733734 0.07715136 -0.030189663
0.020126441 0.07715136 -0.21132764 -0.063733734 -0.11404984 -0.25828934 -0.16436593 -0.05702492
-0.21468204 0.063733734 0.11404984 -0.1945556 -0.32202306 -0.050316103 -0.23816289 0.07715136
0.023480847 -0.16436593 -0.030189663 -0.15430272 -0.12075865 0.13417628 -0.040252883 -0.07044254
-0.05702492 -0.41594645 0.11404984 0.013417628 -0.3320863 -0.21132764 0.050316103 0.117404245
-0.020126441 -0.17107475 -0.083860174 0.013417628 0.020126441 -0.16101153 -0.3421495 -0.17107475
-0.050316103 -0.17778356 -0.13753068 -0.1442395 0.12746747 -0.020126441 -0.19791001 0.036898475
-0.2482261 -0.1945556 0.09392339 -0.016772036 -0.20126441 -0.2515805 -0.030189663 0.13417628
0.010063221 0.026835255 -0.100632206 -0.22139086 0.07044254 -0.26499814 0.020126441 0.09056899
-0.10734102 -0.016772036 0.036898475 -0.15430272 -0.11404984 -0.060379326 -0.2415173 0.2482261
-0.060379326 -0.09056899 0.06708814 -0.13082187 -0.26499814 -0.20126441 -0.17442916 -0.09056899
0.2415173 -0.14088508 -0.117404245 0.07379695 0.12411305 0.12411305 -0.11069543 -0.14088508

model/dense_1/MatMul i1 [64, 128] scale=0.004100341 zero_point=0
00000000: f2d4 d6f8 1b29 f8cd d6e4 d404 e737 d8ac
00000010: eed4 e022 e9e8 e91e dd04 1520 172a f836
00000020: 1902 100e 14d9 211d 0d0a f1ea fd38 1318
00000030: e30d 2f1b 2b32 0d2d ee00 fc36 e4d9 e6c7
00000040: e508 fd20 ddeb 09de 001a dd15 e91a ffe3
00000050: f3d0 c908 00e5 1a25 2e16 d718 ebf5 d8e4
00000060: e315 b1e9 1ad1 2b03 1cc0 e5f0 ed07 fedc
00000070: a4f9 cbaa 0a05 bd18 e602 0210 da0c f317
00000080: 190b ca04 e6fd 201c cae7 14ed 020c e223
00000090: 2422 23f9 0afd e9e4 e9e8 e705 d90b dced
000000a0: 2809 09d7 43e9 fede fa14 14f9 e705 0a24
000000b0: 03f4 1e0a 1813 0c1b e9f1 1bf2 e7f4 09e2
000000c0: faff 00f2 cd2b eafc 1831 e5eb 17f6 0c12
000000d0: 27b4 ed1a f409 e428 f115 cb1f d914 e20e
000000e0: f6da f308 f40f 1f02 ee13 f6f8 e006 dcda
000000f0: 0218 efcb e60a bc16 1400 25db d5db 00ee
-0.05740477 -0.180415 -0.17221431 -0.032802727 0.110709205 0.16811398 -0.032802727 -0.20911738
-0.17221431 -0.11480954 -0.180415 0.016401364 -0.10250852 0.22551875 -0.16401364 -0.34442863
-0.07380614 -0.180415 -0.13121091 0.13941158 -0.09430784 -0.09840818 -0.09430784 0.123010226
-0.14351194 0.016401364 0.08610716 0.13121091 0.09430784 0.17221431 -0.032802727 0.22141841
0.10250852 0.008200682 0.065605454 0.05740477 0.08200682 -0.1599133 0.13531125 0.11890989
0.05330443 0.04100341 -0.061505113 -0.0902075 -0.012301022 0.22961909 0.077906474 0.09840818
-0.11890989 0.05330443 0.19271602 0.110709205 0.17631465 0.20501705 0.05330443 0.18451534
-0.07380614 0.0 -0.016401364 0.22141841 -0.11480954 -0.1599133 -0.10660886 -0.23371942
-0.110709205 0.032802727 -0.012301022 0.13121091 -0.14351194 -0.08610716 0.03690307 -0.13941158
0.0 0.10660886 -0.14351194 0.08610716 -0.09430784 0.10660886 -0.004100341 -0.11890989
-0.05330443 -0.19681635 -0.22551875 0.032802727 0.0 -0.110709205 0.10660886 0.15171261
0.18861568 0.0902075 -0.16811398 0.09840818 -0.08610716 -0.04510375 -0.16401364 -0.11480954
-0.11890989 0.08610716 -0.32392693 -0.09430784 0.10660886 -0.19271602 0.17631465 0.012301022
0.11480954 -0.26242182 -0.110709205 -0.065605454 -0.077906474 0.028702386 -0.008200682 -0.14761227
-0.37723136 -0.028702386 -0.21731807 -0.3526293 0.04100341 0.020501705 -0.27472284 0.09840818
-0.10660886 0.008200682 0.008200682 0.065605454 -0.15581295 0.04920409 -0.05330443 0.09430784
0.10250852 0.04510375 -0.22141841 0.016401364 -0.10660886 -0.012301022 0.13121091 0.11480954
-0.22141841 -0.10250852 0.08200682 -0.077906474 0.008200682 0.04920409 -0.123010226 0.14351194
0.14761227 0.13941158 0.14351194 -0.028702386 0.04100341 -0.012301022 -0.09430784 -0.11480954
-0.09430784 -0.09840818 -0.10250852 0.020501705 -0.1599133 0.04510375 -0.14761227 -0.077906474
0.16401364 0.03690307 0.03690307 -0.16811398 0.27472284 -0.09430784 -0.008200682 -0.13941158
-0.024602044 0.08200682 0.08200682 -0.028702386 -0.10250852 0.020501705 0.04100341 0.14761227
0.012301022 -0.04920409 0.123010226 0.04100341 0.09840818 0.077906474 0.04920409 0.110709205
-0.09430784 -0.061505113 0.110709205 -0.05740477 -0.10250852 -0.04920409 0.03690307 -0.123010226
-0.024602044 -0.004100341 0.0 -0.05740477 -0.20911738 0.17631465 -0.0902075 -0.016401364
0.09840818 0.20091671 -0.110709205 -0.08610716 0.09430784 -0.04100341 0.04920409 0.07380614
0.1599133 -0.3116259 -0.077906474 0.10660886 -0.04920409 0.03690307 -0.11480954 0.16401364
-0.061505113 0.08610716 -0.21731807 0.12711057 -0.1599133 0.08200682 -0.123010226 0.05740477
-0.04100341 -0.15581295 -0.05330443 0.032802727 -0.04920409 0.061505113 0.12711057 0.008200682
-0.07380614 0.077906474 -0.04100341 -0.032802727 -0.13121091 0.024602044 -0.14761227 -0.15581295
0.008200682 0.09840818 -0.06970579 -0.21731807 -0.10660886 0.04100341 -0.27882317 0.0902075
0.08200682 0.0 0.15171261 -0.15171261 -0.17631465 -0.15171261 0.0 -0.07380614

model/dense_2/MatMul i1 [2, 64] scale=0.0040596277 zero_point=0
00000000: dd2c 0cc1 4ec8 df10 03b8 09e0 1148 e00c
00000010: 22e9 2b13 24f2 3cfa f732 0417 eaf0 49ab
00000020: 08fb d341 0204 4597 c538 1e07 db1c 2cf3
00000030: f700 29e5 f12e f2f1 0cee c7c6 4fca cc7f
00000040: 23e7 ef1c 35c0 f4ee d9fd ce44 9627 213c
00000050: ceff 21e2 0ca5 ea46 1bce fcea bd04 cef5
00000060: 2714 db13 e31a 05f1 43dd 202c 224e e042
00000070: e90b 01ea f30a 75b3 020b 17aa c8fb 0719
-0.14208697 0.17862362 0.04871553 -0.25575656 0.31665096 -0.22733915 -0.13396771 0.06495404
0.012178883 -0.2922932 0.03653665 -0.12990808 0.06901367 0.2922932 -0.12990808 0.04871553
0.13802734 -0.093371436 0.17456399 0.077132925 0.1461466 -0.056834787 0.24357766 -0.024357766
-0.03653665 0.20298138 0.01623851 0.093371436 -0.08931181 -0.06495404 0.2963528 -0.34506834
0.03247702 -0.020298138 -0.18268324 0.26387578 0.008119255 0.01623851 0.2801143 -0.4262609
-0.23951803 0.22733915 0.12178883 0.028417394 -0.15020622 0.113669574 0.17862362 -0.05277516
-0.03653665 0.0 0.16644473 -0.10960995 -0.060894415 0.18674287 -0.056834787 -0.060894415
0.04871553 -0.0730733 -0.23139878 -0.2354584 0.3207106 -0.2192199 -0.21110064 0.5155727
0.14208697 -0.10149069 -0.06901367 0.113669574 0.21516027 -0.25981617 -0.04871553 -0.0730733
-0.15832548 -0.012178883 -0.20298138 0.27605468 -0.43032053 0.15832548 0.13396771 0.24357766
-0.20298138 -0.0040596277 0.13396771 -0.12178883 0.04871553 -0.36942613 -0.08931181 0.28417394
0.10960995 -0.20298138 -0.01623851 -0.08931181 -0.27199507 0.01623851 -0.20298138 -0.044655904
0.15832548 0.08119255 -0.15020622 0.077132925 -0.1177292 0.10555032 0.020298138 -0.060894415
0.27199507 -0.14208697 0.12990808 0.17862362 0.13802734 0.31665096 -0.12990808 0.26793543
-0.093371436 0.044655904 0.0040596277 -0.08931181 -0.05277516 0.040596277 0.47497642 -0.3125913
0.008119255 0.044655904 0.093371436 -0.34912798 -0.22733915 -0.020298138 0.028417394 0.10149069
