ana-cont_1501_s0.tflite (tflite, 365764 bytes, 14 tensors)

arith.constant f4 [32]
00000000: 901c a6bc fa6f 7bbc eb86 1e3b 6d1f 9cbd
00000010: f753 383d bf12 143c 3614 21bd db8b 2f3c
00000020: 2b88 56bc ae92 af3d 220e 9bbd cd68 273d
00000030: 5341 8b3d 4dfa 653c d979 773d b813 793c
00000040: 0b98 c93c d867 fbbc ad3b 75bd 3b85 0f3d
00000050: af1d d63c 9f29 0bbc 6e62 b53a bbb1 31bc
00000060: 1552 833d b625 963c 66a6 f63c 35dd 19bd
00000070: 475a ac3b cf7b 8c3c 30e5 d83c 4d03 773c
-0.020277292 -0.0153465215 0.0024189304 -0.076231815 0.04500195 0.009037673 -0.039325915 0.0107144965
-0.013093988 0.08572899 -0.07571055 0.04087143 0.06799569 0.014036727 0.060418937 0.015202455
0.024608633 -0.030689165 -0.059871364 0.035039168 0.026137201 -0.00849381 0.0013838538 -0.010845597
0.0641214 0.018328529 0.030108642 -0.037564475 0.0052597853 0.01714888 0.026476473 0.015076471

arith.constant1 f4 [32]
00000000: 08a6 20ba 18da d7bc 6c79 00bb 5b7e 363d
00000010: 1597 43bc 2beb b6bc eeb7 613d 44e9 e73c
00000020: 3f67 2cbb 9212 9e3c adca be3c 0f41 a53c
00000030: a96e b5bb c789 70bb 6c7e c7bc 3294 ff3c
00000040: c7ee 603b 6b43 76bd 4a9c 4bbc 15ca 29bc
00000050: 84b8 323c 284b ed3c fb03 01bc 7be6 8fbc
00000060: b061 803b 7e49 fa3c 5f7c 6bbc 2f9b 073d
00000070: f797 383d 2448 21bc 9d76 66bd f3f2 1ebd
-0.0006128256 -0.026349112 -0.0019603623 0.044554096 -0.011937876 -0.022328934 0.05510705 0.028309472
-0.0026306657 0.019295964 0.023290003 0.020172624 -0.0055368734 -0.0036703215 -0.024352275 0.031198595
0.003432201 -0.06012289 -0.012427399 -0.0103631215 0.01090825 0.028966501 -0.007874484 -0.017565956
0.0039178953 0.030552622 -0.014372914 0.03310698 0.0450668 -0.00984386 -0.056265462 -0.038805913

arith.constant2 f4 [64]
00000000: 41c6 fabd 098a ecbd 9de3 c7bd a516 cdbc
00000010: 5952 3ebd 2c8b 51bd bd78 cabd 2913 88bd
00000020: e9bc 3abd 97ac f5bd a6c1 a13a 681b f1bd
00000030: 8476 62bd 5a86 66bd 799d 033d b194 b2bd
00000040: 1279 90bd 04a9 c2bd 1493 083d dfd2 bdbd
00000050: 7260 2cbe 313e 04be 7b8b 9cbd 517d efbd
00000060: 7974 f5bd 6888 1abe e0a7 8dbd e3a2 06be
00000070: c0ee 56bd 7ae6 07be 5fd9 13be b971 0ebe
00000080: bc4a 9ebd c2dc c4bd abb7 1bbd 6c74 c8bd
00000090: 66ab a13d ce8c 25bd ba21 34be 4984 eabd
000000a0: e679 9fbc a1dc d0bd 3cd0 febd 8cb5 03be
000000b0: 4805 93bd 4d2f b1bd c4f9 11be 5c9d dcbd
000000c0: e0a7 843b 05e4 dcbd 189a 06be 1800 27bd
000000d0: 02b9 97bd e6ef 88bd 3236 f2bd c2a3 adbd
000000e0: dbe9 46bd d985 35be 4b6e e4bd cd79 04be
000000f0: 59d1 38be e131 d2bd fe78 98bd 8b18 b9bd
-0.12244845 -0.115497656 -0.09760211 -0.025035212 -0.04646525 -0.051158115 -0.0988631 -0.066442795
-0.045590315 -0.119958095 0.0012341037 -0.117728055 -0.055288807 -0.05628047 0.0321326 -0.08719767
-0.07054342 -0.095048934 0.03334339 -0.09268736 -0.16833666 -0.12914349 -0.07643791 -0.11693824
-0.11985106 -0.15091097 -0.06916785 -0.13148074 -0.052473783 -0.13271514 -0.14438389 -0.13910569
-0.07729098 -0.09612419 -0.038016956 -0.09787831 0.0789402 -0.040417485 -0.1759099 -0.11451013
-0.019467305 -0.101983316 -0.12442061 -0.12862223 -0.07178742 -0.086516 -0.14255434 -0.107722014
0.0040483326 -0.10785679 -0.1314472 -0.040771574 -0.07408334 -0.06686382 -0.11826743 -0.084785
-0.048562866 -0.1772684 -0.11153849 -0.12937088 -0.1804861 -0.1026342 -0.074449524 -0.09037884

arith.constant3 f4 [32, 3, 3, 32]
00000000: 871d 573d d09c 6a3d e5de b73d 074d c93d
00000010: 21bc a53d 9372 b4bd ff9e 62bd c96c f53d
00000020: b35d a3bc 4230 a53d 6b0f ed3c 8f7e 683d
00000030: 2b6f 3a3c 6738 8bbd 00c9 4b3d ce49 9e3d
00000040: a113 e5bc ff67 94bc bbdc ad3d 012b 53be
00000050: f695 183d d23b e2bc 9617 03be 1612 26bd
00000060: d941 8abd ae46 9cbd 983e 93bd c343 d13d
00000070: 7f31 ae3d 5f87 8f3d 17f2 a03c 1fe9 60bd
00000080: 4a83 0cbd 2c28 643d cac6 d5bc 1863 b8bc
00000090: deed d3bd 0eb1 c13d 0f94 0c3e 179d 8dbd
000000a0: 1a76 e33c 2566 933a 2109 9a3d f656 51bd
000000b0: 2f09 163e ecae b03d 89be f03d a9b4 913d
000000c0: 72c2 41bc 229b 3ebd 4189 a43d ee9d debd
000000d0: bf50 8dbd 273a 203e 600a 00bc dd13 b23c
000000e0: 2517 34bd 5e83 e4bd 1b6d cd3c 45ef bb3c
000000f0: 8ebd 353d a481 86bd 8bc8 fa3d 746b 9ebd
00000100: 03a9 d7bd 35ef 58bd fcba c6bd d7d7 623d
00000110: 7d46 9cbd 59fa a33b 922f d0bd af53 493d
00000120: def6 30bd 7dc9 833d f9db d9bc 9bca b33d
00000130: 52e7 7abd 968a 6b3d 3b2d afbc 0b95 60bd
00000140: d90e f33b 1ff7 bebb 81f2 913b d099 64be
00000150: 355a 84bd bade 543c f255 36bd aa66 ce3d
00000160: 7f93 a93d a97c bfbd 3834 b33d ae34 c03d
00000170: e085 42bd 77d6 e03b 4f78 e0bd 809b 413d
00000180: 910b 86bd 8ad6 c1bd 0ab5 58bd 7b83 01be
00000190: 0b83 67bd 1129 ae3d 0de3 dfbd c311 ad3c
000001a0: 1337 083c 61be 4c3d 019e 12bc 83a0 84bd
000001b0: 8ae1 e1bc f2dc 91bb 181c 59bd f169 be3c
000001c0: 6d51 8b3c 1b57 b23d 37f8 493d bf85 c23d
000001d0: a561 233a 8847 e5bd 2625 753d 175e 40bc
000001e0: a9e6 a7bd dce1 58be 8dcc a43d 9dcb 833d
000001f0: 6e21 9ebd e676 ccbd 91ac 4fbd a3c0 92bc
00000200: 8078 a53d 6191 843d f3e1 b1bd 2197 373b
00000210: 3d4b 623d cbec b73d e91d 143e a971 123d
00000220: ea63 d3bd 0af3 38bc 7bc8 873c 6929 11bd
00000230: 8f4b 483e ef17 6b3d 2a50 503d 14c4 443d
00000240: 40cd 883c a4bc 903c 69f8 943d 63e0 7cbe
00000250: b344 dc3c 74eb de3d 3f86 13bd d381 3cbd
00000260: e1ed 993d dcfc 183d 0dc0 c6bd f35e 15bc
00000270: 9f2e 7dbd b74e f3bc 8911 c23d 6f84 82bd
00000280: 8604 883d d1a5 973d ccb4 05bc d6ba 003d
00000290: 0f33 09bd 17c9 c4bd 2bc5 f2bc 5cdc 263d
000002a0: f5e2 12bd 9158 b63d 669b a13d 6726 05bc
000002b0: 9e15 933c 79aa a5bd d78e 93bc 1b07 d13d
000002c0: 59d0 58bd 21ac 9b3d 2ab3 a93d bd0c 16bd
000002d0: fd20 a43d 51ab a2bd 73e7 e3bc fbf6 a93d
000002e0: 14ea b23d d707 aa3d 39a1 733c edaf d7bd
000002f0: 45ff e03c b89d 7cba de8b 90bd f617 b6bd
00000300: 7574 f23c 44c5 473d 92ac 2ebc fad1 21be
00000310: 9b2d ab3c a89d a2bd 2ceb 47bc 7e8a d53c
00000320: 3591 e23d 4a47 f739 d48b a93d bf2e 493d
00000330: 819e c23c 16d3 3dbd 984f 1abd e035 a43d
00000340: 72c2 28b9 3fb4 1b3e b848 083d 43ac 4a3d
00000350: ada6 28bd 92e1 963d 4fca 1c3e 3d9d aabd
00000360: 307d 763d 9682 7cbe 8501 9bbd 4171 963d
00000370: 4368 823c 1d61 27bd aa50 98bd a4a2 2b3c
00000380: 9b59 bf3c 3194 983d db38 9d3c 3cf5 06be
00000390: 8d31 3dbd cd51 8fbc 8b8a 563d 321c 4abd
000003a0: b4e6 d33c 3551 2a3d da47 e63d fa39 babc
000003b0: f6f6 08bd a776 58bc 8bae 10bd 9613 ba3d
000003c0: 13d1 4d3d 2cca e43d 3376 23bd edaf 12be
000003d0: b114 94bd cafa 4abc 937b 02be 04a0 4d3d
000003e0: 7ea2 6ebd fb27 1ebe 78ca 5c3d 117e a8bc
000003f0: 037f e0bb 56b9 8b3c d47c ae3d f051 3d3c
0.052518394 0.057278454 0.08978061 0.09829145 0.08092523 -0.08810916 -0.05532741 0.1198364
-0.01994214 0.08065845 0.028938016 0.05676132 0.011379044 -0.06797867 0.049752235 0.07728921
-0.027963461 -0.018115995 0.084893666 -0.20621873 0.03725239 -0.027616415 -0.12801966 -0.04054459
-0.06750841 -0.076306686 -0.07189673 0.10218003 0.085055344 0.07008242 0.019646687 -0.05490982
-0.034304895 0.055702373 -0.026095767 -0.02250819 -0.10348104 0.094575986 0.13728355 -0.06914728
0.027766276 0.0011245651 0.075212725 -0.051108323 0.14651941 0.08627114 0.11755092 0.07114536
-0.0118261445 -0.046534665 0.080339916 -0.108699664 -0.06900167 0.15647183 -0.007814974 0.021737987
-0.043967385 -0.11157869 0.02507644 0.022941241 0.044370227 -0.06567696 0.12245282 -0.07735339
-0.10530283 -0.0529625 -0.09703633 0.055381622 -0.07630632 0.005004209 -0.10165323 0.049152073
-0.04320418 0.06434915 -0.026594149 0.08778878 -0.06125576 0.057505213 -0.021383872 -0.05482964
0.0074175415 -0.005827799 0.0044539575 -0.223243 -0.06462518 0.012992555 -0.044515558 0.10078175
0.08280086 -0.09349949 0.08750194 0.09385048 -0.047490954 0.0068615037 -0.10960447 0.047267437
-0.06545175 -0.09464748 -0.052907027 -0.12647812 -0.056521457 0.085039265 -0.109319784 0.021126634
0.008313912 0.049986247 -0.008948804 -0.06475928 -0.027573366 -0.0044513876 -0.053005308 0.023243876
0.0170066 0.0870802 0.04930898 0.09498166 0.0006232507 -0.11195284 0.05984988 -0.011741183
-0.08198292 -0.21179909 0.080468275 0.064353205 -0.0772122 -0.099836156 -0.05070168 -0.017914122
0.08079624 0.06473041 -0.086856745 0.0028013664 0.055247534 0.089807115 0.14464535 0.035752926
-0.103217915 -0.011288414 0.016575089 -0.035439882 0.19560073 0.05739587 0.0508577 0.048038557
0.016699433 0.017668076 0.07273943 -0.24694972 0.026888227 0.10884753 -0.0360167 -0.046022248
0.07516075 0.03735052 -0.097045995 -0.009116876 -0.06181204 -0.02970062 0.09476001 -0.06372916
0.06641488 0.07404674 -0.008160781 0.03142818 -0.03349596 -0.09608667 -0.029635033 0.040737495
-0.035860974 0.089036115 0.07890968 -0.008126832 0.017954644 -0.08089156 -0.018012447 0.102064334
-0.05293307 0.0760119 0.08286126 -0.036633242 0.080141045 -0.07942832 -0.027820325 0.08299061
0.08736053 0.083022766 0.014869981 -0.10531602 0.027465472 -0.0009636539 -0.070579275 -0.08891289
0.029596547 0.04877211 -0.010661261 -0.15802756 0.02089577 -0.07940227 -0.012202065 0.026067015
0.11062852 0.00047164626 0.08278623 0.049116846 0.023757221 -0.046343885 -0.037673563 0.08018088
-0.00016094165 0.15205477 0.033272475 0.049480688 -0.04117458 0.07367243 0.1531155 -0.08330772
0.06017798 -0.2465919 -0.07568649 0.0734582 0.015918856 -0.0408641 -0.074372604 0.010475788
0.023358157 0.0745014 0.01919215 -0.13179487 -0.046189833 -0.01749506 0.05237822 -0.049343295
0.025866844 0.04158135 0.11244173 -0.022732724 -0.033438645 -0.013211883 -0.035322707 0.09085767
0.050248217 0.11171374 -0.039907645 -0.14324923 -0.07230509 -0.012388894 -0.12742452 0.05020143
-0.058260433 -0.15444939 0.053904027 -0.020567926 -0.0068510785 0.017056148 0.08519903 0.01155518

arith.constant4 f4 [32, 5, 5, 64]
00000000: 00ec babb 19d0 0a3b 432d 533d 2d63 b93c
00000010: 9c0b d1bb b0bd f73c 03da 2bbc 422b 603a
00000020: 53e7 d3bb bc7a e23c 7699 ad3c 68a1 e0bc
00000030: d637 15bb 1c11 193c 579c f53c 955b 4a3c
00000040: 92e1 cc3c 7e0e 2fbd e7d2 903b 085a 18bd
00000050: 5a8c 86bc 1c42 b2bc ba88 183d 9152 19bd
00000060: ce7d 83bc 50af 363b f92d 0c3a afc7 efbc
00000070: 8dd4 88bc e569 cf3b 9fa8 133b 9709 20ba
00000080: 7206 e63c 45b2 4fbd 425d 983c 6f5f ee3c
00000090: 2d30 223d 3d6a a2bc 5cc8 d7bc 5a13 37bd
000000a0: 8f4c cf3c 2a97 4ebd ef38 d0bc e97f 923c
000000b0: a8bf 59bd a1a2 0fbd 3979 bc3c 64b0 11bd
000000c0: 7c03 853c d453 74bc 67c9 40bb 2b7e cd3c
000000d0: 531b d43c 6c00 34bd fadb bb3c 08c6 16bb
000000e0: b53e 893b 8778 603c d0bb 213d 354a 693b
000000f0: 4598 45bd 9b78 7fbc e25b ea3c 730e 80bc
00000100: 511a 3f3d 91c9 4fbc d173 eaba a0ff 10bd
00000110: e73c 81bc 70d9 b93c 5ab7 3abc 7919 283d
00000120: 023b d93c 9b1a b73c f98b dcbc a196 333c
00000130: cb7f c23c 35e7 3bbb 2c16 aebc fe08 04bd
00000140: 2be6 25ba 2c2e e5bc 60f2 e33b 9a94 8ebc
00000150: 7743 103d 146f a8bc 8d61 ce3c 2584 01bb
00000160: cd97 bb3c e7cb cd3b f058 2d3d 5949 67bc
00000170: d22d 0d3d 105b 2b3c e7ed 1e3d 7edb 093d
00000180: 7421 173d 8544 f73c f45e 163d 09ce 63bc
00000190: 1de3 0abd 9ebc fd3c 4325 20bc b48e 4cbd
000001a0: e5db 30bd 2eb2 e93c f792 e9bc 7520 77bc
000001b0: 1709 a0bc e451 b23c 3ea9 063d 8881 3ebc
000001c0: a265 9f3a 7e12 393c 278c 48bc 64ad 563c
000001d0: fdbe 9b3c 71dd 92bc 4e49 c23c 5d2b 9b3c
000001e0: 32be f43c 78a6 363d e912 52bd ccfb 843c
000001f0: 7c83 47bc 92a8 30bc 1f22 d2bc daef 34bd
00000200: 5e63 213d 7cd5 57bd ff6a 943b 68eb f2bc
00000210: a9e8 3dbd c6a7 c23c 84ce c5bc 06e7 52bd
00000220: fd60 5a3c ca7b 10bd 9d0d 9fbb 6eb8 14bd
00000230: 101e 233d b43f 43bd b073 8ebc 09af 3db9
00000240: 269a 96bc 58d3 253d aa1d 113d ecd3 25bd
00000250: be56 e0bc 6189 35bd 27e1 393d 4e71 333c
00000260: 06fd cbbc d810 1dbd 2a38 4c3a 787d f23c
00000270: 1073 debc f0a3 5a3c 7382 3dbd de49 dbbb
00000280: 4654 58bd 23ce f9bc b4f1 7d3c 91fd abbc
00000290: 4900 b9bc 526c 21bc 240c fabc b695 b73b
000002a0: e06e ea3a 7b1f ebbc 668c 0bbc d9ce cc3c
000002b0: 3eb5 9cbb ac40 e13c 83c2 233c df1c 5bbd
000002c0: 9cbe 023d acdb 4f3c 9135 20bd 6850 ecbb
000002d0: 20fc 2b3c 1df7 043d 8bb9 d0bc 38c2 053d
000002e0: 6e31 0bbc 6dc5 bd3c b6c7 5abd 7754 443d
000002f0: 2876 0abd cc2a cabc 374a 913c 8bd3 22bd
00000300: 7e80 44bd 0a5a 223b 2924 073d dcde 003c
00000310: ae18 5a3c 5652 53bd 2553 36bd 4bf9 36bd
00000320: eebf ffbb 271b 97bc ac2d 54bc b663 03bd
00000330: 2157 853a 2b88 e0bc 10c9 ccbc bd68 8cbc
00000340: 740d 1ebd 6d87 a4bb 5b62 cabc 79ed 0abd
00000350: 9d2c 36bd 2fd7 2d3d dcab b8bc ba18 d2ba
00000360: 2f21 7cbb 9bc8 f43b 9e87 0dbd 57fb 29bd
00000370: 7122 a83c c888 16bd 0a49 7cbc f91c 2fbd
00000380: 9cf6 cf3b c18c da3c 98f8 5abc e138 1fbd
00000390: 1309 833c d2ea 24bd 33b0 343d 7061 863c
000003a0: 7ee7 833b 5c34 f83c e4b1 8c3c 6f7a 4ebd
000003b0: db0e e13a 254e ad3b c02f 7a3c b72d 52bd
000003c0: 961c 4fbc 1a44 85bc e86d 28bd 624b f63c
000003d0: c232 f9ba 6012 d73a 21e7 68bb 7573 d03c
000003e0: 6842 1ebc 2f12 6fbd 3e94 39bd 7721 1e3d
000003f0: f356 3d3c e653 ae3c 96f4 dd3c cb45 00bd
-0.005704403 0.0021181165 0.051556837 0.022630299 -0.006379558 0.030241817 -0.01048899 0.0008551368
-0.006466785 0.027646415 0.02119134 -0.027420714 -0.0022768877 0.009342458 0.029981775 0.012350936
0.025009904 -0.04273843 0.004419673 -0.037195235 -0.016424347 -0.021760039 0.037239768 -0.037432257
-0.0160512 0.002787549 0.00053474266 -0.029270021 -0.016702915 0.0063297623 0.0022530926 -0.00061049446
0.028079245 -0.05070712 0.018599156 0.02909824 0.039596725 -0.019826049 -0.026340656 -0.04469619
0.02530506 -0.05043713 -0.025417773 0.017883258 -0.053161293 -0.035067204 0.023007022 -0.03556861
0.016237013 -0.014912564 -0.002941692 0.025084576 0.025891935 -0.043945715 0.022932041 -0.002300622
0.0041883835 0.013700611 0.039485753 0.003559721 -0.04824092 -0.015592719 0.028608266 -0.01563189
0.046655957 -0.0126823345 -0.0017887299 -0.035400033 -0.01577611 0.02268669 -0.0113962535 0.041039918
0.026517395 0.022351554 -0.026922213 0.010961206 0.023742577 -0.0028671746 -0.021250807 -0.032235138
-0.0006328548 -0.027976118 0.0069563836 -0.017404843 0.03522059 -0.020560779 0.025193 -0.0019762602
0.022899533 0.0062804106 0.042321146 -0.014116609 0.034467526 0.010458723 0.0388011 0.03365659
0.036897138 0.03018404 0.036711648 -0.013904103 -0.033908 0.030973729 -0.009774509 -0.04994078
-0.043178458 0.028527346 -0.028512461 -0.015083422 -0.019535584 0.021767564 0.032876246 -0.011627562
0.0012161026 0.011295913 -0.012240446 0.013102863 0.019011969 -0.017927857 0.023716595 0.018941576
0.029875848 0.04459235 -0.051287565 0.016233347 -0.012177344 -0.010782378 -0.025651036 -0.044174053
0.039401405 -0.05269383 0.0045293565 -0.029653266 -0.04636446 0.023761641 -0.024146326 -0.051489852
0.013328788 -0.035274304 -0.0048539178 -0.0363087 0.03982359 -0.047668174 -0.017389148 -0.0001808965
-0.01838405 0.040484756 0.03542868 -0.040485308 -0.027385112 -0.044320468 0.045380738 0.010952307
-0.024900924 -0.03834614 0.00077903515 0.029600844 -0.027154475 0.01334475 -0.046266984 -0.0066921553
-0.052814744 -0.030493801 0.015499521 -0.020994933 -0.022583144 -0.009852486 -0.030523367 0.0056025637
0.0017885827 -0.028701534 -0.00851736 0.025000976 -0.004782348 0.027496658 0.009995106 -0.05349433
0.03192006 0.012686651 -0.039113585 -0.0072117336 0.010497123 0.032462228 -0.025479099 0.032655925
-0.008495672 0.023165429 -0.053413115 0.047932114 -0.03380409 -0.02467861 0.017735584 -0.039752524
-0.047974102 0.0024772906 0.03299347 0.007865634 0.013311548 -0.051592194 -0.044512887 -0.044671338
-0.007804862 -0.018445564 -0.012950342 -0.032077514 0.0010173061 -0.02740868 -0.024998218 -0.017139787
-0.03858705 -0.005021027 -0.024705103 -0.033917878 -0.04447614 0.042441543 -0.022542886 -0.0016029098
-0.0038471927 0.007470203 -0.034553163 -0.041499462 0.020524235 -0.03675154 -0.015398273 -0.04275224
0.006346537 0.026678445 -0.013364933 -0.038872603 0.015995538 -0.040263005 0.04411335 0.016403884
0.0040253988 0.030298404 0.017174669 -0.05040973 0.0017170565 0.0052888566 0.015270174 -0.05131313
-0.012641093 -0.016267825 -0.04112044 0.030065242 -0.0019012319 0.0016408674 -0.0035538154 0.02544568
-0.009659387 -0.05836695 -0.04530739 0.038606133 0.011556375 0.02128024 0.027094167 -0.03131656

arith.constant5 f4 [64, 5, 5, 3]
00000000: 8e46 12be eb45 a5bd 8632 7dbd fbcc dc3c
00000010: 8794 5a3d 1fc6 493d f8e1 443c ed50 0c3d
00000020: f895 103d 96ea 18be f7e7 a7bd e498 c5bd
00000030: e11f 163d e9d7 983d a732 4ebc b411 b1bd
00000040: dd0f 89bd 8e3a f8bc d2e1 953c 5c73 7c3c
00000050: d4d9 053d e6d8 94bd cf8e 863d b2b5 633d
00000060: bd8b 05bd 721b 6a3c aa25 abbc c45e 8abd
00000070: 42e9 8a3c e115 373d d3d3 d1bc 06ee b83c
00000080: a469 cfbd 9484 54bc 2663 adbc 0248 003d
00000090: fd6e 173e 77c8 293e 7d3b 023e fc76 f0bc
000000a0: 1ae1 13bd e8be 1bbd fb3e b4bd 11bb 833d
000000b0: 1b14 2e3c 6418 afbb ceff 503d 859e 8d3b
000000c0: 711b dcbc d6e3 aebc 7766 83bd 2fd8 30bd
000000d0: 68dc 013d 93aa 1fbd 44cc 2abe 9ee8 17be
000000e0: e2c1 58be 2e05 76b8 e1d3 513d 2b90 a7bb
000000f0: 8057 e8bb 13fc e13d 123d 0d3d 7abe 6abd
00000100: 3101 303d 166f acbc f609 d23d 6598 c73d
00000110: 61a7 a53c 4da7 e03c 5faf cc3d c755 1cbc
00000120: 4a68 a9bd b6ae a93d 91a3 d43d ba7d 01be
00000130: 0649 22be 0585 c9bd 9c34 60bd 74c9 bebd
00000140: 08c1 18be af90 033d ce24 513d 9882 113d
00000150: b789 c8bb 32d4 3fbd 88e1 633d ce95 013d
00000160: fb8c 0fbd 5deb 0c3d 0b31 d83d 37a4 e03d
00000170: 986f 193d 6d8d 663d 6ef9 203b 4053 fd3c
00000180: 80d9 15bc 3f21 2ebd beb4 023b 4207 af3c
00000190: fe4e 1ebe f19b 66bd 6c81 2ebc 2c9f 10be
000001a0: 09a9 76bc 2abd 193d 02ac da3d 8c6a 9e3b
000001b0: 2863 183d 532a 063d 7741 473d cea0 683d
000001c0: 801a 0b3d 4d8b b63d c947 fabc dbd6 f2bd
000001d0: 81db fbbd 0e27 dfbd 1f4a 02be f1ec 9fbd
000001e0: 4509 233d c5bd 823c bd3a 3abc 0923 a7bd
000001f0: 08c0 f9bd ad05 d1bd d557 1ab9 af93 ee3c
00000200: 23e6 ca3d 0d23 b83d 5480 fb3d 0ebf ca3d
00000210: e54f 953d 9f3b 0f3e c5a0 ef3d 001b 4bbb
00000220: ff0f bb3b 4b7a 8f3c 6846 3c3c 5628 3c3d
00000230: 6006 97bd 9b19 1dbd dd6d 6a38 b740 fbbc
00000240: 2872 05be 8cc8 b93c 3452 1f3c 0515 10bc
00000250: 0179 913d f933 193c cd89 99bd 1f07 0cbc
00000260: d691 963d e86f 673c fd30 f83d 2d30 973d
00000270: 1e20 aebc 5392 003d 8f5c 813d e8a6 1bbd
00000280: 934e 953d 1954 ff3d 2ff7 07be 7551 5c3d
00000290: b0b7 4bbc 91ec 83bd 7a2d a1bd 3bdd 8a3b
000002a0: debd 6dbb 2dc6 963d 6129 013e a5f8 4d3c
000002b0: d919 413e 5fac dd3d b8c7 eabd 8cd2 7c3d
000002c0: 414b 8e3d 1ddf 7ebd fc78 e43c 3dbd b53d
000002d0: 47b1 0e3d aeab 11bd 15da 9cb9 fe28 5d3c
000002e0: aadb cebd 5ce3 c1bc a398 12bc d113 3a3d
000002f0: 250b a23d 4624 e03c 3e4e 2a3e 5581 643e
00000300: 6dcc b3bc 454c c53d 5593 423e d6f8 fe3d
00000310: 4068 bebd 7f5c 88bc 0907 d13d 2983 1abe
00000320: 590c c0bd c2e3 213d 8242 eebd df39 b3bc
00000330: 536d d9bc 81e1 14bd 252f e13d a193 023d
00000340: 3121 873d 4206 4e3d 3c3c f439 57e3 6abe
00000350: bc85 92bd 24d0 973d 255c 65be 47f3 c8bd
00000360: 7ed5 d83c c18a 32be 4c69 e7bd 4509 25bc
00000370: db9b c1bd d35f c6bd 3742 263d 7097 f0bd
00000380: 7be5 edbd f421 053e 4367 023d c0a3 d23d
00000390: aae4 d23d 47aa 9dbc 99c8 10bd b7cf cf3d
000003a0: f4fd aabd 19d9 e5bb 9906 7a3d 6064 0cbe
000003b0: 5eda a3bc 9a45 afbd f6fc 3d3d ba55 843d
000003c0: abd1 e83d 66f9 c0bc 51f5 15bd 5101 113d
000003d0: 7b39 44bd c523 c5bd 0121 25bc 896f e0bd
000003e0: a711 94bd ac7c 28bd a9a2 d7bc fc95 abbd
000003f0: 8b96 b7bd 430f bf3c 0c9f da3d f4ae 903d
-0.14284727 -0.080699764 -0.06181576 0.026953211 0.053364303 0.04926121 0.012016766 0.034256864
0.03529927 -0.14933237 -0.08198541 -0.09648302 0.036651496 0.074630566 -0.012585319 -0.08645955
-0.06692479 -0.030301359 0.018296156 0.015408363 0.03267844 -0.072679326 0.06570207 0.0555932
-0.032603968 0.01428877 -0.020891983 -0.06756356 0.01695693 0.0446986 -0.025613701 0.022574436
-0.10127571 -0.012971062 -0.021165442 0.031318672 0.14788432 0.16580378 0.12718005 -0.029353611
-0.036103345 -0.03802386 -0.08801075 0.064321645 0.010624911 -0.0053434838 0.051025204 0.0043218755
-0.026868554 -0.021348875 -0.06416028 -0.04317492 0.031704336 -0.03898103 -0.16679484 -0.1483483
-0.2116771 -5.8655794e-05 0.051227454 -0.0051136217 -0.007090509 0.110344075 0.03448207 -0.05731056
0.042969886 -0.021049064 0.10255806 0.09745864 0.020221414 0.027423525 0.09994387 -0.009541935
-0.08271845 0.082852766 0.1038276 -0.12645617 -0.15848169 -0.098398246 -0.054737672 -0.09315768
-0.14917386 0.032120403 0.05106049 0.035524935 -0.0061199325 -0.046833225 0.055635005 0.031637006
-0.03504656 0.034404147 0.10556229 0.109688215 0.03745994 0.056287218 0.0024562734 0.030923486
-0.009146094 -0.042512175 0.0019944157 0.021365765 -0.1545982 -0.05630106 -0.010650974 -0.14123219
-0.01505495 0.037533917 0.10677339 0.0048344787 0.037203938 0.032755207 0.048646417 0.05679398
0.03396082 0.08913288 -0.030551808 -0.11857387 -0.122977264 -0.10896121 -0.12723587 -0.07808865
0.039803762 0.01595963 -0.011366543 -0.08160979 -0.1219483 -0.10206161 -0.00014719304 0.029123155
0.09907176 0.089910604 0.12280336 0.09899722 0.07290629 0.13987587 0.11700586 -0.0030991435
0.005708694 0.017514369 0.0114913955 0.045936905 -0.07374263 -0.038354497 5.5892266e-05 -0.030670507
-0.13031828 0.022678636 0.009724189 -0.008794074 0.07103158 0.00935077 -0.074969865 -0.00854662
0.07352035 0.014125802 0.12118719 0.07382236 -0.021255549 0.031389546 0.06316482 -0.03800097
0.072903775 0.12467212 -0.13277887 0.05378862 -0.012433931 -0.06441606 -0.07870002 0.0042377985
-0.00362765 0.07362018 0.12613441 0.0125714885 0.18857516 0.10823893 -0.114638746 0.06172423
0.06947947 -0.062224496 0.027889721 0.08873985 0.034837034 -0.035564117 -0.00029917122 0.013498543
-0.10100491 -0.023667984 -0.008947524 0.045429055 0.07912282 0.027361047 0.1663141 0.22314961
-0.021948064 0.09633688 0.19001515 0.124498054 -0.09297228 -0.016645668 0.1020642 -0.15089096
-0.09377355 0.039523847 -0.11633779 -0.021878181 -0.026541388 -0.03634787 0.1099532 0.03187907
0.06598128 0.050298937 0.00046584185 -0.22938286 -0.07154414 0.074127465 -0.22398432 -0.098120265
0.026468989 -0.17435743 -0.11299381 -0.010073011 -0.09453555 -0.09686246 0.04059049 -0.117476344
-0.116160356 0.13001233 0.03183676 0.10285139 0.102975205 -0.019246234 -0.035347555 0.1014704
-0.08349219 -0.0070144054 0.06104145 -0.13710165 -0.020001587 -0.08558197 0.04638382 0.064616635
0.11368116 -0.023556422 -0.036610905 0.035401646 -0.04790638 -0.09625963 -0.0100786695 -0.10958774
-0.072299294 -0.04113452 -0.02632268 -0.083782166 -0.08964261 0.023322707 0.10674867 0.0706462

arith.constant6 f4 [2, 64]
00000000: 1f52 06be 12ef 35be 8bd3 a6be 5382 3bbe
00000010: 32cb 643e 2f81 b23e 7bdf 733e 2d81 3abe
00000020: f744 6f3e 9d26 963e 8013 33be 67fd 21be
00000030: 4f40 0ebe bc7b dd3c 3a98 133e 95b2 a2be
00000040: 7680 2ebe 6425 1c3e e1b4 803d 1aab d6be
00000050: a063 fc3d 322b b63d 6c89 c2bd 9b1a 2f3e
00000060: 4873 91bd cdd2 5b3e 9673 be3e 2f1a 803e
00000070: 814c b03d a12a 30bd 1b6d 013e 0c88 e1bd
00000080: f272 543e b4f3 d9bd c85a 9cbd 92d9 62bd
00000090: 1abb a6be eb84 ce3d 093b 763e 37af 54be
000000a0: 879b 6dbe ec83 033e b96c 683e b14e df3d
000000b0: ef88 edbd 42ce 473e 40eb 1dbe b063 2d3d
000000c0: 21e4 783e ee86 8ebe 88cd 1d3e 3075 9b3e
000000d0: dc0a f5bd 843b 46bd c149 d0bd fa1d 7abe
000000e0: 5d2f dcbd 7fdd 0ebe 1339 a63e 57b7 a7be
000000f0: 7ed8 90be c6c5 7f3b 1ecf 4c3e 0c48 d1bd
00000100: b7f6 b4bd 8ec4 9fbe 522c 0d3e a9a7 89be
00000110: 3233 a4bd 8c01 663e e5d0 3c3e 70ce c7bd
00000120: de46 adbe bdec a23e cebf 96be 5285 0f3e
00000130: 8435 ccbc 02b7 983e e43d 9fbe ae59 8bbe
00000140: 59b1 753b c58b 993d f72b 5e3e 35a9 343d
00000150: 0d0a ec3d 5f41 9a3e a8a1 733c f711 08be
00000160: 9b6f c2be e3f6 65be 76a3 1ebe e1f2 0fbe
00000170: ce45 1cbe 0df6 4a3d 1f01 0a3d 253e ea3e
00000180: 1244 803e 7d91 05bd 1b89 3e3e 7242 a6be
00000190: 81d6 c53c 5981 a2be 15cd b13d 9b61 3e3c
000001a0: f45e df3d 5ab8 b9bd 3dc8 8c3e 0a20 dabd
000001b0: 9ae1 06be 5b54 4d3d ea88 6f3e d7ed a5be
000001c0: f0fe 0dbd 8c5c 503e dbc5 533e 42ee 383c
000001d0: b189 c43c db15 bf3e 88f2 5e3e f389 f93d
000001e0: 108b 5d3e c051 55be d1f4 ddbd 2c48 77bd
000001f0: 79e3 b23e abc6 65be 5dbc 3a3c 7bb1 703e
-0.13117264 -0.1776698 -0.3258327 -0.18311433 0.22343138 0.34864184 0.2381572 -0.18213339
0.23366152 0.29326335 -0.17487907 -0.15819322 -0.1389172 0.02703654 0.14413539 -0.31776872
-0.17041191 0.15248638 0.062845 -0.41927415 0.123236895 0.088949576 -0.094988674 0.17099993
-0.07102066 0.21467133 0.3719756 0.25019976 0.08608342 -0.043009404 0.12639277 -0.11012277
0.20746973 -0.10642186 -0.07634503 -0.055383272 -0.32564622 0.10083946 0.24045958 -0.20769964
-0.2320386 0.12843293 0.22697724 0.10903681 -0.11598384 0.19512275 -0.15421772 0.042331398
0.24305774 -0.27837318 0.15410435 0.30362844 -0.11964962 -0.048396602 -0.101703174 -0.24425498
-0.10751221 -0.13951682 0.3246542 -0.32757065 -0.2829017 0.0039027794 0.20000884 -0.1021882
-0.088361196 -0.31204647 0.13786438 -0.26885727 -0.08017577 0.22461528 0.18439062 -0.09756172
-0.3384313 0.31821242 -0.2944321 0.14015701 -0.024927862 0.29827124 -0.31101906 -0.27216858
0.003748974 0.07497362 0.21696459 0.04410668 0.115253545 0.30128 0.014870085 -0.13288103
-0.37975773 -0.22457461 -0.15492043 -0.14057495 -0.15261003 0.04955106 0.033692475 0.45750538
0.25051934 -0.03260945 0.18606989 -0.3247257 0.024150135 -0.3173931 0.086816944 0.011619951
0.10906783 -0.090683654 0.2749652 -0.10650642 -0.13171998 0.050129276 0.23392072 -0.3240802
-0.034666955 0.20347804 0.20680945 0.011287274 0.023991438 0.37321362 0.21772206 0.12184515
0.2163508 -0.20831966 -0.10837711 -0.060371563 0.34939173 -0.22439067 0.011397448 0.23505203

arith.constant7 f4 [64, 128]
00000000: a2f0 8ebb c217 33bc 7f5c 5dbe bda5 843d
00000010: 54ed f6bc 6785 853d a997 07bd 54a0 333e
00000020: 7311 81be 69c8 a3be 2f26 02be 451f 7abd
00000030: d2e7 1c3d 4591 1b3e 64d4 dc3d 8264 1a3d
00000040: 96fe afbd e3cb 2dba bd53 aabd ab72 513d
00000050: 9165 b5bd ff9e 8c3c 31b7 bf3c 617a b0bd
00000060: 5725 48bc f10a 443e 329f 133e 6236 90bd
00000070: 1c40 193e 305e 3bbd 2c31 5fbd 506b 23be
00000080: c07c 993d 39d9 443d c386 b23c db78 9c3d
00000090: ac23 de3b 4b37 dd3d 3c24 c0bd 0561 1fbd
000000a0: 6f13 f0bd 661f 5e3d 5937 81bc 81ab 14bd
000000b0: 4e54 173e f631 023b 17a8 403d c3eb 1d3d
000000c0: 8ba3 033e a490 073e 5d5e 393c 58bf 283e
000000d0: 9a2f 24bd b102 7b3d 3b87 33be 49cb 963d
000000e0: 4fe7 723d 6ccb 4cbc 24aa 01be 327e 0dbd
000000f0: 5955 1a3e 580e 5e3c 7c30 6dbd aaac 743d
00000100: e39c bebd 6f33 363b d164 473e 8645 f6bd
00000110: 8fe9 e5bd 0732 3c3e 4b18 533e 7c08 8e3d
00000120: 11cf b83d f5f0 f33c 6545 8fbd 2af3 15bd
00000130: 288e db3d 6de8 883d b424 ac39 7800 cebc
00000140: 1059 16be 94cf aa3d b2ef e33d 4d0f 04be
00000150: dd8e 5d3d 4959 22bd 9064 193e c8ae 8b3d
00000160: de4f dcbd 6159 a53d 39a3 7ebb 8966 0dbe
00000170: 81ee eb3d 33b6 97bd 9b42 453e 32fd 8dbd
00000180: 9a5a 6ebd e736 203e 09c3 0a3e ee2b c53d
00000190: ee07 163c 34c6 053d 5e0d a0bd 73e9 f9bd
000001a0: 92da 3f3e 271c 973d f524 233e fb86 fb3d
000001b0: 43d9 fc3c aa40 b83d 1cae 01be e02d b4bd
000001c0: b7a1 343d 3677 91bd b180 b43d 20f7 1d3e
000001d0: 16a1 20be 2b81 91bd 21a4 85bd 227d 313e
000001e0: 03d5 f43c 50e3 0bbe 09a4 ba3d b49a bbbc
000001f0: f7f8 3cbe b0f2 fb3d ba2d 263e 5f7f c43d
00000200: 3d7c 013e 6cac 58bd b5f6 bc3d c36f 26be
00000210: e6aa 37be 8224 7a3d 572b 4ebe 0c45 8dbd
00000220: b56e 873c 48a7 203e ee96 9e3d 917c 203d
00000230: 0b76 583d e460 c3bd 4ecf 1f3e 530b 85bb
00000240: 8a91 a73d 89f3 5abe c176 d5bd f3a8 d4bd
00000250: f4a1 43bd 0673 91bd 819f d83d a9bc bc3d
00000260: 9bfc 163e f3dc c1bd 688b 44be 8c28 adbc
00000270: 459f 2bbd b989 c23d 441b 403d 2d4d 683d
00000280: fd02 24be 9697 0c3d 21d1 a53c 0a43 913d
00000290: 1e31 e13d 861b 4ebd 02d7 86bc dc31 143e
000002a0: fe0e 1fbd 82c6 15be 370e b1bc 4c86 9d3d
000002b0: 59f8 2b3e 9b51 6a3c bea3 f43d 6f62 7dbd
000002c0: 4870 79be 3adc a03c 6725 1bbd 068f 963d
000002d0: ad31 d83d fdfb 503c 09b3 0bbd 6929 163c
000002e0: 1b62 0c3e 555d 7cbd b39d 0abb 6373 133e
000002f0: cd61 f9bd c9ff c13d f0c2 8bbd dd60 0abe
00000300: a121 aabd 8cd1 9dbe 1f21 963d 5142 c6bd
00000310: 4d1c ffbd 03a3 913d 093f a4bd 4714 03be
00000320: c9d5 f23d 1299 1fbd e972 f7bd 4427 e93c
00000330: 8e9b 263d 3a68 143e 1fb6 08be 595c 433d
00000340: 22df 5c3d ddb8 d63d e61a f5bd a400 d9bd
00000350: a9f1 103e 6639 8f3b 41ef 25be d19b 02be
00000360: 1062 363d ce6e 583b 5cf3 bf3d 9bef 183e
00000370: a77d 8e3d 35ff 0d3d 123a 803d a6c3 2cbe
00000380: 1539 dfbc 31be 98be 6487 f7be e7db a0bd
00000390: 6cdb a9bd 9202 efbb d3f4 dbbb b28a b33d
000003a0: e47d 8a3d 8ce7 cbbd 7426 a43c e54e 8abe
000003b0: bd71 003e ec0e 5a3d 66af 523d b2ba c93c
000003c0: 5d30 ad3d 8308 163e 0e28 3f3d 453f dd3c
000003d0: 5842 89bd baf7 a5bd 847a 193e 111b 07be
000003e0: ed7c e93d ae5b 56bd 7a15 663e 6b4a 65be
000003f0: 58ed e6bd ee5a 26be 4812 14be cd33 023d
-0.0043621818 -0.010930957 -0.21617316 0.064769246 -0.030142464 0.06519585 -0.03310362 0.17541629
-0.25208625 -0.31988838 -0.12709878 -0.061064977 0.03830702 0.15192135 0.10782698 0.037693508
-0.0859348 -0.0006629808 -0.08316753 0.051134747 -0.08857263 0.017165659 0.023402782 -0.08617092
-0.012215934 0.19144799 0.14416197 -0.07041623 0.14965862 -0.04574412 -0.054490253 -0.15958905
0.07494497 0.048058722 0.021792775 0.07640239 0.0067791548 0.10801562 -0.09381911 -0.038910884
-0.11722457 0.054229163 -0.015773462 -0.03629637 0.14778253 0.0019866205 0.047035303 0.038554918
0.12855355 0.1323877 0.011314002 0.16479242 -0.04008446 0.061281864 -0.17532055 0.07362992
0.059302624 -0.012499671 -0.1266256 -0.034544177 0.1507162 0.0135532245 -0.057907566 0.059734978
-0.093072675 0.0027801653 0.19472052 -0.12024979 -0.112261884 0.18378459 0.20614736 0.06935212
0.0902387 0.029777983 -0.06995658 -0.036608852 0.107204735 0.06684957 0.00032833742 -0.025146708
-0.14682412 0.08340374 0.11129703 -0.12896462 0.054091323 -0.03963593 0.14979768 0.06820446
-0.10757421 0.08073688 -0.0038854613 -0.13808645 0.115201004 -0.074077986 0.19263689 -0.06933059
-0.058191873 0.15645944 0.13550963 0.096275195 0.009157164 0.032659724 -0.078150496 -0.1220273
0.18735722 0.073784165 0.15932067 0.12281605 0.030865317 0.08996709 -0.12664074 -0.087978125
0.044099536 -0.07102816 0.088136084 0.15426302 -0.1568645 -0.07104715 -0.06525446 0.1733289
0.029886728 -0.13660932 0.091133185 -0.022900917 -0.18454348 0.12302148 0.16228381 0.095946066
0.1264505 -0.05289881 0.09226743 -0.16253571 -0.17936286 0.061069973 -0.2013372 -0.06897935
0.016532281 0.15688813 0.07743631 0.039181296 0.05284695 -0.09539965 0.15606424 -0.004060188
0.08182056 -0.21381964 -0.10423041 -0.10383787 -0.047761872 -0.07102017 0.10577298 0.092156716
0.14744799 -0.09465971 -0.19193804 -0.021137498 -0.041899938 0.09498925 0.046901003 0.056714226
-0.16016765 0.03432425 0.020241322 0.07092865 0.109956965 -0.050319217 -0.016459946 0.14472145
-0.038832657 -0.14626506 -0.021613223 0.07691631 0.16793956 0.014301683 0.11945294 -0.06186145
-0.24359238 0.019636262 -0.037877467 0.07351498 0.1055635 0.012755391 -0.034106288 0.009165146
0.137093 -0.061612446 -0.0021151125 0.14399485 -0.12176857 0.09472615 -0.06824291 -0.13513513
-0.083071955 -0.30823934 0.07330536 -0.096806176 -0.1245657 0.0711117 -0.080198355 -0.12800704
0.118571825 -0.03896434 -0.12082464 0.028461106 0.040675692 0.14492884 -0.13350724 0.04769549
0.053923734 0.104844786 -0.11968021 -0.10595825 0.14154686 0.004370856 -0.1620455 -0.12754752
0.044527113 0.003302503 0.09372589 0.14935152 0.0695756 0.034667213 0.06261076 -0.16871509
-0.027248899 -0.29832605 -0.48345482 -0.07854443 -0.082938045 -0.0072940076 -0.006712535 0.087666884
0.06762293 -0.099562734 0.020037867 -0.27013317 0.12543388 0.053236887 0.051436804 0.024625156
0.0845649 0.14651684 0.04666906 0.027007708 -0.06702107 -0.08103891 0.14988142 -0.13193919
0.11400781 -0.052333526 0.2246913 -0.2239167 -0.112757385 -0.16245624 -0.14460099 0.031787682

arith.constant8 f4 [128, 128]
00000000: dd1f 17be b7bc 943c 709c cfbc d3c8 8e3c
00000010: cfd2 c9bb fcca a3bd 2168 fcbc 767b e9bd
00000020: 611a 0e3e 1fd5 93bd c068 f13d 9d26 18bd
00000030: a327 19be e01d 8ebd f197 7a3d c213 aabd
00000040: 7b48 babd 59d7 efbd 6d38 79bd 8dcf 5cbb
00000050: a121 46be 389c 413d 420f a03d 5f72 653d
00000060: 45e4 fabd b95e 063e 749b 183e 4dda b53d
00000070: 9c02 1dbd e839 0cbe b1b4 27be 9ae7 003d
00000080: c16a 50bd 613e f1bd 5ee9 cabc 16f5 ba3d
00000090: ed11 c4bd ac00 883c ad02 f43d 40f8 16be
000000a0: dbc3 4cbd 059a 833d afca a8bd 6c8c 13be
000000b0: aa45 a83d cd42 49bd 3574 1fbe 48dc df3d
000000c0: 5b47 61bd a7df ff3d 425e 74bd a891 18be
000000d0: b3fa 423c 2474 42bd 0a6d 24bd 0b46 88bd
000000e0: d128 6d3d 8fbf 13be 2183 653d 5dad 17bd
000000f0: 6fe0 00be a48f 0d3c d2bb 2d3c bb7a d1bd
00000100: 75bc 50bd 3fe0 fabd 0e7d 153e f761 16bd
00000110: 795c 3bbe 5252 d83d 4e73 b8bd d42b b63d
00000120: a8b4 ec3d c891 5c3d 98ca 0f3e 1c21 1abe
00000130: a2e1 eb3d 0519 8a3c 07ac 02bd 58d0 663d
00000140: 5b0a e1bb 5cf0 f53d 7a2e 313d c2ac c6bd
00000150: 1f6e 043e 996b f5bd 5fd9 913d c831 95bd
00000160: 3180 9f3d 67a8 4bbd 07c6 12be 02d6 31bd
00000170: 43b5 1b3e 043c 843c b102 e53b 51b0 1c3d
00000180: e209 233d 51bd c53d 39ad 823d 05fe 573d
00000190: 9ae8 d43d 8beb 0f3d 623b 89bd 13f5 cb3d
000001a0: 5708 b53c 9a11 9a3d b0b7 013e 0ba9 a1bc
000001b0: 92a2 dc3c e0a6 33bd 91e5 b2bb 1ce4 30bc
000001c0: 150c 983d 4380 ffbd 9012 06be e020 1cbe
000001d0: 7364 35bc 0d42 5ebd 1bde ea3d 36a5 0dbd
000001e0: 1b2e 23be 4164 833b f40e 1abd c8a6 c2bd
000001f0: 244a 393c edeb 1dbe 1ba0 f4bd 761d d63d
00000200: b203 70bb 49bc 48be d831 7a3d 7544 81bd
00000210: 6b4f 1abe 9396 c53c c3cb 58bc 5d82 a53d
00000220: 426e c13c 83d6 3e3d 2410 ce3d 5afb 3ebe
00000230: a9ff aabd c544 3e3c 1c2b 83bd 105e 06be
00000240: fd99 3ebe 52cf 68bd aeec cdbd 754a cabd
00000250: 07ce a93d 648e 983c d992 d83d 3954 6aba
00000260: e842 0fbd a00c 01bd 998f 8d3d cf6b 0c3d
00000270: ef76 8cbd 6ac3 b53d 9a1a 2cbc 53ef a3bd
00000280: 1616 733c 01e1 bdbc 839d 3bbd b38a 0c3c
00000290: 49c0 063e c321 44bd 3701 a9bd fcd9 e23c
000002a0: 0b56 97bd 27ef b1bd 24ab 133c f566 a33d
000002b0: 9fcc 24bd 31a6 1dbd 794b b9bd cc04 9e3d
000002c0: 2a04 07be 31b6 16be 1bde d0bd 75e2 eebd
000002d0: ca85 49bc b1be 93bd f004 93bd 8cf5 debd
000002e0: e53f c13d 0635 4d3b f66a 833d a901 64bd
000002f0: ad23 3fbc cf76 213e de1b 25bd bfe0 bd3d
00000300: b061 ecbb ed07 93bd e882 913d 8605 d43d
00000310: 17ef c33d c5ed a1bd 0459 bc3d 6611 10be
00000320: b83c 0dbe 4adb 7bbb e306 163e aca3 083e
00000330: e41f dd3d 957b 0e3e e77f b13c b416 943d
00000340: 7f28 a33b 08ea 133d 9d4a 35ba cbeb f2bc
00000350: 4367 efbd 6ee5 d8bd 6e5f b2bc e753 b93d
00000360: 74b7 a63d 7643 42bd cb71 893d 0e09 ebba
00000370: df64 293e 4ccc 14bb c6ff 21be 91a9 c73d
00000380: 7f70 1cbe c975 123e 8ae3 e43c b2fc 41be
00000390: 0b39 283d e503 8a3c ecb8 cabd 4179 a9bd
000003a0: 7f7e 8f3d e54b 14be a3df b1bd 6a13 cebd
000003b0: b3b4 e5bd fcb6 e8bd d0a5 483e b91a 01be
000003c0: 0e8b bcbd 8384 b1bd 0f6c b23d 6bac 963d
000003d0: 5597 083d 998c 0bbe 47e4 e2bd 8d7d 4dbc
000003e0: 2b9e 113e f8d7 3bbd 5754 86bc dfff 62be
000003f0: 43ee 63bd ff1b d5bd 2954 23bd 0492 5abd
-0.14758249 0.018156392 -0.02534315 0.017429745 -0.0061591635 -0.079977006 -0.030811371 -0.114005014
0.1387725 -0.07218384 0.117875576 -0.0371462 -0.14956526 -0.06939292 0.06118006 -0.0830455
-0.09095856 -0.11710996 -0.060844827 -0.0033693046 -0.19348766 0.047268122 0.0781541 0.056017276
-0.1225057 0.13122071 0.1490305 0.08879528 -0.038332567 -0.13693964 -0.16377522 0.031470872
-0.05088306 -0.11779476 -0.024769481 0.09128778 -0.095737316 0.016601883 0.11914573 -0.14743137
-0.04999147 0.06425861 -0.08241784 -0.14409035 0.08216412 -0.04913597 -0.15571673 0.10930687
-0.05499969 0.1249383 -0.059660204 -0.14899313 0.011900592 -0.04747404 -0.04014305 -0.06653985
0.057900254 -0.14428543 0.056033257 -0.037030566 -0.12585615 0.008640204 0.010603862 -0.10228487
-0.050960977 -0.12249803 0.14598486 -0.03671452 -0.18296994 0.10562576 -0.090063676 0.08895078
0.11557895 0.053849965 0.14042127 -0.15051693 0.115176454 0.016857633 -0.03190234 0.056351036
-0.0068676895 0.120087355 0.043257214 -0.0970092 0.12932633 -0.11983413 0.07121538 -0.07284886
0.077881224 -0.049721148 -0.14333354 -0.043416984 0.15205865 0.016141899 0.006988846 0.038254086
0.039804347 0.0965525 0.06380696 0.052732486 0.10395928 0.03513674 -0.067007795 0.099588536
0.022098703 0.075228885 0.12667727 -0.019733926 0.026932988 -0.043860316 -0.0054594954 -0.010796573
0.074241795 -0.12475636 -0.13093019 -0.15246916 -0.011071312 -0.05426221 0.114681445 -0.034581386
-0.15935557 0.004009754 -0.037611917 -0.09504467 0.01130918 -0.1542203 -0.119446 0.10454838
-0.0036623296 -0.19603075 0.06108269 -0.06311885 -0.15069358 0.024119651 -0.013232174 0.080815054
0.023612145 0.046591293 0.10061672 -0.1865057 -0.083495446 0.011613076 -0.06404707 -0.1312182
-0.1861343 -0.05683834 -0.10054909 -0.09877483 0.0829125 0.018622585 0.10574884 -0.0008938942
-0.034975916 -0.03150618 0.06912155 0.0342825 -0.06858622 0.08875163 -0.010504389 -0.08004632
0.014836809 -0.02317858 -0.04580451 0.00857799 0.13159288 -0.04788376 -0.08252185 0.027691834
-0.07389458 -0.08688193 0.009012971 0.07978622 -0.040234204 -0.03848857 -0.090475984 0.07715759
-0.13185182 -0.14717938 -0.10198613 -0.11664287 -0.012299964 -0.07214106 -0.07178676 -0.10886678
0.09436015 0.0031312122 0.064168856 -0.055665646 -0.011666221 0.15767978 -0.04030978 0.092713825
-0.0072137937 -0.07179246 0.071050465 0.10352616 0.09567087 -0.07906679 0.09196666 -0.14069137
-0.13792694 -0.0038430267 0.14651065 0.13343686 0.10797098 0.1391433 0.021667434 0.07230893
0.0049791927 0.03611186 -0.00069157203 -0.02965345 -0.116896175 -0.10590635 -0.02177402 0.09049206
0.0814046 -0.047427617 0.067111574 -0.0017931776 0.16542386 -0.0022704778 -0.15820226 0.09749139
-0.15277289 0.14302744 0.02794053 -0.18944052 0.041070025 0.01684756 -0.09898552 -0.082750805
0.07006549 -0.14482076 -0.086852334 -0.10062297 -0.11216106 -0.113630265 0.19594502 -0.1260785
-0.0920621 -0.08667853 0.08712017 0.07357105 0.033347446 -0.13627852 -0.11078697 -0.012542141
0.14220493 -0.04586026 -0.016397638 -0.2216792 -0.055647146 -0.104057305 -0.039875183 -0.053361908

arith.constant9 f4 [2]
00000000: 1606 ea3c 240c 30bd
0.028567355 -0.04298033

arith.constant10 f4 [128]
00000000: f9c3 5abc 37b5 bc3d 09be 403e b9b9 bf3d
00000010: 599f 553b 439d 133e 5070 313d 8748 f73d
00000020: 5cc9 033e 0038 b9bd 4d71 1a3d 3e71 0e3e
00000030: be09 883d 3b72 ae3d f30d 9c3d 770d 4bbd
00000040: 4bb3 903d 61eb b03d cf38 9fbc d9c9 d73d
00000050: 91fe 85bc f407 e33d 2c0e 1db9 80d6 3c3d
00000060: ffed 253e c993 8f3d 1e78 4b3c 5c93 803e
00000070: bb09 023d 6cf1 123e 61d6 1cbd d0c3 3e3d
00000080: 53a0 0b3e 6920 1b3d 4dc6 68bd 5b95 263e
00000090: eb6d 3abd 89ae 89bd 1855 b53d 98e5 613c
000000a0: 3ff3 523c 472d 3fbd d8e6 bf3c e888 5e3d
000000b0: e3e9 acbc f407 b5bc 966c 2f3e ac85 d43d
000000c0: 7572 a73d 9e27 9b3b ab95 d53b 4266 20bb
000000d0: d4f4 ca3d ddaa 1a3e f0cd 69bd f5e6 d33d
000000e0: acec 2a3d a106 8fbd df04 80bc dfc6 ce3d
000000f0: ea35 e03d f6f2 0b3e 50b1 acbc ce96 103e
00000100: 4746 cd3d 2f89 953d 9c04 093e c880 15bd
00000110: d676 04bd 06b2 95bc 6683 d33d f587 df3d
00000120: 1105 ba3d 0abd f33d 8a02 f13d da47 f53c
00000130: db7a 513d 3bf0 fc3d bdca 143d c06b 8f3d
00000140: 4118 1a3e 189c 33bd 5c66 e53d aac1 1abd
00000150: 377b 813d f0d8 a9bc 36c5 133e cc46 503e
00000160: c88b 343d 3ae3 8dbd c686 60bb 4258 35bd
00000170: c42c 8abd 580e 013e ed48 c7bc bb22 f8bc
00000180: 46fd 27bd 5151 723d 3ba6 bf3d 797e 133e
00000190: 1847 3fbd e9d6 853d 6a3d 4fbd 8760 153e
000001a0: 017b 8bbc be0a aa3d 31ab aa3c d9f3 2e3d
000001b0: e9f2 27bd b2ec 1e3d 235b 7e3e 7683 0cbd
000001c0: 9b22 443e fb4a af3d 0d49 473d 8619 d23c
000001d0: 1db6 43bd b4c8 c5bc dd36 0bbd 8a26 86bb
000001e0: e6fd 733e 431e 063e ed32 223e a050 dabc
000001f0: c34f 60bb 3fa5 14bd c393 5c3e 03f4 103e
-0.013352388 0.092142515 0.18822493 0.09361596 0.00325962 0.1441546 0.04332 0.1207438
0.12869781 -0.09043884 0.03770571 0.13910386 0.06642483 0.085178815 0.07619848 -0.049573388
0.070654474 0.08638645 -0.019436268 0.10536546 -0.016356738 0.11085501 -0.00014977966 0.046103
0.1620407 0.0701061 0.012418775 0.25112426 0.03174756 0.14349908 -0.038290385 0.04657346
0.13635378 0.037872706 -0.05682974 0.16267912 -0.045514982 -0.06722743 0.08854121 0.01378765
0.012875377 -0.04667404 0.023425505 0.054329783 -0.02110762 -0.022098519 0.17131266 0.103770584
0.08176128 0.0047349473 0.006518086 -0.0024475013 0.099099785 0.15104242 -0.057081163 0.10346786
0.041729614 -0.06983686 -0.015627323 0.100965254 0.10947783 0.13666901 -0.021080643 0.14120027
0.1002317 0.07301556 0.13380665 -0.03649977 -0.032339893 -0.018273365 0.10327797 0.109146036
0.090829976 0.11901291 0.117680624 0.029941488 0.051142555 0.12350508 0.03632616 0.070029736
0.15048315 -0.043850034 0.11201164 -0.03778235 0.063223295 -0.020733327 0.14430699 0.20339507
0.04407862 -0.06928106 -0.0034260019 -0.044273622 -0.067468196 0.12603128 -0.024326766 -0.030289998
-0.041013025 0.05915958 0.09357878 0.14403714 -0.04669866 0.065351315 -0.05059568 0.14587604
-0.017026426 0.0830283 0.020833584 0.04271302 -0.04100314 0.03879995 0.24839453 -0.03430506
0.19153826 0.08559223 0.04865365 0.025646936 -0.0477811 -0.024143554 -0.03398787 -0.0040939497
0.23827323 0.13097481 0.15839739 -0.026649773 -0.003422723 -0.036290403 0.21540742 0.14155583

arith.constant11 f4 [64]
00000000: bd64 32be 0ab2 5f3e 7138 863e fdb1 51be
00000010: da96 cebd 817e 883e b4d8 5a3e 7366 273e
00000020: 1f03 603e 09f4 7c3e 87f4 563e d145 43bc
00000030: 91d5 7ebd 6377 b8bd 9a97 6a3e 1a2a 853e
00000040: 1c97 453e d47f 11bd 2d35 483e baff 663e
00000050: 620d cf3d c4e1 7c3e a41a b8bd d9c3 a5bd
00000060: f516 7f3e c7e2 7fbe 2b77 6c3e 6a35 3ebe
00000070: f19a 073e 3bec 833d 17d7 3abe 7fb4 913e
00000080: d05e 333e 6e28 8b3d 9ada 5cbe 40f8 433e
00000090: 1c14 5dbe de35 5ebe 0c27 5c3e 5546 583e
000000a0: b139 53be de51 033e 58b1 6ebe a6ab 8a3d
000000b0: bde4 1b3e 9d40 b9bd b17d 29be b79f 8a3e
000000c0: fd5e 3b3e 4bd1 6b3e 1dc7 693e bc65 683e
000000d0: 6ec7 b1bc 3f59 8d3e 53aa 44be 0162 043e
000000e0: cb61 c7bd be85 4e3e 0ac9 5a3e 2a6b 773e
000000f0: f543 923e ad27 a03d db99 44be f908 2ebe
-0.17421241 0.2184526 0.26214936 -0.20478053 -0.100873664 0.26659015 0.21371728 0.16347675
0.2187619 0.24702467 0.20991717 -0.011918501 -0.06221539 -0.09007146 0.22909394 0.26008683
0.19295925 -0.035522297 0.19551535 0.2255849 0.101099744 0.24695498 -0.08989456 -0.080939956
0.24911101 -0.24988852 0.23092334 -0.18575063 0.13242699 0.06441542 -0.18246113 0.2845802
0.17516637 0.06794821 -0.21567765 0.19137669 -0.21589702 -0.21700236 0.2149927 0.2112058
-0.20627476 0.12824199 -0.23309839 0.067710206 0.15223975 -0.09045527 -0.16551854 0.27074978
0.18297954 0.23029058 0.22829862 0.22695059 -0.02170154 0.27607152 -0.19205599 0.1292801
-0.097354494 0.20168206 0.21365753 0.24161974 0.28567472 0.078200676 -0.19199316 -0.1699561

functional_1/batch_normalization_1/batchnorm/mul f4 [3]
00000000: 6e22 903b f103 8f3b 89e2 493b
0.0043986356 0.0043644835 0.0030805191

functional_1/batch_normalization_1/batchnorm/sub f4 [3]
00000000: de9b 22bf 82af 1cbf 7d68 b7be
-0.63519084 -0.61205304 -0.35821906
