ana-cont_16.00.01_s0_q.tflite (tflite, 151280 bytes, 10 tensors)

tfl.pseudo_qconst1 i1 [2, 64] scale=0.002080719 zero_point=0
00000000: 03ad 90a7 f218 fd41 e969 db2a 4934 e21a
00000010: 0e1a e632 c8fc 01b9 071b db46 ab14 47e1
00000020: f55b f309 ec36 16a5 f668 abce 1aed e7b7
00000030: db26 1033 43e1 dc14 f9ff f718 ca15 e00e
00000040: e103 c5f6 57f9 cadf 23ec acd1 a14a f663
00000050: 2aea ff38 cd40 99fb dfa4 47e6 3415 3033
00000060: 1409 ea04 d803 e5ca 0a14 2b08 5581 e040
00000070: f1b0 e20f 4a43 fa15 1b15 29d8 b6f9 c7ec
0.006242157 -0.17269967 -0.23304053 -0.18518399 -0.029130066 0.049937256 -0.006242157 0.13524674
-0.047856536 0.21847549 -0.0769866 0.0873902 0.15189248 0.10819739 -0.062421568 0.054098696
0.029130066 0.054098696 -0.054098696 0.10403595 -0.11652026 -0.008322876 0.002080719 -0.14773105
0.014565033 0.05617941 -0.0769866 0.14565033 -0.1768611 0.04161438 0.14773105 -0.06450229
-0.022887908 0.18934543 -0.027049348 0.018726472 -0.04161438 0.11235882 0.045775816 -0.18934543
-0.02080719 0.21639478 -0.1768611 -0.10403595 0.054098696 -0.03953366 -0.052017976 -0.15189248
-0.0769866 0.07906732 0.033291504 0.10611667 0.13940817 -0.06450229 -0.07490589 0.04161438
-0.014565033 -0.002080719 -0.018726472 0.049937256 -0.11235882 0.0436951 -0.06658301 0.029130066
-0.06450229 0.006242157 -0.12276242 -0.02080719 0.18102255 -0.014565033 -0.11235882 -0.068663724
0.07282516 -0.04161438 -0.1747804 -0.097793795 -0.1976683 0.1539732 -0.02080719 0.20599118
0.0873902 -0.045775816 -0.002080719 0.11652026 -0.10611667 0.13316602 -0.21431406 -0.010403595
-0.068663724 -0.19142614 0.14773105 -0.054098696 0.10819739 0.0436951 0.09987451 0.10611667
0.04161438 0.018726472 -0.045775816 0.008322876 -0.08322876 0.006242157 -0.05617941 -0.11235882
0.02080719 0.04161438 0.089470915 0.016645752 0.1768611 -0.26425132 -0.06658301 0.13316602
-0.031210784 -0.16645752 -0.062421568 0.031210784 0.1539732 0.13940817 -0.012484314 0.0436951
0.05617941 0.0436951 0.085309476 -0.08322876 -0.1539732 -0.014565033 -0.11860098 -0.04161438

tfl.pseudo_qconst3 i1 [64, 128] scale=0.0011158731 zero_point=0
00000000: 1700 fde5 02e4 effd dee2 0cf9 eaf3 23fb
00000010: ee00 ea14 fcec fe0e f1f5 f6f1 1c02 fe06
00000020: ffff 0cee 0df6 fcf5 fafd f708 fd12 f5de
00000030: 06f2 fdf8 08fc f1d8 f8ed f7fb 02e8 e0da
00000040: ece7 f302 faee fd16 ece0 f506 f610 e915
00000050: f71c f401 0507 f6ea f516 fd03 e9de 0bec
00000060: 0ee4 fbec fef3 fa0b 0deb f805 f014 0404
00000070: 01f9 edec 08f0 f107 10f5 fb05 fbfc 04e3
00000080: 1406 e3e1 dc0b f107 0b03 0e08 e8f4 17e5
00000090: 05f5 fbe6 e5f4 f028 0ed3 0f01 0a04 ecf2
000000a0: 0707 f4ff 0f0c 0f09 d8e1 e90d 04f2 e1e6
000000b0: fc09 f506 f0fd 0afe f0e2 f000 f8f9 dfd1
000000c0: f5e7 f30c ee0c 19e4 fe02 e903 efef 021d
000000d0: 0a0a 010e effe 01ff 070a 19fe 0dd5 0a04
000000e0: 1c09 16eb f30d f9fb f8d8 e103 ee14 bfdc
000000f0: 060d c7d2 bfe1 f6fc ecf8 dff6 f120 f5db
0.025665082 0.0 -0.0033476194 -0.030128574 0.0022317462 -0.031244447 -0.018969843 -0.0033476194
-0.037939686 -0.033476193 0.013390478 -0.007811112 -0.024549209 -0.01450635 0.03905556 -0.0055793654
-0.020085717 0.0 -0.024549209 0.022317462 -0.0044634924 -0.022317462 -0.0022317462 0.015622224
-0.016738096 -0.012274604 -0.011158731 -0.016738096 0.031244447 0.0022317462 -0.0022317462 0.006695239
-0.0011158731 -0.0011158731 0.013390478 -0.020085717 0.01450635 -0.011158731 -0.0044634924 -0.012274604
-0.006695239 -0.0033476194 -0.010042858 0.008926985 -0.0033476194 0.020085717 -0.012274604 -0.037939686
0.006695239 -0.015622224 -0.0033476194 -0.008926985 0.008926985 -0.0044634924 -0.016738096 -0.044634923
-0.008926985 -0.021201588 -0.010042858 -0.0055793654 0.0022317462 -0.026780955 -0.03570794 -0.042403176
-0.022317462 -0.027896827 -0.01450635 0.0022317462 -0.006695239 -0.020085717 -0.0033476194 0.024549209
-0.022317462 -0.03570794 -0.012274604 0.006695239 -0.011158731 0.01785397 -0.025665082 0.023433335
-0.010042858 0.031244447 -0.013390478 0.0011158731 0.0055793654 0.007811112 -0.011158731 -0.024549209
-0.012274604 0.024549209 -0.0033476194 0.0033476194 -0.025665082 -0.037939686 0.012274604 -0.022317462
0.015622224 -0.031244447 -0.0055793654 -0.022317462 -0.0022317462 -0.01450635 -0.006695239 0.012274604
0.01450635 -0.023433335 -0.008926985 0.0055793654 -0.01785397 0.022317462 0.0044634924 0.0044634924
0.0011158731 -0.007811112 -0.021201588 -0.022317462 0.008926985 -0.01785397 -0.016738096 0.007811112
0.01785397 -0.012274604 -0.0055793654 0.0055793654 -0.0055793654 -0.0044634924 0.0044634924 -0.03236032
0.022317462 0.006695239 -0.03236032 -0.034592066 -0.040171433 0.012274604 -0.016738096 0.007811112
0.012274604 0.0033476194 0.015622224 0.008926985 -0.026780955 -0.013390478 0.025665082 -0.030128574
0.0055793654 -0.012274604 -0.0055793654 -0.0290127 -0.030128574 -0.013390478 -0.01785397 0.044634923
0.015622224 -0.05021429 0.016738096 0.0011158731 0.011158731 0.0044634924 -0.022317462 -0.015622224
0.007811112 0.007811112 -0.013390478 -0.0011158731 0.016738096 0.013390478 0.016738096 0.010042858
-0.044634923 -0.034592066 -0.025665082 0.01450635 0.0044634924 -0.015622224 -0.034592066 -0.0290127
-0.0044634924 0.010042858 -0.012274604 0.006695239 -0.01785397 -0.0033476194 0.011158731 -0.0022317462
-0.01785397 -0.033476193 -0.01785397 0.0 -0.008926985 -0.007811112 -0.036823813 -0.052446038
-0.012274604 -0.027896827 -0.01450635 0.013390478 -0.020085717 0.013390478 0.027896827 -0.031244447
-0.0022317462 0.0022317462 -0.025665082 0.0033476194 -0.018969843 -0.018969843 0.0022317462 0.03236032
0.011158731 0.011158731 0.0011158731 0.015622224 -0.018969843 -0.0022317462 0.0011158731 -0.0011158731
0.007811112 0.011158731 0.027896827 -0.0022317462 0.01450635 -0.047982544 0.011158731 0.0044634924
0.031244447 0.010042858 0.024549209 -0.023433335 -0.01450635 0.01450635 -0.007811112 -0.0055793654
-0.008926985 -0.044634923 -0.034592066 0.0033476194 -0.020085717 0.022317462 -0.07253175 -0.040171433
0.006695239 0.01450635 -0.063604765 -0.051330164 -0.07253175 -0.034592066 -0.011158731 -0.0044634924
-0.022317462 -0.008926985 -0.036823813 -0.011158731 -0.016738096 0.03570794 -0.012274604 -0.041287307

tfl.pseudo_qconst5 i1 [128, 512] scale=0.0045250286 zero_point=0
00000000: f5e5 f412 0805 2b00 f601 0203 ee0d f60c
00000010: f724 0d11 1005 00ec 0f07 f7f5 17ec 000e
00000020: 0a04 f0f9 0801 00ee fb00 0a0a fa16 0b13
00000030: 0500 04fc 03f8 0e10 0711 0805 13ed 1506
00000040: 14fe 09f9 00ff 0dfd 0efd ed00 fffc fe01
00000050: 0d0e 1105 04fa db01 ef14 fd16 010c ff03
00000060: 05e5 e90e 02f0 0e04 1d02 ed11 0e00 f50e
00000070: 051b f902 eb19 ed0e f4ea 0401 f7ee e70f
00000080: f7f8 f6f9 f7f3 00e9 ffff 110c fc09 0b13
00000090: f3f1 03ee 090c 02ed fc0b e7e8 08fd 05f2
000000a0: fa00 ebe3 0ef0 0df4 00fc f503 ff07 fa02
000000b0: 02ee 07ff f3ff fffe e402 f802 f8fc fe09
000000c0: faf9 1605 07f1 f8fd fdfd f4fd 0003 f4f5
000000d0: 0303 0900 eff8 fe04 ed06 0018 06fe 0108
000000e0: dd0c 2111 0415 fe02 e401 d611 0b02 04ea
000000f0: cef9 f6ec 00f1 fd1c c422 fcfa 23ef 1e0d
-0.049775314 -0.122175775 -0.054300345 0.081450514 0.03620023 0.022625143 0.19457623 0.0
-0.045250285 0.0045250286 0.009050057 0.013575086 -0.081450514 0.058825374 -0.045250285 0.054300345
-0.040725257 0.16290103 0.058825374 0.07692549 0.07240046 0.022625143 0.0 -0.09050057
0.06787543 0.0316752 -0.040725257 -0.049775314 0.104075655 -0.09050057 0.0 0.0633504
0.045250285 0.018100115 -0.07240046 -0.0316752 0.03620023 0.0045250286 0.0 -0.081450514
-0.022625143 0.0 0.045250285 0.045250285 -0.027150173 0.09955063 0.049775314 0.08597554
0.022625143 0.0 0.018100115 -0.018100115 0.013575086 -0.03620023 0.0633504 0.07240046
0.0316752 0.07692549 0.03620023 0.022625143 0.08597554 -0.08597554 0.0950256 0.027150173
0.09050057 -0.009050057 0.040725257 -0.0316752 0.0 -0.0045250286 0.058825374 -0.013575086
0.0633504 -0.013575086 -0.08597554 0.0 -0.0045250286 -0.018100115 -0.009050057 0.0045250286
0.058825374 0.0633504 0.07692549 0.022625143 0.018100115 -0.027150173 -0.16742606 0.0045250286
-0.07692549 0.09050057 -0.013575086 0.09955063 0.0045250286 0.054300345 -0.0045250286 0.013575086
0.022625143 -0.122175775 -0.104075655 0.0633504 0.009050057 -0.07240046 0.0633504 0.018100115
0.13122582 0.009050057 -0.08597554 0.07692549 0.0633504 0.0 -0.049775314 0.0633504
0.022625143 0.122175775 -0.0316752 0.009050057 -0.0950256 0.11312572 -0.08597554 0.0633504
-0.054300345 -0.09955063 0.018100115 0.0045250286 -0.040725257 -0.081450514 -0.11312572 0.06787543
-0.040725257 -0.03620023 -0.045250285 -0.0316752 -0.040725257 -0.058825374 0.0 -0.104075655
-0.0045250286 -0.0045250286 0.07692549 0.054300345 -0.018100115 0.040725257 0.049775314 0.08597554
-0.058825374 -0.06787543 0.013575086 -0.081450514 0.040725257 0.054300345 0.009050057 -0.08597554
-0.018100115 0.049775314 -0.11312572 -0.10860069 0.03620023 -0.013575086 0.022625143 -0.0633504
-0.027150173 0.0 -0.0950256 -0.13122582 0.0633504 -0.07240046 0.058825374 -0.054300345
0.0 -0.018100115 -0.049775314 0.013575086 -0.0045250286 0.0316752 -0.027150173 0.009050057
0.009050057 -0.081450514 0.0316752 -0.0045250286 -0.058825374 -0.0045250286 -0.0045250286 -0.009050057
-0.1267008 0.009050057 -0.03620023 0.009050057 -0.03620023 -0.018100115 -0.009050057 0.040725257
-0.027150173 -0.0316752 0.09955063 0.022625143 0.0316752 -0.06787543 -0.03620023 -0.013575086
-0.013575086 -0.013575086 -0.054300345 -0.013575086 0.0 0.013575086 -0.054300345 -0.049775314
0.013575086 0.013575086 0.040725257 0.0 -0.07692549 -0.03620023 -0.009050057 0.018100115
-0.08597554 0.027150173 0.0 0.10860069 0.027150173 -0.009050057 0.0045250286 0.03620023
-0.15837601 0.054300345 0.14932595 0.07692549 0.018100115 0.0950256 -0.009050057 0.009050057
-0.1267008 0.0045250286 -0.1900512 0.07692549 0.049775314 0.009050057 0.018100115 -0.09955063
-0.22625144 -0.0316752 -0.045250285 -0.09050057 0.0 -0.06787543 -0.013575086 0.1267008
-0.27150172 0.15385097 -0.018100115 -0.027150173 0.15837601 -0.07692549 0.13575086 0.058825374

tfl.pseudo_qconst7 i1 [32, 3, 3, 32]
00000000: 03ff f3eb d3f9 f801 c31a e224 2102 13e7
00000010: dbe1 5035 123f dae6 e0f3 a2eb 0909 0ed7
00000020: ee0e f3f8 e814 f801 fe28 c104 0a07 f714
00000030: f81b 127f 0917 df01 0a03 cd03 f6d9 faf8
00000040: f221 02ad de28 effe e4f4 ccb9 2c52 1f1a
00000050: f67f c031 9514 06e6 1bd9 e7f0 e78a dbcc
00000060: fadc ae50 4d10 15eb 03ce cb1c e600 dcee
00000070: 3d16 f905 ebce 1f0b ae11 0bfd f510 d943
00000080: e02c c6db 1951 03ae 332f 0a38 b602 3d12
00000090: 60e4 2003 f021 14f8 bc0c 222b 11e6 3332
000000a0: df10 edf7 e913 1e17 30dc 250b c3e2 4e2e
000000b0: 40d3 1cc9 b115 55e5 c137 015c 0e0b ec2c
000000c0: 46bd caf7 13e2 dec7 09da 19ee 0206 f192
000000d0: e823 23f4 d332 b814 2b0e e714 ed13 dc2a
000000e0: 41c1 be38 08e7 e0ac d246 e3f7 c9d5 d3e5
000000f0: f407 1d10 0c11 e91b e803 f3ed 13c2 3010
3 -1 -13 -21 -45 -7 -8 1
-61 26 -30 36 33 2 19 -25
-37 -31 80 53 18 63 -38 -26
-32 -13 -94 -21 9 9 14 -41
-18 14 -13 -8 -24 20 -8 1
-2 40 -63 4 10 7 -9 20
-8 27 18 127 9 23 -33 1
10 3 -51 3 -10 -39 -6 -8
-14 33 2 -83 -34 40 -17 -2
-28 -12 -52 -71 44 82 31 26
-10 127 -64 49 -107 20 6 -26
27 -39 -25 -16 -25 -118 -37 -52
-6 -36 -82 80 77 16 21 -21
3 -50 -53 28 -26 0 -36 -18
61 22 -7 5 -21 -50 31 11
-82 17 11 -3 -11 16 -39 67
-32 44 -58 -37 25 81 3 -82
51 47 10 56 -74 2 61 18
96 -28 32 3 -16 33 20 -8
-68 12 34 43 17 -26 51 50
-33 16 -19 -9 -23 19 30 23
48 -36 37 11 -61 -30 78 46
64 -45 28 -55 -79 21 85 -27
-63 55 1 92 14 11 -20 44
70 -67 -54 -9 19 -30 -34 -57
9 -38 25 -18 2 6 -15 -110
-24 35 35 -12 -45 50 -72 20
43 14 -25 20 -19 19 -36 42
65 -63 -66 56 8 -25 -32 -84
-46 70 -29 -9 -55 -43 -45 -27
-12 7 29 16 12 17 -23 27
-24 3 -13 -19 19 -62 48 16

tfl.pseudo_qconst8 i1 [32] scale=0.0024528229 zero_point=127
00000000: 2b0e 90ac 28bc def8 dcc0 d341 f3f8 e8ab
00000010: c8e8 c1a5 8fb5 80da f7cf eb1d dcbc 9113
-0.20603712 -0.277169 -0.5862247 -0.51754564 -0.2133956 -0.47830045 -0.3949045 -0.3311311
-0.39981014 -0.46848917 -0.42188552 -0.15207502 -0.3433952 -0.3311311 -0.37037626 -0.51999843
-0.44886658 -0.37037626 -0.46603635 -0.5347154 -0.58867747 -0.49547023 -0.6254698 -0.40471578
-0.33358392 -0.43169683 -0.3630178 -0.24037664 -0.39981014 -0.47830045 -0.5837718 -0.26490486

tfl.pseudo_qconst9 i1 [32] scale=0.0010906743 zero_point=-128
00000000: 2a1a 1e30 7ffd bc0a 2d0e ff24 16d8 f128
00000010: f956 1110 1a1c ef0e 1715 245f e30d fc01
0.18541463 0.16796385 0.17232653 0.19195868 0.27812195 0.13633429 0.06544046 0.15051305
0.18868665 0.15487576 0.13851564 0.17887059 0.16360115 0.09597934 0.1232462 0.18323329
0.1319716 0.23340431 0.15814778 0.1570571 0.16796385 0.1701452 0.12106485 0.15487576
0.16469182 0.16251047 0.17887059 0.24322037 0.10797676 0.15378508 0.13524361 0.14069699

tfl.pseudo_qconst11 i1 [32, 5, 5, 64]
00000000: 1ef8 e2d4 d430 bfda 293f ee21 1d15 0c02
00000010: 3313 ebfd 1117 f21e 2d15 ec1d e3f0 e515
00000020: 0ffd 0230 ec11 f30d 08ef 13d7 fc26 322e
00000030: 021d 0e0f 04cf 2616 d3bc 020d 2114 0404
00000040: 2a0a e8de e324 e2ff 5d29 f819 2511 28ea
00000050: 14f7 2003 e8e2 db1b 1f12 f115 0e16 ef03
00000060: 3802 170d fa01 1518 13f7 1be3 e414 1423
00000070: 00f4 20e3 29c6 14f7 d1d9 f1f4 01ef e70c
00000080: 29d7 d3ed e621 e3f0 150f 00f2 01d6 e9fe
00000090: cbd3 14ea eede ccfa d507 b9e4 06f9 0ecf
000000a0: e223 d40d ceec cdf5 12e2 0ef2 0523 0110
000000b0: dfe7 cb0d f0ea 01cf f5e6 fcd2 ebe2 cde6
000000c0: 0ad0 f4e5 e70d eaeb f1df 1de2 ddd8 f4ea
000000d0: e6ed ed02 cbc0 b90e cadf 0a1a 0af2 05e6
000000e0: d0e8 cfda e7e2 ddfc 1909 e0fe fef6 2105
000000f0: fad9 fbdc 07fd ffce f1d7 ece8 ddea e5d1
30 -8 -30 -44 -44 48 -65 -38
41 63 -18 33 29 21 12 2
51 19 -21 -3 17 23 -14 30
45 21 -20 29 -29 -16 -27 21
15 -3 2 48 -20 17 -13 13
8 -17 19 -41 -4 38 50 46
2 29 14 15 4 -49 38 22
-45 -68 2 13 33 20 4 4
42 10 -24 -34 -29 36 -30 -1
93 41 -8 25 37 17 40 -22
20 -9 32 3 -24 -30 -37 27
31 18 -15 21 14 22 -17 3
56 2 23 13 -6 1 21 24
19 -9 27 -29 -28 20 20 35
0 -12 32 -29 41 -58 20 -9
-47 -39 -15 -12 1 -17 -25 12
41 -41 -45 -19 -26 33 -29 -16
21 15 0 -14 1 -42 -23 -2
-53 -45 20 -22 -18 -34 -52 -6
-43 7 -71 -28 6 -7 14 -49
-30 35 -44 13 -50 -20 -51 -11
18 -30 14 -14 5 35 1 16
-33 -25 -53 13 -16 -22 1 -49
-11 -26 -4 -46 -21 -30 -51 -26
10 -48 -12 -27 -25 13 -22 -21
-15 -33 29 -30 -35 -40 -12 -22
-26 -19 -19 2 -53 -64 -71 14
-54 -33 10 26 10 -14 5 -26
-48 -24 -49 -38 -25 -30 -35 -4
25 9 -32 -2 -2 -10 33 5
-6 -39 -5 -36 7 -3 -1 -50
-15 -41 -20 -24 -35 -22 -27 -47

tfl.pseudo_qconst12 i1 [64] scale=0.009157023 zero_point=91
00000000: 4233 ea07 3c02 7245 20f6 c9d8 3447 f763
00000010: 3d55 f158 ccef d61a 1231 5624 03f8 7fea
00000020: 0b40 eef9 6572 27e8 3d8a 9a1e d351 f11f
00000030: bed9 6480 d64c 36f4 4c33 ade5 4f5f 3029
-0.22892559 -0.36628094 -1.0347437 -0.76918995 -0.28386772 -0.8149751 0.21061154 -0.20145452
-0.54026437 -0.92485934 -1.3369254 -1.1995701 -0.3571239 -0.18314047 -0.91570234 0.07325619
-0.2747107 -0.05494214 -0.9706445 -0.02747107 -1.3094543 -0.98895854 -1.2178841 -0.5952065
-0.6684627 -0.38459498 -0.045785118 -0.5036363 -0.8058181 -0.90654534 0.32965285 -1.0347437
-0.7325619 -0.24723963 -0.99811554 -0.8973883 0.091570236 0.21061154 -0.4761652 -1.0530577
-0.2747107 -1.9138179 -1.7673055 -0.55857843 -1.2453551 -0.091570236 -0.9706445 -0.5494214
-1.4376527 -1.190413 0.08241321 -2.005388 -1.2178841 -0.13735536 -0.33880988 -0.9431734
-0.13735536 -0.36628094 -1.593322 -1.0805287 -0.10988428 0.036628094 -0.393752 -0.45785117

tfl.pseudo_qconst13 i1 [64] scale=0.012388085 zero_point=-128
00000000: d2fa f22b 10fe 569d f32d f335 d8cb 3b4c
00000010: 2cec 4ae7 11d0 bee1 f0d9 2dde d1e1 f0f5
00000020: f2c4 f6fc 022b db32 017f 0ff8 1330 10f5
00000030: 0513 b63f 68f5 eee5 0c09 4729 eb0c d6c4
1.015823 1.5113463 1.4122417 2.1183624 1.7838843 1.5608987 2.65105 0.35925448
1.4246298 2.1431386 1.4246298 2.2422433 1.0901514 0.92910635 2.316572 2.5271692
2.1307507 1.3379132 2.5023932 1.2759727 1.7962723 0.9910468 0.7680613 1.2016443
1.3874655 1.1025395 2.1431386 1.16448 1.0034349 1.2016443 1.3874655 1.4494059
1.4122417 0.84238976 1.461794 1.5361226 1.6104511 2.1183624 1.1273158 2.205079
1.598063 3.1589618 1.7714962 1.4865702 1.8210485 2.1803029 1.7838843 1.4494059
1.6476153 1.8210485 0.6689566 2.3661242 2.8740358 1.4494059 1.3626894 1.2511966
1.7343318 1.6971676 2.465229 2.0935864 1.325525 1.7343318 1.0653753 0.84238976

tfl.pseudo_qconst15 i1 [64, 5, 5, 3]
00000000: cf35 41ff 4d7f e050 5bbb 2c3e d3f8 2be6
00000010: 022b ec37 3817 2a35 bdd8 08e3 e603 0ff0
00000020: 13ea d8d2 f6c7 c513 e1cb 10e5 001e f8d5
00000030: 27c1 b007 c2c9 48ec e956 db0d 05e6 e22a
00000040: 9ba7 2ecd bb51 c5c8 2ba5 c914 07e8 0e1a
00000050: 1bc7 0ffd de4b 1cec 22fd 2dea d015 140a
00000060: 9e00 fc8d 1ce9 a60d f622 ea18 1711 3ebc
00000070: 2f1b d34c 51d2 3b1f 49db e70c 02f9 ef0d
00000080: dcb2 f90f b8f2 e07f ebf3 46f6 f617 0edd
00000090: 0c2a 11f6 fe02 8445 3f9a 390c b0d9 c7da
000000a0: 0ae4 bfed f5d6 2a52 201d eb12 dcec 1ace
000000b0: e0f6 d82a 1b3b 434e d6e2 7ec5 074f 93d2
000000c0: 48dc ff4e e546 54d5 0d7f 99b7 50a4 ef58
000000d0: d90d 00da 543a a9d1 7fb0 fd24 98d7 3432
000000e0: 79aa 11f6 9912 24b1 3315 a326 31c3 644e
000000f0: c90b 12de 0f09 f206 01f5 ff20 b629 12ce
-49 53 65 -1 77 127 -32 80
91 -69 44 62 -45 -8 43 -26
2 43 -20 55 56 23 42 53
-67 -40 8 -29 -26 3 15 -16
19 -22 -40 -46 -10 -57 -59 19
-31 -53 16 -27 0 30 -8 -43
39 -63 -80 7 -62 -55 72 -20
-23 86 -37 13 5 -26 -30 42
-101 -89 46 -51 -69 81 -59 -56
43 -91 -55 20 7 -24 14 26
27 -57 15 -3 -34 75 28 -20
34 -3 45 -22 -48 21 20 10
-98 0 -4 -115 28 -23 -90 13
-10 34 -22 24 23 17 62 -68
47 27 -45 76 81 -46 59 31
73 -37 -25 12 2 -7 -17 13
-36 -78 -7 15 -72 -14 -32 127
-21 -13 70 -10 -10 23 14 -35
12 42 17 -10 -2 2 -124 69
63 -102 57 12 -80 -39 -57 -38
10 -28 -65 -19 -11 -42 42 82
32 29 -21 18 -36 -20 26 -50
-32 -10 -40 42 27 59 67 78
-42 -30 126 -59 7 79 -109 -46
72 -36 -1 78 -27 70 84 -43
13 127 -103 -73 80 -92 -17 88
-39 13 0 -38 84 58 -87 -47
127 -80 -3 36 -104 -41 52 50
121 -86 17 -10 -103 18 36 -79
51 21 -93 38 49 -61 100 78
-55 11 18 -34 15 9 -14 6
1 -11 -1 32 -74 41 18 -50
