ana-class100_0156_s1_q.tflite (tflite, 132144 bytes, 13 tensors)

sequential/conv2d/Conv2D i1 [64, 5, 5, 3]
-16 78 52 17 16 56 4 -45
25 69 -89 8 101 -80 -25 -37
-20 43 -50 -43 -15 58 -108 8
101 -124 -8 81 -87 -44 -8 -59
51 43 -48 27 31 -62 -21 50
-33 55 26 -28 -12 19 -6 84
8 -4 24 -60 21 77 -10 72
108 -127 -6 17 54 -32 -17 -59
-22 35 -99 2 69 -76 81 62
-126 32 80 11 -28 -52 -34 -50
-54 16 -16 -1 12 47 48 -18
72 52 53 -19 -42 -11 -29 -24
-3 8 14 -76 32 22 -107 34
-3 73 -40 -47 -20 -54 -47 -106
-68 -43 -86 -8 22 -58 23 45
127 5 -19 45 -11 -19 5 -36
-6 17 -15 16 10 -27 20 90
62 34 41 4 5 39 -22 20
43 2 -1 4 -39 0 -40 78
113 -53 55 72 -44 17 73 -24
-1 33 40 -74 -8 -87 26 50
-99 17 61 -75 -12 50 24 4
29 38 -78 -6 -53 -36 6 -33
-10 69 -8 16 51 -12 -13 6
32 -33 11 37 -62 6 23 -11
56 89 7 127 37 -11 55 8
-49 6 33 -28 -14 1 -43 8
-25 -62 -34 -53 -36 -23 -59 -83
-54 -42 -122 -117 8 -118 -59 74
-33 -16 110 -76 -54 4 -74 -104
-20 -13 -10 -33 39 44 -13 9
1 62 5 44 65 -62 -36 -127
00000000: f04e 3411 1038 04d3 1945 a708 65b0 e7db
00000010: ec2b ced5 f13a 9408 6584 f851 a9d4 f8c5
00000020: 332b d01b 1fc2 eb32 df37 1ae4 f413 fa54
00000030: 08fc 18c4 154d f648 6c81 fa11 36e0 efc5
00000040: ea23 9d02 45b4 513e 8220 500b e4cc dece
00000050: ca10 f0ff 0c2f 30ee 4834 35ed d6f5 e3e8
00000060: fd08 0eb4 2016 9522 fd49 d8d1 ecca d196
00000070: bcd5 aaf8 16c6 172d 7f05 ed2d f5ed 05dc
00000080: fa11 f110 0ae5 145a 3e22 2904 0527 ea14
00000090: 2b02 ff04 d900 d84e 71cb 3748 d411 49e8
000000a0: ff21 28b6 f8a9 1a32 9d11 3db5 f432 1804
000000b0: 1d26 b2fa cbdc 06df f645 f810 33f4 f306
000000c0: 20df 0b25 c206 17f5 3859 077f 25f5 3708
000000d0: cf06 21e4 f201 d508 e7c2 decb dce9 c5ad
000000e0: cad6 868b 088a c54a dff0 6eb4 ca04 b698
000000f0: ecf3 f6df 272c f309 013e 052c 41c2 dc81

sequential/conv2d_1/Conv2D i1 [64, 1, 1, 64]
-48 66 -80 9 25 18 -13 0
16 23 -112 -14 61 -23 -42 -46
-15 -38 -43 99 -108 -30 -6 -77
-4 -72 -16 13 35 53 5 59
59 -42 31 29 -127 -47 40 64
2 25 -5 -23 42 73 46 1
-60 -10 0 -5 -79 45 -41 13
-59 -21 -82 6 -39 31 -63 -7
23 70 4 -4 -45 8 78 41
6 -58 56 -19 9 28 -83 25
59 21 88 -117 1 10 -8 -101
23 -54 -83 49 -84 -43 -30 -74
120 -35 7 -26 -11 -25 65 -87
-97 -15 -103 -127 -20 -27 78 -30
-1 -70 71 -51 2 24 -100 -34
-62 12 -111 -28 -123 2 -78 30
76 -55 44 -21 -8 -35 -10 -89
-127 -51 -48 -33 -19 -46 -18 4
-37 -50 35 -24 -21 36 -26 9
83 5 27 -38 -19 35 35 -2
17 8 32 -106 1 -50 11 -1
58 -21 72 -56 34 -28 -21 40
30 22 24 14 -62 -5 12 37
53 55 -47 -28 -15 -12 70 56
-35 7 -79 -9 17 -42 -64 85
-100 50 -47 53 65 -91 -4 52
-14 -28 -13 96 -28 -30 -45 -43
-19 -15 -24 -54 26 -16 -27 26
3 -46 83 -74 -127 -14 57 42
5 59 6 -34 33 53 -43 -29
-12 -102 73 -48 -44 32 6 27
-31 -21 -55 -62 -1 20 -87 45
00000000: d042 b009 1912 f300 1017 90f2 3de9 d6d2
00000010: f1da d563 94e2 fab3 fcb8 f00d 2335 053b
00000020: 3bd6 1f1d 81d1 2840 0219 fbe9 2a49 2e01
00000030: c4f6 00fb b12d d70d c5eb ae06 d91f c1f9
00000040: 1746 04fc d308 4e29 06c6 38ed 091c ad19
00000050: 3b15 588b 010a f89b 17ca ad31 acd5 e2b6
00000060: 78dd 07e6 f5e7 41a9 9ff1 9981 ece5 4ee2
00000070: ffba 47cd 0218 9cde c20c 91e4 8502 b21e
00000080: 4cc9 2ceb f8dd f6a7 81cd d0df edd2 ee04
00000090: dbce 23e8 eb24 e609 5305 1bda ed23 23fe
000000a0: 1108 2096 01ce 0bff 3aeb 48c8 22e4 eb28
000000b0: 1e16 180e c2fb 0c25 3537 d1e4 f1f4 4638
000000c0: dd07 b1f7 11d6 c055 9c32 d135 41a5 fc34
000000d0: f2e4 f360 e4e2 d3d5 edf1 e8ca 1af0 e51a
000000e0: 03d2 53b6 81f2 392a 053b 06de 2135 d5e3
000000f0: f49a 49d0 d420 061b e1eb c9c2 ff14 a92d

sequential/batch_normalization_1/FusedBatchNormV3 i1 [64] scale=0.03416825 zero_point=-128
1.9475904 1.7084125 1.640076 1.6059078 2.2551045 2.323441 1.230057 2.7676284
1.5375713 3.3143203 1.2642252 1.2983935 1.7425808 1.6059078 0.9908793 1.9134221
2.972638 1.230057 1.8450855 2.2892728 1.230057 0.7175333 1.0250475 1.8792537
1.36673 1.1958888 1.36673 1.2983935 2.835965 1.5375713 1.9475904 1.6059078
2.186768 3.2118156 1.4350666 2.1184316 2.8017967 2.2551045 1.8450855 2.2551045
1.640076 8.712904 3.143479 2.2892728 0.820038 1.8792537 2.2209363 1.36673
4.202695 1.776749 1.1617205 1.5375713 2.4259458 1.776749 1.7425808 2.2892728
4.4418726 1.2642252 1.5717396 1.776749 0.92254275 0.75170153 2.2551045 1.640076
00000000: b9b2 b0af c2c4 a4d1 ade1 a5a6 b3af 9db8
00000010: d7a4 b6c3 a495 9eb7 a8a3 a8a6 d3ad b9af
00000020: c0de aabe d2c2 b6c2 b07f dcc3 98b7 c1a8
00000030: fbb4 a2ad c7b4 b3c3 02a5 aeb4 9b96 c2b0

sequential/batch_normalization_1/FusedBatchNormV31 i1 [64] scale=0.006429088 zero_point=127
-0.86792684 -0.7457742 -0.9322177 -1.092945 -1.0093668 -1.0543704 -0.81649417 -0.6493379
-0.6107634 -0.8100651 -0.72005785 -0.6879124 -1.4143993 -0.5271852 -0.76506144 -0.9129305
-0.67505425 -0.6493379 -0.874356 -0.91935956 -0.8872141 -1.6394174 -0.7714905 -0.8100651
-1.0415123 -0.97722137 -0.6429088 -0.46289432 -0.7393451 -0.9322177 -0.5721888 -0.71362877
-0.9322177 -0.585047 -0.9000723 -0.67505425 -0.55933064 -0.97079223 -0.7522033 -0.6686251
-0.8550687 -0.48861068 -0.45646524 -0.80363595 -0.9450759 -0.5336143 -0.437178 -0.9129305
-0.6107634 -0.732916 -0.7457742 -0.8486396 -0.72005785 -0.82292324 -0.88078505 -0.9322177
-0.6814833 -0.46932343 -0.7907778 -0.59790516 -0.5657597 -0.7393451 -0.76506144 -1.0350832
00000000: f80b eed5 e2db 001a 2001 0f14 a32d 08f1
00000010: 161a f7f0 f580 0701 dde7 1b37 0cee 2610
00000020: ee24 f316 28e8 0a17 fa33 3802 ec2c 3bf1
00000030: 200d 0bfb 0fff f6ee 1536 0422 270c 08de

sequential/conv2d_2/Conv2D i1 [64, 3, 3, 64]
15 66 -35 34 -9 -20 28 -48
58 -77 -84 73 -82 0 19 1
9 54 -47 5 70 57 -12 0
-5 19 17 24 -30 22 -86 64
-19 -107 25 48 25 -60 71 44
2 17 20 -73 -15 -10 49 -28
-83 17 -2 3 -67 -51 -2 3
-44 55 -22 -54 -6 39 -20 -59
-36 11 -50 30 -56 90 18 -127
-33 -25 -94 -77 74 -38 11 31
-20 -73 18 66 31 -9 -98 3
-43 31 -7 -13 -68 -8 78 10
-27 -19 -39 12 3 -87 24 39
36 -22 -8 -98 -63 -111 43 22
-21 -81 -76 -40 21 -60 -23 63
-48 -4 -39 55 -57 -60 20 7
-22 3 -19 -6 -12 63 -31 8
-66 8 -59 -102 51 -43 -9 53
54 -94 58 16 78 4 35 -61
0 -54 -18 -43 30 -52 -44 28
44 28 56 24 -25 32 -1 13
43 -6 13 11 -77 -92 -45 -22
8 -28 -75 20 32 -8 -14 16
42 -48 -7 21 -20 -17 -31 68
4 57 -41 25 -23 -27 18 33
4 25 -3 5 -49 13 -37 13
20 -20 14 -11 39 26 -34 59
21 14 -11 50 -44 -48 43 0
0 41 40 27 -49 -87 10 -40
-2 -3 -3 -44 -52 42 14 39
44 9 -27 26 -39 -30 -2 1
-8 -6 36 2 16 25 -19 26
00000000: 0f42 dd22 f7ec 1cd0 3ab3 ac49 ae00 1301
00000010: 0936 d105 4639 f400 fb13 1118 e216 aa40
00000020: ed95 1930 19c4 472c 0211 14b7 f1f6 31e4
00000030: ad11 fe03 bdcd fe03 d437 eaca fa27 ecc5
00000040: dc0b ce1e c85a 1281 dfe7 a2b3 4ada 0b1f
00000050: ecb7 1242 1ff7 9e03 d51f f9f3 bcf8 4e0a
00000060: e5ed d90c 03a9 1827 24ea f89e c191 2b16
00000070: ebaf b4d8 15c4 e93f d0fc d937 c7c4 1407
00000080: ea03 edfa f43f e108 be08 c59a 33d5 f735
00000090: 36a2 3a10 4e04 23c3 00ca eed5 1ecc d41c
000000a0: 2c1c 3818 e720 ff0d 2bfa 0d0b b3a4 d3ea
000000b0: 08e4 b514 20f8 f210 2ad0 f915 ecef e144
000000c0: 0439 d719 e9e5 1221 0419 fd05 cf0d db0d
000000d0: 14ec 0ef5 271a de3b 150e f532 d4d0 2b00
000000e0: 0029 281b cfa9 0ad8 fefd fdd4 cc2a 0e27
000000f0: 2c09 e51a d9e2 fe01 f8fa 2402 1019 ed1a

sequential/conv2d_3/Conv2D i1 [64, 3, 3, 64]
-18 -75 -119 -25 11 -44 -36 -43
-13 -5 -114 -61 43 70 -45 -46
-50 37 12 -16 -48 -97 16 41
21 18 40 33 -30 35 -15 30
6 -66 -15 56 -47 -50 20 -66
4 -25 -103 -15 3 -29 -17 -2
-42 41 58 -56 -37 43 -12 86
26 -30 -53 -17 79 21 -42 39
-73 80 -46 33 -30 54 40 -51
-66 51 -20 23 6 39 33 -9
-58 1 35 -6 -2 -56 22 47
21 -54 -45 96 -56 2 -37 -22
-30 73 -28 -2 -22 64 -41 6
-15 -65 -61 -56 -5 62 79 -59
-11 -4 21 -25 -70 13 104 45
-10 -30 -3 -8 47 -37 -5 -18
-20 40 35 -12 -17 -13 21 -66
-46 -5 20 -73 27 6 83 -30
4 -9 -59 -11 45 -68 28 -50
98 -25 -80 -2 20 -77 -34 -15
-47 78 8 57 -35 39 45 -28
-60 44 -83 -27 -3 50 -63 -10
10 16 -42 51 21 -29 -5 28
-18 26 -15 -3 22 -36 37 34
-27 31 36 -18 10 -19 -109 15
83 22 37 -48 -25 -21 7 -84
-56 -97 -33 56 -44 97 -57 33
11 42 93 33 17 22 -22 -78
3 -103 -16 -72 -18 -95 -5 -124
20 -52 -49 -2 43 28 -28 19
-62 -63 -26 -32 18 -26 -16 9
72 33 10 -63 4 6 0 -116
00000000: eeb5 89e7 0bd4 dcd5 f3fb 8ec3 2b46 d3d2
00000010: ce25 0cf0 d09f 1029 1512 2821 e223 f11e
00000020: 06be f138 d1ce 14be 04e7 99f1 03e3 effe
00000030: d629 3ac8 db2b f456 1ae2 cbef 4f15 d627
00000040: b750 d221 e236 28cd be33 ec17 0627 21f7
00000050: c601 23fa fec8 162f 15ca d360 c802 dbea
00000060: e249 e4fe ea40 d706 f1bf c3c8 fb3e 4fc5
00000070: f5fc 15e7 ba0d 682d f6e2 fdf8 2fdb fbee
00000080: ec28 23f4 eff3 15be d2fb 14b7 1b06 53e2
00000090: 04f7 c5f5 2dbc 1cce 62e7 b0fe 14b3 def1
000000a0: d14e 0839 dd27 2de4 c42c ade5 fd32 c1f6
000000b0: 0a10 d633 15e3 fb1c ee1a f1fd 16dc 2522
000000c0: e51f 24ee 0aed 930f 5316 25d0 e7eb 07ac
000000d0: c89f df38 d461 c721 0b2a 5d21 1116 eab2
000000e0: 0399 f0b8 eea1 fb84 14cc cffe 2b1c e413
000000f0: c2c1 e6e0 12e6 f009 4821 0ac1 0406 008c

sequential/batch_normalization_2/FusedBatchNormV3 i1 [64] scale=0.12100796 zero_point=-128
0.12100796 0.24201591 0.12100796 0.24201591 0.24201591 0.24201591 0.24201591 0.24201591
0.12100796 0.12100796 0.12100796 0.12100796 0.12100796 0.24201591 0.12100796 0.24201591
0.12100796 0.12100796 0.12100796 0.24201591 0.24201591 0.24201591 0.12100796 30.615013
0.36302388 0.12100796 0.12100796 0.12100796 0.12100796 0.24201591 0.12100796 0.24201591
0.12100796 0.24201591 0.12100796 0.12100796 0.12100796 0.12100796 0.12100796 0.24201591
0.12100796 0.12100796 0.24201591 0.12100796 0.24201591 0.12100796 0.12100796 0.12100796
0.12100796 30.857029 0.24201591 0.24201591 0.12100796 0.12100796 0.12100796 0.36302388
0.36302388 0.12100796 0.24201591 0.12100796 0.24201591 0.12100796 0.24201591 0.24201591
00000000: 8182 8182 8282 8282 8181 8181 8182 8182
00000010: 8181 8182 8282 817d 8381 8181 8182 8182
00000020: 8182 8181 8181 8182 8181 8281 8281 8181
00000030: 817f 8282 8181 8183 8381 8281 8281 8282

sequential/batch_normalization_2/FusedBatchNormV31 i1 [64] scale=0.009440545 zero_point=114
-0.6608381 -0.5569922 -0.9251734 -0.35874072 -0.6325165 -0.50034887 -0.6608381 -0.52867055
-0.79300576 -2.284612 -0.6513976 -0.91573286 -0.76468414 -0.7363625 -1.0101383 -0.6513976
-0.6325165 -0.8024463 -0.7080409 -0.54755163 -0.5381111 -0.6136354 -0.67027867 0.0
-0.33041906 -0.6608381 -0.7552436 -0.48146778 -0.5381111 -0.3398596 -0.62307596 -0.91573286
-0.8590896 -0.67027867 -0.8213274 -0.81188685 -0.91573286 -0.79300576 -1.1328654 -0.9062923
-0.8590896 -0.59475434 -0.48146778 -0.88741124 -0.34930018 -0.84020853 -1.0195788 -0.6608381
-0.7552436 0.12272708 -0.98181665 -0.30209744 -0.74580306 -0.5664327 -0.6608381 -0.19825144
-0.42482454 -0.6325165 -0.67027867 -1.1139843 -0.84020853 -0.67027867 -0.5569922 -0.7080409
00000000: 2c37 104c 2f3d 2c3a 1e80 2d11 2124 072d
00000010: 2f1d 2738 3931 2b72 4f2c 223f 394e 3011
00000020: 172b 1b1c 111e fa12 1733 3f14 4d19 062c
00000030: 227f 0a52 2336 2c5d 452f 2bfc 192b 3727

sequential/conv2d_4/Conv2D i1 [32, 3, 3, 64]
-23 15 -45 55 19 31 35 27
30 -47 -50 86 -11 28 -38 -73
10 4 6 8 -88 -1 -4 1
24 -49 -52 33 28 -38 -84 -4
-25 -29 8 -6 -65 3 10 -19
-16 17 -6 -56 16 -14 -14 5
-51 -20 -44 50 -16 -13 -2 6
-9 23 -54 -10 4 -11 55 -46
25 -3 -32 -37 -22 -32 -13 -39
-39 -72 -19 1 4 -16 -30 -34
-7 -43 70 -40 -23 58 32 -8
-29 27 29 -20 -36 31 -26 48
29 -4 38 -10 45 -9 6 -35
10 4 22 -51 -3 -13 12 -17
-24 3 29 20 27 2 28 6
-33 4 -31 -16 5 5 -16 -31
13 -49 44 -26 8 10 41 44
52 24 77 18 -14 67 0 -30
-20 -28 -19 -5 -16 -32 -16 16
-13 34 74 -73 -40 18 28 -12
4 20 25 53 49 33 52 -18
-9 12 5 65 19 5 28 21
53 61 -42 19 38 -26 18 21
-27 24 6 -15 33 43 4 11
-26 10 -13 0 0 -18 14 29
-18 -70 -5 -19 6 -18 -17 -66
32 -14 43 32 -32 -19 27 27
-5 -26 -65 30 4 44 -17 -2
21 -10 -17 0 -5 -35 -41 16
8 -13 -7 -34 7 20 -41 5
-13 23 1 23 -3 16 1 33
-18 0 -23 -14 -26 16 6 -42
00000000: e90f d337 131f 231b 1ed1 ce56 f51c dab7
00000010: 0a04 0608 a8ff fc01 18cf cc21 1cda acfc
00000020: e7e3 08fa bf03 0aed f011 fac8 10f2 f205
00000030: cdec d432 f0f3 fe06 f717 caf6 04f5 37d2
00000040: 19fd e0db eae0 f3d9 d9b8 ed01 04f0 e2de
00000050: f9d5 46d8 e93a 20f8 e31b 1dec dc1f e630
00000060: 1dfc 26f6 2df7 06dd 0a04 16cd fdf3 0cef
00000070: e803 1d14 1b02 1c06 df04 e1f0 0505 f0e1
00000080: 0dcf 2ce6 080a 292c 3418 4d12 f243 00e2
00000090: ece4 edfb f0e0 f010 f322 4ab7 d812 1cf4
000000a0: 0414 1935 3121 34ee f70c 0541 1305 1c15
000000b0: 353d d613 26e6 1215 e518 06f1 212b 040b
000000c0: e60a f300 00ee 0e1d eeba fbed 06ee efbe
000000d0: 20f2 2b20 e0ed 1b1b fbe6 bf1e 042c effe
000000e0: 15f6 ef00 fbdd d710 08f3 f9de 0714 d705
000000f0: f317 0117 fd10 0121 ee00 e9f2 e610 06d6

sequential/conv2d_5/Conv2D i1 [32, 3, 3, 32]
7 -17 39 16 -39 -27 -53 0
-17 -5 74 -14 -104 19 -61 50
-2 18 3 16 14 -24 -34 -42
17 45 40 -44 0 -3 -55 4
-7 -26 -13 -19 -37 -24 -51 -24
-41 -14 -15 54 0 -3 -34 0
-88 5 -45 25 -42 -41 -4 -30
72 34 -9 -9 -72 -17 -22 -52
-3 14 -25 -14 33 -18 127 21
-29 -2 -16 12 -81 42 22 -102
-32 -15 -10 -20 -76 -29 16 -40
-23 -90 -22 -28 -7 29 14 -26
-22 -7 -5 51 -39 -79 -62 26
-13 32 57 -49 -16 -10 -73 23
-22 -2 -8 -8 27 -11 -19 -26
-24 87 29 2 -41 12 33 -25
17 12 57 -46 -44 -33 1 17
-14 -51 -58 30 45 34 -23 44
28 4 26 4 51 -42 -23 -9
29 25 19 -82 -2 -66 -21 21
-14 -59 23 -53 -14 -17 51 40
16 0 24 63 9 33 1 30
41 41 -40 -76 -21 7 32 24
28 75 -5 0 -70 57 30 28
-20 -1 8 24 -1 48 -26 28
5 -15 -13 -39 -22 19 -11 80
25 30 -25 19 -46 -29 -84 -12
7 70 39 -38 -1 26 -16 -45
-76 2 6 -23 -6 17 -26 -22
30 37 -3 -59 4 21 -50 2
-76 -55 -61 -50 24 25 42 14
-73 40 2 -14 9 35 -57 -53
00000000: 07ef 2710 d9e5 cb00 effb 4af2 9813 c332
00000010: fe12 0310 0ee8 ded6 112d 28d4 00fd c904
00000020: f9e6 f3ed dbe8 cde8 d7f2 f136 00fd de00
00000030: a805 d319 d6d7 fce2 4822 f7f7 b8ef eacc
00000040: fd0e e7f2 21ee 7f15 e3fe f00c af2a 169a
00000050: e0f1 f6ec b4e3 10d8 e9a6 eae4 f91d 0ee6
00000060: eaf9 fb33 d9b1 c21a f320 39cf f0f6 b717
00000070: eafe f8f8 1bf5 ede6 e857 1d02 d70c 21e7
00000080: 110c 39d2 d4df 0111 f2cd c61e 2d22 e92c
00000090: 1c04 1a04 33d6 e9f7 1d19 13ae febe eb15
000000a0: f2c5 17cb f2ef 3328 1000 183f 0921 011e
000000b0: 2929 d8b4 eb07 2018 1c4b fb00 ba39 1e1c
000000c0: ecff 0818 ff30 e61c 05f1 f3d9 ea13 f550
000000d0: 191e e713 d2e3 acf4 0746 27da ff1a f0d3
000000e0: b402 06e9 fa11 e6ea 1e25 fdc5 0415 ce02
000000f0: b4c9 c3ce 1819 2a0e b728 02f2 0923 c7cb

sequential/batch_normalization_3/FusedBatchNormV3 i1 [32] scale=0.002498568 zero_point=-128
0.47472793 0.50221217 0.56217784 0.59216064 0.51220644 0.5246993 0.48971933 0.4847222
0.50471073 0.50471073 0.6121492 0.6121492 0.51970214 0.63713485 0.56967354 0.6321377
0.5396907 0.5746707 0.49471647 0.4472437 0.45973653 0.39727232 0.4547394 0.5646764
0.5796678 0.4997136 0.50970787 0.4772265 0.44224656 0.5222007 0.5222007 0.47222936
00000000: 3e49 616d 4d52 4442 4a4a 7575 507f 647d
00000010: 5866 4633 381f 3662 6848 4c3f 3151 513d

sequential/batch_normalization_3/FusedBatchNormV31 i1 [32] scale=0.011514972 zero_point=127
-2.0266352 -1.7848207 -1.6120961 -2.936318 -1.220587 -1.1975571 -1.8769405 -2.3951142
-1.6120961 -2.1187549 -2.03815 -2.3375392 -2.10724 -2.1302698 -2.3490543 -2.844198
-2.072695 -1.9805752 -2.03815 -1.4393715 -1.9114853 -1.232102 -1.646641 -1.7042159
-2.0036051 -1.4393715 -2.03815 -1.9230003 -1.7848207 -2.5908687 -2.10724 -1.6927009
00000000: cfe4 f380 1517 dcaf f3c7 ceb4 c8c6 b388
00000010: cbd3 ce02 d914 f0eb d102 ced8 e49e c8ec

sequential/dense/MatMul i1 [100, 32] scale=0.005777156 zero_point=0
-0.35818368 -0.39862376 -0.38129228 -0.5141669 0.034662936 0.3292979 -0.5430527 -0.6528186
-0.22530909 -0.5026126 0.17909184 -0.56038415 -0.6990359 0.31774357 0.24264055 -0.4852811
-0.45639533 -0.25419486 -0.16176036 -0.09821165 -0.36396083 -0.13865174 0.02888578 0.21953192
-0.15598321 -0.023108624 -0.15598321 -0.4217324 -0.32352072 -0.36396083 0.005777156 -0.23108624
0.023108624 -0.444841 -0.5488298 -0.5026126 0.1444289 0.25419486 -0.4217324 -0.5430527
-0.1964233 -0.46217248 0.20220046 -0.5314984 -0.6874816 0.23686339 0.19064614 -0.5026126
-0.3292979 -0.22530909 -0.3928466 -0.36396083 -0.30618927 -0.046217248 -0.15020606 -0.16176036
0.051994406 -0.38129228 -0.02888578 -0.3928466 -0.32352072 -0.2657492 0.10398881 -0.45061818
0.0 -0.017331468 -0.38129228 -0.4852811 0.21953192 0.29463497 -0.444841 -0.6701501
-0.33507505 -0.28308064 0.13865174 -0.21375477 -0.43906385 0.23108624 -0.005777156 -0.5430527
-0.6759272 -0.2773035 -0.24264055 -0.2657492 -0.046217248 -0.04044009 -0.17331468 -0.3524065
-0.051994406 -0.41017807 -0.1444289 -0.35818368 -0.47372678 -0.37551513 0.16176036 -0.35818368
0.011554312 0.0 -0.25419486 -0.36396083 0.2657492 0.1964233 -0.27152634 -0.4852811
-0.19064614 -0.3408522 0.13865174 0.10976596 -0.046217248 0.16753753 0.07510303 -0.4852811
-0.58349276 -0.23686339 -0.3524065 -0.259972 0.08088018 -0.21953192 -0.04044009 -0.5257212
0.12709743 -0.36396083 -0.3928466 -0.30041212 -0.5314984 -0.47372678 0.21375477 -0.20220046
0.0 0.12132028 -0.23686339 -0.43906385 0.21375477 0.13865174 -0.3292979 -0.40440091
-0.08088018 -0.35818368 0.034662936 0.21375477 0.08665734 -0.017331468 0.10398881 -0.41017807
-0.37551513 -0.40440091 -0.39862376 -0.43906385 0.17909184 -0.22530909 -0.28308064 -0.1328746
-0.034662936 -0.21375477 -0.42750955 -0.20220046 -0.56038415 -0.4968354 0.2484177 -0.023108624
-0.09821165 0.063548714 -0.19064614 -0.46217248 0.21953192 0.12132028 -0.31196642 -0.36396083
-0.046217248 -0.45061818 -0.023108624 0.30618927 0.13865174 -0.27152634 0.10398881 -0.31196642
-0.04044009 -0.30618927 -0.39862376 -0.47950396 0.23686339 -0.259972 -0.27152634 0.10976596
-0.23686339 -0.08088018 -0.36973798 -0.33507505 -0.56038415 -0.444841 0.2888578 0.17331468
-0.36973798 -0.051994406 -0.1964233 -0.3292979 0.21375477 -0.1444289 -0.2773035 -0.37551513
-0.08088018 -0.259972 -0.19064614 0.29463497 0.15020606 -0.5026126 0.092434496 -0.30618927
0.08088018 -0.37551513 -0.3292979 -0.45639533 0.27152634 -0.25419486 -0.43906385 0.1964233
-0.38706946 -0.2773035 -0.24264055 -0.47372678 -0.23686339 -0.41017807 0.2888578 0.063548714
-0.4332867 -0.16176036 -0.18486899 -0.051994406 0.20797762 -0.40440091 -0.30618927 -0.2484177
-0.09821165 0.011554312 -0.5372755 0.28308064 0.15598321 -0.58349276 0.017331468 -0.41595525
0.10976596 -0.45061818 -0.2888578 -0.38129228 0.28308064 -0.24264055 -0.5141669 0.23686339
-0.259972 -0.16176036 -0.25419486 -0.35818368 -0.04044009 -0.45639533 0.259972 -0.1444289
00000000: c2bb bea7 0639 a28f d9a9 1f9f 8737 2aac
00000010: b1d4 e4ef c1e8 0526 e5fc e5b7 c8c1 01d8
00000020: 04b3 a1a9 192c b7a2 deb0 23a4 8929 21a9
00000030: c7d9 bcc1 cbf8 e6e4 09be fbbc c8d2 12b2
00000040: 00fd beac 2633 b38c c6cf 18db b428 ffa2
00000050: 8bd0 d6d2 f8f9 e2c3 f7b9 e7c2 aebf 1cc2
00000060: 0200 d4c1 2e22 d1ac dfc5 1813 f81d 0dac
00000070: 9bd7 c3d3 0eda f9a5 16c1 bccc a4ae 25dd
00000080: 0015 d7b4 2518 c7ba f2c2 0625 0ffd 12b9
00000090: bfba bbb4 1fd9 cfe9 fadb b6dd 9faa 2bfc
000000a0: ef0b dfb0 2615 cac1 f8b2 fc35 18d1 12ca
000000b0: f9cb bbad 29d3 d113 d7f2 c0c6 9fb3 321e
000000c0: c0f7 dec7 25e7 d0bf f2d3 df33 1aa9 10cb
000000d0: 0ebf c7b1 2fd4 b422 bdd0 d6ae d7b9 320b
000000e0: b5e4 e0f7 24ba cbd5 ef02 a331 1b9b 03b8
000000f0: 13b2 cebe 31d6 a729 d3e4 d4c2 f9b1 2de7
