ana-class100_0170_s1.tflite (tflite, 465972 bytes, 26 tensors)

model/conv2d/BiasAdd/ReadVariableOp f4 [64]
0	0xbd9fb1c2	-0.077975765
1	0xbe4e7762	-0.20162728
2	0x3e320576	0.17384896
3	0x3d30bd7a	0.04314945
4	0x3d5c2d02	0.05375386
5	0x3c859418	0.016305968
6	0xbdd513e9	-0.10404188
7	0x3e8fe711	0.28105977
8	0x3e5460fe	0.20740125
9	0xbdf2a4e3	-0.11847856
10	0xbe947cc8	-0.2900145
11	0xbdfed313	-0.12442603
12	0x3e2cb05b	0.1686415
13	0xbd1910af	-0.037369426
14	0x3e6f63f0	0.23377967
15	0xbdf9aa4a	-0.12190683
16	0xbd0e990d	-0.03481393
17	0x3df3fddd	0.11913655
18	0x3e9986f7	0.29985783
19	0xbd97946d	-0.07401357
20	0x3d500f21	0.050795678
21	0x3eae15c2	0.34000975
22	0x3e170776	0.1474894
23	0xbd327a71	-0.0435738
24	0xbbd19766	-0.006396222
25	0x3d32b536	0.043629847
26	0x3daf7827	0.08567839
27	0x3d4b00f4	0.049561456
28	0x3e63bd92	0.22240284
29	0xbe01fae8	-0.1269337
30	0xbdb3f3dd	-0.087867476
31	0xbe0271ad	-0.12738676
32	0x3e882597	0.2659118
33	0x3e57047d	0.20997806
34	0x3e8b9c16	0.27267522
35	0x3d91180c	0.07084665
36	0x3e7975c4	0.2436133
37	0x3dc9577d	0.0983114
38	0xbcf20c88	-0.029546991
39	0xbda08d44	-0.07839444
40	0xbe3bba44	-0.18332773
41	0xbcd79441	-0.02631581
42	0xbc9bd67b	-0.01902317
43	0xbd96ec1e	-0.073692545
44	0xbd3e909d	-0.046524633
45	0x3ccc09f1	0.024907084
46	0xbd008df7	-0.03138539
47	0xbc153c73	-0.0091086505
48	0x3d96dc61	0.07366253
49	0x3c02ddbd	0.007987437
50	0x3e16feb7	0.14745604
51	0x3e63c5f0	0.22243476
52	0x3e3d5dc2	0.18492797
53	0x3dfc5bd7	0.123222046
54	0xbe3250eb	-0.1741368
55	0xbe1af44b	-0.15132253
56	0xbd42a389	-0.04751924
57	0xbedc9380	-0.43081284
58	0xbd9fa2b0	-0.07794702
59	0xbe2a9c26	-0.16661128
60	0xbc52f078	-0.012874715
61	0x3da32846	0.07966666
62	0x3dcf9967	0.10136681
63	0xbdecf786	-0.11570649

model/conv2d_1/BiasAdd/ReadVariableOp f4 [64]
0	0x3c7cb01c	0.015422847
1	0x3e6d5441	0.23176672
2	0x3d20a4d0	0.039219677
3	0x3d97d80d	0.07414255
4	0x3d8b6795	0.06806866
5	0x3d82b45e	0.063820586
6	0x3ca6c5e1	0.020358028
7	0x3cd22d65	0.025656411
8	0xbe8e0ed9	-0.27745703
9	0xbd0427e8	-0.03226462
10	0xbd1946b6	-0.03742095
11	0x3dee7a42	0.116444126
12	0x3dda23b1	0.10651339
13	0x3dcfd352	0.10147728
14	0x3e340e6c	0.17583627
15	0x3da43096	0.080170795
16	0x3ce4d2ec	0.027932607
17	0x3db9f977	0.09080785
18	0xbda3f55b	-0.08005782
19	0x3db051b1	0.086093314
20	0xbce62b22	-0.02809674
21	0xbc803734	-0.015651323
22	0x3eb91051	0.3614526
23	0x3e7a4817	0.24441563
24	0x3e5f324b	0.21796529
25	0x3d6e632a	0.05820004
26	0x3e2e835b	0.17042296
27	0x3dc5bbf8	0.09654993
28	0xbd26e775	-0.04074808
29	0x3ecdad2d	0.40171185
30	0x3e0490e5	0.12945898
31	0x3e6adff8	0.22937
32	0x3d5770e8	0.05259791
33	0x3e269efd	0.16271587
34	0x3eba0e59	0.3633907
35	0x3e222330	0.15833735
36	0x3dc4e64b	0.096142374
37	0x3d3e5837	0.046470847
38	0x3e80cbd3	0.25155506
39	0x3db6e1d0	0.08929789
40	0x3eb07fbb	0.3447245
41	0x3e02506c	0.12725991
42	0x3deec0f7	0.11657899
43	0x3e2333f5	0.15937789
44	0x3e490f2d	0.19634695
45	0x3ddc40f8	0.10754579
46	0x3d8e4937	0.069475584
47	0xbd97c879	-0.07411284
48	0xbc2e53aa	-0.010640064
49	0x3d5105be	0.051030867
50	0x3d961012	0.07327284
51	0x3e7efd86	0.24901399
52	0x3e11f5b3	0.14253883
53	0xbd93dbdc	-0.07219669
54	0x3e45c196	0.19312128
55	0x3d9da077	0.07696622
56	0x3d722ff3	0.05912776
57	0x3e028c9c	0.1274895
58	0xbda1f484	-0.07907966
59	0x3dbb9695	0.091595806
60	0x3e7ad844	0.24496561
61	0xbdab009b	-0.08349725
62	0x3d5fc01a	0.05462656
63	0x3df86d2f	0.121302

model/conv2d_2/BiasAdd/ReadVariableOp f4 [64]
0	0x3d3a570b	0.045493167
1	0xbd258cf9	-0.040417645
2	0x3d3de658	0.04636225
3	0x3d999356	0.07498805
4	0xbd1e1db0	-0.03860253
5	0x3dec2448	0.115303576
6	0x3e26eb7a	0.16300765
7	0xbdb2b4d1	-0.08725894
8	0xbc8bf261	-0.017083349
9	0xbe2141ca	-0.15747753
10	0xbd8d3a39	-0.06895871
11	0x3d705752	0.058677025
12	0xbda42e5d	-0.080166556
13	0x3e0e9e6b	0.13927619
14	0x3dd73059	0.105072685
15	0xbe00e918	-0.12588918
16	0x3e87869c	0.26469886
17	0x3d9595c0	0.07303953
18	0x3eca9d0c	0.39572942
19	0xbdf73276	-0.120701715
20	0x3c505702	0.012716057
21	0xbcb64223	-0.022248333
22	0x3dd0c77d	0.10194299
23	0xbe2faa82	-0.17154887
24	0x3e8ca6d9	0.27471045
25	0x3e16b877	0.14718805
26	0x3e277510	0.1635325
27	0xbe06fef3	-0.13183193
28	0xbc28b8bb	-0.010297949
29	0xbc2e37fa	-0.010633463
30	0x3e4af487	0.19819842
31	0xbdf567ff	-0.11982726
32	0xbe4ed098	-0.2019676
33	0x3de000ce	0.109376535
34	0x3d9ae1c7	0.07562595
35	0xbe69474c	-0.22781104
36	0x3d94596f	0.072436206
37	0x3d6e2b0d	0.058146525
38	0xbded7c1a	-0.11595936
39	0xbe745a33	-0.23862533
40	0x3e775dae	0.2415683
41	0xbdee1200	-0.11624527
42	0x3d811187	0.06302171
43	0xbd88242c	-0.06647524
44	0xbddbfddb	-0.107417785
45	0x3d7bdd32	0.061490245
46	0xbd10ec20	-0.035381436
47	0x3df221d6	0.1182286
48	0x3e5e6808	0.21719372
49	0x3de9d789	0.11418063
50	0x3e0f7deb	0.14012878
51	0x3e71277f	0.23550223
52	0xbe06dbd8	-0.13169801
53	0xbe256e13	-0.16155271
54	0x3e297b21	0.16550876
55	0x3e3911a5	0.18073137
56	0x3d8d8bd1	0.069114335
57	0xbcd8f893	-0.026485717
58	0x3c226db3	0.00991385
59	0xbe3f97cd	-0.18710251
60	0xbbf19fb3	-0.007373774
61	0x3d28bfb4	0.041198447
62	0x3e61d915	0.22055466
63	0x3d0c732c	0.034289524

model/conv2d_3/BiasAdd/ReadVariableOp f4 [64]
0	0xbdb27e5f	-0.087155096
1	0xbe277ed6	-0.16356978
2	0xbecbaaa7	-0.39778635
3	0xbe8e13c2	-0.2774945
4	0xbe7913f0	-0.24324012
5	0xbe8008f7	-0.2500684
6	0xbe9c59dd	-0.3053731
7	0xbe99e640	-0.3005848
8	0xbec8b1af	-0.39198062
9	0xbe394016	-0.18090853
10	0x3c9c1f13	0.019057786
11	0xbe3fceac	-0.18731183
12	0xbdc3281d	-0.095291354
13	0xbbe84489	-0.007088248
14	0xbe9994a6	-0.29996222
15	0xbeec8cfc	-0.46201313
16	0xbe5e60e9	-0.21716656
17	0xbeaf9905	-0.34296432
18	0xbe98e5b7	-0.2986276
19	0xbe8f6299	-0.28004912
20	0xbebf2607	-0.373337
21	0xbe8d860a	-0.27641326
22	0xbe89db7c	-0.26925266
23	0xbe10dd53	-0.14146928
24	0xbe97721d	-0.2957925
25	0xbe2ba4aa	-0.16762033
26	0xbe9b99d8	-0.3039081
27	0xbe489e9c	-0.19591755
28	0xbe2e091f	-0.16995667
29	0x3dbddc42	0.092705265
30	0xbe546f6b	-0.20745628
31	0xbe510707	-0.20412837
32	0xbeb7687c	-0.35821903
33	0xbef4fd34	-0.4784943
34	0xbe964ecf	-0.29357
35	0xbeda25f8	-0.42607093
36	0xbea4fd47	-0.32224485
37	0xbe9a9271	-0.3018985
38	0xbe92f1b4	-0.2870003
39	0xbeac94b2	-0.33707196
40	0xbeed6d18	-0.46372294
41	0xbe3f8329	-0.18702377
42	0xbe682615	-0.22670777
43	0xbe4d51ce	-0.20050737
44	0xbeda25b1	-0.4260688
45	0xbef53e3e	-0.4789905
46	0xbe802f15	-0.2503592
47	0xbe5b76e9	-0.2143208
48	0xbeaaaabf	-0.33333394
49	0xbeb4a70d	-0.352837
50	0xbe96ea32	-0.29475552
51	0xbe8b5b81	-0.2721825
52	0xbeba7250	-0.3641534
53	0xbe42bc56	-0.19017157
54	0xbea48c67	-0.32138368
55	0xbea798b1	-0.32733682
56	0xbeea7eba	-0.4579981
57	0xbec26246	-0.37965602
58	0xbe796c73	-0.24357776
59	0xbe9c5c57	-0.305392
60	0xbd1234b6	-0.0356948
61	0xbedfa18c	-0.43677938
62	0xbe9791be	-0.2960338
63	0xbde0609b	-0.10955926

model/conv2d_4/BiasAdd/ReadVariableOp f4 [32]
0	0xbd019948	-0.03164032
1	0xbd1cbd70	-0.0382666
2	0x3e029b57	0.1275457
3	0x399b8bfe	0.00029668206
4	0xbc089a60	-0.008337587
5	0x3e257eb9	0.16161622
6	0x3e76bc22	0.24095204
7	0xbd3ee4ef	-0.046605047
8	0x3ef5198c	0.47871053
9	0xbd3a1d11	-0.045437876
10	0xbc1c42dc	-0.009537425
11	0x3b92ea9e	0.004483535
12	0xbd591607	-0.052999523
13	0x3e2c87c5	0.16848667
14	0xbb95cc71	-0.0045714905
15	0xbd817f42	-0.063231006
16	0xbc855217	-0.016274495
17	0xbc10a497	-0.008828304
18	0xbdb5dc0a	-0.0887986
19	0x3d96cd33	0.073633574
20	0x3d6cedbe	0.057843916
21	0x3db68f61	0.08914066
22	0x3ddb30b9	0.107026525
23	0x3c7f1710	0.015569463
24	0x3e9e4327	0.30910608
25	0x3ed81bde	0.4220876
26	0xbd5a5890	-0.053307116
27	0x3d690a9f	0.056894895
28	0x3dea3fd5	0.11437956
29	0xbcfa0149	-0.030518191
30	0x3e060a31	0.13089825
31	0xbd8913a3	-0.066931985

model/conv2d_5/BiasAdd/ReadVariableOp f4 [32]
0	0xbe60ad5b	-0.2194113
1	0xbe004d30	-0.12529445
2	0xbe6ad5e9	-0.22933163
3	0xbd7a4d01	-0.061108593
4	0xbe33cbd4	-0.17558223
5	0xbe0a486d	-0.1350419
6	0xbe2746a7	-0.16335545
7	0xbe40bc21	-0.18821765
8	0xbe99a101	-0.3000565
9	0xbe50f6e5	-0.20406683
10	0xbe47de1b	-0.1951832
11	0xbd8f63b2	-0.07001437
12	0xbe55810b	-0.20850007
13	0xbd67890b	-0.05652718
14	0xbdc8dbb2	-0.098075286
15	0xbd953162	-0.0728481
16	0xbd48e1b0	-0.049043357
17	0xbea81d2e	-0.32834762
18	0xbe04a390	-0.12953019
19	0xbe9d1e6d	-0.30687276
20	0xbe0699ba	-0.1314458
21	0xbe519409	-0.20466627
22	0xbe13e02f	-0.14440988
23	0xbd9ff4ac	-0.07810339
24	0xbe1d103b	-0.15338223
25	0xbe75a3cc	-0.23988265
26	0xbdc5dbeb	-0.09661087
27	0xbd95445f	-0.072884314
28	0xbeab61c5	-0.3347303
29	0xbdbe2eb4	-0.09286252
30	0x3e1cd1fc	0.15314478
31	0xbdb00ec6	-0.08596568

model/conv2d/Conv2D f4 [64, 5, 5, 3]
0	0xbcf3600c	-0.029708885
1	0x3e8a4c83	0.270115
2	0x3e786176	0.24255928
3	0xbc0ad965	-0.008474682
4	0x3dec1934	0.115282446
5	0x3e321e95	0.17394479
6	0x3d8aa70d	0.06770144
7	0xbc3bbbd2	-0.011458354
8	0xbd23b41a	-0.03996668
9	0xbcb48116	-0.02203421
10	0xbdd6acc6	-0.10482173
11	0xbe157ed0	-0.14599156
12	0xbc9862e2	-0.018601838
13	0x3d19abd9	0.037517402
14	0x3b53a5e5	0.0032294926
15	0xbe493b49	-0.19651522
16	0x3e2ddecd	0.16979523
17	0x3e1ab23d	0.15107055
18	0xbdbca79c	-0.092116565
19	0x3da21e42	0.079159275
20	0x3d786de0	0.06065166
21	0x3d0d52ca	0.034502782
22	0xbe0f858c	-0.14015788
23	0xbd701c5c	-0.058620796
24	0x3ddbb7c6	0.107284114
25	0xbc6e80ae	-0.014557047
26	0xbd7df646	-0.062002443
27	0x3e27cbfd	0.16386409
28	0x3e155aeb	0.14585464
29	0x3e59f061	0.21283104
30	0xbd874f87	-0.066069655
31	0xbda6107f	-0.08108615
32	0xbd4dbfdd	-0.050231803
33	0x3b15a87c	0.002283602
34	0x3d231694	0.039816454
35	0x3d82a4df	0.06379103
36	0x3d39f857	0.04540285
37	0xbd9ede2b	-0.07757219
38	0xbd4729e0	-0.04862392
39	0x3e1c1fd9	0.15246524
40	0x3be16d58	0.00687949
41	0xbb73be5f	-0.0037192327
42	0x3db25af1	0.08708752
43	0x3d886251	0.06659377
44	0x3ddaa7c0	0.10676527
45	0x3bee6080	0.0072746873
46	0xbeaac6d2	-0.33354813
47	0xbe40612b	-0.18787067
48	0x3d1baeab	0.038008373
49	0xbe10a252	-0.1412442
50	0x3c89df24	0.016830035
51	0x3d1f6075	0.038910348
52	0xbd829098	-0.06375235
53	0xbcc90aad	-0.024541223
54	0x3d7986d9	0.060919616
55	0x3d9b2e56	0.07577197
56	0x3db8478d	0.08998022
57	0xbe2185dc	-0.1577372
58	0x3ca4cf3e	0.020118352
59	0x3cf9f5ee	0.030512776
60	0x3a78deba	0.0009493638
61	0xbeede534	-0.4646393
62	0xbef812c7	-0.48451826
63	0x3db4b3e8	0.08823377
64	0xbeb3db34	-0.35128176
65	0xbea6cf95	-0.32580248
66	0x3e35e1c3	0.17761903
67	0xbc58fe9a	-0.0132442955
68	0x3a977e21	0.0011557975
69	0x3cfb8134	0.030701257
70	0x3c1290ed	0.008945686
71	0xbd1652fa	-0.036700226
72	0xbd974183	-0.07385542
73	0xbd594e3f	-0.053053137
74	0xbd70b7a7	-0.058768895
75	0xbc094f90	-0.008380786
76	0xbc885b41	-0.016645076
77	0xbd823a73	-0.063588046
78	0xbdfcf294	-0.123509556
79	0xbdd09192	-0.10184015
80	0xbe0c707c	-0.13714784
81	0xbe060979	-0.13089551
82	0xbe0fe102	-0.14050677
83	0xbe070bac	-0.13188046
84	0xbe5b7781	-0.21432306
85	0x3c2f6b15	0.010706683
86	0xbc06b8bc	-0.008222755
87	0xbe30066e	-0.17189953
88	0x3d0d099b	0.03443299
89	0x3d4c6edf	0.049910422
90	0x3e2ba43b	0.16761868
91	0x3d2c199e	0.042016618
92	0x3dea5e47	0.11443763
93	0x3d17745b	0.0369762
94	0x3d4a289b	0.04935513
95	0x3ce75ad7	0.028241558
96	0xbdf8ecf6	-0.12154572
97	0xbd5fe3b6	-0.05466052
98	0xbcf7159f	-0.030161677
99	0xbd9b2083	-0.075745605
100	0x3d23e5fc	0.040014252
101	0x3d7f3363	0.062304866
102	0xbd0f98f9	-0.035057995
103	0x3e40fe1d	0.18846937
104	0x3e5320f3	0.20618038
105	0x3e1fb85f	0.15597676
106	0x3e172f75	0.14764197
107	0x3e074138	0.13208473
108	0x3d1f6fc5	0.03892495
109	0xbcd77f4e	-0.02630582
110	0xbd2f5b81	-0.042811874
111	0xbe24c0fa	-0.1608924
112	0xbd37cda5	-0.044873852
113	0xbdb66dc6	-0.08907656
114	0x3cb48ad3	0.022038853
115	0x3e1911e9	0.14948238
116	0x3e01660d	0.12636586
117	0x3cfdfdd2	0.03100482
118	0x3d870931	0.0659355
119	0x3d9fc037	0.07800334
120	0xbce09f99	-0.027419852
121	0x3c00c099	0.007858419
122	0x3d189861	0.037254695
123	0xbd6eb6db	-0.058279853
124	0x3d83c5ae	0.06434189
125	0x3ce681d0	0.028138071
126	0xbdaff4ad	-0.0859159
127	0xbd16f46e	-0.0368542
128	0xbdc22fcb	-0.09481772
129	0xbcf3d44b	-0.029764315
130	0x3d1e5fd0	0.038665593
131	0xbd36ff28	-0.04467693
132	0xbd0c465b	-0.034246784
133	0x3da29d45	0.07940153
134	0x3a8707a9	0.0010301966
135	0xbe0ae661	-0.13564445
136	0xbdce3a15	-0.10069672
137	0xbd93b522	-0.07212283
138	0xbd83b5b2	-0.0643114
139	0x3d35853c	0.044316515
140	0x3d036c14	0.032085493
141	0xbde5dd6d	-0.11223874
142	0x3daae3bc	0.08344218
143	0x3d7c23e0	0.06155765
144	0xbd796d37	-0.06089517
145	0x3db39d95	0.08770291
146	0x3e159772	0.14608553
147	0x3dbcef00	0.09225273
148	0x3dfe3203	0.12411883
149	0x3e46fbbf	0.19431971
150	0xbafaae4e	-0.0019125433
151	0xbe1b0df9	-0.15142049
152	0xbdc22493	-0.09479632
153	0xbc1b4716	-0.009477397
154	0xbdb9086c	-0.090348095
155	0xbd8dbd5d	-0.06920884
156	0xbd311ff7	-0.043243375
157	0x3d42abdc	0.04752718
158	0x3cacb91e	0.021084365
159	0xbd965465	-0.07340316
160	0x3e8091f6	0.2511136
161	0x3e0ea575	0.13930304
162	0xbe340bc9	-0.1758262
163	0x3ea84cba	0.32871038
164	0x3e6e9790	0.23300004
165	0x3abba7af	0.0014316941
166	0xbe47aeed	-0.19500323
167	0xbdc70074	-0.09716883
168	0xbda567ab	-0.08076414
169	0xbe1bd7a7	-0.15218984
170	0xbe2235f9	-0.15840901
171	0xbcc16587	-0.023607982
172	0x3dc1093b	0.09425589
173	0x3e03696a	0.12833181
174	0x3b3445e1	0.0027507471
175	0x3e678d00	0.22612381
176	0x3e15919d	0.14606328
177	0xbe09b549	-0.13448061
178	0x3dec0000	0.115234375
179	0x3e42892e	0.18997642
180	0x3de1b301	0.110204704
181	0xbd454f71	-0.048171464
182	0x3ce2dccb	0.027693173
183	0xbd2f2777	-0.042762246
184	0xbe80ff5b	-0.2519482
185	0xbded54cd	-0.1158844
186	0x3d288e6c	0.04115145
187	0xbe2791b1	-0.1636417
188	0xbd03eede	-0.032210223
189	0x3de455a3	0.111491464
190	0x3e07dd73	0.1326807
191	0x3e32020a	0.1738359
192	0xbc722ef8	-0.014781706
193	0x3dbf98ce	0.09355317
194	0x3e232746	0.1593295
195	0x3dcf7b4a	0.101309374
196	0x3d6e1083	0.058121216
197	0x3e429898	0.19003522
198	0x3dbbfe6c	0.091793865
199	0xbdb5d7ad	-0.088790275
200	0xbc1b2eaf	-0.009471579
201	0x3df2f36b	0.118628345
202	0xbe3ccebc	-0.18438238
203	0xbe0467b8	-0.1293019
204	0x3e3e8468	0.18605196
205	0xbde0a3e6	-0.10968761
206	0x3cefda4b	0.029278895
207	0x3e0a1826	0.13485774
208	0xbc6efcdc	-0.014586654
209	0x3bc88562	0.006119416
210	0xbd200c30	-0.039074123
211	0x3de281ed	0.110599376
212	0x3e4df3a7	0.20112477
213	0xbc72edb5	-0.014827182
214	0x3d2349d4	0.03986533
215	0x3e0d4f73	0.13799839
216	0xbde39e0d	-0.1111413
217	0xbe226929	-0.15860428
218	0xbdcc767a	-0.09983535
219	0xbdb982fc	-0.090581864
220	0xbecc1d32	-0.39866024
221	0xbe82df2b	-0.2556089
222	0x3e3b6f24	0.18304116
223	0xbe9a4bd5	-0.3013598
224	0xbe6e4f00	-0.23272324
225	0x3c61cebb	0.013782199
226	0x3e167337	0.14692388
227	0x3d5fa63f	0.054601904
228	0xbe09a928	-0.13443434
229	0x3d28327b	0.041063767
230	0x3d2987a0	0.041389108
231	0xbe1c53f4	-0.152664
232	0xbd14c9f0	-0.036325395
233	0xbd95a649	-0.07307107
234	0xbe1456db	-0.14486258
235	0xbc815ef9	-0.015792357
236	0xbd92a3fd	-0.071601845
237	0x3d40bf79	0.047057603
238	0x3e4aa93a	0.19791117
239	0x3e1b67e9	0.15176357
240	0x3dc3dc47	0.09563499
241	0x3e7e11ac	0.24811429
242	0x3e15548b	0.14583032
243	0xbda27613	-0.07932677
244	0x3e2688d9	0.1626314
245	0x3dc7ea45	0.0976148
246	0xbddc802e	-0.10766636
247	0xbd435e88	-0.047697574
248	0x3bc5b114	0.0060330722
249	0xbe3c3333	-0.18378906
250	0xbe0b9250	-0.13630033
251	0xbe1430e4	-0.14471775
252	0xbda98e2a	-0.08279069
253	0x3d0b4701	0.03400326
254	0x3d855c72	0.06511773
255	0xbdad6e7b	-0.08468338

model/conv2d_1/Conv2D f4 [64, 1, 1, 64]
0	0xbe3c8de7	-0.18413506
1	0xbd8f9892	-0.07011522
2	0xbe6218d9	-0.22079791
3	0xbe3cacf2	-0.18425348
4	0x3db1a80c	0.086746305
5	0xbe83fdec	-0.25779665
6	0x3e2585a5	0.16164263
7	0x3d90b779	0.07066245
8	0x3b1e526a	0.002415801
9	0xbe54923d	-0.2075891
10	0xbe8b894f	-0.27253196
11	0x3e1e5752	0.15462998
12	0xbe85ad99	-0.26109007
13	0xbdf4ded2	-0.11956562
14	0xbe076720	-0.13222933
15	0x3db8c2f0	0.090215564
16	0x3c6b26b4	0.014352489
17	0x3e9cf3b5	0.30654684
18	0x3d22a466	0.039707564
19	0xbd688fcd	-0.056777764
20	0xbd9abae9	-0.075551815
21	0xbf05d1dc	-0.52273345
22	0x3eb2c5a8	0.34916425
23	0x3df3c5a9	0.11902935
24	0x3e483652	0.19551972
25	0x3e1052b0	0.14094043
26	0xbe72e4b0	-0.2372005
27	0xbdf6d35b	-0.120520316
28	0xbd97ab00	-0.074056625
29	0xbe0a0218	-0.13477361
30	0x3e424233	0.18970565
31	0xbe887b09	-0.26656368
32	0x3e9320e9	0.28736046
33	0xbe08b133	-0.13348846
34	0xbe21d86f	-0.15805219
35	0x3d80741b	0.06272145
36	0xbe81d84e	-0.2536034
37	0x3e90e58b	0.28300127
38	0x3e91a8a9	0.2844899
39	0x3e4e2970	0.20132995
40	0x3bb9a4dc	0.0056654047
41	0x3d914fe7	0.07095318
42	0xbed83dfa	-0.42234784
43	0x3d6aa16d	0.057282854
44	0xbda77310	-0.08176243
45	0x3d26a395	0.040683348
46	0xbd6734d7	-0.056446876
47	0xbe0879a0	-0.13327646
48	0x3dc19f8a	0.09454258
49	0xbe434a8b	-0.19071405
50	0xbe9cc087	-0.30615637
51	0xbe6bab75	-0.23014624
52	0x3d58d6e6	0.052939318
53	0xbe943ba2	-0.28951746
54	0xbe48860d	-0.19582386
55	0x3d6fe2b6	0.058565818
56	0x3d0a7847	0.03380611
57	0xbd80bfd3	-0.062865876
58	0xbdfd30ce	-0.123628244
59	0x3e365a58	0.17807901
60	0xbdf8ce84	-0.12148765
61	0x3e5f375d	0.21798463
62	0x3d98bf82	0.07458402
63	0xbe997633	-0.2997299
64	0x3dc8565c	0.09782097
65	0xbc923927	-0.017849518
66	0xbe2f5833	-0.17123489
67	0x3da6f207	0.08151632
68	0x3ebc24d8	0.3674686
69	0xbdc6df26	-0.09710531
70	0x3cdce60c	0.026965164
71	0xbebe09f0	-0.37116957
72	0x3e8fa86d	0.28058186
73	0x3d867054	0.06564394
74	0xbe5793fb	-0.21052544
75	0xbdb73c26	-0.08947019
76	0x3e0ae259	0.13562907
77	0x3d1e91fd	0.038713444
78	0xbe0becc3	-0.13664536
79	0x3d12295f	0.035683986
80	0x3e3fc0bc	0.18725866
81	0xbdf33f09	-0.118772574
82	0xbea7ac72	-0.32748753
83	0xbe15c37f	-0.14625357
84	0xbdac9098	-0.084260166
85	0xbd6ae6e7	-0.057349112
86	0xbd65e13b	-0.056123
87	0xbe68fc44	-0.22752482
88	0xbdf665d0	-0.12031138
89	0xbe0b5e7b	-0.1361026
90	0xbe4d404e	-0.20044062
91	0xbceae0ee	-0.028671708
92	0xbea6a85f	-0.32550332
93	0x3df7e50c	0.12104234
94	0x3dbd9c32	0.092583075
95	0x3d825504	0.06363872
96	0x3de3bdff	0.11120223
97	0xbd6b85df	-0.057500716
98	0xbd86994d	-0.065722086
99	0x3cb1fdc8	0.021727458
100	0x3ec94f12	0.39318138
101	0xbe1c9baa	-0.15293756
102	0xbe4a7409	-0.19770826
103	0xbd8e6b63	-0.06954076
104	0x3d786582	0.06064368
105	0x3d3047b6	0.04303714
106	0x3dbfd435	0.09366647
107	0xbe67fbc4	-0.22654635
108	0x3da3a0c5	0.07989649
109	0xbe6d027c	-0.23145479
110	0xbdb3d905	-0.087816276
111	0xbe3ae6ff	-0.1825218
112	0x3e0fd267	0.14045106
113	0xbe1a2250	-0.15052152
114	0x3e4d0f30	0.20025325
115	0xbeb6e4b7	-0.3572137
116	0x3e4f2a79	0.20231046
117	0x3dd197df	0.10234045
118	0xbead51e6	-0.33851546
119	0xbe8d17d4	-0.27557242
120	0xbd968b12	-0.07350744
121	0xbdc74271	-0.097294696
122	0x3e12b49b	0.14326708
123	0xbe81e724	-0.2537166
124	0x3c6e95ef	0.014562114
125	0x3d873f47	0.06603866
126	0x3d96412c	0.07336649
127	0xbe476647	-0.1947261
128	0x3c65cc72	0.014025794
129	0x3dd15853	0.10221925
130	0xbd621118	-0.055192083
131	0xbe41aa3e	-0.18912598
132	0x3ddff494	0.109353215
133	0x3da40018	0.080078304
134	0xbe94850f	-0.29007766
135	0xbebe2225	-0.37135425
136	0x3de0109a	0.109406665
137	0x3e634ca9	0.22197212
138	0x3e24c738	0.16091621
139	0x3e1209bb	0.14261524
140	0x3d254db4	0.040357307
141	0xbde7bd0c	-0.11315355
142	0xbf132061	-0.5747128
143	0xbd5577b8	-0.052116126
144	0xbc7710e4	-0.015079711
145	0xbdb2f523	-0.08738162
146	0xbea64be1	-0.32479766
147	0xbe7c642c	-0.24647588
148	0xbd2919a2	-0.04128421
149	0xbd4fc65b	-0.050726276
150	0xbe7ba78d	-0.24575634
151	0xbd2fd3fb	-0.04292677
152	0x3e38ac37	0.18034445
153	0xbda09f50	-0.078428864
154	0x3e85a78d	0.26104394
155	0xbd1bae52	-0.03800804
156	0xbe940471	-0.2890964
157	0xbd193f4e	-0.037413888
158	0xbdb406a6	-0.087903306
159	0x3db5dcda	0.08880015
160	0x3e2c4f26	0.16827068
161	0xbd1a3925	-0.037652154
162	0xbe666b6b	-0.22501914
163	0xbdce814d	-0.10083256
164	0xbe8eeaa7	-0.279134
165	0x3e87a40d	0.26492348
166	0xbe80de55	-0.25169626
167	0x3e134668	0.14382327
168	0xbda53930	-0.08067548
169	0x3dfa0776	0.12208454
170	0xbd353cc3	-0.0442474
171	0x3ca79263	0.020455545
172	0x3da52292	0.080632344
173	0xbb0250a3	-0.001988449
174	0xbea2fc5b	-0.31833157
175	0x3dcd1792	0.10014261
176	0xbe1d5ec0	-0.15368176
177	0xbd7fb32b	-0.062426727
178	0xbd0c17ad	-0.034202266
179	0xbee2ca25	-0.4429485
180	0x3d8167f7	0.06318658
181	0x3d9dd399	0.07706375
182	0x3e0f162f	0.13973306
183	0xbc07b1ae	-0.008282108
184	0x3e863094	0.26208937
185	0x3ead10f4	0.33801997
186	0x3e091a31	0.13388897
187	0xbea1729e	-0.31532758
188	0x3e6333e7	0.22187768
189	0x3ea14bc0	0.31503105
190	0x3e15198c	0.14560527
191	0x3e649f3c	0.22326368
192	0xbc0cffd9	-0.008605921
193	0xbbfcc47c	-0.0077138525
194	0xbbc88a89	-0.0061200303
195	0x3c8ddf3a	0.017318357
196	0x3dd2f771	0.10301102
197	0x3cfbc328	0.030732706
198	0xbe73e674	-0.2381838
199	0x3b84fb03	0.0040582432
200	0xbdacf1c6	-0.08444552
201	0xbd6e8344	-0.058230653
202	0xbe288c6e	-0.1645982
203	0xbbe7eb87	-0.0070776376
204	0xbe842b8a	-0.25814468
205	0x3d13b020	0.036056638
206	0x3d224db6	0.039624892
207	0xbe46acee	-0.19401905
208	0xbe2f64ca	-0.17128292
209	0x3ee7ce7a	0.45274717
210	0xbe441de5	-0.19152029
211	0xbe16201a	-0.14660683
212	0xbdd0d4a6	-0.101968095
213	0x3e2ac4ab	0.16676585
214	0xbd8b62a5	-0.06805924
215	0x3d66f6f7	0.056387868
216	0xbcd6e2e4	-0.026231237
217	0xbddb1b71	-0.106985934
218	0xbdbb2b6b	-0.09139141
219	0xbe2751a3	-0.16339736
220	0x3b790160	0.0037995204
221	0xbd50564e	-0.050863557
222	0x3ac6ecd7	0.0015176785
223	0xbd93c6e5	-0.072156705
224	0xbed748b8	-0.42047668
225	0x3df1562f	0.11784016
226	0x3d4841a8	0.04889074
227	0xbe18618d	-0.14880963
228	0x3e9888d5	0.29791895
229	0x3d9d4bca	0.07680471
230	0x3df41c0d	0.11919413
231	0x3e3c1fdc	0.18371528
232	0xbe69f2f1	-0.22846581
233	0xbe6e5e10	-0.2327807
234	0xbe754b42	-0.2395449
235	0x3d7ec9f0	0.0622043
236	0xbe6e8f8c	-0.23296946
237	0xbe5e6292	-0.21717289
238	0x3b4c6438	0.0031187665
239	0x3c9f29ec	0.01942917
240	0x3d680d5e	0.056653373
241	0xbcfc738a	-0.030816812
242	0x3e9848d7	0.29743072
243	0xbd88e3a7	-0.06684046
244	0xbeae4b48	-0.3404181
245	0x3e6e8b5b	0.23295347
246	0xbca6be65	-0.020354459
247	0xbece25c9	-0.40263203
248	0xbbe1468e	-0.006874866
249	0x3dd57fef	0.10424792
250	0x3e8c4d0f	0.2740254
251	0xbddcaf75	-0.10775653
252	0x3e39a1b5	0.18128093
253	0x3ed1081b	0.40826496
254	0xbe8420fd	-0.25806418
255	0x3e287ca2	0.16453794

model/conv2d_2/Conv2D f4 [64, 3, 3, 64]
0	0x3e3538dd	0.17697473
1	0x3bdc0dc7	0.0067155096
2	0x3e2f59f0	0.17124152
3	0x3e4c2115	0.19934495
4	0x3e4d4e55	0.20049413
5	0x3e58e848	0.21182358
6	0x3e6816d1	0.22664954
7	0xbe01f27e	-0.1269016
8	0x3bcccb5d	0.0062498287
9	0xbe08c062	-0.13354638
10	0x3e9ff7d6	0.3124377
11	0xbcb6a2b4	-0.02229438
12	0xbd299d2a	-0.04140965
13	0x3e927db7	0.28611538
14	0x3e145f03	0.14489369
15	0xbc6ea7c6	-0.0145663675
16	0x3de89e26	0.113582894
17	0x3d22e438	0.039768428
18	0x3e90f422	0.2831126
19	0x3d0152ba	0.031573035
20	0x3de80866	0.11329727
21	0x3de8f246	0.11374335
22	0xbdf253b7	-0.118323736
23	0xbdcfab74	-0.10140124
24	0x3e38b53f	0.1803789
25	0xbb5ec793	-0.0033993467
26	0xbe1747a1	-0.14773418
27	0x3cec6635	0.02885733
28	0xbc4aa9a4	-0.012369547
29	0x3debbaa5	0.11510209
30	0x3d067c69	0.03283349
31	0x3e0ce748	0.13760102
32	0x3caf7d0e	0.021421935
33	0x3e25cef0	0.16192222
34	0x3dd7bcbd	0.10534046
35	0x3d8d65a1	0.0690415
36	0x3c025f88	0.007957347
37	0x3e5d7089	0.2162496
38	0x3e05423c	0.13013548
39	0x3d55d62e	0.05220621
40	0x3e065909	0.13119902
41	0x3e925db2	0.2858711
42	0x3d068c84	0.03284885
43	0x3d3f8f46	0.046767496
44	0xbdab24b4	-0.0835661
45	0x3e129118	0.14313161
46	0x3db4f99d	0.088366725
47	0x3dd1ec2f	0.102501266
48	0x3d9eff2a	0.077635124
49	0x3e2a6447	0.16639815
50	0x3d307763	0.043082606
51	0xbe27ada4	-0.16374832
52	0x3ca44dbc	0.020056598
53	0x3e12f13c	0.14349836
54	0xbd8f07b3	-0.069838904
55	0x3e4de271	0.20105912
56	0x3ead3961	0.3383284
57	0xbda8324e	-0.0821272
58	0x3c58081a	0.013185525
59	0x3c100952	0.008791285
60	0x3bee8761	0.007279322
61	0xbc59a3a4	-0.013283644
62	0x3e14f02b	0.14544742
63	0x3da8e140	0.08246088
64	0x3d2b65fc	0.041845307
65	0x3e2faa4e	0.1715481
66	0xbb9f73a6	-0.0048660813
67	0xbdd7a6f7	-0.10529893
68	0x3e8ed636	0.27897805
69	0x3de4a4cf	0.11164247
70	0xbdb8c885	-0.09022621
71	0x3e7688ae	0.24075577
72	0xbdc22e59	-0.09481496
73	0xbe3a2948	-0.1817981
74	0xbd7a876a	-0.061164297
75	0x3e34ea85	0.17667587
76	0x3e7a0e68	0.24419558
77	0x3d916764	0.07099798
78	0xbdc42864	-0.095780164
79	0xbdf70eca	-0.12063368
80	0x3c94075a	0.018069912
81	0xbdf51c34	-0.1196827
82	0x3e82c562	0.25541216
83	0x3e32cbd6	0.1746057
84	0xbd85faa9	-0.0654195
85	0x3d9ff4dd	0.07810376
86	0xbd144929	-0.036202583
87	0x3d325f43	0.04354788
88	0xbdc4ef55	-0.096159615
89	0xbdef76dc	-0.116925925
90	0xbd1205bf	-0.03565001
91	0xbddb0d09	-0.10695846
92	0xbe207f71	-0.15673615
93	0xbda47f72	-0.08032121
94	0xbccaaf8b	-0.024741909
95	0xbe99fa13	-0.30073604
96	0xbe23f6ee	-0.16012165
97	0xbdfa7238	-0.12228817
98	0x3e66864b	0.22512166
99	0x3c802d2d	0.015646541
100	0x3c9ce751	0.019153269
101	0xbe685996	-0.22690424
102	0xbb07929a	-0.0020686747
103	0xbe2c037d	-0.16798206
104	0x3e27d0f0	0.16388297
105	0xbdbd1f7a	-0.09234519
106	0xbc1e0607	-0.009644992
107	0x3e53de8d	0.20690365
108	0x3ddb04e6	0.10694294
109	0xbdd72fc7	-0.1050716
110	0xbd9dbbf8	-0.07701868
111	0x3dab2ca8	0.08358127
112	0x3cd65016	0.026161235
113	0xbd5226cf	-0.051306542
114	0x3e30e2b7	0.17273985
115	0x3db0ca29	0.08632309
116	0xbde8800d	-0.11352549
117	0xbe2f26b3	-0.17104606
118	0xbda9d1be	-0.08291958
119	0x3e1d8a6d	0.15384836
120	0xbd864d7a	-0.06557746
121	0xbe758af0	-0.23978782
122	0x3e593391	0.21211077
123	0x3be72be1	0.0070547913
124	0xbd07c8a4	-0.03315033
125	0x3e89be27	0.26902887
126	0xbe3ce0c7	-0.18445121
127	0x3da15e1e	0.078792796
128	0x3bc67488	0.006056372
129	0x3d039748	0.032126695
130	0xbdf4c2c8	-0.11951214
131	0x3b0fa411	0.002191786
132	0xbd7a1926	-0.06105914
133	0xbdab0b5c	-0.08351776
134	0x3d48b9af	0.049005207
135	0xbbf8dda3	-0.0075947805
136	0xbe1af4cc	-0.15132445
137	0x3ccef96e	0.025265422
138	0xbe79b581	-0.24385644
139	0xbcffe3eb	-0.03123661
140	0xbdc9ab38	-0.098471105
141	0xbe9eb8b9	-0.31000307
142	0x3e9f1a03	0.31074533
143	0xbe1e0ab9	-0.15433778
144	0xbe93af28	-0.2884457
145	0xbd7c176a	-0.061545767
146	0xbd885f45	-0.06658796
147	0xbdbb9cd4	-0.09160772
148	0xbcdedf47	-0.027206076
149	0xbdc5ab74	-0.09651843
150	0x3df057ba	0.117354825
151	0x3ba18ac1	0.004929871
152	0x3d68cd5a	0.056836464
153	0x3e4e2933	0.20132904
154	0xbe102fa8	-0.1408068
155	0xbc24c1cc	-0.01005597
156	0xbe7c1693	-0.24617986
157	0xbe2b086a	-0.16702428
158	0xbe0ee37f	-0.1395397
159	0xbe0415e7	-0.1289898
160	0xbe3547dd	-0.17703195
161	0xbea1a2e4	-0.31569588
162	0xbc7a96e4	-0.015294764
163	0xbdbbe877	-0.091751985
164	0xbecfe596	-0.40604848
165	0x3d9b6055	0.07586733
166	0xbe617aff	-0.22019576
167	0x3d57d1c3	0.05269028
168	0xbe3688b9	-0.17825593
169	0x3e480fa4	0.19537216
170	0xbf036e27	-0.51339954
171	0xbe4e59ed	-0.20151491
172	0xbb482543	-0.0030539788
173	0xbcc96bcc	-0.024587534
174	0xb9f6edc8	-0.00047097937
175	0xbea7ce0d	-0.32774392
176	0xbe296b8a	-0.16544929
177	0xbe02a27d	-0.12757297
178	0xbdda6290	-0.106633306
179	0x3d739d65	0.059476275
180	0xbcd20f47	-0.02564205
181	0xbebc8449	-0.36819676
182	0xbe6a419a	-0.22876588
183	0x3d322033	0.04348774
184	0xbe6da5d7	-0.23207794
185	0xbd777cb8	-0.060421675
186	0x3d9f1a70	0.077687144
187	0x3d80cb6a	0.06288798
188	0xbc5910f6	-0.013248673
189	0xbe43e512	-0.19130352
190	0xbe43d5ed	-0.19124575
191	0xbcc5bfa2	-0.02413923
192	0x3d98e05a	0.07464667
193	0x3e2a8b1e	0.16654631
194	0x3e17c99a	0.14822999
195	0x3d9e3c49	0.07726342
196	0x3dd20295	0.10254399
197	0xbcfb374b	-0.030666014
198	0x3c612394	0.013741393
199	0x3c60fd85	0.013732319
200	0x3dad1c98	0.084527194
201	0x3d74dc68	0.05978051
202	0xbb279ca3	-0.002557554
203	0x3d70e2f1	0.05881018
204	0x3deb59fa	0.11491771
205	0x3df653ee	0.12027727
206	0xbd270c27	-0.040783074
207	0x3bc02e22	0.0058648745
208	0x3de3bb10	0.11119664
209	0x3e12bd41	0.14330007
210	0xbd6e771c	-0.05821906
211	0x3e3425a9	0.17592491
212	0x3e9d1d77	0.30686542
213	0x3e41d2e9	0.18928112
214	0x3c0d1dad	0.008613032
215	0x3daafd4a	0.08349092
216	0xbd9580b7	-0.07299941
217	0x3d8f5019	0.06997699
218	0x3cf0328c	0.029320978
219	0x3e18118c	0.14850444
220	0xbbc84e91	-0.0061128815
221	0x3c4f01bf	0.012634694
222	0xbe2f3ff7	-0.17114244
223	0x3da17003	0.07882693
224	0xbd5738c4	-0.05254437
225	0x3d692116	0.05691632
226	0x3e0249a7	0.12723409
227	0x3d1bb0fa	0.038010575
228	0x3d382eac	0.044966385
229	0xbc8f72b7	-0.017510755
230	0xbdd4f1be	-0.10397671
231	0x3e1cf8de	0.1532931
232	0x3e6e2add	0.23258539
233	0xbde7c430	-0.11316717
234	0xbdfd4690	-0.12366974
235	0xbc463e16	-0.012099763
236	0x3cc7c69d	0.024386698
237	0x3e5dd69f	0.21663903
238	0xbd7468c1	-0.059670214
239	0xbc8af052	-0.016960297
240	0x3e26018a	0.16211525
241	0x3e32ca6a	0.17460027
242	0x3e154977	0.14578806
243	0xbd67159e	-0.0564171
244	0x3e0c33b1	0.13691594
245	0xbd8336d6	-0.064069435
246	0x3db7fb98	0.089835346
247	0x3d95fd86	0.073237464
248	0x3e9d6e09	0.30748013
249	0xbdcc5363	-0.09976842
250	0x3e36eb8a	0.17863289
251	0xbc489665	-0.012242888
252	0xbd528b80	-0.05140257
253	0x3e1533e9	0.14570583
254	0x3e086e94	0.13323432
255	0x3d2e5210	0.04255873

model/conv2d_3/Conv2D f4 [64, 3, 3, 64]
0	0xbe8062dc	-0.25075424
1	0xbdefc357	-0.1170718
2	0xbd2de1fc	-0.042451844
3	0xbd93fffe	-0.07226561
4	0x3dab2f8b	0.083586775
5	0xbdd47c85	-0.10375313
6	0xbd990b30	-0.07472837
7	0x3e346d16	0.17619738
8	0xbe92fcf0	-0.287086
9	0xbe33f338	-0.1757325
10	0xbcc66d0e	-0.024221923
11	0x3db48992	0.08815302
12	0xbdfb9e19	-0.12286014
13	0xbccb1e40	-0.024794698
14	0xbe69c114	-0.2282756
15	0x3e227c1a	0.15867653
16	0x3cd54418	0.026033446
17	0xbe3106e6	-0.17287788
18	0xbe66272f	-0.22475885
19	0x3d149bb3	0.0362813
20	0xbe870d89	-0.26377514
21	0x3d6c6a81	0.057718758
22	0xbdd11ab5	-0.10210172
23	0xbe04d244	-0.12970835
24	0x3dc1daa1	0.09465528
25	0xbe47a4a5	-0.194964
26	0x3e419031	0.18902661
27	0xbe930e74	-0.28721964
28	0x3d62a8a0	0.055336595
29	0xbd0e838e	-0.03479343
30	0xbe0b68b1	-0.13614155
31	0xbe08999f	-0.13339852
32	0x3e549aa3	0.20762114
33	0xbdcd6762	-0.10029484
34	0x3ccb64c5	0.024828324
35	0x3dfdcd01	0.12392617
36	0xbd9d1d0d	-0.076715566
37	0xbd067133	-0.0328228
38	0xbe02d9fd	-0.12778468
39	0xbd8912f2	-0.06693067
40	0xbe4f82dc	-0.20264763
41	0xbe19498f	-0.14969467
42	0x3d081f4e	0.03323298
43	0xbdf6f9cf	-0.12059366
44	0xbe15aac3	-0.14615922
45	0xb988b836	-0.0002607719
46	0xbc9d22e0	-0.019181669
47	0xbc246e89	-0.010036119
48	0x3e025f0e	0.12731573
49	0x3da2610b	0.07928666
50	0x3e709387	0.23493777
51	0x3e54da37	0.20786367
52	0xbe9aa836	-0.3020646
53	0xbe7f51af	-0.24933504
54	0x3ce77f08	0.028258815
55	0xbda73e38	-0.08166164
56	0xbdcfbbbf	-0.101432316
57	0x3dc26e8c	0.094937414
58	0xbe3ad2db	-0.18244497
59	0xbe4c4e5f	-0.19951771
60	0x3d276db2	0.040876098
61	0xbebc7540	-0.36808205
62	0x3cb16d1c	0.021658473
63	0xbd6df3aa	-0.058093704
64	0xbe12bad1	-0.14329077
65	0x3d435bdd	0.04769503
66	0xbe77c743	-0.24197106
67	0xbde81359	-0.11331815
68	0x3d175537	0.0369465
69	0xbd34ed4d	-0.04417162
70	0xbe352903	-0.17691426
71	0x3dd2e90f	0.10298359
72	0xbd4c3e94	-0.049864367
73	0x3a9fd459	0.0012194022
74	0xbd39d170	-0.04536575
75	0x3e27f63d	0.16402526
76	0xbcde4eff	-0.027137278
77	0xbdcdcc43	-0.100487255
78	0xbe4aab2b	-0.19791858
79	0x3b69684d	0.0035615147
80	0x3ea0f50d	0.3143696
81	0xbe790ec4	-0.24322039
82	0x3d443b75	0.047908265
83	0xbdf4917a	-0.1194181
84	0xbdb93556	-0.09043376
85	0xbde0ce6e	-0.10976873
86	0xbdfa1b40	-0.12212229
87	0xbde40d4d	-0.111353494
88	0xbc773061	-0.015087218
89	0xbdfb25d1	-0.12263072
90	0x3d9e9359	0.07742948
91	0xbd972182	-0.07379438
92	0xbdbde3c1	-0.09271956
93	0xbcec2a4b	-0.02882876
94	0x3dd6e548	0.10492951
95	0xbe0db5fe	-0.13838956
96	0xbdcbffd7	-0.09960907
97	0x3aa5e0c8	0.0012655491
98	0x3e102e4a	0.14080158
99	0x3d52bdb7	0.051450457
100	0x3e06083d	0.1308908
101	0xbe0b384d	-0.13595696
102	0x3e67bb2f	0.22629999
103	0x3e166ae8	0.14689219
104	0xbe4745dd	-0.19460244
105	0x3d665890	0.056236804
106	0xbeb6f63d	-0.3573474
107	0xbad94908	-0.0016577551
108	0xbd03756b	-0.0320944
109	0x3c4ff25b	0.012692059
110	0x3c01d741	0.007924856
111	0xbd51a3db	-0.051181655
112	0xbe1eaee5	-0.15496404
113	0xbd7b793e	-0.061394922
114	0x3df1f181	0.11813641
115	0x3e5c4060	0.21508932
116	0x3de47bb7	0.11156409
117	0xbd9189c0	-0.07106352
118	0x3de181fb	0.1101112
119	0xbe9fd6aa	-0.31218463
120	0x3ce5b473	0.028040146
121	0xbd40ea53	-0.04709847
122	0x3d3c68fb	0.045998555
123	0x3e347294	0.17621833
124	0x3c7a102d	0.015262646
125	0x3da45f63	0.08026006
126	0xbca3c61c	-0.019991927
127	0x3d9383f7	0.07202905
128	0x3d422253	0.047396015
129	0xbd59e004	-0.053192154
130	0xbd42640b	-0.04745869
131	0xbe531927	-0.20615064
132	0xbc9b2c87	-0.01894213
133	0x3e206d54	0.15666705
134	0xbdb14442	-0.08655597
135	0xbe7217ed	-0.2364194
136	0xbd039f80	-0.032134533
137	0xbb5fcb0d	-0.0034148127
138	0xbc070f6a	-0.008243421
139	0xbd8c1f9d	-0.06841967
140	0xbd51a9e7	-0.051187422
141	0x3c2182ed	0.009857875
142	0x3e379814	0.17929107
143	0xbe941371	-0.28921083
144	0x3de17490	0.11008561
145	0x3d3411ba	0.043962218
146	0x3dc8f675	0.09812633
147	0xbc865421	-0.016397538
148	0xbe5b04d5	-0.21388562
149	0xbd8a158a	-0.067423895
150	0x3d473479	0.048634026
151	0x3e208a99	0.15677871
152	0x3e1d3a11	0.15354182
153	0xbe387c22	-0.18016103
154	0xbe82797e	-0.25483316
155	0x3e23267d	0.15932651
156	0xbd56e1a6	-0.05246129
157	0xbd0754e4	-0.033039942
158	0x3e402777	0.18765055
159	0xbdb00ded	-0.08596406
160	0xbe56851b	-0.20949213
161	0x3ddd85bc	0.108165234
162	0x3e1dd8f6	0.15414795
163	0xbd6ae678	-0.0573487
164	0x3dcf8056	0.101319
165	0x3bdede53	0.0068014055
166	0xbe51aba3	-0.2047563
167	0xbd544ce7	-0.051831152
168	0xbe2a7a86	-0.16648301
169	0x3d88171b	0.06645032
170	0xbeb3dc57	-0.35129043
171	0xbdf11c67	-0.117729954
172	0xbe0eec9f	-0.13957451
173	0x3e673990	0.22580552
174	0x3d834bb2	0.06410922
175	0xbe8ad0e8	-0.27112508
176	0xbe08e214	-0.13367492
177	0xbc2322fe	-0.009957073
178	0xbda57cd1	-0.080804475
179	0xbe135c53	-0.14390688
180	0xbd17ea7f	-0.037088867
181	0xbdcf5d9b	-0.10125276
182	0xbe6df9c5	-0.23239811
183	0x3c9a4bdf	0.018835006
184	0x3d75e2c5	0.060030717
185	0xbe2f56a5	-0.17122896
186	0xbdb47b39	-0.08812565
187	0xbe3f55d3	-0.18685083
188	0xbcb992be	-0.02265298
189	0xbce4041d	-0.027833993
190	0xbdfd5923	-0.12370517
191	0x3e9f4ed2	0.31114823
192	0xbdc1ecd6	-0.09469001
193	0xbe03de0b	-0.12877671
194	0xbd3fb2bc	-0.046801314
195	0xbdbad8b9	-0.09123368
196	0x3c7f3f5b	0.01557907
197	0xbe0e8771	-0.13918854
198	0x3d9d262d	0.07673297
199	0xbbd0cd3b	-0.0063721216
200	0x3d4fd787	0.050742652
201	0x3d82e4ec	0.0639132
202	0xbda9bd24	-0.08288029
203	0xbdb9a944	-0.09065488
204	0xbdaf97ff	-0.08573913
205	0x3df20faf	0.11819398
206	0xbe9c20ac	-0.30493677
207	0x3dd677dc	0.1047208
208	0x3c25107d	0.010074732
209	0x3d50a293	0.050936293
210	0xbe15ce29	-0.14629425
211	0xbce530b3	-0.027977323
212	0xbda3fc5d	-0.08007119
213	0xbc2989dd	-0.010347811
214	0xbda3fd68	-0.08007318
215	0xbc26a6b8	-0.010171585
216	0xbd8b8559	-0.068125434
217	0xbe5b622f	-0.21424173
218	0x3d15faf7	0.03661629
219	0xbe1d83e1	-0.15382339
220	0x3dbe14c6	0.09281306
221	0xbc17bcac	-0.0092612915
222	0x3d035678	0.032064885
223	0xbe193f94	-0.1496566
224	0xbd88a23d	-0.066715695
225	0xbdd640b4	-0.1046156
226	0xbe169557	-0.14705406
227	0x3c2ef558	0.010678612
228	0xbe66c73b	-0.22536938
229	0xbe5a38c0	-0.21310711
230	0xbdbdec5d	-0.09273598
231	0xbcedeaeb	-0.029042682
232	0xbe1896fb	-0.14901344
233	0x3a7a3f52	0.00095461786
234	0x3def285a	0.11677618
235	0xbe60b7a1	-0.21945049
236	0xbc836572	-0.016039584
237	0xbdb59fc3	-0.08868363
238	0xbcc2f804	-0.023799904
239	0xbdff0741	-0.124525554
240	0x3cc7b856	0.02437989
241	0x3a7bb16c	0.0009601328
242	0x3dacd8da	0.08439799
243	0xbd157917	-0.036492433
244	0xbd8192b6	-0.06326811
245	0x3e1d1bbc	0.15342611
246	0x3d8ff63b	0.070293866
247	0xbd4069b0	-0.04697579
248	0xbdd02398	-0.10163039
249	0x3de46e86	0.11153893
250	0xbe9e33d9	-0.30898932
251	0x3dabe0be	0.083924755
252	0x3e940d0a	0.28916198
253	0xbe3f2b4f	-0.18668865
254	0xbd733e04	-0.059385315
255	0xbd7ea9f4	-0.0621738

model/conv2d_4/Conv2D f4 [32, 3, 3, 64]
0	0x3b205301	0.0024463537
1	0xbdad28ee	-0.08455072
2	0xbdaad434	-0.08341256
3	0xbceac942	-0.02866042
4	0xbe32a3cb	-0.17445295
5	0xbe062443	-0.1309977
6	0xbdf4518e	-0.11929618
7	0xbe0cf50c	-0.13765353
8	0xbe42339b	-0.18964998
9	0xbe362be5	-0.17790182
10	0xbe6ffb7c	-0.23435777
11	0xbe30ff8d	-0.17284985
12	0xbe7b8893	-0.24563818
13	0xbe0b4371	-0.13599946
14	0xbe15ed3f	-0.14641283
15	0xbdaa3406	-0.08310704
16	0xbe9e8915	-0.3096396
17	0xbd86690a	-0.06563003
18	0xbe4cc311	-0.19996287
19	0xbd942e1e	-0.07235359
20	0xbd432224	-0.04763998
21	0xbdd73b14	-0.10509315
22	0x3bcd6817	0.006268512
23	0xbdf55593	-0.119792126
24	0xbda3a6d4	-0.07990804
25	0xbdc83c6e	-0.09777151
26	0xbd613077	-0.05497786
27	0xbcfd3303	-0.030908113
28	0x3d22067a	0.039556958
29	0xbe864cee	-0.26230568
30	0xbd71d76d	-0.059043337
31	0xbdce0f66	-0.10061531
32	0x3d167aff	0.036738392
33	0xbe34d5ea	-0.17659727
34	0xbe188fdb	-0.14898627
35	0xbe07626e	-0.13221142
36	0xbe320ba9	-0.1738726
37	0xbe10d959	-0.14145412
38	0xbe0f086f	-0.13968061
39	0xbe1db0b3	-0.15399437
40	0xbe2a73ba	-0.16645709
41	0x3a300cb0	0.0006715758
42	0x3e369591	0.17830493
43	0xbe7f39d9	-0.24924411
44	0xbe3cbe7c	-0.18432039
45	0xbe122945	-0.14273556
46	0x3bee62d9	0.007274967
47	0x3cee5cc8	0.029096976
48	0xbc92b214	-0.01790718
49	0xbe0aeb0f	-0.1356623
50	0xbe57f668	-0.2109009
51	0xbe0280d9	-0.12744464
52	0xbe08df8b	-0.13366525
53	0xbdd466df	-0.103711836
54	0xbe1e68e2	-0.15469697
55	0xbe154d9b	-0.14580385
56	0xbe4f79f5	-0.20261367
57	0xbe1ce159	-0.15320338
58	0xbdd6a779	-0.104811616
59	0xbe0ddf77	-0.13854776
60	0xbdb909fe	-0.09035109
61	0x3d9e9b74	0.07744494
62	0xbe2192b4	-0.15778619
63	0xbe21e70f	-0.15810798
64	0x3d6fa4e6	0.05850687
65	0xbe06750a	-0.13130584
66	0xbd6e03b5	-0.058109004
67	0xbdef60f9	-0.11688418
68	0xbd893840	-0.06700182
69	0xbe2bfc6a	-0.16795507
70	0x3e26d264	0.16291195
71	0x3d395a4b	0.045252126
72	0xbd8b1f5d	-0.067930914
73	0xbd856636	-0.06513636
74	0xbe02fbcf	-0.1279137
75	0xbe5539f1	-0.20822884
76	0xbd757efe	-0.059935562
77	0x3d2fcf3f	0.042922255
78	0x3e476698	0.1947273
79	0x3e65a0ca	0.22424617
80	0x3dd99020	0.10623193
81	0x3e2f793b	0.1713609
82	0xbe2d88e3	-0.1694675
83	0xbcc9b1b6	-0.024620872
84	0xbe1f89eb	-0.15579955
85	0x3da084e6	0.07837848
86	0x3e01b8e8	0.12668192
87	0xbe16f1ed	-0.14740725
88	0x3d91bba8	0.07115871
89	0xbe1bc2fe	-0.15211102
90	0x3e1e9a78	0.15488613
91	0x3cb202c6	0.021729838
92	0xbd3085b0	-0.043096244
93	0xbd578dca	-0.052625455
94	0x3a0f75c5	0.0005472566
95	0xbe49d996	-0.19711909
96	0x3d59bb1d	0.05315696
97	0x3d3fd75e	0.04683625
98	0x3d8a0ab9	0.067403264
99	0xbda467f0	-0.08027637
100	0xbdd8d60c	-0.10587701
101	0x3ddbaee6	0.107267186
102	0x3d2bd9d7	0.041955795
103	0xbdcf7fc9	-0.10131795
104	0xbca79353	-0.020455992
105	0x3dd7b39a	0.10532303
106	0xbd48dcd0	-0.04903871
107	0xbea61ac9	-0.3244231
108	0xbe8e5352	-0.27797943
109	0xbdf04c0b	-0.11733254
110	0x3d5ce526	0.05392947
111	0x3e2097f2	0.15682963
112	0xbe2af82f	-0.16696237
113	0x3d906f8b	0.07052525
114	0x3e4a9f1a	0.19787255
115	0xbc532e9b	-0.01288953
116	0xbcd547d5	-0.026035229
117	0x3d8d21b4	0.06891194
118	0x3da4d529	0.080484696
119	0xbe14d167	-0.14533006
120	0x3e051941	0.12997915
121	0x3d80a289	0.06281001
122	0x3d0f2dea	0.034955896
123	0xbbeea9d4	-0.0072834287
124	0xbdffcbe7	-0.12490063
125	0xbe8bbf9b	-0.2729462
126	0xbdc72b8d	-0.097251035
127	0xbe1b6046	-0.15173444
128	0x3e23e7bc	0.16006368
129	0x3d230eab	0.03980891
130	0x3dcac6ed	0.09901223
131	0x3e14f99c	0.14548343
132	0x3e8aa231	0.27076867
133	0x3cc3ef20	0.023917735
134	0xbe1fb47a	-0.1559619
135	0xbe3b3982	-0.18283656
136	0xbcc086b1	-0.023501726
137	0x3e07b3ce	0.13252184
138	0xbd8edcad	-0.06975684
139	0x3d8b2f6c	0.067961544
140	0xbe11fe1f	-0.14257096
141	0xbd1f04d4	-0.038822964
142	0xbe1dd84d	-0.15414543
143	0xbcdf9f8a	-0.027297754
144	0x3d99760d	0.074932195
145	0x3e3af60d	0.18257923
146	0x3d06d80f	0.032920893
147	0x3e7fb2a6	0.24970493
148	0x3ca42212	0.020035777
149	0xbe1c20f6	-0.15246949
150	0xbeada1d7	-0.33912537
151	0x3de6c726	0.11268453
152	0x3d887a19	0.06663913
153	0xbd789423	-0.06068815
154	0x3ed9b5f6	0.42521638
155	0x3d86e872	0.06587304
156	0x3dc24288	0.09485346
157	0xbba84acf	-0.005135871
158	0x3cfb1349	0.030648844
159	0x3da10963	0.078631185
160	0xbd8a6c19	-0.06758899
161	0x3dc9348a	0.09824474
162	0x3e9af500	0.30265045
163	0x3d5990ee	0.05311673
164	0xbe08b17a	-0.13348952
165	0x3e0dd102	0.13849261
166	0xbec8e25a	-0.39235193
167	0x3e1bfca1	0.15233089
168	0xbcf6eb4a	-0.030141491
169	0xbcc5d427	-0.024149014
170	0xbcafef26	-0.02147634
171	0xbaff1a39	-0.0019462771
172	0x3e92c49c	0.28665626
173	0xbde0c2c9	-0.10974652
174	0x3c74135e	0.014897196
175	0x3dd7ce7e	0.10537432
176	0x3e0d4fda	0.13799992
177	0xbca6c7b9	-0.020358907
178	0xbc8fe6af	-0.017566053
179	0x3e07eb24	0.13273293
180	0x3e406be3	0.18791156
181	0x3ddd5584	0.108073264
182	0x3e121b2f	0.14268182
183	0xbe8bf3d3	-0.2733446
184	0x3e218c61	0.15776207
185	0x3e3b53e6	0.18293723
186	0xbdcc93ff	-0.099891655
187	0xbc920afd	-0.017827505
188	0xbddf799b	-0.10911866
189	0x3d8f20b8	0.069886625
190	0x3ddfbc24	0.10924557
191	0x3d04a9f3	0.03238864
192	0xbe691ea8	-0.227656
193	0xbe16b1e7	-0.14716302
194	0x3e40d783	0.18832211
195	0x3d4b1849	0.049583707
196	0x3e14d1fa	0.14533225
197	0x3b9a4b11	0.0047086556
198	0x3e81c7c1	0.25347713
199	0xbde3fe13	-0.11132445
200	0xbdc0dd37	-0.094171934
201	0xbe633a01	-0.22190095
202	0xbe9ac6ef	-0.302299
203	0x3e298511	0.16554667
204	0x3e0a5b7e	0.13511464
205	0x3e2592db	0.16169302
206	0x3da6cb6f	0.08144271
207	0x3df9e84a	0.12202509
208	0xbe06567b	-0.13118927
209	0x3d194032	0.037414737
210	0xbeb3cfec	-0.3511957
211	0xbe0dd6d4	-0.13851482
212	0xbdfc29fa	-0.12312694
213	0xbe688efd	-0.22710796
214	0x3d9382e3	0.07202699
215	0xbe3d026d	-0.18457957
216	0x3e02c1e8	0.12769282
217	0xbc6b49d9	-0.014360868
218	0xbd67157c	-0.056416973
219	0x3dd934aa	0.10605748
220	0xbd0c877b	-0.03430889
221	0xbe993c2f	-0.2992873
222	0xbdc54829	-0.09632904
223	0xbc95dba6	-0.018293213
224	0xbd9bd937	-0.0760979
225	0x3e78c2ad	0.24293013
226	0xbd141bc2	-0.036159284
227	0xbd3ae773	-0.045630883
228	0xbe2a7129	-0.1664473
229	0x3e1a25b3	0.15053444
230	0x3dc54cb5	0.09633771
231	0xbdddf6e9	-0.1083811
232	0xbd5a9527	-0.0533649
233	0xbc8e7080	-0.017387629
234	0x3d2f0445	0.04272868
235	0xbe974265	-0.29542843
236	0xbed58a7b	-0.41707215
237	0xbe572bf7	-0.21012865
238	0x3db16d30	0.08663404
239	0xbe1802ac	-0.14844769
240	0x3cd41521	0.025888981
241	0x3bba4fb6	0.005685772
242	0x3dfa49f8	0.1222114
243	0xbddd4735	-0.10804597
244	0x399eb943	0.0003027414
245	0xbeae01db	-0.3398579
246	0x3da6bbd0	0.08141291
247	0xbc953acc	-0.018216513
248	0xbd10e5bb	-0.035375338
249	0xbe8f4a2f	-0.27986285
250	0x3e03e22b	0.12879245
251	0xbe411231	-0.18854596
252	0xbec72f0e	-0.38903087
253	0x3dde7d47	0.108637385
254	0xbcfbf840	-0.030758023
255	0xbe9a5456	-0.30142468

model/conv2d_5/Conv2D f4 [32, 3, 3, 32]
0	0x3e2b1c94	0.1671012
1	0xbdfbd3bb	-0.12296244
2	0xbe4f8bcd	-0.20268174
3	0xbe408c9f	-0.18803643
4	0xbdb5adf2	-0.08871068
5	0xbdbf7d37	-0.09350055
6	0x3dd3049e	0.10303615
7	0xbe9e0da4	-0.30869782
8	0x3dd26926	0.10273962
9	0xbda20f85	-0.07913116
10	0x3cee5613	0.029093778
11	0xbe9659d1	-0.293654
12	0xbd6caa89	-0.057779822
13	0x3e755239	0.23957147
14	0xbdad0fb4	-0.08450261
15	0x3ecd9281	0.40150836
16	0xbe3e87f1	-0.18606545
17	0x3cafb42f	0.021448223
18	0x3c9deb89	0.019277351
19	0xbe17df7a	-0.14831343
20	0x3daec567	0.08533745
21	0xbd7da108	-0.06192115
22	0xbcab61d0	-0.020920664
23	0xbe6add5b	-0.22936003
24	0x3e98cce0	0.29843807
25	0x3d07de63	0.03317107
26	0xbe3c9022	-0.18414357
27	0xbdc4da80	-0.09611988
28	0xbe95231b	-0.29128346
29	0xbcbe8233	-0.023255443
30	0x3d0d6ecc	0.034529492
31	0x3dcaac8e	0.098961934
32	0xbe89dc05	-0.26925674
33	0xbe2a593a	-0.166356
34	0xbe86b6b5	-0.2631127
35	0x3e220b7d	0.15824695
36	0xb9e09332	-0.00042834278
37	0xbecd1ad2	-0.40059525
38	0x3d17583b	0.036949378
39	0xbd029a3e	-0.031885378
40	0xbe15c0b0	-0.14624286
41	0xbda2456f	-0.079234
42	0x3df654da	0.12027903
43	0xbe9293f1	-0.28628495
44	0x3de5453d	0.11194847
45	0x3e5af03f	0.21380709
46	0xbdcf3830	-0.10118139
47	0x3edc66d8	0.43047214
48	0x3d7fb120	0.06242478
49	0xbe0706d3	-0.13186197
50	0x3d5900df	0.052979346
51	0xbc261d48	-0.010138817
52	0xbdbf360b	-0.0933648
53	0x3d83d826	0.064377114
54	0xbda4b7f3	-0.08042898
55	0x3e2e2f61	0.17010261
56	0xbcca3b4f	-0.024686484
57	0x3d0f0e63	0.03492583
58	0x3e97fa96	0.2968337
59	0x3b918d15	0.004441867
60	0xbb80134b	-0.00390855
61	0x3d330e45	0.04371478
62	0xbbc96ab8	-0.006146755
63	0xbd031076	-0.03199812
64	0xbd982415	-0.07428757
65	0x3e259eaa	0.16173807
66	0xbefa7bb3	-0.489225
67	0x3cd79d93	0.026320254
68	0x3c10f727	0.008847988
69	0xbe45c433	-0.19313125
70	0x3ddebc7e	0.10875796
71	0x3ce7581a	0.028240252
72	0x3dc13462	0.09433819
73	0xbcf23635	-0.029566864
74	0xbdb81832	-0.0898899
75	0x3c0ba81e	0.008523969
76	0x3d74829d	0.059694875
77	0xbc9a7fb1	-0.018859716
78	0x3db37733	0.0876297
79	0x3e201dc8	0.1563636
80	0x3e98adc7	0.29820082
81	0xbe4e5f38	-0.2015351
82	0x3d5f88e8	0.054573923
83	0xbd6adacb	-0.057337563
84	0xbd78a63f	-0.06070542
85	0xbdf95161	-0.12173725
86	0xbe2ddb73	-0.16978244
87	0x3e1d5c0c	0.15367144
88	0x3e38a369	0.18031086
89	0xbdf58424	-0.119880944
90	0x3d5dd9d4	0.054162815
91	0x386e8159	5.6864086e-05
92	0xbd549bc4	-0.051906362
93	0x3ce50615	0.027957002
94	0x3da3cca5	0.07998017
95	0xbe230c2f	-0.15922616
96	0xbd70360c	-0.058645293
97	0x3d9f1c02	0.07769014
98	0x3e846ccd	0.25864258
99	0x3d42860b	0.047491115
100	0xbde35136	-0.11099474
101	0x3d1e7a42	0.038690813
102	0xbd069c98	-0.032864183
103	0xbd9f762c	-0.07786211
104	0xbe90dd3c	-0.28293788
105	0xbcc61ec7	-0.024184598
106	0xbce16f6b	-0.027518949
107	0xbe069d7e	-0.13146016
108	0x3d610dbf	0.05494475
109	0x3cf739b7	0.030178888
110	0xbcb29da0	-0.021803677
111	0xbb470e44	-0.0030373493
112	0xbe654ffb	-0.22393791
113	0x3e0932f8	0.1339835
114	0x3d80ae0a	0.06283195
115	0xbe0daff8	-0.13836658
116	0x3e91fdc2	0.28513914
117	0xbe28d912	-0.16489056
118	0xbe3c0bd1	-0.18363883
119	0xbdd05a6f	-0.10173499
120	0x3da507df	0.08058142
121	0x3d5da9e9	0.054117117
122	0x3d822110	0.063539624
123	0x3e456296	0.19275889
124	0x3d5aeeae	0.05345028
125	0xbdf1acb8	-0.118005216
126	0x3d344ecf	0.04402047
127	0xbe5def66	-0.21673355
128	0xbde4325d	-0.111424185
129	0xbe8ddd0e	-0.27707714
130	0x3c868e82	0.016425375
131	0x3c4d58af	0.012533351
132	0x3da4be9a	0.08044167
133	0xbd952485	-0.07282356
134	0xbccda646	-0.0251037
135	0x3c8fb7f2	0.017543767
136	0xbdfcce27	-0.12344008
137	0x3d03bd8f	0.0321632
138	0x3d00c851	0.031441037
139	0xbdb27c15	-0.08715073
140	0xbde674a1	-0.11252714
141	0xbe77abb7	-0.24186598
142	0xbdc2314c	-0.09482059
143	0x3d5d08dc	0.053963527
144	0x3df5e384	0.12006286
145	0x3de35cdb	0.11101695
146	0x3db7b297	0.0896961
147	0x3dfea7d4	0.124343544
148	0xbe543f6d	-0.2072732
149	0x3dc15812	0.09440626
150	0x3d55715d	0.052110065
151	0x3e030165	0.127935
152	0xbd56cde0	-0.05244243
153	0xbe606fa9	-0.21917595
154	0x3d5a3a47	0.053278234
155	0xbbae6c5b	-0.0053229756
156	0xbd9ddb0c	-0.077077955
157	0x3d72c3ac	0.05926864
158	0x3ced91ab	0.029000124
159	0xbd8ba06d	-0.06817708
160	0xbdd9033b	-0.10596319
161	0x3c622f3d	0.013805208
162	0x3ddb8996	0.10719602
163	0x3de2c844	0.11073354
164	0xbe3be6d0	-0.18349767
165	0x3d5e4f5b	0.054274898
166	0xbdc51769	-0.09623606
167	0xbe62dda0	-0.22154856
168	0x3cd424be	0.025896426
169	0xbea65cbe	-0.32492632
170	0xbda29e1c	-0.07940313
171	0xbe061bee	-0.13096592
172	0x3cbe44f6	0.023226243
173	0xbead02d8	-0.33791232
174	0xbd02c36a	-0.031924643
175	0xbded8d43	-0.11599209
176	0x3c9ec281	0.019379856
177	0x3d118e1c	0.035535917
178	0xbda37df7	-0.0798301
179	0xbe3ea014	-0.18615752
180	0x3db53438	0.088478506
181	0x3806a992	3.2106014e-05
182	0x3e8bbf5f	0.27294442
183	0xbe5a7c78	-0.21336544
184	0xbdc2f003	-0.09518435
185	0xbd547407	-0.051868465
186	0xbd6e661f	-0.05820286
187	0xbe9763e8	-0.2956841
188	0x3c75fc54	0.015013773
189	0x3d3bf3b8	0.045886725
190	0x3d0cd5ee	0.034383707
191	0xbeb1780c	-0.346619
192	0xbdf3c4a3	-0.1190274
193	0xbe4f531d	-0.20246549
194	0x3ea0fde4	0.31443703
195	0xbcfe1efc	-0.031020634
196	0x3d56f4f0	0.052479684
197	0x3c9e3a84	0.019315012
198	0x3e460a64	0.19339901
199	0x3e6f2d9d	0.23357244
200	0x3e17e188	0.14832127
201	0x3d6ce3f2	0.057834573
202	0x3d4ff281	0.05076838
203	0x3e682ff0	0.22674537
204	0x3d76fd58	0.0603002
205	0xbe89e44e	-0.26931995
206	0xbdc79a50	-0.0974623
207	0xbd5176a1	-0.051138524
208	0x3cc9d52c	0.024637781
209	0x3ddebdff	0.10876083
210	0x3d4c514a	0.04988221
211	0xbd5afb52	-0.053462334
212	0xbdbe38ac	-0.09288153
213	0xbe413176	-0.18866524
214	0x3d1c455a	0.038152076
215	0xbd550c3a	-0.052013613
216	0x3b2f9af4	0.002679524
217	0xbe19667b	-0.149805
218	0x3e982de1	0.29722503
219	0x3e0b8646	0.1362544
220	0xbda7d0b6	-0.08194105
221	0xbe968964	-0.29401696
222	0x3df81667	0.12113648
223	0xbb3d066e	-0.0028842944
224	0x3cbdd60f	0.02317336
225	0xbe065ed9	-0.13122119
226	0x3e9645a9	0.2935002
227	0x3d8e20ee	0.069398746
228	0x3e85cdbc	0.26133525
229	0x3d86b09c	0.06576654
230	0x3c92c42f	0.017915813
231	0x3df49324	0.11942127
232	0xbd3fa83f	-0.04679131
233	0xbcc60eef	-0.024177043
234	0x3e32355d	0.17403169
235	0x3ea60280	0.32423782
236	0x3b7e765f	0.003882788
237	0x3e1f57bb	0.1556081
238	0xbc693c19	-0.01423552
239	0xbec31638	-0.3810289
240	0xbe46af77	-0.19402872
241	0x3efce14c	0.49390638
242	0x3e0b4054	0.13598758
243	0xbcaefe48	-0.021361485
244	0x3d128445	0.035770673
245	0x3e533412	0.20625332
246	0x3d85f70a	0.065412596
247	0xbe64ef78	-0.22356975
248	0x3d04ab77	0.032390084
249	0xbdbf9e1f	-0.09356331
250	0x3e0bccf5	0.13652404
251	0xbe8a66d2	-0.2703157
252	0xbe80beb2	-0.2514549
253	0xbd638b25	-0.05555262
254	0x3e1097dd	0.14120431
255	0xbe11f373	-0.14253025
