ana-cont_1210_s3_long.tflite (tflite, 125772 bytes, 14 tensors)

model/dense/BiasAdd/ReadVariableOp f4 [64]
000000 ba 69 a0 3e b8 a9 3d bc 8c 44 ca 3d e6 70 90 3e
       0.31330663 -0.011576109 0.098763555 0.28211135
000010 54 ad 59 3e 27 3e 6b 3c 1b 04 30 3b c0 27 c0 bc
       0.21257526 0.01435808 0.0026857916 -0.023456454
000020 2b 84 5e bd b4 3e 20 3e 2b 1f 99 bd 57 87 0d 3f
       -0.054325264 0.1564892 -0.07476648 0.5528464
000030 72 55 a2 bd f1 a0 27 3c 5a dd 75 bd 2d 75 27 bc
       -0.07926454 0.0102312425 -0.06002555 -0.010220808
000040 36 53 1a bd e5 93 e4 3d d4 d6 0e 3f 4a f4 a2 bd
       -0.037677012 0.11161021 0.5579655 -0.07956751
000050 8b 9b 9a 3b 02 38 2d 3e 96 8a 56 3e 52 6f c4 3e
       0.004718249 0.16915897 0.20951304 0.3836618
000060 77 ac 23 bd 16 d8 59 bd 30 f8 0d 3e 3e e5 3e 3f
       -0.039959397 -0.05318459 0.13864207 0.74568546
000070 4a fe e1 3e 81 12 bb bd 45 2c b5 3e d8 78 00 3e
       0.4413932 -0.09134389 0.35385337 0.12546098
000080 19 23 51 bd 8c 8d e1 3e ff 37 73 3d 1f 3c 28 3e
       -0.051058862 0.44053304 0.059379574 0.16429184
000090 40 dd 6a bd 51 2c c2 bd da 2a 34 3e 0d 29 cb bd
       -0.057339907 -0.09481109 0.17594472 -0.09919939
0000a0 5d 23 3a be 33 b5 92 bd 8a f2 a3 3e d5 ac 3e be
       -0.18177553 -0.07163467 0.3202098 -0.18620618
0000b0 8d 76 40 3e 2a e2 0a 3f b5 64 61 bd 0e 5c 26 bd
       0.18795224 0.5425135 -0.055027682 -0.040615134
0000c0 e2 ef 0e 3d 67 64 f5 3e d2 4d 76 3e cc ff d5 3e
       0.03489674 0.47928163 0.24053124 0.4179672
0000d0 3e 9e c5 bd be 47 87 bd ad dd 15 3e c9 bf a0 3e
       -0.09649323 -0.066054806 0.14635344 0.3139632
0000e0 86 49 95 3e cd 1c 9d bd 38 07 98 3e be b3 8b 3e
       0.29157656 -0.07671509 0.29693007 0.2728557
0000f0 35 b6 a2 3d db ec 4c bd 4d 9c 54 bd 58 02 5b 3e
       0.079449095 -0.05003057 -0.051906873 0.21387613

model/dense_2/BiasAdd/ReadVariableOp f4 [2]
000000 e5 ab 22 bd 3e 4e 09 be
       -0.039714713 -0.13408753

model/dense_1/BiasAdd/ReadVariableOp f4 [32]
000000 8c 1a 55 3e c7 9a 51 3e f8 43 66 be 1f 8e 18 be
       0.20810908 0.20469199 -0.22486866 -0.14897965
000010 52 04 3e 3e 93 3b 1d be 78 9b 16 be e6 0d 26 be
       0.18556336 -0.15354757 -0.14707744 -0.1621624
000020 6d d0 5a be 19 cd 0c 3e c6 88 48 be 2b b2 80 3e
       -0.2136857 0.13750114 -0.19583425 0.2513593
000030 35 1e 4a be 03 fd 1c bd c5 29 43 3e d7 53 e7 3d
       -0.19738086 -0.03832723 0.19058903 0.11295288
000040 99 e2 25 3e cf 19 3c 3e 38 63 ed bd ee 40 73 3c
       0.16199721 0.1836922 -0.1159119 0.014847023
000050 e4 98 3d 3e 3f 5d 6d 3e e6 38 32 be af 16 44 3e
       0.18515354 0.23180102 -0.17404518 0.19149278
000060 17 21 23 3e 57 13 1c be a9 b1 ec 3d 8b 33 32 3e
       0.15930592 -0.15241753 0.115573235 0.17402475
000070 7d 03 56 be 7b 36 54 3e 6d c8 60 3e aa 0b 09 3e
       -0.20899768 0.20723908 0.21951456 0.13383356

model/conv2d/BiasAdd/ReadVariableOp f4 [32]
000000 84 55 b8 3d 81 3a a5 bd 04 5c a0 bd 77 1e 49 bd
       0.09000686 -0.08067799 -0.078300506 -0.04910132
000010 ac 18 b9 bb 67 1a c8 bd dd 22 d1 bd c4 a0 18 be
       -0.005648693 -0.09770661 -0.10211728 -0.14905077
000020 09 f8 53 3d 8a d8 5f bd 5c b7 2f bd 54 e0 6b bd
       0.051750217 -0.054649867 -0.042899475 -0.057586983
000030 f8 08 cd bd 38 68 83 bd 4e 49 9b bd 1f c3 a4 3d
       -0.10011476 -0.064163625 -0.07582341 0.08045029
000040 bd 41 86 bd 1a d9 19 bd ac 01 07 bc 28 bc 25 be
       -0.06555507 -0.03756056 -0.008240145 -0.16185057
000050 90 e1 35 be 1c 10 54 bd e7 30 0a be 0b b1 ba bd
       -0.17761827 -0.051773176 -0.13495217 -0.091157995
000060 e0 30 e3 bd 73 29 ba bd c5 e0 9f bd c0 67 09 bd
       -0.110933065 -0.09089937 -0.07806543 -0.03354621
000070 1e 29 fb bd 9e 8c bf bd d4 83 01 bd 5f 70 de bb
       -0.12263702 -0.093529925 -0.03161986 -0.006788298

model/conv2d_2/BiasAdd/ReadVariableOp f4 [32]
000000 c7 9c 14 3e 7e eb b0 3d db fb 4e 3e 62 92 be bd
       0.14512931 0.086386666 0.20213263 -0.09305264
000010 61 63 2b be e9 2f 62 3d 57 e3 2b 3e e7 e7 a5 3d
       -0.16737129 0.055221472 0.16785942 0.081008725
000020 08 58 0e bd cb a6 f6 3c b6 28 2f 3e ba 07 98 3d
       -0.034751922 0.03010883 0.17105374 0.07423349
000030 29 aa 2b 3e bc 5c f4 bb a5 5c 14 3d 68 be 6d 3d
       0.1676413 -0.007457344 0.036221165 0.058042914
000040 67 d7 10 3e 25 c7 92 3e 21 b5 20 be ec ae d8 bd
       0.1414467 0.2866756 -0.15694095 -0.10580239
000050 61 c6 9c bd 46 4f ed 3d 8c 37 8f 3a d6 6d 30 be
       -0.07655025 0.11587386 0.0010926588 -0.17229399
000060 0d 02 96 3d 48 21 2f bd a4 e5 2c 3d 33 78 c3 3d
       0.0732461 -0.04275635 0.04221119 0.095444106
000070 40 ff f7 bd d1 bb be 3d ec 80 b6 bd 1f 72 70 3e
       -0.12109232 0.09313167 -0.08911309 0.23481034

model/conv2d_1/BiasAdd/ReadVariableOp f4 [16]
000000 1a 93 f9 3c 13 d6 20 bc 63 1a ce 3c 2c 7f aa 3b
       0.030465651 -0.009816664 0.025159067 0.0052031484
000010 af ad a8 3c 48 55 fa bd 8e 96 8c 3d 34 da 24 3d
       0.020590631 -0.12223297 0.068646535 0.040247157
000020 5a f1 ef bc a0 dc 67 3d 6d ba cf bc f7 9f 8d 3d
       -0.02928989 0.05660689 -0.02535745 0.069152765
000030 8a 7c dd be 62 ff c5 bc ae 29 ad bd 0c 43 73 3e
       -0.43259078 -0.024169628 -0.084552154 0.23756045

model/batch_normalization/FusedBatchNormV3 f4 [3]
000000 53 76 88 3a de 2b 57 3a 7c 9b 28 3a
       0.001041124 0.0008208136 0.00064318604

model/batch_normalization/FusedBatchNormV31 f4 [3]
000000 18 b4 05 be 6e 7b ec bd a5 e1 4b bd
       -0.13056982 -0.1154698 -0.04977574

model/dense/MatMul f4 [64, 128]
000000 a9 8e 06 3e 02 d0 c4 bd 8a cd 83 3c b3 4f c6 bd
       0.13140358 -0.09609987 0.01608922 -0.0968317
000010 dc 27 99 bd 95 ee 99 bc 47 b2 13 be ff c2 5b be
       -0.07478306 -0.018790523 -0.14423476 -0.21461104
000020 67 48 62 3d 29 a2 b7 bc ea 22 08 be ce db cc bd
       0.05524483 -0.022416191 -0.13294569 -0.10002862
000030 2e e8 07 3d ba 8a 11 be 94 79 90 3e 06 15 6d be
       0.03318041 -0.14213076 0.28217757 -0.23152551
000040 b8 a4 f8 bd 83 b9 c6 bc 6e 3e 44 be b3 95 48 3e
       -0.121407926 -0.02425838 -0.1916444 0.19588356
000050 99 cd e8 bd bc 6a 3b 3d ef 19 91 bd cd 20 01 bd
       -0.1136734 0.045756087 -0.070850246 -0.031525422
000060 ff f1 0f be 3a 40 98 be 04 cd fd 3d ce cc 5c bc
       -0.14057158 -0.297365 0.12392619 -0.013476564
000070 f1 37 24 be 8c 52 ff bb b9 e5 68 be 2f 23 ab be
       -0.16036965 -0.007791823 -0.22743882 -0.3342528
000080 59 ad b1 bc e9 ea 3a 3d 24 be a8 bc 51 38 63 be
       -0.021689104 0.045634184 -0.020598479 -0.22189452
000090 d4 65 9c 3d 22 3f 0b be db c4 49 bd db b6 a1 bd
       0.0763661 -0.13598302 -0.04926 -0.07896205
0000a0 41 b5 80 be e4 44 ec 3d aa 5e 2b 3e ad f1 11 3e
       -0.25138286 0.11536577 0.1673533 0.14252348
0000b0 34 78 41 be 6a 98 3c be 12 30 c5 bd 18 1c 65 be
       -0.1889351 -0.18417516 -0.09628309 -0.22373998
0000c0 73 92 da bd 22 b5 82 be 5e 8b 0a be 98 ee 1f be
       -0.10672464 -0.25528818 -0.13529727 -0.1561836
0000d0 02 9b 01 3e 88 58 63 3e f8 9b 32 bc 8a b0 1c bd
       0.12656787 0.2220174 -0.010901444 -0.0382543
0000e0 40 e3 03 3e 27 88 3d be 5a 19 db bc ff 23 00 bd
       0.12879658 -0.18508969 -0.026745487 -0.03128433
0000f0 74 e5 09 3d 33 13 02 be 45 c5 34 3e 9e 4f e5 bb
       0.03366609 -0.12702636 0.17653377 -0.0069980165
000100 dd 1a 01 3e 5c 57 d4 3d ea a6 de 3d d3 b2 82 be
       0.12607904 0.10368225 0.1087168 -0.25527057
000110 b0 1c 44 be a1 0b 2f 3c 2b bd 20 3d 72 4d ca be
       -0.19151568 0.010683925 0.039242905 -0.3951221
000120 7a 31 49 be 06 b7 12 be 02 02 03 bb fe 70 88 3d
       -0.1964778 -0.1432763 -0.001999021 0.066621765
000130 0a 2e 67 be 93 08 59 bd be 3e 56 3d e0 e6 a4 bd
       -0.22576156 -0.052986693 0.05230593 -0.080518484
000140 cd 2a 24 3e 34 26 eb bd e5 71 f3 bd d6 71 32 bd
       0.16031952 -0.11481896 -0.11886958 -0.043565594
000150 fa 11 97 bc 57 2a 6b be 0a 25 a7 3d d0 9a 1e 3d
       -0.01844119 -0.2296537 0.081613615 0.03872186
000160 c5 bd 2e bd 14 44 86 bd 01 c6 2d be 32 1d a9 bd
       -0.042661447 -0.065559536 -0.16970064 -0.08257522
000170 5f 07 97 be d8 ab 86 bc 8a 82 e4 3d aa d2 83 3e
       -0.2949781 -0.016439363 0.11157711 0.2574666
000180 e6 6e 8d 3d 72 6e ba bc 7a d7 32 be 28 08 26 3e
       0.06905918 -0.022757743 -0.1746501 0.16214049
000190 6f 54 a3 bc 60 a2 19 3d 7b ed 17 3d 55 b4 82 bd
       -0.019937722 0.03750837 0.037091713 -0.06382052
0001a0 9c 0b 87 bd 12 a2 ec bd 18 d9 27 be 4f 1d be bd
       -0.06594011 -0.1155435 -0.16391408 -0.09282934
0001b0 bf f2 54 3e 3d 36 4b bd de 1a 42 bc 9e 3b 23 3c
       0.20795725 -0.049612273 -0.011847226 0.009962944
0001c0 fd 71 34 3c 02 30 05 be 94 91 92 be f3 1a 81 bd
       0.011013505 -0.13006595 -0.28626692 -0.06303968
0001d0 c1 3f 1c bd 65 48 39 3d 2d ad 96 bd b3 64 cd bd
       -0.038146738 0.045235056 -0.073572494 -0.100289725
0001e0 aa f7 a4 bd 84 55 b5 bb b4 93 82 3d 74 c8 86 3e
       -0.08055051 -0.005533876 0.063758284 0.2632481
0001f0 dc 57 1a be 5d 22 ba 3c f2 47 9c 3d 8b a9 24 3c
       -0.15072578 0.022721464 0.0763091 0.010050188
000200 65 6c 1f 3e 83 24 ed bd a7 36 55 3c 68 37 1b bb
       0.15568693 -0.1157923 0.013013518 -0.0023684148
000210 c4 17 00 3d c2 4c 18 3e c6 a3 b7 bd 89 a9 63 bd
       0.031272665 0.14873031 -0.08966784 -0.055581603
000220 61 86 0a bd 9c eb b9 3d 03 ce 95 3c 98 c4 9b bd
       -0.03381956 0.09078142 0.01828671 -0.07605857
000230 dd 9d 05 be 7a 7f ec bd 90 df d3 3b 4e 17 18 3b
       -0.13048501 -0.11547752 0.0064658597 0.002320725
000240 6a 5f 6c be 83 1b a4 3d d6 3f 84 3c ad f2 3c be
       -0.23083273 0.0801306 0.01614372 -0.18451948
000250 9b 7a 8e be 3c 38 08 bb 2d 3f ac bd 82 c3 64 bc
       -0.27827916 -0.0020785471 -0.08410487 -0.013962628
000260 03 9b 6b bd 23 ea 92 bd 6b 61 c2 3d 7b fe 89 bd
       -0.057520878 -0.07173564 0.09491237 -0.067379914
000270 ba 58 31 bd 36 f7 52 3e 79 25 f3 3d ff 2a 2e 3d
       -0.043297507 0.20602116 0.11872382 0.042521473
000280 fa 8f e4 bc 8c b1 f4 3d 26 ed 0b bd 45 80 5e bb
       -0.027900685 0.11947927 -0.03416171 -0.0033950966
000290 a0 2d 8b 3d 5e 48 6e be 0c b0 b3 bc eb f0 18 be
       0.06795812 -0.23269793 -0.021934532 -0.14935653
0002a0 b8 52 a9 3d 6c 37 e0 bd f9 6f 89 3c 9b 34 e3 bd
       0.082677305 -0.10948071 0.016777026 -0.11094018
0002b0 12 99 b8 3c 01 06 01 3e 76 19 bc bd c3 70 b5 bd
       0.022533927 0.12599947 -0.09184544 -0.08859398
0002c0 32 1a 70 3e a3 ff 30 be 44 7e 4e be 57 de 2b be
       0.23447493 -0.17285018 -0.20165354 -0.16784035
0002d0 a2 29 0a be e9 01 9e bd 25 97 e6 bc ac d5 f0 3d
       -0.13492444 -0.07715208 -0.028148243 0.11759505
0002e0 a0 67 33 3d 7d 72 98 3d 77 63 38 be 04 0b af 3d
       0.043799996 0.07443712 -0.18006693 0.08547023
0002f0 ed d9 b1 bd c0 30 e6 bd e0 e8 20 3d 84 a3 38 3d
       -0.08684144 -0.11239767 0.039284587 0.045077816
000300 a9 58 1b 3d 4c 0a 53 be f0 e8 81 bd 8e 99 51 3d
       0.03792635 -0.20609397 -0.063432574 0.05117183
000310 79 f1 1e be 12 cb bb bd c0 ab 4c 3d 41 57 8f bd
       -0.15521802 -0.09169592 0.04996848 -0.06999064
000320 8e 7f c2 3d c8 2a 1b 3c fa 0d 53 be ed c2 14 bc
       0.094969854 0.009470649 -0.206108 -0.009079677
000330 97 64 f9 bd 09 c6 8a bd b9 11 36 3d a1 ac 71 bd
       -0.12177389 -0.067760535 0.044450495 -0.059002522
000340 26 5b 56 bd ec 75 00 bd 5b 32 ff 3d 57 d8 65 3d
       -0.05233302 -0.03136246 0.124607764 0.05611452
000350 4b 80 49 bd 50 6c 32 bd 81 f2 af bc ea 81 13 be
       -0.049194615 -0.043560326 -0.02147794 -0.14405027
000360 4d ad e4 3d e5 c3 98 bd 55 45 6b be a9 47 1f bc
       0.11165867 -0.07459239 -0.22975667 -0.009721675
000370 b3 74 af bd dd 6d 81 be a8 1d c6 3c 85 96 72 3d
       -0.085671805 -0.25279132 0.024184063 0.059225578
000380 b4 06 00 3e 7a 80 cf 3c f2 1e 1c be be e5 1c be
       0.12502557 0.025329817 -0.1524618 -0.15322015
000390 1b 4d 2f be 22 16 7e 3d c6 13 2e be c2 ca b1 bd
       -0.17119257 0.062032826 -0.1699973 -0.08681251
0003a0 8a 37 33 3c 4a 17 67 be 7d a1 2f bd ef 5f 00 3c
       0.0109385345 -0.22567478 -0.042878617 0.007835372
0003b0 29 10 8e bc 5f 72 60 3b 64 d3 dd bc e7 15 b7 bd
       -0.01734169 0.0034247858 -0.027078338 -0.089397244
0003c0 5e 99 79 bd a7 c0 d6 3d c5 42 9a be b7 a0 2f bd
       -0.060937278 0.10485964 -0.30129066 -0.04287788
0003d0 7c fc a2 bd ab f4 0b be ad 67 bc 3d bf 49 c4 bd
       -0.07958314 -0.13667552 0.09199462 -0.095843785
0003e0 49 a7 9a 3c ea 7e c3 bd 8b ce cb bd 73 dd e7 3a
       0.018878596 -0.09545691 -0.09951504 0.0017689898
0003f0 e7 61 d4 3d 41 c6 28 3d 78 ba 06 3e b7 5c d7 3d
       0.10370236 0.041204695 0.1315707 0.10515731

model/dense_1/MatMul f4 [32, 64]
000000 e5 4a d1 3c 66 27 72 be 75 6e d0 be 53 29 57 3e
       0.025548408 -0.23647842 -0.40709272 0.21011858
000010 eb 92 22 3e 98 73 45 be 35 ee 79 3e 7b d6 6c 3c
       0.15876357 -0.19282377 0.24407275 0.014455433
000020 8f 0e f7 3c 5c d9 bf be 6e 68 14 3e 41 fe 13 3e
       0.03015831 -0.3747052 0.14492962 0.14452459
000030 0a 1e 08 3e b7 1c c1 3d 53 f0 3d 3e d7 c4 ef 3c
       0.13292709 0.09429305 0.18548708 0.029268665
000040 7d c8 61 be 7b e8 18 bd 6c 3b a5 3e 2c b7 0a be
       -0.22049136 -0.037331086 0.32271898 -0.13546437
000050 5d 99 e0 bd 9b 10 89 be 0e 95 c0 be 13 f9 93 3e
       -0.10966752 -0.2677048 -0.3761372 0.28900966
000060 7c 76 86 be c6 f7 12 be 83 78 c0 3d 29 70 f9 bd
       -0.2626227 -0.1435233 0.09397986 -0.12179596
000070 74 6c 42 3d 7f 5c 90 bc e9 75 51 3e 44 a3 08 3e
       0.04746671 -0.01762223 0.20455135 0.13343531
000080 ef f2 13 3e 05 3e be be 94 cb 16 3e 30 ca 8b 3d
       0.1444814 -0.37156692 0.14726096 0.068256736
000090 8e 5c 66 bd d5 d4 18 be 49 57 e8 bc 30 80 e2 bd
       -0.05624061 -0.14924939 -0.028361933 -0.11059606
0000a0 93 66 18 be bf 67 94 be 91 b4 c3 3d 92 f4 a0 bd
       -0.14882879 -0.28985402 0.09555925 -0.07859148
0000b0 83 a5 f1 be 2a 31 73 3e 9f a4 b7 bd 0d fa 3e be
       -0.47196588 0.23749223 -0.08966946 -0.18650074
0000c0 bd a2 a7 3e b6 26 e4 be 78 71 0a bf d9 f6 e1 be
       0.32741347 -0.44560784 -0.5407939 -0.44133642
0000d0 c6 ce 6a 3e 21 40 9b 3d 9e e6 90 be a5 11 95 3d
       0.2293044 0.07580591 -0.28300947 0.07278756
0000e0 5d 50 39 3e 3e c4 f1 bd b0 6e 14 3d 41 83 af 3e
       0.18097062 -0.11805008 0.036238372 0.34279826
0000f0 c2 4e 6d bc be e2 fa 3c d2 d9 fd 3d 87 82 9b 3d
       -0.014484109 0.030625697 0.123950616 0.075932555
000100 26 e6 5e be 17 f5 5e 3d 27 14 6a 3e 5c fb 43 be
       -0.21767482 0.054432955 0.2285925 -0.19138855
000110 c2 59 c0 3c c2 3f eb bd a1 6f 89 3d 08 6f a7 bb
       0.0234803 -0.1148677 0.06710745 -0.0051096715
000120 83 ab 33 be b1 3f 22 bd b8 29 3e bd 96 7f f3 3d
       -0.17545895 -0.039611522 -0.046426505 0.118895695
000130 21 96 48 3e 33 a7 a3 be b5 c4 74 3e fd 2f f5 3d
       0.1958852 -0.319635 0.23903163 0.11972044
000140 53 1b be be 95 84 35 3e 31 37 db 3e e2 92 4e 3e
       -0.37130222 0.17726357 0.42815545 0.20173219
000150 70 38 66 bd 0d 66 93 3e 82 8c a0 3e f3 be bc be
       -0.056206167 0.28788796 0.313572 -0.36864433
000160 95 59 c4 bd c3 22 09 be 4c d3 ca 3d 2d 67 51 bc
       -0.09587399 -0.13392167 0.09903583 -0.012780947
000170 2e 7a cf be d0 6f 33 bd 1a 2f 85 3e 92 f4 7d be
       -0.40522903 -0.043807805 0.26012498 -0.24800327
000180 7b 3e 9b be e5 90 b9 bd e6 2c 10 3e 3a a4 5b bc
       -0.30321106 -0.090608396 0.14079627 -0.013405854
000190 c4 ad d6 3d c5 e5 04 be d6 c9 fa 3d 42 0c fa bc
       0.10482362 -0.12978275 0.122455284 -0.030523423
0001a0 1c 97 d1 bd 35 34 f6 3e 64 f6 b3 be e6 76 1b be
       -0.102339 0.48086706 -0.3514892 -0.15182075
0001b0 ba ad e1 3d 95 f7 9a 3e bd 2f 07 be fc 55 18 3e
       0.11019464 0.30267015 -0.13201804 0.1487655
0001c0 bf 56 b3 be 96 b5 b8 be 94 66 4f 3e d6 85 06 3e
       -0.3502712 -0.3607604 0.20253974 0.13136992
0001d0 f4 9b 63 be 07 f7 43 3e 34 4a 7e 3e aa 21 fe be
       -0.2222746 0.19137202 0.24832994 -0.4963506
0001e0 bd 69 5a be 5a 43 92 bd f0 1d 7e be 20 4d 8b be
       -0.21329398 -0.071417525 -0.24816108 -0.2720728
0001f0 c6 d9 24 be 94 aa 8b bd 99 d7 21 3e ca 2c 43 3e
       -0.16098699 -0.068196446 0.158049 0.19060054
000200 66 af 02 bf 6c 13 0a be ba 59 80 3e 3c 50 11 3e
       -0.51048887 -0.13483971 0.25068456 0.14190763
000210 23 19 9a 3e 6b 78 b3 3d 19 6a 5b bc 87 28 58 be
       0.30097303 0.08763202 -0.013391995 -0.2110921
000220 bd db 3e 3d eb e8 af 3e 28 dc cb bd a5 94 07 bd
       0.046596278 0.3435739 -0.09954101 -0.033100743
000230 b5 64 86 bd 4d f8 23 3e d2 d6 1b bb 42 2f 3f 3e
       -0.06562177 0.16012688 -0.0023779166 0.18670371
000240 fc 42 65 be b6 17 f1 3d 42 41 30 bd 5b 88 a3 3d
       -0.22388834 0.117721006 -0.043030985 0.07984992
000250 b4 ac 06 be a1 81 63 3e 5b 65 b8 3e 34 b6 42 bf
       -0.13151819 0.22217418 0.36014828 -0.7605927
000260 8b c7 5a be 80 d4 86 3c 9b 8c 0d 3e 36 ee 33 3e
       -0.21365182 0.01645875 0.13823168 0.17571339
000270 69 3e b2 be fc ac a6 b9 19 5e ee 3e 2f aa e9 3d
       -0.3481324 -0.0003179087 0.46556166 0.11409413
000280 32 c5 9e be a3 4e dc bd 43 58 de bd 03 a0 7a bc
       -0.31009823 -0.10757186 -0.10856678 -0.015296939
000290 84 73 8c 3c 98 5b 7a 3d 4e 67 41 3e b4 1b 54 3c
       0.017144926 0.061122507 0.18887064 0.012946058
0002a0 c5 bc b7 bc e9 ef bf 3e 6a 70 60 bf 32 0b 08 3e
       -0.02242888 0.37487724 -0.8767153 0.1328552
0002b0 00 3d d4 3e 6e 03 a7 3e d6 a9 8d 3d da d5 9f 3c
       0.4145279 0.32619804 0.06917159 0.019511152
0002c0 d7 fa 5a be c6 cd 06 3d dc 5f 00 3f 39 41 4d 3e
       -0.2138475 0.032911085 0.5014627 0.20044412
0002d0 dc dd d1 bd a9 0d 03 3e 8a b6 cf 3e 10 d1 24 bf
       -0.102473944 0.1279818 0.40568954 -0.64381504
0002e0 92 df 3a bd b9 18 b8 bd 9e 72 a1 be be f3 af 3e
       -0.04562337 -0.089890905 -0.31532758 0.34365648
0002f0 7b 1e ea bd 88 a4 04 3d b2 81 b5 bd 49 b8 a7 3d
       -0.11431595 0.03238347 -0.08862628 0.081894465
000300 72 dc bf 3d 35 12 a8 3d 66 9b e1 bd c6 b9 b1 3e
       0.093682185 0.08206598 -0.11015968 0.34712046
000310 e6 9e 5a 3e 15 fc 6e be 9e 94 96 bd 48 29 62 be
       0.21349677 -0.23338349 -0.07352565 -0.2208606
000320 33 0d f3 bd e9 10 24 bf 27 6c 6f 3d 0e e7 02 bc
       -0.11867752 -0.640883 0.05845275 -0.007989658
000330 17 89 41 be 54 14 4d 3e 92 98 30 3e c2 89 9f 3d
       -0.18899952 0.20027286 0.17245701 0.07789947
000340 40 cb b5 be 22 a5 3a bd 6d e1 eb 3c 41 9a ca bd
       -0.3550663 -0.04556764 0.028794015 -0.09892703
000350 1a c2 a7 bd 9f 2d c8 be 7d e3 c3 be b7 8f 2e 3e
       -0.08191319 -0.39097306 -0.38259497 0.1704701
000360 4e 55 f7 be db 9e 10 3e 10 8f 8c 3d 70 bf 04 3d
       -0.4830727 0.14123099 0.068632245 0.03240913
000370 6a 1d b3 3e 53 b4 39 be 4a ae 68 3e 83 3d 38 3e
       0.3498338 -0.18135194 0.22722736 0.17992215
000380 5e 78 ac bc ca 70 c7 be 23 3b 2c 3e ca a6 98 bd
       -0.02105349 -0.3895324 0.16819434 -0.074536875
000390 dc 89 25 3d ac d3 eb 3d bc 7f 02 3e 6f eb 5a be
       0.040414676 0.115149826 0.1274404 -0.21378873
0003a0 07 15 f3 bd 26 5b c3 be e1 b5 48 3e 35 92 51 3e
       -0.11869245 -0.38155478 0.19600631 0.2046593
0003b0 42 11 1a bf ea bf 42 bd ac 64 1c 3e bb 90 8e be
       -0.60182583 -0.047546305 0.15272778 -0.27844796
0003c0 7e cc 38 3e 5d 08 ff be 23 d6 0f bf b9 bb 30 bf
       0.18046758 -0.49811068 -0.5618612 -0.6903644
0003d0 e6 30 3c be ac 49 31 be 57 26 48 be 51 e1 da bd
       -0.18378028 -0.1731326 -0.19545875 -0.10687507
0003e0 75 f4 48 3e da 9b 08 bd d9 f8 91 3e 9c a5 90 3e
       0.19624503 -0.033351757 0.28510168 0.2825135
0003f0 08 fc 92 bd 36 9f 03 3e 36 ee eb 3d f4 b7 12 be
       -0.071769774 0.12853703 0.115200445 -0.14327985

model/dense_2/MatMul f4 [2, 32]
000000 0f fd d6 be 73 c3 4c 3e 99 79 96 bd 6d b3 90 3f
       -0.41989943 0.19996433 -0.07347412 1.1304756
000010 ab 2a e9 bd 29 cd 34 bf 0c a4 6a bf e8 b8 43 3e
       -0.113850914 -0.7062555 -0.91656566 0.19113505
000020 2f c2 3f 3f b4 86 17 bf e1 b1 4a 3e 57 6d 0f bf
       0.74905676 -0.59189916 0.19794418 -0.56026214
000030 09 d1 46 bf 9e 0a 3f ba 14 80 5d 3f 22 64 0c bf
       -0.7766271 -0.0007287654 0.86523557 -0.5484029
000040 19 a0 5e be 61 00 05 3f 6d 61 6b be 18 7b 2c be
       -0.2174076 0.51953703 -0.22986384 -0.16843832
000050 85 dc 65 be fe a7 0a 3f cd 14 25 3e 71 b1 be bd
       -0.22447403 0.54162586 0.16121216 -0.09311188
000060 b8 f8 0f 3f 0b fa e1 bc 76 96 ec be e9 f9 20 bc
       0.5623889 -0.02758505 -0.46208543 -0.009825208
000070 c4 96 46 3e 5e 5a 3e be e4 fb 82 3e 4d c5 37 3e
       0.1939345 -0.1858916 0.25582802 0.17946358
000080 76 9a 6d be ff 05 f9 3e e2 6b e5 be 15 a7 4d 3e
       -0.23203453 0.48637387 -0.4480887 0.20083268
000090 cd d2 1d 3f 7b 0f 4d 3f 9b dd 86 3c d3 84 bb 3c
       0.6164978 0.80101746 0.016463092 0.022890484
0000a0 e4 a2 2b bf 1b 45 f3 3d ff dc ad 3d 24 4d 5a 3e
       -0.67045426 0.11878415 0.08489417 0.2131849
0000b0 d6 e4 07 bf 77 79 5e be 2b bd cc 3d 27 a6 8d be
       -0.5308355 -0.21726023 0.099970184 -0.27665827
0000c0 e4 b6 a0 3e cc 79 fa 3e 8f 92 e3 3d ad 09 42 3e
       0.31389534 0.4892105 0.11111938 0.18949004
0000d0 ab 04 cd 3e 8a 7c 7d be 30 f8 f8 bd 54 42 43 bf
       0.40042624 -0.24754539 -0.12156713 -0.76273084
0000e0 4b 59 ae 3e e2 f1 20 bf 70 7a 40 3e 97 41 55 3f
       0.340525 -0.62869084 0.18796706 0.8330321
0000f0 10 45 48 3f 52 bb f3 be f5 7b 04 bf 7e 80 dd be
       0.7823038 -0.47603852 -0.51751643 -0.43262094

model/conv2d/Conv2D f4 [32, 5, 5, 3]
000000 62 4c 44 3e 6e 8d ac 3e ff c0 d3 3d 9a 99 c9 be
       0.19169763 0.33701652 0.103395455 -0.39375
000010 21 bc 17 be d7 ce c6 be b3 03 64 bd 19 d6 e2 3d
       -0.14817859 -0.3882968 -0.05566759 0.11075992
000020 55 a5 89 3d be 3f c2 bd 94 65 9d bd f0 f9 ea bd
       0.06720988 -0.09484814 -0.0768539 -0.11473453
000030 c4 ce 27 ba 84 7c 95 bb 17 2e 34 3d c4 8c 0e 3e
       -0.0006401355 -0.0045619626 0.043989267 0.13920885
000040 b5 39 8f 3e bf 20 95 3d 0d 9e c2 be 16 f9 de 3d
       0.27973714 0.072816364 -0.38011208 0.10887353
000050 67 d7 a3 be 81 3a 34 3d 04 0b 85 3e da db 1c bb
       -0.32000276 0.044001106 0.25984967 -0.0023934753
000060 7b 5c d0 3d 31 a6 a4 3e 34 86 7c 3e 0a 8c d3 bd
       0.10173889 0.32158044 0.2466057 -0.10329445
000070 47 4c 0f 3e 72 20 10 3e 5a 1c 48 be 7c 60 80 3e
       0.13993941 0.14074877 -0.19542065 0.25073612
000080 35 33 30 be 06 18 e1 be e6 3d 1a 3e 97 8a d5 be
       -0.17207034 -0.4396364 0.15062675 -0.41707298
000090 80 31 f6 bd 3c 56 f7 3e 6b a2 a7 bd 73 90 97 be
       -0.1202116 0.4830798 -0.08185276 -0.29602394
0000a0 41 98 19 3e 35 56 b0 bd 43 4d 22 be df 2b 26 3d
       0.14999487 -0.08610193 -0.15849786 0.040569182
0000b0 e4 66 4a 3d f7 94 d3 3b bc 51 24 3e b7 92 19 3d
       0.04941453 0.006456967 0.16046804 0.037493434
0000c0 8e f9 97 bd 3b 7d 71 3e cf 95 60 bc 34 3e 04 bf
       -0.07420646 0.23582928 -0.013707592 -0.51657414
0000d0 61 37 33 3e bd 97 26 be 30 9b 45 be 24 57 55 3e
       0.17501594 -0.16268821 -0.1929748 0.20834023
0000e0 65 34 1a 3d 23 3b 4f be 71 03 9b bd f8 13 1d bd
       0.037647624 -0.20237403 -0.07569016 -0.03834912
0000f0 b8 39 a5 3d be c4 e5 3c d4 95 2f be 34 3e a4 3d
       0.080676496 0.028047916 -0.17146999 0.08019677
000100 66 dd 09 3e 63 12 84 be a2 2b 49 3d e9 cc 9a 3e
       0.13463363 -0.25795278 0.049113877 0.3023446
000110 4b ec f4 bd 20 2f d3 3d fd 2a e5 3d 7c af 77 3c
       -0.11959132 0.10311723 0.1118984 0.015117522
000120 c3 59 3a 3e 26 78 32 3e 0f 6b 82 bc fa 76 5a 3e
       0.18198304 0.17428645 -0.01592019 0.21334448
000130 c3 7b ba 3e 58 10 93 3e c3 a2 3b be 6f e1 04 3e
       0.36422548 0.28723407 -0.18323807 0.12976621
000140 8a 31 82 3d 90 91 17 bd 5c 74 46 bc 54 70 72 3e
       0.06357105 -0.037004054 -0.012112703 0.23675662
000150 cd 51 58 bd 88 d9 ba 3d 05 91 5f 3e a4 92 87 be
       -0.052812386 0.09123522 0.21832664 -0.26479065
000160 56 83 fd 3c 1a b5 70 3c 56 d0 a1 bd 84 93 8f 3d
       0.030946415 0.0146916155 -0.07901065 0.07010558
000170 92 f0 42 3e 4e a6 4a be 08 cc 41 3e 9f ae 82 3e
       0.19037083 -0.19790003 0.18925488 0.2552385
000180 8c 86 00 be 62 f4 48 bd 38 90 69 3e ee d9 e7 bd
       -0.12551326 -0.049061187 0.22808921 -0.11320864
000190 a3 ac e2 bc 36 26 8e 3e 8e f0 67 3d f1 04 9c 3d
       -0.02767021 0.27763528 0.056625895 0.0761813
0001a0 ac 09 9f 3e 82 90 e7 be c0 54 c7 bd b5 ec d2 bd
       0.31062067 -0.45227438 -0.09732962 -0.102990545
0001b0 94 54 8b be 9a f2 3a bd 23 9f 52 3b 58 16 9d be
       -0.27212965 -0.04564152 0.003213831 -0.3068111
0001c0 3e fe 3d bd f2 88 60 3e 14 cc 22 bd 14 08 57 3c
       -0.046385042 0.2192724 -0.039745405 0.013124485
0001d0 e7 77 82 3e c9 b0 d4 bd 5b b5 1c 3c fc e7 2d 3e
       0.25482103 -0.103852816 0.009564723 0.16983026
0001e0 1c 0c e0 bd 2d 20 e9 3d 15 07 1b 3e ef 20 3b 3e
       -0.1093981 0.1138309 0.1513942 0.18274282
0001f0 3e 45 38 3e 85 ae f2 3e 29 cf 16 bf 12 d4 50 be
       0.17995164 0.47398773 -0.5890985 -0.20393398
000200 50 59 c4 3d 48 58 f6 bb f6 b3 00 3e 51 d5 95 3e
       0.095873475 -0.007517848 0.1256865 0.2926431
000210 9b c3 14 be 29 58 28 3d 11 70 74 3d e6 e5 54 be
       -0.14527743 0.0410997 0.059677187 -0.20790824
000220 7f 29 3d b9 58 39 eb bc d2 5c f1 3a f1 fc 11 3e
       -0.00018039903 -0.028713867 0.0018414503 0.14256646
000230 c8 9b a5 3e e5 51 4f be 74 fa 33 be eb 15 2c 3e
       0.32345414 -0.20246084 -0.17576009 0.16805236
000240 8c 8f 4c 3d f1 26 1c 3e ff 07 8f 3e eb 23 ed be
       0.049941584 0.1524923 0.27935788 -0.46316466
000250 01 08 dd bd 73 6b 28 be 9f cc 88 3e c4 a0 90 3d
       -0.10792542 -0.16447239 0.26718614 0.070619136
000260 6c 5f b4 3e 9c b2 85 3d a4 98 83 be ba bc 61 bd
       0.3522905 0.06528208 -0.25702393 -0.055111624
000270 73 ff 49 3e 5f 33 44 be 31 1c 63 bd 07 8c 4c be
       0.19726352 -0.19160222 -0.055446807 -0.19975291
000280 30 41 81 bd dd 44 59 3b 65 ae c4 bb 77 ef 01 bd
       -0.06311262 0.0033152618 -0.0060022348 -0.031722512
000290 eb e4 be 3e 72 68 8d 3e 97 6e 4c be 26 1b 16 3e
       0.37284026 0.27618748 -0.19964062 0.14658794
0002a0 2a 2a 59 3e 63 f9 13 bf 39 db a7 be 5f 0c 0c 3e
       0.2120749 -0.5780241 -0.3278444 0.13676594
0002b0 3b d9 8a be e6 b9 a6 be 44 22 0e be b8 21 39 be
       -0.2711886 -0.32563704 -0.13880259 -0.18079269
0002c0 1f ee 67 bd 46 6f b1 bd 0e 67 d9 3c 81 d4 68 3e
       -0.056623574 -0.08663802 0.026538398 0.22737314
0002d0 5a 00 0d 3e f2 64 39 be c3 cb 36 bd 93 b2 81 3e
       0.13769665 -0.18104914 -0.044627916 0.25331554
0002e0 60 df f1 be 0d 91 a2 be fd 1e dc bc 0e e3 e0 be
       -0.47240734 -0.3175129 -0.026870245 -0.4392323
0002f0 3e f3 9d be 85 a4 61 be 53 3e 6a bd 48 7c 92 bc
       -0.30849642 -0.22035415 -0.057188343 -0.017881528
000300 d6 ac 57 bd 1a 2c 85 3e c6 cf 92 3e d1 87 2e 3d
       -0.052655064 0.2601021 0.28674144 0.042609993
000310 b7 2a f2 be 0d 73 a7 be 6a 47 2f 3e 13 69 45 be
       -0.47298214 -0.32704964 0.17117086 -0.19278364
000320 ed 68 70 be b6 ae 70 bd 7f 26 8a be a4 3b 3d be
       -0.23477526 -0.058760367 -0.26982495 -0.18479782
000330 e6 a8 8a be b9 77 64 3d 68 d3 97 3d 08 20 8f bd
       -0.27081984 0.05577824 0.074133694 -0.06988531
000340 20 60 21 3f 6c 4b 19 3f 52 40 09 3e 62 68 95 be
       0.630373 0.5988071 0.13403443 -0.291812
000350 58 dc 2e be 53 a1 a9 bd 0d 4c 5e be d2 ae 23 be
       -0.17076242 -0.08282723 -0.21708699 -0.15984657
000360 11 93 80 bc 0e aa 08 3d 15 2b 34 3e 36 24 40 bd
       -0.015695127 0.0333653 0.1759456 -0.046909533
000370 24 cd eb 3e f4 ce 0d 3f 10 0b ea bd 25 34 56 3f
       0.46054947 0.5539391 -0.11427891 0.83673316
000380 dd 73 38 3f b2 b0 a7 be 10 a6 5e be 30 d7 00 be
       0.72051793 -0.32751995 -0.21743035 -0.12582088
000390 a8 4f 8a 3e d2 9d e8 3e d9 5e a8 3e f2 8f 8a 39
       0.27013898 0.45432907 0.32884863 0.0002642866
0003a0 45 38 b7 3e e8 55 4e 3e 53 e9 21 3e 3d 50 dd 3e
       0.35785118 0.20149958 0.15811662 0.4322528
0003b0 dd 39 0e 3e 53 9f fe bd ef 80 83 3d 6a f4 36 3c
       0.1388926 -0.124327324 0.064210765 0.011166671
0003c0 6b 0a 70 3e 33 6c 6e 3e 55 c3 92 3e 1a 61 0c bf
       0.23441474 0.23283462 0.28664652 -0.54835665
0003d0 d6 e4 d3 be 2e 1c 10 bf 5e 1c 26 3d 97 da aa 3e
       -0.41385525 -0.56293 0.040554397 0.33369896
0003e0 0a bf 27 3e af a9 e3 bc 96 50 eb 3d d9 c7 9e 3d
       0.1638147 -0.027790872 0.1148998 0.07752962
0003f0 46 d9 a8 be a1 6a 1c be 16 b4 d0 be f7 a1 17 bd
       -0.32978266 -0.1527505 -0.40762395 -0.037019696

model/conv2d_1/Conv2D f4 [16, 5, 5, 32]
000000 4d 1d 97 3e 5e 44 5a 3e c8 cd f6 bd db 92 9a 3e
       0.29514542 0.21315143 -0.120509684 0.30190167
000010 85 37 b8 3d 30 f1 c8 3d 2d 0b 92 3c 68 2d a7 bc
       0.089949645 0.09811628 0.017827595 -0.020407394
000020 f2 24 3b 3e ef 90 19 bd 1f 51 78 3e 41 5a 3e 3e
       0.18275812 -0.037491735 0.24249695 0.18589117
000030 f2 e3 2d 3e 4a 51 a0 bd 0e 78 c4 be 8a a3 a2 3e
       0.16981485 -0.07828005 -0.38372844 0.31765395
000040 2d c9 70 3e a1 d5 37 bc 60 e8 a4 bd 85 8c a0 3d
       0.23514242 -0.011220367 -0.080521345 0.07839302
000050 42 0f ab 3e ac 54 94 3e 65 ee ab be 4d aa 87 be
       0.33410078 0.2897085 -0.33580318 -0.26497117
000060 28 74 fe bd 92 25 f0 bd e9 3d f7 ba 8a 34 d2 3d
       -0.12424499 -0.11725916 -0.0018863055 0.10263927
000070 ec f3 b8 bd 34 a8 83 be 81 04 29 3d 05 78 b8 3d
       -0.090308994 -0.25714266 0.04126406 0.09007267
000080 66 fd d3 bd 5a a8 5d be 7e 77 14 be 44 0d ba bd
       -0.10351066 -0.21646252 -0.14498708 -0.090845615
000090 c9 79 43 be 4e 8c 46 be a9 96 97 bd 01 5e ea 3c
       -0.19089426 -0.1938946 -0.07401783 0.028609278
0000a0 4e 79 aa be a2 53 45 3d be 4a 23 be a2 c6 6d 3e
       -0.33295673 0.04817546 -0.1594648 0.23220304
0000b0 10 20 b2 3d ff ec d6 bd f8 40 ea be 90 85 30 3e
       0.08697522 -0.10494422 -0.45752692 0.1723845
0000c0 dd 6c 8a bd 96 af 35 bd 80 ed 80 bc d4 0a 16 3c
       -0.06759045 -0.044356905 -0.015738249 0.009157855
0000d0 1f e0 74 be 09 6e 73 3e 01 4c 6d bd 61 a4 11 bf
       -0.2391362 0.23772444 -0.05793381 -0.5689145
0000e0 4b 84 cf bd ed 2d b3 3d 34 3d 5c 3c ef 2e 4a bd
       -0.10132655 0.08748994 0.013442326 -0.049361166
0000f0 51 6c 2d 3e 28 13 a8 3d 20 af 35 3c 00 6d 7f be
       0.1693585 0.08206779 0.011089116 -0.24943924
000100 4e b4 b8 3c 7e 25 17 3d 6a 44 b0 3e 0b ce 17 3e
       0.022546913 0.03690099 0.34427196 0.14824693
000110 10 d3 f2 bd 6a 6f 0e be b9 c2 ba 3d 12 95 29 bc
       -0.11856663 -0.13909689 0.09119172 -0.010350483
000120 d6 5f 8d bd 63 52 5f bd 77 d2 33 3e 8a 1a 03 be
       -0.06903045 -0.05452193 0.17560755 -0.12803093
000130 b6 ea 40 be dd b0 06 be 8c 1d b0 bd 68 56 78 3d
       -0.18839535 -0.13153405 -0.085993856 0.06062928
000140 a8 3a 4b be 77 75 87 bd 1a 7e d3 3d db ea e5 3d
       -0.19846594 -0.066142015 0.10326786 0.11226436
000150 cf 69 c9 3d 40 10 ec 3d 3d 3b 16 3e 1c 0e 24 be
       0.098346345 0.11526537 0.14671035 -0.16021007
000160 21 bd b4 bc 77 fa 70 bd cc 49 a4 bd 62 28 ba bd
       -0.02206284 -0.058832612 -0.08021888 -0.09089734
000170 94 5c 83 3e d8 a1 5d 3e c3 6c 82 3e a3 b7 a3 bd
       0.2565657 0.2164377 0.25473604 -0.0799401
000180 5d 4f f4 bc 27 ec 5e be c2 4d 90 3d 01 63 35 bd
       -0.029823 -0.21769772 0.07046081 -0.04428387
000190 0d 03 0c 3e 03 46 3f 3e 9c 06 01 3e c8 c0 9a bd
       0.13673039 0.18679051 0.12600178 -0.07556301
0001a0 fb 60 61 3e 56 00 64 be 7e dd 04 3e 43 aa e5 3d
       0.22009651 -0.22265753 0.12975118 0.112141155
0001b0 09 77 9a 3c 53 2a ec 3d c4 ae 80 3e 79 91 39 3d
       0.018855589 0.1153151 0.25133336 0.04530475
0001c0 ce 10 63 bc 62 3a bc be 66 72 92 3d e2 e5 cf 3d
       -0.013858987 -0.36763293 0.07150726 0.101512685
0001d0 18 b8 99 3d 33 8f dc 3e a9 61 37 3e 8e 42 61 3e
       0.07505816 0.43078002 0.17908348 0.21998045
0001e0 32 4c ca 3b a8 ce 42 bc bb e2 64 3e a5 3a 9e be
       0.006173634 -0.011890091 0.22352116 -0.30904117
0001f0 87 43 1b 3e 71 ab 37 3e e2 9d 44 3e 1b 9f ae bd
       0.15162478 0.17936493 0.19200853 -0.08526441
000200 6e 91 f7 bd d7 c2 7e be ef 65 7f 3d 96 00 fd bc
       -0.120882854 -0.24879013 0.06235307 -0.030884068
000210 ee 2a fe 3b 9e 69 fa bd 43 7b c8 bd 8f 7b 00 3e
       0.0077565825 -0.12227176 -0.09789135 0.12547134
000220 72 2a 47 3e 98 dc 8e 3c 88 89 ee bd c1 2a 57 3d
       0.19449785 0.017439172 -0.11647326 0.052531008
000230 8d b6 81 be fa b5 9b be 02 8d 45 be 88 d9 c0 3d
       -0.25334588 -0.30412275 -0.19292071 0.09416491
000240 17 8b f5 b8 7d cf 97 3d 03 e4 87 bc ab 57 f1 bd
       -0.00011708418 0.07412622 -0.016588217 -0.117842995
000250 68 34 8f 3e 41 56 56 3d 68 e1 1e be 4f af 6a be
       0.2796967 0.052328352 -0.15515673 -0.22918437
000260 a8 c0 e0 bc 51 25 6a be 1a cf 48 3d 52 71 5b 3d
       -0.027435616 -0.22865798 0.049025632 0.053574868
000270 cc 2e b0 bd 5f ba 90 3a f4 c0 00 bd 00 b1 b0 be
       -0.08602676 0.0011041871 -0.031434014 -0.3451004
000280 23 35 14 be 60 89 87 3e 2d ee 72 be f1 e1 47 3d
       -0.14473395 0.26471996 -0.2372367 0.04879946
000290 af 13 f1 3d 97 cb 8a be 23 bf fe bc 1f 05 76 bc
       0.117713325 -0.27108452 -0.031097 -0.015015869
0002a0 96 e2 c5 3d 44 f7 2d 3e 20 ae c8 3d 68 c1 18 bd
       0.096623585 0.16988856 0.09798837 -0.03729382
0002b0 b6 7d 62 bc c4 c3 b9 be 01 09 2f 3d 13 db 27 3e
       -0.013823917 -0.3628217 0.042733196 0.16392164
0002c0 15 1e a9 3d 91 60 a5 3d 3e 5f 23 bd 66 72 83 be
       0.08257691 0.08075059 -0.039885752 -0.25673217
0002d0 df 1c e8 3d 74 85 0e bf 56 fb 7d bd 74 ff 89 3d
       0.11333632 -0.55672383 -0.06200727 0.06738177
0002e0 ea cf de bb 58 b5 3f be 86 7e 83 3d cc 91 46 3e
       -0.0067996876 -0.18721521 0.06420617 0.19391555
0002f0 45 5c a3 be ea 86 97 bd 66 cd 38 be 9b a1 7b 3d
       -0.31906334 -0.0739878 -0.18047103 0.061433416
000300 4f 7e bd bc f6 05 e2 3d 72 4f 2f be a3 66 7b 3e
       -0.023131518 0.11036293 -0.1712015 0.24550872
000310 7f 63 04 be 50 6d 26 be c8 5d 0f bd e6 48 8c 3b
       -0.1292858 -0.16252637 -0.035001546 0.004281151
000320 91 f1 ad be 70 8a 05 be 66 1a 5b be 39 b8 19 be
       -0.33973363 -0.13041091 -0.21396789 -0.15011682
000330 51 ee 04 3d 9a 7a 97 be 05 3d 1d 3e 8d a8 30 3b
       0.03245384 -0.29585725 0.15355308 0.0026955933
000340 44 19 12 be 81 58 0b 3e c3 98 a6 bd 7a b7 a9 be
       -0.1426745 0.1360798 -0.08134606 -0.33147794
000350 36 a5 9e be 79 17 29 be 78 43 98 bd e9 76 94 bd
       -0.3098542 -0.1651286 -0.07434744 -0.07249243
000360 b1 4c a0 bd 3b 61 0b be be 3a b2 3d bd 12 4e bc
       -0.07827128 -0.13611309 0.087026104 -0.01257771
000370 4a 35 93 be a2 07 d7 3c 03 cd 9e bd a9 07 a7 bd
       -0.28751594 0.026248757 -0.07753947 -0.08155758
000380 f1 7a ab 3d 32 7b 50 be d9 a7 06 bb 25 0c d5 bd
       0.083730586 -0.20359495 -0.0020546822 -0.10402707
000390 05 95 86 bd 09 dc 7e be 2a 56 0d 3e 2c 3a ef 3d
       -0.06571392 -0.24888624 0.138024 0.11681017
0003a0 f5 73 84 bd cf 10 0d 3e 6a 52 77 be 20 e1 dd bd
       -0.064674295 0.13775943 -0.24152532 -0.10833955
0003b0 5e 45 58 3e ea 53 83 3d 67 13 c6 bd 09 b4 41 bc
       0.21120211 0.0641249 -0.096716695 -0.011822709
0003c0 b2 23 c0 bc 07 af 25 bc e9 3e 55 3d 2c eb 94 3d
       -0.02345452 -0.010112531 0.05206195 0.07271418
0003d0 99 99 43 be 6e 52 11 bd 6a df 9a 3c f2 a8 45 3e
       -0.19101562 -0.035479 0.01890536 0.19302729
0003e0 d8 62 16 3e c3 9b 49 3d 56 22 ce bd 85 d8 d1 bd
       0.14686143 0.04922081 -0.10065143 -0.10246376
0003f0 6e 53 34 3e 34 bf 46 be 29 bb 54 bc 49 3a 97 3e
       0.17609951 -0.19408876 -0.012984076 0.29536656

model/conv2d_2/Conv2D f4 [32, 3, 3, 16]
000000 d3 82 09 3e fe 48 8e 3d 29 39 09 3e 91 9a 35 be
       0.13428812 0.06947516 0.13400711 -0.17734744
000010 a5 c6 ae 3d e2 90 5d 3d 29 40 60 3e 54 90 cd 3e
       0.08533982 0.05409325 0.21899475 0.40149176
000020 f9 9c ee bd 5d 0e 8d 3e f8 c0 25 be 5c b2 44 3d
       -0.11651034 0.2755002 -0.16186893 0.04802166
000030 5e fa 37 bc 00 ba 42 be bd ed 38 be fb fb 6a 3d
       -0.011229126 -0.19016266 -0.1805944 0.057369214
000040 d5 f0 87 3e 8a 51 ac bd 88 c2 e3 bd da f7 0a be
       0.26550928 -0.0841399 -0.11121088 -0.1357111
000050 62 e1 48 be 1c 79 e9 3c a6 5c 04 be 90 15 12 be
       -0.19617227 0.028500132 -0.12925968 -0.14266038
000060 64 38 80 bc 49 63 c5 3d 26 d0 e9 bd 30 08 d0 3e
       -0.01565189 0.09638078 -0.11416654 0.40631247
000070 66 ed 8b bd 08 1b 15 bb a2 9b 10 be 4b 7e ed 3d
       -0.068323895 -0.0022751708 -0.14121869 0.11596354
000080 f8 98 9c 3d 74 31 aa be df 02 3f bd 41 a7 b3 bd
       0.07646364 -0.33240855 -0.046633597 -0.087721355
000090 c3 22 03 be 4d 0a d5 bd 0c 67 c6 bd 6e 46 bf bd
       -0.1280623 -0.10402355 -0.096876234 -0.09339605
0000a0 bf 1f 11 be 73 bd 37 be 14 c1 d7 bc 7b dd f3 bd
       -0.14172266 -0.17943363 -0.026337184 -0.119074784
0000b0 1b b0 cc 3c c6 7a 12 be ac 61 5e be 25 41 a3 3e
       0.024986317 -0.14304647 -0.21716946 0.3188564
0000c0 3a dc 06 be 83 a0 2b be ee 06 33 bc a7 1b dc be
       -0.13169947 -0.16760449 -0.010926945 -0.42989847
0000d0 44 28 13 be 3f ee 54 be 4e 63 d7 bd 8d e4 69 3d
       -0.14370829 -0.20794009 -0.10516988 0.05710273
0000e0 48 ad 6c bd 43 e5 be bd ec bb 07 3e 2b 09 24 be
       -0.05778244 -0.09321072 0.1325528 -0.16019122
0000f0 84 dc 94 bd 24 d2 8c be 9f d8 f0 3d 78 a1 a3 bd
       -0.072686225 -0.27504075 0.11760067 -0.07989782
000100 6d ac 21 bd dd 2f 5e 3d f4 23 29 3d 56 a9 aa be
       -0.03947108 0.054244865 0.041294053 -0.33332318
000110 75 ac 03 be 31 0b 7e be 56 75 71 be 87 53 2f be
       -0.12858756 -0.24808957 -0.23579916 -0.17121707
000120 ed 62 45 be ec 0e 15 bd 0e 2a 63 bd 38 fc 00 bd
       -0.19276018 -0.036391184 -0.05546003 -0.031490535
000130 ad a3 d9 bd 4e b2 25 be 8e 2b 7b 3e 4a a5 27 be
       -0.10626922 -0.16181299 0.24528334 -0.16371647
000140 44 9d 69 be ae 5f 13 3f 20 ae 47 bc b6 76 95 be
       -0.22813898 0.5756787 -0.012187511 -0.29192132
000150 f4 41 c8 3c 92 2f 34 3c d2 9c 38 3c e5 90 ae be
       0.024445511 0.01099767 0.011267858 -0.3409492
000160 00 31 cb be 96 e3 82 be 81 d0 9e 3c 7f e6 74 3e
       -0.39685822 -0.2556426 0.019386532 0.23916052
000170 e5 15 06 3d 63 e2 3b be 74 23 4e 3e 98 dd 05 be
       0.032735724 -0.18348078 0.20130712 -0.13072813
000180 0b 7d df bd fe 48 86 be 11 22 3d 3c 61 13 b5 3e
       -0.10912522 -0.26227564 0.011543767 0.35366347
000190 e2 f6 61 3e a0 44 ea bd b7 a2 80 be 58 fe f5 bc
       0.22066835 -0.114388704 -0.25124142 -0.030028507
0001a0 82 06 8a be 79 ce 92 be fd 0b 97 3d 94 45 08 bf
       -0.2695809 -0.2867315 0.073753335 -0.5323117
0001b0 87 f4 21 bd 3c b1 64 bd 7f db 1e 3e 18 b8 32 3e
       -0.03953984 -0.055833086 0.15513419 0.17453039
0001c0 b7 c6 0e be 91 06 21 3f 11 38 08 bc 16 99 1a 3e
       -0.13942991 0.62900645 -0.0083141485 0.1509746
0001d0 2b 32 a2 3d df 7e 03 be 9d 6f 94 be ed 34 e7 3d
       0.07919725 -0.12841366 -0.28991404 0.11289392
0001e0 2f d5 03 bd a8 d3 2d 3e 06 df 9c 3d fa 6e 89 be
       -0.03218573 0.16975272 0.07659726 -0.2684248
0001f0 e9 fb 1e 3e 44 06 41 3e bf ce 85 3d 3c f2 b7 bd
       0.15525784 0.18850046 0.06533574 -0.089817494
000200 90 44 3a be ae b0 0b bc 48 11 f8 3c f2 a0 77 be
       -0.18190217 -0.00852601 0.030281678 -0.2418249
000210 f1 ff 2c 3e f2 02 ad be 35 a7 cd 3e 4d 34 0f 3e
       0.16894509 -0.3379131 0.4016663 0.13984795
000220 ae 76 64 3e 2b c1 9d bd d6 8c 48 bd e6 9a 5e be
       0.22310898 -0.077028595 -0.048962437 -0.21738777
000230 4d 21 16 be 9f e9 90 3e 65 e9 38 3d 30 62 50 3e
       -0.1466114 0.2830324 0.045144457 0.20349956
000240 cc 52 3a be 21 62 7c 3e e3 69 f9 3d 83 32 3c 3e
       -0.18195647 0.24646808 0.121783994 0.18378644
000250 7f 67 d2 3c a9 b7 d5 bc 58 06 23 3e c8 4f b9 3e
       0.025684116 -0.026088553 0.15920389 0.3619368
000260 4d af 0e bd 68 ae ad 3e 10 cd f9 bd 83 02 0e be
       -0.03483515 0.33922124 -0.12197316 -0.13868146
000270 b0 10 b0 3c 0c 70 81 be e7 b4 63 be 3b 21 85 3e
       0.021492332 -0.25280797 -0.22236978 0.26001915
000280 c0 9c fd 3d fd 7c 14 be 63 2c 72 bd dc 6a 83 3d
       0.12383413 -0.14500804 -0.05912436 0.06416866
000290 2c a2 34 bd 88 e8 36 be 02 57 8a be bc d1 f6 bb
       -0.04409997 -0.17862141 -0.27019507 -0.0075323265
0002a0 ea c6 7b be 1b 87 86 3e 78 54 93 3d b8 24 2c 3d
       -0.24587598 0.26274952 0.071938455 0.042027205
0002b0 25 75 c6 bc 03 37 bc bd 1b 9b a2 bc f3 19 e1 bd
       -0.02422578 -0.0919018 -0.01984935 -0.109912775
0002c0 c3 9d 8a 3d f0 35 6f be c6 de 00 be ba 47 64 be
       0.06768372 -0.2336042 -0.12584981 -0.22292987
0002d0 62 cb 98 be 62 7f c6 be 1d 8e de be ff da 18 3e
       -0.2984267 -0.3876906 -0.434678 0.1492729
0002e0 c3 28 54 bd 33 0d 6d 3d 58 cd d8 bc 01 b3 12 be
       -0.051796686 0.057873916 -0.026465103 -0.14326097
0002f0 e9 c0 94 bd cf a2 bb 3c d6 2c 83 3d 7b f7 9a 3e
       -0.07263357 0.022904782 0.06405036 0.30266938
000300 9d 59 69 3e 2b e9 8b be 54 9b b1 3c 3a 95 49 be
       0.22788091 -0.2732633 0.021680512 -0.19685832
000310 32 cb 36 bd 09 36 88 be 8f a6 09 bd 56 6a 8f be
       -0.044627376 -0.26603726 -0.03360611 -0.28010815
000320 4d a1 0f be 33 87 be be 9e 13 c4 bc 7f da 4d be
       -0.14026375 -0.37212524 -0.023935135 -0.20102881
000330 c2 70 84 3d 03 a7 c8 bd 73 7e 02 be 82 70 52 3e
       0.06466819 -0.0979748 -0.12743549 0.20550731
000340 b3 18 2f 3d 65 c9 bc 3c 73 67 8e 3d 4a a2 e8 bc
       0.042748164 0.023045251 0.06953325 -0.028397698
000350 bb 02 7c bd c3 a7 85 be a4 b0 0c bd 0e e9 bb be
       -0.06152604 -0.26104555 -0.034348145 -0.36701244
000360 19 9b bf 3d 02 a3 d0 3d 14 db 21 be 39 00 1b be
       0.093557544 0.10187341 -0.15806228 -0.15136804
000370 2d 22 71 bd b4 2b 26 3e 54 c9 1f 3f 68 32 57 be
       -0.058870483 0.16227609 0.6241658 -0.21015322
000380 09 ad 9c 3d 77 9f 0c 3e ad db 7c bd e8 d9 28 be
       0.07650191 0.13732706 -0.061732937 -0.16489375
000390 97 18 d6 bd 57 7b 34 3e 93 a5 77 3d 94 89 4f 3d
       -0.10453909 0.17625175 0.06046064 0.050668314
0003a0 50 ca 1c 3e c7 fe 21 ba 49 22 12 be 3a 3d 18 be
       0.15311551 -0.00061796274 -0.14270891 -0.14867106
0003b0 03 e0 0e be 82 53 a8 be e9 f3 b7 be ed 30 d5 be
       -0.13952641 -0.3287621 -0.35928276 -0.4163889
0003c0 52 ee 26 3e 31 5b b0 ba 90 a9 0c be 0e 80 09 3e
       0.1630185 -0.0013454912 -0.13736558 0.13427755
0003d0 38 27 53 3e 3f b9 36 3e 38 87 a8 bc 13 91 00 bf
       0.2062043 0.17844103 -0.02057229 -0.50221366
0003e0 c0 e2 1a bd 7d 27 7a 3e 63 13 02 be a7 5e 48 be
       -0.037813902 0.24429126 -0.12702708 -0.19567357
0003f0 2c 64 f2 bd 9d 4b 13 3d c8 fd 75 be 1f 0b 55 3e
       -0.118355125 0.035960782 -0.24022591 0.20805024
