ana-cont_16.00.01_s2-LeakyReLU.tflite (tflite, 186468 bytes, 18 tensors)

arith.constant f4 [64, 128]
000000 b2 a0 75 bc 39 f3 71 bc 14 05 91 bc 6c 50 bd bc
       -0.014991926 -0.014767461 -0.017702617 -0.023109637
000010 8c c4 79 bb b6 86 2e 3d f9 66 23 bd a3 7e 75 3c
       -0.0038111536 0.04260894 -0.039893124 0.014983806
000020 7a b9 96 3c 94 ca 8f 3c d9 be 59 3c c6 bb a2 bd
       0.018398989 0.017552651 0.0132901305 -0.07945971
000030 0d cf 22 3c f5 92 99 3a f7 52 cc 3c 00 bb ef bc
       0.00993706 0.001171677 0.024941904 -0.029263973
000040 9e 5a 63 3c 40 53 a7 bc e2 96 a9 bc e8 6d 83 3b
       0.013876585 -0.020425439 -0.02070183 0.0040109046
000050 4b 80 f2 bc f3 44 6f 3c ec 51 5e bc 6d 54 4a 3d
       -0.02960219 0.014603841 -0.013569336 0.04939692
000060 14 c3 38 3b 6d 76 6d bc bf 44 47 bd df ae e3 3c
       0.0028192447 -0.014493567 -0.048649546 0.027793346
000070 3e e9 42 3a 48 22 19 bb f5 79 39 bd 28 f5 10 bd
       0.00074352685 -0.002336638 -0.045282323 -0.03539005
000080 fa d3 f4 bc 60 fd fe b9 fe b0 34 bc f0 de 82 bd
       -0.029886235 -0.00048635434 -0.011028526 -0.06390178
000090 be 10 22 3b 74 df e1 bc 6e a7 d4 3c 52 46 08 3d
       0.0024729217 -0.027572371 0.025958743 0.033270188
0000a0 13 d9 37 ba f5 4f 1b bd 30 bd 4d bc 3d 17 ac bc
       -0.00070132426 -0.03791805 -0.012557313 -0.021007175
0000b0 52 7b a0 3c 21 a8 12 bd 47 b2 33 bd 77 ac 53 3a
       0.019590054 -0.03580487 -0.04387119 0.00080747105
0000c0 06 2f b9 bc 5b 0b e8 bc 36 c5 a9 bb da d9 8b bd
       -0.02260543 -0.028325727 -0.00518098 -0.06828661
0000d0 02 e2 39 3c 8c 0a b1 bc 69 0a 79 bb 90 a6 40 bc
       0.011345388 -0.021611474 -0.003800059 -0.011758462
0000e0 ae e5 91 3c c3 92 34 bd ab 07 ae bc 07 ff 05 ba
       0.017809715 -0.044085275 -0.02124389 -0.00051115494
0000f0 d6 02 ad 3c 03 4b 66 bd ba 3b df bc 32 96 38 bd
       0.021119516 -0.05622388 -0.02725016 -0.045065112
000100 9f 07 c7 3c 66 bb 93 bc 2b 51 b3 3c 66 3d 5d bd
       0.024295626 -0.018033694 0.02188929 -0.054013632
000110 80 b8 0b bd 75 98 dd 3b c5 fd 2b bd b9 26 8f bd
       -0.0341115 0.006762559 -0.04199006 -0.06989808
000120 71 2f a5 bb a0 93 d9 3a 71 88 18 bd 9d 9c 61 3b
       -0.005041056 0.0016599782 -0.037239496 0.0034425624
000130 99 5a 2e bd 4c 9c 11 bd 22 b3 25 bc 42 ae 70 bb
       -0.04256687 -0.035549447 -0.010113509 -0.003672496
000140 86 62 5e bd 87 f2 5c 3c 8c ee c6 bd 05 d2 21 3c
       -0.054293178 0.013485557 -0.09713468 0.009876733
000150 91 f2 3f bc 26 7f 6f bc ce 79 40 3d 1c ed 96 3c
       -0.011715547 -0.014617717 0.046991162 0.01842361
000160 65 2e 41 3d fc 59 2f 3d 44 cf 32 3c 76 69 2a 3c
       0.047163386 0.042810425 0.010913674 0.01040112
000170 8f 85 27 bd be 3e 04 3d 60 a3 37 bd d3 8e 8a bc
       -0.040898856 0.032286398 -0.04483354 -0.016913807
000180 71 a3 95 bd da f7 d6 bb c8 18 fe ba 97 32 ec bc
       -0.073065646 -0.006560308 -0.0019386047 -0.028832717
000190 96 9d 46 3c 7a 0a b6 bc 14 69 b2 bc 52 d3 16 bc
       0.012122532 -0.022221792 -0.02177862 -0.009205656
0001a0 53 54 a7 bc 78 43 2d bd 77 a8 28 3d 60 10 06 3d
       -0.020425951 -0.04230067 0.041176286 0.03273046
0001b0 f5 2c b6 bd 2e 35 16 bd 5a 3d 4a bd bb 8b d9 3c
       -0.088952936 -0.03667181 -0.049374916 0.026555886
0001c0 e0 6d e1 3c f4 74 14 bc 91 11 94 3b 21 f6 00 bd
       0.027518213 -0.009061087 0.0045186956 -0.031484727
0001d0 25 cc 52 bd fe 06 55 bd b5 0d 8d 3c d4 64 b7 bb
       -0.05146422 -0.05200862 0.01721845 -0.0055967364
0001e0 95 94 cc bb 12 7e 29 bd 51 56 23 bb f5 9f 27 bd
       -0.0062432983 -0.041379996 -0.0024923275 -0.04092403
0001f0 cf 82 52 3c a6 9d 90 bc 91 89 80 bc 46 91 d7 3c
       0.01284857 -0.017653298 -0.015690597 0.026314389
000200 fe 1c 03 3d aa 8d 35 3c 65 9d ea bb 48 bc 6c ba
       0.03201007 0.011081139 -0.007159876 -0.00090307416
000210 7f fc da bb 7e 90 89 3c 43 85 1b 3c c4 fc 94 3c
       -0.006682932 0.016792532 0.009492221 0.018186934
000220 e9 75 42 bc 3b 8c cf bb 16 f9 5d bb 6f cf 73 3c
       -0.011868932 -0.0063338554 -0.003387039 0.014880999
000230 23 b8 c5 3c 14 ce 14 bb ec d4 4b bd b5 d9 8a 3a
       0.024135655 -0.002270584 -0.049763605 0.0010593446
000240 af fa 75 3c 3c cf 00 3a d8 16 ba 3c 54 bf 9e 3c
       0.015013381 0.0004913693 0.02271597 0.019378342
000250 4e 68 df 3a a1 14 a5 bc 0e b0 16 bd c5 d4 4e 3c
       0.0017044635 -0.020151438 -0.036788993 0.01262397
000260 a6 3a b6 bc 75 f1 e9 bc ad 62 c1 3c 3f 16 45 3c
       -0.022244763 -0.028557518 0.023606623 0.01202923
000270 e8 85 d6 bc ce 7e 66 3c b0 a1 11 3c 1f 77 a6 bc
       -0.026186898 0.0140683185 0.008888647 -0.020320473
000280 b6 c0 d7 3b 0f 07 6a bc 32 c4 9b 3c fd 4f c4 bc
       0.006584252 -0.014283909 0.019014452 -0.023963923
000290 b0 4c 77 bd 11 71 1c bc bd 9c 69 39 8e 9d ea 3c
       -0.06037587 -0.0095484415 0.00022279001 0.028639581
0002a0 66 07 47 bc 4a f1 d3 3c b9 b0 da 3b 36 59 f9 ba
       -0.01214776 0.025871892 0.006673899 -0.0019023779
0002b0 95 20 b3 ba 36 bf d6 bc 7f eb a2 bc 26 d0 85 3c
       -0.0013666326 -0.026214223 -0.019887684 0.016334604
0002c0 26 16 11 bc bb a3 83 bd 53 1b 6f 3c 4c d5 88 bc
       -0.008855378 -0.064277135 0.014593917 -0.01670327
0002d0 63 f5 80 bc aa 1e e3 bc 78 50 60 bd 16 83 81 bd
       -0.01574201 -0.027724583 -0.05476424 -0.06323831
0002e0 5d 1b a8 bc d1 42 04 bd c2 0c 0f 3c ef 0b a1 3c
       -0.02052086 -0.032290284 0.008731069 0.01965901
0002f0 f1 d0 40 3c 5c 4f 02 bc 6d 3e 9e bb 3a 16 d6 3c
       0.0117685655 -0.007953491 -0.004829219 0.026133645
000300 39 e7 25 bc f1 43 cc 3c bf f6 dd b8 b1 65 da 3a
       -0.010125929 0.02493474 -0.00010584061 0.0016662386
000310 a0 e5 cb bc 7c 0b 9a 3a ae f3 f5 bc 65 9f 00 bd
       -0.024889767 0.001175269 -0.030023422 -0.03140201
000320 5b 4c 8c bc 84 e8 89 bc f6 c2 a8 bc ab b0 1c bc
       -0.017126253 -0.016834505 -0.020600777 -0.009563605
000330 57 48 d2 bb 09 70 fe 3c d5 c5 93 3c c8 52 17 bd
       -0.006417315 0.031059282 0.01803867 -0.03694418
000340 87 3b 47 bc 7f e8 82 3c 27 31 c6 bc a8 58 24 bc
       -0.0121601885 0.015980003 -0.02419336 -0.010030903
000350 d5 f2 9d bc 71 30 f8 bb 9e 05 86 3c c0 d3 1e 3d
       -0.01928083 -0.007574134 0.0163601 0.03877616
000360 b3 8a 85 bb 5e ef 85 bc c6 6e 97 3c bc 64 13 3c
       -0.004075372 -0.01634949 0.018485438 0.008996185
000370 a3 d3 5f bc 9b 2f a0 3b 7b 8b b2 bc 87 1b a6 3b
       -0.013661298 0.0048884875 -0.021795025 0.0050691995
000380 b6 c0 22 bb 69 55 fa bc 44 d4 e4 bc 16 d0 8f 3c
       -0.0024834103 -0.030558305 -0.027933247 0.017555278
000390 15 53 2d bb 24 8a 26 3c 65 8b 6b 3c ac 0e 59 bb
       -0.0026447226 0.010164771 0.014376496 -0.0033120317
0003a0 c3 1b e2 3a 67 8d 4b bc 32 9b 47 bc 34 43 14 bc
       0.0017250705 -0.01242385 -0.012182998 -0.009049226
0003b0 1c ac 60 bc 17 f9 36 bd a2 58 de bb d4 af 85 bc
       -0.013712909 -0.044671144 -0.006785468 -0.016319193
0003c0 49 88 f6 bc 64 c9 88 bc 05 2f bd bc 12 66 5f 3b
       -0.030094283 -0.016697593 -0.02309371 0.0034087938
0003d0 db bd 5b 3c 14 00 aa 3c 10 6f 6d 39 42 ea 0f bd
       0.013411964 0.02075199 0.00022643455 -0.035135515
0003e0 ac af 9e bd f2 11 0c 3c cb 52 b6 3c 5e f0 8f bb
       -0.077483505 0.0085492 0.022256276 -0.0043926677
0003f0 d4 97 04 3c d2 71 77 3d 2b ff 67 3b fc df c3 3c
       0.008092839 0.060411282 0.0035399895 0.023910515

arith.constant1 f4 [64]
000000 4a 10 82 3f 65 f6 d6 bd 32 b4 03 be c9 9e c4 3d
       1.0161221 -0.10496215 -0.12861708 0.09600598
000010 17 b0 e1 3e 72 41 12 bf bc 73 1c bf e7 0c 3b be
       0.44079658 -0.5713111 -0.61114097 -0.1826664
000020 f7 4d 4e 3f ea 88 3a 3e f6 f3 6d 3f 08 31 16 be
       0.80587715 0.18216291 0.9295038 -0.14667141
000030 13 c7 49 3f d9 53 5f bf 7b be 55 3f 57 6c 94 be
       0.7881939 -0.87237316 0.83493775 -0.28988907
000040 ba d6 1b 3f ac 42 e3 be fe b8 8c 3f a9 51 c7 3e
       0.6087452 -0.44386804 1.0993955 0.3892949
000050 24 b7 01 3f 31 85 1e 3f 23 c5 69 3f d7 5d 4b 3d
       0.50670075 0.61921984 0.9131643 0.04965004
000060 60 07 28 3f 2d 2a 1e bf 6c 51 37 3f c2 03 06 3e
       0.65636253 -0.61783105 0.71608615 0.13087371
000070 e7 3a 78 3f 46 3f c4 be b4 38 09 3f be 78 2e 3f
       0.9696488 -0.38329524 0.5360215 0.6815299
000080 6f fc 34 3f bc 77 82 be c5 6c 4d bd 1d e7 37 3f
       0.70697683 -0.25481975 -0.05015256 0.71837026
000090 ad da 78 be e8 f5 2b 3f 59 e9 8a 3d 52 a2 56 3f
       -0.24302168 0.671721 0.06782789 0.8384143
0000a0 11 9e a3 3e 1d 90 00 bf 26 d4 c4 3e 76 28 25 3f
       0.31956533 -0.502199 0.38443106 0.64514863
0000b0 6f 18 24 bf 99 f8 0c bf 30 68 d2 3e 72 19 07 3f
       -0.6409978 -0.5506683 0.41095114 0.527732
0000c0 95 69 17 bf 08 37 9d bc cf 2b 33 be 4d 96 5c 3e
       -0.5914548 -0.01919128 -0.1749718 0.2154171
0000d0 db a4 fc 3e 6d 7e 27 bf aa 04 11 bf 2f 9e 60 3f
       0.49344525 -0.65427285 -0.5664774 0.8774137
0000e0 44 ce 58 3f fe 80 98 3e ea ae ca 3e 39 d3 e0 3e
       0.84689736 0.29785913 0.39586574 0.4391115
0000f0 ac d4 b9 3e cd 5f 40 3f b7 fb c6 3e cb 4b 34 bf
       0.36295068 0.7514618 0.38863918 -0.7042815

arith.constant2 f4 [128, 128]
000000 9a 0b f3 be a8 53 ab 3d 77 9f cc 3a 20 dd b5 3d
       -0.4746979 0.083655655 0.0015611489 0.08880067
000010 39 40 6b 3d 8e 48 20 3c 75 17 74 bd af 69 fa bc
       0.057434294 0.009782923 -0.059592683 -0.030567972
000020 cc 54 7c 3e f8 5b 2c 3c e9 fe ca bc 44 c4 f7 bd
       0.24641722 0.010519974 -0.024779754 -0.120979816
000030 a5 3d 25 bd a4 92 c1 3d 86 76 01 be 8d 76 bd 3c
       -0.040341992 0.094517976 -0.1264287 0.023127818
000040 ec 5f 85 3d 4b 5f 9c ba 25 ed bc be 5f 3d 1c 3d
       0.06512436 -0.0011930255 -0.36899677 0.038144466
000050 25 9d d0 3d f6 86 80 bc 70 9d a6 3d 8f eb a5 3d
       0.10186223 -0.015689354 0.081354976 0.0810157
000060 eb de 0f be 07 58 93 be 33 4b 97 be 2e be 50 3e
       -0.1404988 -0.28778097 -0.2954956 0.20385048
000070 df 2c f9 bb 04 90 9b be 85 27 98 bc 61 ca 2d bd
       -0.007604226 -0.30383313 -0.018573532 -0.04242933
000080 2c c0 44 3d 4f 3b 1b bc 6b c6 47 bd 5f 4a 97 3d
       0.048034832 -0.0094745895 -0.04877321 0.07387232
000090 de 9f ef bd 42 14 b5 bd 5d d7 aa bd 6d 1d a4 bc
       -0.11700414 -0.088417545 -0.083418585 -0.020033563
0000a0 d5 24 47 be e5 bb ac 3d a6 f8 32 bd 26 ec 85 bc
       -0.19447644 0.084342755 -0.04369416 -0.016347956
0000b0 74 8b b1 b9 52 95 b6 3e 19 6f 95 3d 6d 18 5e be
       -0.00033863971 0.35660797 0.07296581 -0.21689005
0000c0 fb 7d e8 bc ee 3b db 3d b5 1a cf 3d 42 dc 73 3d
       -0.028380385 0.1070479 0.10112516 0.059536226
0000d0 df 57 24 be e3 f8 43 3c 3c ea 5f 3d 78 e3 8d 3e
       -0.16049145 0.011961195 0.054666743 0.27712607
0000e0 4c 3a b5 bd c5 73 e2 bd 37 17 ca 3e e4 77 19 3e
       -0.0884901 -0.110572375 0.39470837 0.14987141
0000f0 4f 88 cd bd db ea c2 3d 5e 3b 14 3e d1 56 1e be
       -0.100357644 0.095174514 0.14475772 -0.15462805
000100 6d 42 97 b9 90 ef 57 bd ef ce a8 3d 51 e1 ff bd
       -0.00028850455 -0.0527187 0.082425945 -0.124941476
000110 33 dc a2 be fd f1 27 be 43 f2 aa be 60 6a e2 bd
       -0.31808624 -0.16400905 -0.33387956 -0.11055446
000120 f6 5b b0 3d 33 fc e5 bd d5 fb 8a bd cc 6b b1 bd
       0.0861129 -0.11229744 -0.067863144 -0.08663139
000130 bc c9 71 3e 04 91 92 3c 76 97 18 3e b1 34 25 3e
       0.23612112 0.017891414 0.14901528 0.16133381
000140 f7 3f ce bd a2 b6 29 be 22 3b f8 bd a6 c8 d7 bb
       -0.10070794 -0.16573575 -0.12120654 -0.0065851985
000150 9b ef f0 3d 8f 53 6c 3d 62 3d 12 bd 98 a8 4f 3e
       0.11764451 0.057696875 -0.03570307 0.20279157
000160 bd ce 54 be 88 1e fd bd a0 81 2f be 20 85 d2 be
       -0.2078199 -0.12359339 -0.17139292 -0.4111719
000170 88 99 84 be 11 0e 9a bd af 35 ec bd ac d5 f5 3d
       -0.25898385 -0.07522214 -0.11533677 0.12003645
000180 e8 0d 20 3e 01 8a 69 3d bd b4 0f 3e d5 97 18 be
       0.15630305 0.057016376 0.1403379 -0.1490167
000190 b9 91 76 be bb 2d 53 be 8a 34 39 bc f7 c4 43 3d
       -0.24079026 -0.20622914 -0.01130403 0.047795262
0001a0 fe 36 eb bd 8c 30 5a 3d 15 1e 30 be 35 94 08 3d
       -0.11485098 0.053268954 -0.17198975 0.033344466
0001b0 9c 46 30 3e 3d 0d 7d 3d 79 38 c5 bd c5 97 40 be
       0.17214435 0.061780203 -0.09629912 -0.18807895
0001c0 5c 68 13 bd ae 61 a9 3d a2 91 8b bb c4 0d f4 bb
       -0.035988197 0.08270584 -0.004259304 -0.00744793
0001d0 f7 5b ce 3b 33 8b 2e 3e e0 7c ea bc 88 bf 74 3e
       0.006297584 0.17045288 -0.028623998 0.23901188
0001e0 ec 6d 96 be b6 ce dc bd 67 d7 c7 bd f2 5d 55 be
       -0.2938074 -0.107816145 -0.097578816 -0.20836619
0001f0 25 c1 42 bd 06 55 f8 bd 27 f9 88 be 11 06 b7 bd
       -0.04754748 -0.12125592 -0.26752588 -0.08936704
000200 72 e9 45 3e 7a 83 ad 3d 21 8d b1 bb 1a 37 00 be
       0.19327334 0.08472343 -0.005418435 -0.1252102
000210 a5 c7 c2 3d 48 55 6e 3d 7b fc c7 3d 13 8f 21 be
       0.095107354 0.0581868 0.09764954 -0.15777235
000220 21 c8 61 be 41 af 12 3e 16 b4 2b 3e 42 e9 e7 3d
       -0.22049 0.14324667 0.16767916 0.11323787
000230 5d 83 6e be 9e bb ab be 7a b1 9a 3e 12 c0 53 bc
       -0.23292299 -0.33541578 0.3021353 -0.012924211
000240 be b4 0b 3e 2b 42 35 be 6f 8e b5 3d 7c d9 93 3e
       0.13643166 -0.17701022 0.08865058 0.28876865
000250 66 25 a0 3d 6d 80 ad bd 87 9f f3 3d 55 0f 5a bd
       0.07819633 -0.08471761 0.11895662 -0.053237278
000260 3b c6 bb 3d de 83 c2 3d 0e f7 43 3d 12 c7 5f be
       0.09168669 0.09497808 0.04784303 -0.21853283
000270 93 d3 b1 bd 80 6a 06 3d 33 4b 84 3d e6 b7 b7 3b
       -0.08682933 0.03281641 0.064596556 0.005606639
000280 5e c6 a9 be fe 61 0f bd d3 d0 00 be cb e6 40 3d
       -0.33159155 -0.035005562 -0.1257966 0.0470951
000290 74 43 ad 3d 6a 9b 68 3e bb 06 e1 3c bf cf 0c be
       0.08460131 0.22715536 0.02746903 -0.13751124
0002a0 b4 35 d5 bd 70 75 99 bd e3 f1 17 3e 99 56 e6 be
       -0.10410634 -0.074931026 0.14838366 -0.44987944
0002b0 95 f9 0c bd aa 0d b8 be ef 26 3d 3e 76 5c 15 3e
       -0.034417707 -0.35947925 0.18471883 0.14586052
0002c0 72 2d a5 3d 0a 50 77 be d6 b7 06 bd 60 2b 5a 3e
       0.08065309 -0.24151626 -0.032890163 0.21305609
0002d0 20 2f 66 bd 6b 42 22 3e 48 8e dc 3d 13 da 49 bd
       -0.056197286 0.15845649 0.107693255 -0.049280237
0002e0 f5 3f d8 bd 90 b9 1f 3e 3f e9 ab be 33 19 8e bd
       -0.10559074 0.1559813 -0.3357639 -0.069384
0002f0 78 e7 2e 3e 5c 3a ed bd ac 03 e0 3d 4a 56 8e 3e
       0.17080486 -0.11583397 0.109382 0.27800208
000300 55 40 aa 3d f4 d0 a1 bd d4 9b 85 bb b7 67 81 3e
       0.083130516 -0.07901183 -0.004077414 0.2527444
000310 28 be 56 3c fa 92 e1 3c d4 cc 2f 3e 20 aa a5 3d
       0.01310686 0.027535904 0.1716798 0.080890894
000320 74 18 36 3e e6 e3 b8 bd 6c 38 99 bd eb 7b 7e bd
       0.17782766 -0.09027843 -0.07481465 -0.062129896
000330 83 d3 0c 3d 15 c4 94 3d 34 15 b4 bd 19 ae 45 3d
       0.0343814 0.07263962 -0.08793107 0.048261736
000340 57 d9 8b bc 08 ca c1 3d 5a ee 87 bc fc fb ba 3d
       -0.01707141 0.094623625 -0.016593147 0.091300935
000350 33 5a e4 bd 24 78 f9 bc ce 4b c4 bd 98 ef 20 be
       -0.11150017 -0.030452795 -0.09584771 -0.15716398
000360 93 45 90 3e d0 cd 08 be b7 5f fe bd f6 34 f8 3e
       0.2817808 -0.13359761 -0.124206 0.48477906
000370 1d 4e b9 3e b6 d9 77 3c bd 93 0b 3e 4f 0d 55 3d
       0.36192408 0.01512759 0.13630576 0.052014645
000380 53 19 93 3e 4f bf c7 bd 60 a9 cb 3c ad 90 b6 bb
       0.28730258 -0.09753286 0.024861038 -0.005571446
000390 4f 9e a2 bc 79 1f 22 bd 5a 27 05 be 70 d2 2b 3e
       -0.019850878 -0.039580796 -0.13003293 0.16779494
0003a0 ab 91 55 bd cb b5 1d 3e d2 92 6e bd d0 4d 3d 3e
       -0.052140873 0.1540138 -0.058245488 0.18486714
0003b0 68 8e c6 be 0a 8c f1 3d df 2e 33 3e 6a 5f 1b be
       -0.38780522 0.117942885 0.17498349 -0.15173116
0003c0 23 50 0c be 97 57 74 3c b7 98 76 3d 41 b6 af bc
       -0.13702445 0.014913461 0.060204234 -0.02144921
0003d0 7a 23 69 bd bf a2 68 be 8a 21 1d be e0 7c 86 be
       -0.0569186 -0.22718333 -0.15344825 -0.26267147
0003e0 ff cf 00 3e 2c ee 57 3d 0f b4 1a 3e 86 84 1a be
       0.12579344 0.052717373 0.1510775 -0.15089616
0003f0 89 a1 e1 bc ee bb 9c 3c cf ac 35 3d e7 54 b6 bc
       -0.027542846 0.01913258 0.044354256 -0.022257281

arith.constant3 f4 [128]
000000 e0 30 94 40 9f b9 5d bf bf 4b 0c 41 ee 6e ba 40
       4.630966 -0.8661136 8.768493 5.826041
000010 a8 c8 01 40 93 67 4c 3f 94 e7 0d 41 51 3f 0d bf
       2.027872 0.7984554 8.869038 -0.5517474
000020 e0 7c d3 40 de 17 52 40 52 03 19 40 f6 75 ac bf
       6.6089935 3.2827067 2.3908277 -1.3473499
000030 e4 3c d1 40 59 5f e5 40 73 25 95 3f c1 be 44 c0
       6.538683 7.167889 1.1652054 -3.0741427
000040 b3 fc 73 40 25 39 30 40 d6 2a d7 40 5c 55 d1 3f
       3.8122985 2.7534878 6.723979 1.6354175
000050 90 ca b5 3f 27 b1 09 40 c7 ac 06 40 b3 2f dd 40
       1.4202442 2.1514375 2.1042955 6.9120727
000060 5e 81 33 c0 9e ec 41 40 e9 ae b6 40 70 70 d1 40
       -2.804771 3.030067 5.7088513 6.5449753
000070 e6 87 e4 3e 66 e4 b2 3f 96 8d 19 bf 93 43 62 40
       0.44634932 1.3975952 -0.5998167 3.5353744
000080 29 de 2e 3f 6e 04 a4 c0 7c de 7d c0 7b 56 ad bd
       0.6830774 -5.1255407 -3.9667044 -0.084637605
000090 8a a5 b1 3f 56 57 5a 3f 40 f3 09 c0 ef 5e fa 40
       1.3878644 0.85289514 -2.1554718 7.8240886
0000a0 5c 4e 2e 40 f8 74 0b 41 a5 26 72 40 14 4a be c0
       2.7235327 8.716057 3.7836087 -5.9465427
0000b0 de 39 22 3f 9d 41 21 40 fa 68 1e c0 36 66 6a be
       0.6336955 2.5196297 -2.4751573 -0.22890553
0000c0 83 73 9b 40 0e 1e 15 3e ce 7f a6 40 a7 b1 f8 be
       4.8578506 0.14562246 5.203101 -0.48573038
0000d0 f1 bd 5b 40 97 03 69 c0 b4 32 86 3f 8b 13 1b 40
       3.433468 -3.640844 1.0484223 2.4230678
0000e0 94 61 3a 3f 61 2a fe 3f 57 b4 84 40 58 ba f1 40
       0.7280514 1.9856683 4.147014 7.553997
0000f0 37 63 f1 40 80 e6 9a 3e eb 28 a4 3e b5 ff d1 40
       7.543361 0.30253983 0.32062468 6.562464
000100 9d 4c c5 40 9a 73 8f 40 03 cc 1a 41 06 c2 91 40
       6.165602 4.4828615 9.674808 4.5549345
000110 40 85 98 c0 f4 a1 1d 3e 88 a0 67 c0 d6 3a 20 c0
       -4.766266 0.15393811 -3.619173 -2.503591
000120 12 b7 f1 3f 1f c4 66 40 54 35 89 40 e3 ec 4c c0
       1.8883994 3.6057203 4.28776 -3.2019584
000130 76 7c 06 3d dd cb e4 3f 89 c4 8a bf 5a 27 ca 3f
       0.03283354 1.7874714 -1.0841228 1.5793259
000140 5b ff 7c 40 98 4d 81 40 b9 00 38 40 85 d0 7b 40
       3.9530857 4.040722 2.875044 3.934602
000150 6a d8 ea 40 81 a3 18 40 c0 50 16 40 c3 86 bd 40
       7.3389177 2.3849795 2.3486786 5.9227004
000160 fa 01 6d 3f 65 7e 23 3d 0a 82 10 41 27 b4 33 40
       0.9258114 0.03991546 9.031748 2.8078706
000170 56 4e 19 40 69 35 b0 3f 7c 21 d5 3f d6 52 8e 40
       2.3954062 1.37663 1.6650844 4.447612
000180 c8 f0 26 bf 60 8d 4c 3f 3f 26 d1 3f 18 12 65 bf
       -0.65211153 0.7990322 1.6339797 -0.89480734
000190 e0 9e a9 3f 36 3c fb 40 70 06 3c 3e 77 7c 11 40
       1.325161 7.8511 0.1836183 2.2732217
0001a0 2a ea e5 40 71 6b 8f 40 ad 9e 69 40 ba f1 3d 40
       7.1848345 4.4818654 3.6503098 2.9678788
0001b0 ec 4a eb 3f b8 59 86 be 5d 7c 23 40 2a cb 36 40
       1.8382239 -0.26240325 2.5544655 2.8561502
0001c0 88 26 b7 3f f8 f9 88 40 21 50 de 3e 25 a4 ba bf
       1.4308634 4.280514 0.43420509 -1.4581343
0001d0 4f dc c7 40 6e 69 05 41 2a 62 87 40 8b c1 dc 40
       6.245643 8.33824 4.230733 6.898626
0001e0 9c 16 35 c0 57 47 87 3f 4f bb cc 40 17 b1 e0 3e
       -2.829505 1.0568646 6.397865 0.4388511
0001f0 d2 31 81 3f b3 f9 30 41 45 a9 b8 40 50 94 64 bf
       1.0093329 11.060962 5.770663 -0.89288807

arith.constant4 f4 [32]
000000 fb 9b 07 be d5 e9 00 bf e8 89 45 3b 57 9c fb be
       -0.13243096 -0.503568 0.0030142013 -0.49142715
000010 98 d1 91 be 6e 1a 46 be f0 59 d2 be 17 6a 64 be
       -0.2848022 -0.1934602 -0.41084242 -0.22306095
000020 84 0c c8 be a0 f5 cd be 7b 83 96 be 2a 9d 90 be
       -0.3907205 -0.4022646 -0.29397187 -0.28244907
000030 60 7f 28 bd f1 97 3c bf 0d fa 54 be b5 84 e0 be
       -0.0411371 -0.73669344 -0.20798512 -0.43851247
000040 06 27 93 bd 13 ef 4d bd 24 59 88 be a0 75 2d be
       -0.071851775 -0.050276827 -0.2663051 -0.16939402
000050 10 a7 a8 be c1 77 ad be 60 5d d8 3d 2f c7 4a be
       -0.3293996 -0.33880427 0.10564685 -0.19802545
000060 63 2d e0 bd d6 4a 05 bf 1c af 9f be dd 52 7a be
       -0.10946157 -0.52067316 -0.31188285 -0.24445672
000070 6b a2 db be 45 93 63 be 00 0a 2d be 63 01 0b bf
       -0.42897353 -0.22224148 -0.16898346 -0.5429899

arith.constant5 f4 [16]
000000 ac 2e 94 be 66 ac b4 be 52 d1 f5 be a9 2a d5 be
       -0.28941858 -0.3528778 -0.4801126 -0.4163411
000010 a0 3f 96 be 9c 5e 95 be 37 38 d5 be e4 4d 8a ba
       -0.29345417 -0.29173744 -0.4164445 -0.0010551778
000020 44 9d c3 be 84 e9 5a be c3 36 a5 be 58 6c 5d be
       -0.38205922 -0.21378142 -0.32268342 -0.21623361
000030 11 3c e1 be ec e2 cb be c2 3c c1 be f8 bd d3 be
       -0.4399114 -0.39821565 -0.37741667 -0.41355872

arith.constant6 f4 [32]
000000 b1 97 d9 3e 47 97 83 bd 54 21 db 3d 35 2d 04 3e
       0.42498544 -0.06425338 0.10699716 0.1290787
000010 77 f6 5b 3e 2c c8 11 3f b5 aa 00 3e 24 bc 1b 3e
       0.21480738 0.56946063 0.1256512 0.15208489
000020 7e e2 36 3e 7c ad ee 3d 8f 2d 03 3d 31 9b aa 3d
       0.17859837 0.11654183 0.03202587 0.08330382
000030 50 ab 36 be 08 86 11 bd 0c eb c5 3e bb 44 29 be
       -0.17838788 -0.035528213 0.3865589 -0.16530125
000040 48 e7 fe 3d 6e f1 8c bd 68 02 82 3e 67 dd fd 3e
       0.12446457 -0.068819866 0.2539246 0.4958298
000050 5a 48 73 3e 40 4a 3f 3e 7e 07 a2 3e ac b9 a2 be
       0.23758069 0.18680668 0.3164634 -0.3178228
000060 ff 2d 6a be 53 58 db bb d9 4a 84 3e 39 37 10 3f
       -0.22869109 -0.0066938787 0.25838354 0.56334263
000070 89 4e 8e 3e 7d 1e 20 3e c8 09 9a be 8e 58 9c 3e
       0.27794293 0.1563663 -0.30085588 0.30536312

arith.constant7 f4 [32, 3, 3, 16]
000000 bc 53 14 3e 62 bb 31 bd ae ed 31 bd 7f 41 22 be
       0.14485067 -0.043391593 -0.04343956 -0.15845297
000010 fc 0d 81 3e 38 52 6f 3e d4 44 5c 3e 31 26 12 be
       0.25205982 0.23371208 0.21510631 -0.14272381
000020 d9 7d dd 3c c6 20 f5 3b e3 3d b1 3d 63 33 29 be
       0.027037548 0.0074807135 0.08654382 -0.16523509
000030 c5 2d b8 3d 62 ee ef bc 4f 3e 4a 3c b6 bb 03 3e
       0.08993105 -0.029288474 0.012343957 0.12864575
000040 c9 86 cc bd e0 13 6d bc 01 4f a9 3d bd 97 a5 3d
       -0.09986646 -0.014470071 0.08267022 0.080855824
000050 84 7d 2d be 34 79 cd bd bf d8 09 be 28 2e 03 be
       -0.16942412 -0.10032883 -0.13461588 -0.12810576
000060 ea 84 47 bd cc f8 26 bd 7d 9f 86 be d3 f4 2a be
       -0.04871074 -0.040764615 -0.26293555 -0.16694956
000070 d3 7a 16 3d dd a4 7a bd a9 b7 0b be fb 46 3d 3d
       0.036738228 -0.061192382 -0.1364428 0.04621027
000080 56 99 1c bd 0f fe 08 bd 55 f7 08 bd df 76 e2 bd
       -0.03823217 -0.033445414 -0.033439 -0.11057829
000090 39 8e 5a be 71 38 46 be 29 6d 34 3e d5 12 97 3b
       -0.21343316 -0.19357468 0.17619766 0.0046103992
0000a0 45 96 2a 3e 02 e5 9e be a1 a8 4a 3d 41 a6 0a be
       0.16658886 -0.31034094 0.049477223 -0.13539983
0000b0 05 c6 c5 3e c4 31 94 be c1 6a 26 3e ec 1c 93 3e
       0.3862764 -0.28944218 0.16251661 0.28733003
0000c0 bf 61 3b be 6e 35 00 3e bf 98 c2 be d8 40 11 3e
       -0.18299006 0.12520382 -0.3800716 0.14184892
0000d0 c3 a0 ce 3d 56 eb 85 be fb 37 47 bd f8 7f 1c 3e
       0.100892566 -0.2615611 -0.04863737 0.15283191
0000e0 0e c4 31 be a5 df 8d bd f1 09 53 3e ea 16 85 3d
       -0.17359945 -0.069274224 0.20609261 0.06498511
0000f0 5f 34 bc bc 3b 0b e9 3d d5 99 96 bd ba e8 46 bd
       -0.022974191 0.11379095 -0.0735356 -0.04856179
000100 d3 e4 ee 3c af 49 63 be 51 a5 5e be c1 c3 4a be
       0.029161846 -0.22196077 -0.2174275 -0.19801237
000110 90 7d 8d be 74 4e 32 3e ee b5 db bd 80 43 5d bd
       -0.2763486 0.1741274 -0.1072806 -0.05401945
000120 5d 5b 32 bd c7 d4 60 3e 89 04 47 be f9 35 75 3d
       -0.043544162 0.21956168 -0.19435324 0.059865925
000130 30 2f f0 bd 79 6f 82 3e 3d 68 8c bd 5b a3 48 3d
       -0.1172775 0.25475672 -0.068558194 0.048983913
000140 6e 6c 65 3e 49 37 74 3d 92 d0 ea b9 1f d3 97 be
       0.22404644 0.059623037 -0.00044787355 -0.2965326
000150 3e 86 79 be 6a 76 f2 3b 19 72 fb bd f4 3b bd bc
       -0.24367616 0.00739937 -0.12277622 -0.023099877
000160 73 05 98 3c 54 36 08 be e4 82 86 bd 97 c6 8f bd
       0.018557286 -0.13301975 -0.06567934 -0.070203
000170 10 8e c5 3d c0 fa 0b 3e a9 ed 23 be 54 0c 51 3e
       0.09646237 0.13669872 -0.16008629 0.20414859
000180 2b db 5c 3e 04 ef 1f 3e 0e 81 ac bd 19 55 2c 3e
       0.21567981 0.15618521 -0.08423053 0.16829337
000190 27 22 ea bd 73 6a 97 bd 29 2b 93 bd e5 b9 93 bd
       -0.11432295 -0.073933505 -0.071859665 -0.07213191
0001a0 40 28 4f bd 66 cb 9a 3d d1 12 d6 3d 33 e4 86 3d
       -0.050575495 0.075583264 0.10452808 0.06586494
0001b0 a2 82 96 bd e7 cd c0 bd dd 6d 83 3e ac 22 3c be
       -0.07349135 -0.09414273 0.25669757 -0.18372601
0001c0 0c 8d 4f 3d fe 4b 18 bd d6 5c a4 3e 69 af 69 3d
       0.050671622 -0.037181847 0.32102078 0.05705205
0001d0 07 2d 9d 3d 3f 6d cf bc f3 b5 64 3e 02 18 37 3d
       0.07674604 -0.025320647 0.22335033 0.04470063
0001e0 c8 95 0f be 3b 65 83 3e 1e 70 57 3e 57 22 ac bd
       -0.14021981 0.2566317 0.21038863 -0.08404987
0001f0 f6 d9 53 3d 74 68 85 3d d0 44 a2 3d 12 99 7b 3d
       0.051721536 0.065140635 0.07923281 0.061425276
000200 36 02 99 3d fc 92 86 3e 4b 74 a5 bc 4d 4e 15 3e
       0.07471125 0.26284015 -0.020197054 0.1458065
000210 40 89 3c 3e 85 fb 3d bc 55 08 8b bd c1 ba 82 3e
       0.18411732 -0.011595611 -0.067886986 0.25533107
000220 bb c1 1b 3c 68 cc 3b be aa bb b5 3d 30 0b 05 3e
       0.009506638 -0.18339694 0.08873685 0.12992549
000230 fc 15 8a be 7b bf 90 bd 4d a8 c3 3c 28 33 d5 3c
       -0.26969898 -0.07067772 0.023883963 0.02602537
000240 a1 f1 26 3e d1 0c 00 3e 32 7f 26 be fd 42 39 be
       0.16303112 0.12504889 -0.16259459 -0.1809196
000250 d7 33 91 3d 32 48 38 bc 76 9e b1 bc 9e 66 45 bc
       0.07089966 -0.011247681 -0.021682005 -0.012048392
000260 9b b2 e1 bd 42 62 d6 3d e8 e3 45 3d 0a 1d 13 3e
       -0.110203944 0.1046796 0.04831305 0.14366546
000270 d2 da 29 3d a6 7d bc 3e 1d 90 cf bc 6e a9 ab be
       0.04146845 0.36814612 -0.025337273 -0.33527702
000280 d1 cc 73 bd 8b 71 c4 bb a8 a6 73 be 3c 36 a7 3c
       -0.0595215 -0.0059949807 -0.23794043 0.020411603
000290 37 e3 1c 3c 0b 86 0b 3e 3c 89 a0 be 65 97 ea bd
       0.009575657 0.13625352 -0.31354702 -0.114546575
0002a0 12 25 1c 3e 05 e9 91 bd b9 5f 28 3e 60 08 0f 3e
       0.15248516 -0.07124523 0.16442765 0.13968039
0002b0 75 d3 18 3d 43 70 b6 be 17 97 8f bd b3 53 ae be
       0.037311036 -0.35632524 -0.0701124 -0.34048232
0002c0 4f 74 2a bd f1 85 19 3d d3 0a 29 be 66 79 bd bd
       -0.041614827 0.037481252 -0.16508035 -0.092516705
0002d0 92 90 29 be bc e2 bc 3d 94 71 4c 3d ec a3 90 3b
       -0.16559055 0.09222934 0.049913004 0.0044140723
0002e0 fa 18 8b be 96 cb 6a be d4 4e 29 3e f2 3a 6f bd
       -0.27167493 -0.22929224 0.16533977 -0.058405824
0002f0 ef 54 98 be f1 21 81 3d 6d 20 1e bc cf 40 48 be
       -0.297523 0.06305302 -0.009651286 -0.19555973
000300 f0 ee 31 bd 3e e7 0e 3e 35 c4 30 3d 1c 77 85 bd
       -0.04344076 0.139554 0.043155868 -0.06516859
000310 b3 04 50 3e 21 56 d7 3c 85 08 04 3e d5 e0 af 3c
       0.20314293 0.026286187 0.12893875 0.021469513
000320 3d 6e 7b 3e 43 2c 08 3e 5c f2 55 be e7 87 f9 bd
       0.24553771 0.13298135 -0.20893234 -0.121841244
000330 8f 29 58 3e df 7f e8 bd 9c a1 52 bd ac ae b5 bd
       0.21109603 -0.113525145 -0.051423654 -0.08871207
000340 b9 6e e6 bd 63 81 58 bd fc ff 67 be 17 ad 4b 3e
       -0.112515874 -0.052857768 -0.22656244 0.19890247
000350 58 a7 90 bd 67 1f 2d 3e 72 97 8a 3d 3f ed 96 bd
       -0.07063168 0.1690651 0.06767167 -0.0736947
000360 21 71 e0 3d 8a c4 f7 bc 72 95 05 3e fb 4c 83 be
       0.109590776 -0.030245084 0.1304529 -0.2564467
000370 a3 3f 3f 3d d6 f9 cd 3d 75 b6 4f 3c f5 4a eb bc
       0.046691548 0.10057418 0.0126777785 -0.028722266
000380 e5 f8 0e bd eb b7 02 bd 85 65 85 be 00 91 51 3e
       -0.034905333 -0.03191368 -0.26054016 0.2046547
000390 77 8d 70 3d 3e 48 48 3d e1 83 d3 3c bd 41 86 3d
       0.05872866 0.04889702 0.02581972 0.06555507
0003a0 4d b5 97 3d 2b 55 8e 3c ad 97 54 be dc b4 1c 3e
       0.07407627 0.017374596 -0.20760985 0.15303367
0003b0 79 38 a8 bd 7e bd 0a 3f 18 01 f2 3c af b5 a3 3d
       -0.08213896 0.5419539 0.029541537 0.07993638
0003c0 35 e7 8b 3e 9d 53 94 bd 97 82 1d be 9a 54 b4 3d
       0.27324834 -0.072425105 -0.15381847 0.08805199
0003d0 60 95 73 be 46 4f 95 3e 3f 2a 1f bc 5d ba 4d be
       -0.23787451 0.29162043 -0.009714662 -0.20090623
0003e0 6f c5 92 3c 7b 2a ca bd 8a 5a c4 be a0 bc 0c 3e
       0.01791641 -0.09871384 -0.38350326 0.1374383
0003f0 7d ca 1e 3e b7 fc 2b be dc 2e da 3d 05 87 e6 bd
       0.1550693 -0.16795622 0.10653469 -0.11256222

arith.constant8 f4 [16, 5, 5, 32]
000000 8c 42 bc bd c2 d7 8e be cc bd 37 3d ad 85 8d bd
       -0.0919238 -0.27898985 0.04485874 -0.06910262
000010 b4 4c 58 3e 27 13 83 3d 5d e3 a7 bd 77 bf 20 3d
       0.2112301 0.064001374 -0.08197663 0.039245095
000020 de 64 27 be 15 35 90 bc 47 11 17 be 5a be 92 bd
       -0.16347072 -0.017603436 -0.14752685 -0.07165213
000030 ea bd 83 bd d5 8e 4e 3d 3c b2 0c be c9 0a 74 be
       -0.064327076 0.050429184 -0.13739866 -0.23832239
000040 dc 51 2d 3d 3f f6 9a bd 72 c9 c0 bd 91 02 76 bc
       0.042314395 -0.07566499 -0.09413423 -0.01501526
000050 ac 59 94 3c 39 4c 92 3d 5e bf 8f 3c 76 a2 91 be
       0.018109165 0.071434446 0.017547306 -0.2844426
000060 05 b1 c6 bd 77 22 35 3d e2 80 87 3c 8f b6 9c 3b
       -0.097017325 0.04422232 0.016540948 0.004782505
000070 c1 e9 f6 bb 22 88 a7 3d 68 8b 2c be 54 49 84 bd
       -0.00753519 0.08180262 -0.16850054 -0.06459299
000080 7a b6 e1 bb 88 ba 2c be 5c 77 59 3c db 01 53 bd
       -0.006888208 -0.16868031 0.013273086 -0.05151544
000090 9c 58 6c 3e 98 61 1b 3e cd b3 98 3d bf 35 0f be
       0.23080677 0.15173948 0.07456169 -0.13985346
0000a0 1e 1a 2e bc 15 16 76 bd 32 63 17 be 55 1d 34 be
       -0.010626344 -0.060079653 -0.14783934 -0.17589314
0000b0 d5 99 e3 bc 29 38 a8 3b 16 88 a4 bd aa 6c 21 be
       -0.027783314 0.005133648 -0.08033769 -0.15764108
0000c0 d3 ac b0 bd 9e 3e 00 3d 21 d3 26 3e c0 a2 08 bd
       -0.086267136 0.031309716 0.16291477 -0.033358335
0000d0 b0 6f c6 3d 32 c6 4f bb 79 d5 17 bd b9 73 69 be
       0.096892715 -0.0031703827 -0.037068818 -0.22798051
0000e0 b9 f6 94 be 72 93 39 be d5 7c 7e 3d 12 23 fb bd
       -0.29094484 -0.18122652 0.062130768 -0.122625485
0000f0 d7 ac 3c bc 9a ba 9c bd 3c 18 46 3c 95 c0 3d bd
       -0.011515818 -0.07652779 0.012090739 -0.04632624
000100 76 70 b5 bd 95 e6 bd 3c d0 83 79 bc bc 41 8f be
       -0.08859341 0.02318124 -0.01522918 -0.2797984
000110 2b 79 73 3c ad 4f 81 be 15 6d 76 3e 73 91 06 3e
       0.014860432 -0.252561 0.24065049 0.13141422
000120 19 58 10 3e c0 2f 06 bb a3 2c 90 3e 81 33 d6 bd
       0.14096107 -0.0020475239 0.28159055 -0.10459042
000130 56 77 da bc eb cc 10 be a8 cc 01 be 87 c5 54 bd
       -0.026668232 -0.1414067 -0.12675726 -0.05194619
000140 ba 11 97 be a6 c8 90 3e 5e 1e cb 3d 59 e1 c0 bd
       -0.29505712 0.28278083 0.099179015 -0.09417982
000150 68 ef 97 bd 32 a9 2e 3d 80 ad f8 bd 8d 49 92 be
       -0.0741871 0.042641826 -0.121424675 -0.2857174
000160 ef a2 93 3e 27 6e f2 bd 4b e9 8c 3e df 69 86 3c
       0.28835246 -0.11837416 0.27521738 0.016407905
000170 6d bd 99 bd 02 37 7f 3d 8c f3 72 3e f5 7f 12 be
       -0.07506833 0.06230832 0.23725718 -0.14306624
000180 28 6f 65 3d 5a 81 4c 3e 3e c3 8b be 9c bd 8c bd
       0.05601421 0.19971219 -0.27297395 -0.068721026
000190 a4 6b 39 3b 94 7a d7 bd a4 5f a2 3e f6 c2 29 3e
       0.0028292919 -0.10521427 0.31713593 0.16578278
0001a0 a6 69 13 be 31 f7 51 3d f2 94 a8 3e ae 27 0b 3e
       -0.1439577 0.05126113 0.32926136 0.13589355
0001b0 0e dd 48 3c a0 34 9a 3d 5f 3b 68 bd 92 79 f3 ba
       0.012259735 0.07529569 -0.056697246 -0.001857566
0001c0 c2 d5 03 be 35 ef a7 3e 88 87 cc be 13 f2 0a 3d
       -0.12874511 0.32799688 -0.39947152 0.033922266
0001d0 7a df 5e bd 40 06 8c be 2b 90 59 3d 8c f2 35 be
       -0.054412343 -0.27348518 0.053116005 -0.17768306
0001e0 1b 53 05 3e 63 9a 15 bd f8 90 09 bd e9 9d 8c 3e
       0.13019983 -0.036524188 -0.03358552 0.27464226
0001f0 8b 5c 8f bd 1a 27 dc 3d cf fd 0f 3e 09 2e ad b9
       -0.07000073 0.107496455 0.14061664 -0.0003303143
000200 4a 60 a1 bd e2 2f 8f bd d5 0b 7d bc 61 24 97 3d
       -0.07879694 -0.06991555 -0.0154447155 0.073799856
000210 b0 5f 19 3e 42 2a 98 3d 25 dc 19 3e b7 3e 60 3e
       0.14977908 0.07429935 0.15025385 0.21898924
000220 24 2a 0a be 91 8f b7 3c 07 1b 1a be 9e 6a 9f bd
       -0.13492638 0.022407325 -0.15049373 -0.077840075
000230 23 ef d2 3c 9c f9 96 bd 79 31 c8 be f0 23 14 be
       0.025748795 -0.07371828 -0.39100245 -0.14466834
000240 63 a2 6f 3d f9 99 d2 bd 95 45 f9 bc 76 8a c5 3d
       0.058504473 -0.10283274 -0.030428687 0.0964555
000250 5a d7 f4 bd 87 a8 88 bd 2b 28 0d 3c f1 41 b9 be
       -0.119551376 -0.06672769 0.008615534 -0.36183122
000260 61 c8 a2 3d 47 b6 a5 3e ad 4f ec bd 3e 91 7e 3e
       0.079483755 0.3236563 -0.115386344 0.24860093
000270 bf b8 2b bc 5c 8f 8f be 7a bc 3d 3e 66 ab 35 3e
       -0.010481059 -0.28039062 0.1852893 0.17741165
000280 76 ee b9 bd c7 ae 62 3c d1 22 44 bd 89 a6 bc 3d
       -0.09078686 0.0138356155 -0.047884766 0.092114516
000290 48 49 f7 3a 6b b2 9a bc 3e 16 3f 3e 5f ef 56 3d
       0.0018866444 -0.018883904 0.18660828 0.052474376
0002a0 8e ee 63 be de 14 7b 3c de 94 10 3d 0c f1 58 bd
       -0.2225897 0.015324799 0.03529822 -0.052964255
0002b0 25 4e 8d 3d a1 d6 c3 3d 1b bf 7c 3d 61 97 0c be
       0.068996705 0.095624216 0.06170569 -0.13729621
0002c0 62 d8 37 3e b9 f4 ae bb 48 de 2f 3d ab 9c cb 3d
       0.17953637 -0.005339232 0.042936593 0.099419914
0002d0 cd 57 f7 3d 7c 61 4c be ca 9c 3c 3d 0c af 80 be
       0.120772935 -0.19959062 0.046047963 -0.2513355
0002e0 10 dd b5 3d 66 79 56 3c 26 9a 0f be 4a fb 4c bd
       0.08880055 0.013090467 -0.14023647 -0.050044335
0002f0 2a a8 06 be 19 f5 e7 3c 21 1a 65 be 59 47 be 3d
       -0.13150087 0.028315114 -0.22373249 0.09290952
000300 f3 da 9d bd e7 68 fd 3b 94 4e 86 bd ee 64 e1 bc
       -0.07707777 0.0077334526 -0.06557956 -0.027513947
000310 52 8c 7a bb c9 38 85 3d 2c 40 27 bc 3c 2d 0a 3d
       -0.003823061 0.065049715 -0.010208171 0.033734545
000320 a2 5b 9f be 3f 47 f9 bd 4d df 3a be 88 11 0e 3c
       -0.31124598 -0.12171792 -0.18249245 0.008671172
000330 b3 d4 0f bd 27 40 1c 3e 5e 4d 41 be 55 92 bc bd
       -0.035114955 0.15258847 -0.1887717 -0.09207598
000340 4f 21 a7 3c 06 fc 36 be 3f e1 81 bd 5d 2b 84 3d
       0.020401625 -0.17869577 -0.063417904 0.064535834
000350 d6 a1 12 3e 00 e0 2b be 74 37 19 3e a2 6d bc bd
       0.14319548 -0.16784668 0.1496256 -0.09200598
000360 81 43 2c bd 61 a4 15 3e c1 73 12 bd c5 2a a0 3d
       -0.042056564 0.14613487 -0.035754923 0.07820658
000370 42 53 16 bd f1 6d f6 3d af c7 3f 3d ef 7f 20 3e
       -0.036700495 0.120326884 0.046821292 0.15673803
000380 ce 57 70 be d8 6f 12 bc 40 dd bc bc 5e fa d0 bd
       -0.23470995 -0.008937798 -0.023054719 -0.10204004
000390 6c 63 28 be 45 f0 51 be 3d 41 9f bd 60 19 04 be
       -0.16444176 -0.20501812 -0.07776115 -0.12900305
0003a0 53 90 36 3e 31 79 c1 3d c1 f9 b2 bd 8e 33 3c be
       0.17828493 0.094469436 -0.08739043 -0.18379042
0003b0 5e aa fd bd 29 de 45 be 8c a7 6a be d0 37 91 3e
       -0.123860106 -0.19323029 -0.22915477 0.28362894
0003c0 81 8c 5f be 46 c3 41 be 33 f5 45 3e aa cb c8 bd
       -0.21830942 -0.18922147 0.19331817 -0.09804471
0003d0 01 1f 4e be 8e 60 c2 3d b5 68 64 be 68 e3 7a be
       -0.20129015 0.094910726 -0.22305568 -0.24500811
0003e0 85 92 30 3e 12 54 18 be 35 4f 89 3e c6 e4 ec 3d
       0.17243393 -0.1487582 0.26818243 0.115670726
0003f0 93 66 b9 3d f1 a2 fa bd 46 fa 21 3e 23 21 af 3d
       0.090527676 -0.1223811 0.15818128 0.08551242

arith.constant9 f4 [32, 5, 5, 3]
000000 a8 2f 35 be cd 75 66 bd ad 94 3c be 20 d3 eb bd
       -0.1769396 -0.056264687 -0.1841609 -0.11514878
000010 57 52 1b bc 52 f1 95 bd 07 90 40 be 58 32 95 3d
       -0.009480081 -0.07321419 -0.18804942 0.07284993
000020 a8 be 37 bd 00 fd e8 bd d6 70 af 3d 4b 38 f6 bc
       -0.04485956 -0.11376381 0.085664436 -0.03005614
000030 3a 0c 8a 3d 0b ff 06 3e 23 52 46 bd eb 25 8e be
       0.06740613 0.13183229 -0.048418175 -0.27763304
000040 a6 6b 12 bc f0 f7 09 be ae b5 04 bd 86 6d 1e 3e
       -0.008936798 -0.13473487 -0.032399826 0.15471467
000050 2c af a2 3d da 2a 4c be d2 74 49 3e 81 2d 8f 3d
       0.07943568 -0.19938222 0.1967347 0.06991101
000060 18 1b 21 bd fa 8c 75 3e 19 6d 02 3c f4 20 b4 3d
       -0.03933248 0.2397956 0.007960581 0.08795348
000070 7f 32 dc 3d 95 45 41 3b 7f 7c 32 be e7 dd 4d 3d
       0.10751819 0.0029490937 -0.17430304 0.05026045
000080 38 95 58 bc 70 64 87 bd 70 6b 30 3e a0 27 87 3b
       -0.01321917 -0.06610954 0.17228484 0.0041245967
000090 76 83 95 bc 91 14 1e 3e f7 13 90 3d 5e 47 e3 3d
       -0.018251162 0.15437533 0.07035058 0.110975966
0000a0 8d 5e 42 3e ea e4 f9 3d 08 d1 df 3d 0e 7f 48 be
       0.18981381 0.12201865 0.109285414 -0.19579718
0000b0 0d 7c 6d be db 65 cd bd 44 bb c7 3d a2 f9 76 3c
       -0.23191853 -0.10029193 0.09752515 0.015074166
0000c0 29 7c 95 bd b9 bf ec 3d 06 0c 9b 3d f8 7d 36 3e
       -0.07299072 0.11560006 0.07570653 0.17821491
0000d0 3e 9f a4 3d cb de 03 3e 9f 75 2a 3d 92 48 1c be
       0.080381855 0.12877958 0.04161608 -0.15262058
0000e0 4b 9f a6 bd 36 0e 1f 3e 8b d8 36 be 9d 46 b7 be
       -0.081358515 0.15532765 -0.17856042 -0.3579606
0000f0 89 72 03 3d ec 6d 22 3c a1 09 10 3e b7 df 33 3d
       0.03209165 0.009913903 0.14066173 0.043914523
000100 67 48 b8 bc ea 60 fd 3d 7e 50 32 3e f6 fd 1d be
       -0.022495462 0.123720005 0.17413518 -0.1542891
000110 1d ac ae bd 11 1a e0 3d 59 3e 4f be 0a 53 58 be
       -0.08528922 0.10942472 -0.20238627 -0.21125427
000120 91 52 7d 3e 75 82 1b be c7 d1 88 be 84 a5 cd 3c
       0.24738528 -0.15186484 -0.26722547 0.025103338
000130 89 64 dd bd 49 d7 13 be 2a 8b d1 3d 9c 6c 01 be
       -0.10810191 -0.14437594 0.102316216 -0.12639087
000140 c4 c8 50 bd be 7b 6b 3c c0 90 be bc 6a 37 79 3d
       -0.050972715 0.014372764 -0.023262382 0.060843863
000150 04 a3 dd bd 8e 23 a0 3d bf d1 8d 3e d9 3b ca bd
       -0.108221084 0.078192815 0.27699086 -0.09874696
000160 9f b7 3f 3e 9b c9 5e 3e 3f 6c b1 3d 62 d5 09 be
       0.1872239 0.21756594 0.086632244 -0.13460305
000170 b5 8c 3b be bd 5b 5b 3d 45 5c 69 be 7a 94 fe bc
       -0.18315394 0.053554285 -0.22789104 -0.031076659
000180 5d 5b 54 3c b7 6a e3 bc 69 7f 21 bd d6 ed 8a bd
       0.012961236 -0.027760847 -0.03942815 -0.06783645
000190 9c ed 4f 3d 6f bf 36 3e 5b 8b 1c be 6a 7f 43 3e
       0.05076371 0.17846464 -0.15287535 0.19091573
0001a0 5e f6 88 3e dd 58 17 3e 74 08 36 bd d3 0c 84 bd
       0.26750463 0.14779992 -0.044441655 -0.064477585
0001b0 31 3a 02 3e 17 80 53 be 8e 8e 38 be 84 70 df 3d
       0.12717511 -0.20654331 -0.1802313 0.109101325
0001c0 33 12 f8 bd f8 61 cb bd c4 67 10 bd 13 6a 69 3d
       -0.12112846 -0.099307954 -0.03525521 0.056985926
0001d0 ff 1b a2 3d e6 b3 41 be de 61 6d 3e af 77 8a 3e
       0.07915496 -0.18916282 0.23181865 0.27044436
0001e0 50 95 13 3e 87 1c 6c bd ef 2d 7b bd d8 0a be 3d
       0.14412427 -0.057644393 -0.061323103 0.09279412
0001f0 fa 2a 19 be 36 6d 1a be e8 d1 67 3c 87 7e 3d be
       -0.149578 -0.15080723 0.014149167 -0.18505298
000200 7e ad 7a be 69 0b c5 bd 0f 1a b7 3d 67 a2 3b bd
       -0.24480245 -0.09621317 0.08940517 -0.045809176
000210 14 57 b0 bc 51 ee 4f 3e 6b 18 77 3e ff 9d 0c 3e
       -0.021525897 0.20305754 0.24130408 0.13732146
000220 92 b4 60 bc 30 77 22 3d 7a 7f 12 3e 5b d9 b5 bd
       -0.013714926 0.039664447 0.14306441 -0.08879348
000230 2f 09 52 be fb b4 c3 3d 80 3c 51 bd 14 00 27 be
       -0.20511316 0.09556004 -0.051083088 -0.16308624
000240 ab 28 3a be 77 3e b8 3c a9 f8 34 be e4 93 e4 bc
       -0.18179576 0.022490723 -0.17672981 -0.027902551
000250 44 37 4f 3e 1a a2 3c 3e 58 29 47 3e f0 47 ff bd
       0.20235926 0.18421212 0.19449365 -0.12464893
000260 d0 30 5c bd a1 9f 8c 3e ed 9c 4e be 7d 28 36 bd
       -0.05375749 0.27465537 -0.2017705 -0.044472206
000270 5a 44 83 3e 76 e8 35 be 6f 35 ef bd ff d4 67 3e
       0.25638086 -0.17764458 -0.116801135 0.22639845
000280 af 2a 34 be f2 3a 18 be 2e a7 09 3e 8b dc 02 be
       -0.17594407 -0.14866236 0.1344268 -0.12779443
000290 ae 05 b9 bd e2 ac 1c 3e 47 2c 8e bd be ef 73 bc
       -0.090342864 0.15300325 -0.06942039 -0.014888702
0002a0 6b 0d 14 3e 99 b9 8e bd 59 73 a7 bd f0 ad 42 3e
       0.14458244 -0.06968994 -0.08176298 0.19011664
0002b0 2a 4d 15 be 70 1e bc bd 8b fc 1a 3e da 63 0e be
       -0.14580217 -0.09185493 0.151354 -0.13905278
0002c0 ce 32 9d bd 1e 5a c7 3d 7c 44 86 bd de 3a 89 3d
       -0.07675706 0.09733985 -0.06556031 0.06700681
0002d0 fa 16 7a 3d 3e ae 8f 3b 5e 29 ea bd 75 d1 06 3d
       0.06105707 0.004384785 -0.114336714 0.032914598
0002e0 d2 ec ac 3c f1 ec d6 bd 35 bb d2 3d 07 0b b1 bd
       0.021109018 -0.10494412 0.10289613 -0.086446814
0002f0 4b 14 fe bd 14 da 77 3c 33 52 07 3d 20 82 02 bd
       -0.12406214 0.0151276775 0.033037376 -0.031862378
000300 ef 67 1c bd f6 e3 0a 3d 72 3d 69 bd 21 2b 22 be
       -0.038185056 0.033908807 -0.056943364 -0.15836765
000310 f7 31 5a 3d 7e 4a 0a 3c 1d 5b cc bd 4a 29 30 3c
       0.053270306 0.008440612 -0.09978316 0.010752032
000320 b5 d3 93 3d d5 2b ba bd 72 77 0c 3e 42 3f e5 3d
       0.07218114 -0.090903915 0.1371744 0.11193706
000330 e6 92 5b be c7 63 1b 3e 81 5b 83 3d ea 46 d9 bd
       -0.21442756 0.15174781 0.06413937 -0.10609229
000340 54 cd 40 3e 0a 6a f9 3c b8 dd 81 be 65 94 ce 3d
       0.18828326 0.030446071 -0.2536447 0.10086898
000350 8a a2 52 3e 05 82 53 be 73 37 f4 3d a5 39 f1 3d
       0.20569816 -0.20655067 0.119246386 0.11778573
000360 7c 6c 88 be ca e5 2b 3e cd 73 17 3e 39 f9 83 be
       -0.26645267 0.16786876 0.14790268 -0.2577608
000370 3c 43 33 3e ef c5 2b 3e 80 73 9d be 62 2b 36 3e
       0.17506117 0.16774724 -0.30752182 0.17789987
000380 39 ad ba 3d af f5 61 bd 40 d8 b7 3d 66 45 ac bb
       0.09115071 -0.055165943 0.08976793 -0.0052572964
000390 df 65 41 bd 47 0b 34 3e 80 f1 13 3d cc 84 01 3c
       -0.047216292 0.17582427 0.036118984 0.007905196
0003a0 7d 1d 9a 3e fc fc 2c 3e 26 a2 11 3e aa 8d 01 3e
       0.30100623 0.16893381 0.14222011 0.12651697
0003b0 4c c9 06 bc 61 fc 1d 3e 4b eb 23 bd 8e 4e 3e be
       -0.008226704 0.15428306 -0.040019315 -0.18584654
0003c0 04 bb 85 bd da a1 28 3e 89 e2 ff 3c c0 91 64 bd
       -0.06529811 0.16467991 0.03123595 -0.05580306
0003d0 0a 20 80 3e e9 e6 c3 3d 40 92 8b bc b0 17 c4 3d
       0.25024444 0.09565527 -0.01703751 0.095748305
0003e0 9c 9e 88 38 09 33 51 bd f6 cd a6 3a ea 74 3f be
       6.514529e-05 -0.05107406 0.0012726176 -0.18696943
0003f0 ee 78 2c 3d ed 23 1d be 4f e7 84 be b2 9f 13 be
       0.042107515 -0.15345736 -0.25957724 -0.14416388

arith.constant10 f4 [2, 64]
000000 ac 52 8c 3d 47 df 20 3d 59 ef 94 bb 63 f5 1b bc
       0.06851706 0.039275434 -0.004545134 -0.009518954
000010 31 ca 30 3d 9f 70 4f 3e 23 ad 09 3e 18 95 d4 bc
       0.043161575 0.20257805 0.13444953 -0.02595
000020 7f 09 89 bd 17 a2 be 3b cd fc e8 3d e2 36 0a 3d
       -0.06691264 0.0058176625 0.11376343 0.033743747
000030 15 3a f7 bd e9 67 89 be a6 4c 2d bd b1 55 47 bd
       -0.12071625 -0.2683709 -0.042309426 -0.048665706
000040 58 46 e8 3d 2e fe ae bd 8b b4 35 3c e3 c6 40 3d
       0.11341542 -0.08544575 0.011090408 0.047064673
000050 93 fc 02 3d ba 1e 96 3d ef 7f f1 bd f1 c6 2a 3e
       0.031979155 0.073300794 -0.117919795 0.16677453
000060 ed 0c cf 3d 61 66 70 bd 8d cc 0b be f4 4d d9 bd
       0.10109887 -0.058691386 -0.13652249 -0.106105715
000070 80 3b a6 bd ea ce 0f 3e cf c9 6f bd b3 ed 10 3e
       -0.081168175 0.14043775 -0.05854207 0.14153175
000080 62 5a de 3b 37 4b 27 3c 1a 35 ae 3d 87 56 08 be
       0.006785677 0.010210804 0.08506222 -0.13314258
000090 4d 18 02 3e b8 d4 91 3d 32 41 8b 3d 8a 8b 86 bd
       0.12704583 0.07120651 0.067995444 -0.06569584
0000a0 05 40 29 3d 2c 00 10 bd 6d 34 b3 bd 33 5d 41 be
       0.04132082 -0.035156414 -0.08750234 -0.18883209
0000b0 09 aa 81 3e 72 9d 10 bd fd 10 9a bd b6 85 35 be
       0.2532504 -0.0353064 -0.075227715 -0.17726788
0000c0 97 e3 8b 3d b9 f9 7d bd 3d 26 92 3d 5b 45 a2 bd
       0.06830519 -0.062005732 0.071361996 -0.07923385
0000d0 34 b4 f6 bb 46 d3 08 be eb 7a 37 3e 29 ae 4b bd
       -0.007528806 -0.13361844 0.17917983 -0.04972664
0000e0 5e a1 f9 3d 29 aa f6 3b 54 b8 26 bd 65 d3 73 3d
       0.121889815 0.007527609 -0.040703133 0.059527773
0000f0 3a e8 04 3e a2 a4 0c be c8 be 51 bc dd 30 82 be
       0.12979212 -0.13734677 -0.012801833 -0.25427905
000100 fd 5c 1b be 9d 29 31 bd 4e e9 53 3c fa b7 25 be
       -0.15172191 -0.043252576 0.012934042 -0.16183463
000110 71 b4 e0 bd d5 65 80 3d 1d b6 05 3d 88 8d 10 3e
       -0.109719165 0.06269423 0.03264438 0.1411649
000120 87 40 04 be 58 6c 7a 3e 80 c4 c2 3b 50 20 f9 3d
       -0.1291524 0.24455392 0.005943835 0.12164366
000130 42 88 4b bd 2f 42 e6 bd 02 75 f6 3d 5e bb b9 bd
       -0.049690492 -0.11243092 0.12034036 -0.090689406
000140 a1 6d ae bd e4 1c 6c 3e d3 43 0c be ea e9 90 bd
       -0.08517004 0.23057896 -0.13697748 -0.070758656
000150 dd ba 14 3d 34 ec 1b 3e 88 bc c6 3d c3 26 8c 3c
       0.03631102 0.15226823 0.09703928 0.017108327
000160 8a a2 09 3e 10 27 15 be 92 a0 91 3c c3 90 ab bd
       0.1344091 -0.14565682 0.017776761 -0.083772205
000170 9c 61 d5 bd 30 28 12 3e df 7c fd bb 99 20 92 bd
       -0.10419008 0.14273143 -0.007735833 -0.07135124
000180 d4 5c 59 3d 8b 5d 6f bb a8 e2 c0 bd 9e 56 ee bd
       0.053067043 -0.0036524262 -0.09418231 -0.11637615
000190 9a c8 1d 3e 70 58 dc 3c 1c 6e 6b bd 5c c5 3a 3e
       0.15408555 0.026897639 -0.057478055 0.18239349
0001a0 25 ff 70 3c 82 1b 39 3e c6 e5 66 3d 34 18 8f 3d
       0.014709269 0.180769 0.056371473 0.06987038
0001b0 19 a2 5c bd 75 f2 44 be 59 52 25 bc 76 57 f7 ba
       -0.053865526 -0.19233115 -0.010090434 -0.001887067
0001c0 5c a9 61 be b5 7f a5 bd d1 40 07 be 69 66 2c bc
       -0.22037262 -0.08080999 -0.13208319 -0.010522463
0001d0 7e 9e 0e 3e ab 07 33 be 15 ef 5d be cb 7b fc bd
       0.13927647 -0.17483394 -0.21673234 -0.12328299
0001e0 18 31 8e 3c 1c 35 a7 3d 98 a9 ac 3d 98 c5 59 bd
       0.017357394 0.08164427 0.08430785 -0.053166956
0001f0 bb 73 96 3d 1c 1a fb 3d 16 7c f1 3d b9 7f 0b 3e
       0.073462926 0.12260839 0.11791246 0.13622941

arith.constant11 f4 [2]
000000 29 94 b8 3d 9d 39 69 bd
       0.09012634 -0.05693971

functional_1/batch_normalization_1_2/batchnorm/mul f4 [32]
000000 10 1a bb 3f ba 68 73 3f 22 23 0b 40 0a fa ec 3e
       1.4617329 0.95081675 2.1740193 0.46284515
000010 3c 29 24 3f 5a 0c 45 3f d4 e2 1c 3f 84 6f 98 3e
       0.6412542 0.7697197 0.6128361 0.2977258
000020 b8 ac 3f 3f 9f f4 75 3f ff e7 9c 3f 81 a9 38 3f
       0.7487292 0.9607639 1.22583 0.7213364
000030 e0 94 b3 3f 75 2c 53 3f 7c f7 96 3f 9c 8c 75 3f
       1.4029808 0.8248971 1.1794276 0.9591768
000040 c8 c4 7b 3f 14 03 d8 3f b4 18 7a 3f a4 86 a8 3e
       0.9834714 1.6875939 0.97693944 0.32915223
000050 13 a2 4f 3f 51 17 ec 3f 81 18 f8 3e f3 39 04 40
       0.8110668 1.8444616 0.48456195 2.066037
000060 4b ee 04 40 ff df bd 3e 69 d3 32 3f 85 85 14 3f
       2.0770442 0.37084958 0.69853836 0.58016235
000070 81 e8 66 3f 99 d0 cd 3f a6 c6 16 40 6e 0a 7b 3f
       0.9019852 1.6079284 2.3558745 0.9806279

functional_1/batch_normalization_1_2/batchnorm/sub f4 [32]
000000 9d 87 9d bf a8 bf 99 be 86 be 70 bf f2 65 2a be
       -1.2307011 -0.30029035 -0.94040716 -0.16640452
000010 da 1b b9 be 30 97 02 bf e8 01 1f bf 3a 2f 4d bf
       -0.36154062 -0.51011944 -0.62112284 -0.80150187
000020 fc e8 8e bf 49 64 56 bf de bf 2d bf 40 55 7b bc
       -1.1164851 -0.83746773 -0.6787089 -0.015340149
000030 7d f8 0b bf bb 08 b2 be 3c aa 6e bf aa 54 42 be
       -0.5467604 -0.34772286 -0.9322851 -0.1897761
000040 64 61 61 bf e9 0e 37 bf 3e d0 98 bf 8f e2 a2 3e
       -0.8803923 -0.71507126 -1.193855 0.31813475
000050 dd 45 60 bf b5 cf b3 bf 4a 29 33 be 5a d5 2b be
       -0.876066 -1.4047762 -0.1749622 -0.16780606
000060 41 c7 3d bf 8a be 31 bf 78 e8 77 bf fd d6 bb be
       -0.7413216 -0.69431365 -0.96839094 -0.3668746
000070 e8 6b 06 bf cf 0d bc bf a0 23 41 bd e2 5f 9e bf
       -0.525084 -1.4691714 -0.047153115 -1.2373011

functional_1/batch_normalization_1/batchnorm/mul f4 [3]
000000 1c a1 8e 3c bf 82 a9 3c 0d 7b 4d 3c
       0.017410807 0.020692227 0.012541545

functional_1/batch_normalization_1/batchnorm/sub f4 [3]
000000 84 c8 0e c0 7e 7e 30 c0 61 48 a2 bf
       -2.2309885 -2.7577205 -1.2678338

functional_1/batch_normalization_2_1/batchnorm/mul f4 [16]
000000 8f 2c 81 3e 7e ee 84 3e d6 fb 7d 3e ed a7 7e 3e
       0.25229308 0.25963205 0.24803099 0.24868746
000010 5e 58 57 3e 1d 01 92 3e 18 5e 8f 3e ef cc a1 3e
       0.21029803 0.28516474 0.28001475 0.31601664
000020 df d0 6d 3e d5 10 f8 3d 96 a9 53 3e e0 bc 3c 3e
       0.23224209 0.121125855 0.2067016 0.18431425
000030 b6 d6 8e 3e e3 63 4f 3e bf ba 93 3e b7 07 60 3e
       0.27898186 0.20252948 0.28853413 0.21877943

functional_1/batch_normalization_2_1/batchnorm/sub f4 [16]
000000 a3 5a 1f bf b8 57 07 bf 1f 96 eb be d0 42 ef be
       -0.62247676 -0.52868223 -0.4601297 -0.4673066
000010 df 29 5b bf fc 0e 24 bf 30 a3 5a bf 7d 4f d8 be
       -0.85610765 -0.64085364 -0.85405254 -0.42248145
000020 50 9b cc be e7 1f 25 bf 8c 3f db be 2c 8c 66 bf
       -0.39962244 -0.64501804 -0.4282192 -0.90057635
000030 eb 69 87 be 92 27 2c bf 2a f5 1f be 49 89 8f bf
       -0.26447996 -0.6724788 -0.15620866 -1.1213771
