ana-class100_0168_s2_q.tflite (tflite, 136480 bytes, 17 tensors)

model_4/dense_4/MatMul i1 [100, 64] scale=0.015414801 zero_point=0
000000 c8 d6 04 ca eb c2 df 06 d1 d2 02 e5 db eb e5 e2
       -0.86322886 -0.64742166 0.061659206 -0.83239925 -0.32371083 -0.9557177 -0.50868845 0.09248881 -0.72449565 -0.7090809 0.030829603 -0.41619962 -0.57034767 -0.32371083 -0.41619962 -0.46244404
000010 03 ef cd d3 c8 02 03 d4 fb f3 e6 d3 fd fb f2 f3
       0.046244405 -0.2620516 -0.78615487 -0.69366604 -0.86322886 0.030829603 0.046244405 -0.67825127 -0.077074006 -0.20039243 -0.40078485 -0.69366604 -0.046244405 -0.077074006 -0.21580721 -0.20039243
000020 eb bd 00 ac 06 0b 07 d7 09 e6 c1 06 ff cd f9 e6
       -0.32371083 -1.0327917 0.0 -1.2948433 0.09248881 0.16956282 0.10790361 -0.6320069 0.13873321 -0.40078485 -0.9711325 0.09248881 -0.015414801 -0.78615487 -0.10790361 -0.40078485
000030 e5 ea 03 01 09 c2 06 03 e2 a2 05 de f2 09 d7 05
       -0.41619962 -0.33912563 0.046244405 0.015414801 0.13873321 -0.9557177 0.09248881 0.046244405 -0.46244404 -1.4489913 0.077074006 -0.5241032 -0.21580721 0.13873321 -0.6320069 0.077074006
000040 bb d2 04 d8 ea c8 e6 01 d5 d5 00 f0 db e4 f4 e6
       -1.0636213 -0.7090809 0.061659206 -0.61659205 -0.33912563 -0.86322886 -0.40078485 0.015414801 -0.66283643 -0.66283643 0.0 -0.24663682 -0.57034767 -0.43161443 -0.18497762 -0.40078485
000050 07 df cc f2 d2 04 06 e5 e9 e9 e3 df fc f3 f0 fe
       0.10790361 -0.50868845 -0.8015697 -0.21580721 -0.7090809 0.061659206 0.09248881 -0.41619962 -0.35454044 -0.35454044 -0.44702923 -0.50868845 -0.061659206 -0.20039243 -0.24663682 -0.030829603
000060 f9 b6 fc aa 02 d9 04 c9 02 d8 e6 07 08 e4 f8 ce
       -0.10790361 -1.1406953 -0.061659206 -1.3256729 0.030829603 -0.6011773 0.061659206 -0.8478141 0.030829603 -0.61659205 -0.40078485 0.10790361 0.12331841 -0.43161443 -0.12331841 -0.7707401
000070 cf df 06 fd 0a cc 03 ec e8 b9 05 fc e7 08 c6 04
       -0.75532526 -0.50868845 0.09248881 -0.046244405 0.15414801 -0.8015697 0.046244405 -0.30829602 -0.36995524 -1.094451 0.077074006 -0.061659206 -0.38537005 0.12331841 -0.89405847 0.061659206
000080 f1 cb 04 d4 e7 f2 e1 fc d7 cc 02 f5 e3 e8 fd e2
       -0.23122202 -0.8169845 0.061659206 -0.67825127 -0.38537005 -0.21580721 -0.47785884 -0.061659206 -0.6320069 -0.8015697 0.030829603 -0.16956282 -0.44702923 -0.36995524 -0.046244405 -0.46244404
000090 0a ce d7 f4 d5 fb 07 ed fa eb f1 c0 f9 e7 ea 06
       0.15414801 -0.7707401 -0.6320069 -0.18497762 -0.66283643 -0.077074006 0.10790361 -0.29288122 -0.09248881 -0.32371083 -0.23122202 -0.9865473 -0.10790361 -0.38537005 -0.33912563 0.09248881
0000a0 e2 f6 eb a2 01 0d f7 bd f8 df dc 0c 04 c5 ff e0
       -0.46244404 -0.15414801 -0.32371083 -1.4489913 0.015414801 0.20039243 -0.13873321 -1.0327917 -0.12331841 -0.50868845 -0.55493283 0.18497762 0.061659206 -0.9094733 -0.015414801 -0.49327365
0000b0 d8 e1 08 fc 0b c2 09 e6 cf 92 fe f4 dc 07 ea 00
       -0.61659205 -0.47785884 0.12331841 -0.061659206 0.16956282 -0.9557177 0.13873321 -0.40078485 -0.75532526 -1.6956282 -0.030829603 -0.18497762 -0.55493283 0.10790361 -0.33912563 0.0
0000c0 e3 e1 09 c5 e8 cd ec f7 f2 d0 fc fb e5 ef 01 e9
       -0.44702923 -0.47785884 0.13873321 -0.9094733 -0.36995524 -0.78615487 -0.30829602 -0.13873321 -0.21580721 -0.7399105 -0.061659206 -0.077074006 -0.41619962 -0.2620516 0.015414801 -0.35454044
0000d0 0a bb e6 f1 cd 01 06 e9 ec e2 f0 c7 f0 e9 fb 09
       0.15414801 -1.0636213 -0.40078485 -0.23122202 -0.78615487 0.015414801 0.09248881 -0.35454044 -0.30829602 -0.46244404 -0.24663682 -0.8786437 -0.24663682 -0.35454044 -0.077074006 0.13873321
0000e0 e1 ce e8 c0 00 eb f6 d2 e6 d9 e9 0d 0a dc 02 dc
       -0.47785884 -0.7707401 -0.36995524 -0.9865473 0.0 -0.32371083 -0.15414801 -0.7090809 -0.40078485 -0.6011773 -0.35454044 0.20039243 0.15414801 -0.55493283 0.030829603 -0.55493283
0000f0 c7 d7 0b f3 08 e6 01 da e7 94 01 e2 eb 08 cc fe
       -0.8786437 -0.6320069 0.16956282 -0.20039243 0.12331841 -0.40078485 0.015414801 -0.58576244 -0.38537005 -1.6647985 0.015414801 -0.46244404 -0.32371083 0.12331841 -0.8015697 -0.030829603

model_4/conv2d_29/Conv2D i1 [64, 3, 3, 64]
000000 0f f3 f5 f1 fe 01 08 0c 10 05 f9 03 0b 0e ff 0b
       15 -13 -11 -15 -2 1 8 12 16 5 -7 3 11 14 -1 11
000010 14 07 03 0d 01 fc f9 0b 11 15 fa ee f3 0d ec 11
       20 7 3 13 1 -4 -7 11 17 21 -6 -18 -13 13 -20 17
000020 ef 10 03 f9 15 ed 00 ed f2 ef 0f 12 ee f8 04 14
       -17 16 3 -7 21 -19 0 -19 -14 -17 15 18 -18 -8 4 20
000030 11 01 04 f9 f4 f1 f5 14 15 ed ec 0a 09 ed fb f9
       17 1 4 -7 -12 -15 -11 20 21 -19 -20 10 9 -19 -5 -7
000040 ec 14 f0 ff ed 15 ff 02 f2 11 f4 01 0b fc 12 10
       -20 20 -16 -1 -19 21 -1 2 -14 17 -12 1 11 -4 18 16
000050 f9 11 f2 f4 07 f8 ff ee f8 08 ee 11 0a 13 0b 0f
       -7 17 -14 -12 7 -8 -1 -18 -8 8 -18 17 10 19 11 15
000060 f1 f5 14 fc 09 f2 0f f6 06 0d fe fd 00 04 01 f5
       -15 -11 20 -4 9 -14 15 -10 6 13 -2 -3 0 4 1 -11
000070 ed 05 f5 15 ef f8 12 ef 11 ff fd ef 0b 0d ef ec
       -19 5 -11 21 -17 -8 18 -17 17 -1 -3 -17 11 13 -17 -20
000080 03 ff 01 f9 f9 10 09 12 f1 f6 15 0c 10 f9 0d 04
       3 -1 1 -7 -7 16 9 18 -15 -10 21 12 16 -7 13 4
000090 f6 01 f1 02 10 f9 0b 0f f9 0b f5 0d 11 fa f0 f6
       -10 1 -15 2 16 -7 11 15 -7 11 -11 13 17 -6 -16 -10
0000a0 fb f9 15 f8 13 fe f9 f0 f7 fe f0 06 10 fd fe fc
       -5 -7 21 -8 19 -2 -7 -16 -9 -2 -16 6 16 -3 -2 -4
0000b0 12 01 15 f3 0a f8 06 01 0c 09 ff 05 f8 11 08 0c
       18 1 21 -13 10 -8 6 1 12 9 -1 5 -8 17 8 12
0000c0 14 fd 14 ff eb 14 f5 04 00 ff fd 09 ef fb f4 eb
       20 -3 20 -1 -21 20 -11 4 0 -1 -3 9 -17 -5 -12 -21
0000d0 ed fe 10 14 f4 f9 f6 ec 05 11 10 ed 15 11 11 0e
       -19 -2 16 20 -12 -7 -10 -20 5 17 16 -19 21 17 17 14
0000e0 f3 06 15 f7 f8 14 06 03 eb fd ed 09 07 fe 08 ff
       -13 6 21 -9 -8 20 6 3 -21 -3 -19 9 7 -2 8 -1
0000f0 ec ef fc ec fb f2 fe 01 fe f2 02 fe 01 f9 11 ed
       -20 -17 -4 -20 -5 -14 -2 1 -2 -14 2 -2 1 -7 17 -19

model_4/batch_normalization_29/FusedBatchNormV31 i1 [64] scale=0.0046828925 zero_point=127
000000 eb b2 19 d4 ea ae 89 02 d4 2b dd b9 cb d1 e6 c2
       -0.6930681 -0.95999295 -0.47765502 -0.80077463 -0.697751 -0.97872454 -1.1519916 -0.58536154 -0.80077463 -0.39336297 -0.7586286 -0.9272127 -0.84292066 -0.81482327 -0.7164825 -0.8850667
000010 f4 d2 b6 fd 80 b4 d3 c6 b5 f6 02 bb db f1 d2 b7
       -0.65092206 -0.8101404 -0.9412614 -0.60877603 -1.1941376 -0.95062715 -0.80545753 -0.8663351 -0.94594425 -0.64155626 -0.58536154 -0.9178469 -0.76799434 -0.66497076 -0.8101404 -0.9365785
000020 ee d9 ca fe fe a2 eb b5 d9 e9 d0 ef dd f1 e0 df
       -0.6790194 -0.77736014 -0.84760356 -0.60409313 -0.60409313 -1.0349193 -0.6930681 -0.94594425 -0.77736014 -0.7024339 -0.81950617 -0.6743365 -0.7586286 -0.66497076 -0.7445799 -0.7492628
000030 c7 c7 fa f6 f8 cd d9 85 ce c5 07 e2 f7 0f d5 b7
       -0.8616522 -0.8616522 -0.62282467 -0.64155626 -0.63219047 -0.83355486 -0.77736014 -1.1707231 -0.82887197 -0.871018 -0.5619471 -0.7352141 -0.63687336 -0.524484 -0.79609174 -0.9365785

model_4/batch_normalization_29/FusedBatchNormV3 i1 [64] scale=0.00535216 zero_point=-128
000000 31 11 3e 17 34 32 ff 4d 12 6d 18 1c 10 20 4f 46
       0.9473323 0.7760632 1.0169104 0.80817616 0.9633888 0.95268446 0.67972434 1.0971928 0.78141534 1.268462 0.8135283 0.834937 0.77071106 0.8563456 1.1078972 1.0597277
000010 32 18 17 28 05 20 3a 0d 1e 1b ff 27 11 2a 21 07
       0.95268446 0.8135283 0.80817616 0.8991629 0.7118373 0.8563456 0.99550176 0.7546545 0.84564126 0.8295848 0.67972434 0.8938107 0.7760632 0.90986717 0.86169773 0.7225416
000020 20 23 38 41 09 19 3b 2e 40 0a 18 4b 21 21 00 f2
       0.8563456 0.8724021 0.9847974 1.0329669 0.7332459 0.8188805 1.0008539 0.93127584 1.0276147 0.73859805 0.8135283 1.0864885 0.86169773 0.86169773 0.6850765 0.6101462
000030 ff 2a 46 45 1f 1b 29 03 0f 3c 11 3e 4b 7f 01 1d
       0.67972434 0.90986717 1.0597277 1.0543755 0.85099345 0.8295848 0.904515 0.70113295 0.76535887 1.006206 0.7760632 1.0169104 1.0864885 1.3648008 0.6904286 0.8402891

model_4/conv2d_28/Conv2D i1 [64, 3, 3, 48]
000000 31 32 1a f5 ed 1f 1e e7 db 25 07 e3 04 22 fb 17
       49 50 26 -11 -19 31 30 -25 -37 37 7 -29 4 34 -5 23
000010 ce f0 70 f7 b5 22 ea 03 f9 35 f1 c5 da b1 d3 b3
       -50 -16 112 -9 -75 34 -22 3 -7 53 -15 -59 -38 -79 -45 -77
000020 01 09 dc e2 b1 da 2f f7 ee dc 23 fb 33 58 ff 01
       1 9 -36 -30 -79 -38 47 -9 -18 -36 35 -5 51 88 -1 1
000030 d5 97 fd dd 35 20 05 ed d9 f1 a8 08 12 ee a9 24
       -43 -105 -3 -35 53 32 5 -19 -39 -15 -88 8 18 -18 -87 36
000040 e1 12 f8 b6 e7 01 07 ca 08 e2 04 e4 08 12 fc 50
       -31 18 -8 -74 -25 1 7 -54 8 -30 4 -28 8 18 -4 80
000050 2c 03 db eb e1 4b c1 b9 18 ed b5 01 07 1c a6 eb
       44 3 -37 -21 -31 75 -63 -71 24 -19 -75 1 7 28 -90 -21
000060 c8 43 00 cd 46 48 2a df 6a 22 0a 05 f5 fc d8 39
       -56 67 0 -51 70 72 42 -33 106 34 10 5 -11 -4 -40 57
000070 f2 5e 54 03 50 e1 3c 27 13 ec f4 32 b5 28 3d 35
       -14 94 84 3 80 -31 60 39 19 -20 -12 50 -75 40 61 53
000080 0c 34 0a 13 e8 e2 42 57 3e ea eb 01 3a 46 2b 0a
       12 52 10 19 -24 -30 66 87 62 -22 -21 1 58 70 43 10
000090 1c 14 fe f6 08 11 65 23 f6 f6 f7 17 fb 14 2d 25
       28 20 -2 -10 8 17 101 35 -10 -10 -9 23 -5 20 45 37
0000a0 ee 02 f6 04 18 32 01 f6 df 02 0c ee 29 fd 2d 0e
       -18 2 -10 4 24 50 1 -10 -33 2 12 -18 41 -3 45 14
0000b0 3b 10 15 9d 07 e9 05 f6 f9 c5 18 e6 ee f9 19 0a
       59 16 21 -99 7 -23 5 -10 -7 -59 24 -26 -18 -7 25 10
0000c0 fc de 0d f6 27 a1 ea 00 e6 05 ef 0d e9 e8 0e fc
       -4 -34 13 -10 39 -95 -22 0 -26 5 -17 13 -23 -24 14 -4
0000d0 02 24 d8 0d 1d 12 c5 f3 3f f3 c4 00 e3 18 ea 03
       2 36 -40 13 29 18 -59 -13 63 -13 -60 0 -29 24 -22 3
0000e0 dd ea c2 f6 ee e2 e7 12 16 eb 0d 20 06 22 c4 f7
       -35 -22 -62 -10 -18 -30 -25 18 22 -21 13 32 6 34 -60 -9
0000f0 09 22 03 b7 ec 39 f0 00 fb f7 c9 2c f5 33 aa 06
       9 34 3 -73 -20 57 -16 0 -5 -9 -55 44 -11 51 -86 6

model_4/batch_normalization_28/FusedBatchNormV31 i1 [48] scale=0.0045855944 zero_point=126
000000 33 62 ff d7 e7 46 25 ea 2c 1e 8f 6a 7b 17 44 68
       -0.34391958 -0.12839665 -0.58237046 -0.7657943 -0.6924248 -0.2567933 -0.4081179 -0.67866796 -0.37601873 -0.44021708 -1.095957 -0.091711886 -0.013756784 -0.47231624 -0.26596448 -0.100883074
000010 c6 5b 0e 1f 27 26 e6 4a 2e f5 8f 2c ca 6b 33 31
       -0.84374934 -0.1604958 -0.5135866 -0.43563145 -0.3989467 -0.4035323 -0.69701034 -0.23845091 -0.36684754 -0.62822646 -1.095957 -0.37601873 -0.82540697 -0.08712629 -0.34391958 -0.35309076
000020 68 ec 39 80 06 30 67 f9 14 2c dd 94 37 a5 41 7f
       -0.100883074 -0.6694968 -0.316406 -1.1647409 -0.55027133 -0.35767636 -0.10546867 -0.6098841 -0.48607302 -0.37601873 -0.7382807 -1.073029 -0.3255772 -0.995074 -0.27972126 0.0045855944

model_4/batch_normalization_28/FusedBatchNormV3 i1 [48] scale=0.10960083 zero_point=-128
000000 83 83 82 83 83 83 84 83 84 82 82 85 84 82 84 86
       0.32880247 0.32880247 0.21920165 0.32880247 0.32880247 0.32880247 0.4384033 0.32880247 0.4384033 0.21920165 0.21920165 0.54800415 0.4384033 0.21920165 0.4384033 0.65760493
000010 82 83 82 83 82 84 83 82 82 83 82 83 83 83 83 83
       0.21920165 0.32880247 0.21920165 0.32880247 0.21920165 0.4384033 0.32880247 0.21920165 0.21920165 0.32880247 0.21920165 0.32880247 0.32880247 0.32880247 0.32880247 0.32880247
000020 82 82 84 82 83 83 84 82 82 83 82 82 84 82 83 7f
       0.21920165 0.21920165 0.4384033 0.21920165 0.32880247 0.32880247 0.4384033 0.21920165 0.21920165 0.32880247 0.21920165 0.21920165 0.4384033 0.21920165 0.32880247 27.948212

model_4/conv2d_27/Conv2D i1 [48, 3, 3, 48]
000000 cf d5 f9 d3 dd f6 e2 b6 de d4 b9 cc f0 e8 e8 fd
       -49 -43 -7 -45 -35 -10 -30 -74 -34 -44 -71 -52 -16 -24 -24 -3
000010 de 17 d9 d0 e8 c8 f9 c2 16 ff f8 e2 eb f6 f0 fe
       -34 23 -39 -48 -24 -56 -7 -62 22 -1 -8 -30 -21 -10 -16 -2
000020 e4 14 ec e3 15 da e9 07 08 e9 cc d5 f6 01 d8 f4
       -28 20 -20 -29 21 -38 -23 7 8 -23 -52 -43 -10 1 -40 -12
000030 f8 0a 34 05 09 fc 12 fc f1 04 ec 29 1b 0e f5 e0
       -8 10 52 5 9 -4 18 -4 -15 4 -20 41 27 14 -11 -32
000040 c8 ee 10 11 e4 d7 19 03 d0 24 fc ee 04 14 c9 f8
       -56 -18 16 17 -28 -41 25 3 -48 36 -4 -18 4 20 -55 -8
000050 bb e0 00 f4 c4 e2 ef f3 db 11 ce 13 c1 f2 fd d1
       -69 -32 0 -12 -60 -30 -17 -13 -37 17 -50 19 -63 -14 -3 -47
000060 01 f4 22 b8 16 c1 e3 ef 15 f6 1f f7 18 09 e2 d1
       1 -12 34 -72 22 -63 -29 -17 21 -10 31 -9 24 9 -30 -47
000070 f8 f5 e8 d2 03 ee 16 0d 25 12 e0 e5 23 bd 1f fd
       -8 -11 -24 -46 3 -18 22 13 37 18 -32 -27 35 -67 31 -3
000080 20 01 e7 bd f4 c7 d7 48 ef 14 e8 a8 f8 0a ed 12
       32 1 -25 -67 -12 -57 -41 72 -17 20 -24 -88 -8 10 -19 18
000090 08 1d ce 03 fc 0e f2 0d 2c e2 e9 10 e4 f1 31 12
       8 29 -50 3 -4 14 -14 13 44 -30 -23 16 -28 -15 49 18
0000a0 f4 06 ca f4 16 d6 db df db c1 f8 ef e5 0b 90 ed
       -12 6 -54 -12 22 -42 -37 -33 -37 -63 -8 -17 -27 11 -112 -19
0000b0 f0 09 1c f1 e0 c0 f5 c8 fe 00 f8 e5 f1 0f 00 ee
       -16 9 28 -15 -32 -64 -11 -56 -2 0 -8 -27 -15 15 0 -18
0000c0 12 04 ec 2a 30 dc f6 04 c1 2b 2d 0b 0c f4 00 be
       18 4 -20 42 48 -36 -10 4 -63 43 45 11 12 -12 0 -66
0000d0 01 ae e6 52 d5 3c aa 14 c0 07 1a fb 02 33 d7 11
       1 -82 -26 82 -43 60 -86 20 -64 7 26 -5 2 51 -41 17
0000e0 bf f5 30 10 16 1c 31 da ec cb 17 00 2f 2b 00 1c
       -65 -11 48 16 22 28 49 -38 -20 -53 23 0 47 43 0 28
0000f0 18 f4 32 1d 40 a9 ed 91 dd 1b f1 02 d3 b9 a0 fc
       24 -12 50 29 64 -87 -19 -111 -35 27 -15 2 -45 -71 -96 -4

model_4/batch_normalization_27/FusedBatchNormV31 i1 [48] scale=0.0055876225 zero_point=127
000000 b1 99 80 d0 bb bc 98 b4 bd ab a9 c3 8d ce bb 99
       -1.1510502 -1.2851532 -1.4248438 -0.9778339 -1.0951741 -1.0895864 -1.2907408 -1.1342874 -1.0839988 -1.184576 -1.1957512 -1.050473 -1.3522047 -0.9890092 -1.0951741 -1.2851532
000010 d2 c4 a9 c2 c2 b0 d0 ca b2 b3 c7 a5 9f 8c 93 a2
       -0.9666587 -1.0448854 -1.1957512 -1.0560607 -1.0560607 -1.1566379 -0.9778339 -1.0113597 -1.1454626 -1.1398749 -1.0281225 -1.2181017 -1.2516274 -1.3577923 -1.3186789 -1.2348646
000020 91 ad cc 93 c0 c4 89 ad 83 b7 a8 b2 87 b7 9e e1
       -1.3298541 -1.1734008 -1.0001844 -1.3186789 -1.067236 -1.0448854 -1.3745551 -1.1734008 -1.4080808 -1.1175245 -1.2013389 -1.1454626 -1.3857304 -1.1175245 -1.257215 -0.8828443

model_4/batch_normalization_27/FusedBatchNormV3 i1 [48] scale=0.002271492 zero_point=-128
000000 41 49 46 24 7f 3a 38 31 7f 3a 29 1e 1e 12 2c 24
       0.43839797 0.4565699 0.44975543 0.37252468 0.5792305 0.4224975 0.41795453 0.4020541 0.5792305 0.4224975 0.38388216 0.35889575 0.35889575 0.33163783 0.39069664 0.37252468
000010 0f 19 4d 05 56 56 3f 0b 43 37 1a 10 2b 38 2f 4f
       0.32482335 0.3475383 0.46565586 0.30210844 0.4860993 0.4860993 0.43385497 0.3157374 0.44294095 0.41568303 0.34980977 0.32709485 0.38842514 0.41795453 0.3975111 0.47019884
000020 0b 2e 5e 5b 26 29 66 24 58 38 51 40 33 41 3c 31
       0.3157374 0.39523962 0.5042712 0.49745676 0.3770677 0.38388216 0.5224432 0.37252468 0.49064228 0.41795453 0.47474185 0.43612647 0.40659708 0.43839797 0.42704052 0.4020541

model_4/conv2d_26/Conv2D i1 [48, 3, 3, 32]
000000 18 25 0d 01 f4 0c 10 9e c6 dc 59 fd e4 c1 20 c5
       24 37 13 1 -12 12 16 -98 -58 -36 89 -3 -28 -63 32 -59
000010 49 9a 09 2b dc fb 18 c8 04 fa ae 2b b3 06 ec f3
       73 -102 9 43 -36 -5 24 -56 4 -6 -82 43 -77 6 -20 -13
000020 1a 38 29 42 2f b6 e6 f1 ed fa 02 1d ce ea fd d7
       26 56 41 66 47 -74 -26 -15 -19 -6 2 29 -50 -22 -3 -41
000030 bc c0 b7 18 be fb 02 fa 8b ee eb 2b 07 f2 e1 25
       -68 -64 -73 24 -66 -5 2 -6 -117 -18 -21 43 7 -14 -31 37
000040 c4 2d 00 eb 11 06 f9 c5 0c de 1c 35 02 37 d6 11
       -60 45 0 -21 17 6 -7 -59 12 -34 28 53 2 55 -42 17
000050 05 04 12 12 4a f7 18 09 a1 c2 0a 1f 32 e5 f8 20
       5 4 18 18 74 -9 24 9 -95 -62 10 31 50 -27 -8 32
000060 ee 1b 1d c0 0c 0b 1a 88 81 d9 f7 ec ed fc c1 c6
       -18 27 29 -64 12 11 26 -120 -127 -39 -9 -20 -19 -4 -63 -58
000070 ff b8 e8 10 9a c7 0a f9 0e 20 a7 eb 0b 2f ec 04
       -1 -72 -24 16 -102 -57 10 -7 14 32 -89 -21 11 47 -20 4
000080 dc 0f 15 f5 e9 e5 df df 1e c9 8e ea 34 ef ec fc
       -36 15 21 -11 -23 -27 -33 -33 30 -55 -114 -22 52 -17 -20 -4
000090 c0 1c c9 0d a4 c4 fb 01 f8 c7 84 10 f7 5f 1c 27
       -64 28 -55 13 -92 -60 -5 1 -8 -57 -124 16 -9 95 28 39
0000a0 0a e1 c3 08 e2 0b fd 1b 0e df ec f0 19 e9 f0 01
       10 -31 -61 8 -30 11 -3 27 14 -33 -20 -16 25 -23 -16 1
0000b0 0c 03 f1 ed 08 c0 bd f3 d2 ec e8 11 d4 f5 0f 0c
       12 3 -15 -19 8 -64 -67 -13 -46 -20 -24 17 -44 -11 15 12
0000c0 d3 e7 e2 08 fe 2d c8 e9 e1 11 53 c0 25 0f d3 bc
       -45 -25 -30 8 -2 45 -56 -23 -31 17 83 -64 37 15 -45 -68
0000d0 e8 fd cb cb fe f7 92 1d 10 c2 96 30 3b d8 f8 df
       -24 -3 -53 -53 -2 -9 -110 29 16 -62 -106 48 59 -40 -8 -33
0000e0 15 f3 b5 31 00 f5 9e 15 18 f4 08 d8 fb fe f1 c1
       21 -13 -75 49 0 -11 -98 21 24 -12 8 -40 -5 -2 -15 -63
0000f0 a1 d4 8a ca f3 04 f3 de d3 06 82 15 eb 30 d9 de
       -95 -44 -118 -54 -13 4 -13 -34 -45 6 -126 21 -21 48 -39 -34

model_4/batch_normalization_26/FusedBatchNormV31 i1 [32] scale=0.004048423 zero_point=127
000000 f8 f3 34 47 ca 63 48 a1 80 c3 ca 04 05 cf 86 bb
       -0.5465371 -0.5667792 -0.30363172 -0.22671169 -0.73276454 -0.113355845 -0.22266325 -0.8987499 -1.0323478 -0.7611035 -0.73276454 -0.497956 -0.4939076 -0.71252245 -1.0080574 -0.7934909
000010 0a 34 03 f8 a4 b0 9c f3 eb e6 f9 56 4a d9 11 cb
       -0.47366548 -0.30363172 -0.50200444 -0.5465371 -0.8866046 -0.83802354 -0.918992 -0.5667792 -0.5991666 -0.6194087 -0.5424887 -0.16598535 -0.21456641 -0.6720382 -0.4453265 -0.72871614

model_4/batch_normalization_26/FusedBatchNormV3 i1 [32] scale=0.002587405 zero_point=-128
000000 0f 01 fe 11 f0 05 4b fb e2 d7 e9 e1 ee ef e3 e7
       0.36999893 0.33377525 0.32601303 0.37517372 0.28978938 0.34412488 0.5252432 0.3182508 0.2535657 0.22510424 0.27167752 0.2509783 0.28461456 0.28720197 0.2561531 0.2665027
000010 08 f9 f8 ed dc f3 e2 fe ec 02 f6 3a 7f f7 f2 04
       0.35188708 0.31307602 0.3104886 0.28202716 0.23804127 0.29755157 0.2535657 0.32601303 0.27943975 0.33636266 0.3053138 0.48125735 0.6597883 0.3079012 0.29496416 0.34153748

model_4/conv2d_25/Conv2D i1 [32, 3, 3, 32]
000000 eb a6 e8 26 17 25 c4 df f8 0e 15 1c f5 d2 be f8
       -21 -90 -24 38 23 37 -60 -33 -8 14 21 28 -11 -46 -66 -8
000010 fd e5 24 c1 f1 ea df f5 fa 2c ec 09 23 f1 d9 01
       -3 -27 36 -63 -15 -22 -33 -11 -6 44 -20 9 35 -15 -39 1
000020 3a 44 e6 e3 d1 bc 3f e3 12 41 f8 f0 3e dc 00 d6
       58 68 -26 -29 -47 -68 63 -29 18 65 -8 -16 62 -36 0 -42
000030 ec d8 06 3e 06 17 50 d6 3b 25 b9 2d 15 17 e7 13
       -20 -40 6 62 6 23 80 -42 59 37 -71 45 21 23 -25 19
000040 e3 e4 e3 c8 2b 1b ef 42 59 38 cd 05 ed 05 fd 14
       -29 -28 -29 -56 43 27 -17 66 89 56 -51 5 -19 5 -3 20
000050 e6 11 42 ca 1e d2 f7 1b 01 fb 42 f8 f8 19 ef 29
       -26 17 66 -54 30 -46 -9 27 1 -5 66 -8 -8 25 -17 41
000060 17 1c c5 1a ad f2 26 42 24 cf f6 0c bf ca 0a 01
       23 28 -59 26 -83 -14 38 66 36 -49 -10 12 -65 -54 10 1
000070 33 e5 21 36 fe be d7 f9 38 57 1a b6 09 0c 24 22
       51 -27 33 54 -2 -66 -41 -7 56 87 26 -74 9 12 36 34
000080 0a f3 0d 05 ca 0a 2e d2 ec cb e1 99 1f 15 bc f6
       10 -13 13 5 -54 10 46 -46 -20 -53 -31 -103 31 21 -68 -10
000090 15 1c 28 12 0a 64 2d f4 eb 2e d4 ff 96 b9 c6 14
       21 28 40 18 10 100 45 -12 -21 46 -44 -1 -106 -71 -58 20
0000a0 a5 e2 e5 fa c8 29 cb 23 e6 2c ee dc 81 25 bc f9
       -91 -30 -27 -6 -56 41 -53 35 -26 44 -18 -36 -127 37 -68 -7
0000b0 1e 6f ff 89 d8 a5 a6 2c 0a eb 36 8d ff e1 2a bb
       30 111 -1 -119 -40 -91 -90 44 10 -21 54 -115 -1 -31 42 -69
0000c0 0a 76 2a 0c f8 fe 3b f8 07 c4 19 1e 46 06 30 04
       10 118 42 12 -8 -2 59 -8 7 -60 25 30 70 6 48 4
0000d0 f2 0d e6 1b cc 06 25 06 31 d3 f0 e4 01 0f fb c0
       -14 13 -26 27 -52 6 37 6 49 -45 -16 -28 1 15 -5 -64
0000e0 48 d4 ec 22 1b 13 fc f8 aa aa 2e d1 ed e7 b2 1d
       72 -44 -20 34 27 19 -4 -8 -86 -86 46 -47 -19 -25 -78 29
0000f0 f8 0f 94 ec 37 24 1a fa 04 1e d8 04 0f d2 a8 c2
       -8 15 -108 -20 55 36 26 -6 4 30 -40 4 15 -46 -88 -62

model_4/batch_normalization_25/FusedBatchNormV31 i1 [32] scale=0.005610842 zero_point=127
000000 e9 d7 07 0a a6 e4 4e bc b4 f2 dc 18 80 e4 c6 a4
       -0.8416263 -0.9426214 -0.67330104 -0.6564685 -1.2175527 -0.86968046 -0.27493125 -1.0941142 -1.1390009 -0.7911287 -0.91456723 -0.5779167 -1.4307647 -0.86968046 -1.0380057 -1.2287743
000010 c1 0e ff bf 01 8d c0 5d 12 ad d5 fb 20 ef ea fd
       -1.06606 -0.6340251 -0.71818775 -1.0772816 -0.70696604 -1.3578237 -1.0716708 -0.19076861 -0.61158174 -1.1782768 -0.9538431 -0.7406311 -0.53303 -0.8079612 -0.8360154 -0.72940946

model_4/batch_normalization_25/FusedBatchNormV3 i1 [32] scale=0.012157247 zero_point=-128
000000 75 07 35 28 14 7f e5 ea 07 03 27 29 fc 08 f6 ea
       2.9785256 1.6412284 2.2004619 2.0424175 1.7992727 3.1000981 1.227882 1.2886683 1.6412284 1.5925994 2.0302603 2.0545747 1.5074986 1.6533856 1.4345552 1.2886683
000010 f5 1d 34 fb e6 e5 e4 bb f1 fc d4 d2 14 23 db 11
       1.422398 1.9086878 2.1883044 1.4953414 1.2400392 1.227882 1.2157247 0.7172776 1.3737689 1.5074986 1.0212088 0.9968943 1.7992727 1.9816313 1.1063095 1.7628009

model_4/conv2d_24/Conv2D i1 [32, 5, 5, 3]
000000 02 9d d6 d0 14 55 d6 3d 49 de 3b 53 d1 55 60 3e
       2 -99 -42 -48 20 85 -42 61 73 -34 59 83 -47 85 96 62
000010 c5 fd c4 f0 03 de 04 ef e3 20 06 c1 28 69 79 ac
       -59 -3 -60 -16 3 -34 4 -17 -29 32 6 -63 40 105 121 -84
000020 b5 55 ad d6 42 9f 8e 13 a9 e7 e1 0f 5f f9 30 1d
       -75 85 -83 -42 66 -97 -114 19 -87 -25 -31 15 95 -7 48 29
000030 1f d7 fc 7f 97 d0 28 8d b4 24 ce dc 87 7a 5c b8
       31 -41 -4 127 -105 -48 40 -115 -76 36 -50 -36 -121 122 92 -72
000040 3d 73 e4 42 19 f3 12 32 1a a6 ee 29 f1 fe d4 e9
       61 115 -28 66 25 -13 18 50 26 -90 -18 41 -15 -2 -44 -23
000050 cb b3 d1 ce 16 f8 d8 24 37 30 0d 07 ec a9 d2 e0
       -53 -77 -47 -50 22 -8 -40 36 55 48 13 7 -20 -87 -46 -32
000060 ec 1f da 2e 55 37 09 33 2d f7 0f 02 bb 20 e5 b6
       -20 31 -38 46 85 55 9 51 45 -9 15 2 -69 32 -27 -74
000070 eb f1 cc e5 ff 2f 62 35 03 42 09 ea 2a 47 a2 09
       -21 -15 -52 -27 -1 47 98 53 3 66 9 -22 42 71 -94 9
000080 11 aa c0 ea 25 41 38 1e 2e 1d ab 2c 29 81 12 e8
       17 -86 -64 -22 37 65 56 30 46 29 -85 44 41 -127 18 -24
000090 ba eb d2 65 50 34 e8 13 03 30 e3 da 49 a3 cc 1d
       -70 -21 -46 101 80 52 -24 19 3 48 -29 -38 73 -93 -52 29
0000a0 e4 0a a3 49 76 e0 29 3b f1 f9 fc 41 b8 e6 50 ac
       -28 10 -93 73 118 -32 41 59 -15 -7 -4 65 -72 -26 80 -84
0000b0 cc fc e7 2a a5 4d 31 d0 4e f1 19 e1 f4 66 96 d0
       -52 -4 -25 42 -91 77 49 -48 78 -15 25 -31 -12 102 -106 -48
0000c0 3c c6 d1 af 64 22 d1 34 27 f6 f8 fe 50 b2 dd 3c
       60 -58 -47 -81 100 34 -47 52 39 -10 -8 -2 80 -78 -35 60
0000d0 dd eb 81 68 63 a4 41 1d e3 0e 1c 2d bf e2 2c e5
       -35 -21 -127 104 99 -92 65 29 -29 14 28 45 -65 -30 44 -27
0000e0 be 05 fd 02 b4 52 42 a6 09 03 b5 57 44 a8 45 5e
       -66 5 -3 2 -76 82 66 -90 9 3 -75 87 68 -88 69 94
0000f0 01 0b f1 ac 2e 37 d1 09 3a da 3f 1c cd 06 33 07
       1 11 -15 -84 46 55 -47 9 58 -38 63 28 -51 6 51 7
