ana-cont_1501_s1.tflite (tflite, 204484 bytes, 14 tensors)

arith.constant f4 [32]
00000000: 3729 553b 7655 263d 69dd a33d 8604 553d
00000010: 0618 a83c 9e41 373d 4d48 7cbc 5303 103d
00000020: 63e9 19bd 47cb 173d 417d bd3d 7a4d 043d
00000030: 5a25 a73d 9dc3 223d 7898 a63c 9575 2d3d
00000040: 3415 0a3c 4608 3b3d 1bca 9e3d e8a1 d53b
00000050: 9305 f03b ced6 823d 6df3 913d 7523 1a3d
00000060: 182c 6cbd f28a 323d 4f2a 9c3d d304 7b3d
00000070: 160f 5c3d b975 ae3d 12cc 553b e1be c83d
0.0032525787 0.040608846 0.08001215 0.052006267 0.020519268 0.04474031 -0.015398097 0.03515942
-0.03757609 0.037059095 0.09252406 0.03230045 0.08161421 0.039737333 0.020336375 0.042348463
0.008427907 0.045662187 0.07753392 0.006519545 0.0073248832 0.06388627 0.07126508 0.03763147
-0.05765924 0.04358954 0.07625257 0.061283898 0.053725325 0.085185476 0.0032622856 0.09802032

arith.constant1 f4 [32]
00000000: 2d0c 83bd 2cf8 c63b 00c7 b7bd 09d1 5ebc
00000010: 0fbd fcbd 3efd 99bd 6f25 b93c 79d4 a9ba
00000020: 6fbb 883d 114d babc 438b 8bbb 4a36 1abc
00000030: 9e04 83bd 86f4 85bd b308 d8bd 6cef 81bd
00000040: 985a 24be 35f2 f6bb 761a 4a3c 8485 1fbc
00000050: 91b4 5ebd 2109 e8ba 13b8 51bd 00bc c7bc
00000060: 57f5 b6bb 7e4b b8bc 40ed 433d 61a0 8bbd
00000070: a96f 12bb bee1 213c a4c6 28bc 7cbd 063d
-0.06398807 0.006072065 -0.08973503 -0.013599643 -0.123407476 -0.07519005 0.022600858 -0.0012956999
0.06676375 -0.022741826 -0.0042585446 -0.009412358 -0.06397365 -0.0654078 -0.10548534 -0.06344494
-0.16050184 -0.0075361975 0.01233541 -0.009736422 -0.05437142 -0.0017702916 -0.051200937 -0.024381638
-0.005583446 -0.022496935 0.04783368 -0.06817699 -0.0022344387 0.009880481 -0.010301266 0.03289555

arith.constant2 f4 [32]
00000000: 7af3 27bd bfa5 54bd 4cc2 b1bd 4c3a cabd
00000010: c4d3 8dbd 73f8 efbc 912a b6bc 8df6 c4bd
00000020: 4cbe a0bd 5995 eabd de54 6bbd 13eb 01be
00000030: 2655 5ebd 6890 b4bc a51e f3bd 5384 10bd
00000040: ff15 0bbd c902 ffbd c65d bdbd a6c9 dbbd
00000050: be8d d5bd 0057 95bd d105 d2bd e498 e2bd
00000060: 0bbd 93bd 7b59 c5bd b09c adbd f495 75bd
00000070: e9f6 11be e7ce 3ebe 006c 95bd cd2a 60bd
-0.04100368 -0.05191588 -0.08679637 -0.098744005 -0.06925157 -0.029293275 -0.022237094 -0.09617338
-0.07848796 -0.11454267 -0.057453983 -0.1268733 -0.054280423 -0.022041515 -0.11871079 -0.035282444
-0.033956524 -0.12451703 -0.092464015 -0.10731821 -0.10427426 -0.072919846 -0.10255016 -0.11064318
-0.072137915 -0.09636208 -0.084771514 -0.05995746 -0.14254345 -0.18633614 -0.0729599 -0.054728318

arith.constant3 f4 [32, 3, 3, 32]
00000000: ae70 04bd 7db2 a3bd d5f6 05bd 4b86 be3d
00000010: d0e1 1dbc cdb9 143e 3471 e4bd 8dad 18bd
00000020: 136a 03bd 19be d0bd ce34 393d afb5 91bd
00000030: 87d2 9f3c 3b3e debb a91c d53d aab6 00bd
00000040: 0ddd fd3a 1f61 763d 1853 813b b294 87bd
00000050: cdd6 703d e3b2 ac3d d109 0ebd cd1b 8fbd
00000060: 3507 493b 5fc2 f63d 8447 c4bd 2a34 773d
00000070: 0d6a bb3c b1d8 66ba 4f4b 933b 82f9 70bd
00000080: a848 d83b 10d6 94bc bd4d 0d3e 6220 67bd
00000090: f04b ff3b edad 8a3d 1920 c93c be1d 4bbc
000000a0: 01e9 213d d256 61bd d9e3 0ebd 41bd c23c
000000b0: 8270 13bd df2a 523b a2d9 8ebd 21cd 143c
000000c0: a099 b73d 59fb d1bb a258 493d 270b 0f3c
000000d0: a601 1ebd 1a2d 9e3c 93ed 483d 424a 22bd
000000e0: 7a7f e73c 0aaa 19bc 273a bd3d 4195 eabd
000000f0: 46b6 883d 1c26 87bd 3918 b5bd 01cb b7bd
00000100: 2f09 de3c 52b3 143d 1e95 f5bd fc89 9c3d
00000110: f69d 0c3d 14b4 a7bd 694f 63bd 3dc2 243d
00000120: b5b0 bcbd 3a53 cabd 96e4 6bbd a612 8b3d
00000130: 3f4c 29bb 3370 01be 6cbd b1bc 3a4c 66bc
00000140: 7aa7 8bbd 0c0d e1bc c972 aebc a3b4 913d
00000150: 830c e0bd a2d4 c2bd d26d dcbc 1978 a73d
00000160: 74af 85bd 1380 953c 058c 83bd 9c0b 8e3b
00000170: a6fe 273c f980 283d d1a2 35bd 2fbf 95bd
00000180: 3093 2cbe dff1 c33d 7fc9 e0bd 594c ce3c
00000190: 4caf cbbc 5f87 f1bd a27f 8e3b b2a7 8ebd
000001a0: 1747 9b3d 1636 47bc 73fb 30bc 6541 bbbc
000001b0: 1155 fcbd 4ba2 d9bc 4004 10be 3879 b7bc
000001c0: ac4b 39bd c81b a6bd 439f 90bd 2b48 fbbc
000001d0: b4b6 afbc 80ee 6fbd d541 9dbb 1b93 5a3d
000001e0: 860e 98bd 8cc4 d3bd 9118 953c 42b5 8fbd
000001f0: edc2 e93c da99 8bbd 996f 843d 4b8d bb3c
00000200: f6a4 c03c a911 5abd a5ec 0bbe 85d9 bf3d
00000210: 0848 2fbd a507 863c 800f cb3d 548d 193d
00000220: 0b81 a43a 6330 113e 10ef 86bd d6c0 b73d
00000230: 6b89 0bbe 66ff c0bd cf6d 0bbe c492 49bd
00000240: cdf6 0cbd 63cb c8bc d394 64bd d256 b33d
00000250: e955 c0bd 500b a2bb e658 d1bc 9890 9dbd
00000260: 78da e1bd 6e00 433d 576a b33d 8ee2 023c
00000270: 82d1 663c 3475 d1bd 9ce0 263c bf21 4bbd
00000280: f0d2 2bbe cc86 c03d eb39 73bd a266 69bd
00000290: 2c09 503b 12c4 b9bc e70b 08bd 97cb 34bd
000002a0: 1404 92bc c0fa 10be 11e4 b83d 2738 9abd
000002b0: d48d 14bd 6374 f2bd 69ce 9e3d edc1 9cbd
000002c0: 6f07 063d 2d47 68bd 8eda 44bc 86e1 bf3c
000002d0: b199 16bd 882a bebd 8a79 95bd bdaa a0bc
000002e0: 6535 3e3d daf7 93bd 8c4d 163e 0965 adbb
000002f0: 4f82 dabd 84a7 4c3c 662e a13d 3e60 dfbd
00000300: 59ae c9bd 2508 9ebd 4b1f 10bb 92c6 84bd
00000310: 0ab6 853d ed18 893c d6d0 a33d 92d4 b33d
00000320: 695f 6f3c f6f3 0e3d 2fc7 febc b42f 88bd
00000330: 6f0d b0bc a369 a43c f1e5 53bd 1eb2 e0bd
00000340: 944c c2bd 8151 c1bd 3c8f 7fbc ab1b e338
00000350: 392a abbc f8ee 8b3d 4523 933c 5761 ae3d
00000360: 13f0 b73d fbae 34bd 2147 8f3d 72b7 7fbd
00000370: 8635 273d f4a6 833d 99aa 86bc a7cc 47bd
00000380: 75e7 b23c e1eb c93d 7626 e8bd 2859 493c
00000390: 6fb3 91bd deb1 0bbd bd1f 96bd 305e acbd
000003a0: fa9f 09bd ec88 05be 58c9 b7bd 0c10 963d
000003b0: da1d a43c 8070 b93c f16a d73c 22a1 ecbb
000003c0: dfdc 6e3b f668 cb3d 58c5 66bd 186a a5bd
000003d0: ff1a 1abd f272 9b3d 5906 a4bc 5afd 8c3d
000003e0: 6240 143c 6c49 823d 6242 41bd afbf 23bd
000003f0: c606 a0bc b3d8 a3bd 83a9 853d 370e e8bc
-0.032334022 -0.07993028 -0.0327061 0.09302958 -0.009636357 0.14524002 -0.11154404 -0.037274886
-0.032083582 -0.10192508 0.045216374 -0.071147315 0.019509567 -0.006782321 0.10405857 -0.031424202
0.0019368246 0.060151216 0.003946673 -0.06620158 0.0587986 0.084325574 -0.03467733 -0.069877245
0.0030674462 0.12048792 -0.09583953 0.060352482 0.022877717 -0.0008806093 0.0044950615 -0.0588317
0.006600458 -0.01816848 0.13799186 -0.056427367 0.007791035 0.06771455 0.024551438 -0.012397228
0.03952885 -0.05501444 -0.03488526 0.023771884 -0.035995968 0.003206901 -0.06975104 0.00908211
0.089648485 -0.006408137 0.049156792 0.008730686 -0.03857579 0.019308615 0.049054693 -0.0396216
0.028259028 -0.009378919 0.09239607 -0.11454249 0.06675391 -0.06599066 -0.08842511 -0.08974267
0.027103988 0.036303826 -0.119913325 0.07643506 0.03433033 -0.08188644 -0.055495653 0.040224303
-0.09213392 -0.098791555 -0.057591043 0.06790666 -0.00258328 -0.12640457 -0.021696769 -0.01405626
-0.06819053 -0.027472042 -0.021294968 0.07114532 -0.109398864 -0.09513213 -0.026907835 0.08177204
-0.06527606 0.018249547 -0.06423191 0.00433488 0.010253584 0.041138623 -0.044344727 -0.07311856
-0.16853023 0.095676176 -0.10975932 0.02518289 -0.024863862 -0.11793398 0.004348711 -0.06965579
0.07581919 -0.012158891 -0.010802138 -0.022858331 -0.12320913 -0.026566645 -0.14064121 -0.022396669
-0.045238182 -0.081107676 -0.07061627 -0.03067406 -0.021449424 -0.05857706 -0.0047991076 0.053362947
-0.07424645 -0.10340223 0.01820019 -0.07016994 0.02853533 -0.06816454 0.06466598 0.022894522
0.02351616 -0.0532395 -0.13664491 0.093676604 -0.042793304 0.016361067 0.09915066 0.037488297
0.0012550665 0.14178614 -0.06588566 0.089723274 -0.1362664 -0.094237134 -0.13616107 -0.049212232
-0.034415055 -0.024511045 -0.055805992 0.08756794 -0.09391386 -0.004945196 -0.025555085 -0.07693595
-0.11027998 0.04760783 0.08760517 0.007988585 0.0140880365 -0.10227433 0.010185387 -0.04959273
-0.16779685 0.094007105 -0.059381407 -0.056982644 0.0031743748 -0.022676501 -0.033214476 -0.04413947
-0.01782421 -0.14158154 0.09027875 -0.075302415 -0.03626807 -0.11838605 0.07754213 -0.07654176
0.032721933 -0.056708504 -0.012014998 0.023422968 -0.036767665 -0.09285456 -0.07298572 -0.019612664
0.04643764 -0.07225008 0.1467802 -0.0052915853 -0.10669386 0.012491111 0.07870178 -0.109070286
-0.09847707 -0.07716397 -0.0021991308 -0.06483187 0.06528862 0.016735518 0.07998817 0.08780779
0.01461015 0.034900628 -0.031100838 -0.06649724 -0.02149078 0.020069903 -0.05173296 -0.10971473
-0.09487262 -0.09439374 -0.015598115 0.00010829357 -0.020894157 0.06832689 0.017961154 0.0851466
0.089813374 -0.044112187 0.06995989 -0.062430806 0.04082253 0.06428328 -0.01643877 -0.048779156
0.021838883 0.098594435 -0.11335461 0.012289323 -0.07114302 -0.034105174 -0.07330272 -0.08416402
-0.03359983 -0.13040513 -0.0897395 0.073272794 0.020033766 0.022636652 0.02629611 -0.007221357
0.0036447567 0.09932129 -0.056340545 -0.080768764 -0.0376234 0.075902835 -0.020022558 0.068842605
0.009048553 0.0636166 -0.04718245 -0.039977726 -0.01953448 -0.080003165 0.065264724 -0.02832709

arith.constant4 f4 [32, 5, 5, 32]
00000000: 9af8 1f3d ca66 e33c 8211 703c 421c 16be
00000010: e9ec c63d 5522 dc3d cb9e 723c f9b6 f7bd
00000020: cea3 903c 39e4 7a3c bd07 c8bd 19d2 30bd
00000030: 5805 cd3d 908f 843d 2609 3a3d 0650 8e3d
00000040: 162c 883d 72ad a1bd e60d 5e3d ab62 103d
00000050: 5c55 8fbb 98e9 05bd 2238 0bbd 9e38 8f3b
00000060: b4da 6dbc 2e7c e3bd 066d 913d 5c08 8bbd
00000070: fcb4 52bd d3b3 34bd 78f3 773d a053 51bd
00000080: 8566 3ebd db77 473d 9f6a 33bd fa18 ff3c
00000090: 1219 afbd c3f6 53bd 125a 81bd de3e 093d
000000a0: 3ae8 293c f481 6d3d dfc7 cd3d 4f9e dfbd
000000b0: 975f 6d3c e486 8ebb 7a31 b13d dc47 b23d
000000c0: 6601 773b 6dd6 8abd a6c5 d7bd 28b4 57bc
000000d0: 054f d9bc fa70 fcbc 2c5a 053d 2020 96bc
000000e0: 27fe 913d 57e7 483d 04ef bc3b 8a03 08bd
000000f0: 591f 6cbd c040 023c d77b 30bd 97fe ffbd
00000100: 9bd0 a4bc 1e63 303d 9397 f33c 3a1c de3d
00000110: cd5e 163b 81ac 913c 2241 99bd 22bd 0c3e
00000120: f6fa 58bc f73e f53d b4f8 babd 51ae d93d
00000130: 5e33 83bc 7f05 6cbd e276 a93d 8444 d73d
00000140: 3e11 e1bc 0925 8ebd 71f5 403d f358 c63d
00000150: d272 96bd 567b 92bd 4b40 053e 6842 26bd
00000160: 56f5 20bc 5d08 b43d d9a1 a73d ecd2 1abc
00000170: 9b01 d83c 4220 c9bc 9b11 b4bc ee9d f6bc
00000180: 6e3c 3e3d a9fb 01bd bd4c a0bd 4fba 5cbd
00000190: eb38 21bd a84d 80bd 4e5f b9b8 f0b5 6bbd
000001a0: 8542 9d3c 364b 21bd d9c5 82bc e957 593c
000001b0: a533 a6bd 8023 623d 4544 be3d 3d2f abbd
000001c0: 1734 3f3d 372e cbbc b632 adbc c031 a93d
000001d0: 1526 13bd d6ed 93bc c695 6e3d 8704 fcbb
000001e0: 0718 0f3b 6a27 65bd 7720 edbd 4eeb ac3d
000001f0: e1f6 6ebb 2375 4c3c ff53 ba3c 0103 01bd
00000200: 6925 c23c 220e bd3b 6e86 f0bd 206e 3f3c
00000210: aee7 bb3c cd5f e2bd 8734 d2bc e1b6 eab9
00000220: 274d 243c 1f0b 903c 47af 003d 2b5a d3bd
00000230: fb49 a3bc 15d2 90bc b6c6 6e3d bf9e f539
00000240: 2cde 713b 58d8 b2ba 52c3 d9bc 4e8a 86bd
00000250: 090f 283d cb5e 093e 2598 a6bd 5f5b 7cba
00000260: 1b0c 69bd ca6b c7bd ec80 57bc 0b63 88bd
00000270: 52a6 fbbd cb5a 41bd a3aa 0cbe b858 b33d
00000280: 306f 47bd 53ba a3bd 3811 b5bd adfc 97bd
00000290: f5d4 5abd 4855 433d 10a8 78bd dfa6 013d
000002a0: be4e 7a3c 43e9 bb3d 4745 39bd ec16 833d
000002b0: eead a53c 7dfa de3c 6588 c0bd 12db 6a3d
000002c0: 690e 7e3d b7d8 c6bd 23ab 893d a442 dfbd
000002d0: 91bd 5c3d f8ed bc3d 0d8f 9e3d d157 6a3d
000002e0: 61be e9bd dbf1 443d 0b87 513d 4b96 d23d
000002f0: 0343 003c be0e a8bd 693f 10be bb1b a6bd
00000300: 25eb 18bd 6764 bdbc 30a7 bdbd fcc7 dabc
00000310: c379 09bd 1a4c ccbd 7982 1dbd 4dfe cf3d
00000320: 8494 933d d358 723d 0e81 96bc 4f5b 1dbe
00000330: 457d 8cbc ec88 33bd a696 ea3b a08e f23c
00000340: e4cb 8cbd 78e1 85bc a26e f33c 1470 ba3c
00000350: 6b4c e2bc 7704 e23b de20 263c 57b2 20bd
00000360: 0850 91bb 07e1 9f3d 2a1f 4f3d 89d7 34bd
00000370: 2855 36bd a374 f53c c4f7 dcbb 5a83 453c
00000380: 848d 1ebd 698b 213d 9f28 383c 5b03 8a3d
00000390: 0ae9 c4bd 767b fabc 6f06 1dbd bd8c 7d3c
000003a0: fa67 c33d 6d1e 883d dd81 78bd 4e41 0b3e
000003b0: 41c7 12be 3bb6 c1bd 0fdc 3c3d ed07 893d
000003c0: 62fa 24bd fa12 20bd 515a 84bd d841 17bc
000003d0: 54e3 b5bd 976b 5dbd a299 373e ac6f 7abd
000003e0: 3ea3 80bd 74eb 3ebd aa90 0dbe c7d0 0abe
000003f0: dc6d e4bc 3273 30bd 07f4 b23c 0e82 02bd
0.039055444 0.027758975 0.014652612 -0.14659217 0.09713156 0.10748736 0.014808367 -0.12095446
0.017656233 0.015313202 -0.09767101 -0.043169115 0.10010785 0.06472695 0.04541888 0.06948857
0.06649034 -0.0789441 0.054212473 0.035250347 -0.0043741893 -0.032693475 -0.03398908 0.004370763
-0.014517475 -0.1110767 0.07100873 -0.06788704 -0.05144213 -0.044116806 0.060534924 -0.05110514
-0.04648449 0.048698287 -0.043802854 0.03113984 -0.08549704 -0.051749002 -0.06316008 0.03350722
0.0103703085 0.05798526 0.10047888 -0.10918867 0.014488122 -0.0043495763 0.08652015 0.08705112
0.0037690043 -0.0677918 -0.10535745 -0.013165511 -0.026526937 -0.03081559 0.032556698 -0.018325865
0.07128554 0.049048748 0.0057657976 -0.0332065 -0.057647083 0.007950008 -0.043086853 -0.12499731
-0.020119002 0.043063276 0.029735362 0.108452275 0.002294469 0.017782452 -0.07483126 0.13744023
-0.0132434275 0.119749 -0.091294676 0.10628951 -0.016015705 -0.05762243 0.08274628 0.10511115
-0.027474042 -0.06940658 0.04710907 0.096849345 -0.07346119 -0.07152431 0.13012807 -0.040590674
-0.009824118 0.08790658 0.08185167 -0.009449702 0.026367953 -0.024551515 -0.021981051 -0.030104604
0.04644435 -0.031734142 -0.07827137 -0.053888615 -0.03936092 -0.06264812 -8.839239e-05 -0.057546556
0.019196758 -0.039378367 -0.015963482 0.013265588 -0.08115319 0.055209637 0.09290365 -0.08358619
0.046680536 -0.02480231 -0.021142345 0.08261442 -0.03592499 -0.018057745 0.058248304 -0.0076909694
0.002183439 -0.05594579 -0.11578458 0.08443318 -0.003646307 0.012479099 0.02274513 -0.031497005
0.02369948 0.005769507 -0.117443904 0.011683971 0.022937622 -0.11053429 -0.025659813 -0.00044768213
0.01002816 0.017583428 0.031417158 -0.103199326 -0.019932738 -0.0176783 0.058294974 0.00046848317
0.0036906106 -0.0013644798 -0.026582394 -0.06569348 0.041029964 0.13415067 -0.08134488 -0.00096266525
-0.05689631 -0.09737356 -0.013153296 -0.06659516 -0.122875825 -0.047205728 -0.13736968 0.08757156
-0.04869002 -0.07994523 -0.08841175 -0.07421241 -0.053425748 0.047688752 -0.060707152 0.03165328
0.015277563 0.091753505 -0.045232084 0.064008564 0.020224538 0.027219051 -0.09401015 0.057337828
0.06202546 -0.09709304 0.06722095 -0.109013826 0.053891722 0.092250764 0.077421285 0.057212655
-0.11413265 0.048082214 0.051154178 0.10282572 0.007828477 -0.08205937 -0.14086689 -0.08110758
-0.037333626 -0.023119165 -0.09260404 -0.026706688 -0.033563387 -0.09975453 -0.038454507 0.10155926
0.072060615 0.05916674 -0.018372085 -0.15366863 -0.017149577 -0.04383175 0.007159072 0.029609025
-0.068748266 -0.016342863 0.02971584 0.022758521 -0.02762433 0.006897505 0.010139672 -0.039232578
-0.0044345893 0.078065924 0.05056683 -0.044150863 -0.044514805 0.029962843 -0.006743403 0.012055242
-0.03870918 0.039439593 0.011240154 0.06738921 -0.09614761 -0.030576449 -0.038336214 0.015475449
0.09541316 0.06646428 -0.060670722 0.1359913 -0.14333822 -0.09458586 0.0461083 0.06690965
-0.040277846 -0.039080597 -0.06462539 -0.009232007 -0.0888125 -0.054057684 0.179297 -0.061141655
-0.06281136 -0.046611264 -0.13824716 -0.13556205 -0.027884416 -0.04307861 0.021844877 -0.03186231

arith.constant5 f4 [32, 5, 5, 3]
00000000: 26b4 463d 908f 013e 8f69 703e 32e2 babd
00000010: 756a 893e 290c 523e bdf2 08bd d4ba c03d
00000020: 7782 a43d 29f0 fcbd be7c fc3d 007e 913d
00000030: 589e 1bbe 0c3f e13c 6bc2 183d e037 fbbd
00000040: 056a 65be 9698 05be d736 d3bd 1459 8cbc
00000050: a746 433d 569a 833d 1d9b 91bb 10f5 893d
00000060: f522 d7bd 9b68 db3d 979f 8d3d f28a 943c
00000070: 968c 853e 8b46 2b3e bfa1 043e 3d5f 2dbe
00000080: b0e0 44be 415c ff3b abd1 6cbe ab9a c7bd
00000090: c9fe 1fbd 351d 92bb 16a7 49bc 2d32 e3bd
000000a0: 0fff b0bd 228a 373c 9f17 f8bd fb0f b83b
000000b0: 5d66 a4bd 2609 343e e675 4fbc 474b 843d
000000c0: e88b 823d ed05 26be f72e 0fbe 40de e63c
000000d0: 0a4f 1fbe d7f4 2fbd 9232 76bd 888b 0ebc
000000e0: 1e91 a33d 12bc c4bb 4123 e9bd 5e2d 8d3d
000000f0: f46a d83d efb7 a33d 1dcc 4e3c 0bd4 1d3e
00000100: c13c 4b3c eb4c f73d 9b47 093e 4967 cabd
00000110: eaca 03bd 2111 373d f1cb 2fbd d3eb a13b
00000120: e3f7 d03d cbf3 16be f304 b2bd b643 cf3d
00000130: 7f50 aabe 94bd 73be a84b 123e 85e3 45be
00000140: 67e3 efbd aac2 d83d 35d5 e1bd 6a2e 683d
00000150: eabc 433c 3472 fc3d e3c1 b23d 41a4 8e3d
00000160: 38f5 0c3d 78e4 033d 07c3 373e 08a6 23bd
00000170: 2127 623d 73f1 063e a72b 51be ba72 fdbd
00000180: 0000 f6bb 3d7c c6bd 05dd 87bd 5fbb 363d
00000190: 6a53 0ebe 0fbb 9fbd 520d 8c3c 28fb fdbd
000001a0: 071a 6339 5246 fc3d e930 c93d 4caa 543e
000001b0: 2041 603d e44c 203c 3876 9a3d c54d 12bd
000001c0: c72a 10be 89f6 3e3d 6d45 8c3c 6917 22be
000001d0: f9f9 b7bc c784 433d b179 59be 1b6b 85bd
000001e0: 7f4e 8bbd 738e b73d e371 29bd 8f3c c3bd
000001f0: 673c 3bbb 5bd0 2b3d 2cd8 5abc 40c7 cf3d
00000200: 7b79 0b3e 80c4 abbd 015e 78bd b3b8 e03d
00000210: 1444 20bd 6cd1 a139 3746 d9ba 23ab 06bd
00000220: 3f44 373e bcae aa3d b805 38be 83b6 a13d
00000230: eb29 cd3c cb83 32be 0a65 673e 7d39 083e
00000240: 2da1 c4bd d71f 2e3e 7726 ab3d 7e79 babd
00000250: 99da 5f3e 2906 4d3d 4161 293e c41f 0cbe
00000260: bab5 0ebe ea73 1d3e ebcf 0abe 4b08 89bc
00000270: 3e35 cf3d 8b02 60be 8d11 20be 8bb9 263e
00000280: de22 ddbd 849b c9bd 7dc1 853e 67df 62bd
00000290: 03f1 66bd 4333 acbc c21c 02bd 7fe6 22bd
000002a0: bca1 5c3d 2cba 053d bfd1 15bd 74e6 513e
000002b0: 8536 2abc c167 2dbd 7b5d 213e a097 5bbd
000002c0: 1e6e b6bd 44e9 a03d b5f2 37be fea8 32be
000002d0: 6e5d 8ebd 50e3 933d eb3a c03c 706d 1bbe
000002e0: 76f7 693d ade5 f43c bce2 773b 6a66 7ebc
000002f0: f91d 27bc b12b 033d 0c8e f1bd e327 09be
00000300: 56e2 a33d 4379 03be 1140 e6bc 3c3a 53be
00000310: a49a 223d 34bb c03d b0f8 b4bd 771a e23d
00000320: eda5 183e da90 4cbe 14ca 24bd 8b90 8b3b
00000330: 39cc 823d 5c15 27bd 3743 8cbd 4096 73bc
00000340: ff56 ea3c 4943 7a3d fa86 16be 20d6 343e
00000350: 69ad 823e 6045 45be 87d3 553d f9f2 b13d
00000360: 2773 c8bd c805 a23e 91d2 723e 2207 d9bc
00000370: af9b 0b3e 98c1 863d 356d 0fbe 8216 99bb
00000380: 7495 17bb 8ad3 d0bd e262 743d cf7c 0a3e
00000390: 0b83 13bd e2bb 883d 1928 033b 4e23 923d
000003a0: 7a48 9dbd 66f0 18bd 6c87 843e b59f 01be
000003b0: 8849 07be a20f 073e 9bc0 4cbe f57a debd
000003c0: c4b3 47be c11e 033e 81f1 463d 32d1 bdbd
000003d0: 4797 083c ef80 0c3e 6d98 943d 2b04 d6bd
000003e0: f96d 813d 70d4 173e 9c0a 3fbe 9935 2abd
000003f0: 22b7 2d3e b9e0 ecbd 5be1 29be 6ac7 febd
0.048511647 0.12652421 0.23477767 -0.091251746 0.26839033 0.20512451 -0.03343462 0.09410635
0.08032697 -0.123504944 0.1232848 0.07104111 -0.15197122 0.027495883 0.037294786 -0.12266517
-0.22403724 -0.13046488 -0.10313194 -0.01713232 0.0476748 0.064259216 -0.00444354 0.06736195
-0.105047144 0.10713311 0.06915205 0.01813266 0.2608382 0.16726129 0.12952326 -0.16930862
-0.19226336 0.00779298 -0.23126857 -0.097462974 -0.03906134 -0.004459048 -0.012307903 -0.11093555
-0.086423986 0.011202367 -0.1211388 0.0056171394 -0.08027337 0.17581615 -0.0126623865 0.064596705
0.06374341 -0.16213198 -0.1398276 0.028182149 -0.15557495 -0.042958107 -0.06010682 -0.008700259
0.07986663 -0.006003865 -0.11383677 0.06893419 0.10567275 0.07994067 0.012621907 0.15412919
0.012404622 0.12075218 0.13406222 -0.09882981 -0.032175936 0.04469407 -0.042919103 0.0049414425
0.10203531 -0.14741437 -0.0869235 0.10120337 -0.3326454 -0.23802787 0.14286673 -0.19325073
-0.117132954 0.10584004 -0.11026994 0.05668489 0.011946896 0.1232647 0.08728387 0.06964923
0.034413546 0.032200307 0.17945491 -0.03995326 0.055213097 0.13178043 -0.20426808 -0.12375398
-0.007507324 -0.09691665 -0.06633953 0.044612285 -0.13899007 -0.077993505 0.017096195 -0.1240142
0.00021658103 0.123181 0.09823782 0.20768088 0.054749608 0.009783957 0.0754208 -0.035718698
-0.14078818 0.046621833 0.017122949 -0.15829243 -0.022458063 0.04773405 -0.21237828 -0.06514569
-0.06802081 0.08962717 -0.041368376 -0.09533035 -0.0028569938 0.04194675 -0.013357203 0.10145426
0.1362056 -0.08387089 -0.060636524 0.109727286 -0.039127424 0.00030864344 -0.0016576712 -0.032878052
0.17897128 0.08334109 -0.17970932 0.078961395 0.025044402 -0.17433088 0.22597137 0.1330318
-0.09601054 0.17004333 0.08356946 -0.09105204 0.21860732 0.050054703 0.16541006 -0.13683993
-0.1393651 0.15376249 -0.13555877 -0.016727587 0.10117577 -0.2187597 -0.15631695 0.16281717
-0.10797666 -0.098441154 0.26124182 -0.055388834 -0.05638219 -0.021020537 -0.031765707 -0.0397706
0.05386518 0.03264825 -0.036576983 0.20498067 -0.010388975 -0.042335276 0.15758316 -0.053611398
-0.08907722 0.07856992 -0.17963679 -0.17447278 -0.06951414 0.07221091 0.023465594 -0.15178466
0.057120763 0.029894674 0.0037824353 -0.015527347 -0.010200017 0.03202409 -0.117946714 -0.13394122
0.080021545 -0.12839226 -0.028106721 -0.20627683 0.039698258 0.09410706 -0.08836496 0.11040204
0.14907046 -0.19977131 -0.04023178 0.004259174 0.06386609 -0.040791854 -0.06848758 -0.014867365
0.028605936 0.061099324 -0.14699927 0.17659807 0.25522926 -0.19264746 0.05220368 0.086889215
-0.097875886 0.31645036 0.23713137 -0.026492659 0.13633607 0.06579894 -0.14006503 -0.0046718726
-0.0023129852 -0.10196598 0.059664614 0.13524173 -0.036013644 0.06676461 0.0020012914 0.0713564
-0.076798394 -0.037338637 0.2588457 -0.1265858 -0.13211644 0.13189557 -0.19995348 -0.10863296
-0.19502169 0.128047 0.04857016 -0.092684165 0.008336849 0.1372106 0.072556354 -0.10450014
0.06319804 0.14827132 -0.18656391 -0.04155502 0.16964391 -0.115663 -0.16589873 -0.12440379

arith.constant6 f4 [2, 64]
00000000: 3620 803e 5eaf 433e 8d6a edbd 08b0 2ebe
00000010: 4f3f 793e 00ea 753e b179 4bbc de8f 813e
00000020: c3a4 c4bd b91b cbbe 8088 ab3d 54f9 27be
00000030: 7231 a33e 3d9b f03d d4c0 b63e 7e78 113e
00000040: 16dd 083e 9fde 553e 4a78 dabd 4ae1 c03e
00000050: 94eb 0b3e 1d6c 923c b57b 38be 0d0c 1abe
00000060: bd7f 8d3e 0b37 183d aff9 373e 81cd 42be
00000070: 98ce ecbd 9a04 dabe ee68 60be f2cf d33d
00000080: b43e 193d 6ed5 603e 3545 d43d 5b7e 3abe
00000090: 8ea1 ce3d 0036 7dbe 06b2 5bbe 8456 a83d
000000a0: d24f 4abe 1209 f03d 3e59 99be 5bbf 933d
000000b0: e6ba 213e fed2 49be 3b2b 8a3e 2f33 8e3d
000000c0: 6407 89bd 49d5 d63d 250b 6a3d 8932 91be
000000d0: 76ff 91be ba97 cc3c 2623 04be 3967 78be
000000e0: 33a8 9ebe 5b6f 2abe b4ae 2fbd e137 4b3c
000000f0: 592c 433e 0521 8e3b 9888 a93c 36d9 ad3e
00000100: 77c5 b03b 5b9e 03be 706a ed3c d0cc 2fbe
00000110: a149 cc3d 99e9 7cbe 831b 2c3e 9a9d 1fbe
00000120: 2d55 5d3e 84a3 9dbd 1acb a8bd 8804 8c3d
00000130: 75a1 723b d8bf 863e 7312 52be 80b1 1d3e
00000140: 5ae6 d7be ccc9 54be ee1a afbe 184d da3d
00000150: 3093 67be 0c00 463e cb33 573e aaf9 2f3e
00000160: 5160 b13d d49f a8bd c31a 0d3e ae1c 13bd
00000170: 6caf 05be 324d b0bd 90e0 763e e4cb d0bd
00000180: 4c52 983e 57e4 303e 31f3 e03d 5e4c bfbd
00000190: 51ab ecbc 8881 73be 5f3d 793e d0d4 92be
000001a0: 2d9e bb3d b7ac 183e 6447 4fbe 6b9c 583e
000001b0: bf26 363e 5c9d 9a3e bb96 633e 1a1a b5bd
000001c0: cc99 513e c733 653e 133b 2b3e 8e8f 7bbe
000001d0: 3782 793d e5c0 443e 8814 8b3e 001a 76bd
000001e0: 27aa 4c3e 715e 913e f855 b6bd 4b68 8dbe
000001f0: ba4f 91bb 421f a23e 530a 9a3e ada5 253d
0.25024575 0.19109866 -0.115925886 -0.17059338 0.24340557 0.24015045 -0.01241915 0.25305074
-0.09601738 -0.39669588 0.08375645 -0.16403705 0.3187366 0.11748359 0.3569399 0.1420612
0.13365588 0.20885704 -0.106674746 0.37671882 0.13664085 0.017873818 -0.1801594 -0.1504366
0.2763652 0.037161868 0.1796634 -0.19023706 -0.11562842 -0.42581636 -0.21915027 0.10342397
0.037413314 0.21956417 0.10364763 -0.18212263 0.10089408 -0.2472763 -0.2145463 0.082196265
-0.19757012 0.1172048 -0.299509 0.072142325 0.15793952 -0.19709393 0.26986107 0.06943356
-0.06690863 0.104899 0.057139535 -0.28358868 -0.28515214 0.024974693 -0.12904033 -0.24258126
-0.309877 -0.16644041 -0.04289122 0.012403459 0.19059886 0.0043374323 0.020695016 0.3395478
0.0053946334 -0.12853377 0.028981417 -0.17167974 0.09974981 -0.24698485 0.1680737 -0.15587464
0.21614523 -0.07697204 -0.082418635 0.06836802 0.0037022505 0.2631824 -0.2051485 0.15399742
-0.42167932 -0.20780104 -0.34200233 0.10659236 -0.22614741 0.19335955 0.21015851 0.17185083
0.08660949 -0.0823361 0.1377974 -0.035916023 -0.130552 -0.08608474 0.24109101 -0.10195139
0.29750288 0.17274605 0.10983885 -0.09340738 -0.028890284 -0.23779881 0.24339817 -0.28677988
0.09161029 0.14909635 -0.20242077 0.21153419 0.17788218 0.3019818 0.22225468 -0.08842869
0.20468825 0.22383033 0.16721754 -0.2456648 0.0609152 0.19214208 0.27164102 -0.06008339
0.19986783 0.28392366 -0.08903116 -0.27618632 -0.004434553 0.31664473 0.30086002 0.040441204

arith.constant7 f4 [64, 128]
00000000: 08c6 64bc b53d 2ebe 85fe 82bd 5c8d 57bd
00000010: 5b8b ed3d 9fd9 08be 25d3 72bd 87c9 0f3e
00000020: 725b 4f3e 3444 62bd fd9d b13d 2830 953d
00000030: c5f6 1ebe facf 59be e48f 383e 19d8 81bd
00000040: efa0 c5bc 8a6c 2cbe 9e59 9dbd 9023 1abd
00000050: 7488 383e 095e 273c 4737 d4bd 7353 cc3d
00000060: 622f 033b b676 f33d 4ae0 7b3d 1fa0 10bc
00000070: c1a6 253d 4eea b1bd e9e5 9ebd af6a e63d
00000080: 97a0 fa3c 1238 49be b6db 023e ade0 0ebe
00000090: 3eb9 173e 58a5 943d b6e8 103d 495b a93d
000000a0: 8eec c2bd 4bc6 48be 43d7 6cbd 697e 1dbe
000000b0: 1171 5f3d 705b a13d b9ea c7bd 27d5 443d
000000c0: 07ad 79bd 2d1b d5bd c6a1 8c3b c3fd 1b3d
000000d0: ef22 1d3e 5837 1f3e 9b9c 08be 8149 e33b
000000e0: 262f 503e 23f3 9c3d 9364 d23d f026 ab3d
000000f0: dd74 c33d aea1 083d de64 15be 533b a7bd
00000100: ee26 f7bc c60d cebb 9715 15be a4df 35be
00000110: 72ac 353e ce71 36be d0b4 1abe 13e9 02be
00000120: 522a 9b3d c557 00be 1d7d 283c f291 863e
00000130: 49d4 573e 31b4 8fbd a99b 88bd c63b 013e
00000140: 2a6f dd3d f222 41be 4ff9 e33d 79f4 923d
00000150: c2df 1abc 1c7b 0b3e 678c 93bd 48e0 f73c
00000160: 33ae 6e3d b2e9 2ebb c50d c63d 5aa5 d03d
00000170: fb68 06be f84e ad3c 52f1 cdbd cfbd 87bc
00000180: 7459 24bd deaf 1cbd bc3c 653d 54e2 e1bd
00000190: 13f9 4e3e 796a 193c 9649 48be d539 39be
000001a0: 61d9 58bd 4ccd 153e abb7 e03d 5615 05be
000001b0: d79b 003e 6a4a d53d 6401 e9bd 6696 be3d
000001c0: 7736 0f3e f9cb b63c c2f3 5a3e 99b7 123e
000001d0: d8bd 0e3d 1db7 09bd cdb4 c53c 0844 0f3e
000001e0: 6840 ffbc 0bde 303e 8d79 a0bd 87d0 02bd
000001f0: 6740 723d 0af3 48bd 9796 5639 9048 093e
00000200: 3299 f63c 25ca f7bd d7d0 813d 0cd9 af3c
00000210: db22 65be 7ccc 1b3e 40c6 873d b77d 09be
00000220: cd92 793d ac90 07be aa88 dbbc 7ff9 6cbe
00000230: dd16 103e 7dd9 25bc 742f 39be 8695 a03b
00000240: 4094 8abe 9fce b0be 7757 7b3d c78e a43d
00000250: 0c81 a6bb 9825 f93d 1e1c 2cbd 3833 0f3e
00000260: ac82 9cbd a1bb f9bc 59fb 66be e1e2 0fbe
00000270: 0faa 3cbe 5a03 11be 04b8 b7be 030a 17be
00000280: c777 08be 6027 e73c 350f 913c 2d10 24be
00000290: 8f7b 81bd 340e 853d bc04 243e b46a f53c
000002a0: c18a 363e db45 d03b ae8e d83d 715e 16be
000002b0: fa45 f6bb 1e8c 8f3c 4e9d ac3c aa53 f5bd
000002c0: bfa2 4cbe ca09 e93b 6944 05be e61d 7cbc
000002d0: a616 3abe ce37 7ebd 20c3 173c 18d7 c5bd
000002e0: 14dd 17be ccc2 e1bd 9c2f dfbd b74b 16bd
000002f0: 0edf 47be 4920 6f3d 4dfc 2b3d 0d19 31be
00000300: 698a 42bd cb3b 823c dac5 9bbc 44d0 f4bd
00000310: c886 503c 153a cc3d 7353 0fbe 875e 0f3e
00000320: 3464 3b3b efb3 ad3c fb20 8dbe 34ef 89be
00000330: 6ac8 9abe f64e f7bc a3fc 123d 363f 903d
00000340: 2dd5 263e b7e7 39bd a75d c5bd 1c52 00be
00000350: 5ece 19be 8d9a 63bd c433 243d 0814 b23d
00000360: c685 2fbe 416b 903c ace3 93bd 75a9 3abe
00000370: 84f1 ff3d 8100 1abe 3bdf 093e cd69 32bd
00000380: 1030 d8bd 828a 2d3c 8dd1 d5bd d0ad 3f3e
00000390: 15a6 13bd 6133 893d 1009 7ebc 369b 343e
000003a0: f526 8e3c fd8c e0bd f3a1 cebd 6806 1d3e
000003b0: ff47 6ebe 0a22 39be 7fd1 0cbe 0352 74bd
000003c0: 57ab 02bd d925 f8bd 61a7 cabd 9ca1 e5bc
000003d0: 17c3 f8bb 5f1c 9fbc d485 16bd 2d0b 8bbd
000003e0: b2ba 7c3d 3df5 84bd 2690 1e3e 0191 dd3d
000003f0: 0030 9a3d 47a6 6ebd 37d5 38be 5920 d73c
-0.01396323 -0.17015727 -0.06396202 -0.052625045 0.115988456 -0.13364266 -0.059283394 0.1404172
0.20249727 -0.055240825 0.08672712 0.07284576 -0.15523823 -0.21270743 0.1802364 -0.063400455
-0.02412459 -0.1683828 -0.07683109 -0.03763157 0.18020803 0.010215291 -0.10362106 0.09976854
0.0020017256 0.11887877 0.061493196 -0.008827238 0.040442232 -0.08687268 -0.07758696 0.11250817
0.030594153 -0.19650295 0.12779126 -0.13952895 0.14816758 0.07258099 0.03537818 0.082693644
-0.095177755 -0.19606893 -0.057822477 -0.15380253 0.054551188 0.078787684 -0.09761567 0.04805484
-0.060956027 -0.10405574 0.004291746 0.038083803 0.15345357 0.15548456 -0.1334099 0.0069362526
0.20330486 0.07663562 0.10273089 0.08357036 0.09543774 0.033357315 -0.14589259 -0.08165612
-0.03016993 -0.006288263 -0.14559017 -0.17761093 0.17741564 -0.1781685 -0.15108037 -0.12784223
0.07576431 -0.12533481 0.010283736 0.26283222 0.21077074 -0.07016791 -0.06670315 0.12620458
0.108122185 -0.18860987 0.11131536 0.07175536 -0.009452762 0.13621181 -0.07204514 0.030258313
0.058271598 -0.0026689586 0.09670595 0.10187788 -0.13125984 0.02115582 -0.10055794 -0.01657
-0.04012437 -0.038253658 0.055966124 -0.11029497 0.20212202 0.009363764 -0.19559321 -0.18088467
-0.052941684 0.14629096 0.10972532 -0.1299642 0.12559448 0.10414584 -0.11377218 0.0930603
0.1398562 0.022314059 0.21382049 0.1432785 0.034849018 -0.033621896 0.024134064 0.13990796
-0.031158641 0.17272203 -0.07835684 -0.03193715 0.05914345 -0.049059905 0.0002046473 0.13406587
0.030102346 -0.12099103 0.06338661 0.0214658 -0.22376578 0.15214723 0.0662961 -0.13426863
0.060931016 -0.13238782 -0.026798565 -0.2314205 0.14071222 -0.010122654 -0.18084508 0.004900637
-0.2706623 -0.3453264 0.06136271 0.08035045 -0.0050813016 0.121653736 -0.042019002 0.13984382
-0.07642111 -0.030484976 -0.22556819 -0.14051391 -0.18424247 -0.14161435 -0.3588258 -0.14749913
-0.13326941 0.028217018 0.017707447 -0.16021796 -0.06322395 0.0649685 0.16017431 0.029958107
0.17826368 0.0063559837 0.10574089 -0.14684464 -0.007515666 0.017522868 0.021071102 -0.11978848
-0.19983958 0.0071117627 -0.13014378 -0.015387988 -0.18172702 -0.06206494 0.00926283 -0.096601665
-0.14830428 -0.11023483 -0.10897753 -0.0366933 -0.19518682 0.0583804 0.04198866 -0.17294712
-0.04749528 0.015897652 -0.019015241 -0.11953786 0.012727447 0.09972016 -0.13996677 0.14000903
0.0028593661 0.021203963 -0.27564225 -0.2694031 -0.3023103 -0.030189019 0.035885464 0.070433065
0.16292258 -0.045386996 -0.096370034 -0.12531322 -0.15020129 -0.055567313 0.04008843 0.08695227
-0.17140874 0.017629268 -0.07221159 -0.18228705 0.12497237 -0.15039255 0.13464062 -0.04355793
-0.10556042 0.010592105 -0.10440359 0.18718648 -0.03604706 0.06699253 -0.01550509 0.17637333
0.01735256 -0.109643914 -0.10089483 0.15334475 -0.23269652 -0.18079391 -0.13751791 -0.059648525
-0.031901684 -0.12116594 -0.09895206 -0.028031163 -0.007591616 -0.019422708 -0.036748722 -0.06789241
0.061701484 -0.06492088 0.15484676 0.10818673 0.075286865 -0.058264043 -0.18050085 0.026260542

arith.constant8 f4 [128, 32]
00000000: 2a2f 28be a479 d53d e442 7dbe da00 1dbe
00000010: 4601 11be 2676 b6bc 6449 863c f2c4 86bd
00000020: f886 20be b84e b03d 6467 82bd 3176 26be
00000030: 0395 813e 3c02 d9bd a38a b33a 9ef4 a3bd
00000040: e8f7 c1bd 9306 12bd f3de 00bd b3ff 9f3b
00000050: ea19 3abb d427 4c3e 7745 303e 74a9 9d3d
00000060: bf80 1f3d 6826 063b f599 873d 6163 b03d
00000070: 0d97 e63d 385a 16be 647c 67be e0c1 89bc
00000080: b9ca 88bb bf83 0c3c 8d13 9f3b 1dcb a23c
00000090: 0f3f 76be 65b9 d83d 7d6d c7bd d954 83bd
000000a0: 42f1 a03d 0825 723d 650d 48be 8cf7 473c
000000b0: 7678 b73d 121d ec3c 5eba 13be 600b cbbd
000000c0: 62b3 233e dbb5 ebbc 49ba 923d d4b4 333e
000000d0: df5e c6bd 61fb 883d 4745 263e 9dd5 b83c
000000e0: 16a3 3a3e 91b7 f63d 81bc 203e e1a2 aa3d
000000f0: a389 813d 28c5 3ebe 8137 c2bd 4b46 0d3e
00000100: 231c 3bbd befe 8b3d 1510 b3bd f41c 36be
00000110: 77ed 063e c4d2 66bc f4b8 10be ced3 ad3d
00000120: 61d8 f33d b722 7ebc 7313 813d 6e81 86bc
00000130: 8914 a73d 6564 793d 7144 493e 462a 49be
00000140: e041 4f3c 5547 343e 5f76 e03d 24c6 3bbe
00000150: 34ff 80bd 37f1 143e 67b9 adbd dcbf 15be
00000160: a3c4 653d 9e47 31bd e498 28be b707 f5bc
00000170: 2476 5bbd e6c6 f8bd bf2a 89bd 81e9 c03d
00000180: 60d0 1e3e a73f 5fbe 76ed 383d 6ebd 06be
00000190: 2968 c2bb bc9d 233e 1e63 a43d c597 c23d
000001a0: 9ac1 cb3d cb51 d03c 1d2d 063e 09a7 753d
000001b0: 36ac 5fbd 23f4 06be f871 19be 289e 933d
000001c0: 2241 25be 3b1a 903d b04b 00be c167 6dbe
000001d0: e320 84bd ecc1 6bbe 4253 5a3b 3679 923c
000001e0: 71e9 cfba c8fc 0bbc 2a45 4bbe 6f92 1cbe
000001f0: e0ec bbbd ac8c 3b3e 9e0c 9a37 4044 fc3c
00000200: a6a9 40be 91ae cebd 0804 e83d 6c39 eb3d
00000210: ca0c 58bb 8d8b e5bc 951d 943d a56e 87bb
00000220: c22d 4abd 6baf 093e 2f87 bb3d 7b60 8d3e
00000230: d9f5 a0bd 85ed 88bd dda3 123e fd93 6e3d
00000240: ed64 61be d39c f23c 694e acbd eb12 bebd
00000250: 3b45 d43b 8e5a aebd e219 d5bd f000 5bbe
00000260: 081c b9bc 9f26 093d a39a a5bd c0ae e1bd
00000270: cdcb 94bd 6424 ccbd c5d1 e63d 6fb5 0c3d
00000280: 1595 473e f767 24be 8e10 67be dd59 a8bd
00000290: 6a0c 4fbc fb90 b73d c1f0 393e e8f4 323d
000002a0: c62c bbbd 3c51 66bd bd59 21be 2235 2fbe
000002b0: 67a0 3e3b 671e 20be 6378 4fbe 2e44 043d
000002c0: a75b 12be e53f e8bd 2852 f23d 7767 1ebe
000002d0: 2af2 0a3e 8598 6b3d c976 18be 182e 33bd
000002e0: 9801 253e 45b2 0abe ba51 693e 426b 73bc
000002f0: 2343 333d a6e9 02bd 1e52 0e3d f6dc 533e
00000300: fc10 74bd 8799 7fbe 1b51 883d f947 9c3d
00000310: a643 35be 84fe b13d 1b46 9f3d 8779 88bd
00000320: 8fac 92bd 5eeb 28be 06de 613d 66c0 d0bc
00000330: d735 02be 8bdc 353e 3b60 14be e8ba 153e
00000340: 7f97 10be 6fd2 1d3d a6d4 023c d236 3ebd
00000350: 95c4 473b 7570 2dbe 305d dcbd b33b 023d
00000360: 4541 383e fd08 0d3e 7589 e23d 9e81 6cbc
00000370: e46c 4a3d 91c5 57be 3853 1cbe af06 c7bd
00000380: 466f 44bd 8bc6 b2bd a3b5 cf3c 0f41 d43d
00000390: e8af a13b 38d6 7bbc 6ac2 f03d ab29 e5bc
000003a0: 2caa 0fbe 5f8c 3abe 3374 8abd 0878 6e3e
000003b0: 1885 8d3d a60a 953c 6962 113e c4bd e7bd
000003c0: 5bdc 853c b20f 28be 9775 f4bd f6e9 a6ba
000003d0: aaf9 133e 69f1 c9bd 041b 20be 5acb fbbd
000003e0: 3acd 983c 501f d1bd 8b2b 19be 5fd9 e1bd
000003f0: c739 73bc 3bb0 113e 2df8 b1bd 4f73 45be
-0.16424242 0.10423592 -0.24732548 -0.15332356 -0.14160642 -0.022273134 0.016392417 -0.06580533
-0.15676486 0.086087644 -0.063673764 -0.16256024 0.25309 -0.10596129 0.0013697933 -0.080056414
-0.094711125 -0.0356508 -0.03146262 0.0048827766 -0.0028396794 0.19937068 0.17213999 0.07698336
0.03894114 0.002046967 0.06621162 0.08612705 0.112592794 -0.14682853 -0.22606045 -0.01681608
-0.004174557 0.008576333 0.0048546256 0.019872243 -0.24047492 0.10582236 -0.0973768 -0.06412668
0.07858516 0.059117347 -0.1953636 0.012205016 0.08958523 0.028822456 -0.14426562 -0.09914279
0.15986398 -0.028773239 0.07164437 0.17549449 -0.09686064 0.06688572 0.16237365 0.022562796
0.18226275 0.12046731 0.15696909 0.08331848 0.0632508 -0.18629897 -0.09483243 0.13796346
-0.04568113 0.068356976 -0.08743302 -0.17784482 0.13176523 -0.014088336 -0.14133054 0.08487664
0.119065054 -0.015511206 0.06302538 -0.016419139 0.08158214 0.06088676 0.19655015 -0.19645032
0.012649983 0.17605336 0.109600775 -0.18337303 -0.06298676 0.14545141 -0.08482628 -0.1462397
0.05609573 -0.04328119 -0.16464573 -0.029910905 -0.053579465 -0.12147312 -0.06697606 0.09419537
0.15509176 -0.21801625 0.045148335 -0.13158199 -0.005932827 0.1597814 0.080267176 0.09501604
0.09949036 0.025429627 0.13103147 0.05997375 -0.054607593 -0.13179068 -0.14984882 0.072079
-0.16138127 0.07036253 -0.12528872 -0.2318411 -0.06451585 -0.23023194 0.0033313786 0.017880064
-0.0015862418 -0.008544154 -0.19850603 -0.15290235 -0.0917604 0.18315381 1.8364106e-05 0.030794263
-0.18814716 -0.1009189 0.11328894 0.11485562 -0.0032966607 -0.028020645 0.07232205 -0.004133063
-0.049360044 0.13445823 0.091566436 0.2761267 -0.07859392 -0.06685928 0.14320321 0.0582466
-0.22011156 0.029615795 -0.08413393 -0.09280952 0.0064779795 -0.08513366 -0.104053274 -0.21387076
-0.022596374 0.033484098 -0.08086135 -0.11019659 -0.072654344 -0.099678785 0.11270479 0.034352716
0.19490464 -0.16055284 -0.22564909 -0.08220265 -0.012637237 0.089632 0.18158247 0.043690592
-0.09139399 -0.056229815 -0.15756889 -0.17110112 0.0029087306 -0.15636598 -0.20260768 0.032291584
-0.14292775 -0.11340312 0.11832076 -0.15469156 0.13568941 0.0575185 -0.14889063 -0.04374513
0.16113889 -0.13544567 0.22785082 -0.014857115 0.0437652 -0.031961106 0.03474628 0.20689759
-0.05958651 -0.2496091 0.06656095 0.07630915 -0.17701587 0.08691123 0.077770434 -0.066638045
-0.07161819 -0.16496035 0.05514338 -0.025482368 -0.12715851 0.17759912 -0.14489834 0.1462208
-0.14120291 0.038530763 0.00798527 -0.046439 0.0030482162 -0.1693743 -0.107599616 0.031795215
0.17993648 0.1377296 0.11061374 -0.0144352 0.049420252 -0.2107146 -0.1526612 -0.09718072
-0.04795768 -0.08729275 0.025355166 0.103639714 0.0049342997 -0.015370898 0.117558315 -0.02797397
-0.14029759 -0.1821761 -0.067604445 0.23287976 0.06910151 0.018193554 0.14197697 -0.11315492
0.016340425 -0.16412237 -0.11936491 -0.0012734521 0.14450708 -0.098604985 -0.15635306 -0.122946456
0.018652547 -0.102110505 -0.14958017 -0.11027788 -0.014845318 0.14227383 -0.08689914 -0.19282268

arith.constant9 f4 [2]
00000000: 08b9 863c b429 42bd
0.016445652 -0.047403052

arith.constant10 f4 [128]
00000000: 9799 843d b199 8bbd 5b80 81bd 568d 9b3d
00000010: e202 903d 00b0 e73c c441 45be e529 68bd
00000020: 81b0 793d b922 abbd dd05 b43d e20c 103d
00000030: b3e3 a73d a290 673d cc38 3d3d a675 ed3d
00000040: 1d70 553d 85e5 513d 833d ac3d 718b bbbd
00000050: f098 31bd 543c bcbd d42f 9e3d ce41 1a3d
00000060: dc0d 99bd be0b 323c f872 663d c94d 42bd
00000070: 04b0 6abd 6888 83bd 58b1 ba3d a5aa 31bd
00000080: 592e 13bd 0d02 28be 4fcb 7a3c 4635 88be
00000090: 822b 9e3d 98b1 4d3d 1aea f93d a3a9 893d
000000a0: 20e2 aa3d cdef b63c 7e25 3ebd b1ff a9bb
000000b0: 2f77 803d 56b1 adbc 985f b43d 901b 9b3d
000000c0: c33d 82bd 01dd 793d 7eef 00be fe71 2d3d
000000d0: 6d79 2ebd 45ab 853d cd18 83bd b8bf 333d
000000e0: 6968 943d ca3b 43bd f46d 5d3d 511a 51bd
000000f0: 9ad7 b4bd bedc e13d ab80 c53b 816f f23d
00000100: af51 8b3d 7de7 af3d 366c de3b 5409 bd3d
00000110: ed4c 343d 380e 573d 3157 4e3d f037 9d3d
00000120: cfb5 803d fd88 e93c 8eed 873d 0d85 a03d
00000130: 1b83 8a3d 591e 0abd 9d21 f5bd 5784 d0bc
00000140: f611 39bd b25b f4bb 48da 663d 346b c83c
00000150: c8ca eb3c c34a d13d f1d6 fe3c 2299 883d
00000160: 6ce2 1f3d 0d64 703c 67f0 51be 9cf7 ce3c
00000170: d150 a23d f845 7c3c 0854 b0bd d904 7dbd
00000180: 4346 513c 0e5a 7d3d 1e0d 173d 0171 91bc
00000190: cc54 413c 76e4 393d 77f0 bf3d 2063 2f3e
000001a0: 079c 823d 86a1 07bd c796 853d 006a 01bc
000001b0: f1f2 8e3d 29c3 a83c d2f1 733c 6090 833d
000001c0: 8371 5ebd f50d 033d 39bd 5c3d bb7e 86bd
000001d0: a7d9 6e3d 6314 d93d 6e9c 52bd 0f86 923d
000001e0: 4ba3 443d 655e ae3d 151c 013e 91c5 bc3d
000001f0: 8f76 043e 11ed 88be 4bd1 29be 599b 1c3e
0.064746074 -0.06816424 -0.0632331 0.07595317 0.070318 0.028282166 -0.19263369 -0.05668058
0.060959343 -0.08356232 0.08790181 0.035168536 0.08197727 0.056534417 0.046196744 0.11594705
0.052108873 0.051244278 0.0841017 -0.09157456 -0.043358743 -0.09191194 0.07723966 0.037660412
-0.074733466 0.010867057 0.056261986 -0.047437463 -0.057296768 -0.06422502 0.09115857 -0.04337563
-0.035932872 -0.16407032 0.015307262 -0.26603144 0.07723142 0.050218195 0.122028545 0.06721809
0.08343911 0.022331143 -0.046422474 -0.0051879515 0.062727325 -0.021202724 0.088072956 0.075736165
-0.06359436 0.06100178 -0.12591359 0.04234504 -0.04259627 0.06526808 -0.06401215 0.04388401
0.07246477 -0.04766444 0.054059938 -0.051050488 -0.08830185 0.11028431 0.0060273013 0.11837674
0.06802689 0.08589075 0.006787802 0.09230295 0.044018675 0.052503794 0.05037612 0.07676685
0.06284677 0.028507704 0.06637107 0.078378774 0.06763288 -0.033720348 -0.11969302 -0.02545373
-0.045183145 -0.00745722 0.056360513 0.024465181 0.028783217 0.10219338 0.031108351 0.06669833
0.039034292 0.014672291 -0.20501862 0.025264554 0.07925571 0.015397541 -0.08609778 -0.0617722
0.012773099 0.06185346 0.036877744 -0.01775408 0.011800002 0.045383893 0.09372037 0.17127657
0.06377416 -0.033113025 0.06522899 -0.0078988075 0.06979931 0.020600872 0.014889197 0.06424022
-0.054307472 0.031995732 0.053891394 -0.06567141 0.05831304 0.105995916 -0.051418714 0.07154476
0.04800729 0.08514098 0.12608369 0.0921737 0.12935852 -0.26743367 -0.16583745 0.15293635

arith.constant11 f4 [64]
00000000: 6351 21be 21ac 343e 5ea4 19bd e2da 553e
00000010: 4693 803e 28cf 9dbd b138 323e 09ea 5a3e
00000020: c613 153e 3d38 773e 5071 d33d fc02 29be
00000030: 4e59 793e e332 5e3e eeb2 6f3e 2f43 3b3e
00000040: 3404 7b3e 1529 5a3e 1301 8a3e c03b 703e
00000050: 419a 0bbe 60f5 11be b49f 563e 9a4e 44be
00000060: 8a7b 3fbe b245 633d cb45 713e bdc4 f13d
00000070: 1d9c 193e f64d 713e 3675 12be 5bd3 3b3d
00000080: db1b 893e e620 8cbc 6b09 a2bd 05f9 103d
00000090: 49e0 19be 1684 7a3e a030 473e d9de 593e
000000a0: 0323 1dbe 0879 3a3e e2c3 503e 09b1 20be
000000b0: 296f 6c3d cd7c a03e 6aa1 643e baf7 efbd
000000c0: 385d 6e3e 8457 04bc 8284 0abe 77c5 6e3e
000000d0: 5090 273e 1037 febd 15fb 8c3e ed93 073e
000000e0: e472 903e bb3f 42bc 4fdc cfbd 528e 4e3e
000000f0: 9792 fc3d 3de3 803e d782 7b3e ba7e 713e
-0.15753703 0.17643787 -0.03751027 0.20884278 0.2511236 -0.077055275 0.17404439 0.2137834
0.14558324 0.24142547 0.10324347 -0.16505045 0.24350473 0.21699099 0.234081 0.18287347
0.24513322 0.21304734 0.26953945 0.23460293 -0.13633062 -0.1425376 0.2095936 -0.19170609
-0.1869947 0.05548639 0.2356178 0.11805103 0.15000959 0.23564896 -0.14302525 0.04585586
0.26779065 -0.017105531 -0.079119526 0.035393734 -0.15026964 0.2446445 0.19452143 0.21276416
-0.15345387 0.18210232 0.20387223 -0.15692534 0.057723198 0.31345215 0.223272 -0.11717172
0.23277748 -0.008077506 -0.1352711 0.23317514 0.16363645 -0.12412846 0.2753531 0.13240023
0.28212655 -0.011856015 -0.101494424 0.20171478 0.12332647 0.2517337 0.2456163 0.23583499

functional_1/batch_normalization_1/batchnorm/mul f4 [3]
00000000: 0295 9f3b 3c9e 983b c062 543b
0.004870058 0.004657535 0.0032407492

functional_1/batch_normalization_1/batchnorm/sub f4 [3]
00000000: b9e1 2ebf 51d3 21bf dfa1 d9be
-0.68313175 -0.6321307 -0.4250631
