ana0700q.tflite (tflite, 89072 bytes, 6 tensors)

sequential/dense/MatMul i1 [128, 32] scale=0.0036447719 zero_point=0
0.12027747 0.025513403 -0.17494905 0.029158175 -0.12027747 0.07289544 -0.17859381 0.0072895437
-0.047382034 -0.11298793 -0.09476407 0.010934316 -0.1166327 0.12392224 0.1822386 -0.21868631
0.0911193 0.087474525 -0.1931729 -0.16036996 -0.06196112 -0.21504155 0.09840884 0.105698384
0.16036996 -0.0036447719 -0.1676595 0.043737262 -0.22962064 -0.021868631 0.105698384 -0.08018498
0.07289544 0.06196112 -0.032802947 0.043737262 -0.051026806 -0.08018498 -0.16036996 -0.051026806
0.34625334 -0.22962064 -0.18588337 0.12392224 0.025513403 0.032802947 -0.07289544 0.22597586
-0.2952265 0.07654021 0.0072895437 -0.021868631 -0.25148925 -0.12392224 -0.16401473 0.047382034
-0.1676595 0.04009249 0.025513403 0.09840884 0.0072895437 0.13121179 -0.0072895437 -0.0036447719
-0.065605894 0.06196112 -0.13121179 0.069250666 -0.047382034 0.12027747 -0.021868631 -0.021868631
0.087474525 -0.13121179 -0.1676595 0.069250666 -0.04009249 -0.20775199 -0.109343156 -0.09476407
-0.20046246 -0.047382034 -0.010934316 0.12027747 0.021868631 0.1822386 0.12027747 -0.01822386
-0.21868631 0.13485655 0.105698384 0.054671578 -0.32073992 -0.051026806 0.07289544 0.05831635
0.13121179 -0.16401473 0.047382034 0.05831635 0.1567252 -0.09476407 0.043737262 -0.14943564
-0.07289544 -0.07654021 -0.1567252 0.09476407 0.0145790875 0.051026806 -0.12027747 -0.18952814
-0.10205361 -0.051026806 0.065605894 0.13121179 0.11298793 -0.16401473 -0.01822386 -0.11298793
0.06196112 -0.054671578 0.07289544 0.0145790875 0.1166327 -0.13485655 -0.1931729 -0.13485655
-0.09476407 0.021868631 -0.08018498 0.08018498 0.025513403 0.047382034 -0.18952814 0.15308042
0.08382975 0.0 -0.30616084 -0.025513403 -0.054671578 -0.105698384 -0.032802947 -0.2332654
-0.065605894 0.09840884 -0.17859381 0.054671578 -0.21504155 -0.0911193 -0.06196112 0.032802947
-0.15308042 -0.07654021 0.07654021 0.12756702 0.01822386 0.054671578 0.1567252 0.0145790875
0.15308042 -0.07654021 0.0072895437 0.054671578 -0.05831635 0.01822386 0.08382975 -0.26242357
-0.065605894 -0.22233108 0.14943564 -0.032802947 -0.11298793 0.109343156 -0.16401473 -0.28064743
0.04009249 -0.24419972 -0.065605894 0.08018498 -0.06196112 -0.04009249 -0.029158175 0.0145790875
0.16036996 -0.21504155 -0.1166327 0.03644772 0.27700266 0.01822386 0.0911193 -0.054671578
-0.1166327 -0.24784449 0.14943564 0.03644772 -0.1676595 -0.18588337 -0.13121179 0.08018498
-0.01822386 0.2697131 -0.05831635 -0.15308042 -0.05831635 -0.0911193 0.1931729 -0.01822386
0.1931729 0.0 -0.12756702 -0.0145790875 0.16036996 0.08018498 0.20410722 0.20410722
0.06196112 0.09840884 -0.1567252 0.047382034 0.032802947 -0.24419972 -0.20775199 0.069250666
-0.14579087 -0.0036447719 -0.24419972 0.21504155 0.04009249 0.08382975 0.109343156 -0.2733579
0.1166327 -0.31709516 -0.14943564 -0.051026806 0.0072895437 -0.051026806 0.0145790875 0.08018498
-0.14943564 0.08382975 0.029158175 0.07654021 0.010934316 0.11298793 -0.09840884 -0.1567252
-0.065605894 -0.07654021 0.010934316 -0.1567252 0.26606834 0.13850133 0.06196112 0.1166327
00000000: 2107 d008 df14 cf02 f3e1 e603 e022 32c4
00000010: 1918 cbd4 efc5 1b1d 2cff d20c c1fa 1dea
00000020: 1411 f70c f2ea d4f2 5fc1 cd22 0709 ec3e
00000030: af15 02fa bbde d30d d20b 071b 0224 feff
00000040: ee11 dc13 f321 fafa 18dc d213 f5c7 e2e6
00000050: c9f3 fd21 0632 21fb c425 1d0f a8f2 1410
00000060: 24d3 0d10 2be6 0cd7 eceb d51a 040e dfcc
00000070: e4f2 1224 1fd3 fbe1 11f1 1404 20db cbdb
00000080: e606 ea16 070d cc2a 1700 acf9 f1e3 f7c0
00000090: ee1b cf0f c5e7 ef09 d6eb 1523 050f 2b04
000000a0: 2aeb 020f f005 17b8 eec3 29f7 e11e d3b3
000000b0: 0bbd ee16 eff5 f804 2cc5 e00a 4c05 19f1
000000c0: e0bc 290a d2cd dc16 fb4a f0d6 f0e7 35fb
000000d0: 3500 ddfc 2c16 3838 111b d50d 09bd c713
000000e0: d8ff bd3b 0b17 1eb5 20a9 d7f2 02f2 0416
000000f0: d717 0815 031f e5d5 eeeb 03d5 4926 1120

sequential/dense_1/MatMul i1 [64, 128] scale=0.0033055295 zero_point=0
-0.15205435 -0.12561011 0.06280506 -0.17188753 -0.06611059 -0.118999064 -0.04627741 -0.023138706
-0.31071976 -0.0892493 -0.14213777 -0.095860355 -0.35369167 0.06280506 -0.14874883 -0.013222118
0.10247141 0.082638234 0.04627741 -0.056194 -0.049582943 -0.006611059 -0.019833177 -0.224776
-0.006611059 0.09255482 0.07602718 0.06280506 -0.12891565 0.029749766 -0.06611059 -0.019833177
0.07933271 -0.082638234 0.023138706 0.06280506 -0.09255482 -0.12561011 0.016527647 0.109082475
-0.118999064 -0.039666355 -0.12561011 0.07933271 -0.118999064 -0.072721645 0.023138706 -0.06280506
-0.10247141 -0.085943766 -0.05288847 -0.049582943 0.019833177 0.13883224 -0.072721645 -0.09916589
0.06611059 0.056194 0.0 0.12561011 -0.168582 -0.109082475 -0.016527647 0.16527647
-0.033055294 -0.09255482 0.13883224 -0.26113683 0.059499532 0.15205435 -0.23138706 -0.13883224
-0.24791472 -0.14213777 0.085943766 0.14213777 -0.11569353 0.006611059 0.036360823 -0.18180412
-0.06941612 -0.24130365 -0.0033055295 0.013222118 -0.0033055295 0.023138706 -0.16197094 -0.026444236
-0.28758106 -0.085943766 -0.026444236 0.10577694 -0.039666355 0.0892493 -0.109082475 -0.3503861
0.14544329 0.036360823 -0.26444235 0.14213777 0.0892493 0.009916589 -0.17188753 0.049582943
-0.016527647 -0.12891565 -0.019833177 0.06941612 -0.16527647 -0.029749766 0.14874883 -0.042971883
0.056194 0.059499532 0.15535988 -0.06280506 0.24791472 0.20824836 -0.039666355 -0.036360823
0.059499532 -0.085943766 0.059499532 0.019833177 0.04627741 0.10247141 0.10577694 -0.22147048
-0.029749766 0.016527647 -0.0033055295 -0.05288847 0.21485941 -0.085943766 -0.14213777 -0.20824836
0.013222118 -0.28427553 0.13883224 -0.042971883 0.112388 -0.14544329 0.013222118 -0.1784986
0.109082475 -0.19833177 0.10577694 0.13883224 -0.18180412 0.168582 0.0 0.11569353
0.029749766 0.09255482 -0.109082475 -0.019833177 0.1355267 0.072721645 -0.06280506 0.15866542
-0.016527647 -0.085943766 -0.10247141 -0.05288847 0.029749766 0.12230459 -0.072721645 0.15866542
-0.1784986 -0.10577694 -0.18841518 -0.013222118 0.1355267 0.072721645 0.109082475 0.072721645
-0.06280506 -0.17188753 0.10247141 -0.026444236 -0.3140253 0.12561011 -0.07602718 -0.12561011
0.072721645 0.168582 -0.085943766 0.15866542 -0.09255482 -0.17188753 -0.085943766 -0.14874883
-0.07602718 -0.168582 -0.118999064 -0.06941612 -0.15535988 -0.15535988 0.019833177 0.13222118
-0.112388 -0.24130365 0.029749766 0.039666355 0.036360823 0.023138706 0.12230459 -0.10247141
-0.3041087 -0.0033055295 -0.09255482 -0.19833177 0.033055294 0.109082475 -0.18841518 0.06280506
-0.25122023 0.05288847 -0.085943766 -0.0033055295 -0.049582943 -0.14213777 -0.07933271 -0.06611059
0.14874883 0.019833177 -0.30741423 0.04627741 -0.04627741 0.18510965 -0.16197094 -0.12561011
-0.29749766 -0.20824836 0.14874883 -0.14874883 0.0033055295 0.009916589 0.109082475 -0.082638234
-0.029749766 -0.15535988 -0.04627741 0.023138706 0.029749766 -0.023138706 -0.14213777 -0.029749766
0.026444236 -0.09916589 -0.14544329 0.0033055295 -0.023138706 0.023138706 0.10577694 -0.04627741
00000000: d2da 13cc ecdc f2f9 a2e5 d5e3 9513 d3fc
00000010: 1f19 0eef f1fe fabc fe1c 1713 d909 ecfa
00000020: 18e7 0713 e4da 0521 dcf4 da18 dcea 07ed
00000030: e1e6 f0f1 062a eae2 1411 0026 cddf fb32
00000040: f6e4 2ab1 122e bad6 b5d5 1a2b dd02 0bc9
00000050: ebb7 ff04 ff07 cff8 a9e6 f820 f41b df96
00000060: 2c0b b02b 1b03 cc0f fbd9 fa15 cef7 2df3
00000070: 1112 2fed 4b3f f4f5 12e6 1206 0e1f 20bd
00000080: f705 fff0 41e6 d5c1 04aa 2af3 22d4 04ca
00000090: 21c4 202a c933 0023 091c dffa 2916 ed30
000000a0: fbe6 e1f0 0925 ea30 cae0 c7fc 2916 2116
000000b0: edcc 1ff8 a126 e9da 1633 e630 e4cc e6d3
000000c0: e9cd dceb d1d1 0628 deb7 090c 0b07 25e1
000000d0: a4ff e4c4 0a21 c713 b410 e6ff f1d5 e8ec
000000e0: 2d06 a30e f238 cfda a6c1 2dd3 0103 21e7
000000f0: f7d1 f207 09f9 d5f7 08e2 d401 f907 20f2

sequential/dense_2/MatMul i1 [2, 64] scale=0.003002447 zero_point=0
-0.3242643 -0.32126182 0.11109054 0.003002447 -0.32126182 -0.25220555 0.03002447 -0.054044046
0.027022023 0.27022025 0.09607831 -0.09607831 -0.03302692 -0.28823492 -0.24620067 0.35128632
0.045036707 0.036029365 -0.0510416 0.27322268 -0.11709543 0.036029365 -0.027022023 0.17714438
-0.06905628 -0.012009788 0.12910523 0.036029365 0.16213214 0.07205873 -0.04203426 0.18915416
-0.006004894 -0.009007341 -0.1531248 0.19816151 0.27622512 0.21317375 0.29423982 0.02101713
-0.03903181 -0.09307586 -0.17414193 0.07806362 0.036029365 0.11109054 -0.27022025 -0.2492031
-0.06605384 0.20116395 0.18615171 -0.03302692 -0.15012236 0.23719332 0.18615171 -0.14711991
-0.23719332 -0.10508565 -0.09307586 -0.30024472 0.07806362 -0.20116395 0.28223002 -0.054044046
-0.28523248 0.12310033 -0.28523248 0.35128632 -0.03903181 0.3813108 -0.3242643 -0.03903181
-0.33327162 -0.018014682 -0.024019577 0.24319822 0.024019577 0.32726672 -0.10508565 0.24019577
0.0510416 -0.2101713 -0.27922758 0.07506118 -0.009007341 0.2041664 0.012009788 0.08406852
0.34227896 -0.04203426 -0.16213214 -0.3062496 -0.25520802 0.22218108 0.027022023 0.009007341
0.17113948 0.20716885 0.006004894 -0.3122545 0.015012235 -0.12910523 -0.23118843 0.057046495
0.03302692 0.11409299 -0.18014683 -0.14711991 0.12009788 -0.1651346 0.25220555 0.027022023
-0.19515906 -0.24620067 0.27022025 -0.02101713 -0.1020832 0.1020832 -0.06905628 0.21617618
0.027022023 -0.08106607 0.03903181 0.027022023 -0.22818598 -0.26421535 0.03002447 -0.024019577
00000000: 9495 2501 95ac 0aee 095a 20e0 f5a0 ae75
00000010: 0f0c ef5b d90c f73b e9fc 2b0c 3618 f23f
00000020: fefd cd42 5c47 6207 f3e1 c61a 0c25 a6ad
00000030: ea43 3ef5 ce4f 3ecf b1dd e19c 1abd 5eee
00000040: a129 a175 f37f 94f3 91fa f851 086d dd50
00000050: 11ba a319 fd44 041c 72f2 ca9a ab4a 0903
00000060: 3945 0298 05d5 b313 0b26 c4cf 28c9 5409
00000070: bfae 5af9 de22 e948 09e5 0d09 b4a8 0af8

sequential/conv2d/Conv2D i1 [64, 5, 5, 3]
-62 8 5 -21 -21 -7 -16 -59
-68 41 -38 -39 29 -29 -36 18
56 105 -32 -36 1 6 -24 -15
-17 -66 -49 -11 -42 -34 13 117
127 -3 16 32 -17 -43 -38 20
-42 -75 23 -49 -18 -47 85 79
-8 -16 -15 -24 -13 -3 6 -9
-17 21 31 7 2 77 80 14
-8 24 16 -36 -19 20 -65 -38
37 -19 -32 -36 -84 -127 -79 -42
-89 -16 17 31 -64 20 4 -57
65 56 51 -14 -33 -4 -41 -13
42 39 36 -69 13 10 -87 -6
51 -54 -76 -58 59 40 14 47
-12 13 27 56 89 -121 -10 -13
-1 -55 -5 69 6 55 -31 -8
10 -13 49 38 -53 -28 47 7
-100 -7 82 11 55 53 -20 4
-7 -23 7 -78 13 7 75 14
-6 54 -15 11 65 -59 -6 -101
-127 -100 -16 51 69 47 35 41
18 -18 -37 -23 -92 -79 -9 -36
32 -5 102 56 -34 -44 -55 2
-55 -56 -9 -64 -52 -2 29 42
-86 80 90 -36 -39 -87 -30 -20
-57 54 -35 3 65 36 66 -39
52 80 -25 -56 -27 25 -25 -48
94 -16 13 -15 21 28 -29 54
17 -75 -5 30 -127 -18 -57 -62
7 -7 -112 -60 -68 34 21 59
5 64 49 -102 -50 -4 -32 -15
-7 -77 -62 21 26 18 23 -68
00000000: c208 05eb ebf9 f0c5 bc29 dad9 1de3 dc12
00000010: 3869 e0dc 0106 e8f1 efbe cff5 d6de 0d75
00000020: 7ffd 1020 efd5 da14 d6b5 17cf eed1 554f
00000030: f8f0 f1e8 f3fd 06f7 ef15 1f07 024d 500e
00000040: f818 10dc ed14 bfda 25ed e0dc ac81 b1d6
00000050: a7f0 111f c014 04c7 4138 33f2 dffc d7f3
00000060: 2a27 24bb 0d0a a9fa 33ca b4c6 3b28 0e2f
00000070: f40d 1b38 5987 f6f3 ffc9 fb45 0637 e1f8
00000080: 0af3 3126 cbe4 2f07 9cf9 520b 3735 ec04
00000090: f9e9 07b2 0d07 4b0e fa36 f10b 41c5 fa9b
000000a0: 819c f033 452f 2329 12ee dbe9 a4b1 f7dc
000000b0: 20fb 6638 ded4 c902 c9c8 f7c0 ccfe 1d2a
000000c0: aa50 5adc d9a9 e2ec c736 dd03 4124 42d9
000000d0: 3450 e7c8 e519 e7d0 5ef0 0df1 151c e336
000000e0: 11b5 fb1e 81ee c7c2 07f9 90c4 bc22 153b
000000f0: 0540 319a cefc e0f1 f9b3 c215 1a12 17bc

sequential/conv2d_1/Conv2D i1 [32, 5, 5, 64]
-33 78 -12 65 -24 99 -31 -107
-108 25 39 53 41 -10 58 -19
33 13 -9 -27 -2 68 -75 -86
-9 74 15 9 49 -10 95 78
32 76 87 98 -77 -76 -84 -11
-5 -105 59 -66 -49 -113 -18 -87
51 71 28 56 25 -24 19 -34
-42 -24 93 -79 -25 -115 89 -107
0 -79 44 -110 18 88 -112 89
77 -69 -80 68 75 6 -40 -73
66 16 51 89 28 -56 -14 16
-32 98 96 51 -39 -1 -44 -92
5 54 -11 -92 -79 -10 -97 -107
86 -84 -11 42 -70 88 -118 -43
-89 -88 60 78 72 30 29 64
-60 77 55 -79 13 10 -80 -69
76 82 -47 -8 -67 -52 -35 -87
-99 -110 -111 9 31 4 -15 -90
-49 23 -51 0 -13 -57 34 -56
-65 90 49 93 -83 -97 78 -56
76 -76 -32 -22 -95 30 -18 88
-105 48 -70 -89 -39 -41 28 -6
77 15 33 -64 -25 99 -62 -64
-13 35 76 -90 -78 -90 -76 -107
-64 42 65 -51 -83 -45 67 -18
-80 -15 23 -61 12 -7 -32 19
18 -41 -78 -70 -34 60 -4 4
-74 -69 -45 37 -67 -3 67 64
-59 -92 22 61 84 94 -52 104
-35 70 -91 -32 25 46 -12 -78
59 -58 85 14 6 -34 -3 -16
46 20 65 -47 8 30 88 64
00000000: df4e f441 e863 e195 9419 2735 29f6 3aed
00000010: 210d f7e5 fe44 b5aa f74a 0f09 31f6 5f4e
00000020: 204c 5762 b3b4 acf5 fb97 3bbe cf8f eea9
00000030: 3347 1c38 19e8 13de d6e8 5db1 e78d 5995
00000040: 00b1 2c92 1258 9059 4dbb b044 4b06 d8b7
00000050: 4210 3359 1cc8 f210 e062 6033 d9ff d4a4
00000060: 0536 f5a4 b1f6 9f95 56ac f52a ba58 8ad5
00000070: a7a8 3c4e 481e 1d40 c44d 37b1 0d0a b0bb
00000080: 4c52 d1f8 bdcc dda9 9d92 9109 1f04 f1a6
00000090: cf17 cd00 f3c7 22c8 bf5a 315d ad9f 4ec8
000000a0: 4cb4 e0ea a11e ee58 9730 baa7 d9d7 1cfa
000000b0: 4d0f 21c0 e763 c2c0 f323 4ca6 b2a6 b495
000000c0: c02a 41cd add3 43ee b0f1 17c3 0cf9 e013
000000d0: 12d7 b2ba de3c fc04 b6bb d325 bdfd 4340
000000e0: c5a4 163d 545e cc68 dd46 a5e0 192e f4b2
000000f0: 3bc6 550e 06de fdf0 2e14 41d1 081e 5840

sequential/conv2d_2/Conv2D i1 [32, 3, 3, 32]
65 -30 -53 23 83 48 -75 -39
-76 -101 37 -23 71 -22 79 -80
-94 -39 -39 6 -8 -55 62 -101
-76 30 -38 60 -48 -58 -57 -42
88 -30 -48 25 42 51 2 53
-97 79 -54 88 43 -25 -52 -51
87 -97 -68 9 24 -73 66 -105
36 -99 50 -31 -80 -73 -25 83
-64 -76 36 -28 63 30 -19 -67
-21 42 1 21 -85 24 -15 -36
97 94 -98 55 -21 -18 -11 -8
10 30 35 66 -42 -59 -61 98
3 21 18 -91 -56 -51 -93 -91
83 -65 -74 -26 88 23 96 72
-14 54 -63 40 6 -124 14 0
-49 42 -94 -114 66 -26 6 -11
40 64 -34 82 -2 21 -91 56
86 -80 -13 -47 70 -18 -13 80
64 3 -42 -47 9 8 82 -35
-101 65 -21 48 -60 -95 67 -56
22 -1 48 2 80 37 89 -7
-10 43 -87 22 15 -55 -14 22
78 74 63 30 -70 -95 101 -81
-127 -65 -64 -29 36 -39 -38 69
-5 68 32 33 -87 -93 -14 39
-88 -28 -106 34 25 -16 -79 -43
-95 -24 70 74 76 -10 -63 -16
65 30 34 -64 1 -62 -39 68
81 56 101 -94 -36 23 -81 -83
-5 -28 -72 -71 54 47 24 88
102 20 79 45 -105 -50 -99 -34
-39 -80 -82 -67 -76 -92 -59 82
00000000: 41e2 cb17 5330 b5d9 b49b 25e9 47ea 4fb0
00000010: a2d9 d906 f8c9 3e9b b41e da3c d0c6 c7d6
00000020: 58e2 d019 2a33 0235 9f4f ca58 2be7 cccd
00000030: 579f bc09 18b7 4297 249d 32e1 b0b7 e753
00000040: c0b4 24e4 3f1e edbd eb2a 0115 ab18 f1dc
00000050: 615e 9e37 ebee f5f8 0a1e 2342 d6c5 c362
00000060: 0315 12a5 c8cd a3a5 53bf b6e6 5817 6048
00000070: f236 c128 0684 0e00 cf2a a28e 42e6 06f5
00000080: 2840 de52 fe15 a538 56b0 f3d1 46ee f350
00000090: 4003 d6d1 0908 52dd 9b41 eb30 c4a1 43c8
000000a0: 16ff 3002 5025 59f9 f62b a916 0fc9 f216
000000b0: 4e4a 3f1e baa1 65af 81bf c0e3 24d9 da45
000000c0: fb44 2021 a9a3 f227 a8e4 9622 19f0 b1d5
000000d0: a1e8 464a 4cf6 c1f0 411e 22c0 01c2 d944
000000e0: 5138 65a2 dc17 afad fbe4 b8b9 362f 1858
000000f0: 6614 4f2d 97ce 9dde d9b0 aebd b4a4 c552
