ana0700.tflite (tflite, 316004 bytes, 14 tensors)

sequential/conv2d/BiasAdd/ReadVariableOp f4 [64]
0	0xbe712afd	-0.23551555
1	0xbe6ae5f8	-0.22939289
2	0xbe2bda5d	-0.16782518
3	0xbe290116	-0.1650432
4	0xbe175da0	-0.14781809
5	0xbe41d514	-0.18928939
6	0xbd94bad1	-0.07262195
7	0xbe3ddafb	-0.18540566
8	0xbe16df52	-0.14733627
9	0xbe357b9e	-0.17722937
10	0xbe4d62c3	-0.20057206
11	0xbdd869ca	-0.10567053
12	0xbdf6090d	-0.12013445
13	0xbe5087f6	-0.20364365
14	0xbe579b81	-0.21055414
15	0xbe4e9ee3	-0.20177798
16	0xbd75bfb2	-0.059997268
17	0xbe35465f	-0.17702626
18	0xbcdf3ed8	-0.027251646
19	0xbe1c0ccb	-0.15239255
20	0xbe2b37af	-0.1672046
21	0xbe6f5042	-0.2337046
22	0xbe0cdc80	-0.13755989
23	0xbe1dee5a	-0.15422955
24	0xbdb6d7e9	-0.089279
25	0xbe17cc91	-0.1482413
26	0xbdfa94ba	-0.122353986
27	0xbdbccbeb	-0.09218582
28	0xbe340e20	-0.17583513
29	0xbda0926b	-0.07840427
30	0xbe1ad155	-0.15118916
31	0xbe0e9da5	-0.13927324
32	0xbe1c439a	-0.15260163
33	0xbe2b0a8b	-0.1670324
34	0xbe0841b0	-0.13306308
35	0xbe077d5c	-0.13231415
36	0xbe48b39b	-0.19599764
37	0xbe13d564	-0.14436871
38	0xbe2c0925	-0.16800363
39	0xbdde0cf5	-0.10842315
40	0xbe1bd330	-0.1521728
41	0xbde7ffb0	-0.113280654
42	0xbe4a3b26	-0.19749126
43	0xbe1089e1	-0.14115097
44	0x3c7c6681	0.015405298
45	0xbe04e956	-0.12979636
46	0xbe32804d	-0.17431755
47	0xbe097fa5	-0.13427599
48	0xbdea0941	-0.11427546
49	0xbdc32bc0	-0.09529829
50	0xbe248a97	-0.16068493
51	0xbe2e951a	-0.17049065
52	0xbe1b3196	-0.15155634
53	0xbe664869	-0.2248856
54	0xbe15c0f8	-0.14624393
55	0xbe444667	-0.19167481
56	0xbe3a4016	-0.1818851
57	0xbe0573f7	-0.13032518
58	0xbd66131d	-0.05617057
59	0xbe4bf6a9	-0.19918312
60	0xbe138019	-0.14404334
61	0xbe1db062	-0.15399316
62	0xbd9c84c2	-0.07642509
63	0xbe10a38f	-0.14124893

sequential/conv2d_1/BiasAdd/ReadVariableOp f4 [32]
0	0xbc299c6f	-0.010352238
1	0xbc9d63ef	-0.019212691
2	0xba25516a	-0.0006306382
3	0x3d1a37d8	0.037650913
4	0x3d69e2eb	0.05710117
5	0x3babd934	0.0052443985
6	0x3cfdbb14	0.030972995
7	0x3cb13c67	0.021635247
8	0x3bf753c8	0.0075478293
9	0xbbdef419	-0.006804001
10	0x3c84d322	0.016213957
11	0x3b57bdd4	0.0032919543
12	0xbcb31a14	-0.021863021
13	0xbdf8def6	-0.121519014
14	0xbc588498	-0.013215207
15	0xbcb48853	-0.02203766
16	0xbbac027c	-0.0052493196
17	0xba8e4633	-0.0010854661
18	0xbce18e89	-0.027533786
19	0xbd430810	-0.04761511
20	0x3d3f0e99	0.04664478
21	0xbd1848b1	-0.0371787
22	0xbc93ab3b	-0.018025985
23	0xbe599ac1	-0.2125044
24	0xbe090836	-0.13382038
25	0x3d92667d	0.07148454
26	0x3d556966	0.05210247
27	0xbd6525e0	-0.055944324
28	0xbd5e415f	-0.05426156
29	0x3c6de032	0.014518784
30	0xbc91b87a	-0.01778816
31	0xbd189e14	-0.03726013

sequential/conv2d_2/BiasAdd/ReadVariableOp f4 [32]
0	0xbc1ec9e5	-0.00969169
1	0xbd77f1b5	-0.060533244
2	0xbd2f5984	-0.042809978
3	0x3d54fc74	0.05199857
4	0x3b274633	0.002552402
5	0x3d840048	0.06445366
6	0x3d152d60	0.036420226
7	0x3c778d01	0.015109302
8	0x3db3b615	0.08774964
9	0xbc646100	-0.013939142
10	0x3d59fb65	0.053218264
11	0x3d30c6ea	0.04315845
12	0x3d2db7c9	0.0424116
13	0x3c6d1643	0.01447064
14	0x3cb5b84e	0.02218261
15	0x3daa333c	0.083105534
16	0x3da20b5d	0.079123236
17	0x3d8d8705	0.069105186
18	0x3e08de4a	0.13366047
19	0xbc9ee2b9	-0.01939522
20	0x3d4db826	0.050224446
21	0x3dce8d8d	0.100855924
22	0x3d3adaa2	0.04561866
23	0x3d6dbe04	0.05804254
24	0xbd409bb8	-0.047023505
25	0x3d965497	0.07340353
26	0xbd2e7973	-0.04259629
27	0x3dba8263	0.091069005
28	0x3d04cc5f	0.032421466
29	0x3bbfe6bb	0.0058563626
30	0x3bdd0fc6	0.006746265
31	0x3d0afaf9	0.033930752

sequential/dense/BiasAdd/ReadVariableOp f4 [128]
0	0x3e0b7f11	0.1362269
1	0xbe23ab1a	-0.15983239
2	0x3da41f71	0.080138095
3	0xbd6507d1	-0.055915657
4	0x3e22eb5f	0.159101
5	0xbd38f1bc	-0.04515241
6	0xbe071183	-0.13190274
7	0x3dd73153	0.10507455
8	0x3dbf2e00	0.09334946
9	0x3dd33970	0.1031369
10	0x3df36ab5	0.11885587
11	0x3d957330	0.07297361
12	0x3db80622	0.08985545
13	0x3c265649	0.010152408
14	0x3e0dd730	0.13851619
15	0x3da02f90	0.07821572
16	0x3d264348	0.04059151
17	0x3daa7968	0.08323938
18	0x3b6ba68e	0.0035957429
19	0x3d6e02fd	0.05810832
20	0xbc81fda8	-0.015868023
21	0xbccac2d0	-0.024751097
22	0xbd98f2eb	-0.07468208
23	0x3db204a1	0.08692289
24	0xbdd40438	-0.10352367
25	0xbd5f6684	-0.054541126
26	0xbd52b54d	-0.051442433
27	0xbbec1db9	-0.0072056917
28	0x3d762df8	0.060102433
29	0xbd1c2315	-0.038119394
30	0xbd664591	-0.056218687
31	0x3d917d42	0.07103969
32	0x3dcef74f	0.10105764
33	0x3db0135f	0.08597445
34	0xbdae4e7a	-0.08511062
35	0x3dbbd9c7	0.09172397
36	0xbd587a35	-0.05285092
37	0x3c6f7e3d	0.0146175
38	0x3d4578e7	0.048211005
39	0x3d4e46fb	0.05036066
40	0x3d908845	0.07057241
41	0x3e0b93c9	0.13630594
42	0x3d87ce8a	0.06631191
43	0x3e0a25a5	0.13490923
44	0x3c030473	0.007996666
45	0x3dfebc86	0.12438302
46	0x3b1a0433	0.0023501038
47	0xbddc8b8c	-0.10768804
48	0x3df14b65	0.117819585
49	0xbdb02158	-0.0860011
50	0xbdc67d86	-0.096919104
51	0xbd278001	-0.04089356
52	0x3da4f812	0.08055128
53	0xbd9a0f4f	-0.07522451
54	0xbd0516ee	-0.03249257
55	0x3d2bc9d0	0.04194051
56	0x3cef5d81	0.02921939
57	0x3e47836d	0.19483729
58	0xbc991dd7	-0.018690987
59	0xbcec9e73	-0.028884148
60	0x3d018e5d	0.03162991
61	0xbd40aca6	-0.04703965
62	0x3daf3587	0.085551314
63	0x3d1a164e	0.037618928
64	0x3d9ea329	0.07745964
65	0xbd608647	-0.054815557
66	0x3b0e3bb0	0.0021703057
67	0x3da70e91	0.08157075
68	0xbdc8ffa6	-0.09814386
69	0xbdbf501a	-0.0934145
70	0x3c4cd79a	0.012502575
71	0x3def24b8	0.116769254
72	0x3dc01987	0.09379869
73	0x3e1b0aa5	0.1514078
74	0xbdb77467	-0.08957749
75	0x3e610239	0.21973504
76	0xbd8a7467	-0.06760483
77	0x3e0ef5bc	0.13960928
78	0xbd338424	-0.04382719
79	0x3e04b74f	0.12960552
80	0x3d90fd69	0.07079584
81	0x3dab5678	0.08366102
82	0x3d934433	0.07190742
83	0x3dc05e8e	0.09393035
84	0xbd9e6db0	-0.07735765
85	0x3dbde500	0.09272194
86	0x3dd64d53	0.10463967
87	0x3dfc18fd	0.12309454
88	0x3de9e831	0.1142124
89	0xbd81d495	-0.06339375
90	0xbe0273df	-0.12739514
91	0x3a1672fe	0.0005739181
92	0xbd6adfba	-0.05734227
93	0xbdeb4eea	-0.11489661
94	0xbe751008	-0.23931897
95	0x3ded5892	0.11589159
96	0xbce11fc8	-0.027480975
97	0xbce978d3	-0.028499996
98	0x3dc2c889	0.09510905
99	0xbdabd223	-0.0838969
100	0x3db589fd	0.0886421
101	0xbd6b67ab	-0.057471912
102	0x3c436811	0.011926667
103	0x3d1ec870	0.03876537
104	0x3dd22153	0.10260262
105	0xbe6cdd9d	-0.23131414
106	0x3d4e5a9b	0.050379377
107	0x381fe511	3.812189e-05
108	0x3b940cb2	0.004518115
109	0x3e0e1f87	0.13879214
110	0x3d910630	0.07081258
111	0xbd1bd5fa	-0.03804586
112	0xbd28e907	-0.041237857
113	0xbda15223	-0.078769945
114	0x3dd07399	0.101782985
115	0x3d7e28f1	0.062050764
116	0x3dfd8f82	0.123808876
117	0x3de674b6	0.112527296
118	0xbdbc6ea5	-0.09200791
119	0x3d81d4ce	0.063394174
120	0x3da3d4f1	0.079996
121	0x3db5b2df	0.088720076
122	0x3c84f791	0.01623133
123	0x3d86ae27	0.06576186
124	0xbdeb1d83	-0.11480238
125	0xbd08dd10	-0.033413947
126	0x3d0437ef	0.032279905
127	0x3def4793	0.116835736

sequential/dense_1/BiasAdd/ReadVariableOp f4 [64]
0	0x3e926797	0.28594658
1	0x3e6a3691	0.22872378
2	0xbe28945b	-0.16462843
3	0x3e7c0eac	0.24614972
4	0x3e768cfa	0.24077216
5	0x3e618264	0.22022396
6	0x3e55992b	0.2085921
7	0x3d88e476	0.066842005
8	0x3e8c656b	0.27421126
9	0xbd1f0aac	-0.038828537
10	0x3e0800b8	0.13281524
11	0xbe3a570c	-0.18197268
12	0xbce99caa	-0.028517086
13	0x3e8bb80f	0.27288863
14	0x3e85de8f	0.2614636
15	0x3e929477	0.28628895
16	0x3c17a34e	0.009255243
17	0x3e44a8b2	0.19204977
18	0x3e839fc7	0.25707838
19	0x3e7c6687	0.24648486
20	0xbda3633d	-0.079779126
21	0x3e4c0459	0.19923533
22	0xbca09b13	-0.019605195
23	0x3e8028fe	0.25031275
24	0x3e928f39	0.28624895
25	0xbd69bf80	-0.057067394
26	0x3e360426	0.1777502
27	0x3e4b3133	0.19842987
28	0xbe15c573	-0.14626102
29	0x3e38d93d	0.1805162
30	0xbd2b9961	-0.04189432
31	0x3e39dccb	0.18150632
32	0x3e0294f1	0.12752129
33	0x3e3f023a	0.18653193
34	0xbe588154	-0.21143085
35	0x3e6e5d2b	0.23277728
36	0x3e607073	0.21917896
37	0x3e49c44d	0.19703789
38	0x3e83e162	0.2575789
39	0x3da3bbef	0.0799483
40	0xbda946af	-0.08265435
41	0x3e497ce5	0.1967655
42	0x3e89d6dc	0.26921737
43	0xbd6f0981	-0.058358673
44	0xbe2a5154	-0.16632587
45	0x3e11c7c3	0.1423636
46	0xbb2973ac	-0.00258563
47	0xbd4f31c7	-0.05058458
48	0x3e5f3592	0.21797779
49	0x3e7be327	0.2459837
50	0x3e7a00a3	0.24414305
51	0xbd35808f	-0.044312056
52	0xbe1708bd	-0.14749427
53	0x3d9ce2d8	0.076604545
54	0xbe52ec88	-0.20598042
55	0x3e7023cb	0.23451154
56	0x3e26af0f	0.16277717
57	0xbe3f7297	-0.18696056
58	0xbbc766da	-0.006085259
59	0x3e8bbc46	0.2729208
60	0xbd3cb8ab	-0.04607455
61	0x3e6d6b6f	0.23185514
62	0x3e419868	0.18905795
63	0x3b35eff0	0.0027761422

sequential/dense_2/BiasAdd/ReadVariableOp f4 [2]
0	0xbc829b4c	-0.015943192
1	0x3b19fd51	0.0023496936

sequential/batch_normalization/FusedBatchNormV3 f4 [3]
0	0x3b8c992a	0.0042907195
1	0x3b53d676	0.0032323874
2	0x3b4e1ed8	0.003145149

sequential/batch_normalization/FusedBatchNormV31 f4 [3]
0	0xbf0f91a9	-0.56081635
1	0xbeca0714	-0.39458525
2	0xbecef160	-0.4041853

sequential/dense/MatMul f4 [128, 32]
0	0x3df7ef6a	0.121062115
1	0x3cd403c4	0.025880702
2	0xbe325b36	-0.17417607
3	0x3cf5ec34	0.030019857
4	0xbdf9204e	-0.12164365
5	0x3d96e659	0.07368154
6	0xbe359252	-0.17731598
7	0x3bc0bcc7	0.005881879
8	0xbd406563	-0.04697169
9	0xbde86864	-0.11348036
10	0xbdbef66a	-0.093243435
11	0x3c218381	0.009858013
12	0xbdee9ad3	-0.11650624
13	0x3e0037b7	0.12521254
14	0x3e399fb9	0.18127336
15	0xbe5fc36d	-0.21851893
16	0x3db72d4d	0.08944187
17	0x3db2989a	0.08720513
18	0xbe45dec7	-0.19323264
19	0xbe261161	-0.16217567
20	0xbd7ffe74	-0.062498525
21	0xbe5d7b31	-0.21629025
22	0x3dcc8f74	0.09988299
23	0x3dd6b07c	0.104828805
24	0x3e25a819	0.16177405
25	0xbb1aa580	-0.002359718
26	0xbe2bc8ee	-0.16775867
27	0x3d38352a	0.044972576
28	0xbe6ac491	-0.22926547
29	0xbcb3189a	-0.021862317
30	0x3dd7adc5	0.10531191
31	0xbda6d2fa	-0.08145709
32	0x3d952c9b	0.072838984
33	0x3d811afe	0.063039765
34	0xbd0cdd65	-0.034390826
35	0x3d2c0c06	0.042003654
36	0xbd4afacf	-0.049555596
37	0xbda104ee	-0.078622684
38	0xbe24c028	-0.16088927
39	0xbd4ebf71	-0.05047554
40	0x3eb1b14a	0.34705573
41	0xbe6ac274	-0.2292574
42	0xbe3d6612	-0.18495968
43	0x3dfa61d8	0.122256935
44	0x3cdfbdf2	0.027312253
45	0x3d051493	0.032490324
46	0xbd95a61d	-0.07307074
47	0x3e66589c	0.2249474
48	0xbe975e25	-0.29564014
49	0x3d9f9fb9	0.077941366
50	0x3bcc7bb2	0.0062403316
51	0xbcbe6a74	-0.02324412
52	0xbe8022ab	-0.2502645
53	0xbdfa4dfb	-0.12221905
54	0xbe29c27c	-0.16578096
55	0x3d3d9f37	0.046294417
56	0xbe2b67af	-0.16738771
57	0x3d28772a	0.04112927
58	0x3cdf061c	0.027224593
59	0x3dc9d510	0.098550916
60	0x3c14f832	0.0090923775
61	0x3e060819	0.13089027
62	0xbbbdd8e8	-0.0057936795
63	0xbb6246ec	-0.0034527136
64	0xbd867e63	-0.06567075
65	0x3d8126a6	0.063062
66	0xbe05ba3f	-0.13059328
67	0x3d8a9d83	0.06768324
68	0xbd3fe320	-0.046847463
69	0x3df8673b	0.12129065
70	0xbcb2c168	-0.021820739
71	0xbcab22a8	-0.020890549
72	0x3daf807b	0.085694276
73	0xbe074063	-0.13208155
74	0xbe2d5244	-0.16925913
75	0x3d8ca33e	0.068670735
76	0xbd268dbe	-0.04066252
77	0xbe54afb9	-0.20770158
78	0xbde397d0	-0.1111294
79	0xbdc23f30	-0.09484708
80	0xbe4e2621	-0.20131733
81	0xbd4848fa	-0.04889772
82	0xbc42826d	-0.011871916
83	0x3df69e47	0.12041908
84	0x3caa5f49	0.020797389
85	0x3e3c2c8f	0.18376373
86	0x3df7a292	0.12091555
87	0xbc9547cb	-0.01822271
88	0xbe5fc873	-0.21853809
89	0x3e094a42	0.13407233
90	0x3dd7ede7	0.10543423
91	0x3d636aa4	0.055521622
92	0xbea3ef03	-0.3201829
93	0xbd4ad7c3	-0.049522173
94	0x3d976519	0.0739233
95	0x3d75a808	0.0599747
96	0x3e06c180	0.13159752
97	0xbe26a183	-0.1627255
98	0x3d3c2807	0.04593661
99	0x3d6deaed	0.05808537
100	0x3e21a476	0.15785393
101	0xbdbfc3ee	-0.093635425
102	0x3d331dc0	0.043729544
103	0xbe18e21f	-0.14930008
104	0xbd94879d	-0.07252429
105	0xbd9cefa9	-0.07662899
106	0xbe1ecdc9	-0.15508188
107	0x3dc17465	0.094460286
108	0x3c68b526	0.014203345
109	0x3d52085b	0.0512775
110	0xbdf2d971	-0.1185788
111	0xbe4217d6	-0.18954405
112	0xbdd2442f	-0.10266911
113	0xbd4ab2df	-0.04948699
114	0x3d856f01	0.06515313
115	0x3e064a11	0.13114192
116	0x3de7a5e5	0.11310939
117	0xbe27b86a	-0.16378942
118	0xbc8f586a	-0.017498214
119	0xbde47f0a	-0.11157043
120	0x3d7cdc19	0.06173334
121	0xbd62ce11	-0.0553723
122	0x3d91b4b0	0.071145415
123	0x3c731a3d	0.014837799
124	0x3decec40	0.115684986
125	0xbe0bbd50	-0.13646436
126	0xbe474742	-0.19460776
127	0xbe09a2fa	-0.13441077
128	0xbdc405ae	-0.09571396
129	0x3cbb58eb	0.022869548
130	0xbda74955	-0.08168284
131	0x3da44bb5	0.080222525
132	0x3cd7896e	0.026310649
133	0x3d432b64	0.047648802
134	0xbe40417e	-0.18774983
135	0x3e1e45c5	0.15456302
136	0x3daf20ce	0.08551179
137	0xbaa413e3	-0.0012518134
138	0xbe9da7ee	-0.30792183
139	0xbcd92171	-0.026505204
140	0xbd5b631e	-0.053561322
141	0xbdd809e4	-0.105487615
142	0xbd0b7599	-0.034047697
143	0xbe6e68f8	-0.2328223
144	0xbd87352b	-0.06601938
145	0x3dcb2b31	0.099203475
146	0xbe3669a6	-0.17813739
147	0x3d5d3db3	0.05401392
148	0xbe5ddc87	-0.21666156
149	0xbdbcf872	-0.09227075
150	0xbd7ed599	-0.06221542
151	0x3d059a5b	0.032617908
152	0xbe1cba2d	-0.15305395
153	0xbd9ed01c	-0.077545375
154	0x3d9ff275	0.07809917
155	0x3e01db5f	0.1268134
156	0x3c9099d0	0.017651469
157	0x3d614e58	0.055006355
158	0x3e2111a0	0.1572938
159	0x3c7af79e	0.015317826
160	0x3e1c06ac	0.1523692
161	0xbd9cf4bc	-0.07663867
162	0x3c05bbee	0.008162482
163	0x3d60158d	0.054708052
164	0xbd6d525a	-0.057939865
165	0x3c8ab813	0.016933477
166	0x3daa8495	0.08326069
167	0xbe85a5a5	-0.2610294
168	0xbd86956a	-0.06571467
169	0xbe645535	-0.22298129
170	0x3e19bee9	0.15014233
171	0xbd064c52	-0.03278763
172	0xbde7e337	-0.11322635
173	0x3de33b2f	0.11095273
174	0xbe2902fb	-0.16505043
175	0xbe905a75	-0.28194013
176	0x3d1d4359	0.038394306
177	0xbe7b887c	-0.24563783
178	0xbd87fdb2	-0.066401854
179	0x3da36dd2	0.07979931
180	0xbd808036	-0.06274454
181	0xbd1eab1d	-0.038737405
182	0xbce91a15	-0.02845482
183	0x3c555b92	0.01302232
184	0x3e25f6aa	0.16207376
185	0xbe5ca1ef	-0.21546148
186	0xbdf1ca4b	-0.118061624
187	0x3d1254bc	0.03572534
188	0x3e8d34cc	0.27579343
189	0x3c9a1e82	0.018813375
190	0x3dbc7453	0.092018746
191	0xbd675c93	-0.05648477
192	0xbdecb794	-0.11558452
193	0xbe7e9bc5	-0.24864109
194	0x3e1ac34a	0.1511356
195	0x3d1085b9	0.035283778
196	0xbe2d3467	-0.16914521
197	0xbe3eaaca	-0.18619838
198	0xbe078beb	-0.13236968
199	0x3da10fb4	0.07864323
200	0xbca02ac3	-0.01955164
201	0x3e8ac2c1	0.2710171
202	0xbd70d44b	-0.05879621
203	0xbe1dfda7	-0.15428792
204	0xbd6d9830	-0.058006465
205	0xbdb7968d	-0.08964262
206	0x3e44d1e7	0.19220696
207	0xbca2fb77	-0.019895298
208	0x3e45c391	0.19312884
209	0xba73510d	-0.0009281792
210	0xbe02e874	-0.12783986
211	0xbc533b12	-0.012892501
212	0x3e25ba3c	0.16184324
213	0x3da65d32	0.08123244
214	0x3e4f730a	0.20258728
215	0x3e509bef	0.20371984
216	0x3d811d06	0.06304364
217	0x3dca3ac0	0.09874487
218	0xbe1f7def	-0.15575384
219	0x3d3b95f9	0.045797322
220	0x3d057b72	0.03258843
221	0xbe786de8	-0.24260676
222	0xbe562d5c	-0.2091574
223	0x3d8ff700	0.070295334
224	0xbe15c0a8	-0.14624274
225	0xbba1c5b7	-0.0049368995
226	0xbe7be065	-0.24597318
227	0x3e5a8900	0.21341324
228	0x3d282d6b	0.04105894
229	0x3da8c909	0.082414694
230	0x3ddf8441	0.10913897
231	0xbe8bfc81	-0.27341083
232	0x3def0b3c	0.11672065
233	0xbea19d15	-0.31565157
234	0xbe175414	-0.14778167
235	0xbd52ec71	-0.05149502
236	0x3bfe3aec	0.007758489
237	0xbd4b0e36	-0.0495741
238	0x3c5c629d	0.013451246
239	0x3da70256	0.081547424
240	0xbe19b0f2	-0.15008906
241	0x3dababc6	0.083823726
242	0x3cecf5ab	0.028925737
243	0x3d9e6118	0.07733363
244	0x3c2e0b70	0.010622844
245	0x3de5c431	0.11219061
246	0xbdc975bf	-0.098369114
247	0xbe205d00	-0.15660477
248	0xbd88a302	-0.06671716
249	0xbd99a9cd	-0.0750309
250	0x3c3b2942	0.011423411
251	0xbe207361	-0.15669014
252	0x3e87bff6	0.26513642
253	0x3e0d0b7c	0.13773912
254	0x3d7956ab	0.06087367
255	0x3defb24b	0.117039286

sequential/dense_1/MatMul f4 [64, 128]
0	0xbe1b1696	-0.15145335
1	0xbe01e058	-0.12683237
2	0x3d7d46bd	0.06183504
3	0xbe316038	-0.17321861
4	0xbd86ce05	-0.06582264
5	0xbdf6bbec	-0.12047562
6	0xbd3f559c	-0.046712503
7	0xbcc7fd18	-0.024412677
8	0xbe9fd952	-0.3122049
9	0xbdb59864	-0.08866957
10	0xbe11d71f	-0.14242218
11	0xbdc22e58	-0.094814956
12	0xbeb55816	-0.35418767
13	0x3d7f408a	0.06231741
14	0xbe189710	-0.14901376
15	0xbc6e8bfd	-0.014559743
16	0x3dcf48cf	0.10121309
17	0x3dabda31	0.08391226
18	0x3d38ef6b	0.0451502
19	0xbd5f992f	-0.054589447
20	0xbd4d0922	-0.050057538
21	0xbbd250ef	-0.0064183394
22	0xbcaf455e	-0.021395382
23	0xbe66f3fe	-0.22554013
24	0xbc015a48	-0.00789506
25	0x3dbf786f	0.09349143
26	0x3d9b9aa6	0.07597856
27	0x3d7f0f6a	0.06227056
28	0xbe02aaf1	-0.12760521
29	0x3ce813b5	0.02832971
30	0xbd8987d4	-0.0671536
31	0xbc95366f	-0.018214433
32	0x3da08cb1	0.07839335
33	0xbda7adf7	-0.08187478
34	0x3cbf8798	0.023380086
35	0x3d7e7446	0.062122606
36	0xbdbd31aa	-0.09237988
37	0xbdff8206	-0.12475972
38	0x3c764bfb	0.015032764
39	0x3de030bd	0.10946796
40	0xbdf4da75	-0.1195573
41	0xbd24a132	-0.04019279
42	0xbdfe2e95	-0.124112286
43	0x3da419bb	0.0801272
44	0xbdf485c4	-0.11939576
45	0xbd97a82f	-0.07405125
46	0x3cc89f5f	0.024490057
47	0xbd823001	-0.06356812
48	0xbdd1d721	-0.10246111
49	0xbdb3208c	-0.08746442
50	0xbd570ca2	-0.052502282
51	0xbd470f17	-0.048598375
52	0x3c9883e9	0.018617587
53	0x3e0d3fa0	0.13793802
54	0xbd952cad	-0.07283912
55	0xbdca6557	-0.0988261
56	0x3d867f7d	0.06567285
57	0x3d611519	0.05495176
58	0x3a260185	0.0006332624
59	0x3e009d2b	0.12559955
60	0xbe2c6f40	-0.16839314
61	0xbddc99b1	-0.10771502
62	0xbc816385	-0.015794525
63	0x3e2796df	0.16366147
64	0xbd03a837	-0.032142844
65	0xbdbdbee7	-0.09264927
66	0x3e0ebde4	0.13939625
67	0xbe84f478	-0.25967765
68	0x3d70e51e	0.058812253
69	0x3e1aebd8	0.1512903
70	0xbe6e4a37	-0.23270498
71	0xbe0d69e8	-0.13809931
72	0xbe7f5a40	-0.24936771
73	0xbe117ee3	-0.1420856
74	0x3dad9838	0.08476299
75	0x3e10ca9f	0.14139794
76	0xbdee7e86	-0.11645226
77	0x3bbcc55f	0.005760833
78	0x3d18e8ba	0.03733132
79	0xbe39d319	-0.18146934
80	0xbd8d607e	-0.0690317
81	0xbe75ffa8	-0.24023306
82	0xbb908976	-0.004410918
83	0x3c69e6b8	0.014276199
84	0xbadcaaad	-0.0016835533
85	0x3cc7d9a8	0.024395779
86	0xbe25e592	-0.16200855
87	0xbcdc2dbc	-0.026877277
88	0xbe926667	-0.28593752
89	0xbdacad51	-0.08431495
90	0xbce337e5	-0.027736614
91	0x3dd7ff54	0.10546747
92	0xbd277f33	-0.04089279
93	0x3db6c4de	0.08924268
94	0xbdde7df5	-0.10863868
95	0xbeb3b160	-0.35096264
96	0x3e165789	0.1468183
97	0x3d0e5b52	0.03475506
98	0xbe8694c5	-0.26285377
99	0x3e103fe6	0.14086875
100	0x3db83128	0.08993751
101	0x3c1a0a36	0.009401849
102	0xbe2f1ada	-0.17100087
103	0x3d4f8c10	0.050670683
104	0xbc816b85	-0.01579834
105	0xbe03311f	-0.12811707
106	0xbc966d07	-0.018362535
107	0x3d90aad3	0.07063832
108	0xbe29ee50	-0.16594815
109	0xbce7bd1a	-0.028288413
110	0x3e199088	0.1499654
111	0xbd361d68	-0.044461638
112	0x3d61facb	0.055170815
113	0x3d791aaa	0.060816444
114	0x3e1e3c2d	0.15452643
115	0xbd7ba505	-0.06143667
116	0x3e7d1abd	0.24717231
117	0x3e56a42c	0.20961064
118	0xbd1ee4d3	-0.038792443
119	0xbd11f10f	-0.035630282
120	0x3d6e3117	0.058152284
121	0xbdafa523	-0.08576419
122	0x3d75f3e3	0.06004704
123	0x3c97bf34	0.01852379
124	0x3d36f49d	0.044666875
125	0x3dd482fe	0.10376547
126	0x3ddb43a3	0.1070626
127	0xbe62f348	-0.22163117
128	0xbd005e02	-0.031339653
129	0x3c888be0	0.01666826
130	0xbb81c885	-0.0039606714
131	0xbd5e3222	-0.05424703
132	0x3e5d0868	0.21585238
133	0xbdb1a665	-0.08674315
134	0xbe111366	-0.14167556
135	0xbe5699c5	-0.20957096
136	0x3c6a6a57	0.01430758
137	0xbe91f35b	-0.28505978
138	0x3e0d96d3	0.13827066
139	0xbd348292	-0.044069834
140	0x3de53142	0.11191036
141	0xbe1514c5	-0.14558704
142	0x3c5f7a27	0.013639963
143	0xbe36ef79	-0.17864789
144	0x3ddc1712	0.10746588
145	0xbe496b21	-0.19669773
146	0x3dd541cb	0.1041294
147	0x3e0cb66a	0.1374146
148	0xbe3b6119	-0.18298759
149	0x3e2d4982	0.16922572
150	0xba99c027	-0.001173024
151	0x3defab8e	0.11702643
152	0x3cf76f27	0.030204369
153	0x3dbcaee3	0.092130445
154	0xbde07133	-0.10959091
155	0xbc9fc07a	-0.01950096
156	0x3e0a6466	0.13514861
157	0x3d944b4c	0.07240924
158	0xbd7f2092	-0.06228692
159	0x3e220b26	0.15824565
160	0xbc7e1823	-0.015508684
161	0xbdafc8e5	-0.085832395
162	0xbdd35929	-0.1031974
163	0xbd5f5069	-0.054520044
164	0x3ce83658	0.028346226
165	0x3dfc262b	0.123119675
166	0xbd94dd02	-0.072687164
167	0x3e221b2c	0.15830678
168	0xbe38148f	-0.17976592
169	0xbddaf03b	-0.106903516
170	0xbe41f366	-0.18940505
171	0xbc5343a7	-0.012894548
172	0x3e0b094f	0.1357777
173	0x3d955c01	0.07292939
174	0x3dde5541	0.10856105
175	0x3d9850c1	0.074372776
176	0xbd806875	-0.062699236
177	0xbe2e78ee	-0.17038319
178	0x3dcfd3fb	0.10147854
179	0xbcdf0a24	-0.027226515
180	0xbea18ed7	-0.3155429
181	0x3e00c035	0.12573321
182	0xbd9eacab	-0.077477776
183	0xbdffa27c	-0.12482163
184	0x3d92a920	0.07161164
185	0x3e2b9091	0.16754366
186	0xbdb14777	-0.08656209
187	0x3e20cadc	0.15702385
188	0xbdbf0d45	-0.09328703
189	0xbe2fc384	-0.17164427
190	0xbdafec49	-0.0858999
191	0xbe181f47	-0.14855681
192	0xbd986571	-0.074412234
193	0xbe2c8ab5	-0.16849788
194	0xbdf1f005	-0.11813358
195	0xbd8d4782	-0.06898405
196	0xbe1fe1de	-0.15613505
197	0xbe1f8446	-0.15577802
198	0x3caa370e	0.020778205
199	0x3e0611d0	0.13092732
200	0xbde98c2c	-0.11403689
201	0xbe765806	-0.24057016
202	0x3cfb9316	0.030709784
203	0x3d242935	0.04007836
204	0x3d120bbf	0.035655733
205	0x3cb986ac	0.022647224
206	0x3dfd4247	0.12366157
207	0xbdcef36b	-0.10105022
208	0xbe9bb031	-0.3040786
209	0xbad8d988	-0.0016544322
210	0xbdbba105	-0.091615714
211	0xbe4c3d8e	-0.19945356
212	0x3d08354a	0.033253945
213	0x3dde5c82	0.10857488
214	0xbe401c22	-0.18760732
215	0x3d802189	0.06256396
216	0xbe7ffb2a	-0.24998155
217	0x3d5a315e	0.053269736
218	0xbdb2f484	-0.08738044
219	0xbb632348	-0.003465848
220	0xbd4f14d4	-0.050556973
221	0xbe11c287	-0.14234363
222	0xbd9fbe00	-0.077999115
223	0xbd8460b7	-0.064637594
224	0x3e19b7ae	0.15011474
225	0x3c9c6ca5	0.019094774
226	0xbe9e2f39	-0.30895403
227	0x3d3bcc32	0.045849033
228	0xbd3bc6eb	-0.045844
229	0x3e3f2f0e	0.18670294
230	0xbe264f9c	-0.16241306
231	0xbe014037	-0.12622152
232	0xbe988181	-0.29786304
233	0xbe567f18	-0.2094692
234	0x3e190eb4	0.14947015
235	0xbe19729a	-0.14985123
236	0x3b876f50	0.0041331425
237	0x3c38a45e	0.011269657
238	0x3de00071	0.10937584
239	0xbda5fe89	-0.08105189
240	0xbce75566	-0.028238963
241	0xbe1df6d5	-0.1542619
242	0xbd431054	-0.047622994
243	0x3cca1546	0.024668347
244	0x3cf54720	0.029941142
245	0xbcb584f9	-0.022158133
246	0xbe105ec8	-0.14098656
247	0xbcf318e2	-0.029674951
248	0x3cde9297	0.027169509
249	0xbdc8f97f	-0.098132126
250	0xbe136330	-0.14393306
251	0x3b021dab	0.001985411
252	0xbcc9b0ab	-0.024620375
253	0x3cc37b17	0.023862405
254	0x3ddbcf07	0.10732847
255	0xbd373f7f	-0.04473829

sequential/dense_2/MatMul f4 [2, 64]
0	0xbea5aa94	-0.32356703
1	0xbea42df5	-0.32066312
2	0x3de6064e	0.11231671
3	0x3b3f2015	0.002916341
4	0xbea483e5	-0.32131878
5	0xbe814d7b	-0.25254425
6	0x3cee0307	0.029054178
7	0xbd62e02b	-0.055389564
8	0x3ce1c35c	0.027558975
9	0x3e8adf4f	0.27123496
10	0x3dc3a7ef	0.09553515
11	0xbdc4edf6	-0.096157
12	0xbd0b7ddb	-0.034055572
13	0xbe93aadf	-0.28841302
14	0xbe7d724d	-0.24750634
15	0x3eb4451b	0.35208973
16	0x3d3c45ac	0.04596488
17	0x3d0d7174	0.034532025
18	0xbd4c07f8	-0.049812287
19	0x3e8b978e	0.27264065
20	0xbdf0b3a4	-0.11753014
21	0x3d14fea9	0.036375675
22	0xbcdf65b1	-0.02727017
23	0x3e363753	0.17794542
24	0xbd8f40f3	-0.0699481
25	0xbc42690b	-0.0118658645
26	0x3e02f2c8	0.12787926
27	0x3d14fc48	0.036373407
28	0x3e275934	0.16342622
29	0x3d911dfc	0.07085797
30	0xbd273234	-0.04081936
31	0x3e423fe5	0.18969686
32	0xbba6569b	-0.005076242
33	0xbc13a3f4	-0.009011257
34	0xbe1d980d	-0.15390034
35	0x3e49e79a	0.19717255
36	0x3e8d6e5a	0.27623254
37	0x3e5b8b56	0.21439871
38	0x3e964deb	0.29356322
39	0x3ca3b31a	0.019982863
40	0xbd23783e	-0.039909594
41	0xbdc0b3be	-0.09409283
42	0xbe32ca2d	-0.17459936
43	0x3d9d69b8	0.0768618
44	0x3d0f0e52	0.034925766
45	0x3de2360e	0.11045466
46	0xbe899e77	-0.26878712
47	0xbe7fc7fd	-0.24978633
48	0xbd88a742	-0.06672527
49	0x3e4da9c2	0.20084289
50	0x3e3fc9f9	0.1872939
51	0xbd0ba4d7	-0.03409275
52	0xbe189e5e	-0.14904162
53	0x3e725958	0.23666894
54	0x3e3dc7ad	0.18533202
55	0xbe16bcc2	-0.14720443
56	0xbe7179dd	-0.23581643
57	0xbdd9ed2e	-0.106409416
58	0xbdc0b683	-0.09409811
59	0xbe99ffcf	-0.3007798
60	0x3da16dc8	0.07882267
61	0xbe4d7e8c	-0.20067805
62	0x3e912dfa	0.2835539
63	0xbd62d03f	-0.05537438
64	0xbe92baa6	-0.28658026
65	0x3dfd8ca7	0.12380343
66	0xbe916d90	-0.28403902
67	0x3eb331e3	0.34998998
68	0xbd1c7305	-0.03819563
69	0x3ec33b2b	0.3813108
70	0xbea6466f	-0.32475612
71	0xbd24d423	-0.04024137
72	0xbeaabdf0	-0.33348036
73	0xbc9deb80	-0.019277334
74	0xbcc0cb6e	-0.023534503
75	0x3e7a41bb	0.24439137
76	0x3cbb1f72	0.022842143
77	0x3ea7d0ff	0.3277664
78	0xbdd61689	-0.10453517
79	0x3e7623a2	0.2403703
80	0x3d4d90f5	0.05018707
81	0xbe574b98	-0.2102493
82	0xbe8fadf3	-0.280624
83	0x3d98c916	0.07460229
84	0xbc0a1cf4	-0.0084297545
85	0x3e51078a	0.20413032
86	0x3c43f7e0	0.0119609535
87	0x3dabe575	0.08393375
88	0x3eafcafe	0.34334558
89	0xbd2cfc28	-0.042232662
90	0xbe2543fc	-0.16139215
91	0xbe9c88c0	-0.30573082
92	0xbe834bdf	-0.25643823
93	0x3e64657d	0.2230434
94	0x3ce2eaa0	0.027699769
95	0x3c17513d	0.009235677
96	0x3e2fed3d	0.17180343
97	0x3e535f1c	0.2064175
98	0x3bb87681	0.005629361
99	0xbe9f7271	-0.31142
100	0x3c7c130b	0.0153854
101	0xbe03efe0	-0.12884474
102	0xbe6dcc7a	-0.23222533
103	0x3d644c0c	0.055736586
104	0x3d046dce	0.03233128
105	0x3deb3b4d	0.1148592
106	0xbe38659b	-0.1800751
107	0xbe17d4b4	-0.14827234
108	0x3df70c03	0.12062838
109	0xbe2982f2	-0.16553858
110	0x3e80d4af	0.25162265
111	0x3cd8d683	0.026469475
112	0xbe4916ee	-0.19637653
113	0xbe7c91f0	-0.24665046
114	0x3e8a9caa	0.2707265
115	0xbca37c2a	-0.019956667
116	0xbdd0fff7	-0.102050714
117	0x3dceb868	0.100937665
118	0xbd8d685a	-0.06904669
119	0x3e5e26fc	0.21694559
120	0x3ce6887d	0.028141255
121	0xbda49952	-0.08037056
122	0x3d1de7ea	0.03855125
123	0x3cd4695c	0.025929146
124	0xbe6b2594	-0.22963554
125	0xbe87b18a	-0.2650264
126	0x3d004579	0.031316254
127	0xbccdaf10	-0.02510789

sequential/conv2d/Conv2D f4 [64, 5, 5, 3]
0	0xbe15e5b8	-0.14638412
1	0x3ca116ed	0.019664252
2	0x3c414ce9	0.011798122
3	0xbd497416	-0.049182974
4	0xbd4a5882	-0.049400814
5	0xbc907c14	-0.01763729
6	0xbd19da4f	-0.03756171
7	0xbe10c6c1	-0.14138319
8	0xbe246fd0	-0.16058278
9	0x3dc760a2	0.09735228
10	0xbdb8839f	-0.0900948
11	0xbdbc97e4	-0.09208658
12	0x3d8c4317	0.06848734
13	0xbd8b2075	-0.067933
14	0xbdaec928	-0.08534461
15	0x3d2ba41d	0.041904557
16	0x3e081b76	0.13291726
17	0x3e7f1c49	0.24913134
18	0xbd9bd72c	-0.076094
19	0xbdaf745b	-0.08567115
20	0x3ac902f0	0.0015335958
21	0x3c77f790	0.015134707
22	0xbd6942d4	-0.056948498
23	0xbd10be0f	-0.035337504
24	0xbd267f3b	-0.04064868
25	0xbe211373	-0.15730076
26	0xbdefc297	-0.11707037
27	0xbcd293f5	-0.025705317
28	0xbdceae81	-0.10091878
29	0xbda39f0d	-0.07989321
30	0x3cfdec22	0.030996386
31	0x3e8e0c50	0.2774377
32	0x3e9a8ac6	0.30184
33	0xbbe5366c	-0.006995013
34	0x3d1ad8e3	0.037804496
35	0x3d9b3fc1	0.075805195
36	0xbd2458a9	-0.040123615
37	0xbdd2b8ec	-0.10289177
38	0xbdb70f8e	-0.08938514
39	0x3d44ba60	0.048029304
40	0xbdcb58ef	-0.09929072
41	0xbe36ad77	-0.17839609
42	0x3d5fb6b3	0.054617595
43	0xbdef8e5f	-0.11697077
44	0xbd33f04a	-0.04393033
45	0xbde45c3b	-0.11150404
46	0x3e4e9f46	0.20177945
47	0x3e3f713a	0.18695536
48	0xbc9fe707	-0.019519342
49	0xbd1e4c97	-0.03864726
50	0xbd0d2d3d	-0.03446697
51	0xbd66bf16	-0.056334578
52	0xbd012485	-0.03152897
53	0xbc0495d2	-0.008092361
54	0x3c64fed9	0.013976776
55	0xbcb70b7c	-0.022344343
56	0xbd26166e	-0.040548734
57	0x3d502a9b	0.05082188
58	0x3d967ba3	0.073478006
59	0x3c8ea45b	0.017412355
60	0x3b9278b2	0.0044699544
61	0x3e3bcae5	0.18339117
62	0x3e43733e	0.1908693
63	0x3d07d420	0.033161283
64	0xbc9ca4b2	-0.019121502
65	0x3d6abfa7	0.05731168
66	0x3d1b228e	0.03787475
67	0xbdad0541	-0.08448268
68	0xbd3b8cfa	-0.045788743
69	0x3d44a99e	0.048013322
70	0xbe1ee794	-0.15518028
71	0xbdb87891	-0.09007371
72	0x3db409a3	0.087909006
73	0xbd36df22	-0.04464639
74	0xbd9a513a	-0.07535024
75	0xbd860f02	-0.06545831
76	0xbe1b86c9	-0.15188135
77	0xbe6b8fd5	-0.23004086
78	0xbe122f22	-0.14275792
79	0xbd9d6e3d	-0.07687042
80	0xbe24fa2a	-0.16111055
81	0xbcef2abd	-0.029195184
82	0x3cf90a58	0.03040044
83	0x3d666d2b	0.056256454
84	0xbdec8784	-0.11549285
85	0x3d11fb08	0.035639793
86	0x3bd3a6a6	0.006459075
87	0xbdd28298	-0.10278815
88	0x3df21b36	0.11821596
89	0x3dd11475	0.1020898
90	0x3dbe372b	0.09287866
91	0xbcd2e5f7	-0.025744421
92	0xbd73bec6	-0.059508108
93	0xbc004346	-0.007828539
94	0xbd9874b4	-0.07444134
95	0xbcc8238d	-0.024431014
96	0x3d9a730c	0.07541475
97	0x3d9098fc	0.070604295
98	0x3d862dec	0.06551728
99	0xbdffd26f	-0.12491309
100	0x3cc2dd5e	0.023787197
101	0x3c90daf1	0.017682524
102	0xbe20b9c8	-0.1569587
103	0xbc3b83f2	-0.011445032
104	0x3dbdd88c	0.09269819
105	0xbdc6878c	-0.09693822
106	0xbe0c4f2a	-0.13702074
107	0xbdd6d398	-0.10489577
108	0x3dd9a4d7	0.10627144
109	0x3d94e2c5	0.07269815
110	0x3ccd8acd	0.0250906
111	0x3dad61e3	0.08465936
112	0xbcb516e0	-0.022105634
113	0x3cc4450b	0.023958704
114	0x3d492ea1	0.049116734
115	0x3dcea656	0.1009032
116	0x3e25ee78	0.1620425
117	0xbe60e7aa	-0.21963373
118	0xbc92ab09	-0.017903822
119	0xbcc0b66a	-0.023524482
120	0xba86b7d6	-0.0010278176
121	0xbdcd9fc4	-0.100402385
122	0xbc138540	-0.009003937
123	0x3e002ca7	0.12517034
124	0x3c340eef	0.010989889
125	0x3dcd852b	0.100351654
126	0xbd650eec	-0.055922434
127	0xbc7201bc	-0.014770921
128	0x3c94ad22	0.018148962
129	0xbcbcc787	-0.02304436
130	0x3db54831	0.0885166
131	0x3d8d896b	0.06910976
132	0xbdc373e0	-0.09543586
133	0xbd52f629	-0.051504288
134	0x3daf7e20	0.08568978
135	0x3c5de471	0.013543234
136	0xbe39e526	-0.1815382
137	0xbc5c2872	-0.013437377
138	0x3e1754a5	0.14778383
139	0x3ca6175e	0.020274814
140	0x3dccb2fb	0.09995075
141	0x3dc624b3	0.096749686
142	0xbd165c74	-0.036709264
143	0x3bebe3d7	0.0071987915
144	0xbc5d2dbc	-0.013499673
145	0xbd2c0e3e	-0.04200577
146	0x3c4dee21	0.012568981
147	0xbe1001ee	-0.14063236
148	0x3cc67506	0.024225723
149	0x3c490c87	0.012271053
150	0x3e0f1142	0.13971427
151	0x3cdb4183	0.026764637
152	0xbc42b416	-0.011883756
153	0x3dcf7f7d	0.10131738
154	0xbceba6b9	-0.028766023
155	0x3ca6e0a6	0.020370793
156	0x3dfabb25	0.12242726
157	0xbde170f5	-0.11007873
158	0xbc44e09b	-0.012016441
159	0xbe41cf7a	-0.18926802
160	0xbe73363b	-0.23751156
161	0xbe3feeda	-0.18743458
162	0xbcf766a7	-0.030200316
163	0x3dc33110	0.09530842
164	0x3e048ab4	0.12943536
165	0x3db3c2b6	0.087773725
166	0x3d87213b	0.06598135
167	0x3d9e23fa	0.07721706
168	0x3d0b79fb	0.034051877
169	0xbd078db6	-0.03309413
170	0xbd8bd0c3	-0.068269275
171	0xbd3006df	-0.042975303
172	0xbe305114	-0.17218429
173	0xbe168428	-0.14698851
174	0xbc8a3a1f	-0.016873417
175	0xbd8ae55a	-0.067820266
176	0x3d72e076	0.059296094
177	0xbc22e5fb	-0.009942527
178	0x3e42b069	0.19012608
179	0x3dd5f3c2	0.10446884
180	0xbd81a52c	-0.06330332
181	0xbda9788c	-0.082749456
182	0xbdd20133	-0.10254135
183	0x3b72c27d	0.0037042194
184	0xbdd267f3	-0.10273733
185	0xbdd5cc34	-0.10439339
186	0xbc8ed08f	-0.017433433
187	0xbdf563aa	-0.119819
188	0xbdc6dec2	-0.097104564
189	0xbb956609	-0.0045592827
190	0x3d5b9edb	0.053618293
191	0x3d9f1fff	0.07769775
192	0xbe23d9ff	-0.16001128
193	0x3e19f629	0.15035309
194	0x3e2c0098	0.16797101
195	0xbd8947cf	-0.067031495
196	0xbd937a87	-0.072011046
197	0xbe25c90b	-0.16189973
198	0xbd68f1ed	-0.056871343
199	0xbd17db1d	-0.037074197
200	0xbdda0c1f	-0.10646843
201	0x3dce4d7d	0.100733735
202	0xbd869acb	-0.06572493
203	0x3b9be765	0.004757809
204	0x3df7a197	0.12091368
205	0x3d8813f9	0.066444345
206	0x3dfd598b	0.123705946
207	0xbd9587ee	-0.07301317
208	0x3dc5f291	0.096654065
209	0x3e18ce53	0.14922456
210	0xbd3fced0	-0.04682809
211	0xbdd7c50a	-0.10535629
212	0xbd4b424d	-0.049623776
213	0x3d433f27	0.04766765
214	0xbd429f98	-0.04751548
215	0xbdb8b596	-0.0901901
216	0x3e33fd19	0.17577018
217	0xbcf073d2	-0.029352102
218	0x3cc0d545	0.023539195
219	0xbcdfbbeb	-0.027311286
220	0x3d1d4f01	0.038405422
221	0x3d59773b	0.053092223
222	0xbd5db436	-0.05412694
223	0x3dcdf224	0.1005595
224	0x3d02df6a	0.031951346
225	0xbdf4911c	-0.1194174
226	0xbc0ce605	-0.008599763
227	0x3d41c3dc	0.047305927
228	0xbe4f5e87	-0.20250903
229	0xbcf09860	-0.029369533
230	0xbdbb8c3f	-0.09157609
231	0xbdca9674	-0.09891978
232	0x3c3d8b0e	0.011568798
233	0xbc432976	-0.0119117405
234	0xbe36e1a2	-0.1785951
235	0xbdc2dac3	-0.09514382
236	0xbdde3583	-0.1085005
237	0x3d5d0544	0.0539601
238	0x3d0ae422	0.03390897
239	0x3dbf3d5d	0.09337876
240	0x3c05a20f	0.008156314
241	0x3dd05bfa	0.10173793
242	0x3d9f96f2	0.077924624
243	0xbe26b1b3	-0.16278724
244	0xbda3933d	-0.07987068
245	0xbbb88ffc	-0.0056323987
246	0xbd542c16	-0.051799856
247	0xbcbeaec4	-0.023276694
248	0xbc4264d6	-0.0118648615
249	0xbdf9d3cf	-0.121986024
250	0xbdca7119	-0.09884853
251	0x3d09119c	0.03346406
252	0x3d2b2bba	0.041789748
253	0x3cecec80	0.028921366
254	0x3d149b5e	0.036280982
255	0xbddcbbaa	-0.107779816

sequential/conv2d_1/Conv2D f4 [32, 5, 5, 64]
0	0xbc7ac6d8	-0.015306197
1	0x3d161049	0.036636624
2	0xbbb00820	-0.0053720623
3	0x3cf83e6c	0.030303203
4	0xbc34d887	-0.011037952
5	0x3d3cf7da	0.046134807
6	0xbc6cf19f	-0.014461904
7	0xbd4d558d	-0.050130416
8	0xbd4f18ad	-0.050560642
9	0x3c409cf2	0.011756169
10	0x3c94451f	0.018099366
11	0x3cca09eb	0.024662932
12	0x3c9cfc1f	0.01916319
13	0xbb981991	-0.0046417196
14	0x3cdced48	0.026968613
15	0xbc0f4cc4	-0.00874633
16	0x3c7f93f5	0.015599241
17	0x3bcb0873	0.0061960756
18	0xbb875781	-0.0041303043
19	0xbc51ff8d	-0.012817276
20	0xba3abca9	-0.00071234495
21	0x3d02d1d8	0.031938404
22	0xbd0fa5cb	-0.035070222
23	0xbd239e7e	-0.03994607
24	0xbb907724	-0.004408734
25	0x3d0e2978	0.034707516
26	0x3bdf52a9	0.006815274
27	0x3b8cd72e	0.0042981124
28	0x3cbc4da3	0.022986239
29	0xbb920227	-0.004455823
30	0x3d368393	0.044559073
31	0x3d1605b6	0.03662654
32	0x3c70ebff	0.014704703
33	0x3d10f518	0.03538999
34	0x3d26c5ce	0.040715985
35	0x3d3ba3c4	0.045810476
36	0xbd1397fe	-0.036033623
37	0xbd106719	-0.03525457
38	0xbd206929	-0.03916279
39	0xbba938e9	-0.005164255
40	0xbb0d2aea	-0.0021540471
41	0xbd49a537	-0.049229827
42	0x3cdffbaa	0.027341682
43	0xbcfe1ccf	-0.031019596
44	0xbcb97b33	-0.022641754
45	0xbd58a6ac	-0.052893326
46	0xbc05fbe0	-0.008177727
47	0xbd25b3b6	-0.04045459
48	0x3cc14497	0.023592276
49	0x3d086f32	0.03330917
50	0x3c57d06c	0.01317225
51	0x3cd6838f	0.026185779
52	0x3c3d49bc	0.011553224
53	0xbc379adc	-0.011206355
54	0x3c11b51c	0.0088932775
55	0xbc803e80	-0.015654802
56	0xbca0619b	-0.019577792
57	0xbc3af4bf	-0.011410891
58	0x3d31f63b	0.043447714
59	0xbd167491	-0.03673226
60	0xbc3b75ea	-0.011441687
61	0xbd5cb358	-0.053881973
62	0x3d2b0865	0.041756053
63	0xbd4bec78	-0.04978606
64	0xb9498209	-0.00019217296
65	0xbd17e00c	-0.037078902
66	0x3ca8dd76	0.020613413
67	0xbd5297e7	-0.051414397
68	0x3c067304	0.008206133
69	0x3d2791c3	0.040910494
70	0xbd553cc2	-0.052059896
71	0x3d2a5bc5	0.041591424
72	0x3d13d82c	0.03609483
73	0xbd030057	-0.031982746
74	0xbd18c8a3	-0.037300717
75	0x3d02cf12	0.03193576
76	0x3d0fffea	0.035156168
77	0x3b2dc25f	0.002651356
78	0xbc9ab074	-0.018882968
79	0xbd0b60bd	-0.034027804
80	0x3cfd8997	0.030949397
81	0x3bef4235	0.0073015937
82	0x3cc44c40	0.02396214
83	0x3d298f4d	0.041396428
84	0x3c526907	0.012842423
85	0xbcd47803	-0.025936132
86	0xbbcff009	-0.006345753
87	0x3bf4b69f	0.007468059
88	0xbc727e11	-0.014800564
89	0x3d3b846c	0.045780584
90	0x3d380cc8	0.044934064
91	0x3cc42c22	0.023946825
92	0xbc96ee66	-0.018424224
93	0xb9d2bf34	-0.0004019678
94	0xbca719b6	-0.020398002
95	0xbd2f3509	-0.042775188
96	0x3b2150c7	0.0024614797
97	0x3cccbd48	0.0249926
98	0xbba8f134	-0.005155707
99	0xbd3081b3	-0.04309244
100	0xbd171707	-0.036887195
101	0xbb946ff3	-0.004529947
102	0xbd388e70	-0.045057714
103	0xbd4bba7a	-0.049738385
104	0x3d252f4f	0.04032832
105	0xbd2059e3	-0.039148223
106	0xbbac7402	-0.0052628526
107	0x3c9fa908	0.01948978
108	0xbd04e6c2	-0.03244663
109	0x3d28450d	0.041081477
110	0xbd625756	-0.05525907
111	0xbca4ad44	-0.02010215
112	0xbd2ad001	-0.041702274
113	0xbd285dbe	-0.041105025
114	0x3ce54603	0.027987486
115	0x3d1597cf	0.03652173
116	0x3d0a0426	0.033695363
117	0x3c62b783	0.013837698
118	0x3c5eeef6	0.013606777
119	0x3cf307fa	0.02966689
120	0xbce39fc8	-0.02778615
121	0x3d129162	0.03578318
122	0x3cd0e4b8	0.025499687
123	0xbd16aa99	-0.03678379
124	0x3bc6622d	0.006054184
125	0x3b9f5d72	0.0048634345
126	0xbd19d034	-0.037552074
127	0xbd04a40e	-0.032383017
128	0x3d105ef7	0.035246816
129	0x3d1c6cdb	0.03818975
130	0xbcb2292c	-0.021748148
131	0xbb66b80d	-0.0035204918
132	0xbd00854f	-0.031377133
133	0xbcc88487	-0.024477256
134	0xbc83eeb0	-0.016105026
135	0xbd2684ff	-0.04065418
136	0xbd3cfb36	-0.04613801
137	0xbd521849	-0.05129269
138	0xbd548cd4	-0.051892117
139	0x3b902468	0.004398871
140	0x3c6b2800	0.014352798
141	0x3adb9295	0.0016752059
142	0xbbeb1b00	-0.0071748495
143	0xbd2c150b	-0.042012256
144	0xbcba1f21	-0.022719922
145	0x3c2e1476	0.010624995
146	0xbcc15fa0	-0.023605168
147	0xb9089302	-0.00013024735
148	0xbbc6c690	-0.006066151
149	0xbcdafe45	-0.026732573
150	0x3c82b504	0.015955456
151	0xbcd758a5	-0.026287386
152	0xbcf9c6b1	-0.030490251
153	0x3d2c7589	0.042104278
154	0x3cbce974	0.023060538
155	0x3d327c79	0.043575738
156	0xbd1dce59	-0.038526867
157	0xbd39816d	-0.045289446
158	0x3d14c864	0.03632392
159	0xbcd551f6	-0.026040059
160	0x3d11fe8a	0.035643138
161	0xbd11a9ab	-0.0355622
162	0xbc75cad5	-0.015001972
163	0xbc27b25d	-0.010235396
164	0xbd34ec7f	-0.044170853
165	0x3c6769fa	0.014124388
166	0xbc089733	-0.00833683
167	0x3d28491d	0.04108535
168	0xbd492da8	-0.049115807
169	0x3cb6f656	0.022334259
170	0xbd062add	-0.03275572
171	0xbd2a89f6	-0.041635476
172	0xbc962154	-0.018326439
173	0xbc9b2159	-0.0189368
174	0x3c596ac1	0.013270081
175	0xbb44a66f	-0.0030006429
176	0x3d1263ec	0.035739824
177	0x3be76596	0.0070616705
178	0x3c800bed	0.015630687
179	0xbcf54476	-0.029939871
180	0xbc3d64cf	-0.011559679
181	0x3d3d8217	0.04626664
182	0xbcebfca9	-0.028807001
183	0xbcf609d0	-0.030033976
184	0xbbc71024	-0.006074922
185	0x3c84f61a	0.016230632
186	0x3d107286	0.035265468
187	0xbd2bf6c3	-0.041983377
188	0xbd15bfb6	-0.036559783
189	0xbd2b3d88	-0.041806728
190	0xbd107efe	-0.03527736
191	0xbd4bfa93	-0.049799513
192	0xbcf5b3aa	-0.029992897
193	0x3ca0e54d	0.01964059
194	0x3cf9f20f	0.03051093
195	0xbcc159de	-0.023602422
196	0xbd1e7f84	-0.038695827
197	0xbcaa88e0	-0.02081722
198	0x3cff6122	0.031174246
199	0xbc06123b	-0.008183057
200	0xbd19a9a1	-0.037515286
201	0xbbea1db9	-0.0071446565
202	0x3c30aec1	0.010783852
203	0xbce92939	-0.02846204
204	0x3bb3a0de	0.0054818233
205	0xbb5be835	-0.0033555154
206	0xbc73ed2a	-0.014888087
207	0x3c12f2e8	0.008969046
208	0x3c08e2e3	0.008354875
209	0xbc9d7a50	-0.019223362
210	0xbd152b62	-0.036418326
211	0xbd05880e	-0.032600455
212	0xbc80b90f	-0.015713243
213	0x3ce538f2	0.027981255
214	0xbaf36d36	-0.0018571976
215	0x3ad73b3a	0.0016420849
216	0xbd0d66c9	-0.03452185
217	0xbd04c3bc	-0.03241323
218	0xbcab0f9c	-0.020881467
219	0x3c8d46ee	0.017245736
220	0xbd00618f	-0.03134304
221	0xba9a3e94	-0.0011767917
222	0x3d005bac	0.031337425
223	0x3cf39640	0.02973473
224	0xbcdfe565	-0.027331064
225	0xbd2fe2fa	-0.04294107
226	0x3c2a7328	0.010403432
227	0x3cea1a72	0.028577063
228	0x3d21080c	0.039314315
229	0x3d34574c	0.044028565
230	0xbcc7cf42	-0.02439082
231	0x3d46797f	0.04845571
232	0xbc8787a2	-0.016544167
233	0x3d0644f9	0.03278062
234	0xbd2de2f7	-0.04245278
235	0xbc740b3a	-0.014895255
236	0x3c3d4a03	0.01155329
237	0x3cb09db8	0.021559581
238	0xbbb7fd36	-0.005614902
239	0xbd14a802	-0.036293037
240	0x3ce17a19	0.027524041
241	0xbcde3b9e	-0.027128037
242	0x3d22d0a7	0.039749768
243	0x3bd5382b	0.00650694
244	0x3b428906	0.0029683723
245	0xbc8313f9	-0.016000735
246	0xbaa23703	-0.0012376014
247	0xbbf5ac56	-0.0074973507
248	0x3cb1437c	0.021638624
249	0x3c176aea	0.009241799
250	0x3cf79108	0.030220523
251	0xbcb40062	-0.021972839
252	0x3b7a3c22	0.0038182815
253	0x3c650e6c	0.013980489
254	0x3d27b43a	0.04094336
255	0x3cf5ed7a	0.030020464

sequential/conv2d_2/Conv2D f4 [32, 3, 3, 32]
0	0x3d83a732	0.06428374
1	0xbcf0320d	-0.029320741
2	0xbd53cfdf	-0.051711913
3	0x3cb863ae	0.022508468
4	0x3da6a85c	0.08137581
5	0x3d3ffbba	0.046870925
6	0xbd972c4c	-0.07381496
7	0xbd1bd500	-0.03804493
8	0xbd99ad7b	-0.07503792
9	0xbdcbcf29	-0.09951622
10	0x3d144489	0.036198173
11	0xbcba7a55	-0.02276341
12	0x3d8e8b7a	0.06960197
13	0xbcaf725c	-0.021416835
14	0x3d9eeeea	0.07760413
15	0xbda1d1c1	-0.079013355
16	0xbdbcf2ce	-0.09225999
17	0xbd1cac6f	-0.038250383
18	0xbd1ebdab	-0.0387551
19	0x3bc54461	0.0060201143
20	0xbbf7db03	-0.00756395
21	0xbd5d30e3	-0.0540017
22	0x3d7a850b	0.061162036
23	0xbdcbb706	-0.09947018
24	0xbd98b96d	-0.07457242
25	0x3cee78a1	0.029110255
26	0xbd17d2f1	-0.037066404
27	0x3d72d6cb	0.059286874
28	0xbd431a3c	-0.04763244
29	0xbd693760	-0.056937575
30	0xbd6355b6	-0.055501662
31	0xbd285cf9	-0.04110429
32	0x3db108b8	0.08644241
33	0xbcf3a7ad	-0.02974304
34	0xbd3f3946	-0.04668548
35	0x3ccc1a9b	0.02491503
36	0x3d2a7a47	0.04162052
37	0x3d4e72cc	0.050402448
38	0x3afada2a	0.0019138504
39	0x3d54b40b	0.051929515
40	0xbdc3524a	-0.0953718
41	0x3d9ed719	0.0775587
42	0xbd58aae6	-0.052897356
43	0x3db0e441	0.08637286
44	0x3d2c9933	0.04213829
45	0xbcc5f1cb	-0.024163147
46	0xbd4fc60d	-0.050725985
47	0xbd4ba4f5	-0.049717862
48	0x3daedfa4	0.0853875
49	0xbdc3bf18	-0.095579326
50	0xbd892c14	-0.0669786
51	0x3c1034f7	0.00880169
52	0x3cc0bff1	0.023529025
53	0xbd93a869	-0.07209856
54	0x3d83d994	0.06437984
55	0xbdd2476d	-0.1026753
56	0x3d10c583	0.03534461
57	0xbdc75f62	-0.0973499
58	0x3d4990c1	0.049210314
59	0xbcfba2c0	-0.030717254
60	0xbda0e734	-0.078565985
61	0xbd93c770	-0.07215774
62	0xbccd24ed	-0.025042022
63	0x3da783a5	0.08179406
64	0xbd800355	-0.062506355
65	0xbd98f855	-0.074692406
66	0x3d0fa82d	0.035072494
67	0xbcdfe6ae	-0.027331676
68	0x3d7ba1a4	0.06143345
69	0x3cf1ecd2	0.02953187
70	0xbc99ea11	-0.01878837
71	0xbd875db5	-0.0660967
72	0xbca6515e	-0.02030247
73	0x3d2acb0a	0.04169754
74	0x3a0df857	0.00054157287
75	0x3ca56b54	0.02019278
76	0xbdab2271	-0.083561786
77	0x3cc464fe	0.023973938
78	0xbc6f3346	-0.014599627
79	0xbd11ef74	-0.03562875
80	0x3dc27c60	0.09496379
81	0x3dbdbd93	0.09264674
82	0xbdc5a5cf	-0.09650766
83	0x3d5bf3d3	0.053699326
84	0xbcac7c3c	-0.021055333
85	0xbc942cbc	-0.018087737
86	0xbc2b6040	-0.0104599595
87	0xbbf51fe2	-0.0074806074
88	0x3c27467c	0.010209676
89	0x3ced9684	0.029002436
90	0x3d0eae0a	0.034833945
91	0x3d8549c1	0.06508208
92	0xbd27b870	-0.040947378
93	0xbd6d993d	-0.058007468
94	0xbd75cc5b	-0.06000934
95	0x3dc52e38	0.09627956
96	0x3b234d6a	0.0024917969
97	0x3ca793ff	0.020456312
98	0x3c90bdbf	0.017668603
99	0xbdb7b2e1	-0.08969665
100	0xbd634b20	-0.055491567
101	0xbd4d6c9e	-0.050152414
102	0xbdba5149	-0.09097535
103	0xbdb7ca27	-0.089741044
104	0x3da7a232	0.08185233
105	0xbd81d30f	-0.06339084
106	0xbd9402fe	-0.07227133
107	0xbcd03495	-0.025415698
108	0x3db1fe44	0.086910754
109	0x3cb89ba9	0.022535162
110	0x3dc080d8	0.09399575
111	0x3d90eb1c	0.070760936
112	0xbc5eb422	-0.013592752
113	0x3d5aeaac	0.053446457
114	0xbd7d8158	-0.06189093
115	0x3d219f5a	0.03945861
116	0x3bc90043	0.0061340644
117	0xbdf9009d	-0.1215832
118	0x3c64d9da	0.0139679555
119	0xb9850886	-0.00025374087
120	0xbd4583ae	-0.048221283
121	0x3d2963ab	0.041354816
122	0xbdbca07a	-0.09210296
123	0xbde612da	-0.112340644
124	0x3d83ec06	0.06441502
125	0xbcd2cf18	-0.025733516
126	0x3bc88f3a	0.0061205896
127	0xbc371a9a	-0.011175776
128	0x3d22ad04	0.03971578
129	0x3d8174ab	0.06321081
130	0xbd08f355	-0.033435185
131	0x3da5cbf8	0.080955446
132	0xbb0882df	-0.0020829958
133	0x3ca72d3a	0.020407308
134	0xbdb65f71	-0.08904923
135	0x3d5ff647	0.054678228
136	0x3dadd121	0.08487154
137	0xbda1403a	-0.07873578
138	0xbc49deed	-0.012321216
139	0xbd3be189	-0.045869384
140	0x3d8c11be	0.068393216
141	0xbc8f1de1	-0.017470302
142	0xbc51f13e	-0.012813864
143	0x3da0b355	0.07846705
144	0x3d80a5ae	0.06281601
145	0x3b5ad7ef	0.0033392867
146	0xbd27ec34	-0.040996745
147	0xbd3ca2c5	-0.046053667
148	0x3c0b14e8	0.008488871
149	0x3c035aa8	0.00801722
150	0x3da5d3cb	0.08097037
151	0xbd0dd44e	-0.034626298
152	0xbdcc092e	-0.099626884
153	0x3d82daee	0.06389414
154	0xbca59bbb	-0.02021586
155	0x3d431cef	0.047635015
156	0xbd733005	-0.059371967
157	0xbdbfbaba	-0.09361787
158	0x3d87231d	0.06598494
159	0xbd605c7f	-0.05477571
160	0x3cb2f822	0.021846835
161	0xba487e10	-0.00076481793
162	0x3d4222b8	0.04739639
163	0x3af486bd	0.0018655878
164	0x3da12bb1	0.078696616
165	0x3d163360	0.03667009
166	0x3db2e44c	0.087349504
167	0xbbd87900	-0.006606221
168	0xbc1d383b	-0.009595926
169	0x3d2e2b82	0.04252196
170	0xbdaeecf2	-0.085412875
171	0x3cb3edeb	0.021964034
172	0x3c6e8959	0.014559113
173	0xbd5e388a	-0.05425314
174	0xbc6827e4	-0.014169667
175	0x3cb1e418	0.021715209
176	0x3d9ca9a5	0.076495446
177	0x3d945508	0.07242781
178	0x3d7e7d0d	0.062130976
179	0x3cf2cb59	0.02963798
180	0xbd8bfca4	-0.06835297
181	0xbdbe9d5d	-0.093073584
182	0x3dcc0a39	0.09962887
183	0xbda24e03	-0.07925036
184	0xbdff7563	-0.124735616
185	0xbd83764e	-0.06419049
186	0xbd80b7ea	-0.06285079
187	0xbceaf3dc	-0.028680734
188	0x3d11e18e	0.035615496
189	0xbd1dbb4e	-0.038508706
190	0xbd190643	-0.037359487
191	0x3d8a2c4d	0.06746731
192	0xbb99eac4	-0.0046971757
193	0x3d88c6a9	0.066785164
194	0x3cfe2dbf	0.031027673
195	0x3d04dd11	0.032437388
196	0xbdaf9860	-0.08573985
197	0xbdbaccc7	-0.091210894
198	0xbc6498ea	-0.013952473
199	0x3d1ec43c	0.038761362
200	0xbdb06b35	-0.08614198
201	0xbce3a883	-0.027790314
202	0xbdd611ae	-0.10452591
203	0x3d06ce92	0.032911845
204	0x3cc559e8	0.024090722
205	0xbc827f9a	-0.015929986
206	0xbd9e6f73	-0.07736101
207	0xbd2ca133	-0.04214592
208	0xbdbe7f40	-0.09301615
209	0xbcc2d7fb	-0.023784628
210	0x3d8cc0a1	0.068726785
211	0x3d94079e	0.07228015
212	0x3d98ab53	0.074545525
213	0xbc1fbe60	-0.009749979
214	0xbd7e1dbb	-0.062040072
215	0xbc79e079	-0.015251272
216	0x3d8344ab	0.06409582
217	0x3cee51d9	0.029091762
218	0x3d0a0182	0.033692844
219	0xbd8090ec	-0.06277642
220	0x3ac0f0b0	0.0014720168
221	0xbd7883a6	-0.060672425
222	0xbd1d489a	-0.038399316
223	0x3d87d9bb	0.06633326
224	0x3da2ec70	0.07955253
225	0x3d5fbdb3	0.05462427
226	0x3dcb6926	0.09932165
227	0xbdbc17b3	-0.09184208
228	0xbd123bf9	-0.035701726
229	0x3cb9554f	0.022623686
230	0xbda275a9	-0.07932598
231	0xbda71786	-0.081587836
232	0xbba06c81	-0.004895747
233	0xbcdf0a7b	-0.027226677
234	0xbd91114f	-0.070833795
235	0xbd8f449e	-0.069955096
236	0x3d5aa691	0.053381506
237	0x3d3f0d1e	0.04664337
238	0x3cc136f1	0.023585768
239	0x3db1b156	0.08676402
240	0x3dce2567	0.10065728
241	0x3ca12a13	0.019673383
242	0x3d9ee1d6	0.077579185
243	0x3d36d221	0.04463399
244	0xbdd2c807	-0.102920584
245	0xbd47b327	-0.048754837
246	0xbdc784bf	-0.09742116
247	0xbd0876d2	-0.03331644
248	0xbd1ea5b8	-0.03873226
249	0xbda097e6	-0.07841472
250	0xbda521e9	-0.080631085
251	0xbd8749b6	-0.06605856
252	0xbd99ae2c	-0.07503924
253	0xbdb8e5ea	-0.090282276
254	0xbd6e1132	-0.058121867
255	0x3da5b639	0.08091397
