ana0700s2.tflite (tflite, 134180 bytes, 14 tensors)

sequential/conv2d/BiasAdd/ReadVariableOp f4 [32]
00000000: 4fc7 04be 553f 2dbe 2f97 20be c68c 2fbe
00000010: 1a6b 28be d507 cfbd be90 d2bd 83f0 d3bd
00000020: e05a 03be 59f1 04bd fe59 fabd 5369 efbd
00000030: e22b 2bbe 1e26 2bbe 49d3 4cbe 6156 d4bd
00000040: 32a5 a7bd 5ce7 4fbe db22 56be 90ab aebd
00000050: d5be 1cbe 5c50 a7bd 3d0a d4bd eaf9 28be
00000060: 6f4f 47be b291 4abe 3a69 d5bd d317 ebbd
00000070: cbb2 12be 127b e3bd d2fe c0bd f2cc 09be
-0.12966655 -0.1691869 -0.15682672 -0.17143545 -0.16447106 -0.10108916 -0.10281514 -0.10348608
-0.12827635 -0.03245673 -0.12224196 -0.11690011 -0.16715959 -0.1671376 -0.20002474 -0.10368038
-0.081858054 -0.203031 -0.20911734 -0.08528817 -0.15307172 -0.08169624 -0.10353515 -0.16501585
-0.19463895 -0.19782141 -0.10420461 -0.114791535 -0.14326017 -0.11107458 -0.09423603 -0.13457087

sequential/conv2d_1/BiasAdd/ReadVariableOp f4 [16]
00000000: 6a33 cebd 3761 8bbc 1722 44bd 44b4 c3bd
00000010: 268a afbd 6e8d bbbd cc98 71bc ecf8 21bd
00000020: 9fc1 8bbc 25ad aabd 0836 ebbd c492 04be
00000030: 20ac d2bc 500f 6cbd 2336 03bc 7d14 6fbd
-0.100684 -0.01701413 -0.047884073 -0.09555867 -0.085712716 -0.09157835 -0.014745902 -0.03954403
-0.0170601 -0.08333806 -0.11484915 -0.12946612 -0.025716841 -0.05763179 -0.008008513 -0.05836915

sequential/conv2d_2/BiasAdd/ReadVariableOp f4 [32]
00000000: 54c4 b13b 6cf5 68bd e804 fc3c 533e 5bbd
00000010: 69f1 cf3c f98b 3fbd 12b8 c43c 04c8 9fbd
00000020: e29b cb3c a01a c6bc a634 a83d d53d 343d
00000030: 2cfa a9bd 345e df3c 8d57 f53d 97bc 04bd
00000040: 390e b93d d4db d13d 22dd 9a3c 0619 b63d
00000050: bb15 333d c1ab 1d3e c532 053d 1d16 e43d
00000060: f394 30bd 1e84 9b3d 570b c43d 7f6d 8ebb
00000070: 7d3a 483d 6dee b73c 53c1 bd3d b9e3 ae3c
0.0054250155 -0.056874678 0.030764058 -0.053526234 0.025383668 -0.046764348 0.024013553 -0.07801822
0.024854604 -0.024182618 0.08213167 0.04400428 -0.082996696 0.0272666 0.119795896 -0.032406416
0.09035916 0.10247007 0.018904272 0.088914916 0.043721896 0.1539755 0.03251912 0.1113703
-0.0431108 0.07593559 0.095724754 -0.004346549 0.048883904 0.022452557 0.09265389 0.021348821

sequential/dense/BiasAdd/ReadVariableOp f4 [128]
00000000: be61 aa3d be28 a6bd efd6 993d e786 613d
00000010: d98c b5bc 18d4 563d cb4b 8f3d bc96 f33d
00000020: a568 a83d ce68 c8bd 80ee a9bd 756e ee3d
00000030: e015 2e3d 6a80 58bd 46ad 843b 9956 f4bc
00000040: 0f26 55bd 4ddf b3bd a145 68bd e00e f73d
00000050: dd73 0cbd 799a d03d 6c1b cabd 6d91 0cbe
00000060: 2e32 f0bd e9a9 b43d 95f6 9a3d 510b a6bd
00000070: 1e10 583d 1556 82bd 7e9b 8f3d afbd d8bc
00000080: 245c 693d 9ea2 fcbd 9051 283d 5b7d 403d
00000090: 698a 85bc 542f 9d3d 1667 84bd 61c2 d0bc
000000a0: 5af6 2c3c 2ec9 98bd ed02 cebd f64c 763d
000000b0: 9b85 4ebd 5d61 9a3d 2886 d43c 71d7 233e
000000c0: 809c c53d 95d2 e9bd 271c ec3d 12e2 023e
000000d0: d775 adbd 20bd 45bc 5bec 88bd 82ce c73d
000000e0: f1e6 42be 9fd2 bc3d 466b a83c 8f00 f9bb
000000f0: 4d6a 053d 74d3 17bb 862a 013d d1d9 edbc
00000100: 60ce 6c3d db16 da3d d411 49bd 152d 6d3c
00000110: 333f ac3c ac07 32be 5518 0ebe 0d97 bfbc
00000120: fd9d 0ebe 795e 8d3d b1de fa3d 4228 783a
00000130: 0d76 4e3d fcfb a13d 9c92 a23d 6584 0dbd
00000140: 419f b73d 7d76 bfbd bd79 95bd c2e3 dbbd
00000150: e87b 103d 1af6 60be 69c5 d2bc 095d 503d
00000160: 8de7 95bd 14d1 a33d 00e0 1bbd 6326 1cbd
00000170: c0b3 ccbd 5e25 9abd b753 12bd b07c 91bc
00000180: 8a47 afbc 23e9 82bd 68e6 383d 2b74 ac3d
00000190: a2af 583d b6fa cc3c f656 173d 8653 b4bd
000001a0: 82a0 7d3d 0266 053e 380a a63d eda1 b2bd
000001b0: 2a8d c33c b948 9b3d baa4 e63d b97b a23d
000001c0: 1b12 b03d 90f2 743d 8520 b63d 310d a6bd
000001d0: 8b1c c6bd 3586 8e3d 6945 f33c 43eb 30bd
000001e0: 3e5f 993d 8d4a 843c b7fb c4bc 7163 dbba
000001f0: 9798 9ebc f498 283d 914b f63d 10b9 9d3d
0.08319424 -0.0811324 0.075116985 0.055060294 -0.022161888 0.052448362 0.06996878 0.11893985
0.08223084 -0.09785615 -0.082974434 0.11642162 0.04250133 -0.05285684 0.004048976 -0.02982645
-0.05203825 -0.087828256 -0.05670703 0.12063384 -0.034290183 0.10185713 -0.098685116 -0.1372735
-0.11728321 0.0882147 0.07566563 -0.08107627 0.052749746 -0.06364075 0.0701208 -0.026457636
0.056972638 -0.12335704 0.04109341 0.04699455 -0.01630135 0.07675043 -0.064649746 -0.025483312
0.010556782 -0.07460247 -0.10059152 0.06013199 -0.050420385 0.07538102 0.025942877 0.16000153
0.09648991 -0.114171185 0.11528807 0.12781551 -0.08469742 -0.012069017 -0.06685706 0.09756185
-0.1903341 0.0921986 0.020558964 -0.0075989435 0.03257208 -0.0023166807 0.031534694 -0.029034527
0.057814002 0.106488906 -0.049089268 0.01447608 0.02102623 -0.17385739 -0.1387647 -0.023387456
-0.13927455 0.06902785 0.12249506 0.0009466448 0.05040555 0.0790939 0.0793812 -0.03455009
0.08965922 -0.09348772 -0.0729861 -0.10736801 0.035274416 -0.2196888 -0.025728898 0.050869975
-0.073195554 0.07998863 -0.03805542 -0.038122546 -0.09995222 -0.075266585 -0.035724368 -0.017759651
-0.021396417 -0.063921236 0.045141608 0.08420595 0.05290187 0.025021892 0.036948167 -0.08804993
0.06192065 0.13027194 0.08107418 -0.08722291 0.023871023 0.0758223 0.11261888 0.079337545
0.08597203 0.059801638 0.08892921 -0.08107985 -0.09673413 0.06959192 0.029696183 -0.043193113
0.07488869 0.01614883 -0.024045808 -0.001673801 -0.01935987 0.041161492 0.12026132 0.077013135

sequential/dense_1/BiasAdd/ReadVariableOp f4 [64]
00000000: 793f 0bbe 9ffc 8f3e f236 903e 13b8 7f3e
00000010: ebfc 49be 545f 853e cf27 723e 5db2 823e
00000020: c952 11bd 741b 0d3e 235d 3d3e 9e08 353e
00000030: 965b 24be ab65 123e 97ed 9bbd 17cd 98bd
00000040: c65f 663e ff61 27be e861 883e 6797 813e
00000050: b838 833e f2cf 54be c1d8 1d3e ead3 bb3d
00000060: e37b 603e 9a3c 66bc 4f57 38bd d35c 913e
00000070: 43f3 2b3e 953f f2bc 7d25 8c3e a984 84bd
00000080: a218 343e 637c 073e 4641 72be c181 40be
00000090: 2e3a 43bd 21c7 1f3e 87d0 1b3e 310e 773e
000000a0: b113 de3d c153 943e b5b0 893b 5c6f 9fbd
000000b0: 524a 803e 0c36 0d3d b7e0 2b3e 4d9d 103e
000000c0: 113e 4e3d aa72 603e 8ac7 1c3e 02cf b4bc
000000d0: 26b6 8c3e ea1b 65be 6707 713e 2427 7a3e
000000e0: aeb6 2f3e 56ad 063e 34ca 57bc 99ee 3cbe
000000f0: e6e9 12be 1f30 593e 5c6e 1bbe d4b7 643e
-0.13598432 0.28122422 0.2816692 0.24972562 -0.19725387 0.26049292 0.23647998 0.25526705
-0.03547934 0.13780004 0.1849256 0.17679068 -0.16050562 0.14296596 -0.07613676 -0.07460993
0.22497472 -0.16345976 0.26637197 0.25310823 0.2562921 -0.2078245 0.15414716 0.09171279
0.21922259 -0.0140525345 -0.04500514 0.28391132 0.16792016 -0.029571334 0.2737235 -0.064706154
0.17587522 0.13231044 -0.23657712 -0.18799497 -0.047662906 0.15603305 0.15216266 0.24126507
0.108435996 0.2897015 0.0042019733 -0.07784912 0.25056702 0.03447537 0.1678494 0.14122505
0.05035216 0.21918741 0.15310493 -0.022071365 0.27482718 -0.2237393 0.2353798 0.24428993
0.1715953 0.1315206 -0.013170768 -0.18450393 -0.14347038 0.21209763 -0.15178818 0.2233575

sequential/dense_2/BiasAdd/ReadVariableOp f4 [2]
00000000: 5e73 91bd ab35 063e
-0.07102083 0.1310641

sequential/batch_normalization/FusedBatchNormV3 f4 [3]
00000000: adb4 573b 325d 2e3b a01b 2d3b
0.0032914088 0.0026605842 0.002641417

sequential/batch_normalization/FusedBatchNormV31 f4 [3]
00000000: f6f3 d6be 54b1 a3be 44e5 98be
-0.41983002 -0.31971228 -0.29862416

sequential/dense/MatMul f4 [128, 32]
00000000: 9d27 2abe 9514 373e f955 f5bd 05bb eaba
00000010: 7982 27be ba7f 95be 28db 6abc 6cfe 95bd
00000020: c211 863e b7ec 02bd 9431 133c 355e 193c
00000030: 39e1 32be 7ca6 2bbb 799a d0bc 64f4 55bc
00000040: cb1e 2bbe 89a0 92bb eafa 393e 3c92 b3be
00000050: fbd3 4c3e 7a51 423e e376 afbe 7cdd 1ebd
00000060: 073b febd 9003 e0bd a1e8 803d 4ee2 023e
00000070: 0848 44be eefe 723c 1c35 833d bd63 41be
00000080: 0a83 423e 8c47 353e cc1d 063e 5322 223d
00000090: 6719 273e a4c1 9fbd e8c8 5fbc ea1c 9abc
000000a0: d5e0 44bd 65d7 46be 9edd 663d 763e 17be
000000b0: fc63 77bc 22a8 27be fd48 4d3d 7653 3d3d
000000c0: 2ab4 08be 5fcc 54bb 11e3 e83d e709 9d3c
000000d0: a19d 16be 1a90 4b3d 2a7a aa3d cd91 983d
000000e0: 9e85 2a3e 026a 1ebe ff5b 4f3d 1825 8d3d
000000f0: 7fd2 0c3d 5dcd 1cbe 8645 923c 5da9 213e
00000100: 0f8d 9e3d c007 af3d e319 05bd 316e 013e
00000110: f85c b6bd 10d4 09bc 1b1b e83d 7005 b7bd
00000120: a8e4 de3c 5c9e 40be cc87 e0bd b0ae 73bd
00000130: a291 e2bd 7ac0 0e3e bcb1 f8bd 4491 c4bc
00000140: f7ff 50be cd40 acbd b40d 1cbc c432 d7bd
00000150: 0e40 41bd 3679 b4ba 2e1a ee3d d0f2 663d
00000160: 952f 1a3c f25d 933d da8f 22bc 40c4 80be
00000170: 25d5 c0bd 0091 85be 29d1 edba 4cce 4c3d
00000180: a40f 20be eb90 c73d fe1b 353e c7c6 75bb
00000190: ad48 b9bc a856 f23d 0cd6 0bbd 1c9a df3d
000001a0: 82df 69be b422 31be 6314 ecbd a6f7 2c3e
000001b0: a90f acbd 7233 8d3d 8b2a 9bbd 4902 2ebd
000001c0: 5fa6 88bd 1ab3 0c3e c3c4 debd f89f 0b3e
000001d0: 2e7c 183c 477b 553e b7dd 403e 501e 063a
000001e0: 2893 bebd 42d2 203e 9dc4 11be 5f5b b0bd
000001f0: 2ef0 0c3d 5518 35be 8507 39be a6e3 3dbc
00000200: dea5 a73d b297 48be 2bba 043d 4c53 16be
00000210: 7b13 9b3d 12e7 a73d cff5 42be 1fab 8cbd
00000220: df49 05be 79c6 af3d be87 eabb 8837 35be
00000230: 2039 fbbc 4fcc 42bd b731 7abd c19c 2bbe
00000240: 7100 743e ec24 05bd 7764 aabd 2aa8 bebd
00000250: 1a5f 513d 6a6e 24be ac6a 4ebe d5c2 0b3e
00000260: 3bcf 903d 8f38 263e 2eb8 c43c f005 2abe
00000270: eeb9 bd3d 48aa f43d 1ef0 dd3d 211f d73d
00000280: b08f 3bbe 66e8 7cbb 2b95 3cbe 0ea8 c03c
00000290: 7433 f83d b16c 15be 9623 8d3d 9438 74be
000002a0: 17ec 1c3e a3df cebb 4447 cfbd 6d8f a83d
000002b0: 21e6 fb3d a075 14bd ff83 d43d 4c6a d23d
000002c0: 9982 383e e2f3 b13c f96d 113e e7eb 6dbe
000002d0: f1bf 283d b0ea 93bd f4d4 9abe 5c13 b93d
000002e0: 381f 263d 41a8 bebd 76c2 32be b94d fe3d
000002f0: 56a1 0c3d e244 75bd 29de bd3d 836d 00be
00000300: dcf1 ad3d 2390 893d ec82 b5bd ec95 0abe
00000310: 349b f13c 6914 b1bd 4730 c73c 7a3f 263d
00000320: fe76 aebd f469 663d f2d0 e33b dbe6 49bd
00000330: 3b08 373d 15a9 843c 8e02 95bb 6d9d db3d
00000340: 200c e83c 2969 7d3c 1c8d 543b dd7f 4f3e
00000350: b515 49be f4a1 9d3d 97af 6b3e a002 57be
00000360: 3cf1 423e fff1 d73d b205 31be f873 e7bd
00000370: f55f d83d 9101 5dbe e979 3d3d f494 53be
00000380: 5a94 843d 761d 40be 93c8 38be 4593 c93d
00000390: 1ab3 473c b96d ba3d 7610 dbbd d7e4 1abe
000003a0: d9cd 22be 1294 68bd 7632 7cbe 9e4c 2c3e
000003b0: f9c5 15be 005c f63d bc3f 7bbd 3e93 a03d
000003c0: 7d66 a8bd a005 0bbd 7311 223d ca2b 403c
000003d0: f854 dc3d 3b45 22be 99d9 03be 6c1c e3bd
000003e0: d009 07be d47c 63be 7037 08be 9c2b eb3d
000003f0: d35d 483e d859 c6bd 2834 053e 1c63 1fbe
-0.16616674 0.17878945 -0.119792886 -0.0017908519 -0.16358365 -0.2919901 -0.0143344775 -0.07323918
0.26185423 -0.03196403 0.008983988 0.00936084 -0.17468728 -0.0026191762 -0.025464283 -0.013058756
-0.16710965 -0.0044747037 0.18162122 -0.35072505 0.20002739 0.18976393 -0.3427039 -0.038785443
-0.12413602 -0.109381795 0.062943704 0.12781641 -0.19168103 0.014831288 0.06406614 -0.18885703
0.189953 0.17703074 0.13097304 0.039583515 0.16318284 -0.07800606 -0.01365874 -0.018812615
-0.04806598 -0.19418104 0.056363694 -0.1476992 -0.015099522 -0.16372731 0.050118435 0.046222173
-0.13349977 -0.0032470447 0.113714345 0.01916976 -0.14708568 0.049697973 0.08324082 0.07449684
0.16652533 -0.15470126 0.050624844 0.06891841 0.034380432 -0.15312715 0.017855417 0.15787263
0.077417485 0.085464 -0.03249539 0.12639691 -0.08904451 -0.008412376 0.11333295 -0.08936584
0.027208641 -0.1881041 -0.10963401 -0.059492767 -0.110629335 0.13940611 -0.12143275 -0.02399505
-0.20410143 -0.08410797 -0.009524751 -0.1050773 -0.047180228 -0.0013769034 0.11626087 0.056383908
0.0094107585 0.07195653 -0.009921992 -0.25149727 -0.09415654 -0.2608719 -0.0018144 0.050001428
-0.15630966 0.09744438 0.1768646 -0.0037502514 -0.022617662 0.118329346 -0.034139678 0.10918066
-0.22839168 -0.17298394 -0.11527326 0.16891345 -0.084014244 0.06894578 -0.07576474 -0.042482648
-0.06672358 0.13740197 -0.10877373 0.13635242 0.0093069505 0.20847808 0.18834578 0.0005116211
-0.093054116 0.15705207 -0.14235158 -0.08611178 0.03440874 -0.17685063 -0.18069275 -0.01158992
0.081859335 -0.19589117 0.032404106 -0.14680213 0.07572075 0.0819837 -0.19039081 -0.06868576
-0.13016461 0.085827775 -0.007157295 -0.17696965 -0.030666888 -0.047558125 -0.061082568 -0.16759016
0.23828293 -0.032505915 -0.083199434 -0.093094185 0.051116087 -0.16057745 -0.2015788 0.13648541
0.07070776 0.16232513 0.024013605 -0.16603827 0.09263979 0.11946541 0.10836814 0.10503984
-0.18316531 -0.0038590669 -0.18416278 0.023517635 0.12119189 -0.14592244 0.06891553 -0.23849708
0.15324436 -0.0063132807 -0.10121015 0.08230481 0.12299753 -0.03624499 0.10376739 0.10274181
0.18018569 0.021722738 0.14202107 -0.23234521 0.041198675 -0.072224975 -0.30240595 0.09036896
0.040557116 -0.09309436 -0.17456993 0.12417168 0.03433355 -0.059880145 0.09270889 -0.12541775
0.08493397 0.06716945 -0.08862862 -0.13533753 0.029492952 -0.08646471 0.024315013 0.04058788
-0.0851879 0.05625339 0.0069523985 -0.049292427 0.044685584 0.016193906 -0.0045474237 0.10723386
0.028326094 0.015466967 0.003243274 0.2026362 -0.19637187 0.07696906 0.23016201 -0.20997095
0.19037336 0.10544204 -0.17287329 -0.11301416 0.10565177 -0.21582629 0.04625884 -0.2066229
0.06473608 -0.18761238 -0.18045263 0.098425426 0.012188697 0.09102959 -0.10696499 -0.15126358
-0.15898837 -0.056781836 -0.24628624 0.16826102 -0.14626302 0.12029266 -0.06134008 0.07840584
-0.08222673 -0.03394091 0.039567422 0.01172919 0.10758394 -0.15846722 -0.12875976 -0.110894054
-0.13187337 -0.22215587 -0.13302398 0.11482927 0.19567041 -0.09685105 0.13008177 -0.15565151

sequential/dense_1/MatMul f4 [64, 128]
00000000: 364e d73d bb00 debc 7a84 8c3d 087a 063e
00000010: 54e0 323e d657 97bd 4b66 da3d 357e 0a3d
00000020: 1e79 66bd 00d4 263e c116 133e 9876 13bd
00000030: 04ff 39be 882a da3d e2e8 6dbd 7ff9 22be
00000040: 4aaa c33d cd1c 24be 71aa e83d 7327 023e
00000050: 05cd c43d 96d4 173d 8881 cb3d a44f 80bd
00000060: 3ada 13be 006f 823c e3a8 22bd 4303 2fbe
00000070: 8960 49bd 0583 763d d57f db3d 9da6 2abe
00000080: 7a2a 42be cf03 163e 1811 21bd 220f 12bd
00000090: 9008 a03b 9ead 033e 36b1 d4bd f26a 8b3d
000000a0: b70d 0b3e 6054 0d3e 2b8f 35bb ed19 5d3e
000000b0: 02b6 b93d 73b1 01be d7e5 edbd f5a7 153e
000000c0: 1d77 0fbd 30ba 12be e1ab 243d 13c4 36bc
000000d0: 83ec d5bd 8176 a2bd e0fd b4bc da00 aebd
000000e0: 9671 2a3e 43ed a8ba ac7c 96bd ae35 643d
000000f0: 356a babd 1d67 7dbd e746 ed3d 23e3 ce3c
00000100: af8b 043e 1484 d4bc c5af b8bd 9577 333e
00000110: d79d 013e 0ba5 f53d 6434 9bbd 1e3e 8b3d
00000120: c6b1 ba3d c2ef ee3d 22b3 9e3d 84f9 0a3e
00000130: 276a 383d d22d c1bb 0ade 19be 5fc7 11be
00000140: 6b06 0bbe a3eb 7ebd 092e 093e d517 03bd
00000150: 4e07 d0bd 88e5 06be ce1a 3c3d 9e96 afbc
00000160: ce1e 0fbe db75 8e3d b760 8d3c 6655 23be
00000170: ec9d 1f3e 3680 d13d fd8d d03d 1be6 56bd
00000180: bb79 d23c 08f8 d43d 7a54 ce3b 2709 21be
00000190: 8638 963d 990b 03be 9e2f 1bbe 114e f0bd
000001a0: 25fa 6ebd c629 3dbe e1e4 01be dfe1 053c
000001b0: 5759 37be 4d42 01be f187 bfbd 2373 6bbc
000001c0: ae3f a5bd 96a3 c93d 4209 743d 23df 223e
000001d0: 048c fa3d a2d5 64be 2c1d 0e3e 78e6 4bbd
000001e0: 50a0 803d 3da2 adbd 23db 863b 9481 05bd
000001f0: 58f2 31bd 2253 be3d ee4e 24be 5464 fcbd
00000200: 455d 76be 1f46 10be 5d94 133e d7eb c23d
00000210: 59a6 29bd 1435 61be c803 a7bd fa31 d03d
00000220: d20d bebd e1b5 0c3e f55c fe3d d0b8 053e
00000230: 9359 7bbe 8fbf 26be 3df1 20bd 0ae7 323e
00000240: a9f9 ad3d 4b84 b5bd ff13 dc3d 3d10 17be
00000250: dce5 b33d aeb0 4ebe bf24 35be b1b5 18be
00000260: eaa6 8e3d ca86 a53c a820 efbb 2edd 89bd
00000270: e48e 20be 0e04 f9bc 5058 afbd b319 c83d
00000280: 5657 8a3d cc9d e53d 3667 023e 4958 14bd
00000290: b8ae 073d a98f cebc 8e6d fb3d 75fb e33d
000002a0: ad79 22be 5c29 283e 3888 c6bd 058c b5bc
000002b0: d4c1 b6bd 1f6b c6bd c6dc 253e 38b6 70be
000002c0: 9795 b3bd ade1 7a3d 02f7 673c 0602 98bd
000002d0: a061 c4bd 1904 163e 12ed 99bc 18b8 963d
000002e0: abad 27bd b969 4cbd 99b3 833d e031 14bd
000002f0: 5555 0cbe 2c50 97bd e4e9 95bd 61d8 933d
00000300: 9dec ffbc 3cc4 8abe 2a26 bcbd 4da7 42be
00000310: 85ae f1bd 62d1 d2bc 4206 05be 1b94 de3d
00000320: ba71 583d 8ed2 243e 5155 243e 2e1d 0bbe
00000330: 96cd 3dbd 3381 413b 1cc8 39bd 6c60 afbc
00000340: 37d5 4cbe f6c2 02be 0522 a83d 7aee cdbd
00000350: 716a be3c ec4f d6bd 3594 61bd d17a a7bd
00000360: 37d5 bdbd 43a5 c7bc f79a 21be f5e1 87be
00000370: 5248 efbd 5b6d 313d ea64 303e 5711 18bd
00000380: c471 23bd 2fe9 b7bd fead 08be 1361 91bd
00000390: 5521 b1bc a638 f13d 544a 22bd 6bbc f03d
000003a0: b068 933d 85e9 51bd 28c0 f6bd 3543 763d
000003b0: 8671 dfbd d566 da3d ae72 88be c907 4b3e
000003c0: 2959 47be a2d4 15bc a76b 38be e5ca c2bd
000003d0: 3b02 df3d 2fd9 3bbd f71e 04be 04c9 e7bd
000003e0: 8bc9 853c f153 d6bc 5ea0 d1bd d0cc 1dbd
000003f0: 67d9 4c3c b4ff 8abd 4103 6dbd b3a8 813d
0.105129644 -0.027099958 0.068612054 0.13132489 0.17468387 -0.073898 0.10664042 0.033811767
-0.05626785 0.16291809 0.14364149 -0.03600177 -0.18163687 0.106526434 -0.058083422 -0.15915488
0.095539644 -0.16026612 0.11360634 0.12710361 0.09609417 0.037067972 0.099368155 -0.0626519
-0.14438716 0.01592207 -0.039711844 -0.17091088 -0.04916433 0.060183544 0.107177414 -0.1666512
-0.18961516 0.1464989 -0.039322942 -0.035658963 0.004883833 0.12859198 -0.10385363 0.068075076
0.1357945 0.13801718 -0.0027703743 0.21591921 0.09067918 -0.12665348 -0.11616104 0.14614852
-0.035025705 -0.14328837 0.04020298 -0.011155146 -0.10445502 -0.07932759 -0.022093713 -0.08496256
0.16644892 -0.0012888092 -0.07347998 0.055715255 -0.09102289 -0.061865915 0.11585789 0.025254792
0.1294391 -0.025941886 -0.090179004 0.17526086 0.12657867 0.1199437 -0.07578352 0.06798957
0.09115939 0.11666824 0.077490106 0.13571745 0.04502311 -0.005895355 -0.15026107 -0.1423621
-0.13576667 -0.06223644 0.13396467 -0.03200515 -0.10157643 -0.13173497 0.045924 -0.021434125
-0.13976595 0.06956073 0.017258031 -0.15950546 0.15587586 0.102295324 0.10183332 -0.05246554
0.025692811 0.10398871 0.0062966915 -0.15726148 0.07335 -0.12797393 -0.15154883 -0.1173364
-0.058344025 -0.18472967 -0.12684967 0.008171528 -0.17905174 -0.12622948 -0.09352101 -0.014370712
-0.080687866 0.09845655 0.05957914 0.15905432 0.12233737 -0.2234712 0.13878316 -0.04978034
0.06280577 -0.0847821 0.0041154786 -0.03259428 -0.043444008 0.092932 -0.16045734 -0.123238236
-0.24059017 -0.14089249 0.14412065 0.09517639 -0.041418407 -0.21992904 -0.08155018 0.10165782
-0.0927998 0.13741256 0.12420074 0.13058782 -0.24545889 -0.16284011 -0.039292563 0.17470947
0.084948845 -0.088631235 0.107460015 -0.14752288 0.087840766 -0.20184585 -0.17689799 -0.1491306
0.0696543 0.020205874 -0.007297594 -0.0673164 -0.15679508 -0.030397441 -0.08561766 0.09770527
0.06754939 0.11211738 0.12734684 -0.036217008 0.03312561 -0.025214987 0.12276755 0.11131946
-0.15866728 0.16422027 -0.096939504 -0.022161493 -0.089236885 -0.096884005 0.161975 -0.23507011
-0.087687664 0.061250377 0.014158012 -0.07422261 -0.09588933 0.1465 -0.018789802 0.07359332
-0.040937107 -0.049905512 0.0643074 -0.036180377 -0.13704427 -0.073883384 -0.07320002 0.072190054
-0.031240756 -0.2710284 -0.09186967 -0.19009133 -0.11800865 -0.025734607 -0.12990668 0.108680926
0.052842833 0.16095945 0.1604817 -0.1358535 -0.04633864 0.0029526472 -0.045356855 -0.021408282
-0.2000321 -0.12769684 0.08209614 -0.100552514 0.023244115 -0.10464463 -0.055072982 -0.08177722
-0.09269183 -0.024370795 -0.1578177 -0.2653958 -0.11683716 0.04331718 0.17225996 -0.03712591
-0.039903417 -0.08980023 -0.13347623 -0.070985936 -0.02162234 0.11778383 -0.039621666 0.11754688
0.07197702 -0.051248092 -0.1204837 0.060122687 -0.10910325 0.10664145 -0.26649994 0.19827189
-0.19467606 -0.009144934 -0.18009816 -0.09511355 0.10889097 -0.04586142 -0.12902437 -0.113176376
0.016331455 -0.026163073 -0.10235666 -0.038525403 0.012503005 -0.06787053 -0.05786443 0.06331005

sequential/dense_2/MatMul f4 [2, 64]
00000000: e887 223d 49cf a0be fcc9 e53e 446f 6c3e
00000010: 4ea0 083d 1d8f a2bc 0263 64be 1752 02bc
00000020: 13d1 3ebe 2fcc a23c 1af0 1ebe 8bc9 9e3d
00000030: e711 233e a9ed d8bd dde5 0dbc 7600 f1bd
00000040: d929 56be 8aa4 903d d5d0 a43e fbf3 ccbd
00000050: 5460 083e 4107 5b3e 5ba2 d63d 4745 3fbe
00000060: 9961 8d3e 5b60 863d 37d4 17be 3816 6d3d
00000070: 541a 463e 727f 153e f2ac 4a3e 4907 e53d
00000080: 48e6 e5bd 48a8 07be c8f3 36bd e9e7 0b3e
00000090: 6e42 083d f9ab 0f3e 7150 3abe 36a9 773e
000000a0: f897 a33d e942 a33e 10c2 123e 2896 2abc
000000b0: 7427 a6be 8aba efbd 7ee8 62be 2f8f eb3d
000000c0: 2ea7 a4bd e9a8 1c3e 7f77 c4bd 3d66 5e3e
000000d0: 03ab 9f3e 6cc3 7fbe 078f 60be 5bf6 8abe
000000e0: 9dcb 00be 8d53 6dbe 733c e6bc 367b 773d
000000f0: 2bef 77bd ab5c 513e 3ac5 8dbc 0188 393e
00000100: 92f9 10be 6725 d4bd 143c 113e f362 97be
00000110: e160 fbbd d5ed b53e 12fa d83d 28a6 81be
00000120: 6b5a 15be 7953 37be d11e 00be e480 37be
00000130: cc79 8c3c 966d 063e c42a d0bd e372 9a3d
00000140: 8708 8a3e a939 c83d 12a2 3fbe e343 73be
00000150: 18ae 95be 30ea b4bd 5cfc 3b3e 1647 8f3d
00000160: f88a 9a3b 6b3c f1bd 79ec 64be 96c3 b1be
00000170: 3f62 63be c15e 87be b5c6 bf3e 1480 7dbe
00000180: f17e 2abe 6f5e 833e 678e 26be 9112 d63d
00000190: 0990 4fbe 7dbf 643e 2175 58bc d9e9 863d
000001a0: 4b6b 763e f4a2 32be c1f3 4abe f0d7 5e3e
000001b0: d839 da3d 1442 4b3d dadb 16be b438 ef3c
000001c0: de20 a33d d3cb 17be 1666 583e 6cc5 4fbe
000001d0: e980 86bd 8979 dc3d 3556 8ebe 383d c0be
000001e0: c46a f43d ff32 32bc 835f 09be 88ef a33c
000001f0: 87ea a63d 888a e83d 1387 113e 6c80 2ebe
0.03968039 -0.31408146 0.44880664 0.2308932 0.033356003 -0.019843632 -0.22303393 -0.007954142
-0.18634443 0.019872753 -0.15521279 0.07753285 0.15924798 -0.10592205 -0.008660761 -0.11767666
-0.20914401 0.07062633 0.32190576 -0.10007473 0.13317996 0.21389486 0.104801856 -0.18678771
0.27613524 0.06561347 -0.14827047 0.057882518 0.19345981 0.14599398 0.19792536 0.1118303
-0.11225563 -0.13247788 -0.04466608 0.13662685 0.033266477 0.14030446 -0.18194748 0.24185643
0.0798797 0.31886986 0.14331841 -0.010411777 -0.32451975 -0.117055014 -0.22159001 0.115019195
-0.080396995 0.15298809 -0.095931046 0.21718688 0.3118516 -0.24976891 -0.2192956 -0.2714108
-0.12577672 -0.23176403 -0.028104996 0.060420237 -0.060530823 0.20445506 -0.017305959 0.18118288
-0.14157704 -0.103586964 0.14183074 -0.2956768 -0.122743376 0.35533014 0.10594572 -0.2532208
-0.14585273 -0.17902936 -0.12511756 -0.17920262 0.017147921 0.13127741 -0.10164407 0.07541444
0.2695963 0.09776623 -0.18714169 -0.23756365 -0.29234385 -0.0883373 0.18357986 0.069959804
0.0047162734 -0.11779102 -0.22355832 -0.34719533 -0.22205447 -0.2643948 0.3745629 -0.24755889
-0.16649987 0.25657985 -0.1626526 0.1045276 -0.20269789 0.22338672 -0.013211519 0.06587572
0.24064367 -0.17444974 -0.19819547 0.21762061 0.10655564 0.049623564 -0.14732304 0.029201843
0.07965253 -0.14823847 0.21132693 -0.20290154 -0.065675564 0.107653685 -0.27800146 -0.37546706
0.119344264 -0.010876416 -0.13415341 0.020011678 0.08150201 0.11354548 0.14211683 -0.17041177

sequential/conv2d/Conv2D f4 [32, 5, 5, 3]
00000000: c6bf 593d eb35 a63d 329d 2f3e 4cac a7bb
00000010: 12a6 fc3d ac01 d73d ffdb f9bd a5c4 ebbb
00000020: 464e 66bd 74de 61be d150 33bd be79 e4bd
00000030: dbfa 06bd 3162 f93c 131f 023d a556 2c3c
00000040: 39a9 a03d 965d 813d 74d3 f63d f812 833d
00000050: febf dc3d 4926 cbbd 872b 113d 7563 d53c
00000060: 2a5e 76be 0331 e4bd b83e 00be 2832 4abe
00000070: 2925 3abb 2aab 56bb c1f1 ae3a 94bf d3bc
00000080: 2894 3dbc e62f 143e d602 223c 7566 9c3d
00000090: 8254 a13d d71e 323d 3f12 763d 469f b23d
000000a0: c0e3 953d 98db 4c3e 3298 42bd fa90 973d
000000b0: 1ef9 c93d 1ff2 063c e2ed 623c f818 39be
000000c0: 12df 5ebc 348b 913b b855 b6bc 44ec a83c
000000d0: 6705 6f3d bd0d 4e3d 5137 30bc e4d9 873c
000000e0: 89e6 8e3d ed88 da3b 9bf9 383b 47ee 9d3c
000000f0: 4b96 30be a683 89be 850b 8cbe b549 d3bd
00000100: 0229 49bc 4cc9 5ebe aee5 103e dd9e e53d
00000110: 6a9c 12bc f65e d53d a553 ce3c d7cd 44bd
00000120: 3eff dd3b befa cdbc 8fed 48bd 60c9 e4bd
00000130: b48d 543d 7064 96bb 75a5 d4bd 2c04 bc3b
00000140: 6934 ec3d 8ac4 b53d 76d6 9a3d 26ab 853d
00000150: 08db 53be 55b1 d5bd 830d f3bc 927e d93d
00000160: c836 0c3e 8527 cc3c 1404 9a3d 6067 bc3d
00000170: d2b0 553e c8ea 83be 0786 3bbe ade9 49be
00000180: 4ae3 15be 1715 0ebe 5b47 c4bd ba66 f03d
00000190: c2c3 b23d 3b93 aa3d 2ed1 af3d 67d1 ad3c
000001a0: 4028 78bc 0345 04bd 43b9 5d3d 6d92 fa3c
000001b0: 62e1 6ebd 2c80 c6bd 88f5 8b3d cd3d ac3d
000001c0: 4cb0 2d3d d4b0 e43d 0833 81bc 8d58 8a3d
000001d0: f699 733d 1266 a4bd 9b7e efbc 775b 81bd
000001e0: 94b6 96bb 5d02 403e 891b 133e 6817 f8bd
000001f0: b060 d1bd 1ecb d4bd f38f 25be 82f1 12be
00000200: 8c6f c7bc bb26 4ebe 6c4c 58bd f662 86bd
00000210: 3f30 9b3d a12d 373d 195d 39bc 6f3d 053d
00000220: ca79 b43d 90ff a03d f08e fb3d af84 fc3c
00000230: 68f7 763d 8271 0dbe ceac 15bd 4bf8 33bd
00000240: b160 393c 7faa 903d c3c9 e6bb 0bce 8c3d
00000250: c57a 5f3c 99c5 b2bc 1ba0 7bbd e439 44be
00000260: 3ea0 d43b 8537 b93d b544 12bd ba5f cd3d
00000270: dd9b 32bd 2f39 abbc bd70 84bd 60c6 9d3c
00000280: a914 993d 9a75 893d a2c4 00be f355 183e
00000290: 9ac7 b93d 270e d4bc 6e8a 11be f3c6 e9bc
000002a0: ae89 65bc 30de b9bd d32a fbbd dac2 0e3d
000002b0: b7de dbbd 8863 d0bd 379b b83c c702 e03d
000002c0: f515 e33c 6efb 02be ffb8 ac3c c6dc ac3d
000002d0: bf23 f8ba e306 eabd ccdd 89bd 1949 183d
000002e0: 1d21 4cbe 77f7 e6bc a77a e03d 665c b5bb
000002f0: 61a3 4dbb 1863 8bbe 5763 56be 4bd6 7ebe
00000300: 401d adbd f827 5f3d 08c8 493d 88f1 fcba
00000310: b751 19be 9496 0fbe cbb5 ce3c 7859 6fbd
00000320: 80d6 e43c a3ab 033e d526 053e 8cb9 2a3e
00000330: b366 47bb 1ac0 86ba 8783 3c3d 99cf 1dbe
00000340: d129 8b3d e956 f33d 12ac 733d ca12 a7bd
00000350: f18a a1bd 811b 66bd 2c21 6abd 59cb 2a3d
00000360: 1dab fe3d a2ea 993d 1d88 103e b818 b53c
00000370: 7c30 073e 8387 b23d 9ad0 03bd a4d9 343e
00000380: 026b a63e 1fd9 d6bd 9f8a 303c 304e a0bd
00000390: 6684 60bd b726 153e 1de1 bc3d 5c20 05be
000003a0: c4af cdbb 9417 d43b 07a2 193d de43 bc3d
000003b0: 3af1 9b3d 7790 aebc 7763 153e 1f19 c0bc
000003c0: 4766 54be a000 4b3b 2b7d 963d 0198 b4bd
000003d0: 6971 593d 5310 bd3d 73da 083e a2b9 d83c
000003e0: 3c87 82bb 0420 993d 566d ba3d 2808 c7bc
000003f0: 9bb1 56bd 5dcf 30bd 756c 55bd 80c0 0abe
0.053161405 0.08115753 0.17149809 -0.005116975 0.12336363 0.10498366 -0.12200164 -0.0071950727
-0.05622699 -0.22057515 -0.043778244 -0.11156033 -0.03295408 0.03044233 0.031767916 0.010518705
0.07844777 0.06316678 0.1205205 0.064001024 0.10778807 -0.09919412 0.0354419 0.026048401
-0.24059358 -0.11142161 -0.12523925 -0.19745696 -0.0028403497 -0.003275583 0.0013347195 -0.025848188
-0.011570968 0.14471397 0.009888371 0.0763673 0.07877447 0.043486442 0.060075995 0.08721785
0.073188305 0.20005643 -0.047508426 0.07400699 0.098619685 0.008236437 0.013850661 -0.18075931
-0.013602989 0.004441643 -0.02225767 0.020620473 0.05835476 0.05030607 -0.010755376 0.01658339
0.06977565 0.006669155 0.0028224948 0.019278659 -0.17244832 -0.26858252 -0.2735254 -0.10316793
-0.012277843 -0.21756476 0.14150116 0.112119414 -0.008948425 0.10418503 0.02518637 -0.048047867
0.006774812 -0.025143977 -0.04905468 -0.11171222 0.05189295 -0.00458961 -0.10383121 0.005737802
0.11533434 0.088753775 0.075604364 0.065267846 -0.20689023 -0.10434214 -0.029669529 0.106198445
0.13692772 0.024921188 0.07520309 0.09199405 0.20868233 -0.2576506 -0.18312846 -0.19718046
-0.14637485 -0.13875233 -0.095839225 0.117383435 0.08728744 0.08328863 0.0858482 0.021218015
-0.015146315 -0.032292377 0.054131757 0.0305874 -0.05832041 -0.096924156 0.06833941 0.08410225
0.042404458 0.1116654 -0.015771404 0.06755171 0.059473 -0.08027281 -0.029235175 -0.06316274
-0.0045994017 0.18750902 0.14365973 -0.121138394 -0.1022352 -0.10390304 -0.16168194 -0.1434994
-0.024345182 -0.20131962 -0.052807257 -0.06561844 0.075775616 0.04472125 -0.0113137 0.03252929
0.08812292 0.07861245 0.122831225 0.030824987 0.06029454 -0.13812831 -0.036541753 -0.043937963
0.011314557 0.070637695 -0.007043095 0.06875237 0.01364011 -0.021822738 -0.061431985 -0.19162709
0.006488829 0.09043793 -0.035710055 0.10028024 -0.043605674 -0.02090129 -0.064668156 0.019259632
0.07474644 0.06711884 -0.1257501 0.14876537 0.09071274 -0.025885655 -0.14212963 -0.02853725
-0.014009876 -0.09075582 -0.122640274 0.034853794 -0.10735839 -0.10175234 0.02253495 0.1093803
0.02772043 -0.12791225 0.021084307 0.08440547 -0.0018931552 -0.11427095 -0.067317575 0.037179086
-0.19934507 -0.028194172 0.10960894 -0.0055346964 -0.00313779 -0.2722404 -0.20936333 -0.24886434
-0.084528446 0.054481477 0.04926303 -0.0019298056 -0.14972578 -0.14022285 0.02523317 -0.058434933
0.027934313 0.12858443 0.13003094 0.16672343 -0.0030426204 -0.0010280639 0.04602387 -0.15411223
0.06795085 0.11881811 0.05949027 -0.081578806 -0.07887829 -0.056178574 -0.05716054 0.041697834
0.12434981 0.07515456 0.14114423 0.022106513 0.13202089 0.08717253 -0.03218136 0.17661148
0.32503515 -0.10490631 0.010775237 -0.07827413 -0.054813765 0.1456555 0.092226245 -0.13000625
-0.0062770564 0.0064725373 0.037508037 0.09192632 0.0761437 -0.02130912 0.14588724 -0.023449479
-0.2074214 0.0030975714 0.07348093 -0.08818055 0.053086672 0.09231629 0.13364582 0.026455704
-0.0039834064 0.074768096 0.091028854 -0.024295881 -0.05241547 -0.043166507 -0.052105386 -0.13549995

sequential/conv2d_1/Conv2D f4 [16, 5, 5, 32]
00000000: 9ef2 723d 2be8 a7bd dc5f 0a3c c26d 693e
00000010: ff3e acbc ce7f ed3c 3791 6fbd b3bc b0bd
00000020: d661 d83c 8136 da3d ee0e 923d 81c4 1c3d
00000030: 33a2 66bd 24b7 ecbd 2811 debc 5878 02bd
00000040: 236c d3bd 7b8e 36be 1513 a8bd c33f 05be
00000050: ed67 cfbd f0af c23c b69c 9bbd 7a69 8f3d
00000060: ba72 65bc 605f 7bbd 2434 ca3c 13fa 34bd
00000070: 5ec6 f73c 76ea 313c 8136 8d3d 5658 e439
00000080: 7bb6 273d 1786 b5bd 3a41 79bd 68a0 89bd
00000090: af96 34bc cea5 063e 236f 58bd 700f 25be
000000a0: 25c3 7abd 336e 99bc a8fb dabc cd18 023e
000000b0: 45d7 9f3d 6ec3 a8bd af32 073d 6f11 1e3c
000000c0: 3cac bebd ce1e 33be 2141 a4bd 861b e9bc
000000d0: 83e4 acbd 54c7 2abe 1a34 1bbd 7ebc 08bd
000000e0: f896 46bc c625 7e3d 5d19 0abd 7f1a d2bd
000000f0: 9ece fc3d 8ec2 babd 9ed2 e73d 827e 12be
00000100: 27cf ab3c dbab 143d f6cd 88bd 691d 13bc
00000110: 31b0 f1bd f8a2 a1bb 332a 753d 35c8 eb3d
00000120: 2687 8e3a 1f99 34bd 0d8f e3bb 5d49 f43d
00000130: 9469 213d 4a0b c03d 5a08 bfbd 2934 89bc
00000140: aebf 73bd 2d4d 0cbc 72d2 193d 2636 11bd
00000150: 6e77 c43d 99ca 0cbe c5b8 da3a c534 653d
00000160: 684e 853d ca53 f7bd 3424 493d df96 58be
00000170: b130 76bd 654c e3bd 3608 863d 5936 a6bd
00000180: c930 54be 08f4 4a3c 4496 f0bc 6955 dc3c
00000190: c563 cd3c 5587 82bc 4380 cc39 e14c 763d
000001a0: 95bc b0bd bc98 23be 9e17 dcbd a6db e7bc
000001b0: c080 abbd ac72 063e d7cb 59be 4f9f 11bd
000001c0: 34db b9bd 5ef7 243d e50c 6cbb 23db 20bd
000001d0: 09f9 8dbc 06d2 0cbd 0fef c73d b508 44bd
000001e0: 77c5 bd3c f59c 56bd e0f5 53be 9f49 96bc
000001f0: 1ab1 e93d a322 d6bd ac6e d23c 9e4c 843d
00000200: eb26 003e 0ddb 3f3d 589c d53d 637c 64bd
00000210: fcb4 8d3d 984a de3d a78b 9b3d 415b fd3c
00000220: bdd4 8bbc 8317 99bd 62fe 4cbd 2911 f3bc
00000230: 31bd a5bc 0ff0 3dbd 6a5c dc3c 0d5c a73d
00000240: 25c3 1ebd b7b6 f3bc aed8 8d3d 8c6b e93d
00000250: 603c 72bc c4ea d0bc ad9d 8e3d 5499 a83d
00000260: e892 193e 6407 0a3d 177b cb3d 8e56 10be
00000270: f433 343b cdc2 b63b 2c5a 1c3d b6d2 893d
00000280: 80b5 aabc b9d6 f13b 48e3 863d 46c6 913d
00000290: 3224 2bbe b22b 143e 30bf a23d f16c abbd
000002a0: d59c 3fbc 554e 853d 5987 9fbd 5b0e b93d
000002b0: ba9d e93b b602 cf3c d3f7 5fbd 23fd c43c
000002c0: 12bd 98bd 65c2 f2bd b5a1 233d 9c56 2f3e
000002d0: e9cd 99bd 2a56 ebbd 4b12 bbbd 9126 a4bd
000002e0: 6775 5c3e a68d 84bd de14 e6bc 5e0e 0c3d
000002f0: 697a b83d 115b 463d 9737 07be 93e1 10be
00000300: f8da fe3d f68c 12bc a7e7 053e 3bc8 4bbd
00000310: 7762 803d 4058 67bc 6db5 dd3b bf18 433d
00000320: a3c7 e4bd 6d3d a0bc 6bb8 6cbd 9325 14bd
00000330: b635 8a3d 69d1 97bd 443a 573d 602d 8d3d
00000340: 4e02 df3c 1d3c 0ebe 5e57 d43d 0873 07bc
00000350: 11af c2bc f5e4 df3d eaaa f7bd 1ac9 e5bc
00000360: 0224 bbbd b39b b3ba 704d 6f3c b856 40bd
00000370: 3d2a ff3d 0800 ca3c 7acb f73d 4cc5 583d
00000380: f4d0 14be 3385 1e3c d1c2 b33c 47ac b2bd
00000390: 222e 2b3c 99f3 8bbc c4d9 153d 1985 493c
000003a0: 3806 b6bd e197 06bc a031 063d fd3a 2cbb
000003b0: d74a 853d 615f 07be 29e7 3fbd d921 1f3d
000003c0: 44b3 e23a e241 9a3c a1e8 993d 3da8 efbd
000003d0: fbc4 85bd 6ec2 15be f22c b2bd 5d5b 86bd
000003e0: 15d5 a73d 1cd3 31bd 298e 843d 9b8f 4fbd
000003f0: 6cbf f3bc 7f36 19be a856 413b e957 1ebd
0.05931341 -0.081985794 0.008445706 0.22795776 -0.021026133 0.028991606 -0.058488097 -0.086297415
0.02641384 0.10654927 0.07131754 0.03827334 -0.05630703 -0.11558369 -0.02710779 -0.03185305
-0.1032336 -0.1782779 -0.082067646 -0.13012604 -0.10127244 0.023765534 -0.075982496 0.0700254
-0.014004404 -0.061370254 0.024683066 -0.0441838 0.030245956 0.0108591225 0.068951614 0.00043553364
0.04094551 -0.08863466 -0.06085322 -0.06720048 -0.011022254 0.13149187 -0.052840363 -0.1611917
-0.06122126 -0.018729305 -0.026731327 0.12704773 0.07804731 -0.082404 0.03300732 0.009647711
-0.09310195 -0.1749222 -0.08020235 -0.028455507 -0.08442023 -0.166776 -0.037891485 -0.033382885
-0.012120955 0.062047742 -0.033715595 -0.1025896 0.123440966 -0.091191396 0.11319469 -0.14306071
0.020972801 0.036296707 -0.06679909 -0.00897918 -0.11801184 -0.0049327575 0.059854697 0.11512796
0.0010874018 -0.04409134 -0.006944543 0.119280554 0.039407328 0.09377153 -0.09327765 -0.016748505
-0.059508972 -0.008563322 0.037554212 -0.03545203 0.09593092 -0.1374916 0.0016687146 0.055958528
0.065090954 -0.12076528 0.04910679 -0.21151303 -0.06010503 -0.110985555 0.06544535 -0.08115835
-0.20721735 0.012387283 -0.029368527 0.026896195 0.025071988 -0.015933672 0.00039005475 0.06013191
-0.08629719 -0.15976232 -0.10746692 -0.028302979 -0.083741665 0.13129681 -0.21269165 -0.03555232
-0.09075013 0.04027497 -0.0036018428 -0.039271485 -0.017330663 -0.03437998 0.09762394 -0.047859866
0.023165448 -0.05239578 -0.20699263 -0.018345652 0.114107326 -0.10455825 0.025687538 0.06459926
0.12514846 0.046839762 0.10430211 -0.055782687 0.06919286 0.108540714 0.07594996 0.030927302
-0.017069215 -0.07475188 -0.050047286 -0.029671269 -0.020231815 -0.046371516 0.026899535 0.08171854
-0.038760323 -0.029750211 0.06926094 0.11397466 -0.014784902 -0.02550257 0.06963668 0.0823237
0.14997447 0.033698454 0.09935587 -0.14095518 0.0027496787 0.0055774213 0.038171932 0.06729643
-0.0208385 0.0073803333 0.06586319 0.07117896 -0.16713026 0.14469793 0.07946622 -0.08370388
-0.0116951065 0.06509081 -0.077894874 0.09035941 0.007129398 0.025269847 -0.054679703 0.024046486
-0.07457937 -0.11853484 0.039949138 0.17122883 -0.07509977 -0.11491044 -0.091343485 -0.080151685
0.2152916 -0.0647233 -0.028086122 0.03419339 0.09007723 0.04842669 -0.132048 -0.1414855
0.12444109 -0.0089447405 0.1307665 -0.0497515 0.06268781 -0.0141201615 0.0067660124 0.04763102
-0.1117089 -0.01956054 -0.057793062 -0.036168646 0.06748526 -0.07412989 0.0525458 0.0689342
0.027222779 -0.13890119 0.103682265 -0.008267172 -0.023765119 0.10932342 -0.12093146 -0.028049994
-0.09137727 -0.0013703018 0.014605865 -0.0469577 0.12459228 0.024658218 0.12099357 0.052922532
-0.14532834 0.009675312 0.021943482 -0.087242655 0.010448011 -0.01708393 0.03658463 0.012299799
-0.08887905 -0.008214922 0.03276217 -0.0026280277 0.06508415 -0.13219978 -0.04685131 0.03885064
0.0017295857 0.018830243 0.075150736 -0.11702011 -0.06531712 -0.1462495 -0.08699979 -0.06560395
0.08194939 -0.04341422 0.064724274 -0.050674062 -0.029754363 -0.14962195 0.0029501114 -0.038658056

sequential/conv2d_2/Conv2D f4 [32, 3, 3, 16]
00000000: ea65 88bd 2bc1 ce3d 5c98 25bd 037a f23b
00000010: 1316 963b 4c08 283d 6bd0 b73d 93a5 2b3e
00000020: 7c4a dfbd 0910 943c 609f 67bb 2f03 edbd
00000030: 5c37 19bd f8e7 07bd 32fb d7bc 09ce 253d
00000040: 9f02 dabc 7b7f b93d df8c 1dbd 8d9f f5bc
00000050: f120 1ebe bf9f 0bbd 882b e8bd ca88 683d
00000060: eb8b b7bd f915 c7bd 8231 a6bd 55ef 24bd
00000070: b519 093d 69fe 14bd 5472 99bd abe9 f9bc
00000080: 006f f63c 0b2b dcbd c433 d0bd ca55 033d
00000090: e6b9 72bd 35d1 163d 4e6a b1bd 6bd4 d9bd
000000a0: a078 ecbd 724a 8bbd 3d38 18bd e5f9 febd
000000b0: 9760 913d a4b6 b83d e70f b53c 24ab dfbc
000000c0: 9883 cdbd 8789 c13b 06ae fcbd cdd1 cfbd
000000d0: cdec 1bbe 4773 e7bd 91d3 cebd 3c3c 90bd
000000e0: c4b9 89bd de25 6bbd bf60 59be 2889 18be
000000f0: 0c6c cabc 3841 d9bd 33bb 56bc 157e 4bbd
00000100: ae17 fcbd 867c 2bbe a626 afbd 2a26 963e
00000110: 3288 a5bc 052a 08be bf01 cbbd 865c 64bd
00000120: dac7 ab3d 2ed8 6ebd e820 033d 87cd 0f3d
00000130: b6f7 98bd fcfe c4bd 85c0 113e 7673 2a3d
00000140: 10c8 b9bd a41a d73c 5e01 233e 65ec 1fbd
00000150: 74af 9cbd 1818 83bd ee1e 8bbd 4086 a63c
00000160: 9b45 0f3d e39a 11bd 0c93 4c3c 747f 57bd
00000170: 28b5 b3bd b218 af3c 067a 0a3d 9791 9cbd
00000180: 1326 3fbd 4fde f0bc 96d6 723d f18a babc
00000190: 8c6e 8dbd ccec c63c afa1 febc 5ab6 8e3d
000001a0: 62e1 cabd c42f c1bd 74fa 423d c346 57bd
000001b0: 0a46 9c3d f70f 22be 05d1 95bd 0aa5 293d
000001c0: 2f77 1cbe 1d21 f33b 6bf9 1ebd 5b50 383e
000001d0: 7dc6 10be 413f a0bd 9422 523d 0580 883b
000001e0: 3737 253d d80b 7e3b fd3e a03d ba7e 153e
000001f0: 5e5f db3e 14e0 903d ff22 443d 8ec5 0abe
00000200: e103 93bd 645c f73c 428e c1bd 30b8 bf3b
00000210: 63e4 2abd 2f4f 3f3c 86e3 a6bd a9db d33b
00000220: f6ab c13c 0cd3 a2bd 3395 4c3d 1656 acbc
00000230: f2be 84bd 7574 8ebd 3ee8 ecbd 5f80 4f3e
00000240: 095c e43d c7d1 adbd 64ba 14bc b528 f9bd
00000250: 37da 103e 9846 a6bc 91de 17bd 82c2 973d
00000260: d6a6 1abd 3344 afbd 0fba 823d 988f 233d
00000270: 79d7 3d3d 3dc3 c03d 09de 963d 4b55 66bb
00000280: 8e00 4ebc 06d3 12bd f86d 183d 0bd7 09be
00000290: e65d d1bd 5bbb 5d3d 4e51 91bd 386c 29bd
000002a0: 765f ea3d 8f10 3fbd edc3 b1bd 4186 eb3c
000002b0: 904f e4bd 1dda 3bbd 275a 913c d404 adbd
000002c0: 1a9e a9bd 41af c03d 081f 70bc 3537 c4bc
000002d0: 7e95 b5bd e801 8d3c 9eea 28bd 0809 bdbd
000002e0: d715 a23d c5be 76bd f2e3 bebd 5845 193c
000002f0: de0b 663d 9b7d b2bd a4e9 c4bd 14a1 1f3d
00000300: 5003 94bd 0654 1f3d 10e7 36bc ea9e c0bc
00000310: 724b 25be b2d1 91bd edf4 ebbd 563f b03d
00000320: ed56 ccbd 5324 a23c 7f44 06be 98f6 953b
00000330: 427b 0d3d 78d8 0fbe cbe4 493d 2e8b 68bd
00000340: 4d9e 82bd 9358 623d 64cd d7bd 5ab9 143d
00000350: 36c5 f5bd 3840 c4bd 8d2b 913c 64c4 b13c
00000360: c1db 7a3d bfd6 5a3d ec35 bfbd 5ec0 d33b
00000370: f347 ea3d 0846 b9bd a1a4 ee3b da32 2fbc
00000380: bc20 eebc 70b7 4f3c 54bc 113d 58cd 6f3d
00000390: 903f cbbd a13e e6bd 0ede 643d 26c3 b9bd
000003a0: 9fbf a0bd 35ad 41bc 95f6 5f3c c16c c8bd
000003b0: 6904 963d b520 afbc 2eb9 a0bc d2ac 81bc
000003c0: f8ea d5bd 9efd 883d 522b d03c dacd c03d
000003d0: d647 efba 4607 943b b148 cf3d 7b09 dc3b
000003e0: 0ca4 9abd 7ff0 c53d 73ff 29bc 3ec7 bebd
000003f0: 39b2 8a3d 0594 053d ea64 c7bd 6143 b33d
-0.066600636 0.100954376 -0.040428504 0.007399799 0.004580268 0.041023538 0.089752994 0.1676238
-0.10902879 0.018074052 -0.0035342798 -0.11572873 -0.03740631 -0.033180207 -0.026364896 0.040479694
-0.026612578 0.09057518 -0.038464423 -0.029983306 -0.15442254 -0.034087893 -0.11336428 0.056771077
-0.08962234 -0.09720988 -0.081149116 -0.040267307 0.03347178 -0.036375437 -0.074925095 -0.03050693
0.030082226 -0.10750397 -0.101661235 0.032064237 -0.059259318 0.03682061 -0.08662854 -0.10636219
-0.11546445 -0.06801309 -0.037163008 -0.12450007 0.07098501 0.09019211 0.02210231 -0.027303286
-0.10034865 0.005906287 -0.1233788 -0.10147438 -0.15227051 -0.11301284 -0.10098947 -0.07042739
-0.06724885 -0.05740916 -0.21228312 -0.14896071 -0.024709724 -0.106081426 -0.013106155 -0.049680788
-0.12309204 -0.1674672 -0.085522935 0.29325992 -0.020206545 -0.13297279 -0.099124424 -0.0557523
0.08387728 -0.058311634 0.032013804 0.035108116 -0.07469122 -0.09618947 0.14233597 0.04161402
-0.09071362 0.02625782 0.1591849 -0.039043803 -0.076506525 -0.0640108 -0.06793009 0.020327687
0.03497849 -0.035548102 0.012486231 -0.052611783 -0.08774787 0.02137408 0.033807777 -0.076449566
-0.04666717 -0.02940288 0.059286676 -0.02277133 -0.06905851 0.024282835 -0.031082956 0.069683746
-0.099062696 -0.09432939 0.047602132 -0.052557718 0.076305464 -0.15826403 -0.07315258 0.04141716
-0.1527984 0.007419719 -0.038812082 0.17999403 -0.14138217 -0.07824565 0.051302508 0.0041656517
0.04033586 0.0038764384 0.07824514 0.14599124 0.42846197 0.070739895 0.047884937 -0.13551924
-0.07178474 0.030195422 -0.09450962 0.0058508143 -0.041721713 0.011676594 -0.081488654 0.0064653945
0.023641568 -0.0795041 0.049946975 -0.021037143 -0.064817324 -0.06955806 -0.11567734 0.20263813
0.11150367 -0.084872775 -0.009077642 -0.121659674 0.14145742 -0.020297334 -0.03707749 0.07410146
-0.037756763 -0.0855793 0.06383144 0.039931864 0.04634807 0.09412239 0.073665686 -0.0035146053
-0.012573374 -0.03584578 0.03721425 -0.13460939 -0.10222988 0.054133754 -0.07095586 -0.04136297
0.11443989 -0.04664665 -0.08679948 0.02875054 -0.11147988 -0.045862306 0.017743183 -0.084481865
-0.082821086 0.09408427 -0.014655836 -0.023952106 -0.08866404 0.017212823 -0.041239373 -0.09230238
0.07914322 -0.060240526 -0.09320821 0.009354912 0.05616366 -0.087153636 -0.09614876 0.038971975
-0.07227194 0.03889849 -0.011163488 -0.023513276 -0.16142061 -0.07120074 -0.11521325 0.0860583
-0.09977517 0.019792711 -0.13112067 0.0045765154 0.034541376 -0.1404742 0.04929046 -0.056773357
-0.0637785 0.055260252 -0.10537222 0.036309578 -0.120005056 -0.09582561 0.017720962 0.021700092
0.06124473 0.053427454 -0.09336457 0.006462141 0.114395045 -0.090465605 0.007282809 -0.010693276
-0.029068343 0.012678012 0.035579994 0.05854544 -0.09924233 -0.11242414 0.05587583 -0.09070425
-0.07849049 -0.011821081 0.01366963 -0.09786368 0.0732506 -0.0213779 -0.01961955 -0.015829477
-0.10445207 0.06688999 0.025411282 0.09414263 -0.0018255662 0.0045174686 0.10121287 0.0067149973
-0.07550821 0.096650116 -0.010375845 -0.09315346 0.067722745 0.032611866 -0.09736045 0.08753086
