ana0910s1_long.tflite (tflite, 204360 bytes, 14 tensors)

sequential/conv2d/BiasAdd/ReadVariableOp/resource f4 [32]
00000000: 8515 9fbd 7b8d 0abe dd00 11be 1642 c9bd
00000010: 3c0c acbd 3718 2dbe 3ea0 35be 06cb 1abe
00000020: af65 19be 4783 0bbe d4a5 e3bd b8b6 f7bd
00000030: f57a 04be 401c 0abe d3e3 97bd e947 07be
00000040: 6637 cabd 165c 23be 252c 20be d6d1 37be
00000050: c85c a5bd a383 b1bd 3147 ecbd 1ddd 32be
00000060: 8068 a0bd 2b2a c3bd aaa5 bcbd c666 a1bd
00000070: 7e23 c6bd a1d3 a2bd 0a0a 06be 513b f1bd
-0.077677764 -0.13530533 -0.14160486 -0.09827058 -0.08400771 -0.16903768 -0.17736909 -0.1511651
-0.14980195 -0.13624297 -0.111156136 -0.12095398 -0.1293753 -0.13487339 -0.07416501 -0.13211025
-0.09873848 -0.15953097 -0.1564184 -0.1795114 -0.08074337 -0.08667686 -0.11537016 -0.1746716
-0.07832432 -0.09529527 -0.092112854 -0.078809306 -0.09674738 -0.07950521 -0.13089767 -0.11778892

sequential/conv2d_1/BiasAdd/ReadVariableOp/resource f4 [32]
00000000: cb32 3d3d ef24 7abc 9245 8dbc 7802 5c3d
00000010: 6fc6 7d3d d148 89bd a577 febd 6de7 9cbd
00000020: d107 a5bd 45fb f7bc 6060 09be 35be 8cbd
00000030: 4b41 9ebc 1ea0 d2bc 90b0 d2bc 5fe0 8ebc
00000040: c40f f8bd e37d 26bd 73b2 c4bb 10bd 1c3d
00000050: c81d d2bb dc8a 68bd 865e 5cbd 0976 e2bd
00000060: d6bc 53bd 6fd3 103d 6911 fb3b decc 0dbc
00000070: d3d4 21bd c767 423d a1d8 c0bc 5fdd b1bc
0.046191018 -0.015267595 -0.017245088 0.053713292 0.06195682 -0.06703342 -0.12425164 -0.076613285
-0.080581315 -0.030271182 -0.1341567 -0.068722166 -0.019318243 -0.025711115 -0.025718957 -0.017440973
-0.12112382 -0.0406474 -0.006002718 0.03826624 -0.0064122416 -0.05677305 -0.053801082 -0.1105767
-0.05169376 0.03535789 0.0076619876 -0.008654801 -0.039509606 0.04746225 -0.023540797 -0.021712003

sequential/conv2d_2/BiasAdd/ReadVariableOp/resource f4 [32]
00000000: 8391 ab3d c5ca 293d 3014 c93d 520a 21bd
00000010: 90f8 75bc 5c45 833c 5743 b83d bc2f 0dbb
00000020: 6c6e 433d 8f9f 933d 9368 d03c 97f1 8d3d
00000030: ada3 7e3c f878 e03d ec67 803c d908 17bb
00000040: 36d9 9e3c 96d9 833d d58d e13d 6e90 ecbd
00000050: c1ea 273c dadd 213d 4bd8 8a3c e04d aabb
00000060: 0eda 563d c18b b93c 552b 1ebc 1ddc 99bb
00000070: 7721 6e3d 07e1 993d 5153 de3d 6eb9 5e3d
0.083773635 0.04145314 0.098183036 -0.039316483 -0.015012875 0.016024284 0.08997219 -0.0021543344
0.04771273 0.07208168 0.02544049 0.06930845 0.015541953 0.10960573 0.015674554 -0.0023046045
0.019390684 0.064379856 0.110133804 -0.11550985 0.010248841 0.039518215 0.01694884 -0.0051972717
0.052454047 0.022649648 -0.009653886 -0.004695429 0.058137383 0.07513624 0.10855735 0.05437606

sequential/dense/BiasAdd/ReadVariableOp/resource f4 [128]
00000000: d74c a33d 91d5 6dbb cfe5 fd3d e192 853d
00000010: f2ce c93d 94e1 ebbc 889b 64bc f2e8 cd3d
00000020: 8a8d e53d 8cf2 933d 820c b33d 5fee ad3d
00000030: c497 82bd 70e6 05be 04d9 243e ad11 cd3d
00000040: 2e3a a23d 6bde bdbd 78bd eb3d a830 a13d
00000050: 1f3f a93d 6909 053e ffb6 843d 2195 c03d
00000060: 4b43 113d ef39 fc3d 496a 113e fc8c febc
00000070: 5ee1 e03d 2002 dcbc 16b2 7abc 6340 bb3d
00000080: 46e5 133e 02e9 ed3d 0fb8 75bc 9b6a 883d
00000090: 9add f23d d4e1 a73d 7aa5 d1bb 29e3 34bd
000000a0: 64a2 733d 3de0 a3bd bba7 b6bd cafe ae3c
000000b0: 88a6 483d d1a4 153e 5689 3a3d 9848 fb3c
000000c0: d0c9 a23d 02e7 01bd 2436 93bc d366 d2bc
000000d0: 9578 123d 5732 c53c 2336 01be 8565 c43d
000000e0: d4dd 23be 7b31 a3bd 82ec 9d3d b1a3 903c
000000f0: f00d fe3d ff29 a13d e5b8 a63d 2068 44be
00000100: 4825 1c3d 5d93 a53c bde3 aa3d a9ac 6fbd
00000110: f9a2 803d 23c0 1cbe 8230 0b3e a142 013e
00000120: e92d 0e3e cfe2 7fbd c4eb e2bb 8a17 4d3d
00000130: 875f 6e3d 4f6f f83d 9cc4 6b3d f503 21bd
00000140: a799 c8bd a1df a73d edd6 30bd ea45 403e
00000150: 5107 87ba 3cd6 b4bd 08f9 f5bd ae10 f93d
00000160: 3e05 14bd 9b9c e93d 34b0 2fbe a253 933d
00000170: 70bf 91bc 73a3 93bd a34d bdbd 8744 de3d
00000180: 1483 043d a28b 743d ebc0 f43c eebc 513d
00000190: 1095 cf3d 1e44 af3d d1b5 49bc 5821 ad3d
000001a0: e4e2 02be deb7 cdbd e5d2 51bd d3dc c9bd
000001b0: 22ff e03d 9431 8f3d 6bdc 29be 9308 62ba
000001c0: 7c6d f9bd e80f a33d a084 023e e231 e53d
000001d0: a21d 223e ecf8 46bd fc10 633d b9e5 853d
000001e0: 5e14 863d 112a 3c3e c8ae 8e3d f92d d13d
000001f0: 3116 0e3e e967 6b3d 8be8 e73b 414c 34bb
0.079736404 -0.0036290626 0.12397348 0.065221556 0.09853925 -0.028794087 -0.013953097 0.100541964
0.11208637 0.072239965 0.0874262 0.08492731 -0.06376603 -0.13076186 0.1609841 0.10013137
0.07921253 -0.092709385 0.11510748 0.078706086 0.082639925 0.12991871 0.06480216 0.09403444
0.035464566 0.123157375 0.14200701 -0.031073086 0.109804854 -0.026856482 -0.015301248 0.0914314
0.1444293 0.11616708 -0.014997496 0.066609584 0.118586734 0.0819737 -0.0063979 -0.04416195
0.05948104 -0.080017544 -0.08918711 0.021361727 0.04898694 0.14613654 0.04554113 0.030674264
0.07948649 -0.031714447 -0.017970152 -0.025683796 0.035759527 0.024071855 -0.12618308 0.09589676
-0.1600259 -0.07968422 0.07711126 0.01765618 0.12405002 0.07869338 0.081407346 -0.19180346
0.03812149 0.02021187 0.08344219 -0.05851427 0.062810846 -0.1530767 0.13592723 0.12623073
0.13884701 -0.06247216 -0.006925078 0.050071277 0.05819657 0.121306054 0.05756055 -0.039310414
-0.09794932 0.08196951 -0.04317372 0.1877667 -0.0010301863 -0.088299245 -0.120103896 0.121613845
-0.03613781 0.11406823 -0.1715706 0.07193686 -0.01779148 -0.0720891 -0.09243324 0.10852914
0.03235157 0.059703477 0.029877147 0.051205568 0.10135853 0.08557914 -0.012311415 0.084536254
-0.12781864 -0.100448355 -0.051226515 -0.09856572 0.10986163 0.06991878 -0.16587989 -0.00086224935
-0.121790856 0.07962018 0.12745905 0.11191155 0.15831617 -0.048577234 0.05543612 0.06537957
0.065468535 0.18375422 0.06966931 0.10213847 0.13875653 0.057472143 0.007077282 -0.0027511271

sequential/dense_1/BiasAdd/ReadVariableOp/resource f4 [64]
00000000: 96a0 8b3e 91f4 743e 356d 823e 2251 9a3e
00000010: 4d6b 823e 1938 063e 3644 60be 056f a23e
00000020: f3b2 ba3e 70a7 723e 8924 a73e e510 02bd
00000030: d617 623e e55b 5c3d 5ba0 78be 168c 913e
00000040: d21c b6bd e21d b03e 3ae4 8abd fb8f a93e
00000050: 74e4 6b3e 4e42 7d3d 59fd 4b3e b387 0ebd
00000060: 2ddd 4a3e b4d7 36bd b9a1 b53d a572 9bbd
00000070: b0e6 6bbd 17b0 99be 063c 36bd cdce 06bd
00000080: 4d9e 963e 332e a83e ac8a 903e 83a1 aebc
00000090: 6102 9a3d 885f 9a3e 77d1 323e 4aff 3bbe
000000a0: 54fd 79be 8704 8e3e e046 343e 6954 913e
000000b0: fe3c 1a3d c00a 65be dc80 c93d 423f a93e
000000c0: ed35 903e a303 a0bd 3267 6bbe 547c a6bc
000000d0: 0178 b53e 21b8 883e 77ad 763e b2a2 69be
000000e0: 9fb5 8f3e 346b 8fbc d538 d3bd 6883 d63d
000000f0: 2f0a 4e3e d91b 76bc 38d2 7a3e 1372 9b3e
0.27270955 0.2392142 0.25473943 0.30140024 0.2547249 0.13107337 -0.2190102 0.31725326
0.36464652 0.23696685 0.32645062 -0.031754393 0.22079405 0.053798575 -0.24279921 0.2842719
-0.08892216 0.343978 -0.06781812 0.3311766 0.23036367 0.06183081 0.19920863 -0.03479738
0.19810934 -0.044639304 0.08868737 -0.07590226 -0.057593048 -0.30017158 -0.044490837 -0.032912064
0.2941765 0.32847747 0.28230798 -0.02131725 0.07519985 0.3015101 0.17462717 -0.18359104
-0.24413043 0.2773783 0.17605162 0.28384712 0.037655823 -0.22367382 0.09839031 0.33056074
0.28166142 -0.07813194 -0.22988585 -0.020322956 0.35443118 0.2670298 0.24089609 -0.2281597
0.28068253 -0.017507173 -0.10313574 0.104742825 0.20121072 -0.015021288 0.24494255 0.3036047

sequential/dense_2/BiasAdd/ReadVariableOp/resource f4 [2]
00000000: ff33 12be 6f23 8abb
-0.14277647 -0.00421565

sequential/batch_normalization/FusedBatchNormV3 f4 [3]
00000000: 59ab bcbe d252 6dbe bffd 47be
-0.36849478 -0.23176125 -0.1953039

sequential/batch_normalization/FusedBatchNormV31 f4 [3]
00000000: 2710 303b a049 023b d596 fb3a
0.0026865096 0.001988031 0.0019194732

sequential/dense/MatMul f4 [128, 32]
00000000: 95f5 febd 1a36 9a3d 8720 c2bd 4652 373d
00000010: 2427 cfbb ecc7 45bc bb7e 8dbd 164a 153e
00000020: 4298 233e 2dd9 91bd 7178 f9bd dd3a 0cbe
00000030: 05bf 06be 029b ecbc 5d97 b43d c69a 533b
00000040: ab82 ddbd 283b c8bd 2b88 3ebe 6a23 abbd
00000050: 6373 a93d 4416 4fbc 52c5 443e 625d bbbe
00000060: ce59 443e 6cce c73d 6512 57be e8ff 1ebe
00000070: d5a2 51bc c204 423e 5ffc 8bbe 3dce aebc
00000080: 853c 083d d9c2 193d ce79 e7bc ad16 213d
00000090: e1f7 d8bd 137b e73d 4c81 a0bc 77bb 0a3c
000000a0: ea2b e4bd d65c c63d 4d36 b83d a80a 4cbe
000000b0: 0bab 963a fbb4 083e 035a d63d 64bd 86be
000000c0: e7ed df3c 59c4 073c abb8 003e 23ee 2e3d
000000d0: 4561 5a3d b388 e6bd 7513 13be 2285 74bc
000000e0: 2a20 3ebc a143 45be c337 f93c da83 f13c
000000f0: 2b92 32be f449 d93d a580 adbc 5fc3 5ebd
00000100: 5e38 1bbe 3fa8 4e3e 4e69 723e 8062 85bc
00000110: a6a2 8d3d 68a9 a7bb 247e 243d 6875 54be
00000120: f717 f93d 1543 a33d c140 4abd e356 f0bd
00000130: 49fb 76bc 1339 6fbe 8038 70be eaae 90be
00000140: 1642 f63d 53b6 f03d 7483 f2bd 9c9f c03d
00000150: 5f18 b03d d8a7 b2bd 882c 2c3e 5f34 b03a
00000160: 0f70 63be 8069 ca3d bf0b 1d3e db5d d1bd
00000170: a294 ccbd 4951 043e 8872 853d 70c9 eebd
00000180: 2a90 f0bd 3a26 dabd 2cfc 3ebd b3a0 dbbc
00000190: 5c27 16be 6228 cbbc d3f4 53bc 05b4 3fbe
000001a0: 5894 3b3c a48e 893d 9fd3 503d 9e81 3dbe
000001b0: c721 a5be 96f5 2b3e 9a3d 12bd 4cbb fdbd
000001c0: ac69 d13d f1ca 4ebc e6ef 1dbe b497 1ebd
000001d0: 10fd 90bc bbf9 83bd a9fc 4a3d 852e 96be
000001e0: 2e47 8c3b ff5c 6cbd 727b 87bd 2aa8 16be
000001f0: 91f6 d3ba 7518 a73d 402b 55be 0412 b43d
00000200: 12a0 093e c701 2bbe e091 93bd a1e9 7bbd
00000210: 5650 30be 8cfe 14be 1e6e a3bd 97f3 05be
00000220: 0f19 be3d 5dea 37be a47b 973a ea07 0dbe
00000230: 09d8 f7bd d321 923d 414f 64be 8fe0 24bc
00000240: d4a0 b6bd b12d 9bba ece7 113d c72f 413c
00000250: c2d9 e23d 4774 e0bd 6362 0dbd 2695 96be
00000260: 9df7 e4bc 62f1 1c3e 8189 7dbd 7da1 9bbb
00000270: 4094 94bd c828 2fbd 4421 1fbe 0f1b c4bd
00000280: 9c9c 70be 3239 a8bb 9dfa b03d 59d4 313d
00000290: b9a4 533d 2dcc f43d 9d20 f93c 4f73 06be
000002a0: 92b5 213c f5ca f23d 1bf6 66bd 9f83 f6bc
000002b0: a563 b53d 4d8f 7b3c 1945 ab3c e250 283e
000002c0: 09c2 40be 8288 5e3e 7ed6 b3bd 48b3 373d
000002d0: 030c 52be bfd3 e5bd 629b f83c 7a88 6dbc
000002e0: 6ebd 243d 6167 0ebd 8692 f1bd eeda cb3c
000002f0: 3b12 d2bd 3780 1c3e 33be 50be 7cb3 ae3d
00000300: c19c f2bd 3df8 1c3d 3ca3 0f3d e413 093d
00000310: 9640 bd3c 9eb4 44bd 65f3 f53d 0d5c 16bd
00000320: bec8 28be 8c3c 14be 37d0 8bbd 02b7 09be
00000330: 6544 b73d 1120 0fbe 150c beb8 7216 9fbd
00000340: 72e0 86bd 22f0 b73d a6d3 51bd 95da 46bd
00000350: 5402 423b 6519 e13d b70e 98bd 698b 263e
00000360: eff8 debd f55e b0bd 1edf 313d 09bf 10bd
00000370: 3693 04be 2a5b bfbd 10c7 9d3d 8c81 d3bd
00000380: 0898 94bd 61b4 a83d d714 913d 7282 213e
00000390: ca88 28be ee8f 1a3d dddb b6bc cb6e 38bd
000003a0: 8270 2abe fc50 47bc 46b0 eabd a13c c2bd
000003b0: 0464 333e ffa5 34bd bee6 bb3c 0311 d9bd
000003c0: 9014 0c3d ae28 1b3c ce3e 233e 189d 38be
000003d0: de23 28be 751a 7e3e c207 833d 5f4f be3c
000003e0: 1d04 5bbb 612d 153e fd07 99bb 5c6d d23d
000003f0: 3633 c9bc 027e 433d fd69 9d3d 66ac 42be
-0.12449185 0.0752985 -0.0947886 0.044756196 -0.0063218046 -0.012071591 -0.069089375 0.14579043
0.1597605 -0.07121501 -0.121811755 -0.1369433 -0.13158806 -0.028882507 0.08817933 0.0032288297
-0.108159386 -0.09776908 -0.18606631 -0.08356364 0.082739614 -0.012639586 0.19215897 -0.36594683
0.19174883 0.09756169 -0.2100311 -0.15527308 -0.01279517 0.18947127 -0.2734098 -0.021338576
0.03326084 0.037539337 -0.028256323 0.039328266 -0.10594154 0.113027714 -0.019592904 0.008467547
-0.111411884 0.09685676 0.08994732 -0.1992594 0.0011495067 0.13350289 0.10466387 -0.2631637
0.02733512 0.008286559 0.12570445 0.042707574 0.05331542 -0.11256542 -0.14362891 -0.014924319
-0.011604348 -0.1926408 0.030422097 0.029481817 -0.17438571 0.106098086 -0.021179507 -0.05438554
-0.15158221 0.20181368 0.23672983 -0.01628232 0.06915788 -0.0051166303 0.04015936 -0.20747912
0.12162774 0.07971779 -0.04937816 -0.11735322 -0.0150745595 -0.23361616 -0.23459053 -0.2825845
0.12024324 0.117535256 -0.11841479 0.09405443 0.085983984 -0.0872342 0.16813862 0.0013443342
-0.22210716 0.09883404 0.15336512 -0.1022298 -0.09989287 0.12921633 0.06515986 -0.11659515
-0.11746247 -0.106518224 -0.04662721 -0.026810026 -0.14663452 -0.02479953 -0.012936789 -0.18721016
0.011448942 0.0671666 0.050983068 -0.18506476 -0.32252333 0.16792902 -0.03570328 -0.1238924
0.102252334 -0.012621627 -0.15423545 -0.038718894 -0.017698795 -0.06444117 0.04955736 -0.29332367
0.004280946 -0.057705875 -0.06615342 -0.14712587 -0.0016171505 0.08158962 -0.2081728 0.08792499
0.13439968 -0.16699897 -0.07205558 -0.061502103 -0.17218146 -0.14550227 -0.079799876 -0.13081203
0.09282123 -0.17960496 0.0011557234 -0.1377255 -0.12101752 0.07135358 -0.22295858 -0.010063305
-0.08917394 -0.0011839179 0.03562157 0.011791176 0.1107669 -0.10959678 -0.034517657 -0.29410666
-0.027950102 0.15326455 -0.061898712 -0.0047494755 -0.07254839 -0.0427635 -0.15540034 -0.095754735
-0.23497242 -0.0051337713 0.08641551 0.0434154 0.051670764 0.11953006 0.030411059 -0.13129924
0.00986995 0.11855117 -0.05638705 -0.030092059 0.08856896 0.01535399 0.020906972 0.16437104
-0.18824019 0.21731761 -0.087811455 0.04484871 -0.20512395 -0.11222028 0.03034753 -0.014497871
0.040219717 -0.03476656 -0.11795525 0.024884667 -0.102573834 0.15283285 -0.20385055 0.08530328
-0.11846305 0.038322676 0.03506778 0.033466235 0.023102086 -0.048023812 0.120093144 -0.03670888
-0.16482827 -0.14476222 -0.06826823 -0.13448718 0.08948592 -0.13977076 -9.0621565e-05 -0.07767953
-0.06585778 0.089813486 -0.051227234 -0.0485483 0.0029603438 0.10991172 -0.07424682 0.16264118
-0.10887324 -0.086118616 0.04342567 -0.035338435 -0.12946782 -0.0934356 0.07703984 -0.103274435
-0.0725556 0.082375295 0.07084053 0.15772417 -0.16458431 0.03773492 -0.022321636 -0.045027535
-0.16644481 -0.012165304 -0.11459403 -0.0948422 0.17518622 -0.04410362 0.022937175 -0.10598948
0.034199297 0.009470148 0.15941927 -0.18028677 -0.16419932 0.2481478 0.06397964 0.023231206
-0.00334192 0.14568092 -0.0046701417 0.10274765 -0.024560552 0.047727592 0.07686231 -0.19011077

sequential/dense_1/MatMul f4 [64, 128]
00000000: 78c3 cb3d 6f54 0e3e 5f0d 69be 3b7b a9bd
00000010: af1d 3f3e 2d46 e8bd 0660 3cbe 160d 4b3d
00000020: 8aa2 82bc bd76 a63d ade6 83bc 81ab 073e
00000030: a324 6c3d c5c4 f13c 63b3 a8bd 4e07 b83a
00000040: 7e53 c8bd 78e4 fd3d 8700 ca3c a6e7 d6be
00000050: 0567 a1bd 1b97 17be 3ded 39bc a643 ea3c
00000060: 74fb afbd 7469 233d 9eff 04be d718 83bc
00000070: 0a9c 11be af3c a43d 1a30 c93d a3f9 213b
00000080: 98da 84be 45d5 49be 0d32 c83c a33a d1bd
00000090: cfa3 dcbc 3797 adbe 8055 86bd eb42 c9bc
000000a0: 6f42 fa3d b21b e0bd 0d49 17be b3bf 78be
000000b0: 4718 6a3c c268 abbd 88f3 6dbe 5304 8fbd
000000c0: 3da4 61be 9edb 6d3d 6b51 0fbd 4d64 2bbd
000000d0: 930c 0c3c 9ced a13d 2be7 45bd 3832 c5bd
000000e0: fee5 c9bd 615b 37be 4422 d23d fc9e 92bd
000000f0: e500 403d 5ec8 8ebd 534c a73c d870 1f3e
00000100: 0df9 8c3d 4b80 8e3d 6392 2abe c58b 963d
00000110: 63a0 75bd 5308 8d3d bd20 e13c 3752 f4bc
00000120: 2f93 a1bc e54e dc3c f54e 23be ef7c 9fbb
00000130: d4d3 09bd d574 8f3d 32a8 1cbd 112f 8b3d
00000140: e7c2 12bd 3276 4bbd 03c8 2dbe 3ede 033e
00000150: 1bab d03d 52d3 ed3d f091 2b3e e152 08bc
00000160: 7884 51bd b454 b43d a613 d33d a274 4abe
00000170: d793 9a3c 1d04 1d3e 6167 efbd 0a8c 9abc
00000180: 6359 00be 5ca1 a63d 8b08 64bc b7ee a6bd
00000190: 1c25 26be 3b35 2b3e 2dce e43d 1688 94bd
000001a0: 6349 93bd 0314 f13d d9fd fb3d bfd9 2f3d
000001b0: c717 263e 45b2 fdbd 18ca 02be 2021 25be
000001c0: 9631 f13c 56e1 723d 395e c8bd 088f 19bd
000001d0: 7f8c 92ba e401 8a3d 8176 17bd 75d6 0abe
000001e0: 2f96 503d 25ee 913d ddf2 52be cd33 eabb
000001f0: ed94 313d 9718 1cbe 469b babb d194 4f3d
00000200: c4bc 10be 0ae9 7a3d 3bdc 433d 2f2f b13d
00000210: 3490 193e 09b6 0fbe a5d3 b83d 85c0 1d3e
00000220: e2c8 41bd d549 773d 7f57 efbd 4f19 73bc
00000230: 31da 153e ddae 7cbe ac58 3e3e 94fc bf3d
00000240: 6fe8 bb3d 49dd bbbd a5b6 e63d 6199 01bf
00000250: eea4 90be a77d 1cbe b5a0 70bd 4cff 8a3d
00000260: 5403 2cbe dd6b c53d 43b6 02bd b8bd 223e
00000270: ecba 103e 7346 dfbc d2fc 293e fbff 9e3c
00000280: ab60 c9bd 0c94 9c3d df32 d03d dd9d fb3b
00000290: ba01 073e 1e15 e0be 8d66 c43d 01e2 47be
000002a0: c5b2 693d 6260 08be 1233 bc3c f07c 7bbe
000002b0: 9857 29be 7fed 18be f3fc 223e c661 4bbd
000002c0: 643a e4be 8b74 94bd eb17 a33c 2068 05be
000002d0: dde7 0b3e ae09 23be 7051 ab3d 4b40 0c3e
000002e0: 6af1 3dbc d1e7 453d 930c e43d 4c2e 43bc
000002f0: b40b 8fbe bb34 c8bd 5f4a 423e f9f2 e8bd
00000300: 8948 de3d 2471 eb3c cc99 7e3c a5a5 22bc
00000310: 3ea6 cd3d e038 56be 8dd2 033e d972 1dbd
00000320: cfd9 0a3e d363 833d 328c 24be ab03 c03d
00000330: 6b60 52bd 4070 c13d db87 083e c9ba 1dbe
00000340: 31ca 05be 5c19 15be 274d d13c f34e 013e
00000350: eaed 843c 7fbe dbbd 3f33 a63d f7bc f4bc
00000360: 8d8d 3dbc f119 493e 517c cb3c d001 e8bc
00000370: 0009 0b3d c1fa 453c 859e 93bd 6f57 e8bd
00000380: c4ae 3f3d 2eb5 803c 93d3 53be 5dbb aebd
00000390: daa8 7a3d 1342 ee3d a3c9 06be df99 80be
000003a0: fafa be3c 2a2e c73c af2e 193e f210 c63d
000003b0: 7d4a 65bd a0d1 cbbd 19ab 033e 88a0 e3bd
000003c0: d80e c43d 3034 a23d 662d 3ebe dd60 35bc
000003d0: df21 aabd 232b b4bd b7b1 3f3e a4b6 fe3d
000003e0: b39c 18be 64e9 e0bd f1f4 b83c d55c ea3d
000003f0: dcba 093e 1fa4 7fbe 957d 1a3d 7f62 70bd
0.09949392 0.13899396 -0.22759007 -0.082754575 0.18663667 -0.1134151 -0.18396005 0.049573027
-0.015946645 0.08128116 -0.016101206 0.13249017 0.057652127 0.029512772 -0.0823734 0.0014040263
-0.0978155 0.123970926 0.024658455 -0.4197361 -0.078809775 -0.14803736 -0.011348066 0.02859671
-0.08592883 0.03989549 -0.12988135 -0.016003055 -0.1421968 0.08019387 0.09823628 0.0024715445
-0.25948024 -0.19710262 0.024437929 -0.10216262 -0.026933579 -0.3390443 -0.065592766 -0.024568042
0.122197025 -0.109427825 -0.1477396 -0.24291877 0.014288015 -0.0836959 -0.23237431 -0.06983247
-0.22035308 0.05807077 -0.034989756 -0.0418437 0.00854792 0.079066485 -0.048316162 -0.09628719
-0.09858321 -0.17905952 0.10260442 -0.0715923 0.046875853 -0.06971811 0.020422136 0.1557039
0.0688344 0.06958064 -0.16657405 0.07350878 -0.05996741 0.06886353 0.027481431 -0.02982436
-0.019723503 0.026893089 -0.15948088 -0.004867188 -0.03364928 0.07004706 -0.03824634 0.067960866
-0.035830405 -0.049673267 -0.1697083 0.12877747 0.10188886 0.11612572 0.1675489 -0.008320541
-0.051151723 0.08805218 0.10306482 -0.19771054 0.018869324 0.153336 -0.1168964 -0.018865604
-0.12534098 0.081362456 -0.013918052 -0.08151 -0.16225094 0.16719525 0.111721374 -0.07252519
-0.07191732 0.11771395 0.12304277 0.04293227 0.16220008 -0.12387518 -0.12772405 -0.16125917
0.02944259 0.05929693 -0.097835965 -0.03748992 -0.0011180787 0.06738642 -0.03697825 -0.13558371
0.050924476 0.071255006 -0.20600457 -0.0071472884 0.043354917 -0.15243755 -0.0056947796 0.05067903
-0.14134508 0.0612574 0.04781745 0.08651578 0.14996415 -0.14034285 0.09024743 0.15405472
-0.047310717 0.060373146 -0.116866104 -0.014837577 0.14634015 -0.2467608 0.18588513 0.09374347
0.091751926 -0.09173066 0.112653054 -0.5062466 -0.2825083 -0.15282308 -0.058747012 0.06786975
-0.16798145 0.09639714 -0.0319121 0.15892684 0.14133805 -0.027255272 0.1660035 0.01940917
-0.09832891 0.07645425 0.10165953 0.007678731 0.13184252 -0.4376611 0.095898725 -0.19519807
0.057055254 -0.13318017 0.022973571 -0.24559379 -0.1653732 -0.14934348 0.15916805 -0.04965379
-0.445758 -0.07248791 0.019908866 -0.13028002 0.13662668 -0.15921661 0.08365142 0.13696401
-0.011593202 0.04831678 0.11135211 -0.0119128935 -0.27938616 -0.097756825 0.18973683 -0.11374468
0.10853679 0.028740473 0.015539598 -0.009927188 0.10041474 -0.20920134 0.12873287 -0.038439605
0.1355965 0.06415524 -0.16069105 0.093756996 -0.051361483 0.09445238 0.13333075 -0.15403284
-0.13065411 -0.14560455 0.025549484 0.12627773 0.016226728 -0.107296936 0.08115243 -0.029875262
-0.011569393 0.19638802 0.024839552 -0.028321177 0.03394413 0.01208371 -0.072079696 -0.11344802
0.04679753 0.015711393 -0.20686178 -0.085318305 0.061196186 0.116336964 -0.13162856 -0.25117394
0.023313034 0.024314005 0.14959215 0.09671201 -0.05597924 -0.09952092 0.12858237 -0.11114603
0.09573144 0.0792011 -0.18572006 -0.011070457 -0.08307242 -0.0879729 0.18720137 0.1243718
-0.14903526 -0.10982016 0.022577735 0.114434876 0.13450187 -0.24964951 0.03771742 -0.058687683

sequential/dense_2/MatMul f4 [2, 64]
00000000: 22d5 993c d886 3abe 9764 693e cacf 5bbe
00000010: c1f9 423d d32c ebbd 042a c03d 2767 b93e
00000020: e429 b53e 182a a0be 6e72 1d3e e869 903d
00000030: ba80 15be c0a8 34bd b343 b93d 0480 3f3d
00000040: e50e 61bc 857a 123e 81e5 7bbd 93bf 9b3e
00000050: 1843 80be dc39 c6bd 2db6 39be 634d 76bd
00000060: 71ac 93be db86 c53d ac0d a63e f812 233e
00000070: 4e15 b03d ca5c ea3d d370 5e3e 257a 50be
00000080: 8dba c53e e674 973e 72fa 003c 3161 083e
00000090: 7887 033e c4e8 bdbd ea52 bd3c 80cc 88bd
000000a0: 6709 a1bd 9040 7c3d 89d5 ecbd b882 733e
000000b0: b48b 01be 6d43 a53d 7748 023e ed4c c63e
000000c0: e664 873d df47 903e e879 8a3b 2fa7 e6bd
000000d0: 1401 503e 3bd6 62be 00b2 dc3d 58fa 333d
000000e0: 7868 95be 67b0 e0bd 542a 16bd f33b a7bd
000000f0: 3856 fcbd 0f49 903e 4205 53be 8309 543e
00000100: 6c6c 753e ea49 a23e 6bc8 873e e7b0 90be
00000110: 713f 4ebe ea3c fbbc f5f7 9c3d 8868 0c3d
00000120: 0a7b 1abe 6df8 cfbd ec67 11be 3dd9 7bbe
00000130: e186 313d 08b1 a7bd 358a 11bd 18b9 bebe
00000140: 456c c1bd 5649 dabe c82c 903e e6c1 99bd
00000150: 0f56 3c3e ddce 7f3e 692c 053c c38c 89be
00000160: 8850 acbd f201 79be 409e 763d 2736 8fbe
00000170: 679b 233c 7b06 0bba 4090 20bd 49cd 92be
00000180: 2b40 993d dcac 9f3d 72f0 813e 4241 adbd
00000190: b67d 86bd 2700 ca3e 6c45 fbbd 8daf ecbd
000001a0: 8c93 e1bb aa41 703e ce48 593c 6b1a 92be
000001b0: afa0 12be 0691 e0bd dec1 813d 38ab b33e
000001c0: 3468 38be f298 65be 09d6 14be c2c5 613e
000001d0: c81b 30be 600f e9bc 9b49 333e 7b94 a73d
000001e0: 8048 13be 4b98 39bc 9395 bdbd d14f 093e
000001f0: ac49 b8bd 7063 503e 76e7 93be 9b9e d03d
0.018778387 -0.18215501 0.22792278 -0.21465984 0.047601465 -0.11483159 0.09383014 0.36211511
0.35383523 -0.31282115 0.15375683 0.0705145 -0.14599887 -0.044106245 0.09046116 0.046752945
-0.013736461 0.1430455 -0.06149817 0.30419597 -0.25051188 -0.096790045 -0.18135901 -0.060132395
-0.288425 0.09644862 0.32432306 0.15925205 0.085978135 0.11443479 0.21722727 -0.20359094
0.3861889 0.29581374 0.007872211 0.13318326 0.12844646 -0.09272912 0.023110826 -0.0667963
-0.078631215 0.06158501 -0.11564166 0.23780334 -0.12650949 0.08069501 0.12722956 0.38730565
0.06611042 0.28179833 0.004225958 -0.112623565 0.20312911 -0.22152035 0.10776138 0.04393992
-0.29181266 -0.10971146 -0.03666146 -0.08165731 -0.123211324 0.2818074 -0.20607474 0.20706753
0.23967141 0.31697017 0.26520094 -0.28259966 -0.20141388 -0.030668695 0.076644816 0.034279376
-0.15085998 -0.10154805 -0.141998 -0.24594589 0.04334152 -0.08188063 -0.035532195 -0.3725059
-0.09444479 -0.42634076 0.28159165 -0.07507686 0.18392204 0.24981256 0.008128264 -0.26865205
-0.084137976 -0.24317148 0.060209513 -0.27971002 0.009985781 -0.0005303395 -0.039200068 -0.28672245
0.07482942 0.07796642 0.25378758 -0.084597126 -0.06566946 0.3945324 -0.122691005 -0.11556921
-0.006884044 0.23462549 0.013261987 -0.2853578 -0.14319108 -0.10965161 0.06335805 0.35091567
-0.180085 -0.22421625 -0.14534773 0.22048095 -0.17198098 -0.028449714 0.17508547 0.08182617
-0.14383125 -0.011327813 -0.09257045 0.13409354 -0.08998427 0.20350432 -0.28887528 0.101865016

sequential/conv2d/Conv2D f4 [32, 5, 5, 3]
00000000: a348 733e 2a44 44be b046 4abe a3a6 f73d
00000010: c948 6cbd d992 41be 4a93 9e3d 80bc 97be
00000020: c969 27be 0c76 b03a 465a 06be 522d 32be
00000030: 3594 303c 390e a03d c31d 843d 2fa9 6bbd
00000040: 3b29 29be 2bc0 d5bd 4bb4 1b3d 6d89 17be
00000050: ea13 07be 3d84 9a3d 6efd 1bbe 10b9 08bd
00000060: 93dd ee3c 253d 843d 79f5 053d d764 46be
00000070: b0d5 513e 97af c73d 4a71 913d 3411 bebd
00000080: 9ade 07be 2173 33be 6514 20be 4226 f2bd
00000090: 1b10 0f3e 17e2 ff3d cd77 203e 0634 bdbd
000000a0: 0a6f 3e3e 875c 673e e2c2 ebbd 1031 453e
000000b0: 5d50 613e 11a0 a4bd 034c b7bd 76de 83be
000000c0: b279 f93d d917 37bc fea8 1cbd 82e7 a2bc
000000d0: a74a 57bd f8e3 25bc 01f7 2bbc d752 f53d
000000e0: 894f 7c3e 1c2e 8bbd 2825 2f3e a80f 4a3e
000000f0: fd79 a93d 6146 09be ca44 67be d1e1 9a3d
00000100: 73bf 22bd 1e0a 093c 6da2 243e 8924 373e
00000110: 93d0 fe3d 4e37 8abd d82e 753d 397e 113e
00000120: 676a 67be 9790 87bd 3176 f03d 6163 903b
00000130: b599 c33d b34a a9bc 1d73 893c 1051 0a3d
00000140: 8773 abbc 96ab fb3d 30a6 8a3e 0788 503e
00000150: ade9 2dbe 5725 0cbd 5d32 b8bd 903d ecbd
00000160: 12d4 ac39 70e9 003e 67df dfbd 6dbf ffbd
00000170: c4a6 3dbe eef3 8c3c d2b2 ae3b e1b2 cfbc
00000180: 9196 b63d 00c3 313e a2c0 a43c 220e 03bd
00000190: 9109 f2bd 48f6 d7bd b4a8 233d 8cc7 f3bb
000001a0: bb66 e03d f5fb d23d e26b 4a3a dbf6 47bd
000001b0: 5270 1dbe aac8 4ebe e676 67be 169c c9bd
000001c0: d951 13bd 7154 2ebe 3190 ae3e 7ebf 193e
000001d0: 8573 883e e270 693d 4b73 e1bd 41a3 92bc
000001e0: b82b 67bd 95f6 6bbd 2f79 4dbe 7832 9e3c
000001f0: aa72 8e3d 259c 5fbd 27e0 7f3d 5ac2 8f3d
00000200: db3e 913b a064 79bd 9869 2abd 4180 e6bc
00000210: 7507 d23d 05fb 53bc 00b6 843c 2573 e13c
00000220: 3760 b7bd f91a e3bc 2125 cabd 2386 32bd
00000230: a5f6 84bc 5d41 1fbe d148 0cbe b106 4ebe
00000240: e77b 91bd c4a8 a1bd 5ffe f3bd a3d8 363d
00000250: 8e51 cbbd 65a8 9fbc a096 ce3b 8ee6 0d3e
00000260: 2f6d 863d 9d7b 10ba 5f5a 013e 326d 933d
00000270: aa11 363c 0a4e a43d a6a0 753d 7d24 0f3e
00000280: b398 533e c2da 993d edcb 70bd 4e34 c3bc
00000290: c827 9dbd f972 e4bd 4a69 8b3c 32d8 28bc
000002a0: 95a5 97bd 1c77 143d 30e9 353d 8619 06be
000002b0: 2faa ffbc 4222 9dbd 9607 09be bf1a b4bb
000002c0: 74e0 cebc eef4 6bbe 3e30 7ebe 330f 83be
000002d0: 622a 1dbd 6dcc 163c 525b e03d 9cd7 90bd
000002e0: 1f6c 353e de3a 853d 7d2a 3d3d eaef cb3d
000002f0: a9df 1f3e c40d 1abd 2923 c13d 85f5 7a3d
00000300: 5d03 e0bd 878c 0f3b 8db9 acbd f353 663c
00000310: 382e c4bc f185 a23b 2f02 1a3e 70da a23d
00000320: 8ea9 1f3d a7c7 eebd 0d17 ddbd df66 813c
00000330: 8287 f3bd 39bb dbbd 1d60 fabd 592e ccbd
00000340: 97cd a1bd fdc0 04be 2d9a 5fbd 16d7 efbd
00000350: a6f4 49bd 8e3c 4bbc 0541 a53d 50cd e83d
00000360: 2629 e33d b020 113e 0ca5 253e c64a d43d
00000370: 071d 503e cf82 033d 0901 04be 8372 8cbd
00000380: e917 a23c 1c8b 083e d464 94be d96b 48be
00000390: 714c 023e 5baf 92be 8719 32be 2262 ba3d
000003a0: 1562 82be ab4e 98be 65f7 133e be67 40be
000003b0: f436 b3bd 79e2 423d c890 f9bd 1064 b1bd
000003c0: 3cd8 1b3d c8f2 f73c 4b34 bdbd 5c3d 2c3d
000003d0: 821a 2abe cedd 25be 8917 82bc 6c5c a8bd
000003e0: 4414 e0bd 3ac8 843c c955 a1bd beb9 3abe
000003f0: 3a33 b73d ebcc 843c a881 aabd aa02 eebc
0.23758177 -0.19166628 -0.19753528 0.1209233 -0.0576866 -0.18903674 0.07742937 -0.29636002
-0.16348948 0.0013462915 -0.13120374 -0.17400101 0.010777523 0.07815213 0.06450989 -0.057534393
-0.16519634 -0.10437044 0.038013738 -0.14798518 -0.1319119 0.07544754 -0.15233395 -0.033379614
0.02915839 0.06456975 0.032704804 -0.19374405 0.20491672 0.09750288 0.07101686 -0.09280625
-0.1326851 -0.17524387 -0.1563278 -0.11823703 0.13970987 0.12494295 0.156707 -0.09238438
0.18597046 0.2259389 -0.1151178 0.19256997 0.22003312 -0.08038343 -0.08950045 -0.25755662
0.12181415 -0.011175119 -0.0382471 -0.019885782 -0.05256143 -0.010125153 -0.010495902 0.11978691
0.24639715 -0.06795904 0.17104018 0.19732535 0.082752205 -0.13405754 -0.22584835 0.07562602
-0.03973336 0.0083642285 0.16077586 0.17885031 0.12442126 -0.0674883 0.059859127 0.14208306
-0.22599183 -0.06619375 0.11741293 0.004406378 0.09550802 -0.020665502 0.016778523 0.033768713
-0.020929111 0.12288587 0.27079916 0.2036439 -0.16983671 -0.034215298 -0.08993981 -0.115351796
0.000329644 0.1258905 -0.109312825 -0.124876834 -0.18520647 0.017206158 0.0053313756 -0.02535385
0.08915437 0.17359543 0.020111386 -0.0319959 -0.11818231 -0.10545021 0.03995581 -0.0074395593
0.10957094 0.10301963 0.0007721764 -0.048819404 -0.15374878 -0.20193735 -0.2260395 -0.09844224
-0.035966728 -0.170244 0.34094384 0.15014455 0.26650634 0.05699242 -0.110083185 -0.017900111
-0.056438178 -0.057608206 -0.20065759 0.019311175 0.06955464 -0.05459227 0.062469628 0.070194915
0.004432542 -0.06088698 -0.04160461 -0.028137328 0.102553286 -0.012938266 0.016200066 0.027520726
-0.089538984 -0.027722823 -0.09870363 -0.043584954 -0.01623089 -0.15552278 -0.13699652 -0.2011974
-0.071037106 -0.078935176 -0.11913752 0.044640195 -0.09927665 -0.019489476 0.006304577 0.13857481
0.06563794 -0.0005511584 0.1263213 0.07198562 0.01111261 0.08022697 0.05996766 0.13978763
0.20663719 0.07512428 -0.05878823 -0.023828652 -0.07673603 -0.11154742 0.01701798 -0.010305451
-0.07404629 0.036246404 0.044411838 -0.13095674 -0.03120908 -0.0767255 -0.133818 -0.0054963524
-0.025253512 -0.23042652 -0.2482309 -0.25597534 -0.038370498 0.009204012 0.10954918 -0.07072374
0.17717026 0.06505369 0.046183098 0.09957869 0.15612663 -0.037610784 0.094305344 0.061269302
-0.109381415 0.002190383 -0.084338285 0.014058101 -0.02394782 0.0049598147 0.15039895 0.0795182
0.03898006 -0.116591744 -0.10795412 0.015796123 -0.118910804 -0.10729069 -0.122253634 -0.099697776
-0.07900541 -0.12964244 -0.054590393 -0.11710946 -0.04930558 -0.012404574 0.08069042 0.11367285
0.11091833 0.14172626 0.16176242 0.103658244 0.20323573 0.03210717 -0.1289102 -0.06857779
0.019786792 0.13334316 -0.28983176 -0.1957239 0.12724473 -0.2864941 -0.1739255 0.091007486
-0.25465456 -0.2974752 0.14449842 -0.18789575 -0.08750716 0.047579262 -0.12185818 -0.086616635
0.038048014 0.030267134 -0.0923849 0.042050704 -0.16611674 -0.16197893 -0.015880363 -0.08220753
-0.10941365 0.016208757 -0.0787769 -0.18234918 0.089453176 0.016210994 -0.08325511 -0.029054005

sequential/conv2d_1/Conv2D f4 [32, 5, 5, 32]
00000000: 4089 243d b0ff 44bc 8b3e e73a f888 ed3d
00000010: 4493 a03d e589 393d 0389 84bd cf30 89bb
00000020: 238c 0f3d 8ab1 99bd 6aeb 51bc a768 02bd
00000030: 5eb7 8cbd aa13 b1bc ba0b e9bd ea0f 6e3c
00000040: a462 00bc 62c3 45bd 9b74 b2bc 8814 823d
00000050: 1034 ae3d c5a1 b3bd b198 8a3b b3d3 c03d
00000060: f063 7abd e5e0 febd 0adf a83d f668 773d
00000070: b38c f8bc f36b 143e f01f 60bb 39b1 c1bd
00000080: 7f02 a7bd d1cd 5d3d 5eb2 1ebd 7e28 bd3c
00000090: b838 203d 1491 9fbd 0e38 a93c 93d7 b8bd
000000a0: 4839 03be 1dcb 70bd 6c77 03be 75b8 9dbc
000000b0: 1c6f edbc f052 5ebd 6631 87bd ab62 7d3b
000000c0: ec7e 63bd f725 acbd 4451 59bd 414e 483d
000000d0: b677 1b3c 2d9f e6bd e285 533b a804 9a3b
000000e0: b7ba 89bc 1323 e0bd 048e 6d3d e2ba 89bd
000000f0: b0e0 8fbb b7f4 d5bc 38cc 243d 5125 633d
00000100: 2400 93bd 130e 5e3d 084a 813c 095e 403a
00000110: 70f3 733d 7ffd 033e 03df 293d d0ee 843c
00000120: e01c 31bd d3c7 8f3d 68cc d0bb 8a1d 5dbd
00000130: 4eaf e33c 18d5 f03d 9db7 c5bb e7ca 243d
00000140: 627a a5bc 8f41 113e 34e9 053d e3c7 b93c
00000150: ec87 cc3c 9768 f1bb 6beb 7f3d fd9f 883d
00000160: 5a54 9b3c ce1e 10bd 415f 3e3d 4ed2 933d
00000170: d159 513d 1f3a 523d 50d0 e03a ee0a 443d
00000180: 4a49 8bbd b320 abbd fe23 a3bc 81dc 8abd
00000190: 4fb2 dabd 6326 95bd 52e2 1b3d 9e8e 85bd
000001a0: 9f17 1d3b 9b79 373b 9f87 b6bd 3518 62bd
000001b0: 9545 adbd 9c77 c73c 44da 56bc ff59 edbc
000001c0: 49aa e1bc 4e87 5ebd cb77 8dbd 3fbb dbbb
000001d0: 662b babd 9c79 4cbd 4fde f4bc e154 92bc
000001e0: 2a6e 99bd ae91 6fbc fde1 8ebd 44b3 e1bc
000001f0: fd85 8abc 53ab cabb 7a19 a6bd efa1 2cbd
00000200: feba 1abc 42aa 98bd 9008 febd 3095 90bd
00000210: 0c58 d93c f55e 94bd 6f06 18bd 32c3 a2bc
00000220: 7186 febc 6519 8bbd 958f 98bd 62b5 97bd
00000230: 859e b1bd 4a8a 45bd 3711 83bd 9d71 09bd
00000240: 10e2 94bd e318 e2bd 3e51 4fbd 1212 eeba
00000250: 891e 60bd cdbc 323a 9e10 84bd cdb4 22bd
00000260: 18b5 d6bd ba85 f4bc 4441 aabd 9590 d7bd
00000270: 9ade 2fbd 8d76 30bc bda7 9cbd 9fc8 a7bd
00000280: 03e3 973c 8060 0d3d 2711 823d 1564 ff3d
00000290: 9fc2 003c 479a d6bc e8fe daba dddc 5e3d
000002a0: be88 15bd 7921 2bbd b9e3 13bd 0afc 97bd
000002b0: 6669 85bd 4aa1 05be 13fb 0cbe d282 b83b
000002c0: ea70 1fbe 7179 3cbd a8c4 063d 12db 23bb
000002d0: 4e18 18be 9a27 2abd afba 623d 8a50 9fbc
000002e0: 9171 ffbd b483 0ebd 2179 b6bd 1183 0dbe
000002f0: f01c cdbd 43fe ff3d 0bbe 533c 205e a6bd
00000300: 6d22 aa3d 2121 983c 8241 1cbd 2183 1b3c
00000310: ed06 a0bd f351 f53c ebb3 8fbd ed2f 9c3b
00000320: 749a 7dbd fc40 14bd 64a8 dfbd d13e a9bb
00000330: ba96 b5bc 10df 4d3d ebd5 18be 16fc 37bc
00000340: acad 053e 6e92 90bd 8ce9 a13b dd9b d8bc
00000350: e2ab 2dbe 2b28 09bd bf32 05be a357 ccbd
00000360: 2e65 0e3d fe8f 02bd 1c3b f13c 76d3 ebbc
00000370: 15d4 993d 6dca 0bbe 1ba1 d8bd 3dc5 e53b
00000380: 4f00 a73d 0048 103d c0b4 0bbd 21e0 c1bd
00000390: 86c1 26bd 9068 a43d 3375 8cbd d5df babc
000003a0: bb98 c4bd b06a 2bbd 4141 ee3c 531a f3bc
000003b0: f194 92bd 548c 8bbc cffc 523d e2d9 17bb
000003c0: 44c9 d5bc c75c e13b 619b aabd 880e dc3b
000003d0: 7c0b fa3c f413 aabc 45dd 213d e171 cebc
000003e0: ddab 2cbd 18a6 eb39 d121 77bc 12d2 88ba
000003f0: c3c3 7dbd 9946 403d 8cea 5fbd 1cfe 57bc
0.040169954 -0.012023851 0.0017642541 0.1159839 0.07840589 0.045297522 -0.064714454 -0.0041867266
0.035045754 -0.07504566 -0.012812475 -0.031838086 -0.06870912 -0.021615822 -0.1137919 0.014530161
-0.007836018 -0.048282035 -0.021784117 0.06351572 0.08506024 -0.087710895 0.004229628 0.094153784
-0.061130464 -0.12445239 0.08245666 0.060402833 -0.030340528 0.14494304 -0.0034198724 -0.09457631
-0.08154773 0.05415136 -0.038744323 0.023090597 0.03911659 -0.07791343 0.020656612 -0.090254925
-0.1281482 -0.058787454 -0.12838525 -0.019252995 -0.028983645 -0.054278314 -0.06601219 0.0038663547
-0.055540964 -0.08405679 -0.053056017 0.048902754 0.0094889905 -0.11260829 0.0032275845 0.004700262
-0.016812665 -0.1094419 0.057996765 -0.06725098 -0.0043907985 -0.026117666 0.04023382 0.05545551
-0.07177761 0.05421264 0.015782371 0.0007338231 0.059558332 0.1288967 0.041472446 0.016227156
-0.043240428 0.07020535 -0.0063720234 -0.05398325 0.027793553 0.117593944 -0.0060338513 0.040232565
-0.020199958 0.14185165 0.032693103 0.022678321 0.024967156 -0.0073672044 0.06248037 0.0667114
0.01896112 -0.035185628 0.04647756 0.07217847 0.051111046 0.05132496 0.0017151926 0.047861986
-0.06801088 -0.08355846 -0.019914623 -0.06780339 -0.10678541 -0.07282712 0.038057633 -0.06521343
0.0023970378 0.0027996066 -0.089125864 -0.055198867 -0.08460537 0.024349026 -0.013113562 -0.028973578
-0.027547019 -0.054328255 -0.06907614 -0.006705671 -0.09090309 -0.049920663 -0.029891161 -0.017862739
-0.07491715 -0.014622135 -0.069766976 -0.0275513 -0.016909594 -0.006184974 -0.08110328 -0.04214662
-0.0094439965 -0.07454349 -0.12403977 -0.07059705 0.026531242 -0.07244674 -0.03711551 -0.019868467
-0.031069966 -0.06791953 -0.07449261 -0.07407643 -0.08672813 -0.048227586 -0.06399768 -0.033555616
-0.072696805 -0.11039903 -0.050614588 -0.0018163344 -0.05471662 0.00068182946 -0.06448482 -0.039723206
-0.1048376 -0.029848922 -0.0831323 -0.10525624 -0.0429369 -0.010770452 -0.07649181 -0.08192562
0.018540865 0.034515858 0.06350928 0.12470261 0.007858901 -0.026196612 -0.0016708048 0.05440985
-0.03650736 -0.04177997 -0.036105845 -0.074211195 -0.06514244 -0.13049808 -0.13767652 0.0056308294
-0.15570417 -0.046014253 0.03290239 -0.0025002402 -0.14853022 -0.041541673 0.055353817 -0.019447584
-0.12472833 -0.03479357 -0.08909822 -0.13819529 -0.10015285 0.124996684 0.012923728 -0.08123422
0.083073474 0.018570485 -0.03814841 0.009491713 -0.07813821 0.029946303 -0.070167385 0.0047664554
-0.061914876 -0.036194786 -0.1092079 -0.005164959 -0.022166599 0.050261557 -0.14925353 -0.011229536
0.13054532 -0.07059179 0.004941171 -0.026441509 -0.169601 -0.033485573 -0.1300764 -0.09977653
0.03476446 -0.031875603 0.02944713 -0.028787356 0.075111546 -0.13651438 -0.105776034 0.007012038
0.08154356 0.035224915 -0.034107924 -0.09466577 -0.040711902 0.08027756 -0.068582915 -0.02281181
-0.095994435 -0.041849792 0.02908385 -0.029675638 -0.071573146 -0.017034687 0.05151063 -0.002317064
-0.026096947 0.006877515 -0.083304174 0.0067155994 0.030523054 -0.020761468 0.03951766 -0.025200786
-0.04215609 0.00044946442 -0.015083746 -0.0010438582 -0.06195427 0.046942327 -0.05466704 -0.013183143

sequential/conv2d_2/Conv2D f4 [32, 3, 3, 32]
00000000: ba07 66be 1974 523d 1f3f bcbd 1b75 86bd
00000010: edf8 6abd 5de4 56be 61be 8a3d 3d0f 10bd
00000020: faeb b73c 317f 333c 9948 cc3d 5755 9a3d
00000030: da49 97bd 2cb5 523d fbfe 833c 9851 e53a
00000040: 344c b33d bfd1 43bd 6045 38bd 0751 c5bd
00000050: 629c fabc 462a ba3d 5a40 903d 30b8 b0bd
00000060: 5f0c d83c d9fa 72bd bf6c 273d 70a1 c33d
00000070: 202b 543d 2f94 edbd 9169 6dbd 8188 48be
00000080: 3246 223d 8ed7 5a3d c5de 543d 1124 1f3d
00000090: 3dae d7bd 2dfc a5be 3fc5 213e 6011 3bbd
000000a0: eb8a 933e b858 9a3d 079e 4a3e d4e4 913c
000000b0: c430 fabd 004b 0a3d f753 2bbc 23c0 4c3c
000000c0: 3eed b03d 3c48 18bd 5612 b9bd ae44 d33c
000000d0: a833 09be 6e75 f33c bf73 abbd a37f 69be
000000e0: a5d8 983c e127 e1bd 17c1 373d 8e14 3fbe
000000f0: deea ecbc 4c9d 91bc 0580 81bd cfbe a5bc
00000100: 742b 57bd 2ea7 253c 2b66 c0bd 3d41 9dbd
00000110: a3a6 46bd 67f8 05be c7dd b1bd d1f3 72bd
00000120: e271 973d 5dd7 63bd 277d 18bc 0c9c b7bd
00000130: 5d1e 9c3d 2bd9 213d f82c 99bd 58c7 48bd
00000140: 5954 b9bd 5eed dc3c 79df b53d 77f7 03be
00000150: 4262 7a3d e430 a3bd bf65 653b eeaf 47bd
00000160: a9d1 4ebd bd32 e0bc dcab 5dbd 71ee dc3c
00000170: 6c3a 9cbd 2639 6c3d 95be 43bd 5438 bd3a
00000180: ebf0 f73c adc5 d9bc 5dab 9dbd 4cff dfbd
00000190: 7e24 4ebd 4777 af3d 4fff 59bd ea77 3c3d
000001a0: c7c3 d5bc 160d 1e3d 4f05 cabd b34e 80bd
000001b0: 932d a8bd 571e 653b dcd2 d4bd 891f 083e
000001c0: 2699 aebc 54eb 87bd d7ee 3bbd 5d90 21bd
000001d0: 4c3b 593d 5ed6 dbbc 0dcc a0bc 2779 e3bc
000001e0: 12f5 ef3d c14d 513e caf3 3abd dba9 19bd
000001f0: d677 9dbd 4569 9fbd 4d29 b1bc 830d b03d
00000200: 815b debd ebc2 0a3e 5b91 ddbc c5e4 babb
00000210: 2772 0f3d b3a1 ee3c 8656 a4bd 14b7 c83c
00000220: 27c7 a8bd b741 733d cc97 473d 9b50 3a3e
00000230: d01c 0aba 78a3 743d 3191 0cbd 327a 87bd
00000240: 43cb 633d 1060 073c 0e27 44bd e43e babd
00000250: 6408 ffbd 166e 55bd 32af 24be 8a90 0a3e
00000260: d3e2 eabb 7064 d83d 031d 013d fd96 a8bd
00000270: 0a5f b73d dd15 d93d c6da 32bd f0a0 f73d
00000280: e4a2 afbc b041 483c 06bd 163b 2cb2 abbd
00000290: 2650 7c3d eb88 b83c 2c55 afbd 7918 a1bd
000002a0: df6b 813d 08e2 8c3d b7a6 25be ef74 cdbd
000002b0: b696 0a3d f0a8 a43d de13 44bd 03e3 56bd
000002c0: 06c4 b1bd 1a06 933d 87fd 903c d6a0 033d
000002d0: eb62 013e 71d4 20bd 3f1f c3bd aa89 b1bd
000002e0: ecba 9e3d 66bf a83b f693 12bd bc7d 18bd
000002f0: d917 fcbd ad1f 68bd 5dfb 923d fcbd 493c
00000300: 4b1c 1cbd 3b22 a5bd 2a1a 173d 65a4 a9bd
00000310: 7506 b93d 7e30 efbd b672 f5bc bc41 dcbc
00000320: 07bf 10bd 5578 3b3d ce21 3bbd 09bd cabd
00000330: 8118 5cbc 2ff9 6ebd 2390 52bc a795 83bd
00000340: 6e62 1ebd 765b 71bd 5202 eabc 98ba b0bd
00000350: b839 cbbd df2b c5bc 2677 ccbd 606f fbbd
00000360: a426 b8bd 47bc 703d f2ad 09be 05db bdbd
00000370: 5de9 90bd 2b87 90bd acec 64bd 3695 43bd
00000380: 4f66 01bd 0a3b 8fbb 9917 793c 401d 603d
00000390: 6c16 d7bd cb31 c2bd e34d 8abd 6c58 393d
000003a0: 7d98 d5bd ef95 3cbc 4c53 ffbd 9866 a9bc
000003b0: cbfe 57bc d130 c43d 4985 09be b94b 92bd
000003c0: 52c4 bebd c112 c93c 19bd 933d 2a64 d93c
000003d0: 4e28 e83d 869d 2ebe 98ee 563d 9933 a8bc
000003e0: df01 59bd 1793 97bd 2a6d 84bc 2d22 4cbc
000003f0: 094d 0fbd ef76 24bd 258e 59bc 2961 a73d
-0.22463885 0.05138025 -0.09191727 -0.06565305 -0.0573663 -0.20985551 0.06774593 -0.035170782
0.02245139 0.010955618 0.099747844 0.075358085 -0.07387133 0.05144231 0.016112795 0.001749563
0.08754769 -0.04780745 -0.044988036 -0.09634595 -0.030592147 0.09090094 0.07043524 -0.08628881
0.026373086 -0.05932126 0.040875193 0.09552276 0.05179894 -0.116005294 -0.057962004 -0.19583322
0.039617725 0.053428225 0.051970262 0.038852755 -0.1053128 -0.32418957 0.157979 -0.045670867
0.28816923 0.07536453 0.19786845 0.017809309 -0.122163326 0.03376293 -0.0104570305 0.012496981
0.08639 -0.037178263 -0.090367004 0.025789585 -0.13398612 0.02971908 -0.08371686 -0.22802596
0.018657992 -0.109939344 0.04486188 -0.18660185 -0.028920587 -0.0177752 -0.06323246 -0.020232586
-0.052531675 0.0101106595 -0.09394487 -0.07678459 -0.04849876 -0.13083039 -0.08684879 -0.059314553
0.07394768 -0.05562531 -0.009307182 -0.089653105 0.07622979 0.03951375 -0.0747928 -0.049018234
-0.09049291 0.026968654 0.08880515 -0.12887369 0.061128862 -0.079683095 0.0035003272 -0.048751764
-0.050492916 -0.027367944 -0.054118976 0.026969166 -0.076283306 0.05767169 -0.047789175 0.0014436343
0.030266246 -0.026583517 -0.076987006 -0.10937366 -0.05032777 0.08567672 -0.053221997 0.046012796
-0.02609433 0.0385867 -0.09864294 -0.06265011 -0.082118176 0.003496071 -0.10391781 0.1329328
-0.021313261 -0.06636682 -0.045882072 -0.039444316 0.053035066 -0.026835617 -0.019628549 -0.02776773
0.11716665 0.20439817 -0.04564265 -0.037515502 -0.076888725 -0.077837504 -0.021626139 0.08596327
-0.10857297 0.13550918 -0.02704685 -0.005703541 0.035020974 0.029129839 -0.080243155 0.024501361
-0.0824111 0.059388842 0.04872875 0.18194811 -0.00052685756 0.05972621 -0.034318153 -0.06615104
0.055613767 0.008262649 -0.047888808 -0.09094027 -0.12452772 -0.05210694 -0.16082457 0.135317
-0.007168153 0.10566032 0.03152181 -0.08231924 0.08953674 0.10599873 -0.04366567 0.12091243
-0.021439977 0.012222692 0.002300085 -0.08383593 0.061599873 0.022526225 -0.08561167 -0.07865996
0.06319403 0.068790495 -0.16176878 -0.10032069 0.033835135 0.08040035 -0.04787051 -0.05246259
-0.08679967 0.07178898 0.017699016 0.032135807 0.1263539 -0.0392651 -0.09527444 -0.086688355
0.07750496 0.0051497696 -0.035785638 -0.037229285 -0.12309236 -0.056670833 0.0717685 0.012313362
-0.03811292 -0.080631696 0.036890186 -0.08283309 0.09034435 -0.11679171 -0.029961925 -0.026886813
-0.035338428 0.045769054 -0.045686536 -0.09899337 -0.013433577 -0.05834311 -0.012851748 -0.06425028
-0.03866809 -0.058925115 -0.02856556 -0.0862934 -0.09923118 -0.02406877 -0.09983663 -0.122771025
-0.08991745 0.058773305 -0.13445261 -0.0927029 -0.070757605 -0.07057031 -0.05588977 -0.04774972
-0.03159171 -0.0043710517 0.01520338 0.054715395 -0.105023235 -0.094821535 -0.06753137 0.04525034
-0.104294755 -0.011510356 -0.124670595 -0.020678803 -0.013183306 0.095796235 -0.1342975 -0.07143349
-0.09314789 0.024545075 0.07213802 0.02653702 0.113358125 -0.17052278 0.052473634 -0.020532416
-0.0529803 -0.07401102 -0.016165335 -0.01245932 -0.034985576 -0.040152486 -0.013278519 0.08172829
