ana0910s0.tflite (tflite, 89584 bytes, 6 tensors)

sequential/dense/MatMul i1 [128, 32] scale=0.0030972045 zero_point=0
0	0x0b	0.034069248
1	0x06	0.018583227
2	0xd2	-0.1424714
3	0xdf	-0.10220775
4	0xd0	-0.14866582
5	0xcb	-0.16415183
6	0xcd	-0.15795743
7	0xe0	-0.099110544
8	0xd0	-0.14866582
9	0xf9	-0.021680431
10	0x1c	0.086721726
11	0xef	-0.05265248
12	0xf2	-0.043360863
13	0x29	0.12698539
14	0xdd	-0.108402155
15	0xda	-0.11769377
16	0x01	0.0030972045
17	0x26	0.11769377
18	0xdd	-0.108402155
19	0x40	0.19822109
20	0xd6	-0.13008259
21	0xa9	-0.2694568
22	0xff	-0.0030972045
23	0x27	0.12079097
24	0x1b	0.08362452
25	0xf7	-0.02787484
26	0x16	0.068138495
27	0x02	0.006194409
28	0x09	0.02787484
29	0x01	0.0030972045
30	0xc0	-0.19822109
31	0x03	0.0092916135
32	0x1f	0.09601334
33	0xe2	-0.09291613
34	0x10	0.049555272
35	0x07	0.021680431
36	0xc3	-0.18892947
37	0xd8	-0.12388818
38	0x9b	-0.31281766
39	0xdf	-0.10220775
40	0xc0	-0.19822109
41	0xc2	-0.19202667
42	0x59	0.2756512
43	0x09	0.02787484
44	0x0b	0.034069248
45	0xbc	-0.21060991
46	0x45	0.2137071
47	0xc9	-0.17034625
48	0xc2	-0.19202667
49	0x17	0.0712357
50	0x3c	0.18583226
51	0xfe	-0.006194409
52	0xca	-0.16724904
53	0xf1	-0.046458066
54	0xf3	-0.04026366
55	0x13	0.058846883
56	0xf3	-0.04026366
57	0xd8	-0.12388818
58	0xc2	-0.19202667
59	0xd3	-0.1393742
60	0x34	0.16105464
61	0xf2	-0.043360863
62	0x2e	0.1424714
63	0xdf	-0.10220775
64	0x07	0.021680431
65	0xd5	-0.1331798
66	0xc4	-0.18583226
67	0xd8	-0.12388818
68	0xc3	-0.18892947
69	0xd7	-0.12698539
70	0x0b	0.034069248
71	0xf0	-0.049555272
72	0x23	0.108402155
73	0xf9	-0.021680431
74	0xba	-0.21680431
75	0xfb	-0.015486022
76	0xc3	-0.18892947
77	0x5f	0.29423442
78	0x09	0.02787484
79	0xd9	-0.12079097
80	0x13	0.058846883
81	0x18	0.07433291
82	0xda	-0.11769377
83	0x3b	0.18273507
84	0xbb	-0.2137071
85	0xef	-0.05265248
86	0xb8	-0.22299872
87	0xc8	-0.17344345
88	0x13	0.058846883
89	0xa6	-0.2787484
90	0xea	-0.068138495
91	0x32	0.15486023
92	0xf8	-0.024777636
93	0x09	0.02787484
94	0xe0	-0.099110544
95	0x1f	0.09601334
96	0xed	-0.058846883
97	0xfb	-0.015486022
98	0xd1	-0.14556861
99	0xd1	-0.14556861
100	0x3d	0.18892947
101	0xf3	-0.04026366
102	0xdb	-0.11459657
103	0x0d	0.04026366
104	0xc6	-0.17963786
105	0xcb	-0.16415183
106	0xfd	-0.0092916135
107	0x3f	0.19512388
108	0xf3	-0.04026366
109	0x1c	0.086721726
110	0xe8	-0.07433291
111	0x07	0.021680431
112	0xea	-0.068138495
113	0xfb	-0.015486022
114	0xf2	-0.043360863
115	0xce	-0.15486023
116	0xcd	-0.15795743
117	0x0b	0.034069248
118	0xd1	-0.14556861
119	0x03	0.0092916135
120	0x21	0.10220775
121	0xc8	-0.17344345
122	0x34	0.16105464
123	0xc4	-0.18583226
124	0x04	0.012388818
125	0xf6	-0.030972045
126	0x25	0.11459657
127	0x00	0.0
128	0xea	-0.068138495
129	0xf4	-0.037166454
130	0x11	0.05265248
131	0xff	-0.0030972045
132	0x0b	0.034069248
133	0xff	-0.0030972045
134	0x2a	0.13008259
135	0xbe	-0.2044155
136	0xd3	-0.1393742
137	0x2c	0.13627699
138	0xc6	-0.17963786
139	0xe6	-0.08052732
140	0xd9	-0.12079097
141	0x01	0.0030972045
142	0xed	-0.058846883
143	0x02	0.006194409
144	0xf0	-0.049555272
145	0xf8	-0.024777636
146	0xe8	-0.07433291
147	0x31	0.15176302
148	0x27	0.12079097
149	0x46	0.21680431
150	0xf4	-0.037166454
151	0xf6	-0.030972045
152	0xe2	-0.09291613
153	0x08	0.024777636
154	0x0c	0.037166454
155	0x0a	0.030972045
156	0x0f	0.046458066
157	0xde	-0.10530496
158	0x18	0.07433291
159	0x11	0.05265248
160	0xf9	-0.021680431
161	0xec	-0.06194409
162	0x05	0.015486022
163	0x08	0.024777636
164	0x09	0.02787484
165	0xc7	-0.17654066
166	0x0c	0.037166454
167	0xe3	-0.08981893
168	0x15	0.065041296
169	0xf2	-0.043360863
170	0xef	-0.05265248
171	0xde	-0.10530496
172	0x03	0.0092916135
173	0x10	0.049555272
174	0x08	0.024777636
175	0x15	0.065041296
176	0xd2	-0.1424714
177	0xcd	-0.15795743
178	0xc7	-0.17654066
179	0xe0	-0.099110544
180	0x1e	0.09291613
181	0xc5	-0.18273507
182	0x1f	0.09601334
183	0xd0	-0.14866582
184	0x24	0.11149936
185	0xd1	-0.14556861
186	0xbc	-0.21060991
187	0xfb	-0.015486022
188	0x27	0.12079097
189	0x30	0.14866582
190	0xcb	-0.16415183
191	0xea	-0.068138495
192	0xfd	-0.0092916135
193	0xde	-0.10530496
194	0x1a	0.08052732
195	0x18	0.07433291
196	0xf8	-0.024777636
197	0x19	0.077430114
198	0xc7	-0.17654066
199	0x12	0.05574968
200	0x00	0.0
201	0xf9	-0.021680431
202	0xed	-0.058846883
203	0xd6	-0.13008259
204	0xff	-0.0030972045
205	0xd4	-0.13627699
206	0xea	-0.068138495
207	0xe7	-0.077430114
208	0xfc	-0.012388818
209	0xf8	-0.024777636
210	0xc1	-0.19512388
211	0xe9	-0.0712357
212	0xe0	-0.099110544
213	0xe9	-0.0712357
214	0xe2	-0.09291613
215	0x2d	0.1393742
216	0x1b	0.08362452
217	0x03	0.0092916135
218	0x2f	0.14556861
219	0xf7	-0.02787484
220	0xdf	-0.10220775
221	0x27	0.12079097
222	0x3d	0.18892947
223	0xdd	-0.108402155
224	0xe3	-0.08981893
225	0xef	-0.05265248
226	0xb9	-0.21990152
227	0xfc	-0.012388818
228	0x3b	0.18273507
229	0x09	0.02787484
230	0xce	-0.15486023
231	0xc6	-0.17963786
232	0xed	-0.058846883
233	0xf3	-0.04026366
234	0xc6	-0.17963786
235	0x34	0.16105464
236	0x16	0.068138495
237	0xf7	-0.02787484
238	0x1e	0.09291613
239	0xec	-0.06194409
240	0xd4	-0.13627699
241	0xc0	-0.19822109
242	0x07	0.021680431
243	0x05	0.015486022
244	0xeb	-0.065041296
245	0x06	0.018583227
246	0xe2	-0.09291613
247	0xf8	-0.024777636
248	0x27	0.12079097
249	0xf6	-0.030972045
250	0xf4	-0.037166454
251	0x18	0.07433291
252	0x1b	0.08362452
253	0x0e	0.043360863
254	0xf0	-0.049555272
255	0xd8	-0.12388818

sequential/dense_1/MatMul i1 [64, 128] scale=0.0035552173 zero_point=0
0	0xe3	-0.1031013
1	0xf2	-0.04977304
2	0xee	-0.06399391
3	0x07	0.02488652
4	0x0c	0.042662606
5	0xdb	-0.13154304
6	0xde	-0.120877385
7	0x12	0.06399391
8	0xda	-0.13509826
9	0xed	-0.06754913
10	0x1f	0.11021174
11	0x08	0.028441738
12	0xb1	-0.28086215
13	0xce	-0.17776087
14	0xc2	-0.22042347
15	0xcd	-0.18131608
16	0x28	0.1422087
17	0x1f	0.11021174
18	0xda	-0.13509826
19	0x0f	0.05332826
20	0x29	0.1457639
21	0xe0	-0.11376695
22	0x24	0.12798782
23	0xd4	-0.15642956
24	0x1d	0.1031013
25	0x19	0.088880435
26	0x02	0.0071104346
27	0xff	-0.0035552173
28	0xd6	-0.14931913
29	0x14	0.07110435
30	0xf5	-0.03910739
31	0xeb	-0.07465956
32	0x11	0.060438693
33	0xd3	-0.15998478
34	0x08	0.028441738
35	0xe4	-0.09954608
36	0x03	0.010665651
37	0xf0	-0.056883477
38	0x20	0.11376695
39	0x08	0.028441738
40	0xb8	-0.25597563
41	0xfa	-0.021331303
42	0xd7	-0.1457639
43	0xdb	-0.13154304
44	0xfe	-0.0071104346
45	0xf5	-0.03910739
46	0x1b	0.09599087
47	0x1e	0.10665652
48	0x17	0.081769995
49	0xe7	-0.088880435
50	0xad	-0.29508305
51	0xfd	-0.010665651
52	0xd4	-0.15642956
53	0xf5	-0.03910739
54	0xd2	-0.16353999
55	0x17	0.081769995
56	0xe6	-0.09243565
57	0x08	0.028441738
58	0xe6	-0.09243565
59	0x11	0.060438693
60	0xe7	-0.088880435
61	0xdd	-0.12443261
62	0x23	0.12443261
63	0xde	-0.120877385
64	0x25	0.13154304
65	0xf5	-0.03910739
66	0x1d	0.1031013
67	0x16	0.07821478
68	0x13	0.06754913
69	0x1b	0.09599087
70	0xfd	-0.010665651
71	0xf1	-0.05332826
72	0xec	-0.07110435
73	0xdb	-0.13154304
74	0xeb	-0.07465956
75	0xdd	-0.12443261
76	0xfb	-0.017776087
77	0x2b	0.15287435
78	0xf1	-0.05332826
79	0x08	0.028441738
80	0xcd	-0.18131608
81	0xd6	-0.14931913
82	0xf6	-0.035552174
83	0xe5	-0.09599087
84	0xf6	-0.035552174
85	0xff	-0.0035552173
86	0xe7	-0.088880435
87	0x26	0.13509826
88	0xf1	-0.05332826
89	0xb8	-0.25597563
90	0x13	0.06754913
91	0x2c	0.15642956
92	0xf6	-0.035552174
93	0xda	-0.13509826
94	0xce	-0.17776087
95	0x0a	0.035552174
96	0x1a	0.09243565
97	0x0a	0.035552174
98	0x26	0.13509826
99	0x2c	0.15642956
100	0x27	0.13865347
101	0xe5	-0.09599087
102	0x19	0.088880435
103	0xeb	-0.07465956
104	0xf3	-0.046217825
105	0xcf	-0.17420565
106	0x27	0.13865347
107	0xe6	-0.09243565
108	0xe0	-0.11376695
109	0xfd	-0.010665651
110	0xc9	-0.19553696
111	0xe9	-0.081769995
112	0x20	0.11376695
113	0xf1	-0.05332826
114	0xa3	-0.33063522
115	0xeb	-0.07465956
116	0x06	0.021331303
117	0x25	0.13154304
118	0x1b	0.09599087
119	0x24	0.12798782
120	0xb3	-0.27375174
121	0x03	0.010665651
122	0xdf	-0.11732217
123	0xe6	-0.09243565
124	0xe3	-0.1031013
125	0xdb	-0.13154304
126	0xd7	-0.1457639
127	0xff	-0.0035552173
128	0xd5	-0.15287435
129	0xfc	-0.014220869
130	0xca	-0.19198173
131	0x21	0.11732217
132	0xd4	-0.15642956
133	0xe1	-0.11021174
134	0x19	0.088880435
135	0x38	0.19909216
136	0xd4	-0.15642956
137	0x0f	0.05332826
138	0x02	0.0071104346
139	0xbb	-0.24531
140	0xfa	-0.021331303
141	0x27	0.13865347
142	0x0b	0.03910739
143	0x04	0.014220869
144	0x41	0.23108913
145	0x03	0.010665651
146	0xe3	-0.1031013
147	0xd8	-0.1422087
148	0x28	0.1422087
149	0x42	0.23464434
150	0xe5	-0.09599087
151	0xd9	-0.13865347
152	0x12	0.06399391
153	0xe8	-0.08532521
154	0x03	0.010665651
155	0xd6	-0.14931913
156	0xf9	-0.02488652
157	0xfa	-0.021331303
158	0xf8	-0.028441738
159	0x2a	0.14931913
160	0xf9	-0.02488652
161	0x10	0.056883477
162	0x11	0.060438693
163	0xd1	-0.16709521
164	0x0b	0.03910739
165	0xfc	-0.014220869
166	0xe3	-0.1031013
167	0xe7	-0.088880435
168	0xdf	-0.11732217
169	0x16	0.07821478
170	0xe7	-0.088880435
171	0x49	0.25953087
172	0x11	0.060438693
173	0xf0	-0.056883477
174	0xef	-0.060438693
175	0xf8	-0.028441738
176	0xf7	-0.031996954
177	0x0e	0.04977304
178	0x84	-0.44084695
179	0x23	0.12443261
180	0x16	0.07821478
181	0x2f	0.16709521
182	0xba	-0.24886522
183	0xcf	-0.17420565
184	0x24	0.12798782
185	0xca	-0.19198173
186	0x26	0.13509826
187	0x2f	0.16709521
188	0x1a	0.09243565
189	0x1b	0.09599087
190	0xf5	-0.03910739
191	0xf6	-0.035552174
192	0x06	0.021331303
193	0xee	-0.06399391
194	0xe4	-0.09954608
195	0xf1	-0.05332826
196	0xc9	-0.19553696
197	0xea	-0.07821478
198	0x08	0.028441738
199	0x00	0.0
200	0x04	0.014220869
201	0xd2	-0.16353999
202	0xc0	-0.2275339
203	0xbe	-0.23464434
204	0xef	-0.060438693
205	0xe8	-0.08532521
206	0xf4	-0.042662606
207	0xd6	-0.14931913
208	0xc6	-0.2062026
209	0xd4	-0.15642956
210	0xd6	-0.14931913
211	0xf1	-0.05332826
212	0x01	0.0035552173
213	0x04	0.014220869
214	0x02	0.0071104346
215	0xfb	-0.017776087
216	0x02	0.0071104346
217	0xca	-0.19198173
218	0xef	-0.060438693
219	0x0f	0.05332826
220	0xc9	-0.19553696
221	0xbd	-0.23819956
222	0x17	0.081769995
223	0xe8	-0.08532521
224	0xdc	-0.12798782
225	0x09	0.031996954
226	0xfe	-0.0071104346
227	0xd4	-0.15642956
228	0x27	0.13865347
229	0xc7	-0.20264739
230	0x02	0.0071104346
231	0x1d	0.1031013
232	0x35	0.18842651
233	0x18	0.08532521
234	0x01	0.0035552173
235	0x1e	0.10665652
236	0xbc	-0.24175477
237	0x20	0.11376695
238	0xde	-0.120877385
239	0x2f	0.16709521
240	0xf2	-0.04977304
241	0x10	0.056883477
242	0xa3	-0.33063522
243	0xd4	-0.15642956
244	0xda	-0.13509826
245	0x25	0.13154304
246	0x05	0.017776087
247	0x33	0.18131608
248	0xb7	-0.25953087
249	0x0f	0.05332826
250	0x22	0.120877385
251	0xfd	-0.010665651
252	0x0a	0.035552174
253	0x10	0.056883477
254	0xf7	-0.031996954
255	0x0f	0.05332826

sequential/dense_2/MatMul i1 [2, 64] scale=0.0031355408 zero_point=0
0	0x8e	-0.35745165
1	0x9a	-0.31982514
2	0xd5	-0.13482825
3	0xf7	-0.028219867
4	0x27	0.12228609
5	0xf2	-0.04389757
6	0x16	0.06898189
7	0xc8	-0.17559028
8	0x1a	0.08152406
9	0xf1	-0.047033112
10	0xce	-0.15677704
11	0xed	-0.059575275
12	0xba	-0.21948785
13	0x3a	0.18186137
14	0xf3	-0.04076203
15	0xcc	-0.16304812
16	0xb8	-0.22575894
17	0xb1	-0.24770772
18	0x08	0.025084326
19	0x15	0.065846354
20	0x58	0.27592757
21	0x3d	0.19126798
22	0x4c	0.2383011
23	0x88	-0.3762649
24	0xfc	-0.012542163
25	0xde	-0.10660838
26	0xbb	-0.21635231
27	0xfe	-0.0062710815
28	0x46	0.21948785
29	0xeb	-0.065846354
30	0x4f	0.24770772
31	0xd2	-0.14423488
32	0x22	0.10660838
33	0xf5	-0.034490947
34	0x02	0.0062710815
35	0xf0	-0.050168652
36	0x4c	0.2383011
37	0xa8	-0.27592757
38	0xc9	-0.17245474
39	0x28	0.12542163
40	0x2f	0.14737041
41	0x45	0.21635231
42	0x45	0.21635231
43	0xe9	-0.07211744
44	0x7c	0.38880706
45	0xba	-0.21948785
46	0xe7	-0.07838852
47	0x02	0.0062710815
48	0x11	0.05330419
49	0x06	0.018813245
50	0x15	0.065846354
51	0x13	0.059575275
52	0xf2	-0.04389757
53	0x45	0.21635231
54	0x38	0.17559028
55	0x0a	0.031355407
56	0x0c	0.03762649
57	0xaa	-0.2696565
58	0x18	0.07525298
59	0x6c	0.3386384
60	0xaf	-0.2539788
61	0x09	0.028219867
62	0xb4	-0.2383011
63	0x3c	0.18813245
64	0x00	0.0
65	0x54	0.26338542
66	0x21	0.103472844
67	0x3e	0.19440353
68	0x21	0.103472844
69	0xca	-0.1693192
70	0x2f	0.14737041
71	0x0c	0.03762649
72	0xd4	-0.13796379
73	0xef	-0.05330419
74	0xa5	-0.2853342
75	0xb8	-0.22575894
76	0xf2	-0.04389757
77	0x85	-0.38567153
78	0x3f	0.19753906
79	0x3f	0.19753906
80	0xf7	-0.028219867
81	0x33	0.15991257
82	0x98	-0.32609624
83	0x28	0.12542163
84	0x1a	0.08152406
85	0xf7	-0.028219867
86	0xed	-0.059575275
87	0xe9	-0.07211744
88	0x64	0.31355408
89	0xb1	-0.24770772
90	0x30	0.15050596
91	0x45	0.21635231
92	0xc0	-0.20067461
93	0x06	0.018813245
94	0xcb	-0.16618367
95	0x15	0.065846354
96	0x11	0.05330419
97	0xd9	-0.12228609
98	0x8b	-0.36685827
99	0x94	-0.3386384
100	0x29	0.12855718
101	0xc4	-0.18813245
102	0xb2	-0.24457218
103	0xc8	-0.17559028
104	0xdd	-0.10974392
105	0x00	0.0
106	0x7f	0.39821368
107	0x69	0.32923177
108	0xe2	-0.094066225
109	0x10	0.050168652
110	0xdd	-0.10974392
111	0x0f	0.047033112
112	0x54	0.26338542
113	0xda	-0.11915055
114	0xfe	-0.0062710815
115	0xe7	-0.07838852
116	0xcb	-0.16618367
117	0xef	-0.05330419
118	0x11	0.05330419
119	0x0d	0.04076203
120	0xf5	-0.034490947
121	0xcd	-0.15991257
122	0xc8	-0.17559028
123	0xdb	-0.11601501
124	0x5f	0.29787636
125	0x48	0.22575894
126	0xeb	-0.065846354
127	0x57	0.27279204

sequential/conv2d/Conv2D i1 [64, 5, 5, 3]
0	0xb6	-74
1	0xe5	-27
2	0xf0	-16
3	0xb5	-75
4	0xd1	-47
5	0xbc	-68
6	0xc6	-58
7	0xed	-19
8	0xe1	-31
9	0x0b	11
10	0xf9	-7
11	0x00	0
12	0xfa	-6
13	0xd1	-47
14	0xc1	-63
15	0xc4	-60
16	0xf8	-8
17	0xe7	-25
18	0xd1	-47
19	0x0e	14
20	0xe0	-32
21	0x2a	42
22	0x09	9
23	0x1b	27
24	0xd7	-41
25	0xda	-38
26	0xed	-19
27	0xb2	-78
28	0xd8	-40
29	0xd3	-45
30	0x24	36
31	0x1b	27
32	0x07	7
33	0x1b	27
34	0x31	49
35	0x37	55
36	0x0a	10
37	0x04	4
38	0xe9	-23
39	0x15	21
40	0x5c	92
41	0x21	33
42	0x0e	14
43	0x33	51
44	0x50	80
45	0x2d	45
46	0xe5	-27
47	0x18	24
48	0x17	23
49	0x2d	45
50	0x21	33
51	0x06	6
52	0xe4	-28
53	0xd8	-40
54	0x16	22
55	0x1e	30
56	0x13	19
57	0xb0	-80
58	0xf9	-7
59	0xdd	-35
60	0x4b	75
61	0x09	9
62	0x05	5
63	0x25	37
64	0x33	51
65	0xfa	-6
66	0x16	22
67	0x4a	74
68	0x08	8
69	0xdc	-36
70	0x1a	26
71	0xf1	-15
72	0x81	-127
73	0x14	20
74	0xed	-19
75	0x2c	44
76	0x05	5
77	0x08	8
78	0x19	25
79	0xfb	-5
80	0xda	-38
81	0xf3	-13
82	0x05	5
83	0x05	5
84	0xf0	-16
85	0xb4	-76
86	0xae	-82
87	0x05	5
88	0x3e	62
89	0x0d	13
90	0x2c	44
91	0x1b	27
92	0x1f	31
93	0x2b	43
94	0x32	50
95	0x07	7
96	0xd0	-48
97	0xeb	-21
98	0xb5	-75
99	0x1a	26
100	0x2b	43
101	0x24	36
102	0xb1	-79
103	0xd8	-40
104	0xbd	-67
105	0x2e	46
106	0xef	-17
107	0x2b	43
108	0x08	8
109	0xdf	-33
110	0x24	36
111	0x9d	-99
112	0x8f	-113
113	0xa5	-91
114	0x12	18
115	0x24	36
116	0x38	56
117	0xf1	-15
118	0x21	33
119	0xf0	-16
120	0x1b	27
121	0xff	-1
122	0x40	64
123	0x35	53
124	0xe9	-23
125	0xdd	-35
126	0x08	8
127	0xff	-1
128	0xdc	-36
129	0x02	2
130	0x2d	45
131	0x36	54
132	0x81	-127
133	0xa4	-92
134	0x99	-103
135	0x11	17
136	0xe3	-29
137	0x1e	30
138	0x6c	108
139	0x37	55
140	0x18	24
141	0xed	-19
142	0xf7	-9
143	0xcc	-52
144	0x0b	11
145	0x07	7
146	0x1d	29
147	0xc1	-63
148	0xdf	-33
149	0xd8	-40
150	0x07	7
151	0xce	-50
152	0xca	-54
153	0x37	55
154	0x06	6
155	0xf6	-10
156	0xee	-18
157	0xd9	-39
158	0x04	4
159	0xe3	-29
160	0x1a	26
161	0x23	35
162	0x81	-127
163	0xf3	-13
164	0x0c	12
165	0x3e	62
166	0xbd	-67
167	0xd2	-46
168	0x27	39
169	0xe3	-29
170	0xca	-54
171	0xfc	-4
172	0xe2	-30
173	0x04	4
174	0x1e	30
175	0x3b	59
176	0x56	86
177	0xc6	-58
178	0x23	35
179	0x15	21
180	0x25	37
181	0xd3	-45
182	0xe4	-28
183	0x1e	30
184	0xc6	-58
185	0xe7	-25
186	0xfe	-2
187	0x00	0
188	0xee	-18
189	0x25	37
190	0x36	54
191	0x3e	62
192	0xe0	-32
193	0x23	35
194	0x36	54
195	0x30	48
196	0xc1	-63
197	0xc7	-57
198	0x15	21
199	0xcf	-49
200	0xd9	-39
201	0xfb	-5
202	0xde	-34
203	0xf3	-13
204	0x16	22
205	0x31	49
206	0x27	39
207	0xd4	-44
208	0x31	49
209	0x41	65
210	0xf7	-9
211	0xd7	-41
212	0xe0	-32
213	0x02	2
214	0xd8	-40
215	0xe3	-29
216	0x11	17
217	0xd9	-39
218	0xf3	-13
219	0xf2	-14
220	0xf8	-8
221	0x03	3
222	0xf1	-15
223	0x1d	29
224	0x3b	59
225	0xd0	-48
226	0xfc	-4
227	0x0b	11
228	0x09	9
229	0x04	4
230	0xeb	-21
231	0x0e	14
232	0x03	3
233	0xfa	-6
234	0xd4	-44
235	0x0e	14
236	0x18	24
237	0xc9	-55
238	0x23	35
239	0x33	51
240	0xf9	-7
241	0xfa	-6
242	0xfd	-3
243	0xe9	-23
244	0xe5	-27
245	0xf0	-16
246	0x06	6
247	0xc2	-62
248	0xf7	-9
249	0x23	35
250	0xdd	-35
251	0xf3	-13
252	0xd0	-48
253	0xfb	-5
254	0xf9	-7
255	0xeb	-21

sequential/conv2d_1/Conv2D i1 [32, 5, 5, 64]
0	0x2e	46
1	0xdf	-33
2	0xfe	-2
3	0x05	5
4	0xb6	-74
5	0xcd	-51
6	0x1e	30
7	0xe6	-26
8	0x2c	44
9	0xe2	-30
10	0x4f	79
11	0x4f	79
12	0x2d	45
13	0xb6	-74
14	0xd3	-45
15	0x2e	46
16	0x3b	59
17	0xf6	-10
18	0x00	0
19	0xad	-83
20	0x43	67
21	0x0c	12
22	0xe5	-27
23	0x52	82
24	0xb3	-77
25	0x9b	-101
26	0x07	7
27	0x0d	13
28	0xa2	-94
29	0xa7	-89
30	0xbf	-65
31	0xe3	-29
32	0xea	-22
33	0xc7	-57
34	0xad	-83
35	0x1b	27
36	0x2c	44
37	0x1c	28
38	0xa2	-94
39	0xf5	-11
40	0xda	-38
41	0x1d	29
42	0xeb	-21
43	0x4c	76
44	0xdc	-36
45	0x4b	75
46	0x15	21
47	0xdd	-35
48	0x2f	47
49	0x39	57
50	0xef	-17
51	0x36	54
52	0xfe	-2
53	0x30	48
54	0xda	-38
55	0x0e	14
56	0xd1	-47
57	0x2b	43
58	0x3a	58
59	0x9f	-97
60	0x47	71
61	0x01	1
62	0x17	23
63	0x0d	13
64	0xf9	-7
65	0x9a	-102
66	0xb6	-74
67	0xa3	-93
68	0x3a	58
69	0xa0	-96
70	0x0e	14
71	0x42	66
72	0xf6	-10
73	0x32	50
74	0x49	73
75	0x28	40
76	0x35	53
77	0x2e	46
78	0x40	64
79	0xa8	-88
80	0xed	-19
81	0x15	21
82	0xde	-34
83	0xe2	-30
84	0x01	1
85	0xdb	-37
86	0xc7	-57
87	0xce	-50
88	0xbf	-65
89	0x99	-103
90	0x06	6
91	0xf7	-9
92	0x43	67
93	0xaa	-86
94	0x3d	61
95	0xd2	-46
96	0xd7	-41
97	0x42	66
98	0x37	55
99	0x3b	59
100	0x2f	47
101	0xb2	-78
102	0x9b	-101
103	0xda	-38
104	0x15	21
105	0xe2	-30
106	0xaa	-86
107	0x3a	58
108	0x3d	61
109	0xbe	-66
110	0x37	55
111	0xd5	-43
112	0xce	-50
113	0xad	-83
114	0x15	21
115	0x23	35
116	0xbc	-68
117	0x36	54
118	0xa2	-94
119	0x52	82
120	0x9d	-99
121	0xfb	-5
122	0x42	66
123	0x0b	11
124	0x32	50
125	0xad	-83
126	0xb9	-71
127	0x1a	26
128	0xcd	-51
129	0xe2	-30
130	0xf5	-11
131	0xf1	-15
132	0xb4	-76
133	0x18	24
134	0xc0	-64
135	0x31	49
136	0x42	66
137	0x47	71
138	0x3c	60
139	0x4c	76
140	0xaa	-86
141	0xfe	-2
142	0x45	69
143	0xc2	-62
144	0xbf	-65
145	0xfe	-2
146	0x10	16
147	0x3a	58
148	0x06	6
149	0xd2	-46
150	0xb1	-79
151	0x17	23
152	0x16	22
153	0xa3	-93
154	0xe6	-26
155	0x39	57
156	0xe7	-25
157	0xf8	-8
158	0x31	49
159	0x3d	61
160	0xe3	-29
161	0x40	64
162	0xb6	-74
163	0x0a	10
164	0xed	-19
165	0xd3	-45
166	0xe3	-29
167	0x9f	-97
168	0x0a	10
169	0xe8	-24
170	0x0e	14
171	0x01	1
172	0xc2	-62
173	0xf1	-15
174	0x05	5
175	0xa0	-96
176	0xd1	-47
177	0x2d	45
178	0x62	98
179	0xaa	-86
180	0xdf	-33
181	0x29	41
182	0x3d	61
183	0xd0	-48
184	0xbe	-66
185	0x20	32
186	0xcb	-53
187	0xa9	-87
188	0x4a	74
189	0xbe	-66
190	0x57	87
191	0xc1	-63
192	0x4e	78
193	0x13	19
194	0xef	-17
195	0x49	73
196	0xa5	-91
197	0x15	21
198	0xdf	-33
199	0x58	88
200	0xc6	-58
201	0xa9	-87
202	0xf7	-9
203	0xd8	-40
204	0xdc	-36
205	0x57	87
206	0xbc	-68
207	0x9e	-98
208	0xd4	-44
209	0xd5	-43
210	0xc3	-61
211	0x0d	13
212	0xf4	-12
213	0x03	3
214	0x5b	91
215	0x2d	45
216	0x36	54
217	0x0a	10
218	0x77	119
219	0xbd	-67
220	0x05	5
221	0x3a	58
222	0x59	89
223	0xce	-50
224	0xfd	-3
225	0x15	21
226	0xe0	-32
227	0x39	57
228	0xcd	-51
229	0x17	23
230	0x5e	94
231	0xd7	-41
232	0xf7	-9
233	0x23	35
234	0xf8	-8
235	0x85	-123
236	0x2e	46
237	0xd8	-40
238	0xbf	-65
239	0xca	-54
240	0x36	54
241	0xb8	-72
242	0xa3	-93
243	0xb5	-75
244	0xd3	-45
245	0x02	2
246	0x26	38
247	0x94	-108
248	0xd7	-41
249	0x51	81
250	0xbb	-69
251	0x12	18
252	0x57	87
253	0xff	-1
254	0x56	86
255	0x46	70

sequential/conv2d_2/Conv2D i1 [32, 3, 3, 32]
0	0xd7	-41
1	0xc8	-56
2	0xfd	-3
3	0xf5	-11
4	0x18	24
5	0x0e	14
6	0xc1	-63
7	0xf6	-10
8	0xc1	-63
9	0x42	66
10	0xda	-38
11	0x2c	44
12	0xce	-50
13	0x0e	14
14	0x1e	30
15	0x35	53
16	0x3f	63
17	0xdb	-37
18	0xee	-18
19	0xd5	-43
20	0xfe	-2
21	0x42	66
22	0xff	-1
23	0xf2	-14
24	0x25	37
25	0x34	52
26	0x20	32
27	0xb5	-75
28	0xe9	-23
29	0x34	52
30	0xd8	-40
31	0x00	0
32	0x26	38
33	0x24	36
34	0x2d	45
35	0x22	34
36	0x09	9
37	0xe5	-27
38	0xd4	-44
39	0xf7	-9
40	0xf3	-13
41	0x24	36
42	0xd3	-45
43	0x02	2
44	0xc1	-63
45	0xfd	-3
46	0x2f	47
47	0xb9	-71
48	0x1b	27
49	0xd1	-47
50	0x27	39
51	0x28	40
52	0xe2	-30
53	0x3b	59
54	0xd9	-39
55	0x1c	28
56	0xdb	-37
57	0xc0	-64
58	0x14	20
59	0x04	4
60	0x06	6
61	0x0d	13
62	0xaa	-86
63	0xf0	-16
64	0x31	49
65	0xdc	-36
66	0x1f	31
67	0x26	38
68	0x19	25
69	0xdd	-35
70	0x21	33
71	0xe6	-26
72	0xc3	-61
73	0x0b	11
74	0x44	68
75	0xc8	-56
76	0xe1	-31
77	0x1a	26
78	0x0b	11
79	0x24	36
80	0x40	64
81	0xcc	-52
82	0x07	7
83	0x1a	26
84	0xc1	-63
85	0x1d	29
86	0x55	85
87	0x0a	10
88	0xf9	-7
89	0xc3	-61
90	0xbd	-67
91	0xcd	-51
92	0xdb	-37
93	0x47	71
94	0xde	-34
95	0xef	-17
96	0x32	50
97	0xbc	-68
98	0xca	-54
99	0xf3	-13
100	0x19	25
101	0xb8	-72
102	0x9c	-100
103	0xe5	-27
104	0xc0	-64
105	0xe4	-28
106	0xf1	-15
107	0xdc	-36
108	0x00	0
109	0xaa	-86
110	0x20	32
111	0x0b	11
112	0xc5	-59
113	0x2d	45
114	0xd1	-47
115	0x2a	42
116	0x30	48
117	0x21	33
118	0xfb	-5
119	0xcf	-49
120	0xe7	-25
121	0x0c	12
122	0xda	-38
123	0xdf	-33
124	0x1e	30
125	0x17	23
126	0x18	24
127	0xed	-19
128	0xf2	-14
129	0x22	34
130	0x05	5
131	0x10	16
132	0x35	53
133	0xb3	-77
134	0xf2	-14
135	0xf9	-7
136	0xe7	-25
137	0x24	36
138	0x2f	47
139	0x0a	10
140	0x0a	10
141	0x07	7
142	0x2d	45
143	0x1f	31
144	0x7d	125
145	0x7e	126
146	0x3e	62
147	0xed	-19
148	0x42	66
149	0xd5	-43
150	0xb4	-76
151	0x49	73
152	0x7f	127
153	0xd5	-43
154	0x22	34
155	0x8f	-113
156	0x2d	45
157	0x1c	28
158	0x57	87
159	0xe6	-26
160	0x23	35
161	0xd2	-46
162	0x37	55
163	0xcc	-52
164	0xf7	-9
165	0x1a	26
166	0x3d	61
167	0x32	50
168	0xd4	-44
169	0xf2	-14
170	0x0b	11
171	0x29	41
172	0x02	2
173	0xea	-22
174	0xf1	-15
175	0x31	49
176	0xbb	-69
177	0x2b	43
178	0xf7	-9
179	0xdd	-35
180	0xc4	-60
181	0x22	34
182	0x50	80
183	0xc8	-56
184	0xad	-83
185	0x3d	61
186	0xd4	-44
187	0xe9	-23
188	0xb3	-77
189	0x33	51
190	0xf9	-7
191	0xc1	-63
192	0xf7	-9
193	0x25	37
194	0x19	25
195	0xc1	-63
196	0xc9	-55
197	0xc3	-61
198	0x2c	44
199	0xf9	-7
200	0xd0	-48
201	0x42	66
202	0x36	54
203	0x03	3
204	0xd8	-40
205	0xc1	-63
206	0x31	49
207	0xf3	-13
208	0x3c	60
209	0x2f	47
210	0xd5	-43
211	0x13	19
212	0xdd	-35
213	0xc9	-55
214	0x29	41
215	0xc5	-59
216	0x2a	42
217	0x05	5
218	0x02	2
219	0xdf	-33
220	0xd3	-45
221	0xe7	-25
222	0xec	-20
223	0xec	-20
224	0xf4	-12
225	0x10	16
226	0x31	49
227	0x3b	59
228	0x1a	26
229	0x1b	27
230	0xfb	-5
231	0xff	-1
232	0x34	52
233	0x21	33
234	0x16	22
235	0xd8	-40
236	0x37	55
237	0xe5	-27
238	0x04	4
239	0xe5	-27
240	0x3a	58
241	0xfc	-4
242	0xc9	-55
243	0xc2	-62
244	0xbd	-67
245	0xd0	-48
246	0x9a	-102
247	0xaf	-81
248	0x20	32
249	0x30	48
250	0x19	25
251	0xf1	-15
252	0xfa	-6
253	0x07	7
254	0xf2	-14
255	0x1f	31
