ana0910s1_longq.tflite (tflite, 60464 bytes, 6 tensors)

sequential/dense/MatMul i1 [128, 32] scale=0.0030515876 zero_point=0
000000 d7 19 e1 0f fe fc e9 30 34 e9 d8 d3 d5 f7 1d 01
       -0.1251151 0.07628969 -0.09459922 0.045773815 -0.006103175 -0.01220635 -0.07018652 0.14647621 0.15868255 -0.07018652 -0.1220635 -0.13732144 -0.13121827 -0.02746429 0.088496044 0.0030515876
000010 dd e0 c3 e5 1b fc 3f 88 3f 20 bb cd fc 3e a6 f9
       -0.10680556 -0.0976508 -0.18614684 -0.082392864 0.082392864 -0.01220635 0.19225001 -0.36619052 0.19225001 0.0976508 -0.21055955 -0.15563096 -0.01220635 0.18919843 -0.27464288 -0.021361113
000020 0b 0c f7 0d dd 25 fa 03 db 20 1d bf 00 2c 22 aa
       0.033567462 0.036619052 -0.02746429 0.03967064 -0.10680556 0.11290874 -0.018309526 0.009154763 -0.11290874 0.0976508 0.088496044 -0.1983532 0.0 0.13426985 0.10375398 -0.26243654
000030 09 03 29 0e 11 db d1 fb fc c1 0a 0a c7 23 f9 ee
       0.02746429 0.009154763 0.1251151 0.042722225 0.05187699 -0.11290874 -0.14342462 -0.015257938 -0.01220635 -0.19225001 0.030515876 0.030515876 -0.1739405 0.10680556 -0.021361113 -0.05492858
000040 ce 42 4e fb 17 fe 0d bc 28 1a f0 da fb b3 b3 a3
       -0.15257938 0.20140478 0.23802383 -0.015257938 0.07018652 -0.006103175 0.03967064 -0.20750795 0.1220635 0.07934128 -0.0488254 -0.11596033 -0.015257938 -0.23497225 -0.23497225 -0.28379765
000050 27 27 d9 1f 1c e3 37 00 b7 20 32 de df 2a 15 da
       0.119011916 0.119011916 -0.119011916 0.09459922 0.08544445 -0.088496044 0.16783732 0.0 -0.2227659 0.0976508 0.15257938 -0.10375398 -0.10070239 0.12816668 0.06408334 -0.11596033
000060 da dd f1 f7 d0 f8 fc c3 04 16 11 c3 96 37 f4 d7
       -0.11596033 -0.10680556 -0.045773815 -0.02746429 -0.14647621 -0.0244127 -0.01220635 -0.18614684 0.01220635 0.067134924 0.05187699 -0.18614684 -0.3234683 0.16783732 -0.036619052 -0.1251151
000070 22 fc cd f3 fa eb 10 a0 01 ed ea d0 ff 1b bc 1d
       0.10375398 -0.01220635 -0.15563096 -0.03967064 -0.018309526 -0.06408334 0.0488254 -0.29295242 0.0030515876 -0.057980165 -0.067134924 -0.14647621 -0.0030515876 0.082392864 -0.20750795 0.088496044
000080 2c c9 e8 ec c8 d0 e6 d5 1e c5 00 d3 d8 17 b7 fd
       0.13426985 -0.16783732 -0.073238105 -0.06103175 -0.1708889 -0.14647621 -0.07934128 -0.13121827 0.09154763 -0.18004367 0.0 -0.13732144 -0.1220635 0.07018652 -0.2227659 -0.009154763
000090 e3 00 0c 04 24 dc f5 a0 f7 32 ec fe e8 f2 cd e1
       -0.088496044 0.0 0.036619052 0.01220635 0.10985716 -0.10985716 -0.033567462 -0.29295242 -0.02746429 0.15257938 -0.06103175 -0.006103175 -0.073238105 -0.042722225 -0.15563096 -0.09459922
0000a0 b3 fe 1c 0e 11 27 0a d5 03 27 ee f6 1d 05 07 36
       -0.23497225 -0.006103175 0.08544445 0.042722225 0.05187699 0.119011916 0.030515876 -0.13121827 0.009154763 0.119011916 -0.05492858 -0.030515876 0.088496044 0.015257938 0.021361113 0.16478573
0000b0 c2 47 e3 0f bd db 0a fb 0d f5 d9 08 de 32 bd 1c
       -0.18919843 0.21666272 -0.088496044 0.045773815 -0.20445637 -0.11290874 0.030515876 -0.015257938 0.03967064 -0.033567462 -0.119011916 0.0244127 -0.10375398 0.15257938 -0.20445637 0.08544445
0000c0 d9 0d 0b 0b 08 f0 27 f4 ca d1 ea d4 1d d2 00 e7
       -0.119011916 0.03967064 0.033567462 0.033567462 0.0244127 -0.0488254 0.119011916 -0.036619052 -0.16478573 -0.14342462 -0.067134924 -0.13426985 0.088496044 -0.14037304 0.0 -0.07628969
0000d0 ea 1d ef f0 01 24 e8 35 dc e4 0e f4 d6 e1 19 de
       -0.067134924 0.088496044 -0.05187699 -0.0488254 0.0030515876 0.10985716 -0.073238105 0.16173415 -0.10985716 -0.08544445 0.042722225 -0.036619052 -0.12816668 -0.09459922 0.07628969 -0.10375398
0000e0 e8 1b 17 34 ca 0c f9 f1 c9 fc da e1 39 f2 08 dd
       -0.073238105 0.082392864 0.07018652 0.15868255 -0.16478573 0.036619052 -0.021361113 -0.045773815 -0.16783732 -0.01220635 -0.11596033 -0.09459922 0.1739405 -0.042722225 0.0244127 -0.10680556
0000f0 0b 03 34 c5 ca 51 15 08 ff 30 fe 22 f8 10 19 c2
       0.033567462 0.009154763 0.15868255 -0.18004367 -0.16478573 0.2471786 0.06408334 0.0244127 -0.0030515876 0.14647621 -0.006103175 0.10375398 -0.0244127 0.0488254 0.07628969 -0.18919843

sequential/dense_1/MatMul i1 [64, 128] scale=0.004698122 zero_point=0
000000 15 1e d0 ee 28 e8 d9 0b fd 11 fd 1c 0c 06 ee 00
       0.09866056 0.14094366 -0.22550985 -0.08456619 0.18792488 -0.112754926 -0.18322675 0.051679343 -0.014094366 0.07986807 -0.014094366 0.13154742 0.056377463 0.028188732 -0.08456619 0.0
000010 eb 1a 05 a7 ef e0 fe 06 ee 08 e4 fd e2 11 15 01
       -0.09866056 0.122151166 0.02349061 -0.41813284 -0.07986807 -0.1503399 -0.009396244 0.028188732 -0.08456619 0.037584975 -0.13154742 -0.014094366 -0.14094366 0.07986807 0.09866056 0.004698122
000020 c9 d6 05 ea fa b8 f2 fb 1a e9 e1 cc 03 ee cf f1
       -0.25839671 -0.19732112 0.02349061 -0.103358686 -0.028188732 -0.33826476 -0.06577371 -0.02349061 0.122151166 -0.108056806 -0.14564177 -0.24430233 0.014094366 -0.08456619 -0.23020798 -0.07047183
000030 d1 0c f9 f7 02 11 f6 ec eb da 16 f1 0a f1 04 21
       -0.22081172 0.056377463 -0.032886855 -0.042283095 0.009396244 0.07986807 -0.04698122 -0.09396244 -0.09866056 -0.17852864 0.103358686 -0.07047183 0.04698122 -0.07047183 0.018792488 0.15503803
000040 0f 0f dd 10 f3 0f 06 fa fc 06 de ff f9 0f f8 0e
       0.07047183 0.07047183 -0.16443427 0.07516995 -0.061075583 0.07047183 0.028188732 -0.028188732 -0.018792488 0.028188732 -0.15973614 -0.004698122 -0.032886855 0.07047183 -0.037584975 0.06577371
000050 f8 f5 dc 1b 16 19 24 fe f5 13 16 d6 04 21 e7 fc
       -0.037584975 -0.051679343 -0.16913238 0.1268493 0.103358686 0.117453046 0.16913238 -0.009396244 -0.051679343 0.08926432 0.103358686 -0.19732112 0.018792488 0.15503803 -0.117453046 -0.018792488
000060 e5 11 fd ef dd 24 18 f1 f1 19 1a 09 23 e6 e5 de
       -0.1268493 0.07986807 -0.014094366 -0.07986807 -0.16443427 0.16913238 0.112754926 -0.07047183 -0.07047183 0.117453046 0.122151166 0.042283095 0.16443427 -0.122151166 -0.1268493 -0.15973614
000070 06 0d eb f8 00 0e f8 e3 0b 0f d4 fe 09 e0 ff 0b
       0.028188732 0.061075583 -0.09866056 -0.037584975 0.0 0.06577371 -0.037584975 -0.13624553 0.051679343 0.07047183 -0.20671737 -0.009396244 0.042283095 -0.1503399 -0.004698122 0.051679343
000080 e2 0d 0a 12 20 e2 13 21 f6 0d e7 fd 1f cb 28 14
       -0.14094366 0.061075583 0.04698122 0.08456619 0.1503399 -0.14094366 0.08926432 0.15503803 -0.04698122 0.061075583 -0.117453046 -0.014094366 0.14564177 -0.24900046 0.18792488 0.09396244
000090 14 ec 18 94 c4 df f3 0e dc 15 f9 22 1e fa 23 04
       0.09396244 -0.09396244 0.112754926 -0.5073972 -0.28188732 -0.15503803 -0.061075583 0.06577371 -0.16913238 0.09866056 -0.032886855 0.15973614 0.14094366 -0.028188732 0.16443427 0.018792488
0000a0 eb 10 16 02 1c a3 14 d6 0c e4 05 cc dd e0 22 f5
       -0.09866056 0.07516995 0.103358686 0.009396244 0.13154742 -0.43692535 0.09396244 -0.19732112 0.056377463 -0.13154742 0.02349061 -0.24430233 -0.16443427 -0.1503399 0.15973614 -0.051679343
0000b0 a1 f1 04 e4 1d de 12 1d fe 0a 18 fd c5 eb 28 e8
       -0.44632158 -0.07047183 0.018792488 -0.13154742 0.13624553 -0.15973614 0.08456619 0.13624553 -0.009396244 0.04698122 0.112754926 -0.014094366 -0.2771892 -0.09866056 0.18792488 -0.112754926
0000c0 17 06 03 fe 15 d3 1b f8 1d 0e de 14 f5 14 1c df
       0.108056806 0.028188732 0.014094366 -0.009396244 0.09866056 -0.21141548 0.1268493 -0.037584975 0.13624553 0.06577371 -0.15973614 0.09396244 -0.051679343 0.09396244 0.13154742 -0.15503803
0000d0 e4 e1 05 1b 03 e9 11 fa fe 2a 05 fa 07 03 f1 e8
       -0.13154742 -0.14564177 0.02349061 0.1268493 0.014094366 -0.108056806 0.07986807 -0.028188732 -0.009396244 0.19732112 0.02349061 -0.028188732 0.032886855 0.014094366 -0.07047183 -0.112754926
0000e0 0a 03 d4 ee 0d 19 e4 cb 05 05 20 15 f4 eb 1b e8
       0.04698122 0.014094366 -0.20671737 -0.08456619 0.061075583 0.117453046 -0.13154742 -0.24900046 0.02349061 0.02349061 0.1503399 0.09866056 -0.056377463 -0.09866056 0.1268493 -0.112754926
0000f0 14 11 d8 fe ee ed 28 1a e0 e9 05 18 1d cb 08 f4
       0.09396244 0.07986807 -0.18792488 -0.009396244 -0.08456619 -0.08926432 0.18792488 0.122151166 -0.1503399 -0.108056806 0.02349061 0.112754926 0.13624553 -0.24900046 0.037584975 -0.056377463

sequential/dense_2/MatMul i1 [2, 64] scale=0.003357014 zero_point=0
000000 06 ca 44 c0 0e de 1c 6c 69 a3 2e 15 d5 f3 1b 0e
       0.020142084 -0.18127875 0.22827695 -0.21484889 0.046998195 -0.11413848 0.09399639 0.3625575 0.35248646 -0.3122023 0.15442264 0.07049729 -0.1443516 -0.04364118 0.090639375 0.046998195
000010 fc 2b ee 5b b5 e3 ca ee aa 1d 61 2f 1a 22 41 c3
       -0.013428056 0.1443516 -0.06042625 0.30548826 -0.25177604 -0.097353406 -0.18127875 -0.06042625 -0.2887032 0.097353406 0.32563034 0.15777965 0.08728236 0.11413848 0.2182059 -0.20477785
000020 73 58 02 28 26 e4 07 ec e9 12 de 47 da 18 26 73
       0.3860566 0.29541722 0.006714028 0.13428056 0.12756653 -0.09399639 0.023499098 -0.06714028 -0.07721132 0.06042625 -0.11413848 0.23834799 -0.12756653 0.080568336 0.12756653 0.3860566
000030 14 54 01 de 3d be 20 0d a9 df f5 e8 db 54 c3 3e
       0.06714028 0.28198916 0.003357014 -0.11413848 0.20477785 -0.22156292 0.107424445 0.04364118 -0.2920602 -0.11078146 -0.036927152 -0.080568336 -0.124209516 0.28198916 -0.20477785 0.20813486
000040 47 5e 4f ac c4 f7 17 0a d3 e2 d6 b7 0d e8 f5 91
       0.23834799 0.3155593 0.2652041 -0.28198916 -0.20142083 -0.030213125 0.07721132 0.03357014 -0.15106563 -0.100710414 -0.14099458 -0.24506202 0.04364118 -0.080568336 -0.036927152 -0.37262854
000050 e4 81 54 ea 37 4a 02 b0 e7 b8 12 ad 03 00 f4 ab
       -0.09399639 -0.42634076 0.28198916 -0.073854305 0.18463576 0.24841903 0.006714028 -0.26856112 -0.08392535 -0.241705 0.06042625 -0.27863216 0.010071042 0.0 -0.040284168 -0.28534618
000060 16 17 4c e7 ec 76 db de fe 46 04 ab d5 df 13 69
       0.073854305 0.07721132 0.25513306 -0.08392535 -0.06714028 0.39612764 -0.124209516 -0.11413848 -0.006714028 0.23499097 0.013428056 -0.28534618 -0.1443516 -0.11078146 0.063783266 0.35248646
000070 ca bd d5 42 cd f8 34 18 d5 fd e4 28 e5 3d aa 1e
       -0.18127875 -0.22491993 -0.1443516 0.22156292 -0.17120771 -0.026856111 0.17456472 0.080568336 -0.1443516 -0.010071042 -0.09399639 0.13428056 -0.090639375 0.20477785 -0.2887032 0.100710414

sequential/conv2d/Conv2D i1 [32, 5, 5, 3]
000000 66 ae ab 34 e7 af 21 81 ba 01 c8 b5 05 21 1c e7
       102 -82 -85 52 -25 -81 33 -127 -70 1 -56 -75 5 33 28 -25
000010 b9 d3 10 c1 c7 20 bf f2 0c 1c 0e ad 58 2a 1e d8
       -71 -45 16 -63 -57 32 -65 -14 12 28 14 -83 88 42 30 -40
000020 c7 b5 bd cd 3c 36 43 d8 50 61 cf 53 5e de da 92
       -57 -75 -67 -51 60 54 67 -40 80 97 -49 83 94 -34 -38 -110
000030 34 fb f0 f7 e9 fc fc 33 6a e3 49 55 23 c7 9f 20
       52 -5 -16 -9 -23 -4 -4 51 106 -29 73 85 35 -57 -97 32
000040 ef 04 45 4d 35 e3 1a 3d 9f e4 32 02 24 f8 06 0d
       -17 4 69 77 53 -29 26 61 -97 -28 50 2 36 -8 6 13
000050 f8 2e 65 4c c1 f3 de d5 00 2f d7 d1 bb 06 02 f7
       -8 46 101 76 -63 -13 -34 -43 0 47 -41 -47 -69 6 2 -9
000060 21 41 07 f4 d4 d9 0f fd 29 26 00 ee c7 b5 ac db
       33 65 7 -12 -44 -39 15 -3 41 38 0 -18 -57 -75 -84 -37
000070 f3 c1 7f 38 63 15 d7 f9 eb eb b5 07 1a ec 17 1a
       -13 -63 127 56 99 21 -41 -7 -21 -21 -75 7 26 -20 23 26
000080 02 e9 f1 f6 26 fb 06 0a df f6 db f0 fa c6 cd b5
       2 -23 -15 -10 38 -5 6 10 -33 -10 -37 -16 -6 -58 -51 -75
000090 e6 e3 d4 11 db f9 03 45 21 00 3f 24 06 28 1e 45
       -26 -29 -44 17 -37 -7 3 69 33 0 63 36 6 40 30 69
0000a0 67 25 e3 f4 da c9 08 fb db 12 16 bf f1 da be fd
       103 37 -29 -12 -38 -55 8 -5 -37 18 22 -65 -15 -38 -66 -3
0000b0 f3 8e 85 81 ed 05 36 dd 58 20 17 31 4d ed 2f 1e
       -13 -114 -123 -127 -19 5 54 -35 88 32 23 49 77 -19 47 30
0000c0 ca 01 d6 07 f4 02 4b 27 13 c6 ca 08 c5 cb c3 cf
       -54 1 -42 7 -12 2 75 39 19 -58 -54 8 -59 -53 -61 -49
0000d0 d9 c0 e5 c6 e8 fa 28 38 37 46 50 33 65 10 c0 de
       -39 -64 -27 -58 -24 -6 40 56 55 70 80 51 101 16 -64 -34
0000e0 0a 28 a8 c5 27 a9 cb 1c b3 a6 2c c7 e5 0e db e6
       10 40 -88 -59 39 -87 -53 28 -77 -90 44 -57 -27 14 -37 -26
0000f0 0c 09 e4 0d ce cf fb e7 df 05 e8 c9 1b 05 e7 f7
       12 9 -28 13 -50 -49 -5 -25 -33 5 -24 -55 27 5 -25 -9

sequential/conv2d_1/Conv2D i1 [32, 5, 5, 32]
000000 13 fa 01 38 26 16 e1 fe 11 dc fa f1 df f6 c9 07
       19 -6 1 56 38 22 -31 -2 17 -36 -6 -15 -33 -10 -55 7
000010 fc e9 f5 1f 29 d6 02 2d e2 c4 28 1d f1 46 fe d2
       -4 -23 -11 31 41 -42 2 45 -30 -60 40 29 -15 70 -2 -46
000020 d9 1a ed 0b 13 da 0a d4 c2 e4 c2 f7 f2 e6 e0 02
       -39 26 -19 11 19 -38 10 -44 -62 -28 -62 -9 -14 -26 -32 2
000030 e5 d7 e6 18 05 ca 02 02 f8 cb 1c e0 fe f3 13 1b
       -27 -41 -26 24 5 -54 2 2 -8 -53 28 -32 -2 -13 19 27
000040 dd 1a 08 00 1d 3e 14 08 eb 22 fd e6 0d 39 fd 13
       -35 26 8 0 29 62 20 8 -21 34 -3 -26 13 57 -3 19
000050 f6 44 10 0b 0c fc 1e 20 09 ef 16 23 19 19 01 17
       -10 68 16 11 12 -4 30 32 9 -17 22 35 25 25 1 23
000060 df d8 f6 df cc dd 12 e1 01 01 d5 e5 d7 0c fa f2
       -33 -40 -10 -33 -52 -35 18 -31 1 1 -43 -27 -41 12 -6 -14
000070 f3 e6 df fd d4 e8 f2 f7 dc f9 de f3 f8 fd d9 ec
       -13 -26 -33 -3 -44 -24 -14 -9 -36 -7 -34 -13 -8 -3 -39 -20
000080 fb dc c4 de 0d dd ee f6 f1 df dc dc d6 e9 e1 f0
       -5 -36 -60 -34 13 -35 -18 -10 -15 -33 -36 -36 -42 -23 -31 -16
000090 dd cb e8 ff e6 00 e1 ed cd f2 d8 cd eb fb db d8
       -35 -53 -24 -1 -26 0 -31 -19 -51 -14 -40 -51 -21 -5 -37 -40
0000a0 09 11 1f 3c 04 f3 ff 1a ee ec ef dc e1 c1 be 03
       9 17 31 60 4 -13 -1 26 -18 -20 -17 -36 -31 -63 -66 3
0000b0 b5 ea 10 ff b8 ec 1b f7 c4 ef d5 bd d0 3c 06 d9
       -75 -22 16 -1 -72 -20 27 -9 -60 -17 -43 -67 -48 60 6 -39
0000c0 28 09 ee 05 da 0e de 02 e2 ef cb fe f5 18 b8 fb
       40 9 -18 5 -38 14 -34 2 -30 -17 -53 -2 -11 24 -72 -5
0000d0 3f de 02 f3 ae f0 c1 d0 11 f1 0e f2 24 be cd 03
       63 -34 2 -13 -82 -16 -63 -48 17 -15 14 -14 36 -66 -51 3
0000e0 27 11 f0 d2 ec 27 df f5 d2 ec 0e f2 dd f8 19 ff
       39 17 -16 -46 -20 39 -33 -11 -46 -20 14 -14 -35 -8 25 -1
0000f0 f3 03 d8 03 0f f6 13 f4 ec 00 f9 ff e2 17 e6 fa
       -13 3 -40 3 15 -10 19 -12 -20 0 -7 -1 -30 23 -26 -6

sequential/conv2d_2/Conv2D i1 [32, 3, 3, 32]
000000 a8 14 dc e6 ea ae 1b f2 09 04 27 1e e3 14 06 01
       -88 20 -36 -26 -22 -82 27 -14 9 4 39 30 -29 20 6 1
000010 22 ed ee da f4 24 1c de 0a e9 10 25 14 d3 e9 b3
       34 -19 -18 -38 -12 36 28 -34 10 -23 16 37 20 -45 -23 -77
000020 10 15 14 0f d7 81 3e ee 71 1e 4e 07 d0 0d fc 05
       16 21 20 15 -41 -127 62 -18 113 30 78 7 -48 13 -4 5
000030 22 f1 dd 0a cc 0c df a7 07 d5 12 b7 f5 f9 e7 f8
       34 -15 -35 10 -52 12 -33 -89 7 -43 18 -73 -11 -7 -25 -8
000040 eb 04 db e2 ed cd de e9 1d ea fc dd 1e 0f e3 ed
       -21 4 -37 -30 -19 -51 -34 -23 29 -22 -4 -35 30 15 -29 -19
000050 dd 0b 23 ce 18 e1 01 ed ec f5 eb 0b e2 17 ed 01
       -35 11 35 -50 24 -31 1 -19 -20 -11 -21 11 -30 23 -19 1
000060 0c f6 e2 d5 ec 22 eb 12 f6 0f d9 e7 e0 01 d7 34
       12 -10 -30 -43 -20 34 -21 18 -10 15 -39 -25 -32 1 -41 52
000070 f8 e6 ee f1 15 f5 f8 f5 2e 50 ee f1 e2 e2 f8 22
       -8 -26 -18 -15 21 -11 -8 -11 46 80 -18 -15 -30 -30 -8 34
000080 d5 35 f5 fe 0e 0b e1 0a e0 17 13 47 00 17 f3 e6
       -43 53 -11 -2 14 11 -31 10 -32 23 19 71 0 23 -13 -26
000090 16 03 ed dc cf ec c1 35 fd 29 0c e0 23 2a ef 2f
       22 3 -19 -36 -49 -20 -63 53 -3 41 12 -32 35 42 -17 47
0000a0 f8 05 01 df 18 09 de e1 19 1b c1 d9 0d 1f ed eb
       -8 5 1 -33 24 9 -34 -31 25 27 -63 -39 13 31 -19 -21
0000b0 de 1c 07 0d 31 f1 db de 1e 02 f2 f1 d0 ea 1c 05
       -34 28 7 13 49 -15 -37 -34 30 2 -14 -15 -48 -22 28 5
0000c0 f1 e0 0e e0 23 d2 f4 f5 f2 12 ee d9 fb e9 fb e7
       -15 -32 14 -32 35 -46 -12 -11 -14 18 -18 -39 -5 -23 -5 -25
0000d0 f1 e9 f5 de d9 f7 d9 d0 dd 17 cb dc e4 e4 ea ed
       -15 -23 -11 -34 -39 -9 -39 -48 -35 23 -53 -36 -28 -28 -22 -19
0000e0 f4 fe 06 15 d7 db e6 12 d7 fb cf f8 fb 26 cb e4
       -12 -2 6 21 -41 -37 -26 18 -41 -5 -49 -8 -5 38 -53 -28
0000f0 dc 0a 1c 0a 2c bd 15 f8 eb e3 fa fb f2 f0 fb 20
       -36 10 28 10 44 -67 21 -8 -21 -29 -6 -5 -14 -16 -5 32
