ana0700s3q.tflite (tflite, 33296 bytes, 6 tensors)

sequential/dense/MatMul i1 [64, 32] scale=0.0033399733 zero_point=0
000000 51 e8 eb bb d0 1c ea 10 1f 40 e0 02 f0 f7 f1 e3
       0.27053782 -0.08015936 -0.07013944 -0.23045816 -0.16031872 0.093519256 -0.073479414 0.053439572 0.10353917 0.21375829 -0.106879145 0.0066799466 -0.053439572 -0.030059759 -0.0500996 -0.096859224
000010 f6 1f d8 2a e3 35 38 c7 d6 03 ee 10 27 bf 42 f3
       -0.03339973 0.10353917 -0.13359892 0.14027888 -0.096859224 0.17701858 0.18703851 -0.19037847 -0.14027888 0.01001992 -0.060119517 0.053439572 0.13025896 -0.21709827 0.22043824 -0.04341965
000020 5b 33 e1 19 d5 f0 32 2a 38 36 0c 32 e7 b8 1e d4
       0.30393755 0.17033863 -0.10353917 0.083499335 -0.14361885 -0.053439572 0.16699867 0.14027888 0.18703851 0.18035856 0.04007968 0.16699867 -0.083499335 -0.24047807 0.1001992 -0.14695883
000030 e1 0c f3 d4 d1 c1 c2 d5 02 26 d8 ee fa ca f5 f2
       -0.10353917 0.04007968 -0.04341965 -0.14695883 -0.15697874 -0.21041831 -0.20707834 -0.14361885 0.0066799466 0.12691899 -0.13359892 -0.060119517 -0.02003984 -0.18035856 -0.036739707 -0.046759628
000040 ed f9 06 4e c3 ff 39 c9 2e b3 ab 56 e3 d2 00 dd
       -0.06345949 -0.023379814 0.02003984 0.26051793 -0.20373838 -0.0033399733 0.19037847 -0.18369853 0.15363877 -0.25717795 -0.28389773 0.2872377 -0.096859224 -0.15363877 0.0 -0.116899066
000050 06 51 88 2b 0c 6b 57 cf d3 cd 67 c9 e4 e0 e1 25
       0.02003984 0.27053782 -0.4007968 0.14361885 0.04007968 0.35737714 0.29057768 -0.1636587 -0.1502988 -0.17033863 0.34401724 -0.18369853 -0.093519256 -0.106879145 -0.10353917 0.12357901
000060 2f 0a f5 c4 d7 d6 b8 03 00 c0 12 b8 e7 ff ce b7
       0.15697874 0.03339973 -0.036739707 -0.2003984 -0.1369389 -0.14027888 -0.24047807 0.01001992 0.0 -0.21375829 0.060119517 -0.24047807 -0.083499335 -0.0033399733 -0.16699867 -0.24381804
000070 12 e8 c6 c4 1f 2b f5 3d 00 c8 02 c9 18 c8 f0 f2
       0.060119517 -0.08015936 -0.19371845 -0.2003984 0.10353917 0.14361885 -0.036739707 0.20373838 0.0 -0.18703851 0.0066799466 -0.18369853 0.08015936 -0.18703851 -0.053439572 -0.046759628
000080 39 b7 f0 f4 2c 8e cf 15 f8 03 2b 2b ca 03 bf cd
       0.19037847 -0.24381804 -0.053439572 -0.04007968 0.14695883 -0.38075694 -0.1636587 0.07013944 -0.026719786 0.01001992 0.14361885 0.14361885 -0.18035856 0.01001992 -0.21709827 -0.17033863
000090 d9 03 1c e3 2d dc c9 25 1c e8 ef b8 e2 0c 2b 2a
       -0.13025896 0.01001992 0.093519256 -0.096859224 0.1502988 -0.120239034 -0.18369853 0.12357901 0.093519256 -0.08015936 -0.056779545 -0.24047807 -0.1001992 0.04007968 0.14361885 0.14027888
0000a0 33 0c e4 af d8 30 44 c6 e8 06 fc 2b e6 09 09 01
       0.17033863 0.04007968 -0.093519256 -0.27053782 -0.13359892 0.16031872 0.22711818 -0.19371845 -0.08015936 0.02003984 -0.013359893 0.14361885 -0.0868393 0.030059759 0.030059759 0.0033399733
0000b0 10 9e ce de b5 af 08 33 b6 33 3b 1c ee f2 16 f7
       0.053439572 -0.3273174 -0.16699867 -0.11355909 -0.250498 -0.27053782 0.026719786 0.17033863 -0.24715802 0.17033863 0.19705842 0.093519256 -0.060119517 -0.046759628 0.073479414 -0.030059759
0000c0 c0 e6 01 13 fb 12 e3 39 dd 0c 36 42 b4 11 40 c6
       -0.21375829 -0.0868393 0.0033399733 0.06345949 -0.016699865 0.060119517 -0.096859224 0.19037847 -0.116899066 0.04007968 0.18035856 0.22043824 -0.25383797 0.056779545 0.21375829 -0.19371845
0000d0 bc 36 ef c9 03 29 ce b5 fd 0b 3a 0d 08 dc d9 0c
       -0.22711818 0.18035856 -0.056779545 -0.18369853 0.01001992 0.1369389 -0.16699867 -0.250498 -0.01001992 0.036739707 0.19371845 0.04341965 0.026719786 -0.120239034 -0.13025896 0.04007968
0000e0 2d 21 d9 fb de e3 bd c6 33 c0 d9 23 0f e1 de 03
       0.1502988 0.11021912 -0.13025896 -0.016699865 -0.11355909 -0.096859224 -0.2237782 -0.19371845 0.17033863 -0.21375829 -0.13025896 0.116899066 0.0500996 -0.10353917 -0.11355909 0.01001992
0000f0 d6 e2 38 f7 f0 fe 2c 10 17 18 ec 01 0b df d9 00
       -0.14027888 -0.1001992 0.18703851 -0.030059759 -0.053439572 -0.0066799466 0.14695883 0.053439572 0.07681938 0.08015936 -0.06679946 0.0033399733 0.036739707 -0.11021912 -0.13025896 0.0

sequential/dense_1/MatMul i1 [32, 64] scale=0.0055815773 zero_point=0
000000 d3 e9 f8 fc 07 20 0c 2d 25 14 ec e4 df e0 19 d6
       -0.251171 -0.12837628 -0.04465262 -0.02232631 0.039071042 0.17861047 0.06697893 0.251171 0.20651837 0.11163154 -0.11163154 -0.15628417 -0.18419205 -0.17861047 0.13953944 -0.23442625
000010 0c e4 fd ef f4 ed db 1a 21 f9 ee 1a d3 c3 f9 d5
       0.06697893 -0.15628417 -0.016744733 -0.09488682 -0.06697893 -0.10604997 -0.20651837 0.14512101 0.18419205 -0.039071042 -0.10046839 0.14512101 -0.251171 -0.3404762 -0.039071042 -0.24000782
000020 ea 11 b8 10 17 d4 e1 d7 ed 1f d2 06 1d 19 f5 fc
       -0.1227947 0.09488682 -0.40187356 0.08930524 0.12837628 -0.2455894 -0.1730289 -0.22884467 -0.10604997 0.1730289 -0.25675255 0.033489466 0.16186574 0.13953944 -0.06139735 -0.02232631
000030 29 b9 fb f6 d2 bf 20 f5 ef f7 db 20 db 10 14 f4
       0.22884467 -0.396292 -0.027907886 -0.05581577 -0.25675255 -0.36280254 0.17861047 -0.06139735 -0.09488682 -0.050234195 -0.20651837 0.17861047 -0.20651837 0.08930524 0.11163154 -0.06697893
000040 db f0 c5 23 ef 29 0e f6 fb 1b fa d5 04 dd f1 d2
       -0.20651837 -0.08930524 -0.32931307 0.1953552 -0.09488682 0.22884467 0.078142084 -0.05581577 -0.027907886 0.15070258 -0.033489466 -0.24000782 0.02232631 -0.1953552 -0.08372366 -0.25675255
000050 dc 19 fb fa 23 d9 0a 01 0b 18 05 1a db fe fb 0b
       -0.20093678 0.13953944 -0.027907886 -0.033489466 0.1953552 -0.21768151 0.05581577 0.0055815773 0.06139735 0.13395786 0.027907886 0.14512101 -0.20651837 -0.011163155 -0.027907886 0.06139735
000060 0c f8 ff f8 13 d2 0c e2 f0 0d f2 eb 19 00 11 26
       0.06697893 -0.04465262 -0.0055815773 -0.04465262 0.10604997 -0.25675255 0.06697893 -0.16744731 -0.08930524 0.072560504 -0.078142084 -0.11721312 0.13953944 0.0 0.09488682 0.21209994
000070 11 14 d1 e6 03 27 d0 00 03 db 10 f5 fa e3 09 2f
       0.09488682 0.11163154 -0.26233414 -0.14512101 0.016744733 0.21768151 -0.26791573 0.0 0.016744733 -0.20651837 0.08930524 -0.06139735 -0.033489466 -0.16186574 0.050234195 0.26233414
000080 09 e3 2f 00 f8 f6 05 0c 03 f2 11 1f df 32 1a e5
       0.050234195 -0.16186574 0.26233414 0.0 -0.04465262 -0.05581577 0.027907886 0.06697893 0.016744733 -0.078142084 0.09488682 0.1730289 -0.18419205 0.27907887 0.14512101 -0.15070258
000090 d0 f3 11 e1 e4 01 e0 02 df 05 07 fe e2 22 d5 de
       -0.26791573 -0.072560504 0.09488682 -0.1730289 -0.15628417 0.0055815773 -0.17861047 0.011163155 -0.18419205 0.027907886 0.039071042 -0.011163155 -0.16744731 0.18977363 -0.24000782 -0.18977363
0000a0 e4 0b 29 08 19 e3 22 03 03 38 f9 e6 eb 05 f2 da
       -0.15628417 0.06139735 0.22884467 0.04465262 0.13953944 -0.16186574 0.18977363 0.016744733 0.016744733 0.31256834 -0.039071042 -0.14512101 -0.11721312 0.027907886 -0.078142084 -0.21209994
0000b0 14 28 d3 e3 11 23 e2 f8 10 09 16 fb 1a 10 22 2b
       0.11163154 0.22326308 -0.251171 -0.16186574 0.09488682 0.1953552 -0.16744731 -0.04465262 0.08930524 0.050234195 0.1227947 -0.027907886 0.14512101 0.08930524 0.18977363 0.24000782
0000c0 0b 15 33 0f e0 05 0e f6 e9 16 0a f8 fa 06 e7 15
       0.06139735 0.11721312 0.28466043 0.08372366 -0.17861047 0.027907886 0.078142084 -0.05581577 -0.12837628 0.1227947 0.05581577 -0.04465262 -0.033489466 0.033489466 -0.13953944 0.11721312
0000d0 09 08 fd ff 0e f8 27 10 db 32 ff e2 e0 1c e6 19
       0.050234195 0.04465262 -0.016744733 -0.0055815773 0.078142084 -0.04465262 0.21768151 0.08930524 -0.20651837 0.27907887 -0.0055815773 -0.16744731 -0.17861047 0.15628417 -0.14512101 0.13953944
0000e0 fc 1b 06 eb fc ed 1d 23 01 2b 28 df ee d8 13 03
       -0.02232631 0.15070258 0.033489466 -0.11721312 -0.02232631 -0.10604997 0.16186574 0.1953552 0.0055815773 0.24000782 0.22326308 -0.18419205 -0.10046839 -0.22326308 0.10604997 0.016744733
0000f0 3c 26 d1 0a 1c 15 d5 ff 09 1b 0b e2 fe 17 17 04
       0.33489463 0.21209994 -0.26233414 0.05581577 0.15628417 0.11721312 -0.24000782 -0.0055815773 0.050234195 0.15070258 0.06139735 -0.16744731 -0.011163155 0.12837628 0.12837628 0.02232631

sequential/dense_2/MatMul i1 [2, 32] scale=0.0038861148 zero_point=0
000000 e5 19 13 0e ff 34 cc 09 fd 97 da 1f 36 bc 0a 79
       -0.104925096 0.097152874 0.07383618 0.054405607 -0.0038861148 0.20207797 -0.20207797 0.034975033 -0.011658344 -0.40804204 -0.14767236 0.120469555 0.20985019 -0.26425582 0.038861148 0.47021988
000010 24 36 74 aa d6 dd 23 1b 86 32 ad 1c fc 36 d4 b9
       0.13990013 0.20985019 0.45078933 -0.33420587 -0.16321683 -0.13601401 0.13601401 0.104925096 -0.474106 0.19430575 -0.32254753 0.108811215 -0.015544459 0.20985019 -0.17098905 -0.27591416
000020 41 d9 36 2d b0 18 cd e9 da 4b 7f 58 1a 1d 8f 27
       0.25259745 -0.15155847 0.20985019 0.17487517 -0.31088918 0.093266755 -0.19819185 -0.08938064 -0.14767236 0.2914586 0.4935366 0.3419781 0.101038985 0.11269733 -0.43913096 0.15155847
000030 0a 17 d5 4c 23 b2 5b f4 cd be fb 26 bc b0 2b 9e
       0.038861148 0.08938064 -0.16710293 0.2953447 0.13601401 -0.30311695 0.35363644 -0.046633378 -0.19819185 -0.25648358 -0.019430574 0.14767236 -0.26425582 -0.31088918 0.16710293 -0.38083926

sequential/conv2d/Conv2D i1 [32, 5, 5, 3]
000000 bd c0 af 0e 01 f3 c7 ec c7 3c ea 06 d2 bd d4 2d
       -67 -64 -81 14 1 -13 -57 -20 -57 60 -22 6 -46 -67 -44 45
000010 f4 da 3d 02 24 d7 a8 b7 d3 c0 bc 0f 26 3d 07 4e
       -12 -38 61 2 36 -41 -88 -73 -45 -64 -68 15 38 61 7 78
000020 27 10 d8 f3 4f 10 2f da f3 d9 4c 2f 23 e8 2d 14
       39 16 -40 -13 79 16 47 -38 -13 -39 76 47 35 -24 45 20
000030 02 33 49 45 37 3e 81 da e3 d7 16 2b 09 36 40 a8
       2 51 73 69 55 62 -127 -38 -29 -41 22 43 9 54 64 -88
000040 99 c8 e6 28 3d 89 99 f0 12 30 1e e7 03 b8 f7 ef
       -103 -56 -26 40 61 -119 -103 -16 18 48 30 -25 3 -72 -9 -17
000050 ca 1d 0f fa 11 bf d7 1f d8 1c f7 bb a4 c3 2d df
       -54 29 15 -6 17 -65 -41 31 -40 28 -9 -69 -92 -61 45 -33
000060 f7 03 22 06 38 0e 03 02 57 d7 ae c6 d3 1f 11 f7
       -9 3 34 6 56 14 3 2 87 -41 -82 -58 -45 31 17 -9
000070 ee e8 3a 0d 4f 31 38 4a e0 b9 bb 2f 49 1c 55 3e
       -18 -24 58 13 79 49 56 74 -32 -71 -69 47 73 28 85 62
000080 0b d3 f2 ed 36 21 3f 0c 03 f1 4a 21 35 4c 13 21
       11 -45 -14 -19 54 33 63 12 3 -15 74 33 53 76 19 33
000090 88 9c 81 9d a3 e4 f6 54 79 81 1b 2a e6 09 17 cf
       -120 -100 -127 -99 -93 -28 -10 84 121 -127 27 42 -26 9 23 -49
0000a0 2a 14 b7 31 0d 07 e8 2e 00 dc 1c 26 c9 e1 27 b9
       42 20 -73 49 13 7 -24 46 0 -36 28 38 -55 -31 39 -71
0000b0 c2 24 d6 c4 03 c7 c7 01 bb f5 57 aa ba 5b bc c2
       -62 36 -42 -60 3 -57 -57 1 -69 -11 87 -86 -70 91 -68 -62
0000c0 20 d5 c5 0d b2 e6 4e 02 10 46 b9 ba 36 b2 d8 22
       32 -43 -59 13 -78 -26 78 2 16 70 -71 -70 54 -78 -40 34
0000d0 fa 2e ca 14 5d b9 40 62 d9 54 4a d4 1c 2f 96 0c
       -6 46 -54 20 93 -71 64 98 -39 84 74 -44 28 47 -106 12
0000e0 59 ff 2c 07 12 49 19 bf 0f 04 d1 02 4e 1d 19 4d
       89 -1 44 7 18 73 25 -65 15 4 -47 2 78 29 25 77
0000f0 d7 fa e6 d8 0c f5 8e fb 07 f8 1d fc 0e 3f 2a 8c
       -41 -6 -26 -40 12 -11 -114 -5 7 -8 29 -4 14 63 42 -116

sequential/conv2d_1/Conv2D i1 [16, 5, 5, 32]
000000 e0 11 46 cf 29 05 ed 09 20 17 d0 05 f3 af 23 c8
       -32 17 70 -49 41 5 -19 9 32 23 -48 5 -13 -81 35 -56
000010 ca 0c 12 0e 1b f8 08 19 f8 e9 33 d2 bf 7f fa 45
       -54 12 18 14 27 -8 8 25 -8 -23 51 -46 -65 127 -6 69
000020 f7 c4 f3 f6 1a d8 03 17 36 dd 01 11 b8 06 fc cd
       -9 -60 -13 -10 26 -40 3 23 54 -35 1 17 -72 6 -4 -51
000030 30 17 20 46 16 15 14 fa 36 fc ff fc 07 f4 04 d6
       48 23 32 70 22 21 20 -6 54 -4 -1 -4 7 -12 4 -42
000040 f0 d3 0a f5 ef 25 f2 d0 10 fe d7 c8 d9 35 f5 f6
       -16 -45 10 -11 -17 37 -14 -48 16 -2 -41 -56 -39 53 -11 -10
000050 37 ee ed 20 df e5 ed 0c d1 1f 0c 29 04 11 f9 f8
       55 -18 -19 32 -33 -27 -19 12 -47 31 12 41 4 17 -7 -8
000060 0f 16 1a e3 f3 31 0d ef 17 11 0a 09 e9 f2 00 07
       15 22 26 -29 -13 49 13 -17 23 17 10 9 -23 -14 0 7
000070 f0 18 ec bf e3 0b 03 19 d6 00 dc 38 07 d8 15 db
       -16 24 -20 -65 -29 11 3 25 -42 0 -36 56 7 -40 21 -37
000080 08 f5 f1 f4 19 ee 01 12 08 10 13 dd f9 23 ff 0f
       8 -11 -15 -12 25 -18 1 18 8 16 19 -35 -7 35 -1 15
000090 09 06 f9 fe e6 20 14 ee d8 fe 0e f5 ec c4 ef f0
       9 6 -7 -2 -26 32 20 -18 -40 -2 14 -11 -20 -60 -17 -16
0000a0 db 19 77 e9 c0 bd de d7 d2 de 2c 65 fc e8 37 f3
       -37 25 119 -23 -64 -67 -34 -41 -46 -34 44 101 -4 -24 55 -13
0000b0 1d fe 29 c2 4a d8 ff 0b de 8d 35 07 c7 53 e2 1d
       29 -2 41 -62 74 -40 -1 11 -34 -115 53 7 -57 83 -30 29
0000c0 46 1b f8 e8 dd e8 00 e1 16 e0 0c 2a 44 fc e9 f5
       70 27 -8 -24 -35 -24 0 -31 22 -32 12 42 68 -4 -23 -11
0000d0 2f 3a 56 12 55 d1 18 f5 2d c5 25 e1 13 f6 ee d5
       47 58 86 18 85 -47 24 -11 45 -59 37 -31 19 -10 -18 -43
0000e0 13 18 01 1b de ff 3f fb e9 ea fe 01 f8 04 e9 14
       19 24 1 27 -34 -1 63 -5 -23 -22 -2 1 -8 4 -23 20
0000f0 2c 57 f9 fc e1 10 f2 0c e5 ef 08 0a 1b bb 06 01
       44 87 -7 -4 -31 16 -14 12 -27 -17 8 10 27 -69 6 1

sequential/conv2d_2/Conv2D i1 [32, 3, 3, 16]
000000 e1 e7 16 ef e9 02 27 01 20 04 f5 d7 28 fe fd 06
       -31 -25 22 -17 -23 2 39 1 32 4 -11 -41 40 -2 -3 6
000010 db 14 0c f1 d8 11 db e6 09 19 d3 f2 13 e5 cf 00
       -37 20 12 -15 -40 17 -37 -26 9 25 -45 -14 19 -27 -49 0
000020 cf 2a db ec 05 d3 05 1b d8 0d 0b ba da dd 12 1c
       -49 42 -37 -20 5 -45 5 27 -40 13 11 -70 -38 -35 18 28
000030 f4 e6 df b5 b4 0a 0f 16 10 0e ba cd fd c5 fd c9
       -12 -26 -33 -75 -76 10 15 22 16 14 -70 -51 -3 -59 -3 -55
000040 2f 01 f7 49 f8 ff dd 04 22 dc e7 e4 e7 d0 dc de
       47 1 -9 73 -8 -1 -35 4 34 -36 -25 -28 -25 -48 -36 -34
000050 a3 1c 10 c3 3a 04 06 02 f0 02 46 47 d6 43 e7 0c
       -93 28 16 -61 58 4 6 2 -16 2 70 71 -42 67 -25 12
000060 d2 f0 f1 eb e3 dd f5 e1 21 d7 b6 f6 03 d5 b7 e0
       -46 -16 -15 -21 -29 -35 -11 -31 33 -41 -74 -10 3 -43 -73 -32
000070 fd d4 69 01 c5 e0 10 f1 07 de 2e f6 d9 f7 e7 c5
       -3 -44 105 1 -59 -32 16 -15 7 -34 46 -10 -39 -9 -25 -59
000080 e1 d8 ba e9 e5 74 ef f3 ea 13 91 0e f4 2c 7f 0d
       -31 -40 -70 -23 -27 116 -17 -13 -22 19 -111 14 -12 44 127 13
000090 01 10 32 ee c1 e1 02 00 0a d2 f8 c3 33 c4 10 df
       1 16 50 -18 -63 -31 2 0 10 -46 -8 -61 51 -60 16 -33
0000a0 c4 22 22 dd e9 0d 21 0b ed 16 c1 ea 01 be c6 ee
       -60 34 34 -35 -23 13 33 11 -19 22 -63 -22 1 -66 -58 -18
0000b0 e8 23 f1 fe 13 00 d3 e6 1d d7 dd e0 1b e8 21 0a
       -24 35 -15 -2 19 0 -45 -26 29 -41 -35 -32 27 -24 33 10
0000c0 0b 32 d2 3a f4 0d e0 2a 32 2f d3 d0 2d d3 06 a3
       11 50 -46 58 -12 13 -32 42 50 47 -45 -48 45 -45 6 -93
0000d0 fa 14 18 e1 81 fd ec 24 29 db 1e db e1 01 bb bb
       -6 20 24 -31 -127 -3 -20 36 41 -37 30 -37 -31 1 -69 -69
0000e0 da 0a 12 11 0c 23 1b cc 09 15 fc c7 1f ff d3 d3
       -38 10 18 17 12 35 27 -52 9 21 -4 -57 31 -1 -45 -45
0000f0 fa 13 23 98 ef 39 f4 d2 19 da 38 1a 05 e8 15 06
       -6 19 35 -104 -17 57 -12 -46 25 -38 56 26 5 -24 21 6
