models/ana-cont/ana-cont_1700_s1_q.tflite (tflite, 116368 bytes, 13 tensors)

tfl.pseudo_qconst1 i1 [2, 64] scale=0.003148887 zero_point=0
000000 00 d3 07 38 ff ad 00 3e 24 c0 02 1e 0e 00 a4 66
       0.0 -0.14169993 0.02204221 0.17633767 -0.003148887 -0.26135764 0.0 0.195231 0.113359936 -0.20152877 0.006297774 0.09446661 0.04408442 0.0 -0.28969762 0.32118648
000010 00 0f f8 ff 9f ff fa f7 ff 01 29 08 c1 f1 e5 03
       0.0 0.047233306 -0.025191097 -0.003148887 -0.30544204 -0.003148887 -0.018893322 -0.028339984 -0.003148887 0.003148887 0.12910438 0.025191097 -0.19837989 -0.047233306 -0.08501995 0.009446661
000020 f4 ff 9f df cb 4f f8 17 41 2b 00 ef 00 12 1c 00
       -0.037786644 -0.003148887 -0.30544204 -0.10391327 -0.16689101 0.24876209 -0.025191097 0.072424404 0.20467766 0.13540214 0.0 -0.05353108 0.0 0.056679968 0.08816884 0.0
000030 00 00 02 f6 dc 30 1f 2d 01 04 f8 01 19 4e a5 00
       0.0 0.0 0.006297774 -0.03148887 -0.113359936 0.15114658 0.0976155 0.14169993 0.003148887 0.012595548 -0.025191097 0.003148887 0.07872218 0.24561319 -0.28654873 0.0
000040 ff 2f a5 30 01 55 04 e8 3b 1c 00 da ff 00 14 cb
       -0.003148887 0.14799769 -0.28654873 0.15114658 0.003148887 0.2676554 0.012595548 -0.07557329 0.18578434 0.08816884 0.0 -0.11965771 -0.003148887 0.0 0.06297774 -0.16689101
000050 00 aa fe fe d1 01 0b d9 00 ff 3d 01 d9 30 81 ff
       0.0 -0.2708043 -0.006297774 -0.006297774 -0.14799769 0.003148887 0.034637757 -0.122806594 0.0 -0.003148887 0.1920821 0.003148887 -0.122806594 0.15114658 -0.39990866 -0.003148887
000060 06 ff c4 a6 41 f3 18 f4 b7 5e 00 15 00 f6 35 02
       0.018893322 -0.003148887 -0.18893322 -0.28339985 0.20467766 -0.04093553 0.07557329 -0.037786644 -0.22986875 0.29599538 0.0 0.06612663 0.0 -0.03148887 0.16689101 0.006297774
000070 00 00 01 f6 e6 ee c0 d6 02 fe 0c 01 5d 03 b9 00
       0.0 0.0 0.003148887 -0.03148887 -0.08187106 -0.056679968 -0.20152877 -0.13225326 0.006297774 -0.006297774 0.037786644 0.003148887 0.2928465 0.009446661 -0.22357099 0.0

tfl.pseudo_qconst3 i1 [64, 128] scale=0.001282002 zero_point=0
000000 00 00 00 00 00 00 00 00 00 00 00 00 00 00 00 00
       0.0 0.0 0.0 0.0 0.0 0.0 0.0 0.0 0.0 0.0 0.0 0.0 0.0 0.0 0.0 0.0
000010 00 00 00 00 00 00 00 00 00 00 00 00 00 00 00 00
       0.0 0.0 0.0 0.0 0.0 0.0 0.0 0.0 0.0 0.0 0.0 0.0 0.0 0.0 0.0 0.0
000020 00 00 00 00 00 00 00 00 00 00 00 00 00 00 00 00
       0.0 0.0 0.0 0.0 0.0 0.0 0.0 0.0 0.0 0.0 0.0 0.0 0.0 0.0 0.0 0.0
000030 00 00 00 00 00 00 00 00 00 00 00 00 00 00 00 00
       0.0 0.0 0.0 0.0 0.0 0.0 0.0 0.0 0.0 0.0 0.0 0.0 0.0 0.0 0.0 0.0
000040 00 00 00 00 00 00 00 00 00 00 00 00 00 00 00 00
       0.0 0.0 0.0 0.0 0.0 0.0 0.0 0.0 0.0 0.0 0.0 0.0 0.0 0.0 0.0 0.0
000050 00 00 00 00 00 00 00 00 00 00 00 00 00 00 00 00
       0.0 0.0 0.0 0.0 0.0 0.0 0.0 0.0 0.0 0.0 0.0 0.0 0.0 0.0 0.0 0.0
000060 00 00 00 00 00 00 00 00 00 00 00 00 00 00 00 00
       0.0 0.0 0.0 0.0 0.0 0.0 0.0 0.0 0.0 0.0 0.0 0.0 0.0 0.0 0.0 0.0
000070 00 00 00 00 00 00 00 00 00 00 00 00 00 00 00 00
       0.0 0.0 0.0 0.0 0.0 0.0 0.0 0.0 0.0 0.0 0.0 0.0 0.0 0.0 0.0 0.0
000080 20 ce fe 1b 01 d7 f8 cc c9 f7 d1 e4 df c6 26 01
       0.041024063 -0.0641001 -0.002564004 0.034614053 0.001282002 -0.05256208 -0.010256016 -0.0666641 -0.070510104 -0.011538018 -0.060254093 -0.035896055 -0.042306066 -0.07435612 0.048716076 0.001282002
000090 01 cf 05 03 d6 ed e4 d2 d4 2f fc d5 c8 f0 1f 2a
       0.001282002 -0.062818095 0.0064100097 0.003846006 -0.053844083 -0.024358038 -0.035896055 -0.05897209 -0.056408085 0.060254093 -0.005128008 -0.055126086 -0.07179211 -0.020512031 0.03974206 0.053844083
0000a0 0d c9 00 c1 ff cb ef d8 f3 cf f9 1d 20 d7 d3 bb
       0.016666025 -0.070510104 0.0 -0.08076613 -0.001282002 -0.067946106 -0.021794034 -0.051280078 -0.016666025 -0.062818095 -0.008974014 0.03717806 0.041024063 -0.05256208 -0.057690088 -0.088458136
0000b0 01 fe d1 ee 14 da 23 cb 3c dd ed 05 c8 cf 21 05
       0.001282002 -0.002564004 -0.060254093 -0.023076035 0.025640039 -0.048716076 0.044870067 -0.067946106 0.076920114 -0.044870067 -0.024358038 0.0064100097 -0.07179211 -0.062818095 0.042306066 0.0064100097
0000c0 d9 00 f9 f4 cc dd 16 f3 17 1d 12 e1 ea d9 ca 1e
       -0.049998075 0.0 -0.008974014 -0.015384024 -0.0666641 -0.044870067 0.028204042 -0.016666025 0.029486045 0.03717806 0.023076035 -0.03974206 -0.028204042 -0.049998075 -0.069228105 0.038460057
0000d0 ff dd b3 dd ec d5 cb 28 c9 d6 08 ce fe fb cb d8
       -0.001282002 -0.044870067 -0.09871415 -0.044870067 -0.025640039 -0.055126086 -0.067946106 0.051280078 -0.070510104 -0.053844083 0.010256016 -0.0641001 -0.002564004 -0.0064100097 -0.067946106 -0.051280078
0000e0 18 bf d2 fa c3 32 d1 c6 2e cc ca cf cd f4 0d 23
       0.030768048 -0.083330125 -0.05897209 -0.007692012 -0.07820212 0.0641001 -0.060254093 -0.07435612 0.05897209 -0.0666641 -0.069228105 -0.062818095 -0.0653821 -0.015384024 0.016666025 0.044870067
0000f0 20 f7 cf 09 af 0b cf 09 dc ca 30 d3 d1 da d4 c9
       0.041024063 -0.011538018 -0.062818095 0.011538018 -0.10384216 0.014102021 -0.062818095 0.011538018 -0.04615207 -0.069228105 0.061536096 -0.057690088 -0.060254093 -0.048716076 -0.056408085 -0.070510104

tfl.pseudo_qconst5 i1 [128, 256] scale=0.00048060558 zero_point=0
000000 e8 00 0c 13 fa 1f f4 07 f4 fe 0b 12 22 12 e2 0d
       -0.011534534 0.0 0.005767267 0.009131506 -0.0028836336 0.014898773 -0.005767267 0.0033642391 -0.005767267 -0.00096121116 0.0052866614 0.008650901 0.01634059 0.008650901 -0.014418167 0.0062478725
000010 1e fd fd 01 22 03 fc 04 fd fd fd 03 05 07 f7 04
       0.014418167 -0.0014418168 -0.0014418168 0.00048060558 0.01634059 0.0014418168 -0.0019224223 0.0019224223 -0.0014418168 -0.0014418168 -0.0014418168 0.0014418168 0.0024030278 0.0033642391 -0.0043254504 0.0019224223
000020 f6 f4 22 f8 0e e8 e4 f1 ee fa 0f e1 00 e4 08 f6
       -0.0048060557 -0.005767267 0.01634059 -0.0038448446 0.0067284782 -0.011534534 -0.0134569565 -0.0072090835 -0.008650901 -0.0028836336 0.0072090835 -0.014898773 0.0 -0.0134569565 0.0038448446 -0.0048060557
000030 1c d6 09 0b 0e fd ff f6 f1 f3 16 f0 ea 2e 1b 01
       0.0134569565 -0.020185435 0.0043254504 0.0052866614 0.0067284782 -0.0014418168 -0.00048060558 -0.0048060557 -0.0072090835 -0.0062478725 0.010573323 -0.0076896893 -0.010573323 0.022107856 0.01297635 0.00048060558
000040 fb 06 ff e8 0e fd 02 03 0f f9 04 fb 2b f0 ff fe
       -0.0024030278 0.0028836336 -0.00048060558 -0.011534534 0.0067284782 -0.0014418168 0.00096121116 0.0014418168 0.0072090835 -0.0033642391 0.0019224223 -0.0024030278 0.02066604 -0.0076896893 -0.00048060558 -0.00096121116
000050 ff 09 fe 12 f0 f8 ef f9 f6 fd 04 fc f7 ff 08 e9
       -0.00048060558 0.0043254504 -0.00096121116 0.008650901 -0.0076896893 -0.0038448446 -0.008170295 -0.0033642391 -0.0048060557 -0.0014418168 0.0019224223 -0.0019224223 -0.0043254504 -0.00048060558 0.0038448446 -0.011053928
000060 f5 fc 0d fb 00 19 04 fd 0b f7 fe fb fe 11 0b fd
       -0.0052866614 -0.0019224223 0.0062478725 -0.0024030278 0.0 0.01201514 0.0019224223 -0.0014418168 0.0052866614 -0.0043254504 -0.00096121116 -0.0024030278 -0.00096121116 0.008170295 0.0052866614 -0.0014418168
000070 ff f6 fa f6 09 06 0b fb 00 0d 05 06 f5 02 fa 0d
       -0.00048060558 -0.0048060557 -0.0028836336 -0.0048060557 0.0043254504 0.0028836336 0.0052866614 -0.0024030278 0.0 0.0062478725 0.0024030278 0.0028836336 -0.0052866614 0.00096121116 -0.0028836336 0.0062478725
000080 f6 f7 ef f4 01 e9 ff 06 09 f0 ed e0 17 e7 11 01
       -0.0048060557 -0.0043254504 -0.008170295 -0.005767267 0.00048060558 -0.011053928 -0.00048060558 0.0028836336 0.0043254504 -0.0076896893 -0.009131506 -0.015379379 0.011053928 -0.01201514 0.008170295 0.00048060558
000090 05 06 e7 f9 f4 f6 fb 0d 02 10 02 e1 f3 ed f1 0c
       0.0024030278 0.0028836336 -0.01201514 -0.0033642391 -0.005767267 -0.0048060557 -0.0024030278 0.0062478725 0.00096121116 0.0076896893 0.00096121116 -0.014898773 -0.0062478725 -0.009131506 -0.0072090835 0.005767267
0000a0 08 0a fe 0d 00 15 17 09 fb e6 e7 f7 10 08 eb 04
       0.0038448446 0.0048060557 -0.00096121116 0.0062478725 0.0 0.010092718 0.011053928 0.0043254504 -0.0024030278 -0.012495745 -0.01201514 -0.0043254504 0.0076896893 0.0038448446 -0.010092718 0.0019224223
0000b0 fb 00 e9 f8 01 1a 03 0b f5 fd d8 f5 15 f4 08 f6
       -0.0024030278 0.0 -0.011053928 -0.0038448446 0.00048060558 0.012495745 0.0014418168 0.0052866614 -0.0052866614 -0.0014418168 -0.019224223 -0.0052866614 0.010092718 -0.005767267 0.0038448446 -0.0048060557
0000c0 ff fd 0d fa 09 f8 0a 06 01 05 f1 fc fd 02 00 fe
       -0.00048060558 -0.0014418168 0.0062478725 -0.0028836336 0.0043254504 -0.0038448446 0.0048060557 0.0028836336 0.00048060558 0.0024030278 -0.0072090835 -0.0019224223 -0.0014418168 0.00096121116 0.0 -0.00096121116
0000d0 03 f6 0a 0d 10 f8 0a 0f 07 fe 0c f8 07 ef fe f4
       0.0014418168 -0.0048060557 0.0048060557 0.0062478725 0.0076896893 -0.0038448446 0.0048060557 0.0072090835 0.0033642391 -0.00096121116 0.005767267 -0.0038448446 0.0033642391 -0.008170295 -0.00096121116 -0.005767267
0000e0 f8 ff 0b f8 0a f3 0f f9 0e 00 0e fd fe fc 0c fd
       -0.0038448446 -0.00048060558 0.0052866614 -0.0038448446 0.0048060557 -0.0062478725 0.0072090835 -0.0033642391 0.0067284782 0.0 0.0067284782 -0.0014418168 -0.00096121116 -0.0019224223 0.005767267 -0.0014418168
0000f0 07 fc dc 05 f9 fe fc f1 ed 00 0e fd ee fc 10 09
       0.0033642391 -0.0019224223 -0.017301802 0.0024030278 -0.0033642391 -0.00096121116 -0.0019224223 -0.0072090835 -0.009131506 0.0 0.0067284782 -0.0014418168 -0.008650901 -0.0019224223 0.0076896893 0.0043254504

tfl.pseudo_qconst7 i1 [64, 3, 3, 64]
000000 fe ff e0 1b c6 e0 31 05 d5 ee 08 fb ec fe d9 13
       -2 -1 -32 27 -58 -32 49 5 -43 -18 8 -5 -20 -2 -39 19
000010 f7 29 49 d2 fe e9 00 f4 26 1e d9 2c d3 ce ee 0e
       -9 41 73 -46 -2 -23 0 -12 38 30 -39 44 -45 -50 -18 14
000020 f2 c8 0d e7 bf 0c 0e 21 15 04 01 fa f0 f2 ed 03
       -14 -56 13 -25 -65 12 14 33 21 4 1 -6 -16 -14 -19 3
000030 05 f1 f7 06 f6 f2 d8 41 ec 04 1f 0b ff 37 d5 e3
       5 -15 -9 6 -10 -14 -40 65 -20 4 31 11 -1 55 -43 -29
000040 f3 04 04 f0 fb 20 e2 f8 05 2d 12 d1 fd fc ee fc
       -13 4 4 -16 -5 32 -30 -8 5 45 18 -47 -3 -4 -18 -4
000050 e3 1a f1 e8 99 46 d5 05 ea f9 02 fb fe c5 f3 18
       -29 26 -15 -24 -103 70 -43 5 -22 -7 2 -5 -2 -59 -13 24
000060 b6 18 cc 05 c8 db fe d5 0e 26 cd 08 d8 bb ad 38
       -74 24 -52 5 -56 -37 -2 -43 14 38 -51 8 -40 -69 -83 56
000070 30 10 01 04 e0 00 21 bd 21 da 02 02 c7 12 cf d5
       48 16 1 4 -32 0 33 -67 33 -38 2 2 -57 18 -49 -43
000080 c1 f3 dd 2f b6 0f 2c bf fb f9 0c ef fd 81 bc ff
       -63 -13 -35 47 -74 15 44 -65 -5 -7 12 -17 -3 -127 -68 -1
000090 e0 2f 16 cc 27 c4 0d db e3 10 01 25 05 f8 19 39
       -32 47 22 -52 39 -60 13 -37 -29 16 1 37 5 -8 25 57
0000a0 c8 e1 21 dd d6 15 f4 35 13 15 c9 a6 f0 fb 18 e6
       -56 -31 33 -35 -42 21 -12 53 19 21 -55 -90 -16 -5 24 -26
0000b0 02 e2 de e3 ed ee 28 14 07 cd 3e d3 eb 26 f0 06
       2 -30 -34 -29 -19 -18 40 20 7 -51 62 -45 -21 38 -16 6
0000c0 f5 0f 14 e1 d9 f4 ef d5 f8 fd f4 21 e7 d5 07 20
       -11 15 20 -31 -39 -12 -17 -43 -8 -3 -12 33 -25 -43 7 32
0000d0 69 d4 e3 0a 02 f8 e9 fb fb 06 10 c3 04 18 2c f5
       105 -44 -29 10 2 -8 -23 -5 -5 6 16 -61 4 24 44 -11
0000e0 11 11 fd 01 07 f6 1c 0c f5 df 14 dd 4a 5e 1e d3
       17 17 -3 1 7 -10 28 12 -11 -33 20 -35 74 94 30 -45
0000f0 fe e1 d8 44 0d ec f2 2e ef fb e8 3d 08 ef 39 06
       -2 -31 -40 68 13 -20 -14 46 -17 -5 -24 61 8 -17 57 6

tfl.pseudo_qconst8 i1 [64] scale=0.005293015 zero_point=127
000000 41 1b 2f 02 14 1b 46 27 27 14 ac 44 62 f2 00 22
       -0.32816693 -0.52930146 -0.4234412 -0.6616269 -0.5663526 -0.52930146 -0.30170184 -0.46578532 -0.46578532 -0.5663526 -1.1168262 -0.31228787 -0.15349743 -0.7463151 -0.6722129 -0.49225038
000010 fd 38 3b 44 52 ee 05 45 80 12 48 22 2e 33 10 50
       -0.68809193 -0.37580407 -0.359925 -0.31228787 -0.23818567 -0.76748717 -0.64574784 -0.30699486 -1.3497188 -0.5769386 -0.29111582 -0.49225038 -0.4287342 -0.40226912 -0.58752465 -0.2487717
000020 30 1d 3b 4b 39 de ef 61 fd f1 2a ef 28 29 fb 4e
       -0.4181482 -0.51871544 -0.359925 -0.2752368 -0.37051105 -0.8521754 -0.76219416 -0.15879045 -0.68809193 -0.75160813 -0.44990626 -0.76219416 -0.4604923 -0.45519927 -0.69867796 -0.25935772
000030 40 16 53 46 30 f6 d9 19 33 2a 31 b2 3f 44 1a f9
       -0.33345994 -0.5557666 -0.23289266 -0.30170184 -0.4181482 -0.725143 -0.8786405 -0.53988755 -0.40226912 -0.44990626 -0.41285518 -1.0850681 -0.33875296 -0.31228787 -0.53459454 -0.709264

tfl.pseudo_qconst9 i1 [64] scale=0.0027035673 zero_point=-128
000000 7f 59 34 1c 26 48 70 0e 28 21 04 29 44 30 03 6c
       0.6894097 0.5866741 0.48664212 0.4217565 0.44879216 0.5407134 0.64885616 0.38390654 0.4541993 0.43527433 0.3568709 0.45690286 0.5298992 0.47582784 0.3541673 0.63804185
000010 30 4d 2e 05 00 45 26 b7 f7 30 74 63 21 4a 75 79
       0.47582784 0.5542313 0.47042072 0.35957444 0.3460566 0.5326027 0.44879216 0.1486962 0.3217245 0.47582784 0.6596704 0.61370975 0.43527433 0.5461206 0.66237396 0.67318827
000020 13 1d 7b 19 05 0e 1e 16 bb 20 31 fa ee 00 3c 50
       0.3974244 0.42446005 0.67859536 0.4136458 0.35957444 0.38390654 0.42716363 0.4055351 0.15951046 0.43257076 0.47853142 0.3298352 0.2973924 0.3460566 0.5082706 0.562342
000030 4f 69 3b 08 46 e5 42 de fd f7 0b 26 37 3d 0d 78
       0.55963844 0.62993115 0.5055671 0.36768514 0.53530633 0.2730603 0.524492 0.2541353 0.3379459 0.3217245 0.37579584 0.44879216 0.49475282 0.5109742 0.381203 0.67048466

tfl.pseudo_qconst11 i1 [64, 3, 3, 32]
000000 ea 08 06 00 ff eb c1 12 fb dc ea c8 13 e4 c6 13
       -22 8 6 0 -1 -21 -63 18 -5 -36 -22 -56 19 -28 -58 19
000010 f8 f3 f0 ea 13 dc 04 e1 ea 0c 28 0e e9 31 e1 fa
       -8 -13 -16 -22 19 -36 4 -31 -22 12 40 14 -23 49 -31 -6
000020 01 f4 e1 04 c5 03 03 fe 27 14 e7 ec db ca be 20
       1 -12 -31 4 -59 3 3 -2 39 20 -25 -20 -37 -54 -66 32
000030 01 f5 fb 02 4a d3 cc b8 e6 d8 f0 df 0b ff 06 e4
       1 -11 -5 2 74 -45 -52 -72 -26 -40 -16 -33 11 -1 6 -28
000040 d4 e6 d3 1e 0a 08 d9 d8 dd ad d2 be b5 ec ff cd
       -44 -26 -45 30 10 8 -39 -40 -35 -83 -46 -66 -75 -20 -1 -51
000050 09 e2 a3 e8 b2 f2 d4 31 2b 8e d3 bd 94 0d 05 b9
       9 -30 -93 -24 -78 -14 -44 49 43 -114 -45 -67 -108 13 5 -71
000060 d8 ad e5 1d b9 d5 a8 d9 41 cb f1 c8 e4 ce c5 12
       -40 -83 -27 29 -71 -43 -88 -39 65 -53 -15 -56 -28 -50 -59 18
000070 2b 1b 0e ea 00 ec c6 00 13 28 01 0c e4 db e7 e3
       43 27 14 -22 0 -20 -58 0 19 40 1 12 -28 -37 -25 -29
000080 08 df e8 0e c4 ac 07 ce 2c f3 f3 fe fa c3 c1 7d
       8 -33 -24 14 -60 -84 7 -50 44 -13 -13 -2 -6 -61 -63 125
000090 03 1b 21 06 17 34 a8 f8 07 3d c5 ef 28 03 09 f2
       3 27 33 6 23 52 -88 -8 7 61 -59 -17 40 3 9 -14
0000a0 1f 0f df 41 df 23 e6 b6 16 ea ee 09 d8 f0 f1 0a
       31 15 -33 65 -33 35 -26 -74 22 -22 -18 9 -40 -16 -15 10
0000b0 14 e3 d8 18 db 1e c8 21 55 c8 c5 b5 eb fb 2b 1c
       20 -29 -40 24 -37 30 -56 33 85 -56 -59 -75 -21 -5 43 28
0000c0 cc c3 f4 e3 03 05 da b4 ee f1 2a 31 f1 d0 a9 db
       -52 -61 -12 -29 3 5 -38 -76 -18 -15 42 49 -15 -48 -87 -37
0000d0 01 34 d4 cb c4 03 ed fb 02 de 16 10 e3 d0 ec 81
       1 52 -44 -53 -60 3 -19 -5 2 -34 22 16 -29 -48 -20 -127
0000e0 07 f3 21 12 fc f0 47 0c fb e5 e5 ff 44 c0 c1 f5
       7 -13 33 18 -4 -16 71 12 -5 -27 -27 -1 68 -64 -63 -11
0000f0 e4 10 16 d6 f5 fd 0a 26 26 45 e1 fb 22 e7 c7 c5
       -28 16 22 -42 -11 -3 10 38 38 69 -31 -5 34 -25 -57 -59

tfl.pseudo_qconst12 i1 [32] scale=0.005533572 zero_point=101
000000 1c 5e 17 f6 05 2c 19 12 b4 c6 d6 ee eb d1 25 b7
       -0.40395075 -0.038735002 -0.4316186 -0.61422646 -0.5312229 -0.3154136 -0.42055145 -0.45928645 -0.97944224 -0.87983793 -0.7913008 -0.65849507 -0.67509574 -0.81896865 -0.3541486 -0.9628415
000010 03 15 ff ba d5 eb 7f 37 0e 12 01 39 31 56 80 a7
       -0.54229003 -0.44268575 -0.56442434 -0.9462408 -0.79683435 -0.67509574 0.14387287 -0.25454432 -0.48142076 -0.45928645 -0.5533572 -0.24347717 -0.28774574 -0.08300358 -1.267188 -1.0513786

tfl.pseudo_qconst13 i1 [32] scale=0.0023656932 zero_point=-128
000000 3f dc 72 33 57 25 6e 1c 4a 1a 5b 33 6f 4f 66 79
       0.4518474 0.21764378 0.5724978 0.42345908 0.508624 0.39033937 0.563035 0.36904815 0.47787002 0.36431676 0.5180868 0.42345908 0.56540066 0.4896985 0.54410946 0.5890576
000010 07 12 59 43 77 24 09 62 44 7f 47 d8 64 cb 54 38
       0.31936857 0.3453912 0.51335543 0.46131018 0.5843262 0.3879737 0.32409996 0.5346467 0.46367586 0.60325176 0.47077295 0.20818101 0.53937805 0.177427 0.50152695 0.43528756

tfl.pseudo_qconst15 i1 [32, 3, 3, 16]
000000 ff f5 1b f5 00 e8 e0 2d f0 e9 f0 14 10 e8 f0 e0
       -1 -11 27 -11 0 -24 -32 45 -16 -23 -16 20 16 -24 -16 -32
000010 f1 07 0e e6 31 be 06 f0 e9 c5 fd 0b 0e 14 1f 31
       -15 7 14 -26 49 -66 6 -16 -23 -59 -3 11 14 20 31 49
000020 0c 0c 05 d3 13 fc 1a d6 1a 07 dc c5 cc 07 24 d9
       12 12 5 -45 19 -4 26 -42 26 7 -36 -59 -52 7 36 -39
000030 b7 ef dd d0 e7 fc e0 14 cd 12 f7 1d e8 90 0b c4
       -73 -17 -35 -48 -25 -4 -32 20 -51 18 -9 29 -24 -112 11 -60
000040 fb 2c e1 e5 de 14 15 44 14 fc 37 21 0b 59 ec 25
       -5 44 -31 -27 -34 20 21 68 20 -4 55 33 11 89 -20 37
000050 2d ee 30 1a 2f ea 04 b8 46 ee 15 db 26 7f 07 6a
       45 -18 48 26 47 -22 4 -72 70 -18 21 -37 38 127 7 106
000060 12 f1 f6 c4 11 15 d5 de f7 fb eb 15 ca dd fe c7
       18 -15 -10 -60 17 21 -43 -34 -9 -5 -21 21 -54 -35 -2 -57
000070 fb 00 f4 ff c9 11 10 1d 1b 3c df 08 18 f7 0c ba
       -5 0 -12 -1 -55 17 16 29 27 60 -33 8 24 -9 12 -70
000080 09 16 1f 13 f9 07 f9 dc f6 f6 26 0a 24 0d 02 32
       9 22 31 19 -7 7 -7 -36 -10 -10 38 10 36 13 2 50
000090 f7 28 0f 02 f7 13 dd ee 11 0c ba 1e d3 af 0f d4
       -9 40 15 2 -9 19 -35 -18 17 12 -70 30 -45 -81 15 -44
0000a0 ed 19 02 d7 0f 55 a4 f3 f7 23 52 d6 c7 e6 f8 18
       -19 25 2 -41 15 85 -92 -13 -9 35 82 -42 -57 -26 -8 24
0000b0 07 02 ea 16 df 2e d2 fc 40 be 5d 1f f5 23 17 14
       7 2 -22 22 -33 46 -46 -4 64 -66 93 31 -11 35 23 20
0000c0 f9 e2 db 26 fe e7 f7 04 ea fe 1b 19 1d 13 fb 27
       -7 -30 -37 38 -2 -25 -9 4 -22 -2 27 25 29 19 -5 39
0000d0 de 2e 12 d6 15 09 0a f5 11 1d 0c 01 d9 0d 2d 09
       -34 46 18 -42 21 9 10 -11 17 29 12 1 -39 13 45 9
0000e0 f5 06 08 f6 e6 35 bd 0c ca 14 fd 22 f4 a4 3b f1
       -11 6 8 -10 -26 53 -67 12 -54 20 -3 34 -12 -92 59 -15
0000f0 02 f2 08 21 ea ac 12 1c 26 e0 fc 22 20 5c f7 18
       2 -14 8 33 -22 -84 18 28 38 -32 -4 34 32 92 -9 24

tfl.pseudo_qconst16 i1 [16] scale=0.010520199 zero_point=127
000000 57 e9 27 63 92 80 0e b9 df 87 1c 59 2e f9 66 a1
       -0.42080796 -1.5780299 -0.92577755 -0.2945656 -2.4932873 -2.6826508 -1.1887826 -2.0829995 -1.6832318 -2.6090095 -1.0414997 -0.39976758 -0.85213614 -1.4097067 -0.263005 -2.3354843

tfl.pseudo_qconst17 i1 [16] scale=0.019786082 zero_point=-128
000000 ba cf b6 ee ee 7f 11 4d fe 21 05 c2 cc 16 94 4f
       1.1475928 1.5631005 1.0684484 2.176469 2.176469 5.045451 2.8689818 4.0561466 2.4930463 3.1855593 2.631549 1.3058814 1.5037422 2.9679124 0.39572164 4.095719

tfl.pseudo_qconst19 i1 [16, 3, 3, 3]
000000 59 1a e1 72 40 00 2c 71 02 b5 2e e9 c3 12 c5 b3
       89 26 -31 114 64 0 44 113 2 -75 46 -23 -61 18 -59 -77
000010 61 e3 b1 dd f5 d5 e4 24 81 f1 fc d6 18 43 bd 10
       97 -29 -79 -35 -11 -43 -28 36 -127 -15 -4 -42 24 67 -67 16
000020 51 ee 3b fb 07 0d 3c bd 3d 01 f6 fd 11 ea 34 01
       81 -18 59 -5 7 13 60 -67 61 1 -10 -3 17 -22 52 1
000030 4e 10 23 e7 89 81 e4 37 3e 07 49 ea dc 3c 0d b1
       78 16 35 -25 -119 -127 -28 55 62 7 73 -22 -36 60 13 -79
000040 1d 30 81 35 d4 cf de f5 cd ee 0d d0 ed 08 0a 32
       29 48 -127 53 -44 -49 -34 -11 -51 -18 13 -48 -19 8 10 50
000050 03 30 36 db e3 65 02 71 7f 51 e4 0c d6 e7 c3 9a
       3 48 54 -37 -29 101 2 113 127 81 -28 12 -42 -25 -61 -102
000060 17 09 de f7 d1 cf 2d 96 d5 54 aa a6 cd a8 a8 ac
       23 9 -34 -9 -47 -49 45 -106 -43 84 -86 -90 -51 -88 -88 -84
000070 19 4b 34 f8 12 09 56 29 cf 5c 5b f7 67 26 81 1f
       25 75 52 -8 18 9 86 41 -49 92 91 -9 103 38 -127 31
000080 07 85 68 cb e3 00 14 2c b5 f5 2e 93 d4 5d ce df
       7 -123 104 -53 -29 0 20 44 -75 -11 46 -109 -44 93 -50 -33
000090 ee 2c 30 e4 12 ab 5c 0e a6 97 37 7f bd 3e 44 bb
       -18 44 48 -28 18 -85 92 14 -90 -105 55 127 -67 62 68 -69
0000a0 28 1d 5a 01 f6 05 ed 22 81 41 32 2a fe ee 17 1a
       40 29 90 1 -10 5 -19 34 -127 65 50 42 -2 -18 23 26
0000b0 1a ba 38 fd 12 c1 fe 1f b7 f8 f4 05 d8 89 2f 39
       26 -70 56 -3 18 -63 -2 31 -73 -8 -12 5 -40 -119 47 57
0000c0 d5 07 02 ee ff 13 1d 7f 41 3e ed a6 3a b2 b0 b3
       -43 7 2 -18 -1 19 29 127 65 62 -19 -90 58 -78 -80 -77
0000d0 16 3d 63 99 e8 3e c0 ce d5 5a 29 b2 44 69 70 06
       22 61 99 -103 -24 62 -64 -50 -43 90 41 -78 68 105 112 6
0000e0 15 ab fb 64 34 63 33 0b d6 b4 29 34 b7 b1 ca 96
       21 -85 -5 100 52 99 51 11 -42 -76 41 52 -73 -79 -54 -106
0000f0 f7 81 d4 c3 4c 11 0a d5 e0 db 8b ac a0 7f 75 ba
       -9 -127 -44 -61 76 17 10 -43 -32 -37 -117 -84 -96 127 117 -70
