models/ana-cont/ana-cont_1700_s1.tflite (tflite, 415472 bytes, 22 tensors)

arith.constant f4 [64]
00000000: 5a92 80be 015c a3be 7d9c 11be a8ec a4be
00000010: d479 5fbe 5c3b 12be dc96 12be a3e7 b8be
00000020: a099 7ebe 6aac f1bd 3dd1 25be e8df 10bd
00000030: c3ab 8bbd 6dc5 cebd dd00 0abe b5e2 7bbd
00000040: 5883 433d f14a 42be c868 b8bd bf27 23be
00000050: 50ff 7cbe 631c c6be 2ada 03be 6c9b afbe
00000060: b79b aebe bede 6fbe 5813 69be 80b0 eebd
00000070: 4fcb a6be 5d78 a6bd 3774 97be 2faa 31be
00000080: 9a9b c4be b185 bebd 820b d4bd a237 35be
00000090: 9024 3fbe 056e 55be da19 0fbe c239 4cbe
000000a0: 81ee 42be 1c08 96bd db7d 92be cfea eebe
000000b0: 6767 15be a364 87be 935e 81be 97e3 2ebe
000000c0: 4d91 4ebd 3dc7 d4bd 2126 b2bd 8b3e cabe
000000d0: 2020 5dbe 4114 d1be 6d3d aabe b4a1 adbe
000000e0: b73c 74be 27ef 9bbd a83c bbbd dbd1 2cbc
000000f0: 6541 82be 6eee b2be b5f5 45be 5e93 30bd
-0.25111657 -0.3190613 -0.14219852 -0.32211804 -0.21823817 -0.14280456 -0.14315361 -0.36114225
-0.24863291 -0.118004635 -0.161931 -0.035369784 -0.0681987 -0.1009625 -0.13476892 -0.0614955
0.04773268 -0.189739 -0.090043604 -0.1593313 -0.24706769 -0.38693532 -0.12876192 -0.34298265
-0.34103176 -0.23424813 -0.22761285 -0.116547585 -0.32576987 -0.08128426 -0.29580852 -0.17350076
-0.38399965 -0.09302843 -0.103537574 -0.17697003 -0.18666291 -0.2084275 -0.13974705 -0.19943908
-0.19036295 -0.073257655 -0.28611645 -0.4666352 -0.14590226 -0.26443967 -0.25267467 -0.17079006
-0.05043154 -0.10389564 -0.08698679 -0.39500841 -0.21594286 -0.40835765 -0.3324999 -0.33912432
-0.23851286 -0.07613974 -0.09142429 -0.01054808 -0.25440517 -0.34947532 -0.19332011 -0.04310929

arith.constant1 f4 [64]
00000000: b51c 54bd e135 babd 33d5 68be 2862 6fbe
00000010: 8a35 fdb9 8d90 0abd 2734 76be 8d90 71be
00000020: 0b46 c73c c0bf 4fbe 2597 1bbe 3b9e 95be
00000030: cc65 e7bd dc90 a6be 99ee 85be 21ad 63be
00000040: d185 96be c9f6 57be b9a3 80be 9865 04bf
00000050: 6387 093d 3466 9fbe a435 09be e16e b0be
00000060: 4317 78be 2d31 b9be bea0 96be d72a 28be
00000070: 12d5 a1bd ac18 82be 4be1 bc3c 1cc4 45be
00000080: 2e80 d4bc 206c acbd 259b bebe 951d 94be
00000090: 8198 d5be 4c37 e7be a58b 98bd 7a0e 81be
000000a0: bd0d 10be 35a9 81be 61d8 13be 32e1 96be
000000b0: e72c a0be d363 56be d299 2bbe 4a0f dbbc
000000c0: fe4d a8bd 8075 2fbe 4afd 4cbe 75c1 26be
000000d0: 0e6c 90be 201c a2be 474c a2bc c0e7 45be
000000e0: 9fe8 d9be 3090 68be 5d92 e4be 3529 53be
000000f0: 1c80 aebe 053f c7be 2d24 4ebd fa5d 6dbd
-0.05178519 -0.09092308 -0.22737579 -0.23377287 -0.0004829581 -0.03382926 -0.24043332 -0.23590298
0.024325391 -0.2028799 -0.15194376 -0.29222283 -0.11298713 -0.32532394 -0.26158598 -0.22234012
-0.2939897 -0.21090235 -0.2512491 -0.5171752 0.03357638 -0.31132662 -0.13399369 -0.34459594
-0.24227624 -0.3617033 -0.29419512 -0.16422592 -0.07901968 -0.25409448 0.023056647 -0.19313091
-0.025940027 -0.08419061 -0.3722774 -0.2892882 -0.41717914 -0.45159376 -0.0744851 -0.25206357
-0.1406774 -0.25324407 -0.14438011 -0.29468685 -0.31284258 -0.20936517 -0.16757897 -0.026740689
-0.08218001 -0.17134666 -0.20018497 -0.16284736 -0.2820744 -0.31662083 -0.019811762 -0.19326687
-0.42560288 -0.22711253 -0.44642916 -0.20621188 -0.34082115 -0.38915268 -0.05032747 -0.05795095

arith.constant2 f4 [32]
00000000: 35bd 9f3d 114f 7dbe b37d 1ebd e7f9 623d
00000010: aff1 74be ba0c 76bd 776c 48bb e4ab c9be
00000020: a2e2 0f3e f337 a33d 8c42 8cbe 2e03 03be
00000030: 8ecc c7bd 29ef 07be 0300 9bbe e810 a0be
00000040: d2da df3d 3898 5a3d c3a5 38be fb56 22be
00000050: d0aa 923d c4c4 09be 8cf5 1ebe 642f 0b3e
00000060: 42ee 01bf 38f5 e5be 9ba8 9e3d 9975 d5be
00000070: 73ce 83be febd 7d3e bcde 9abb 15ef d0bc
0.0779976 -0.24737193 -0.038694095 0.055414107 -0.2392032 -0.06007073 -0.0030582228 -0.39388955
0.14051297 0.07969656 -0.2739452 -0.12794182 -0.097558126 -0.13274826 -0.30273446 -0.31262898
0.109304085 0.053367823 -0.18031983 -0.15853493 0.07161486 -0.13453966 -0.15523356 0.13592297
-0.5075418 -0.4491365 0.07747003 -0.41691282 -0.25743446 0.24779508 -0.004726259 -0.025504628

arith.constant3 f4 [16]
00000000: 0cd5 04bc 1ece 6a3e 2a4a ffbc a447 ae3c
00000010: 16d9 8e3e 4641 213d c733 5f3e 0642 9c3e
00000020: de18 ab3e 496e 123d bb5b 68be 69e0 ac3e
00000030: cfb8 053e 1d5b 973e 88d7 89bd c021 f3bd
-0.008107435 0.2293019 -0.031163294 0.021274395 0.27899998 0.03936889 0.21797095 0.30519122
0.3341741 0.035749707 -0.22691242 0.3376496 0.1305878 0.295617 -0.067305624 -0.11871672

arith.constant4 f4 [128, 256]
00000000: 1672 8d3c 524a 273b 20e2 913b 3915 c4bb
00000010: 7c22 0aba dff7 aabb c150 aaba aecf e8bb
00000020: 7f2a 21bc 85b7 4abb a4e7 adbc 2370 a33b
00000030: 9578 173c 0486 ea3b 4fa1 67bb 6395 9c3b
00000040: 6baf d63b d5aa 823b e1f8 e43b 325c 96bc
00000050: 90dc 443b 7204 9b3b f8bc 35bc 155e 7dbb
00000060: adec 06bc ecf8 59bb 52f1 19bb 497a 04bc
00000070: 21f7 073c 434a 833c 3acb 1f3c c728 853a
00000080: 82e7 003a 8e6d b3ba 2901 733a d696 7d3c
00000090: 2b8b 60bb 67d8 90bb bf2c fcba b169 913c
000000a0: 2dda 98bb b783 0c3c e441 90ba a791 923c
000000b0: bf48 feba d5f8 b9ba 5593 5d3a 93a1 59bc
000000c0: 8b7c a63b 0d8b c13a db40 0f3c 4720 4bba
000000d0: 9281 4a39 c754 ddbb 5162 d9bc 2b45 07bb
000000e0: 0aa1 8238 7bdc 03bc 174c 3cbc ff84 1b3c
000000f0: 4b93 cfbb a9b2 c23b 8c35 82bb d692 303b
00000100: 1ceb 453b 793a a3bb ec9c 293c af2a dfb9
00000110: 607e 1ebc 695b 123b 0297 c7bb 871d f3bc
00000120: 42e3 1f3b 5e58 bfba 7afa 64bb 11d1 34bb
00000130: afe4 99bc d6c8 9c3b 10de a3bc e742 9b3a
00000140: 4071 993b 30f0 c0bb 9dd0 5ebc 7a7d a5ba
00000150: 47da bdbb 9096 c4ba 3fae f43b 1c19 a1bb
00000160: 4377 d13a 5d54 8cbb de57 48bc 890b 2b3c
00000170: df65 36bb 2a9d 1ebc 4a17 90bc e3fc 9bb7
00000180: 2af0 14bc 31d7 5c3b 97e7 74bb c800 e13c
00000190: 5ea3 34bc fe67 aabc 9aac 953a 01a0 ae3b
000001a0: 594c 483b 2ccf 42bc 1d41 dbba f60f 23bb
000001b0: efed 3f3c b994 893c bcc9 84bb 5315 8f3a
000001c0: 8174 30ba 4f6f a0bb 16d2 2fbb 2efc b8bc
000001d0: ca08 d33b a9ff 0c3c b52e 7ebc 6fe5 9bbc
000001e0: 900d 303c af20 43bb 4f98 9b3b f2da 6f3c
000001f0: 72d5 903b c097 ae3a 1207 e03b 8441 3dbc
00000200: 462f 123b 3bb1 6cbc 305b f83b ec75 afba
00000210: 054a 8abb f9a7 2c3c 7fa7 8cbb 79fe 25bb
00000220: 0263 81bc f4f7 14bb 1622 da3b ae14 d2ba
00000230: e5d7 f6ba 6e81 4ebb 8515 103b e904 083b
00000240: f9ca 953c d490 a63c 7870 e03c cd2b 283a
00000250: 540f 01bc 2bc2 033b e518 f3bb 2f9c 91ba
00000260: 5379 c5bc 50f4 8fbb 7356 2b3a 65a4 33bb
00000270: 1462 ecba 8eb2 88bb cbde bd3b c352 2cbc
00000280: 7ca7 eb3b 3eca 6a3c fe4f fa3a 077b 1fbb
00000290: 78ce 9abc 25ab a2bc 3e30 29bb 6d35 dbbb
000002a0: 9917 ccbb 6439 a63a 61a5 c33a e106 4139
000002b0: 05d9 9a3a ab3a 663c a0d5 f4bb 18d5 153c
000002c0: 7ca3 41bb f0cb ffb9 c11f 04bc c85c 0e3a
000002d0: b6bf bf3c 61b9 b93b 5850 7cbc 3388 96bb
000002e0: 30b0 76bb a4ac 04bc ebe1 f4bb 00c2 103b
000002f0: 958e febc 0382 e4b8 c39c 06bc e5bc a6bb
00000300: aafc 863a d277 883b dbfe 12bc 08a1 5fbb
00000310: 11cf f43b fa53 c1bb 3f95 03bc 9319 66bc
00000320: ed8f 1d3c d9f6 2abc 6c83 8fbb dc45 d1ba
00000330: ea1c b5bb a074 b1bc 283b 0b3b c419 8fbb
00000340: d073 0cbc d36c cabb e797 173b 21c8 d73b
00000350: 475f b4b9 6ef4 be3b 0fc7 9ebb 6696 823c
00000360: 81f1 ef3b 0f69 6cba 70cf 033d 1dee 0abb
00000370: 1dac ccbb 5a87 fe3a 0d31 9cbb 5643 123c
00000380: cf0f b33c 2e0d fa3b f344 10ba c308 d73c
00000390: 13ed 51bc 2b91 1139 b79c 84bc 4c8c 8a3c
000003a0: 6453 b4bb c388 93bc 6ed1 c9bb fda9 de3b
000003b0: 4e76 0abb 680f 08bc 0018 1abc e32b bfba
000003c0: ef62 f83b 12b1 943b a346 d73a 4cd0 7e3c
000003d0: b15a e5ba c051 d63a 154f 65bc f856 d9bb
000003e0: f2b5 aaba 9bfb 543c 35f9 80bc 2531 8fbb
000003f0: 8bb0 7bbb 8c09 d33b 2599 963b e19f 183b
0.017266314 0.0025526476 0.004452005 -0.0059839753 -0.0005269421 -0.005217537 -0.0012994037 -0.0071048355
-0.009836792 -0.003093214 -0.021228619 0.004987733 0.009245058 0.007157089 -0.003534395 0.0047785505
0.006551673 0.00398765 0.0069876765 -0.018354509 0.0030038692 0.0047307545 -0.011092417 -0.0038660814
-0.008235139 -0.0033259941 -0.0023489785 -0.008085796 0.008298666 0.016026622 0.009753043 0.0010159247
0.000491731 -0.0013689266 0.0009269887 0.015477857 -0.0034262638 -0.0044203284 -0.001923941 0.017750593
-0.0046646805 0.008576325 -0.0011005965 0.017891718 -0.0019400342 -0.0014188538 0.0008452435 -0.013283151
0.0050807646 0.0014766172 0.00874349 -0.0007748645 0.0001931249 -0.006754491 -0.026536139 -0.0020640593
6.228879e-05 -0.008048172 -0.011492751 0.009492158 -0.0063346974 0.005941708 -0.0039736684 0.002694299
0.003019995 -0.0049813357 0.0103523545 -0.00042565676 -0.009673685 0.0022332317 -0.0060909996 -0.029677166
0.002439693 -0.0014598479 -0.0034939335 -0.0027590434 -0.018785803 0.0047846837 -0.020003349 0.00118455
0.00468269 -0.0058880076 -0.013599542 -0.0012625896 -0.005793843 -0.0014998484 0.007467061 -0.0049163233
0.0015980977 -0.004282518 -0.01222798 0.010439762 -0.0027831716 -0.0096810255 -0.01758923 -1.85952e-05
-0.009090463 0.00336976 -0.0037369484 0.027466193 -0.011025278 -0.02080154 0.0011419237 0.0053291325
0.0030563085 -0.011890214 -0.0016727779 -0.002488134 0.011714443 0.01679455 -0.004052369 0.0010916389
-0.00067312276 -0.0048960815 -0.0026828102 -0.022581186 0.0064402567 0.008605876 -0.0155140655 -0.0190303
0.010745421 -0.002977412 0.004748381 0.014639603 0.004419976 0.0013320372 0.0068367803 -0.011551265
0.002230601 -0.014446552 0.00757923 -0.0013386584 -0.0042202496 0.010538095 -0.004292428 -0.002532868
-0.01579428 -0.00227308 0.0066568954 -0.0016027892 -0.0018832652 -0.0031510252 0.0021985483 0.002075488
0.018285261 0.020332731 0.02739738 0.0006415218 -0.00787719 0.0020104747 -0.007418739 -0.0011109168
-0.024105703 -0.004393138 0.0006536014 -0.002741122 -0.0018034601 -0.004171676 0.0057943813 -0.010517779
0.0071915966 0.014330445 0.0019097326 -0.0024334805 -0.01889728 -0.019856999 -0.0025816108 -0.0066897185
-0.006228399 0.0012681899 0.0014926606 0.00018408477 0.0011813944 0.0140520735 -0.007471755 0.009145044
-0.0029546907 -0.00048789335 -0.008064211 0.00054306956 0.023406845 0.005667851 -0.015400015 -0.004593873
-0.0037641637 -0.008097801 -0.0074732206 0.002208829 -0.031073848 -0.00010896104 -0.008216086 -0.005088436
0.0010298688 0.0041646743 -0.008971895 -0.0034123082 0.0074709733 -0.0058999034 -0.0080311885 -0.014044183
0.009616834 -0.01043483 -0.0043796804 -0.0015966254 -0.0055271285 -0.021662056 0.0021244977 -0.004367085
-0.008572534 -0.0061775236 0.0023131312 0.0065851365 -0.00034403263 0.005827478 -0.004845507 0.015940856
0.0073224907 -0.00090183405 0.03218025 -0.0021199055 -0.0062461034 0.0019419 -0.0047665895 0.008927187
0.021858124 0.0076309657 -0.00055034383 0.026249295 -0.012812871 0.00013882357 -0.016188009 0.016912602
-0.005503105 -0.018009549 -0.006158999 0.0067951665 -0.0021127644 -0.008304454 -0.009405136 -0.0014585223
0.007580153 0.00453771 0.001642425 0.0155525915 -0.0017498342 0.0016351268 -0.013995905 -0.006632682
-0.0013024195 0.012999441 -0.015743831 -0.004369872 -0.0038404788 0.006440347 0.004595893 0.0023288655

arith.constant5 f4 [128]
00000000: c008 963e c4d6 f5bd a985 623f 5864 523f
00000010: 9ec1 f43e ca3d ac3c a9f6 0c3d d6ef 813d
00000020: 2b09 273f 752c b33d 9cdc 6dbe 4b24 de3c
00000030: ddea 1d3f 3a8e 53be 6b75 b63d e2d7 953e
00000040: 1121 26bf 5b7a 3bbe 1cfa 113f 53c4 4ebd
00000050: 4f7a 813e a57e aa3e a025 46be 2633 a63e
00000060: ad21 0bbd cfef b3be c52e d43d 77f1 033d
00000070: 0d1b 2a3f 84e6 913e 8608 a03f 739d 933e
00000080: a3a1 2b3f 49f7 253f 44d0 e5bd 7a8e 21be
00000090: 1867 cebd 169f f5be 8e4d 423f d497 29bf
000000a0: 2af0 103e ae67 98bd e9a0 7fbe af21 d5be
000000b0: 4368 c1bd 9285 1f3e d79e 0d3f 0179 0cbf
000000c0: b54f bebd 931a 663f 5a65 6e3f b8bf 143f
000000d0: 65bf a73f de83 a03d 8989 d53e 2470 843f
000000e0: 2ad9 8a3f 27b9 ecbc 298b 053f e7b4 cebd
000000f0: c918 5b3f 2320 ccbc b669 81be 18f1 0bbe
00000100: 207a c7be 8ecd f93e 4ca3 a0be 0822 203f
00000110: 4dc6 f5bd 3932 023e 9c9c 01bf 3cd3 cabe
00000120: 9559 13bd 4350 0dbf ae61 ddbe cc3d 55bf
00000130: ae69 9c3f 3fd1 073e cf33 f7bd 5c81 1f3f
00000140: 213a 2a3e 421d 193d 49ac f93d 066a d6be
00000150: 698c 33bf d66a cc3f 1b3e 473d 9d31 083f
00000160: 719b 07be 768c c1be b778 43be 3d2b eebd
00000170: 8864 1a3f 134f 693e 294b 2b3f 1d9e 2abe
00000180: bd37 c13e 341f 613e 59b8 473f b198 f53e
00000190: 0bea ecbd a0ee 9e3e fd35 58bd 9daf cc3e
000001a0: 8ad9 73bf 5214 e6bd 51fd 8d3e c3be 263f
000001b0: 5051 a5be bad9 113f f5ae 213d f33a 803e
000001c0: 20a1 403c fcd0 d7bb fdb5 243f 5a06 debe
000001d0: b973 cbbe 5424 663d 97db d7be 2a5f 243e
000001e0: d1e2 17be c3ab ad3e bc00 d63d fa1d 1abf
000001f0: ec5a 823f ddd0 18be e157 f63d 843b 0f3e
0.2930355 -0.12003854 0.884852 0.8218436 0.47803968 0.021025557 0.03441492 0.06344573
0.65248364 0.08748714 -0.23228687 0.027116915 0.616865 -0.20659724 0.089091145 0.29266268
-0.64894205 -0.18308394 0.5702226 -0.050480198 0.25288627 0.33299747 -0.1935029 0.32460898
-0.033967663 -0.35143897 0.10360483 0.0322127 0.66447526 0.28496182 1.2502601 0.28831062
0.67043513 0.6483045 -0.11221364 -0.15777007 -0.10078257 -0.47972935 0.7589959 -0.66247296
0.14154115 -0.0744165 -0.24963726 -0.4162726 -0.094437145 0.15578297 0.55320495 -0.5487214
-0.09292547 0.898843 0.931234 0.5810504 1.3105284 0.07837652 0.41706493 1.0346723
1.0847523 -0.028896881 0.52165467 -0.10093098 0.85584694 -0.024917668 -0.25275964 -0.13666189
-0.3896036 0.48789638 -0.31374586 0.6255193 -0.120007135 0.12714471 -0.5062959 -0.39614284
-0.035974104 -0.55200595 -0.43238586 -0.8329742 1.2219751 0.13263415 -0.120704286 0.6230676
0.16623737 0.037381418 0.12191064 -0.41877764 -0.70136124 1.5970104 0.048643213 0.53200704
-0.1324289 -0.37802476 -0.19089018 -0.11629341 0.6030965 0.2278407 0.6691156 -0.16661878
0.37737837 0.2198456 0.7801567 0.47968057 -0.11568078 0.3104143 -0.052785862 0.39977732
-0.95253813 -0.112343445 0.27732328 0.6513483 -0.322886 0.5697285 0.039473493 0.25044975
0.011757165 -0.006586192 0.6434019 -0.4336422 -0.39736727 0.05618699 -0.4215972 0.16051927
-0.14832617 0.33920106 0.10449359 -0.6020199 1.0183997 -0.14923425 0.1202848 0.13987547

arith.constant6 f4 [64, 3, 3, 64]
00000000: 8137 043d d2de 023e 0bb4 cb3d 8aab 063c
00000010: 47ec 333b 70f9 0e3e 020b f63d 8c69 a13d
00000020: 6362 02bd 7a5a 4dbd 8c5b 4d3d ea16 09be
00000030: 2bfb 60be 3369 a63d cd3c a43c 961a 053d
00000040: 6f47 5dbd 200c 2f3e 19f1 093e 3fee 093e
00000050: 818f 97bd a689 313c 7da6 ebbb 9f47 ae3c
00000060: 8d6e e5ba 2b82 ca3c ac7e 263e 6396 32be
00000070: 611b bdbd 0ff1 983d 0824 4bbe d7fc 07bd
00000080: fcc5 adbc bc96 28bd b790 273e c190 173e
00000090: 31ea 6f3e 962a a3bc 77fc 9a3e cada b83d
000000a0: 7afc d63d a1a0 4c3d ad80 ab3d 52c2 393d
000000b0: 1e36 d4bd 0218 463e ce30 01bd a2f9 3f3d
000000c0: f5c6 bebd d0e2 833d e64a 9abd 3b0a d03d
000000d0: 20b2 82bc d2d3 863b a100 ed3b d71e 303e
000000e0: 7c9a f63d 0e93 893d 27ff 4fbd f95e cebd
000000f0: 573e 07be 16b0 243d 53b4 5b3e ab5d d4b9
00000100: 6968 d1bc 8c3a e6bd 88ae 98be 218d 12be
00000110: 5e5f 05bc 95c7 a6bd 399d 7bbd 0ac8 6dbc
00000120: abb8 183e b7dc 2bbd b525 073e d068 643b
00000130: ad60 a9bc 9fcc 733d fa15 a83e 6603 d53d
00000140: 4cd9 1ebe 834a 0fbd 157e 06be c814 03bc
00000150: aed8 5fbc f43f 233e 19c9 29be a031 d13d
00000160: 59ca 33be 21c4 063e b077 14be b22f 06be
00000170: e1c8 31bd 8eaa c73d 4052 e2bd d033 513c
00000180: b618 9e3e 90c4 31be b28c f63d 8b84 ae3d
00000190: d1cd a23b 2b39 803d b237 6a3c f83f 423d
000001a0: bd36 04bd e4c4 b33d 31ea e63c 3414 81be
000001b0: 7400 1fbc 87b6 16be cbd1 98bd 4628 0b3d
000001c0: 830b 2dbd 1560 a1bd cdbb 33bd bbe0 743e
000001d0: 2d2d 1bbe 0792 723d 83c1 4c3d 1558 8e3d
000001e0: 4a9d 903d be78 223e f2ba b03a 51e0 41bb
000001f0: 77d4 1dbd 8d98 a73d 893f 18be b250 10bc
00000200: a25d 8c3e 55a9 94bd f8c7 98bd 3bfc 94bc
00000210: 07ed 05be fec8 69bc 4707 063c 9c7e c1bd
00000220: 204a f23d 547c 18be cc86 87bd 3a50 dbbd
00000230: b96c d4bd 8a75 8f3c 99f2 d8bd 0efe 1bbe
00000240: 40db 773b 399f a1bd c117 3d3d aa96 083e
00000250: 7359 6dbe 8250 02be 55ea 91bd 0ab7 b53d
00000260: 732b 073e a24f bfbb 590a e63c 8c92 ebbc
00000270: d902 813c 33c8 503e daac d33c bf45 203e
00000280: 881d 303e 0d0c 3ebd 28e2 f1bd f987 2d3d
00000290: 2dae 97bc ae3b abbd 9b88 9cbc 0521 1ebe
000002a0: fcc6 d43d 35cc 66bc a07a a0bd 19a5 0ebe
000002b0: 8b18 df3c 7da6 603d ff6a 093d 7396 1fbd
000002c0: 3036 09be 9ddd 1b3e 0538 54be 366c 96b9
000002d0: c665 66be 3d7a 80bd ce27 aabe 91a5 21be
000002e0: d926 d73d adc9 f7bd 6934 02bd 8867 37be
000002f0: 1131 9ebd 2e71 bbbd b29e b0bd cf8e 493d
00000300: 1903 11be f1b9 ac3c f77c 4abc 2109 933d
00000310: b1a2 d7bd a308 913d 1a1d 803d 89ed 9fbd
00000320: b063 053e 32e3 223e 4108 afbd ec83 a63c
00000330: aab8 843d 9294 ca3d 9ef9 bd3d d4ca dcbd
00000340: cf53 073d 7de2 f5bc 2c5c 863d 40d1 243e
00000350: ca13 b33d 8174 f7bd b70f 3dbc 35b0 f03b
00000360: 6376 813d 02da 5c3d 8a32 c73d d910 953d
00000370: c05f 2d3d e134 cdbd 3cbd c33d 679f cb3c
00000380: 338f 3dbe 2ab2 383d 779f 3ebd e3a3 d73d
00000390: ce5f 243d b90d 3fbd d827 c6bd cf3f 86be
000003a0: 5266 86bc bba2 b43e a017 60bd c03f 643d
000003b0: bcc3 063d fd2d 3d3e b8e6 f9bd 3955 213e
000003c0: 2644 f7bd f45a 44bd d746 ae3c b01e 81bc
000003d0: 2459 08bd dbac 8fbd 624a 22be 404a 7d3d
000003e0: 26bf 08bc 0463 e5bc f646 453e 6b7e 98bd
000003f0: 0991 a33d e837 6a3d 7d7a 983c 1288 4bbd
0.032279495 0.12780312 0.0994645 0.008219609 0.0027454065 0.1396234 0.12013818 0.078814596
-0.03183211 -0.050135113 0.050136134 -0.13387647 -0.21970813 0.08125534 0.020048523 0.032496057
-0.054023203 0.17094469 0.13470878 0.1346979 -0.07400418 0.010836041 -0.007191478 0.021274386
-0.001750426 0.024720272 0.16259259 -0.1744018 -0.09233738 0.07467853 -0.19837964 -0.03320011
-0.02121257 -0.041159377 0.16363798 0.14801313 0.2342918 -0.019917767 0.3027074 0.09026106
0.10497375 0.049957875 0.08374152 0.045351334 -0.103618845 0.19345096 -0.031540684 0.046868928
-0.09315292 0.064397454 -0.07533817 0.10158201 -0.015954077 0.0041146064 0.007232741 0.17199264
0.12041184 0.067175016 -0.05078044 -0.10076708 -0.13207375 0.04020699 0.21455507 -0.0004050558
-0.025562482 -0.11241636 -0.29820657 -0.14311649 -0.008140413 -0.08143536 -0.061429236 -0.014513025
0.14914195 -0.041958537 0.13197978 0.0034852512 -0.020675981 0.059521314 0.32829267 0.10401039
-0.1551258 -0.03498317 -0.13134034 -0.00800056 -0.0136625 0.15942365 -0.16580619 0.10214543
-0.17557658 0.13160755 -0.14498782 -0.13104132 -0.043404464 0.097493276 -0.11050844 0.012768701
0.30878228 -0.17360139 0.12038554 0.08521374 0.004968383 0.06260904 0.014295505 0.047424287
-0.032278765 0.08777788 0.028187843 -0.25210726 -0.009704698 -0.14718066 -0.0746189 0.033973955
-0.042247307 -0.07879654 -0.043880273 0.23913853 -0.15153952 0.059221294 0.049989235 0.06950394
0.070612505 0.15866372 0.0013483448 -0.0029583166 -0.0385327 0.081833936 -0.14867987 -0.008808302
0.27415186 -0.0725886 -0.07460016 -0.01818668 -0.130787 -0.014269112 0.008180446 -0.09447977
0.118305445 -0.14891177 -0.06617507 -0.107086614 -0.103723 0.017512102 -0.10593147 -0.15233633
0.0037819892 -0.078916974 0.04616523 0.13338724 -0.23178653 -0.12726024 -0.071247734 0.088728026
0.13200168 -0.0058383504 0.028081106 -0.028756402 0.015748428 0.2038887 0.025839258 0.15651606
0.17198765 -0.04639821 -0.11810714 0.042366 -0.01851567 -0.08360992 -0.019108107 -0.15442283
0.10389516 -0.014086773 -0.07835889 -0.13930167 0.027233383 0.054846276 0.033549305 -0.03896184
-0.13399577 0.15221258 -0.20724495 -0.00028690853 -0.22499761 -0.06273315 -0.33233494 -0.15785815
0.105054565 -0.120990135 -0.031788263 -0.17910588 -0.077242024 -0.09152447 -0.08624019 0.04920846
-0.14161338 0.021084758 -0.0123588955 0.071794756 -0.10529078 0.070817254 0.06255551 -0.07808978
0.13026309 0.1590698 -0.08546496 0.020326577 0.064805344 0.09891619 0.09276126 -0.10780874
0.03303891 -0.030015225 0.06560549 0.16095448 0.08744009 -0.12082768 -0.011539391 0.0073452243
0.063214086 0.053918846 0.097264364 0.07278604 0.042327642 -0.100198515 0.09557578 0.024856282
-0.18511657 0.045091785 -0.046538796 0.10529306 0.04013043 -0.046643946 -0.09675568 -0.26220557
-0.016406212 0.35280403 -0.05471003 0.05572486 0.03290151 0.18474574 -0.12202209 0.15755166
-0.12073545 -0.047938302 0.021274013 -0.015761703 -0.033288136 -0.070153914 -0.15848687 0.06183839
-0.008346355 -0.028001316 0.1926535 -0.07445987 0.07986648 0.057182223 0.018613094 -0.049690314

arith.constant7 f4 [64, 3, 3, 32]
00000000: 557b 503e 052a e1bd 4ed4 373b ab5a 173e
00000010: 96de 373d 9b9c 593c 97c8 c23d 4125 fdbd
00000020: 420f ef3d e565 c93d f651 9b3c c9fe 083d
00000030: 4f3b d5bd 8576 14be ef7d 8f3d 8aa8 d3bd
00000040: af7b 643d 2d50 023e 9314 1ebe e4ff 8b3d
00000050: f479 013d 6232 0cbe 74d0 06be a2df 89bd
00000060: 0fbd 18be a027 83be af46 9d3d fedc 67be
00000070: 70e5 1f3e 718b 4bbd bdfa e4bd f40f 2dbe
00000080: 879b dfbd ec0a b93d 2426 04be aba5 e63b
00000090: c9de a73d 7c0b 96bd d98e 32be 5d34 25be
000000a0: 0b8b 45bd 6a11 24be 313f d7bd 7dc9 f23d
000000b0: 19ed 213c 8dc7 b73d c3b2 353d 63b9 c6bc
000000c0: 527b 5abd 06f5 34be 72b8 523c f5a1 7b3d
000000d0: fdfe 183e 1ef7 2a3b 5469 633d 0d51 013e
000000e0: 20ec ebbd 03c4 9bbe a177 883d ed71 52bd
000000f0: 6219 693c 76b2 8cbd 8a05 903d 797c 303c
00000100: 1f77 c4bc f2ea b8bd c0ca 5dbb dd12 113d
00000110: 3e11 55be 2273 573c 19bf 8bbe 5244 2abe
00000120: e209 91be 102b 953d 3db6 adbd 19f6 233e
00000130: 10b7 3cbb 9a6e 26be 6d96 e1bd 474d 28bd
00000140: 1847 c5bd 6662 debd 1c10 28be fefa 2abe
00000150: 9bcf 22be cba8 d6bd 5328 32bd 0274 1bbb
00000160: 50b4 1bbe f3bc d2bd 05bb 9abe a300 19bd
00000170: ca3e 803c cef2 68bd 43d2 d2bd d678 aa3b
00000180: 1053 963e ea74 69bd 5091 a7bc dbd3 b6bc
00000190: 2469 0cbe 2f90 b73d 75f6 863d ffbf fdbd
000001a0: 9dcb 2f3e 03b0 0c39 bcb1 a03d ce02 8d3d
000001b0: b212 923d 5cc5 debb b907 0dbe 4530 e4bd
000001c0: b488 74be 2377 d33b 692f 2cbc a8ba a1bc
000001d0: 1ed0 313d 9eb8 51bc 159a 27bd c2b0 85bd
000001e0: 1b52 0d3d 3df5 84bc 4621 81bc c6e7 ca3d
000001f0: 065b 2a3b 085e 2fbc f235 ea3d c5ce ea3b
00000200: 243f 113e 9779 cf3d b649 173d 505d 14be
00000210: ab9e ebbb 11f4 df3d 636a 48bd 39e0 aabd
00000220: ac9a b6bc 95fa 1ebd 7490 613e 9fb8 a6bb
00000230: 40c0 e03d 1e50 16bd d1a6 cdbd ab31 c0bc
00000240: 2d2f 1c3e 0395 dcbd 0e48 433e 7dff 033d
00000250: 62db 1a3d 7f52 55be d911 053b 8d94 65bd
00000260: 4a79 03bd b373 ecbc a032 0e3d c14c 83bc
00000270: c7c1 54bd e8a8 10be f369 323e fc85 3abe
00000280: df0b d23d a8c8 d13d 4d3f 4c3c d96a 88bc
00000290: 3411 71bc acaf 95bc 6357 2dbd c8b2 02bd
000002a0: 70ee 9abc 8a73 0cbe 7a73 d33d 97df 6b3d
000002b0: 61a6 4a3b 3b68 47bd 0249 b3bd 7cbf e03d
000002c0: 6c69 4fbe 0bc5 50bd 00ee 403d 8e0a f6bd
000002d0: f216 25bd 30ed cdbc 8278 9dbd 1340 8bbe
000002e0: cc21 03bb 52e8 0dbe b802 e4bd 45ec 33bd
000002f0: d8e9 a3bd e6a1 023e e91c e43d f58d f13c
00000300: 436f 13be c9c7 6fbd 717a 523e cdf0 b73d
00000310: e550 32bd dfd4 3ebe d8fc 163e 482f bc3b
00000320: a2b8 79bd ef91 36be a28e 883d 9eef 9b3d
00000330: 94df 6dbd 3270 903c 6d27 dfbd d839 f4bc
00000340: c1f4 2bbe defa b13d 793f 89bd a007 463d
00000350: 21d7 7dbd 3229 d1bd 758a 50bd 2c49 c9bd
00000360: 2e8d 01bd 9918 aa3b c516 9a3d ec7b 573d
00000370: 4a30 433e e3e9 65bc b1e2 4b3d 009d e43c
00000380: 9e72 e9bd 9af6 a0bd 7acf 3c3e 4363 8d3d
00000390: 6a29 bdbd cb0b e8bd 0e75 f33d 1fc1 88bd
000003a0: 8b21 18be 5bc5 cabc 039e 103e 8344 1abe
000003b0: 36cd e83d 9daf a4bd 6244 45bd a623 373d
000003c0: e4be 103d cb9e 18bd a2d9 2abd 6292 7abe
000003d0: 33e6 a2be 18e8 6abe e1f9 1abe 81ff 11bc
000003e0: c931 6cbd 6f57 1f3d 0bc7 63be 329e e83c
000003f0: b97d febd 0ae8 b1be 264c d5bc 47f4 96bd
0.20359547 -0.10994343 0.0028050127 0.14780681 0.04489001 0.013281967 0.09510916 -0.12360621
0.11672832 0.09833888 0.01895998 0.033446107 -0.10411703 -0.14498337 0.07006442 -0.10334881
0.055782016 0.12725897 -0.15437536 0.06835917 0.031610444 -0.13691095 -0.13165456 -0.06732108
-0.1491587 -0.2561617 0.076794975 -0.22642896 0.15614867 -0.04969353 -0.11180637 -0.16900617
-0.10918336 0.09035286 -0.12905174 0.007038792 0.0819679 -0.07326409 -0.17437305 -0.16133256
-0.048228305 -0.16022268 -0.105101 0.11854837 0.009883189 0.08973608 0.044359934 -0.024258321
-0.053340264 -0.17671594 0.012861358 0.06143375 0.1494102 0.0026087235 0.05552037 0.12628575
-0.11519647 -0.30422983 0.066634424 -0.05137818 0.014227243 -0.06869976 0.070323065 0.010771864
-0.023982583 -0.09029187 -0.0033842772 0.03541838 -0.20807359 0.013150008 -0.27294233 -0.16627625
-0.28327852 0.07283604 -0.08482025 0.16011848 -0.0028795637 -0.16253129 -0.110150196 -0.041089322
-0.09632701 -0.10858612 -0.16412395 -0.16697308 -0.15899508 -0.104814135 -0.043495487 -0.002372027
-0.15205503 -0.102899455 -0.3022081 -0.037354123 0.01565494 -0.05687218 -0.102940105 0.005202393
0.29360247 -0.056996264 -0.020455033 -0.022317817 -0.13711983 0.08963048 0.06589977 -0.12390136
0.17167516 0.0001341701 0.078464 0.068853006 0.07132472 -0.0067984294 -0.13772477 -0.11142019
-0.23880273 0.006453411 -0.01050935 -0.019742325 0.043411367 -0.012800364 -0.04091843 -0.065278545
0.03450213 -0.01623022 -0.015762936 0.099074885 0.0025994196 -0.010703571 0.114360705 0.007165762
0.14184242 0.10130613 0.03693553 -0.14488721 -0.0071905456 0.10935224 -0.048929583 -0.08343548
-0.02229055 -0.038813192 0.2202776 -0.0050879265 0.10974169 -0.0366975 -0.10041583 -0.023461184
0.15252371 -0.10770609 0.19070455 0.032226074 0.037806876 -0.20832251 0.0020304827 -0.056049872
-0.032098092 -0.028863763 0.03471625 -0.01602781 -0.051942613 -0.14126933 0.17423229 -0.18215173
0.102561705 0.1024335 0.012466264 -0.016652511 -0.014713574 -0.018272243 -0.042319667 -0.03190878
-0.018912524 -0.1371595 0.1032476 0.05758628 0.0030921923 -0.048683386 -0.087541595 0.10974023
-0.20255059 -0.050969165 0.047101974 -0.12013732 -0.040305085 -0.025137514 -0.07689001 -0.27197322
-0.0020009158 -0.13858154 -0.11133331 -0.043926496 -0.080035865 0.12757072 0.11138327 0.029486636
-0.14397912 -0.05854014 0.2055452 0.08981476 -0.04353418 -0.18635891 0.1474489 0.005742941
-0.060967095 -0.17829107 0.0666783 0.07614063 -0.05807455 0.017631624 -0.10896192 -0.029812738
-0.16792585 0.08690427 -0.067015596 0.048347116 -0.06197274 -0.102129355 -0.050913293 -0.098284096
-0.03162878 0.0051909206 0.07523874 0.052608415 0.1906139 -0.014032814 0.049776737 0.027906895
-0.113988146 -0.078595355 0.18438521 0.06903698 -0.09236415 -0.11330374 0.11887561 -0.0667746
-0.14856546 -0.02475231 0.14122777 -0.15065198 0.11367266 -0.08041308 -0.048160918 0.04471173
0.035338297 -0.03726081 -0.041711457 -0.24469903 -0.31816253 -0.22940099 -0.15134384 -0.008911015
-0.057664666 0.038901743 -0.22243898 0.028395746 -0.124263234 -0.34747344 -0.026037287 -0.07370811

arith.constant8 f4 [32, 3, 3, 16]
00000000: 81e7 80be 7977 59bd 20f4 2fbe e1d9 0b3d
00000010: 1743 fcbd c517 05be 45eb 593d 748b d93d
00000020: ec82 86bd 2aae 0ebe 6366 ccbd c4d1 a6be
00000030: 7b31 91bd 9a96 98bd 0a09 9dbe 795b afbd
00000040: c0b0 43bc 9789 c73c c91f dabd 8941 11bc
00000050: 15ed 2d3d b2b9 57be 15b6 0cbd c392 7ebd
00000060: 0f48 9d3d 42a3 513d 9c2b 103b 11ac c6bd
00000070: 02e3 66bd 6bd2 d1bb c9e5 723d a73a b53d
00000080: ff6c 433d 2e9d afbd 459e 783d afb5 d0bb
00000090: fe17 993d 923e 17be df3c 273b 528d 05be
000000a0: d69e 003e c3e4 11be 436d acbb 2b9e 55be
000000b0: 2a24 283e 2a8d aabc 9c16 973c 3069 9ebd
000000c0: 0432 18be c465 303b c7ee 12bd 0d21 22bd
000000d0: 6574 d7bd be10 833d 06ed 54be d96d 943e
000000e0: cdca a03d 0ae5 37bd 0730 10be 392f 843d
000000f0: 815c 51be 9e62 db3b eff4 72be 3a08 1f3d
00000100: 11c0 983c 73a9 a9bd 0cc1 663d 65bc 96bd
00000110: 9586 dcbc b7c7 b6bd 62a4 443d 3abd b0bc
00000120: 1ea9 18be 3a4f 3c3e 9b0c 86be 0131 8e3d
00000130: 1f0c 073e f9b6 9a3e a7a9 a03c 8c9e d5bc
00000140: 7550 a63d 3ffc b0be 00af 03be 86d6 18bc
00000150: 8162 84bd 24b6 0abd c9de b5bc 550a 423d
00000160: 4cfa 71be d79b d13c 4920 2abe e8af c6be
00000170: 8930 363d ed11 353e e93e 1c3d 7229 093d
00000180: 7123 42bd 41c8 7a3e ecf8 0dbe c756 983c
00000190: 401b 673e f4f2 493d 5da0 163e 2896 0f3d
000001a0: f487 223e 9e12 47be 5fab 963d 3f97 933e
000001b0: 0549 b4bd 7698 94bc b2f9 4c3d c358 c7bd
000001c0: ed77 8e3e c069 ee3d 2411 20be b75e 1bbd
000001d0: aa84 b23b a7ea 113c 9e94 42bd 49db ecbc
000001e0: 2977 eebc 5c78 1bbb ad5e 8a3d 51d6 8f3e
000001f0: 35ee a03d 4b35 0e3b 09fa c4bb 74bf e43d
00000200: 9000 223e d781 eeba a2f0 50be 311f 173d
00000210: 8a63 df3b c4d6 14bb e2d1 9fbc a3d0 b8bc
00000220: 1589 ddbd 2440 9f3c 21f8 093d a7f1 ab3c
00000230: ddc9 863d 4f90 87bd 829b 29bd 8aec 7abc
00000240: 73ac 903d cb28 cd3a ba50 5bbe 5f24 6cbe
00000250: 2931 2b3e dbb6 fa3c c6a7 d7bd 8c34 38be
00000260: 94f7 173e 0b17 0c3e e5ac 3ebe 77e6 f83d
00000270: b5f0 d93d d282 e6bd 9600 27be a0ba 44bd
00000280: b840 39be 111d 83be 6189 cd3d 14b7 52bd
00000290: 278b 4fbe cff7 50bd 17c0 84bd e50f db3c
000002a0: 716d 8abe e3ce c1bc 636a 15be 67d6 803d
000002b0: a416 84be ba78 e43c 28a2 30be 9baa c0bd
000002c0: c6fc f23d 7f06 a33d f9de 963d 18aa 443d
000002d0: d7ae 07bc 5919 003d eb93 68bd 2bad 183e
000002e0: f3cc 3ebe 3c95 a9be 35c2 df3d 5090 353d
000002f0: 0388 113d 5ba1 5a3e 7e77 ca3d 428c 8dbd
00000300: bc61 ccbd 26e8 cabd 47cb f5bd c5a7 22be
00000310: c32c 0abe 74c8 023e f800 40bd de45 f4bc
00000320: a8eb 60bd 2457 f43d cde8 9fbe abb0 b23d
00000330: f2f7 a7bc 8755 edbd af96 b6bd ab38 b73c
00000340: 8261 dc3d 9d6a 3ebe c8bf 913c a13b 8bbc
00000350: d3a1 12be 9f71 1fba 8a78 66be 7ba4 e3bc
00000360: daa3 80be c8d0 14be 4151 82bd b105 eb3d
00000370: af2a 603d 9f86 c73d a0cd ccbd 1aeb 8c3c
00000380: b9c9 6fbc 1fe1 7e3d 61ef 26bd f7d1 ee3d
00000390: bdc3 8f3d 95de 153e 098b 723d 3085 a23d
000003a0: 0f6b 4f3d 81d0 7ebd 7461 6f3c 5592 57be
000003b0: 042c cb3b 3615 1bbc fd79 633e 2faa e53d
000003c0: 83b4 01be 1e61 23bd f81e debd a934 b5bd
000003d0: 3800 79bd 68c0 0a3e 8131 18bd cdf6 06be
000003e0: 48d7 28be 6623 27b9 9efe a0bd c6c8 e53d
000003f0: dd14 69be 9914 5cbd 45d2 333e 34a7 36be
-0.25176623 -0.053092454 -0.1718297 0.034143332 -0.12317484 -0.12997349 0.053202886 0.10622302
-0.0656794 -0.13933626 -0.09980466 -0.32581913 -0.07089516 -0.074506 -0.3067096 -0.08562369
-0.011943996 0.0243576 -0.10650594 -0.008865722 0.042462427 -0.21066931 -0.034353334 -0.06215168
0.0767976 0.051181085 0.002199865 -0.09700788 -0.056368835 -0.0064032576 0.05930117 0.08849078
0.04771137 -0.085749015 0.060697813 -0.0063693146 0.07475279 -0.14769962 0.002551846 -0.1304219
0.12560591 -0.14247422 -0.0052620484 -0.20861118 0.16420045 -0.020819265 0.018443398 -0.07734907
-0.1486283 0.0026916126 -0.035872247 -0.0395823 -0.10520247 0.06399678 -0.20793542 0.28990057
0.07851181 -0.044896163 -0.14080821 0.064543195 -0.20445444 0.0066951057 -0.23726247 0.038826205
0.018646272 -0.08284273 0.056336448 -0.07360152 -0.026919642 -0.08924811 0.04800833 -0.021574605
-0.14908263 0.18389598 -0.26181492 0.069429405 0.13188218 0.30217722 0.019612147 -0.026076578
0.08120815 -0.34567448 -0.12859726 -0.00932849 -0.06464101 -0.03386511 -0.022200959 0.047373135
-0.23630637 0.025587006 -0.16613878 -0.3880608 0.04447988 0.1768262 0.038145933 0.03348679
-0.04739708 0.24490453 -0.13864487 0.018596066 0.22568989 0.049303964 0.14709611 0.03505531
0.15872175 -0.19440696 0.07356905 0.2882633 -0.0880299 -0.018139105 0.050042816 -0.09733727
0.2782587 0.11641264 -0.15631539 -0.037932124 0.0054479437 0.008906043 -0.047505014 -0.028913157
-0.029109554 -0.0023722863 0.06756339 0.28093198 0.078579344 0.0021699246 -0.006011252 0.11169329
0.15820527 -0.0018196654 -0.20404294 0.03689498 0.006817286 -0.0022711018 -0.01950926 -0.022560423
-0.10817162 0.019439764 0.0336839 0.020989252 0.06581471 -0.066193216 -0.04140807 -0.015315184
0.07064142 0.0015652416 -0.21417513 -0.2306075 0.16717972 0.03060477 -0.10530047 -0.17988795
0.14840537 0.13680665 -0.18620642 0.12153333 0.10641614 -0.11255421 -0.16308817 -0.048029542
-0.18091094 -0.25608113 0.100359686 -0.05144413 -0.20267926 -0.05101758 -0.06481951 0.026740978
-0.27036622 -0.023658222 -0.14591365 0.06290894 -0.25798523 0.027889598 -0.17249358 -0.094075404
0.11864619 0.079602234 0.073667474 0.048013777 -0.008281431 0.031274173 -0.05678169 0.14909808
-0.1863287 -0.3312167 0.10925714 0.04432708 0.0355301 0.21350615 0.098860726 -0.06911518
-0.09979579 -0.0990756 -0.12001663 -0.15884311 -0.13493638 0.1277178 -0.046875924 -0.029818472
-0.05491224 0.11930683 -0.312323 0.08725103 -0.020503972 -0.11588579 -0.08915459 0.022365889
0.10760786 -0.18595357 0.017791644 -0.016996207 -0.14319544 -0.00060822995 -0.2250692 -0.027788391
-0.2512501 -0.14532769 -0.06363154 0.11475695 0.054728206 0.09742474 -0.10000157 0.017201949
-0.014635497 0.06222641 -0.040755633 0.11661141 0.07019756 0.1463569 0.059214626 0.0793556
0.05063921 -0.062210564 0.014610637 -0.21051915 0.0062003154 -0.009465506 0.22214504 0.112141006
-0.12666516 -0.03988754 -0.108457506 -0.08847935 -0.060791224 0.1354996 -0.037156586 -0.13180085
-0.16488373 -0.00015939548 -0.078610644 0.11219935 -0.22761865 -0.05373058 0.1756068 -0.1783722

arith.constant9 f4 [16, 3, 3, 3]
00000000: d992 55be 7f25 6abd ff8f 4b3d d1be f6bd
00000010: 929d 673d 78f9 d73d 8d5f 733d 24ca ef3d
00000020: e5f9 19bc 0442 86be 3558 4cbe 2d58 a4be
00000030: 1387 1ebe 03bd fb3d 340d a4bd 07ac 103e
00000040: 2fb0 9a3d f76e 93bd 746a 523e 0f42 ba3c
00000050: cabb 4b3e 2f36 dc3d 493f 613d 93b5 9fbc
00000060: 7a59 5c3e 9158 d1bd 5b15 c1bd e1b6 383e
00000070: 64ad 30bd 5205 4bbd 58ec 47be 7347 a43c
00000080: cf69 c13d e4fc 94be 4a7e 853e 279d f7ba
00000090: 5f1d b53e 63a1 5cbe c52e 20be 0602 1dbd
000000a0: d0f4 9f3d 9401 d7bc 3013 c9bd 8c34 85bd
000000b0: 4b49 bd39 de6e 2e3e 0bf9 b8bd bb5e b83d
000000c0: ddae 983d 66cf a7bd 3720 c0bd 55d0 19be
000000d0: 0dc2 d23d 58cc 0d3e c540 c0bc 1f1a 493e
000000e0: d85c a03e 0449 803d 2a4f bc3e deb2 433d
000000f0: 1041 253d 00af 343d 96af 1f3e e337 96bd
00000100: 2d80 bfbd a0aa e7bd b86f 4e3e abfc 72be
00000110: 5c4f 13be 7dc5 7f3d f7a4 9bbe 38ae ec3d
00000120: 2a8b fb3d 73ed a6bd 8a39 84be c178 4abd
00000130: 2b77 6fbe a968 15be 9fdd 243d 6872 47be
00000140: 8691 1fbd 9204 1e3e 04bc aabd 8d21 5ebd
00000150: 650b 2a3e 4568 a5be 4f74 ccbe 03d8 613d
00000160: 43ea 07be 3d92 8bbe 354c 193e dfc9 6dbd
00000170: 075e 4ebc 190b dcbd 79be 10bd 281d 42be
00000180: b3bc cabc fd30 083e fad7 b3bc 3c23 18bd
00000190: 1a48 9dbd a733 243e 927c b73d 73e3 bcbc
000001a0: 6c4f 48bc c1bd 73bd 5a8d be3c b4a4 a6bd
000001b0: 76aa 823c 67e0 fabd 5145 debd 36fd 283d
000001c0: da67 563d 9c7d c33d ae66 89be 2d47 b33e
000001d0: 4737 a73e fde8 ea3b 6e30 62be d626 51bd
000001e0: 2fb1 2d3e 7eea 3b3d 77fd 63be 8008 753b
000001f0: 71df 173e ffe6 b7bc ef60 583c 7c35 62be
00000200: 06df 7dbd e250 023d bf15 58be c248 6e3d
00000210: 5007 f4bc 8696 ae3d 9ec4 90ba 1090 66bd
00000220: cf84 b43d 680d 67bc 06d2 0abe 374e eebc
00000230: b663 d23d 01e2 0f3c cf9c 97be c8d5 36be
00000240: e6f7 0e3c 10f8 82bd a1f8 033e 75cc 473e
00000250: e1ce 063d b6ec 443e d6ab 41be 738d e53d
00000260: 555e 1cbe 7fc1 03be 0809 993d 9873 1c3e
00000270: ae9f 0cbe 0488 4d3e 8e9a c23e a44b 3abd
00000280: 640b 263e 252b 233e f073 dcbd 6ac6 6aba
00000290: 7e67 af3c b065 d7bd 20fc c23b 29a1 843e
000002a0: 45c5 c2bc 0542 fe3d df51 da3d e3a6 043e
000002b0: 0c88 89be 4958 ed3b 2d1e fe3c 3698 e2bd
000002c0: c3a1 ab3d 91c1 25be 48ab b1bc 1e6a 863e
000002d0: b050 353e f5e8 0ebe c9fa 8ebd 9e28 fe3d
000002e0: 649e b4be 64b4 75bc b27f 543d 26d4 5dbd
000002f0: 1730 b3bd 9d5b 143e d0de 2fbe 48cc ce3d
00000300: 1b0c 173e 108e 2abe e2ca 3cbe 82e1 3f3d
00000310: ff55 46be 4935 453d 6968 f3bc 1304 5fbc
00000320: a958 8cbd b6db f23d 7148 f33d dcdf 1dbe
00000330: ceb2 66bc 120e 67be c4d3 f6bd fbb2 2ebe
00000340: 5fa2 a83e 1f74 9e3e 4f92 92be 8446 223e
00000350: e96a 523e ec42 8a3c b2ed d43d d3e7 edbd
00000360: 8314 9c3e 2f68 b4be aa81 97be 623f c83d
00000370: 40d0 703d 5bab 0fbe cb50 24be f98c 4bbd
00000380: 999a 1f3e 0173 653d c85c 18bc 6583 70bd
00000390: 44af 00bd 7e67 e2bc 8e55 2b3d d8af 17be
000003a0: a80c 5b3e 6fd9 f93d 4dcc a33d 3ad6 df3c
000003b0: b182 eabc 21e9 3d3d c444 51bd d377 fe3c
000003c0: e845 88be a650 673e ad54 5d3e a909 00be
000003d0: 0c56 abbd 75bb 973d 4cc4 fc3d e770 e23d
000003e0: 786e 01bd e622 433e 1140 b7bd aee5 d6bd
000003f0: a252 77be 0705 093e 433c 743e 211f 483d
-0.20856799 -0.057164665 0.049697872 -0.12048114 0.056546755 0.10545629 0.059417296 0.11708477
-0.009397958 -0.2622224 -0.19955523 -0.32098523 -0.15481214 0.122919105 -0.08010331 0.14128123
0.075531356 -0.07198899 0.20548421 0.022736577 0.19895855 0.10752522 0.054991994 -0.019495761
0.21518508 -0.10221971 -0.09427901 0.18038513 -0.04313411 -0.04956562 -0.19523752 0.0200536
0.094440095 -0.2909919 0.26072913 -0.001889144 0.3537397 -0.21545939 -0.15642841 -0.038332008
0.07810366 -0.02624587 -0.09818113 -0.06504163 0.00036103497 0.1703448 -0.09031876 0.090024434
0.074552275 -0.08193855 -0.093811445 -0.15020879 0.102909185 0.13847482 -0.023468385 0.1963887
0.31320834 0.062639266 0.36779147 0.047778003 0.04034525 0.044112206 0.15594324 -0.07334878
-0.093506195 -0.11311841 0.20159805 -0.23729198 -0.14385742 0.0624442 -0.30399296 0.11556667
0.12282403 -0.081507586 -0.2582515 -0.049431566 -0.23385303 -0.14590706 0.040250417 -0.19477236
-0.03895714 0.15431431 -0.083366424 -0.054231215 0.16605909 -0.32306114 -0.39932486 0.055137645
-0.13272958 -0.27260008 0.14970477 -0.058053847 -0.01259566 -0.10744304 -0.0353379 -0.18956435
-0.024748182 0.13299938 -0.021953572 -0.037142977 -0.07679768 0.16035329 0.08959307 -0.023057675
-0.012225967 -0.059507135 0.023260761 -0.081368834 0.015950423 -0.122498326 -0.10853065 0.041257106
0.052345134 0.095454425 -0.2683615 0.3501524 0.3265936 0.0071688876 -0.22088787 -0.051062427
0.16962121 0.045877926 -0.22264658 0.00373891 0.1483133 -0.022449015 0.0132067045 -0.22090715
-0.06198027 0.031815417 -0.21102045 0.058174856 -0.029788643 0.08524804 -0.0011044925 -0.056289732
0.08814394 -0.014102317 -0.1355668 -0.02909003 0.102729246 0.008781911 -0.29611823 -0.17854989
0.008726096 -0.063949704 0.12887813 0.19511588 0.03291214 0.19230923 -0.18913206 0.1120862
-0.1527036 -0.12866782 0.07472426 0.1527847 -0.13732788 0.20071417 0.3800854 -0.045482293
0.16215283 0.15934427 -0.10764301 -0.00089559576 0.021411654 -0.10517442 0.005950466 0.25904205
-0.023775706 0.12414936 0.10660147 0.12954287 -0.26861608 0.0072431904 0.031020248 -0.11064188
0.08380463 -0.16187121 -0.021688119 0.26252836 0.17706561 -0.13956054 -0.06981427 0.12410091
-0.35277092 -0.014996622 0.051879592 -0.0541574 -0.08749407 0.14488073 -0.1717484 0.10097557
0.14750712 -0.16655755 -0.18436769 0.04684592 -0.19368742 0.04814652 -0.029712873 -0.013611811
-0.06852848 0.11858313 0.118790515 -0.15417427 -0.014080716 -0.22563961 -0.1205211 -0.17060463
0.3293638 0.30947968 -0.2862725 0.15847212 0.20548595 0.016877614 0.10396899 -0.116164826
0.304844 -0.35235736 -0.29591113 0.09777714 0.058792353 -0.1403021 -0.16046445 -0.04969499
0.15586318 0.05601788 -0.0092994645 -0.058719058 -0.031417146 -0.02763724 0.04182964 -0.14813173
0.21391547 0.12199675 0.07997952 0.02732383 -0.028626772 0.046364907 -0.05109097 0.031062996
-0.26615834 0.22589359 0.21614332 -0.12503685 -0.083660215 0.074088015 0.12342128 0.11056691
-0.03159949 0.19056281 -0.089477666 -0.10493027 -0.24152616 0.13380824 0.23851113 0.04885781

arith.constant10 f4 [2, 64]
00000000: 7228 88be 8d69 983d d679 e1ba b991 95bd
00000010: 73ce 2b3e 0262 4039 101f a1bb dbda 1cbb
00000020: ee3f 5bba 7754 1fbd ebc3 953d 95e5 b1be
00000030: 38bf 05bc a0bb 2a3b fa08 0fba d603 5fbb
00000040: 1a80 8ebd a4b3 04be 1aca 1f3e e39f b83c
00000050: 6732 c9bb e95b 44bb 4f45 4fbe a707 ee3a
00000060: 12fc eb3d 4af9 853e 0434 483a ec61 bcbd
00000070: 25f6 2bbe 8c30 753b 859e c6bc ca38 6d3d
00000080: 3524 58be e8d7 3bba 394e 2fbe 4569 dcbd
00000090: 1e9c 78bb 4cc7 ebb9 beab dd3d daab 68be
000000a0: af33 963e d0f1 6f3d d8ee 40bc d196 093e
000000b0: c6a0 073e 7752 723d 7e41 3d3c 4e72 8b3c
000000c0: ec2f ab39 6fba 2dbb 1f0d 033e b216 d13d
000000d0: 8d5a 573e 9011 823a 23ba 8fba 0c7d b23a
000000e0: 65d3 0a3e c55e 0e3b c4ce 4dbe 3bfa 443a
000000f0: 82cc 0c3b 1f50 253d 1a61 8c3e e9f0 bd3d
00000100: 35f8 853d 91f3 6c3d 3748 fc3a ffe8 3a3e
00000110: 7375 063e ee90 1f38 5da7 803a e35b 053a
00000120: c52b 763c a823 66be e03c f63d a2c3 4fbd
00000130: ec63 a63b e49e e73a e9de d0bc 80c8 caba
00000140: e857 543d 570f 053e 4fe4 1bbe ecf4 f43c
00000150: 8cae af3d 2e6b 04ba 7379 4bbe f121 a9ba
00000160: 81c6 1c3d b4ec 043d 68cb 0e3e 1ee8 263e
00000170: 1703 823e 9585 b5be 6726 c2bd 7d7f aabe
00000180: 9b45 d13b 7892 38ba 7e90 673e c812 82bd
00000190: 3b19 a63b bfbf 09ba 4641 c03d ca03 413e
000001a0: 2888 f3bd cf62 2bbc 0fd5 263e b94e 4e3e
000001b0: 69eb 90bd 69bd abbd 858f 193c 4a3f fdba
000001c0: a6d7 e539 b782 c93b 79bc 6a3d 5e6a 93bd
000001d0: de9b 843e 8cfa 963b 2b60 6d3c accf 4a3a
000001e0: eac5 5d3e d72a 473b 1090 7cbe 6ab7 bebb
000001f0: dcfc 13bb 7eb0 43be 69ca c5bd d0e7 2a3e
-0.26593357 0.07442007 -0.0017202448 -0.07303185 0.16777973 0.00018347058 -0.004917033 -0.002393416
-0.0008363713 -0.03889891 0.07312759 -0.3474547 -0.008163266 0.0026051775 -0.00054563547 -0.0034029386
-0.06958027 -0.12959152 0.1560444 0.022537177 -0.0061400416 -0.002996201 -0.20241283 0.001816024
0.11522688 0.26166755 0.00076371455 -0.091983646 -0.16793115 0.003741297 -0.02424551 0.057915486
-0.21107562 -0.00071656564 -0.17119683 -0.10762266 -0.003793485 -0.0004497118 0.10823773 -0.22721806
0.29336306 0.05858022 -0.011775695 0.13436438 0.13244924 0.059160676 0.011551259 0.017022278
0.00032651366 -0.0026508828 0.12797974 0.10209407 0.21030636 0.0009923447 -0.0010965507 0.0013617589
0.13557203 0.0021723968 -0.20098406 0.0007514094 0.00214842 0.040359613 0.27417833 0.092744656
0.06541482 0.05784947 0.0019247596 0.18252943 0.13130741 3.804353e-05 0.0009815503 0.00050872396
0.015025084 -0.2247454 0.1202333 -0.05072368 0.0050778296 0.0017671254 -0.025496917 -0.0015471131
0.051841646 0.12994133 -0.15223812 0.029901944 0.08578214 -0.00050513714 -0.19870548 -0.0012903792
0.038275246 0.0324523 0.13944781 0.16299483 0.25392982 -0.35453478 -0.09479981 -0.3330039
0.0063864714 -0.00070408685 0.22613713 -0.063512385 0.0050689257 -0.00052547076 0.0938745 0.18849102
-0.11891204 -0.0104605695 0.16292213 0.20147218 -0.07076151 -0.083857365 0.009372597 -0.001932123
0.00043838954 0.0061496156 0.057308648 -0.07198022 0.25900167 0.0046075042 0.01448826 0.0007736634
0.2165753 0.0030390525 -0.2466433 -0.0058202045 -0.0022581136 -0.19110295 -0.09657747 0.16689992

arith.constant11 f4 [64, 128]
00000000: 1036 983d d53a 4a3b dd57 a9bd 2857 c6bd
00000010: 69ba 77bd e212 953d 499a 9dbd ab22 b4bd
00000020: daf2 ddbc d369 eabd 1acd 15bd 0498 85bc
00000030: 4dc9 81bd 17f3 a5bc b3c1 d3bd 1017 19bd
00000040: 12b4 e3bc 5d84 bb3c 4bf6 a2bd 6aca 803d
00000050: c4ce 053c ea06 ca3b 8231 98bd 19a6 d3bd
00000060: 2aaa 43bd c805 0639 5e0f b5bd 0193 bebd
00000070: d8ba 95bd 53e1 f33c 823c 68bd 9b70 34bd
00000080: ca45 7cbd 6d29 6bbd 831d ad3c 4fde 803b
00000090: 2960 b6bb d1b3 4c3d 0873 12bd a578 b5bd
000000a0: 40be 61bd 7f04 b23d fb05 39bc a260 323c
000000b0: f742 8dbc 41af 56bd a098 8bbd b069 6e3d
000000c0: cdc7 7cbc 3693 a8bd bdac a2bc 8412 b1bd
000000d0: 9533 f63a 710b 6a3d 30e5 a2bd b235 ce3a
000000e0: ec41 c33a 3ce9 b8bb a077 8ebc fd51 8cbd
000000f0: 4caf e5bb 1b56 bbbd 3b9c a03d 3190 4dbd
00000100: 582a 723d 1613 d8bd d9a3 87bc bfb3 c83b
00000110: f7d7 9bbd 59fa a1bc c032 babd 8389 a2bd
00000120: 649a 9cbd 85f5 97bd 52a5 31bd 6e41 663b
00000130: 6298 afbd 6303 a4bd eec6 4b3d 2390 64bd
00000140: 4538 9bbd 5892 96bd 8d0e 863d 5b8c 25ba
00000150: d1eb 75ba 376a 09bc 79e5 14bd 6b92 5dbd
00000160: 87f4 83bd b03c dabc 3dfa a6bd 9827 493d
00000170: 2d00 a6bd 0d07 97bd 2973 efbd f709 b8bd
00000180: 20c0 f2bc 170f a8bd c7dc 29bd ae57 febc
00000190: 89b5 3f3d ef99 32bd e05b 9dbd 95fd 9bbd
000001a0: 6602 b93c c4e5 39bd f83a 0e3c a83d e0bc
000001b0: 6d16 7ebd bab0 2ebd 0c2f 323d 2d74 573c
000001c0: 9af7 00bd bcb3 bdbb af97 cdbd 70ec 95bb
000001d0: 714f 99bc dcab 40bd 786e a9bd efdb 8ebd
000001e0: 2793 223d 1fd9 33bd a455 acbb b4df b0bd
000001f0: 18d0 94bd 1e57 bebd cf1f da3d 4b7b 483d
00000200: 88c7 8a8b 1c7a 898b 980e b28b dfc9 ab8b
00000210: 445e 8c8b b054 9e0b fec0 b48b 57e9 930b
00000220: 3d85 bd8b 9427 8e8b 3ee5 8f8b b011 b20b
00000230: e1bd 8c8b 667a b28b 411a 948b a171 8e8b
00000240: 8100 a88b 88c7 888b 7bbd 8e8b 547d 8d8b
00000250: ff4f ab8b 3fa9 b88b 87cb 8f0b b6f3 a40b
00000260: 3248 868b 6518 8b8b ac1d 908b 5532 998b
00000270: 758c 988b 941e 930b 79e9 b48b f239 900b
00000280: a736 8c0b 455a 9d8b c240 888b cf72 938b
00000290: 36b6 970b d249 928b 5fa2 a78b 9867 8d8b
000002a0: d451 868b 9f31 948b 4b6c 8f8b 6c9e 998b
000002b0: 20ba 938b afbc b20b 3990 8c0b 091b 8b8b
000002c0: 41f2 ad8b 5ee3 928b d96e b88b d67d 860b
000002d0: cfbe a70b 7be6 8f8b 6305 8c8b 6ae3 8b0b
000002e0: b481 bd0b 0fde a38b 80de 898b d204 900b
000002f0: 4fe5 a10b 1f88 a80b d6ac 8d8b 40a4 9c8b
00000300: 4b16 888b 9b53 8f8b 277d b08b 5b12 a38b
00000310: fe6d 8c8b ce33 aa8b 6e0d 8e0b 2b75 938b
00000320: 51dd 930b 1566 b28b 1d2e 938b 2f1d 960b
00000330: 0435 b10b b0ae a18b a80d 8f8b c004 898b
00000340: 386d a78b 5296 8b8b 3f63 8b8b 0d81 8e8b
00000350: 93c2 8f8b dde0 a50b f3b4 9a8b 5759 948b
00000360: faf9 8b8b f01f 928b 11c0 8b8b c0c6 898b
00000370: a7fc 878b 915d 888b be50 900b cc5e 8a8b
00000380: 0f8b 8b8b 5456 b48b 0c7a 8e8b 5e99 9b8b
00000390: 334d b78b 8fff 928b 7495 8e8b 8235 af8b
000003a0: 11ee 930b ca9f 918b cc7a 898b ad00 8f0b
000003b0: 3e1c 920b aea5 b88b 486d 8d0b ddf4 8c8b
000003c0: 430c 958b d52b 918b efb0 8e8b 2ed4 898b
000003d0: 2a68 868b f39e ba0b fab7 9c8b 47e5 868b
000003e0: 954f 8c8b 922f 8f8b da36 968b 3b47 948b
000003f0: 5a8a 8e0b f133 ae8b e3d7 8d8b 8bf2 878b
0.074321866 0.003085782 -0.08268712 -0.096845925 -0.06048051 0.07278992 -0.07695443 -0.08795675
-0.02709334 -0.114459656 -0.036572553 -0.016307838 -0.06337223 -0.020257516 -0.103396796 -0.03737551
-0.027795825 0.022890264 -0.07957133 0.062886074 0.008166973 0.006165375 -0.07431318 -0.10334415
-0.047769703 0.0001278139 -0.08840822 -0.093053825 -0.07311028 0.029770529 -0.05669833 -0.0440527
-0.061589994 -0.057412554 0.021132236 0.0039327512 -0.0055656624 0.049976174 -0.035754234 -0.08860902
-0.055113077 0.08692264 -0.01129293 0.010887297 -0.017243845 -0.05241323 -0.0681622 0.05820626
-0.015428496 -0.08231203 -0.019857759 -0.0864611 0.0018783683 0.057139818 -0.0795387 0.0015732555
0.0014896966 -0.005643038 -0.017391026 -0.068515755 -0.0070094224 -0.09147283 0.078422986 -0.05018634
0.059122413 -0.10550515 -0.01655762 0.006124943 -0.076095514 -0.019772695 -0.09091711 -0.079363845
-0.07646635 -0.07419876 -0.043370552 0.0035134214 -0.085739866 -0.080084585 0.04975026 -0.055801522
-0.07579092 -0.073521316 0.06545744 -0.0006315165 -0.00093811477 -0.00838714 -0.036351655 -0.054094713
-0.06443124 -0.026640266 -0.08153198 0.049110025 -0.08105502 -0.07374392 -0.11691887 -0.08986276
-0.029632628 -0.08206003 -0.041470315 -0.031047668 0.046803985 -0.043603834 -0.076835394 -0.07616726
0.022584151 -0.045385137 0.008681051 -0.02737315 -0.062033106 -0.04264901 0.0435019 0.013150257
-0.03148613 -0.0057892483 -0.10038697 -0.0045753047 -0.018714638 -0.047038898 -0.08273023 -0.06975543
0.039691117 -0.043908235 -0.0052592326 -0.08636418 -0.07266253 -0.0929396 0.10650598 0.048945706
-5.345589e-32 -5.295421e-32 -6.8585064e-32 -6.6170546e-32 -5.4067874e-32 6.098681e-32 -6.962386e-32 5.697343e-32
-7.3000627e-32 -5.475596e-32 -5.542652e-32 6.858972e-32 -5.4211736e-32 -6.874727e-32 -5.704703e-32 -5.486738e-32
-6.4712004e-32 -5.2685516e-32 -5.498151e-32 -5.44998e-32 -6.598717e-32 -7.1128875e-32 5.538783e-32 6.35372e-32
-5.172355e-32 -5.357756e-32 -5.551143e-32 -5.900919e-32 -5.8759607e-32 5.666835e-32 -6.968477e-32 5.555397e-32
5.400827e-32 -6.061002e-32 -5.248273e-32 -5.6795085e-32 5.8437245e-32 -5.6348227e-32 -6.457037e-32 -5.4467095e-32
-5.1738044e-32 -5.708219e-32 -5.524454e-32 -5.9171823e-32 -5.690239e-32 6.8847006e-32 5.414304e-32 -5.358153e-32
-6.700168e-32 -5.657926e-32 -7.1041007e-32 5.180426e-32 6.4613157e-32 -5.5428385e-32 -5.3934143e-32 5.388303e-32
7.299531e-32 -6.311943e-32 -5.310526e-32 5.5474035e-32 6.235997e-32 6.491606e-32 -5.457128e-32 -6.033615e-32
-5.241884e-32 -5.520739e-32 -6.798104e-32 -6.2812934e-32 -5.4091536e-32 -6.5559565e-32 5.471662e-32 -5.6798635e-32
5.695534e-32 -6.87167e-32 -5.6691724e-32 5.782181e-32 6.825769e-32 -6.2277785e-32 -5.5102144e-32 -5.277763e-32
-6.4490394e-32 -5.376703e-32 -5.369018e-32 -5.4890584e-32 -5.537436e-32 6.3894025e-32 -5.9590904e-32 -5.714195e-32
-5.3916975e-32 -5.628521e-32 -5.382984e-32 -5.3069526e-32 -5.238026e-32 -5.252608e-32 5.558827e-32 -5.32983e-32
-5.3750085e-32 -6.946337e-32 -5.4880046e-32 -5.993459e-32 -7.060519e-32 -5.6621676e-32 -5.492128e-32 -6.748806e-32
5.698054e-32 -5.609239e-32 -5.2955245e-32 5.5082613e-32 5.627965e-32 -7.112351e-32 5.447565e-32 -5.429447e-32
-5.741116e-32 -5.591792e-32 -5.496263e-32 -5.3089733e-32 -5.177165e-32 7.1883754e-32 -6.036583e-32 -5.19599e-32
-5.404578e-32 -5.515317e-32 -5.786043e-32 -5.71147e-32 5.490458e-32 -6.7100515e-32 -5.4636055e-32 -5.2365047e-32

arith.constant12 f4 [2]
00000000: a190 f9bc c1e2 80bd
-0.030464472 -0.0629325
