models/ana-cont/ana-cont_1700_s0.tflite (tflite, 694256 bytes, 22 tensors)

arith.constant f4 [128]
-0.3035369 -0.38731933 -0.124065936 -0.37278533 -0.13317907 -0.42466763 -0.4348617 -0.4131903
-0.2850203 -0.10938087 -0.3732184 -0.39026272 -0.4089732 -0.28232697 -0.34902936 -0.5032725
-0.0072127203 -0.33091545 -0.31612203 -0.44406497 -0.07713035 0.016077062 -0.14758833 -0.41832644
-0.35968575 -0.4034302 -0.17535302 -0.4374212 -0.14398389 -0.24888659 -0.1516594 -0.31487778
-0.18180999 -0.48338103 -0.50626695 -0.3859316 -0.2863052 -0.18270873 -0.21586058 -0.24566719
-0.2923383 -0.5130888 -0.32388046 -0.36466545 -0.12992059 -0.27028883 -0.7554874 -0.3519073
-0.38032562 -0.35432556 -0.032695644 -0.45484525 -0.35621363 -0.13617064 -0.062963754 -0.23865163
-0.08738747 -0.13364007 -0.34335998 -0.44516194 -0.36346722 -0.38250872 -0.41336712 -0.32365966
-0.13643749 -0.3298565 -0.25367215 -0.0791157 -0.33694854 -0.3593541 -0.5900927 -0.27021265
-0.36777353 -0.2702674 -0.34547886 -0.27805462 -0.31995443 -0.43886885 -0.3849878 -0.24274771
0.121417396 -0.20343909 -0.44261825 -0.52674365 -0.14113347 -0.26966664 -0.20179626 -0.28463358
-0.110133864 -0.06677174 -0.23528165 -0.26736572 -0.21664149 -0.2273996 -0.34840432 -0.30542383
-0.19822088 -0.26507685 -0.3138041 -0.41815352 -0.46389374 -0.35199556 -0.2614572 -0.08658553
-0.22900413 -0.5324164 -0.0858018 -0.2507028 -0.34324914 -0.32502854 -0.29242 -0.31519789
-0.35094595 -0.31603563 -0.6246061 -0.29782408 -0.38982213 -0.334103 -0.33609375 -0.23754017
-0.5259012 -0.5804061 -0.33326223 -0.22188395 -0.5922262 -0.23603481 -0.32289454 -0.5536875
00000000: 3069 9bbe b84e c6be 4816 febd b8dd bebe
00000010: 1860 08be 096e d9be 31a6 debe ae8d d3be
00000020: 2eee 91be 1403 e0bd 7b16 bfbe 84d0 c7be
00000030: ef64 d1be 298d 90be fab3 b2be 77d6 00bf
00000040: af58 ecbb c06d a9be bfda a1be 7c5c e3be
00000050: 84f6 9dbd 0bb4 833c 6521 17be e22e d6be
00000060: bb28 b8be 678e cebe be8f 33be acf5 dfbe
00000070: 8370 13be 20dc 7ebe 9a4c 1bbe a937 a1be
00000080: 662c 3abe b87d f7be b69a 01bf d498 c5be
00000090: 9896 92be ff17 3bbe 8e0a 5dbe 2e90 7bbe
000000a0: 5ead 95be ca59 03bf a9d3 a5be 6eb5 babe
000000b0: e709 05be 4c63 8abe 9f67 41bf 322d b4be
000000c0: 0aba c2be 296a b5be deeb 05bd 7ae1 e8be
000000d0: a261 b6be 5170 0bbe 24f3 80bd 1861 74be
000000e0: 34f8 b2bd f1d8 08be e1cc afbe 44ec e3be
000000f0: 6018 babe 2fd8 c3be dba4 d3be b8b6 a5be
00000100: 45b6 0bbe f3e2 a8be 51e1 81be 6a07 a2bd
00000110: 8584 acbe 43fd b7be 5110 17bf 5059 8abe
00000120: d04c bcbe 7d60 8abe 9be2 b0be 2d5d 8ebe
00000130: 11d1 a3be 6bb3 e0be 1f1d c5be db92 78be
00000140: afa9 f83d 5652 50be dc9e e2be acd8 06bf
00000150: 4b85 10be bf11 8abe aea3 4ebe 7ebb 91be
00000160: dd8d e1bd 9fbf 88bd aced 70be 29e4 88be
00000170: 44d7 5dbe 71db 68be 0d62 b2be 8360 9cbe
00000180: 6afa 4abe 27b8 87be eeaa a0be 3818 d6be
00000190: 7b83 edbe c338 b4be b8dd 85be c153 b1bd
000001a0: 0f80 6abe 714c 08bf dbb8 afbd 1e5c 80be
000001b0: 5abe afbe 246a a6be 13b8 95be 9e61 a1be
000001c0: 30af b3be 6ccf a1be 2fe6 1fbf 667c 98be
000001d0: c496 c7be 8c0f abbe 7b14 acbe bb3d 73be
000001e0: 76a1 06bf 7f95 14bf 59a1 aabe 8c35 63be
000001f0: 239c 17bf 1cb3 71be 6f52 a5be 77be 0dbf

arith.constant1 f4 [64]
-0.27527514 -0.23432545 -0.368586 -0.11309411 -0.19136775 -0.12712109 -0.057693563 -0.23926628
-0.28989094 -0.20155603 -0.41957667 -0.30986142 -0.32539642 -0.28585303 -0.22387913 -0.17885868
0.026115267 -0.21847187 -0.32657743 -0.24689025 -0.22390075 -0.34846646 -0.54059213 -0.33994249
-0.028192565 -0.07814067 -0.07894135 -0.27014875 -0.2852266 -0.5815707 -0.15039521 -0.22571361
-0.30924693 -0.352019 -0.18352817 -0.15668586 -0.2728161 -0.37932026 -0.46315393 -0.31432557
-0.06282079 -0.27839243 -0.1751855 -0.4120465 -0.7161495 -0.32904926 -0.19907555 -0.25644767
-0.3380536 -0.3756203 -0.1377619 -0.340268 -0.19861227 -0.26069412 -0.42527223 -0.3448044
-0.16261064 -0.32243738 -0.2866361 -0.39516494 -0.2895494 -0.42469534 -0.075365745 -0.27435344
00000000: ddf0 8cbe 03f3 6fbe 4eb7 bcbe e29d e7bd
00000010: e8f5 43be 082c 02be 1650 6cbd 3802 75be
00000020: 966c 94be b464 4ebe c1d2 d6be 28a6 9ebe
00000030: 5c9a a6be 545b 92be 9240 65be bb26 37be
00000040: afef d53c 17b7 5fbe 2835 a7be ccd0 7cbe
00000050: 3d46 65be 326a b2be 3f64 0abf f10c aebe
00000060: 18f4 e6bc 3708 a0bd 01ac a1bd f050 8abe
00000070: 3909 92be d1e1 14bf 3401 1abe 7821 67be
00000080: 9d55 9ebe d63b b4be cfee 3bbe 4272 20be
00000090: 8dae 8bbe 4436 c2be 8322 edbe 48ef a0be
000000a0: 30a8 80bd 7489 8ebe d463 33be c2f7 d2be
000000b0: 9355 37bf 2579 a8be 76da 4bbe 1c4d 83be
000000c0: 5d15 adbe 4e51 c0be 7511 0dbe 9b37 aebe
000000d0: 0461 4bbe b379 85be 48bd d9be 348a b0be
000000e0: 6783 26be 8316 a5be f8c1 92be 0f53 cabe
000000f0: d23f 94be ab71 d9be 5b59 9abd 0e78 8cbe

arith.constant2 f4 [32]
0.043479543 -0.3636296 -0.059747785 -0.2849452 0.22821543 -0.19567806 -0.24243313 -0.4616675
0.110565804 -0.30041775 -0.071245015 -0.23710522 -0.33503863 -0.093503855 0.17604275 -0.24613495
-0.2790156 -0.06892965 -0.103661515 -0.062150422 0.06625677 0.205281 -0.20092727 -0.065215014
0.060627274 -0.04861972 -0.21351926 -0.00068989623 -0.12962973 -0.6609259 -0.28298432 -0.18316461
00000000: 9b17 323d a92d babe 18ba 74bd 56e4 91be
00000010: 4eb1 693e d45f 48be 6440 78be af5f ecbe
00000020: 5370 e23d 5bd0 99be e8e8 91bd b6cb 72be
00000030: 2f8a abbe f37e bfbd 8d44 343e cd0a 7cbe
00000040: 22db 8ebe fd2a 8dbd 7d4c d4bd 7191 7ebd
00000050: a1b1 873d 2f35 523e e1bf 4dbe 738f 85bd
00000060: 4e54 783d 7925 47bd cba4 5abe 27da 34ba
00000070: a8bd 04be 7132 29bf 52e3 90be 818f 3bbe

arith.constant3 f4 [16]
0.48901165 0.34140345 0.23957555 0.088601366 0.4839969 0.43443227 -0.0018773149 0.42548278
0.47191006 0.40089282 -0.11773017 -0.15187138 0.23316455 -0.35361144 -0.15901126 0.14948557
00000000: bc5f fa3e 6fcc ae3e 4b53 753e a274 b53d
00000010: 71ce f73e e86d de3e 3c10 f6ba e1d8 d93e
00000020: 329e f13e d341 cd3e 841c f1bd 2c84 1bbe
00000030: b0c2 6e3e 8f0c b5be d9d3 22be bf12 193e

arith.constant4 f4 [128, 512]
-0.0036067504 0.0015352229 -0.0011289997 -0.0057676644 0.00590068 1.9368596e-09 0.0004958576 -0.0038060928
0.0034425475 -0.0011416738 0.004728072 0.0021921778 0.0064464514 -0.0071326145 0.010891356 0.0013915873
-0.00079338765 -0.0034416832 3.41751e-05 0.00045920556 -0.001701093 0.005122063 -0.00049040624 0.0007088072
-0.0007468548 -0.0012473909 -0.00064338767 -0.00039602147 0.00035476842 -4.5134121e-10 -0.0001585414 -0.0032561147
0.006544787 0.0026325344 0.0053268997 0.0002242619 -0.0003323822 0.00034821694 -0.0016103354 -0.00081312243
-0.0045549073 0.004711132 -0.0068895016 0.0026569017 0.0035240517 -0.004700106 -0.0032084866 -0.008577893
0.0033460404 -0.0035426985 2.3180633e-08 -4.4224504e-05 -0.0024295272 -0.0005405686 0.00024025273 -0.001472236
-0.016859865 -0.009004351 0.004931321 0.00035320647 -0.0010860716 0.003929554 0.00037204032 -0.0016054121
0.0029994396 -0.0014499727 -0.010596687 -4.7425725e-05 0.00076751865 0.00062866276 -0.0012762679 -0.0020520808
0.005102195 -0.00840255 -0.010637419 4.41451e-05 -1.3234051e-06 0.0027397925 0.001567226 0.0018146157
0.0006105503 0.00023070023 0.019834768 -0.00011858202 -0.0025336945 -0.0043334085 -0.010002859 -0.0010201524
-0.00620921 -0.00023550823 0.0065842615 0.0042654173 0.0005892196 0.0057708193 -1.5142001e-05 -0.006942266
0.0042756605 -0.0038923582 -0.005000017 -0.002715483 0.002477334 0.0061425017 -0.013031277 0.0018098878
-0.0021683597 0.0023267667 -0.003125024 -0.0013316534 0.005059778 0.003759209 -0.00065957976 -0.0023232214
0.0042813136 -0.002846001 0.010217163 -0.00032555498 0.0040285983 -0.003833099 0.008560141 0.0009165529
-0.0040244972 -0.003255763 -0.0048444695 0.004430007 -0.0025143086 -6.678861e-06 0.015636602 -0.0041584033
0.0124754235 0.00044068482 -0.003500539 -0.0015389724 0.0029934405 0.0009116565 -9.123962e-05 -0.0047945287
0.000417503 -4.2010288e-05 0.0021751665 0.00025972023 0.021164354 0.0014397228 0.00045626814 -0.0031038502
0.00036324037 0.001664435 0.0032016803 -0.004017207 -0.001034316 0.0022480737 0.001243592 9.224584e-05
-0.0017368937 0.008084438 -0.0019721398 0.003788104 0.005170859 0.0029804532 0.0021881333 0.0038469504
-0.0031166514 -1.9092158e-11 -6.743478e-05 -0.0046507786 -1.1802719e-09 -9.127653e-05 -0.0014787182 -0.0037776872
0.004012755 -0.0051331054 0.0065924535 -0.0036237894 0.00014353322 -0.00030079618 0.0006503172 -0.0023559576
0.0057971035 -0.00021924764 0.0038369123 0.00036708423 0.0009731518 0.0032329152 -0.0005772368 -0.00022717478
-0.0017445829 0.00020556088 -9.126328e-05 0.016179375 0.00062753 -0.0043436345 -0.0017330663 -0.0014116443
4.9980663e-05 0.0002483877 0.002709265 -0.001039232 -0.0012921933 0.007071112 -0.0056576314 0.013174995
-0.00018650996 0.0024120335 -1.5000199e-09 -5.1423203e-06 0.024417086 0.0004823967 -0.0045309355 0.00061177154
0.00042107832 0.008605461 -0.008841054 0.0028186813 0.004442551 -0.0004780387 0.00011621014 0.003068717
0.00051726616 0.004033805 -0.0011965422 0.004526378 0.0026590012 -0.005181058 -0.001884793 0.00034462684
-0.011122952 -0.0027426179 -0.0010451862 -0.0004292382 -0.0046468116 -0.00037249803 -6.846801e-05 -0.0002939578
-0.006636059 -0.0037808362 -0.006389904 0.0027855544 -0.010767578 0.00070926914 -0.0005242619 0.002178543
-0.001962496 0.0016702756 0.0044830237 -0.003024302 0.008766145 2.6534179e-05 -0.00075834215 0.0018551435
-0.0013949943 -2.4375653e-05 0.0054187407 0.0076107834 -0.0022165908 0.0023260778 -0.004005966 -0.007243346
00000000: 3b5f 6cbb 8839 c93a f2fa 93ba adfe bcbb
00000010: 7e5a c13b 9819 0531 71fc 013a a46f 79bb
00000020: 5d9c 613b 37a4 95ba f1ed 9a3b a4aa 0f3b
00000030: c13c d33b b5b8 e9bb a871 323c ec65 b63a
00000040: 58fb 4fba dd8d 61bb 3c57 0f38 87c1 f039
00000050: 36f7 deba fbd6 a73b 9b8e 00ba 3fcf 393a
00000060: 94c8 43ba 7e7f a3ba 04a9 28ba 1aa1 cfb9
00000070: 3600 ba39 a120 f8af 223e 26b9 8a64 55bb
00000080: a775 d63b 9986 2c3b 468d ae3b d827 6b39
00000090: 9543 aeb9 e390 b639 e411 d3ba b927 55ba
000000a0: 5541 95bb d75f 9a3b 54c1 e1bb 6a1f 2e3b
000000b0: c7f3 663b 5903 9abb 7945 52bb 4a8a 0cbc
000000c0: 3e49 5b3b 9e2c 68bb c01e c732 b37d 39b8
000000d0: b438 1fbb f2b4 0dba 5aec 7b39 0bf8 c0ba
000000e0: b31d 8abc fc86 13bc eb96 a13b 922e b939
000000f0: 845a 8eba 7dc3 803b 680e c339 b16c d2ba
00000100: 3f92 443b 030d beba ba9d 2dbc fcea 46b8
00000110: 4e33 493a d8cc 243a 7248 a7ba 347c 06bb
00000120: 5030 a73b d9aa 09bc 9248 2ebc 7128 3938
00000130: da9f b1b5 178e 333b 616b cd3a 66d8 ed3a
00000140: 560d 203a 1fe8 7139 867c a23c 3daf f8b8
00000150: 570c 26bb 44ff 8dbb 08e3 23bc a2b6 85ba
00000160: a176 cbbb c2f2 76b9 cac0 d73b eac4 8b3b
00000170: dc75 1a3a 2419 bd3b 660a 7eb7 f37b e3bb
00000180: d71a 8c3b ef16 7fbb 2fd7 a3bb 3ff6 31bb
00000190: c55a 223b 0a47 c93b 2381 55bc c239 ed3a
000001a0: 0a1b 0ebb ab7c 183b 34cd 4cbb e08a aeba
000001b0: 7fcc a53b 105d 763b a6e7 2cba 3041 18bb
000001c0: 434a 8c3b f983 3abb e365 273c 40af aab9
000001d0: 5502 843b bb34 7bbb d53f 0c3c d344 703a
000001e0: eedf 83bb a45e 55bb 5bbe 9ebb 9829 913b
000001f0: 19c7 24bb fb1a e0b6 5518 803c 3743 88bb
00000200: b865 4c3c b70b e739 4d69 65bb 58b7 c9ba
00000210: 992d 443b 3bfc 6e3a e657 bfb8 6c1b 9dbb
00000220: 4ee4 da39 3434 30b8 3d8d 0e3b 0f2b 8839
00000230: de60 ad3c 15b5 bc3a 4637 ef39 f769 4bbb
00000240: 4c71 be39 2c29 da3a 48d3 513b c6a2 83bb
00000250: e391 87ba 6b54 133b 0600 a33a 1c74 c138
00000260: 7ba8 e3ba 9774 043c 043f 01bb d741 783b
00000270: 4f70 a93b b553 433b c966 0f3b 1e1d 7c3b
00000280: bc40 4cbb b8ef a7ad c66b 8db8 8f65 98bb
00000290: 2037 a2b0 b76b bfb8 8dd1 c1ba 1393 77bb
000002a0: 6e7d 833b 9c33 a8bb 8205 d83b 197d 6dbb
000002b0: 6881 1639 2eb4 9db9 0c7a 2a3a 6966 1abb
000002c0: a1f5 bd3b d7e5 65b9 b574 7b3b 3675 c039
000002d0: 1d1b 7f3a 51df 533b b551 17ba c435 6eb9
000002e0: 7daa e4ba d48b 5739 9a64 bfb8 9c8a 843c
000002f0: d380 243a 0c55 8ebb 0e28 e3ba ec06 b9ba
00000300: 54a2 5138 083a 8239 ed8d 313b d736 88ba
00000310: d05e a9ba c9b4 e73b a763 b9bb efdb 573c
00000320: e391 43b9 3513 1e3b 4229 ceb0 328c acb6
00000330: 5706 c83c 30ea fc39 3e78 94bb 4b5f 203a
00000340: 2dc4 dc39 ebfd 0c3c 11da 10bc a0b9 383b
00000350: d292 913b 45a1 fab9 d8b5 f338 871c 493b
00000360: 2599 073a 022e 843b 4bd5 9cba 0352 943b
00000370: a342 2e3b ddc5 a9bb 290b f7ba 08af b439
00000380: 0b3d 36bc 7ebd 33bb a1fe 88ba 600b e1b9
00000390: 4844 98bb d74b c3b9 7c96 8fb8 591e 9ab9
000003a0: 4c73 d9bb e8c7 77bb 6662 d1bb d98d 363b
000003b0: 7f6a 30bc 3fee 393a 9f6e 09ba e3c5 0e3b
000003c0: 389d 00bb 26ed da3a 54e6 923b 5e33 46bb
000003d0: e19f 0f3c b795 de37 7bcb 46ba 4928 f33a
000003e0: 3ed8 b6ba 517a ccb7 b18f b13b e163 f93b
000003f0: 3944 11bb 1c71 183b 7a44 83bb 9759 edbb

arith.constant5 f4 [128]
0.292558 0.27398834 0.07794001 -0.098207965 0.39273983 0.11742101 0.11115204 0.4229494
0.4346479 0.24545087 -0.5268603 0.14960499 0.122940235 -0.24700256 0.3836383 -0.49595863
0.03376858 0.13682695 -0.42585137 0.1064575 0.75560707 -0.059835896 -0.029044626 0.15189026
-0.27752918 -0.13225357 0.36735108 -0.55747116 0.09396693 0.5588434 -0.28151008 -0.023688737
0.37851962 0.45421183 0.46461582 0.27046815 0.13444912 0.11736215 -0.1747657 0.0440581
-0.24664472 0.44201514 0.49582705 0.029679716 0.34512487 0.25761065 0.5156715 0.03308819
0.4149885 -0.32740575 0.7499123 0.05513544 -0.29974884 -0.384823 0.06050823 0.24601598
-0.69087595 -0.5397372 0.6276994 0.22031252 0.3265235 0.0049316003 0.13270967 0.40959606
0.00096690253 0.11974984 -0.30920666 0.4298846 0.5665809 0.14548388 -0.27009806 0.6924501
0.47717232 -0.23507138 0.22761059 0.024182111 0.528462 0.27609006 -0.36009455 0.67863756
0.5117129 -0.18499267 -0.12085324 0.6970562 0.3102615 0.31755373 0.26394907 -0.45907903
0.03404816 -0.021402782 0.33633295 -0.0013248158 0.18353014 0.0005656426 0.050635736 -0.24217004
0.21512587 0.04260635 0.09270892 0.5718668 0.31355804 0.25488073 -0.092094794 0.1508418
0.10194697 0.45401728 0.110630855 0.53527665 0.09870421 0.62722284 0.1970809 -0.115929484
0.39474934 0.35293707 0.5238732 0.27877814 -0.4383067 0.5210392 -0.2333743 -0.5245204
0.6559168 -0.3338887 0.449878 0.97040856 0.6492965 0.29537296 0.06837602 -0.39595917
00000000: 2aca 953e 3348 8c3e 039f 9f3d 4221 c9bd
00000010: 3215 c93e 6d7a f03d aea3 e33d d38c d83e
00000020: 2b8a de3e 7957 7b3e 51e0 06bf 0d32 193e
00000030: 17c8 fb3d 3dee 7cbe 3d6c c43e 4aee fdbe
00000040: ec50 0a3d 5d1c 0c3e 3109 dabe 6406 da3d
00000050: 776f 413f 7c16 75bd ffee edbc 1f89 1b3e
00000060: 4e18 8ebe 7b6d 07be 7115 bc3e 6eb6 0ebf
00000070: bc71 c03d 5c10 0f3f 1722 90be e20e c2bc
00000080: 53cd c13e 748e e83e 20e2 ed3e cd7a 8a3e
00000090: 08ad 093e 915b f03d c8f5 32be 4476 343d
000000a0: 6f90 7cbe cf4f e23e 0bdd fd3e e022 f33c
000000b0: 35b4 b03e 8be5 833e 0c03 043f 7b87 073d
000000c0: 5f79 d43e baa1 a7be 41fa 3f3f b3d5 613d
000000d0: ae78 99be 8507 c5be 7ad7 773d 9deb 7b3e
000000e0: 3fdd 30bf 382c 0abf e8b0 203f 9b99 613e
000000f0: 172e a73e 4399 a13b 0be5 073e 93b6 d13e
00000100: bb77 7d3a 673f f53d 5650 9ebe d619 dc3e
00000110: 720b 113f baf9 143e 4b4a 8abe 6944 313f
00000120: ee4f f43e 8db6 70be c012 693e 9019 c63c
00000130: 4949 073f ad5b 8d3e 505e b8be 31bb 2d3f
00000140: 9eff 023f b86e 3dbe e781 f7bd 4672 323f
00000150: 98da 9e3e 6796 a23e 5524 873e 680c ebbe
00000160: 1576 0b3d e354 afbc d533 ac3e 71a5 adba
00000170: 53ef 3b3e a247 143a 6b67 4f3d 6cfb 77be
00000180: f549 5c3e ff83 2e3d 2dde bd3d dd65 123f
00000190: ae8a a03e ba7f 823e 329c bcbd 4676 1a3e
000001a0: 93c9 d03d f474 e83e 6e92 e23d e407 093f
000001b0: 6f25 ca3d ad91 203f 93cf 493e 706c edbd
000001c0: 961c ca3e 2bb4 b43e 8e1c 063f 02bc 8e3e
000001d0: bc69 e0be d362 053f acf9 6ebe f846 06bf
000001e0: 2aea 273f 76f3 aabe 6956 e63e b26c 783f
000001f0: 4c38 263f 203b 973e ba08 8c3d 29bb cabe

arith.constant6 f4 [128, 3, 3, 64]
-0.18268289 -0.13932276 0.13764802 -0.1361231 -0.088956 -0.10260582 0.26254407 -0.047940053
0.006376095 0.1493423 0.06434292 0.17239963 -0.017655088 -0.16463663 -0.17258951 -0.21832426
0.07422228 -0.18014476 0.045120176 0.056132276 0.044924155 -0.11323905 -0.024878008 -0.26424912
0.23361318 -0.21019441 0.18912698 -0.17714895 -0.07389567 0.10147623 0.0068763187 0.10425496
0.046709843 -0.02895277 -0.11587076 0.004051488 0.12969805 0.035132416 -0.08748566 -0.060576968
-0.07779718 0.03408324 0.009707238 0.0405488 -0.1754011 -0.049009584 0.08303783 0.07660325
-0.30785283 0.0061123515 0.0869643 0.36439168 0.031339962 -0.082520604 0.14752173 0.012180134
-0.12141934 -0.029019013 0.030948548 0.057901602 0.047211315 0.11291845 -0.0015078759 0.0052520516
-0.084969945 0.25324422 -0.04387184 -0.051616132 0.23735595 -0.00576234 0.016511051 -0.15371293
-0.1427813 0.21808042 0.029425284 0.16858917 -0.042603962 0.01359083 0.058507454 -0.04216888
0.19744991 -0.10617991 0.17177759 -0.052853864 0.03156602 0.0011575456 -0.31303293 0.054125268
0.04277408 -0.05278932 -0.0389073 -0.2062792 0.06337753 -0.03063127 -0.14423768 -0.2060483
0.06228912 0.056076217 -0.10521165 0.13012311 -0.14373378 -0.26607934 -0.1730977 0.10309952
0.018455865 0.12898915 -0.20247564 0.18419011 -0.083772406 -0.0044875974 -0.3323611 -0.14317878
-0.1472201 -0.1161816 -0.21616066 -0.019505765 0.13262917 0.059356693 -0.12111777 0.1334843
-0.28693703 0.029704588 0.020364644 0.11421471 -0.20114915 0.10646109 -0.1681737 0.038387526
0.10499221 0.15043199 -0.102306895 0.0751479 -0.054822817 -0.17576589 -0.1535963 0.048045028
0.13839339 -0.03233286 0.056197442 -0.14432973 0.16960175 -0.073411815 0.17375842 0.14740561
-0.1260028 0.051515408 0.0058695 -0.040144484 0.1618045 0.10524 0.015242087 0.046888467
0.015191263 -0.06375117 0.12179169 0.1033094 -0.05000976 -0.0024566012 0.169149 0.14551647
-0.23515177 0.070639364 0.11563674 -0.011574367 0.124974266 -0.0011054615 -0.20836726 0.22239627
0.17831506 0.13891947 -0.03907639 -0.30485755 -0.23369181 0.095459044 -0.0830395 -0.12187455
0.06856905 0.045031704 0.08967457 0.060352705 0.12108567 -0.05496712 -0.07216199 -0.07108676
0.068890594 0.026515314 0.083017774 -0.12466294 -0.35771278 0.16553935 -0.2367785 -0.0040899343
0.10030873 -0.09391018 -0.04370442 -0.11648749 0.09085363 0.076583326 0.050731204 0.059721123
0.09011279 -0.066598244 -0.18995038 -0.020955268 0.0050923773 -0.093250446 0.060519066 0.08215332
-0.0015658617 0.21120945 -0.15034844 0.03528435 0.046196673 -0.15544318 0.10260102 -0.16286577
0.10281569 -0.2814498 0.15243661 -0.07987099 -0.19728376 0.03532098 0.218494 0.1682609
0.15373196 -0.15777445 -0.054165415 0.20669213 0.07973627 0.20418732 0.017557297 0.25689882
0.02103164 0.120769516 0.108442605 0.07638024 -0.098546185 -0.026746232 0.25138462 -0.11747626
-0.14303514 0.11522999 0.020453399 0.2796573 0.029367367 0.008885238 0.12602584 0.20496887
0.29148567 0.2427544 0.18362296 0.081273414 0.1513237 -0.0830642 0.06152123 0.17270687
00000000: 3911 3bbe a0aa 0ebe 9af3 0c3e db63 0bbe
00000010: 902e b6bd 0023 d2bd 2d6c 863e ca5c 44bd
00000020: 90ee d03b 30ed 183e 39c6 833d 8789 303e
00000030: 67a1 90bc 8196 28be 4ebb 30be 6590 5fbe
00000040: da01 983d de77 38be efcf 383d f5ea 653d
00000050: 6402 383d e0e9 e7bd f7cc cbbc a94b 87be
00000060: 4b38 6f3e 343d 57be 81aa 413e 8966 35be
00000070: 9d56 97bd c5d2 cf3d be52 e13b a083 d53d
00000080: d252 3f3d 5c2e edbc a64d edbd 58c2 843b
00000090: 91cf 043e 02e7 0f3d af2b b3bd 8e1f 78bd
000000a0: 2154 9fbd de9a 0b3d 1b0b 1f3c 8016 263d
000000b0: 599c 33be 46be 48bd bd0f aa3d 2ae2 9c3d
000000c0: e39e 9dbe 1f4a c83b 571a b23d 8c91 ba3e
000000d0: 555e 003d 9000 a9bd f00f 173e 2f8f 473c
000000e0: b4aa f8bd 48b9 edbc cf87 fd3c 3b2a 6d3d
000000f0: a760 413d ca41 e73d eba3 c5ba 6719 ac3b
00000100: b904 aebd 3aa9 813e f5b2 33bd 706b 53bd
00000110: 700d 733e 03d2 bcbb 2f42 873c ec66 1dbe
00000120: 4335 12be 7950 5f3e 4b0d f13c a4a2 2c3e
00000130: 7e81 2ebd 13ac 5e3c 83a5 6f3d 47b9 2cbd
00000140: 4f30 4a3e da74 d9bd 77e6 2f3e 4b7d 58bd
00000150: 5f4b 013d c9b8 973a da45 a0be 75b2 5d3d
00000160: e033 2f3d 9d39 58bd 435d 1fbd db3a 53be
00000170: 14cc 813d 6eee fabc 0bb3 13be 53fe 52be
00000180: e022 7f3d 2db0 653d 3579 d7bd fe3e 053e
00000190: f32e 13be 8d3b 88be 8640 31be d725 d33d
000001a0: c130 973c bb15 043e c655 4fbe 559c 3c3e
000001b0: de90 abbd b20c 93bb 3c2b aabe 759d 12be
000001c0: dec0 16be 9ef0 edbd 3859 5dbe 8eca 9fbc
000001d0: f1cf 073e 0120 733d 980c f8bd 1cb0 083e
000001e0: 69e9 92be 0957 f33c c1d3 a63c 67e9 e93d
000001f0: 0bfa 4dbe 4608 da3d ba35 2cbe 3d3c 1d3d
00000200: 2806 d73d d80a 1a3e 4786 d1bd 24e7 993d
00000210: e48d 60bd f9fb 33be 5948 1dbe ddca 443d
00000220: ffb6 0d3e 766f 04bd 4a2f 663d 2ccb 13be
00000230: 15ac 2d3e ef58 96bd baed 313e 7ff1 163e
00000240: e106 01be d201 533d ef54 c03b 8b6e 24bd
00000250: 14b0 253e 1288 d73d f2b9 793c 1f0e 403d
00000260: c6e4 783c f98f 82bd ec6d f93d e193 d33d
00000270: 09d7 4cbd eefe 20bb 6535 2d3e 4502 153e
00000280: a0cb 70be 5fab 903d f5d2 ec3d 6aa2 3dbc
00000290: 82f2 ff3d 22e5 90ba 3a5e 55be d9bb 633e
000002a0: 3998 363e e840 0e3e 910e 20bd 4a16 9cbe
000002b0: e84c 6fbe 0880 c33d 9d10 aabd 5d99 f9bd
000002c0: ee6d 8c3d 2a73 383d 4da7 b73d 6634 773d
000002d0: c4fb f73d 3425 61bd aac9 93bd ef95 91bd
000002e0: 8316 8d3d a536 d93c 3905 aa3d 494f ffbd
000002f0: 2126 b7be 2683 293e 1076 72be db04 86bb
00000300: aa6e cd3d fb53 c0bd 6803 33bd fe90 eebd
00000310: 7811 ba3d b8d7 9c3d 86cb 4f3d 239e 743d
00000320: 0e8d b83d a964 88bd 5a82 42be 62aa abbc
00000330: f5dd a63b 17fa bebd d7e2 773d 0040 a83d
00000340: 9a3d cdba 4a47 583e f1f4 19be 5386 103d
00000350: b938 3d3d 7f2c 1fbe 7c20 d23d 49c6 26be
00000360: 0891 d23d 301a 90be 5818 1c3e 6793 a3bd
00000370: c104 4abe bbac 103d e4bc 5f3e 964c 2c3e
00000380: e96b 1d3e a08f 21be 8edc 5dbd 1aa7 533e
00000390: c54c a33d 7b16 513e 52d4 8f3c 3e88 833e
000003a0: 8c4a ac3c 0256 f73d 2817 de3d 3e6d 9c3d
000003b0: 95d2 c9bd ea1a dbbc 7cb5 803e 6597 f0bd
000003c0: ce77 12be b3fd eb3d e38d a73c 3e2f 8f3e
000003d0: d593 f03c 6493 113c eb0c 013e 5ce3 513e
000003e0: 9c3d 953e 9c94 783e a807 3c3e ad72 a63d
000003f0: 9af4 1a3e 901d aabd affd 7b3d 12da 303e

arith.constant7 f4 [64, 3, 3, 32]
-0.13924035 -0.049173128 -0.33978355 0.15712136 0.14559433 0.13436621 -0.076900154 0.078474395
-0.01848519 -0.056901217 0.20565812 0.08789316 0.08659342 0.14178868 0.013929363 -0.035431277
0.35155398 -0.07040344 0.29082218 -0.11030669 0.127041 0.097040236 0.13724983 0.031842943
-0.0176359 -0.2778837 0.09897412 -0.038276877 0.32823652 -0.21463035 0.23180693 -0.037853085
0.06732279 -0.0723077 -0.037233934 -0.082983926 -0.11921927 -0.0076684756 0.09345892 -0.015551146
0.10902873 -0.0012920118 0.0583868 -0.065557785 0.14090344 0.00018950156 -0.2001135 0.22714487
0.07982934 -0.028096545 0.06161478 0.048790094 -0.047725596 -0.030569486 0.17863211 -0.04536086
-0.01827179 -0.017803732 -0.20152396 0.15412313 -0.020761754 -0.24845797 -0.089015186 -0.024506355
-0.028361565 0.051609814 0.07174475 -0.00014631922 -0.022986142 -0.025541032 -0.15239233 -0.30581114
-0.16525975 0.055926595 -0.2314867 0.004960126 -0.15658937 -0.13228042 -0.02512637 -0.09581438
-0.38882986 -0.25819972 -0.31704786 -0.11492639 -0.11218567 -0.21953869 -0.021891931 -0.15298557
-0.29740664 -0.06183208 -0.18944393 0.16411145 0.0012153221 -0.3341249 0.015445996 -0.02908062
-0.1666492 -0.040366177 0.07926951 0.3072885 0.12098772 0.2230599 0.10643353 0.06335232
0.10320183 0.13893485 -0.08177002 0.079418585 -0.1519657 0.18723325 0.059483066 0.062815584
0.12525842 -0.10020851 0.10812551 0.28267574 0.013896753 0.048259836 -0.048682027 0.082637616
-0.059882555 -0.0153224785 0.2828891 0.27329797 0.087824635 -0.27883592 0.16442806 -0.16323118
-0.04352837 -0.17492466 0.012516697 -0.07684317 0.16841057 -0.12077599 -0.14455673 -0.081457436
-0.18504979 0.0053392667 0.23622389 -0.22990307 -0.053424843 -0.025762442 0.04369164 0.00041744887
0.18932836 -0.34602982 0.20167069 0.064456545 0.09536869 -0.08427601 0.028983124 -0.052955426
0.063067235 0.0069324616 -0.123077415 -0.03992134 0.20678209 -0.15140936 0.031079305 -0.052587517
0.14287552 0.0420159 0.2666371 -0.15707709 -0.21976086 -0.11197964 -0.173521 -0.23718236
0.030285671 0.08135788 0.01982385 0.08339457 0.04044479 -0.29726425 -0.097087435 -0.17586882
-0.111792974 -0.11854043 -0.2584689 -0.26493424 -0.036071643 -0.26728413 0.017737854 -0.16268991
-0.10455472 -0.051256146 -0.18084092 -0.041366983 -0.18985161 -0.26287735 -0.31008226 0.016015138
-0.059669323 0.060830068 0.019393181 0.0545441 -0.010739635 0.11741735 -0.19304588 -0.035729878
0.023148345 0.085582525 -0.064183705 0.20668863 -0.019111786 -0.06795002 0.043914832 -0.11494603
-0.14995265 -0.02838679 -0.17035383 0.047102857 -0.2682724 -0.06234399 -0.030336032 -0.026391577
-0.17102547 -0.14318116 0.24370392 0.075276665 -0.25899678 -0.21646005 0.12407122 0.015337829
-0.21772031 0.08773749 0.18849832 0.06495298 0.068218626 0.10220857 -0.30139178 -0.06763441
-0.13803382 -0.03185389 -0.09113535 -0.24446891 0.020625139 -0.0077283396 -0.26120666 -0.18581645
-0.033534132 -0.33689922 -0.06987572 0.0724532 -0.08925788 -0.0084836865 0.015265339 -0.049474455
-0.21291196 -0.022180405 -0.056445014 -0.009964012 -0.04275043 -0.1695126 -0.0660782 -0.034097984
00000000: 0695 0ebe c369 49bd 1cf8 adbe 6ce4 203e
00000010: ae16 153e 4c97 093e d47d 9dbd 2fb7 a03d
00000020: 416e 97bc 4011 69bd 0b98 523e 5401 b43d
00000030: e457 b13d 0d31 113e fc37 643c 6320 11bd
00000040: e2fe b33e ae2f 90bd a5e6 943e 79e8 e1bd
00000050: 0917 023e 08bd c63d 388b 0c3e bf6d 023d
00000060: 2a79 90bc c646 8ebe f2b2 ca3d 37c8 1cbd
00000070: 9e0e a83e 0fc8 5bbe cc5e 6d3e d60b 1bbd
00000080: 88e0 893d 0f16 94bd 9c82 18bd 7af3 a9bd
00000090: 3c29 f4bd d647 fbbb 6467 bf3d 3cca 7ebc
000000a0: 744a df3d b958 a9ba ff26 6f3d 2943 86bd
000000b0: fe48 103e f0b4 4639 8eea 4cbe aa98 683e
000000c0: 917d a33d ba2a e6bc c85f 7c3d 1fd8 473d
000000d0: ea7b 43bd dc6c fabc 56eb 363e 4fcc 39bd
000000e0: b9ae 95bc 22d9 91bc 4c5c 4ebe 74d2 1d3e
000000f0: 8e14 aabc c46b 7ebe 984d b6bd 8dc1 c8bc
00000100: 8356 e8bc d064 533d e9ee 923d 446d 19b9
00000110: 6f4d bcbc 6d3b d1bc bc0c 1cbe 4793 9cbe
00000120: da39 29be 4913 653d d90a 6dbe 8d88 a23b
00000130: f758 20be 8574 07be d1d5 cdbc 543a c4bd
00000140: b514 c7be c132 84be 1954 a2be 875e ebbd
00000150: 9ac1 e5bd c0ce 60be b556 b3bc 40a8 1cbe
00000160: af45 98be a343 7dbd 97fd 41be d50c 283e
00000170: 714b 9f3a 6b12 abbe 3411 7d3c 7b3a eebc
00000180: 16a6 2abe 0157 25bd 0e58 a23d eb54 9d3e
00000190: 69c8 f73d d069 643e d3f9 d93d dcbe 813d
000001a0: 7b5b d33d f044 0e3e 0a77 a7bd 36a6 a23d
000001b0: e59c 1bbe 13ba 3f3e 84a4 733d 75a5 803d
000001c0: be43 003e 1f3a cdbd e870 dd3d e0ba 903e
000001d0: 35af 633c 1bac 453d ce66 47bd e93d a93d
000001e0: 6947 75bd 220b 7bbc d7d6 903e b6ed 8b3e
000001f0: 67dd b33d 95c3 8ebe d45f 283e 1326 27be
00000200: ce4a 32bd 731f 33be d512 4d3c f45f 9dbd
00000210: d273 2c3e 6759 f7bd ae06 14be 28d3 a6bd
00000220: b17d 3dbe 04f5 ae3b ade4 713e b66b 6bbe
00000230: 02d4 5abd c20b d3bc 01f6 323d 0add da39
00000240: 4bdf 413e d22a b1be c382 4e3e cb01 843d
00000250: a950 c33d e798 acbd 046e ed3c cae7 58bd
00000260: 6529 813d b429 e33b 0310 fcbd 8f84 23bd
00000270: afbe 533e 0e0b 1bbe 079a fe3c 0266 57bd
00000280: f64d 123e dd18 2c3d a884 883e d1d8 20be
00000290: fe08 61be 9555 e5bd 7daf 31be efdf 72be
000002a0: a819 f83c f69e a63d a065 a23c c6ca aa3d
000002b0: 70a9 253d 0533 98be c7d5 c6bd f516 34be
000002c0: b7f3 e4bd 53c5 f2bd 0956 84be 76a5 87be
000002d0: dcbf 13bd 77d9 88be fa4e 913c 2f98 26be
000002e0: c920 d6bd f7f1 51bd 5d2e 39be 6d70 29bd
000002f0: 7668 42be dc97 86be 1ac3 9ebe 2e32 833c
00000300: d267 74bd f328 793d 73de 9e3c a269 5f3d
00000310: 4bf5 2fbc 8278 f03d d2ad 45be 7e59 12bd
00000320: 99a1 bd3c e445 af3d bf72 83bd 2fa6 533e
00000330: 5290 9cbc 6129 8bbd 0ae0 333d d368 ebbd
00000340: 308d 19be 6a8b e8bc 3c71 2ebe edee 403d
00000350: 005b 89be 695c 7fbd 4583 f8bc 2633 d8bc
00000360: 4d21 2fbe 159e 12be 858d 793e a72a 9a3d
00000370: 3a9b 84be b4a7 5dbe 0d19 fe3d 844b 7b3c
00000380: 13f2 5ebe b7af b33d b405 413e 1106 853d
00000390: 35b6 8b3d ba52 d13d 0650 9abe e983 8abd
000003a0: bd58 0dbe 3979 02bd 2ca5 babd 0f56 7abe
000003b0: 0df6 a83c 033e fdbb e1bc 85be ab46 3ebe
000003c0: 165b 09bd 0e7e acbe 001b 8fbd 5862 943d
000003d0: d6cc b6bd 29ff 0abc 791b 7a3c baa5 4abd
000003e0: 9805 5abe aeb3 b5bc e332 67bd 1840 23bc
000003f0: 131b 2fbd b694 2dbe 0254 87bd 54aa 0bbd

arith.constant8 f4 [32, 3, 3, 16]
-0.06578985 -0.03784827 -0.027002156 -0.080653794 -0.027145812 0.32155687 0.19956434 -0.25591317
-0.0021850506 -0.22790498 0.09925642 -0.34692302 0.0981005 -0.06669904 -0.03678641 0.088815376
0.045524906 0.017668698 -0.09948322 -0.21940017 0.04686007 -0.20554 0.14033681 0.20773089
0.0031832475 -0.06259103 0.014260968 -0.05638737 0.020958848 0.054641098 -0.08790802 -0.12989375
-0.41587538 0.03873038 -0.06632506 0.010316632 -0.04361196 -0.08978041 -0.13742833 -0.028985342
-0.033931963 -0.003157497 8.8810644e-05 0.066473044 -0.11198302 0.07796072 0.09922475 -0.2396934
-0.14598265 0.04383186 0.14927599 -0.09661879 -0.038206533 0.2035368 0.10453732 0.108024135
-0.20562446 -0.08179805 -0.028613713 -0.18171728 0.21631779 -0.11014145 -0.03848279 -0.015396588
-0.035622295 0.035470743 -0.110394545 0.018686946 -0.09123795 -0.41356683 0.003559302 0.17461066
-0.077736855 0.058814 -0.122222446 -0.122242756 -0.176975 0.16176344 -0.08996677 0.09471435
0.030063393 0.084620915 0.15339112 -0.10393698 -0.11244669 0.13715316 -0.21916921 -0.07824594
0.18819386 0.033692967 0.16537045 0.0778227 0.055761557 0.079108246 0.14399864 -0.011021055
-0.27827445 0.14508045 0.10585366 -0.098407246 -0.0552731 -0.22908026 0.0979601 0.026573174
-0.3379094 -0.099048264 -0.16144165 -0.20569888 0.031536072 0.0657327 -0.13026874 -0.012017424
-0.1336695 -0.14068797 0.03280516 -0.056513377 -0.040033415 -0.58961934 -0.24118398 0.026385978
-0.06991857 -0.08891813 -0.18417367 -0.010274667 -0.3623035 0.1457989 -0.006443894 -0.08141053
0.044816095 0.022247778 -0.14138174 -0.05663744 -0.13786426 0.06640429 -0.274608 -0.105578445
0.43242273 -0.1426042 0.10514436 0.1412471 -0.049819708 -0.021666592 -0.071227275 -0.08075888
-0.1707394 0.24320184 -0.06806508 0.11140921 -0.29698882 -0.26499996 0.07286509 0.18529755
0.09052346 0.1865188 0.2952029 0.21356054 -0.105416484 0.12936085 0.019390682 -0.22072846
-0.01155064 0.058148254 0.1345536 0.16941041 -0.05067507 0.22083467 -0.09760679 -0.24185877
0.06766551 0.03800213 0.0490029 0.038966972 -0.10346367 0.09963906 -0.10130578 -0.11928519
0.07386103 -0.082753584 -0.13025774 0.18902768 0.065389864 0.022469645 -0.01885773 -0.08758562
-0.040789444 -0.04092422 -0.07739756 -0.14330488 -0.057822734 -0.067328885 -0.10914736 0.027496006
0.09964888 -0.13828413 -0.08389508 -0.19185588 -0.07894771 0.11299083 -0.17287579 -0.20968015
0.13971215 -0.40857857 -0.015862266 0.18098384 -0.0662079 0.20945464 -0.008883475 -0.18849678
0.10646977 -0.09066327 0.018292088 0.13771011 0.071627215 0.45486182 -0.028315961 -0.14188024
0.045495458 -0.32720202 -0.058223207 0.03605093 -0.17274122 -0.006904815 -0.025054934 -0.07552174
0.05846882 -0.25688282 -0.2536951 -0.12671249 0.19812709 0.08598843 0.0109190885 0.10394395
-0.09651956 -0.079169035 -0.0056149797 -0.29513878 -0.044243917 0.009006794 -0.04918608 0.050948933
-0.04865677 -0.41808277 -0.15534745 -0.13754989 0.06742519 0.077203006 -0.02720112 -0.033248637
0.04834328 -0.077901475 -0.012234905 -0.07279942 -0.01748929 0.085113525 0.015875632 -0.05851753
00000000: d4bc 86bd ca06 1bbd a033 ddbc d12d a5bd
00000010: e560 debc 1aa3 a43e 985a 4c3e 0d07 83be
00000020: 1133 0fbb ec5f 69be f346 cb3d e59f b1be
00000030: eae8 c83d 8299 88bd 59ad 16bd d6e4 b53d
00000040: 5378 3a3d f2bd 903c dcbd cbbd 70aa 60be
00000050: 58f0 3f3d 1479 52be 74b4 0f3e 68b7 543e
00000060: 089e 503b ba2f 80bd d6a6 693c 71f6 66bd
00000070: e4b1 ab3c 58cf 5f3d 1f09 b4bd de02 05be
00000080: 9eed d4be bfa3 1e3d 6fd5 87bd 1707 293c
00000090: 74a2 32bd cbde b7bd 03ba 0cbe ab72 edbc
000000a0: 3efc 0abd 02ee 4ebb da3f ba38 0523 883d
000000b0: 5b57 e5bd dfa9 9f3d 5936 cb3d 3072 75be
000000c0: 7a7c 15be 0989 333d cedb 183e 12e0 c5bd
000000d0: 747e 1cbd f36b 503e aa17 d63d c23b dd3d
000000e0: 388f 52be bc85 a7bd 4e67 eabc 1814 3abe
000000f0: 6982 5d3e d791 e1bd 21a0 1dbd f841 7cbc
00000100: afe8 11bd c549 113d 8916 e2bd 5e15 993c
00000110: f6da babd 08bf d3be 2e43 693b 23cd 323e
00000120: 8034 9fbd f3e6 703d c34f fabd 695a fabd
00000130: ef38 35be 51a5 253e 7f40 b8bd 99f9 c13d
00000140: 8147 f63c bb4d ad3d 9012 1d3e e9dc d4bd
00000150: 734a e6bd e171 0c3e e56d 60be 683f a0bd
00000160: e4b5 403e a301 0a3d df56 293e 8261 9f3d
00000170: 3b66 643d 8103 a23d 6174 133e a891 34bc
00000180: fd79 8ebe f88f 143e cec9 d83d bd89 c9bd
00000190: 0c66 62bd 0494 6abe 4e9f c83d fcaf d93c
000001a0: 7602 adbe d1d9 cabd f650 25be baa2 52be
000001b0: f82b 013d de9e 863d 2b65 05be bbe4 44bc
000001c0: a8e0 08be 8210 10be b45e 063d 927a 67bd
000001d0: 14fa 23bd 4bf1 16bf eff8 76be 6827 d83c
000001e0: 7831 8fbd b51a b6bd 0698 3cbe 1457 28bc
000001f0: d87f b9be 4f4c 153e 4d27 d3bb 90ba a6bd
00000200: 1591 373d f940 b63c 60c6 10be a9fc 67bd
00000210: 4a2c 0dbe f9fe 873d 6b99 8cbe 8339 d8bd
00000220: 8366 dd3e d606 12be ed55 d73d 14a3 103e
00000230: c00f 4cbd 237e b1bc 9bdf 91bd e964 a5bd
00000240: 4fd6 2ebe e709 793e b465 8bbd 832a e43d
00000250: eb0e 98be 13ae 87be 4b3a 953d a4be 3d3e
00000260: 5d64 b93d c9fe 3e3e d624 973e 9daf 5a3e
00000270: 99e4 d7bd 2c77 043e 35d9 9e3c a406 62be
00000280: e53e 3dbc dd2c 6e3d 6bc8 093e ec79 2d3e
00000290: aa90 4fbd 7c22 623e 12e6 c7bd d3a9 77be
000002a0: 3794 8a3d 1fa8 1b3d 44b7 483d d59b 1f3d
000002b0: c3e4 d3bd 900f cc3d 6879 cfbd cb4b f4bd
000002c0: 7444 973d b67a a9bd 4962 05be 7990 413e
000002d0: 1feb 853d 4312 b83c 877b 9abc 1760 b3bd
000002e0: d512 27bd 28a0 27bd 9d82 9ebd 84be 12be
000002f0: 88d7 6cbd bae3 89bd a788 dfbd 4e3f e13c
00000300: b614 cc3d 5b9a 0dbe 2fd1 abbd de75 44be
00000310: 56af a1bd bc67 e73d 5a06 31be 65b6 56be
00000320: b410 0f3e 3631 d1be 95f1 81bc d453 393e
00000330: 0298 87bd 477b 563e ff8b 11bc 4d05 41be
00000340: d30c da3d aaad b9bd 4ad9 953c e103 0d3e
00000350: 4ab1 923d a6e3 e83e e0f6 e7bc 0e49 11be
00000360: 7259 3a3d 0687 a7be 757b 6ebd 24aa 133d
00000370: 13e3 30be c941 e2bb 0140 cdbc 24ab 9abd
00000380: 007d 6f3d 2586 83be 53e4 81be ebc0 01be
00000390: d4e1 4a3e b41a b03d fae5 323c 91e0 d43d
000003a0: 0cac c5bd 6023 a2bd ddfd b7bb 6e1c 97be
000003b0: 1c39 35bd 3b91 133c 5877 49bd d4af 503d
000003c0: 524c 47bd f20e d6be 6713 1fbe e1d9 0cbe
000003d0: 3816 8a3d 9c1c 9e3d e2d4 debc b92f 08bd
000003e0: 9a03 463d cf8a 9fbd e974 48bc dd17 95bd
000003f0: b345 8fbc 0050 ae3d 9d0d 823c 14b0 6fbd

arith.constant9 f4 [16, 3, 3, 3]
-0.09070543 0.20219763 0.0984146 -0.16308762 0.26973042 0.16385674 -0.20557776 0.3484402
0.050759573 0.13047269 -0.097502716 -0.057066053 0.006111927 -0.1585452 -0.059614874 -0.15475409
0.102189824 0.0019688597 0.25942054 -0.26709208 -0.13600372 0.2324054 -0.24774079 -0.08068217
-0.05954637 -0.115089655 0.07036246 -0.08160908 -0.19661719 -0.2196349 0.1833942 -0.044497065
-0.054950796 0.04268966 0.32368824 0.14653033 0.19735624 -0.31132382 -0.041314323 -0.14897132
-0.10596199 0.1314378 -0.049803823 0.17084712 0.14301333 0.001813829 -0.05857671 -0.22116101
-0.095218584 0.15957269 0.12417654 -0.2561604 0.09163329 0.19370139 -0.041427515 -0.10945972
-0.2983273 0.1464961 0.111616686 0.22021033 0.10230828 0.060405698 0.32582504 -0.10434813
-0.3003967 -0.30739406 -0.1082287 -0.015785381 0.100492544 0.12051976 0.23559491 0.28254828
-0.027635757 -0.023865554 -0.16804619 -0.016789442 0.01650396 -0.25429815 -0.123123705 0.1254705
-0.024541836 0.04755162 -0.0016148178 -0.24580596 -0.117123894 -0.33495462 -0.35146794 0.055860672
-0.10441006 -0.06446222 0.15489201 -0.1655249 0.12707481 -0.12598678 0.17606694 -0.04995558
0.2523327 0.047982514 0.28996968 -0.27733994 0.103248596 -0.08552449 -0.07007671 0.29602975
0.21412139 0.07628256 0.08526496 0.088254966 -0.36906457 -0.093258165 -0.014623699 0.08394562
0.11261771 0.025038857 -0.058029238 -0.14231884 0.16408953 0.04034936 -0.09925993 0.10548638
-0.106815554 -0.085799664 -0.039946433 0.18659902 -0.042146303 -0.20972238 0.16261308 -0.023370495
-0.012204149 0.36170903 0.22709961 0.083531335 0.17002143 -0.2496201 -0.1765093 -0.3216962
0.28471383 0.12178224 -0.05828204 0.09105504 -0.007938859 -0.15810433 0.010925686 0.2339584
-0.015197036 0.1709401 0.15923256 -0.062240977 0.080414005 -0.03951807 0.1293227 -0.014665258
-0.2120995 0.0038528484 -0.087705135 0.08430306 0.09707365 -0.21264587 -0.07128875 0.3990605
-0.3800712 -0.273564 -0.03300007 -0.27633253 -0.22033538 -0.06729517 -0.06045457 -0.20084418
-0.087975524 0.06456945 0.27592817 0.018242043 -0.28967085 -0.12927872 0.20022751 -0.0024294134
-0.060932275 -0.07860139 0.17791688 0.20806634 -0.087399416 -0.34018615 -0.016128544 -0.07065494
-0.19505598 -0.20569354 0.007205549 0.07749312 0.35716236 0.21919997 -0.029971309 -0.15910552
-0.16125928 -0.06724475 0.15586792 -0.19333375 -0.0074554035 0.25576958 0.3064446 -0.27083173
-0.18495893 -0.0601447 0.055623513 -0.022663942 -0.18606685 0.22412714 -0.0046199425 0.30073935
-0.25314164 -0.062969506 0.12741731 -0.037222683 -0.05688732 -0.21354115 0.20930947 0.0899049
-0.10330954 0.22773829 0.18299735 -0.2175088 0.22906151 0.105775565 -0.35371968 -0.02736633
-0.31636694 -0.08804022 0.20641847 -0.07800555 -0.13185632 0.13028768 -0.07332351 -0.050549857
-0.009167455 -0.017238013 -0.16713826 0.10893334 0.013308503 -0.1752242 -0.054477993 0.044640247
0.1844617 0.11377656 -0.067786075 0.09554496 -0.23313782 -0.3056111 0.16862349 -0.24348523
-0.29440135 0.05409248 -0.13399135 -0.030693589 -0.046135087 -0.17931972 -0.11551634 -0.13062239
00000000: c5c3 b9bd e50c 4f3e 988d c93d 7100 27be
00000010: 1b1a 8a3e 10ca 273e fa82 52be c166 b23e
00000020: 45e9 4f3d a29a 053e 81af c7bd 18be 69bd
00000030: 8f46 c83b ac59 22be ba2e 74bd db77 1ebe
00000040: e648 d13d fc07 013b c5d2 843e 4bc0 88be
00000050: 8f44 0bbe aefb 6d3e c3af 7dbe b23c a5bd
00000060: e5e6 73bd 20b4 ebbd 321a 903d a922 a7bd
00000070: 0456 49be f9e7 60be b0cb 3b3e 8e42 36bd
00000080: 1614 61bd 5adb 2e3d 77ba a53e 0c0c 163e
00000090: c117 4a3e d665 9fbe 3539 29bd f08b 18be
000000a0: 9a02 d9bd a197 063e 18ff 4bbd 8cf2 2e3e
000000b0: 1672 123e 00be ed3a 22ee 6fbd 0878 62be
000000c0: f601 c3bd 0667 233e 4550 fe3d 7527 83be
000000d0: 3caa bb3d a859 463e e6af 29bd 6b2c e0bd
000000e0: 5bbe 98be 1303 163e 4a97 e43d d17e 613e
000000f0: 0187 d13d f76b 773d 8ad2 a63e 79b4 d5bd
00000100: 99cd 99be c162 9dbe 02a7 ddbd 5850 81bc
00000110: 09cf cd3d 10d3 f63d cb3f 713e 2baa 903e
00000120: 6264 e2bc b281 c3bc 4d14 2cbe 038a 89bc
00000130: 5033 873c 5e33 82be 4828 fcbd 577b 003e
00000140: f60b c9bc 7dc5 423d 4ba8 d3ba 8fb4 7bbe
00000150: a7de efbd 2c7f abbe 9bf3 b3be 29ce 643d
00000160: f1d4 d5bd c504 84bd 039c 1e3e 5c7f 29be
00000170: e61f 023e ae02 01be e44a 343e 399e 4cbd
00000180: c031 813e 5089 443d e876 943e 80ff 8dbe
00000190: 0074 d33d 7727 afbd 6184 8fbd 3691 973e
000001a0: a342 5b3e 083a 9c3d 659f ae3d 05bf b43d
000001b0: 08f6 bcbe 23fe bebd 3d98 6fbc aeeb ab3d
000001c0: 1da4 e63d 4a1e cd3c 11b0 6dbd 08bc 11be
000001d0: 1607 283e 5f45 253d ca48 cbbd 3e09 d83d
000001e0: 1dc2 dabd bcb7 afbd df9e 23bd d013 3f3e
000001f0: 9aa1 2cbd 77c1 56be 0b84 263e 7b73 bfbc
00000200: e9f3 47bc ed31 b93e cd8c 683e 7a12 ab3d
00000210: 191a 2e3e 699c 7fbe dbbe 34be 5db5 a4be
00000220: 03c6 913e f868 f93d 26b9 6ebd 117b ba3d
00000230: fd11 02bc 1ae6 21be a601 333c ca92 6f3e
00000240: fdfc 78bc ec0a 2f3e dc0d 233e 65f0 7ebd
00000250: 19b0 a43d b3dd 21bd 2b6d 043e 8d46 70bc
00000260: 9c30 59be 1280 7c3b c09e b3bd 15a7 ac3d
00000270: 8dce c63d d7bf 59be d6ff 91bd a851 cc3e
00000280: b198 c2be 9510 8cbe 152b 07bd 757b 8dbe
00000290: 999f 61be 0dd2 89bd 369f 77bd 19aa 4dbe
000002a0: 832c b4bd fd3c 843d 7546 8d3e 5670 953c
000002b0: bd4f 94be a461 04be 7108 4d3e cb36 1fbb
000002c0: 1f94 79bd c4f9 a0bd d82f 363e 580f 553e
000002d0: 77fe b2bd e12c aebe 0220 84bc 8ab3 90bd
000002e0: c1bc 47be 54a1 52be 871c ec3b b7b4 9e3d
000002f0: fcdd b63e f575 603e 6486 f5bc 8fec 22be
00000300: 2721 25be 9eb7 89bd d79b 1f3e 48f9 45be
00000310: 754c f4bb 3bf4 823e 4ee6 9c3e 75aa 8abe
00000320: e065 3dbe 4a5a 76bd 7bd5 633d bba9 b9bc
00000330: 4f88 3ebe 9681 653e e362 97bb 82fa 993e
00000340: c89b 81be 28f6 80bd af79 023e d076 18bd
00000350: ae02 69bd 88aa 5abe 3955 563e 0f20 b83d
00000360: f493 d3bd 3a34 693e a863 3b3e a0ba 5ebe
00000370: 1a8f 6a3e dca0 d83d bf1a b5be 5b2f e0bc
00000380: d9fa a1be 6e4e b4bd 5d5f 533e 60c1 9fbd
00000390: 5805 07be 226a 053e a32a 96bd 5e0d 4fbd
000003a0: 1833 16bc bc36 8dbc 4b26 2bbe 7118 df3d
000003b0: e80b 5a3c f96d 33be 5124 5fbd b1d8 363d
000003c0: 87e3 3c3e af03 e93d 6dd3 8abd 13ad c33d
000003d0: aebb 6ebe 0f79 9cbe a3ab 2c3e 3154 79be
000003e0: c6bb 96be 1490 5d3d 0735 09be 1f71 fbbc
000003f0: 25f8 3cbd 979f 37be d593 ecbd e0c1 05be

arith.constant10 f4 [2, 64]
0.019985095 0.25379407 -0.0039538885 -0.008540724 -8.1748105e-05 -0.0010430133 0.13553509 0.012971954
-0.19296333 0.0017321844 0.2170045 -0.027843243 -0.009451558 0.25899595 -0.21791716 0.0042612776
-0.13438575 -0.061589796 0.0040025804 -0.15537128 -0.04417415 0.08889291 0.013362221 -0.07616621
-0.004271122 -0.054061297 -0.002380815 -0.09777979 0.20199046 -0.000577249 0.002177554 -0.21844913
0.0007018646 -0.032306757 -0.0076317396 0.0020778656 -0.019242827 -0.26229885 -0.04905483 -0.028756596
0.005314239 0.0029404294 -0.109433606 -0.0011056783 0.0009219278 -0.004529539 0.06633366 0.0020331752
0.11170275 0.00035207486 -0.0788189 -0.08029305 0.007361531 -0.0021198497 0.000490597 0.00212788
0.23433311 0.009968421 -0.0025085404 0.004896289 0.24620275 0.012101212 0.005947018 0.0049582953
-0.012531387 -0.13933039 -0.27261645 -0.0070580994 -0.0001100687 -0.0013949404 0.093562655 0.007830253
0.17222814 0.0012503745 -0.16837837 -0.04626055 -0.0005619903 0.029896189 -0.1574283 0.20097978
0.05114454 -0.0023366585 0.0044288887 -0.016953368 -0.16806275 0.17917582 0.008821866 -0.00790635
-0.0050282194 0.028600166 -0.0046981657 -0.15309349 0.13649596 7.5961936e-05 -0.0020260054 0.015765231
-0.0018182354 -0.17329507 0.003006544 -0.006302167 0.028761705 0.087500654 -0.12929538 0.19524302
0.022799956 0.00453276 0.10298103 -0.0019785354 0.0029704329 0.14482117 -0.27513486 0.0021891766
-0.15313083 -0.0010253415 0.2168945 0.0742111 0.013198591 -0.0009182761 -0.0035444947 0.0009516701
0.048093 0.00052974455 -0.002024738 -0.047383036 0.16863294 -0.002760156 0.0024582944 -0.0046478854
00000000: c8b7 a33c 4cf1 813e 9f8f 81bb 65ee 0bbc
00000010: 2e70 abb8 b8b5 88ba b6c9 0a3e 5288 543c
00000020: 2e98 45be 770a e33a 6d36 5e3e 8317 e4bc
00000030: b5da 1abc 1e9b 843e ad25 5fbe 30a2 8b3b
00000040: 6b9c 09be 9545 7cbd 1428 833b a619 1fbe
00000050: f4ef 34bd 7c0d b63d 38ed 5a3c 08fd 9bbd
00000060: c5f4 8bbb 616f 5dbd 7307 1cbb c540 c8bd
00000070: 96d6 4e3e 8652 17ba 4bb5 0e3b 21b1 5fbe
00000080: 56fd 373a 1754 04bd ac13 fabb cd2c 083b
00000090: 22a3 9dbc 094c 86be b8ed 48bd f492 ebbc
000000a0: 1123 ae3b 38b4 403b ba1e e0bd 68ec 90ba
000000b0: 87ad 713a 876c 94bb f1d9 873d 053f 053b
000000c0: 69c4 e43d b096 b839 ce6b a1bd af70 a4bd
000000d0: ff38 f13b 2ded 0abb 689b 003a e773 0b3b
000000e0: 05f5 6f3e 9752 233c 5366 24bb 0d71 a03b
000000f0: 931c 7c3e 2944 463c 34df c23b 3279 a23b
00000100: 7250 4dbc a0ac 0ebe 6294 8bbe a147 e7bb
00000110: afd4 e6b8 6fd6 b6ba c79d bf3d 764a 003c
00000120: 935c 303e 9be3 a33a 616b 2cbe b47b 3dbd
00000130: 8852 13ba dae8 f43c e234 21be a5cd 4d3e
00000140: f07c 513d a022 19bb 3620 913b cae1 8abc
00000150: a418 2cbe de79 373e 9689 103c a389 01bc
00000160: c3c3 a4bb e54a ea3c 12f3 99bb 8ac4 1cbe
00000170: 99c5 0b3e c14d 9f38 bbc6 04bb 1626 813c
00000180: db51 eeba 4374 31be 7009 453b 6982 cebb
00000190: ab9d eb3c 8b33 b33d 0266 04be c9ed 473e
000001a0: f9c6 ba3c 8c87 943b b8e7 d23d 51aa 01bb
000001b0: 98ab 423b 004c 143e 7ade 8cbe 4a78 0f3b
000001c0: 54ce 1cbe c064 86ba 9819 5e3e fdfb 973d
000001d0: e73e 583c 77b8 70ba c14a 68bb 8079 793a
000001e0: 2afd 443d 8ede 0a3a 77b1 04bb b714 42bd
000001f0: 1dae 2c3e bce3 34bb 561b 213b 4a4d 98bb
