models/ana-cont/ana-cont_1700_s0_q.tflite (tflite, 187792 bytes, 13 tensors)

tfl.pseudo_qconst1 i1 [2, 64] scale=0.0021664163 zero_point=0
00000000: 0975 fefc 0000 3f06 a701 64f3 fc78 9b02
00000010: c2e4 02b8 ec29 06dd fee7 ffd3 5d00 019b
00000020: 00f1 fc01 f787 e9f3 0201 cdff 00fe 1f01
00000030: 3400 dcdb 03ff 0001 6c05 ff02 7206 0302
00000040: fac0 82fd 00ff 2b04 4f01 b2eb 000e b75d
00000050: 18ff 02f8 b253 04fc fe0d feb9 3f00 ff07
00000060: ffb0 01fd 0d28 c45a 0b02 30ff 0143 8101
00000070: b900 6422 0600 fe00 1600 ffea 4eff 01fe
0.019497747 0.2534707 -0.0043328325 -0.008665665 0.0 0.0 0.13648422 0.012998497
-0.19281104 0.0021664163 0.21664162 -0.02816341 -0.008665665 0.25996995 -0.21880804 0.0043328325
-0.13431782 -0.060659654 0.0043328325 -0.15598197 -0.043328326 0.088823065 0.012998497 -0.075824566
-0.0043328325 -0.054160405 -0.0021664163 -0.09748873 0.20147671 0.0 0.0021664163 -0.21880804
0.0 -0.032496244 -0.008665665 0.0021664163 -0.019497747 -0.26213637 -0.049827576 -0.02816341
0.0043328325 0.0021664163 -0.11048723 -0.0021664163 0.0 -0.0043328325 0.06715891 0.0021664163
0.11265364 0.0 -0.07799099 -0.0801574 0.0064992486 -0.0021664163 0.0 0.0021664163
0.23397295 0.010832082 -0.0021664163 0.0043328325 0.24697146 0.012998497 0.0064992486 0.0043328325
-0.012998497 -0.13865064 -0.27296844 -0.0064992486 0.0 -0.0021664163 0.0931559 0.008665665
0.17114688 0.0021664163 -0.16898046 -0.045494743 0.0 0.030329827 -0.1581484 0.20147671
0.05199399 -0.0021664163 0.0043328325 -0.01733133 -0.16898046 0.17981255 0.008665665 -0.008665665
-0.0043328325 0.02816341 -0.0043328325 -0.15381555 0.13648422 0.0 -0.0021664163 0.015164914
-0.0021664163 -0.1733133 0.0021664163 -0.0064992486 0.02816341 0.08665665 -0.12998497 0.19497746
0.02383058 0.0043328325 0.10398798 -0.0021664163 0.0021664163 0.14514989 -0.27513486 0.0021664163
-0.15381555 0.0 0.21664162 0.07365815 0.012998497 0.0 -0.0043328325 0.0
0.04766116 0.0 -0.0021664163 -0.04766116 0.16898046 -0.0021664163 0.0021664163 -0.0043328325

tfl.pseudo_qconst3 i1 [64, 128] scale=0.0012401071 zero_point=0
00000000: 0000 0000 0000 0000 0000 0000 0000 0000
00000010: 0000 0000 0000 0000 0000 0000 0000 0000
00000020: 0000 0000 0000 0000 0000 0000 0000 0000
00000030: 0000 0000 0000 0000 0000 0000 0000 0000
00000040: 0000 0000 0000 0000 0000 0000 0000 0000
00000050: 0000 0000 0000 0000 0000 0000 0000 0000
00000060: 0000 0000 0000 0000 0000 0000 0000 0000
00000070: 0000 0000 0000 0000 0000 0000 0000 0000
00000080: f5ef e2b0 1e07 12fa 03b5 bcb1 ffbf f7a5
00000090: bac1 b5ea b309 0a13 f40c e1fa 12c3 a7b6
000000a0: e919 f70a 0ec9 c7de bd01 a9f0 d1f4 b2f6
000000b0: 081d bbf4 ffb3 9ece a60e c58b ffac ee11
000000c0: a3fa 0003 091a c3f9 1711 a8a9 86b6 fecc
000000d0: b7ed fcdb 0efb f3be a3d3 9ef1 b7bb a5d5
000000e0: c1ab e0b2 f5b7 9ecf b809 af81 ebcd fcca
000000f0: c7fd 01f7 bfcf f4bc d91f 0adf 079f eeb2
0.0 0.0 0.0 0.0 0.0 0.0 0.0 0.0
0.0 0.0 0.0 0.0 0.0 0.0 0.0 0.0
0.0 0.0 0.0 0.0 0.0 0.0 0.0 0.0
0.0 0.0 0.0 0.0 0.0 0.0 0.0 0.0
0.0 0.0 0.0 0.0 0.0 0.0 0.0 0.0
0.0 0.0 0.0 0.0 0.0 0.0 0.0 0.0
0.0 0.0 0.0 0.0 0.0 0.0 0.0 0.0
0.0 0.0 0.0 0.0 0.0 0.0 0.0 0.0
0.0 0.0 0.0 0.0 0.0 0.0 0.0 0.0
0.0 0.0 0.0 0.0 0.0 0.0 0.0 0.0
0.0 0.0 0.0 0.0 0.0 0.0 0.0 0.0
0.0 0.0 0.0 0.0 0.0 0.0 0.0 0.0
0.0 0.0 0.0 0.0 0.0 0.0 0.0 0.0
0.0 0.0 0.0 0.0 0.0 0.0 0.0 0.0
0.0 0.0 0.0 0.0 0.0 0.0 0.0 0.0
0.0 0.0 0.0 0.0 0.0 0.0 0.0 0.0
-0.013641179 -0.02108182 -0.037203215 -0.09920857 0.037203215 0.00868075 0.022321928 -0.0074406425
0.0037203212 -0.093008034 -0.08432728 -0.09796846 -0.0012401071 -0.08060696 -0.011160964 -0.11284975
-0.0868075 -0.07812675 -0.093008034 -0.027282357 -0.09548825 0.011160964 0.012401071 0.023562035
-0.014881285 0.014881285 -0.03844332 -0.0074406425 0.022321928 -0.075646535 -0.11036953 -0.09176793
-0.028522464 0.031002678 -0.011160964 0.012401071 0.0173615 -0.06820589 -0.0706861 -0.04216364
-0.083087176 0.0012401071 -0.10788932 -0.019841714 -0.058285035 -0.014881285 -0.096728355 -0.012401071
0.009920857 0.035963107 -0.08556739 -0.014881285 -0.0012401071 -0.09548825 -0.121530496 -0.062005356
-0.11160964 0.0173615 -0.07316632 -0.14509253 -0.0012401071 -0.104168996 -0.022321928 0.02108182
-0.11532996 -0.0074406425 0.0 0.0037203212 0.011160964 0.032242786 -0.075646535 -0.00868075
0.028522464 0.02108182 -0.10912943 -0.10788932 -0.15129307 -0.09176793 -0.0024802142 -0.06448557
-0.09052782 -0.023562035 -0.0049604285 -0.045883965 0.0173615 -0.0062005357 -0.016121393 -0.08184707
-0.11532996 -0.05580482 -0.121530496 -0.018601608 -0.09052782 -0.08556739 -0.11284975 -0.053324606
-0.07812675 -0.10540911 -0.039683428 -0.096728355 -0.013641179 -0.09052782 -0.121530496 -0.060765248
-0.08928771 0.011160964 -0.100448675 -0.1574936 -0.026042249 -0.06324546 -0.0049604285 -0.06696578
-0.0706861 -0.0037203212 0.0012401071 -0.011160964 -0.08060696 -0.060765248 -0.014881285 -0.08432728
-0.048364177 0.03844332 0.012401071 -0.040923536 0.00868075 -0.12029039 -0.022321928 -0.096728355

tfl.pseudo_qconst5 i1 [128, 512] scale=0.0004329763 zero_point=0
00000000: f804 fdf3 0e00 01f7 08fd 0b05 0ff0 1903
00000010: fef8 0001 fc0c ff02 fefd ffff 0100 00f8
00000020: 0f06 0c01 ff01 fcfe f50b f006 08f5 f9ec
00000030: 08f8 0000 faff 01fd d9eb 0b01 fd09 01fc
00000040: 07fd e800 0201 fdfb 0ced e700 0006 0404
00000050: 0101 2e00 faf6 e9fe f2ff 0f0a 010d 00f0
00000060: 0af7 f4fa 060e e204 fb05 f9fd 0c09 fefb
00000070: 0af9 18ff 09f7 1402 f7f8 f50a fa00 24f6
00000080: 1d01 f8fc 0702 00f5 0100 0501 3103 01f9
00000090: 0104 07f7 fe05 0300 fc13 fb09 0c07 0509
000000a0: f900 00f5 0000 fdf7 09f4 0ff8 00ff 02fb
000000b0: 0dff 0901 0207 ffff fc00 0025 01f6 fcfd
000000c0: 0001 06fe fd10 f31e 0006 0000 3801 f601
000000d0: 0114 ec07 0aff 0007 0109 fd0a 06f4 fc01
000000e0: e6fa feff f5ff 00ff f1f7 f106 e702 ff05
000000f0: fb04 0af9 1400 fe04 fd00 0d12 fb05 f7ef
-0.0034638103 0.0017319052 -0.0012989289 -0.005628692 0.006061668 0.0 0.0004329763 -0.0038967866
0.0034638103 -0.0012989289 0.004762739 0.0021648814 0.006494644 -0.0069276206 0.010824407 0.0012989289
-0.0008659526 -0.0034638103 0.0 0.0004329763 -0.0017319052 0.0051957155 -0.0004329763 0.0008659526
-0.0008659526 -0.0012989289 -0.0004329763 -0.0004329763 0.0004329763 0.0 0.0 -0.0034638103
0.006494644 0.0025978577 0.0051957155 0.0004329763 -0.0004329763 0.0004329763 -0.0017319052 -0.0008659526
-0.004762739 0.004762739 -0.0069276206 0.0025978577 0.0034638103 -0.004762739 -0.003030834 -0.008659526
0.0034638103 -0.0034638103 0.0 0.0 -0.0025978577 -0.0004329763 0.0004329763 -0.0012989289
-0.016886076 -0.009092502 0.004762739 0.0004329763 -0.0012989289 0.0038967866 0.0004329763 -0.0017319052
0.003030834 -0.0012989289 -0.010391431 0.0 0.0008659526 0.0004329763 -0.0012989289 -0.0021648814
0.0051957155 -0.008226549 -0.010824407 0.0 0.0 0.0025978577 0.0017319052 0.0017319052
0.0004329763 0.0004329763 0.019916909 0.0 -0.0025978577 -0.004329763 -0.009958454 -0.0008659526
-0.006061668 -0.0004329763 0.006494644 0.004329763 0.0004329763 0.005628692 0.0 -0.0069276206
0.004329763 -0.0038967866 -0.0051957155 -0.0025978577 0.0025978577 0.006061668 -0.012989288 0.0017319052
-0.0021648814 0.0021648814 -0.003030834 -0.0012989289 0.0051957155 0.0038967866 -0.0008659526 -0.0021648814
0.004329763 -0.003030834 0.010391431 -0.0004329763 0.0038967866 -0.0038967866 0.008659526 0.0008659526
-0.0038967866 -0.0034638103 -0.004762739 0.004329763 -0.0025978577 0.0 0.015587146 -0.004329763
0.012556313 0.0004329763 -0.0034638103 -0.0017319052 0.003030834 0.0008659526 0.0 -0.004762739
0.0004329763 0.0 0.0021648814 0.0004329763 0.021215837 0.0012989289 0.0004329763 -0.003030834
0.0004329763 0.0017319052 0.003030834 -0.0038967866 -0.0008659526 0.0021648814 0.0012989289 0.0
-0.0017319052 0.008226549 -0.0021648814 0.0038967866 0.0051957155 0.003030834 0.0021648814 0.0038967866
-0.003030834 0.0 0.0 -0.004762739 0.0 0.0 -0.0012989289 -0.0038967866
0.0038967866 -0.0051957155 0.006494644 -0.0034638103 0.0 -0.0004329763 0.0008659526 -0.0021648814
0.005628692 -0.0004329763 0.0038967866 0.0004329763 0.0008659526 0.003030834 -0.0004329763 -0.0004329763
-0.0017319052 0.0 0.0 0.016020123 0.0004329763 -0.004329763 -0.0017319052 -0.0012989289
0.0 0.0004329763 0.0025978577 -0.0008659526 -0.0012989289 0.0069276206 -0.005628692 0.012989288
0.0 0.0025978577 0.0 0.0 0.024246672 0.0004329763 -0.004329763 0.0004329763
0.0004329763 0.008659526 -0.008659526 0.003030834 0.004329763 -0.0004329763 0.0 0.003030834
0.0004329763 0.0038967866 -0.0012989289 0.004329763 0.0025978577 -0.0051957155 -0.0017319052 0.0004329763
-0.011257384 -0.0025978577 -0.0008659526 -0.0004329763 -0.004762739 -0.0004329763 0.0 -0.0004329763
-0.006494644 -0.0038967866 -0.006494644 0.0025978577 -0.010824407 0.0008659526 -0.0004329763 0.0021648814
-0.0021648814 0.0017319052 0.004329763 -0.003030834 0.008659526 0.0 -0.0008659526 0.0017319052
-0.0012989289 0.0 0.005628692 0.007793573 -0.0021648814 0.0021648814 -0.0038967866 -0.007360597

tfl.pseudo_qconst7 i1 [128, 3, 3, 64]
00000000: c8d6 2ad7 e5e1 50f1 022e 1435 fbce cbbd
00000010: 17c9 0e11 0edd f8af 47c0 3aca e91f 0220
00000020: 0ef7 dd01 280b e5ee e80a 030c cbf1 1917
00000030: a202 1b6f 0ae7 2d04 dbf7 0912 0e22 0002
00000040: e64d f3f0 48fe 05d1 d442 0933 f304 12f3
00000050: 3ce0 34f0 0a00 a110 0df0 f4c1 13f7 d4c1
00000060: 1311 e028 d4af cb1f 0627 c238 e6ff 9bd4
00000070: d3dd befa 2812 db29 a909 0623 c320 cd0c
00000080: 202e e117 efca d10f 2af6 11d4 34ea 352d
00000090: da10 02f4 3120 050e 05ed 251f f1ff 342c
000000a0: b816 23fc 2600 c044 362a f4a3 b91d e7db
000000b0: 150e 1b12 25ef eaea 1508 19da 9332 b8ff
000000c0: 1fe3 f3dc 1c17 0f12 1bec c6fa 02e4 1219
000000d0: 0040 d20b 0ed1 1fce 1faa 2ee8 c40b 4333
000000e0: 2fd0 ef3f 183e 054e 0625 2117 e2f8 4ddc
000000f0: d423 0655 0903 263e 594a 3819 2ee7 1335
-56 -42 42 -41 -27 -31 80 -15
2 46 20 53 -5 -50 -53 -67
23 -55 14 17 14 -35 -8 -81
71 -64 58 -54 -23 31 2 32
14 -9 -35 1 40 11 -27 -18
-24 10 3 12 -53 -15 25 23
-94 2 27 111 10 -25 45 4
-37 -9 9 18 14 34 0 2
-26 77 -13 -16 72 -2 5 -47
-44 66 9 51 -13 4 18 -13
60 -32 52 -16 10 0 -95 16
13 -16 -12 -63 19 -9 -44 -63
19 17 -32 40 -44 -81 -53 31
6 39 -62 56 -26 -1 -101 -44
-45 -35 -66 -6 40 18 -37 41
-87 9 6 35 -61 32 -51 12
32 46 -31 23 -17 -54 -47 15
42 -10 17 -44 52 -22 53 45
-38 16 2 -12 49 32 5 14
5 -19 37 31 -15 -1 52 44
-72 22 35 -4 38 0 -64 68
54 42 -12 -93 -71 29 -25 -37
21 14 27 18 37 -17 -22 -22
21 8 25 -38 -109 50 -72 -1
31 -29 -13 -36 28 23 15 18
27 -20 -58 -6 2 -28 18 25
0 64 -46 11 14 -47 31 -50
31 -86 46 -24 -60 11 67 51
47 -48 -17 63 24 62 5 78
6 37 33 23 -30 -8 77 -36
-44 35 6 85 9 3 38 62
89 74 56 25 46 -25 19 53

tfl.pseudo_qconst8 i1 [64] scale=0.0042978353 zero_point=127
00000000: 4180 2d5a 34e4 a437 0cad b20c ecbe fcca
00000010: 209e 000d 2d0b 4b25 052c 7613 b037 1029
00000020: 2dfc c3d0 3164 4032 1427 10fb 4cd1 47da
00000030: 2c07 ca49 071e edf0 d20c fd16 d62b d5f4
-0.26646578 -1.095948 -0.3524225 -0.1590199 -0.32233766 -0.66616446 -0.94122595 -0.30944413
-0.49425107 -0.9025454 -0.88105625 -0.49425107 -0.6317818 -0.8294822 -0.5630164 -0.7779082
-0.40829435 -0.96701294 -0.54582506 -0.48995322 -0.3524225 -0.4985489 -0.22348744 -0.38680518
-0.5243359 -0.35672033 -0.038680516 -0.46416622 -0.8896519 -0.30944413 -0.47705972 -0.36961383
-0.3524225 -0.5630164 -0.80799305 -0.75212115 -0.33523116 -0.116041556 -0.27076364 -0.3309333
-0.45986837 -0.3782095 -0.47705972 -0.56731427 -0.2191896 -0.74782336 -0.24067877 -0.7091428
-0.35672033 -0.5157402 -0.7779082 -0.23208311 -0.5157402 -0.41689003 -0.62748396 -0.61459047
-0.7435255 -0.49425107 -0.55871856 -0.4512727 -0.72633415 -0.36101815 -0.730632 -0.5973991

tfl.pseudo_qconst9 i1 [64] scale=0.0031623086 zero_point=-128
00000000: 320d 2554 efe2 14e7 3cea 2b04 36ad 191c
00000010: f217 f40b 3f0f 27fe 79b2 64fb f013 05ed
00000020: 6bf2 fe1b 5656 2307 fafb 162c f10a 7f16
00000030: fb39 205c 381a ed02 1125 2e27 fa42 081c
0.56289095 0.4458855 0.5217809 0.67040944 0.35101625 0.30990624 0.46802166 0.32571778
0.594514 0.33520472 0.5407548 0.41742474 0.5755402 0.14230388 0.48383322 0.49332014
0.36050317 0.4775086 0.3668278 0.4395609 0.6040009 0.45221013 0.52810556 0.39845088
0.78741485 0.15811543 0.72100633 0.38896397 0.35417855 0.46485937 0.42058703 0.34469163
0.74314255 0.36050317 0.39845088 0.49015784 0.67673403 0.67673403 0.5154563 0.42691165
0.38580164 0.38896397 0.47434628 0.54391706 0.35734087 0.4363986 0.8063887 0.47434628
0.38896397 0.5850271 0.5059694 0.6957079 0.5818648 0.48699552 0.34469163 0.41110012
0.45853475 0.5217809 0.5502417 0.52810556 0.38580164 0.61348784 0.43007398 0.49332014

tfl.pseudo_qconst11 i1 [64, 3, 3, 32]
00000000: d3f0 9133 302c e71a faed 431d 1c2e 05f4
00000010: 73e9 5fdc 2920 2d0a faa5 20f3 6bba 4cf4
00000020: 16e8 f4e5 d9fd 1ffb 2400 13eb 2e00 bf4a
00000030: 1af7 1410 f0f6 3af1 fafa be32 f9af e3f8
00000040: f711 1700 f8f8 ce9c ca12 b402 cdd5 f8e1
00000050: 81ac 98da dbb8 f9ce 9fec c236 0093 05f7
00000060: caf3 1a64 2849 2315 222d e51a ce3d 1315
00000070: 29df 235c 0510 f01b ecfb 5c59 1da5 36cb
00000080: f2c7 04e7 37d9 d1e5 c402 4db5 eff8 0e00
00000090: 3e8f 4215 1fe4 09ef 1502 d8f3 44cf 0aef
000000a0: 2f0e 57cd b8db c7b3 0a1b 061b 0d9f e0c7
000000b0: dbd9 aca9 f4a9 06cb deef c5f2 c2aa 9b05
000000c0: ed14 0612 fc26 c1f4 081c eb44 faea 0eda
000000d0: cff7 c80f a8ec f6f7 c8d1 5019 abb9 2905
000000e0: b91d 3e15 1621 9eea d3f6 e2b0 07fd abc3
000000f0: f592 e918 e3fd 05f0 baf9 eefd f2c9 eaf5
-45 -16 -111 51 48 44 -25 26
-6 -19 67 29 28 46 5 -12
115 -23 95 -36 41 32 45 10
-6 -91 32 -13 107 -70 76 -12
22 -24 -12 -27 -39 -3 31 -5
36 0 19 -21 46 0 -65 74
26 -9 20 16 -16 -10 58 -15
-6 -6 -66 50 -7 -81 -29 -8
-9 17 23 0 -8 -8 -50 -100
-54 18 -76 2 -51 -43 -8 -31
-127 -84 -104 -38 -37 -72 -7 -50
-97 -20 -62 54 0 -109 5 -9
-54 -13 26 100 40 73 35 21
34 45 -27 26 -50 61 19 21
41 -33 35 92 5 16 -16 27
-20 -5 92 89 29 -91 54 -53
-14 -57 4 -25 55 -39 -47 -27
-60 2 77 -75 -17 -8 14 0
62 -113 66 21 31 -28 9 -17
21 2 -40 -13 68 -49 10 -17
47 14 87 -51 -72 -37 -57 -77
10 27 6 27 13 -97 -32 -57
-37 -39 -84 -87 -12 -87 6 -53
-34 -17 -59 -14 -62 -86 -101 5
-19 20 6 18 -4 38 -63 -12
8 28 -21 68 -6 -22 14 -38
-49 -9 -56 15 -88 -20 -10 -9
-56 -47 80 25 -85 -71 41 5
-71 29 62 21 22 33 -98 -22
-45 -10 -30 -80 7 -3 -85 -61
-11 -110 -23 24 -29 -3 5 -16
-70 -7 -18 -3 -14 -55 -22 -11

tfl.pseudo_qconst12 i1 [32] scale=0.004506923 zero_point=118
00000000: acb3 86da 80d9 3033 1ce9 f6eb 632c 2de7
00000010: 2154 68ef fb0d f421 03f3 62ff 0c7f 1d28
-0.9103984 -0.8788499 -1.0816615 -0.70307994 -1.108703 -0.7075869 -0.31548458 -0.30196384
-0.40562305 -0.6354761 -0.5768861 -0.6264623 -0.085631534 -0.33351228 -0.32900536 -0.64448994
-0.38308844 -0.15323538 -0.06309692 -0.60843456 -0.5543515 -0.4732269 -0.58589995 -0.38308844
-0.5182961 -0.5904069 -0.09013846 -0.5363238 -0.47773382 0.040562306 -0.40111613 -0.35153997

tfl.pseudo_qconst13 i1 [32] scale=0.0026465778 zero_point=-128
00000000: 6a55 2831 6647 e97f 4248 3035 1ffa d64e
00000010: 26f1 084a 241b fc1a 0c30 0043 5b3c 6412
0.6192992 0.56372106 0.44462508 0.46844426 0.6087129 0.52666897 0.27789065 0.67487735
0.5134361 0.52931553 0.4657977 0.47903058 0.42080587 0.3228825 0.22760569 0.54519504
0.43933192 0.2990633 0.35993457 0.5346087 0.43403876 0.41021955 0.32817563 0.40757298
0.3705209 0.4657977 0.33876196 0.51608264 0.5796005 0.49755663 0.6034197 0.38640034

tfl.pseudo_qconst15 i1 [32, 3, 3, 16]
00000000: f2f8 faef fa45 2bc9 00cf 15b5 15f2 f813
00000010: 0a04 ebd1 0ad4 1e2d 01f3 03f4 050c ede4
00000020: a608 f202 f7ed e2fa f9ff 000e e811 15cc
00000030: e109 20eb f82c 1717 d4ee fad9 2fe8 f8fd
00000040: f808 e804 eca7 0126 ef0d e6e6 da23 ed14
00000050: 0612 21ea e81e d1ef 2907 2411 0c11 1ffe
00000060: c41f 17eb f4cf 1506 b7eb ddd4 070e e4fd
00000070: e3e2 07f4 f781 cc06 f1ed d8fe b21f ffee
00000080: 0a05 e2f4 e20e c5e9 5de1 171e f5fb f1ef
00000090: d044 ed1f adb6 1434 1934 523c e324 05c2
000000a0: fd10 262f f23e e5bc 130b 0e0b e31c e4df
000000b0: 15e9 dc35 1206 fbe8 f5f5 ead8 f0ed e208
000000c0: 1cd9 e9ca ea20 d0c5 278e fc33 ee3a fecb
000000d0: 1ee7 0526 147f f8d8 0da5 f00a d0fe f9eb
000000e0: 10b8 b9dd 3718 031d e5ea feae f403 f20e
000000f0: f28b d5da 1316 f8f7 0dea fdec fb18 04f0
-14 -8 -6 -17 -6 69 43 -55
0 -49 21 -75 21 -14 -8 19
10 4 -21 -47 10 -44 30 45
1 -13 3 -12 5 12 -19 -28
-90 8 -14 2 -9 -19 -30 -6
-7 -1 0 14 -24 17 21 -52
-31 9 32 -21 -8 44 23 23
-44 -18 -6 -39 47 -24 -8 -3
-8 8 -24 4 -20 -89 1 38
-17 13 -26 -26 -38 35 -19 20
6 18 33 -22 -24 30 -47 -17
41 7 36 17 12 17 31 -2
-60 31 23 -21 -12 -49 21 6
-73 -21 -35 -44 7 14 -28 -3
-29 -30 7 -12 -9 -127 -52 6
-15 -19 -40 -2 -78 31 -1 -18
10 5 -30 -12 -30 14 -59 -23
93 -31 23 30 -11 -5 -15 -17
-48 68 -19 31 -83 -74 20 52
25 52 82 60 -29 36 5 -62
-3 16 38 47 -14 62 -27 -68
19 11 14 11 -29 28 -28 -33
21 -23 -36 53 18 6 -5 -24
-11 -11 -22 -40 -16 -19 -30 8
28 -39 -23 -54 -22 32 -48 -59
39 -114 -4 51 -18 58 -2 -53
30 -25 5 38 20 127 -8 -40
13 -91 -16 10 -48 -2 -7 -21
16 -72 -71 -35 55 24 3 29
-27 -22 -2 -82 -12 3 -14 14
-14 -117 -43 -38 19 22 -8 -9
13 -22 -3 -20 -5 24 4 -16

tfl.pseudo_qconst16 i1 [16] scale=0.013348005 zero_point=114
00000000: 8c36 1d3b 119c 4480 46fa 6b5d 147f 6849
-3.0700412 -0.8008803 -1.1345804 -0.7341403 -1.2947564 -2.856473 -0.61400825 -3.2302172
-0.5873122 -1.6017606 -0.09343603 -0.2803081 -1.2547125 0.17352407 -0.13348004 -0.5472682

tfl.pseudo_qconst17 i1 [16] scale=0.024797454 zero_point=-128
00000000: 46cb c3ea c94e 997f beea a9c1 c9aa 91a0
4.909896 1.859809 1.6614294 2.6285303 1.8102142 5.1082754 0.61993635 6.323351
1.5374422 2.6285303 1.0166956 1.6118345 1.8102142 1.041493 0.4215567 0.79351854

tfl.pseudo_qconst19 i1 [16, 3, 3, 3]
00000000: df4a 24c5 623c b57f 1330 dceb 02c6 eac8
00000010: 2501 5f9f ce55 a6e3 ead6 1ae0 b3aa 48ef
00000020: ea11 7f39 4d86 f0c6 d634 ec43 3801 e9a9
00000030: db3f 319b 244c f0d5 8c39 2c56 2818 7fd7
00000040: 8b88 d6fa 272f 5c6e f5f7 bef9 069d d031
00000050: f611 ffa7 d687 8114 dae9 38c4 2ed2 40ee
00000060: 5b11 699c 25e1 e76b 4d1c 1f20 81e0 fb1d
00000070: 2709 eccf 380e de24 dbe2 f240 f1b8 38f8
00000080: fc7c 4e1d 3baa c39a 5b27 ed1d fdce 034a
00000090: fb36 33ec 1af3 29fb bc01 e41b 1fbc e97f
000000a0: 87a9 f49e b2e8 ebb9 e117 6206 99d2 47ff
000000b0: eae4 3f4a e187 fae7 bbb7 031c 7f5b f4be
000000c0: bde4 41b0 fd6a 7f90 b3e7 17f7 b35d fe7d
000000d0: 97e6 35f1 e8a8 5725 db52 42b2 5226 81f6
000000e0: 8ee0 4ae4 d12f e6ee fdfa c427 05c1 ec10
000000f0: 4229 e828 a082 469b 8616 c9f3 edb6 d0ca
-33 74 36 -59 98 60 -75 127
19 48 -36 -21 2 -58 -22 -56
37 1 95 -97 -50 85 -90 -29
-22 -42 26 -32 -77 -86 72 -17
-22 17 127 57 77 -122 -16 -58
-42 52 -20 67 56 1 -23 -87
-37 63 49 -101 36 76 -16 -43
-116 57 44 86 40 24 127 -41
-117 -120 -42 -6 39 47 92 110
-11 -9 -66 -7 6 -99 -48 49
-10 17 -1 -89 -42 -121 -127 20
-38 -23 56 -60 46 -46 64 -18
91 17 105 -100 37 -31 -25 107
77 28 31 32 -127 -32 -5 29
39 9 -20 -49 56 14 -34 36
-37 -30 -14 64 -15 -72 56 -8
-4 124 78 29 59 -86 -61 -102
91 39 -19 29 -3 -50 3 74
-5 54 51 -20 26 -13 41 -5
-68 1 -28 27 31 -68 -23 127
-121 -87 -12 -98 -78 -24 -21 -71
-31 23 98 6 -103 -46 71 -1
-22 -28 63 74 -31 -121 -6 -25
-69 -73 3 28 127 91 -12 -66
-67 -28 65 -80 -3 106 127 -112
-77 -25 23 -9 -77 93 -2 125
-105 -26 53 -15 -24 -88 87 37
-37 82 66 -78 82 38 -127 -10
-114 -32 74 -28 -47 47 -26 -18
-3 -6 -60 39 5 -63 -20 16
66 41 -24 40 -96 -126 70 -101
-122 22 -55 -13 -19 -74 -48 -54
