models/ana-cont/ana-cont_1901_s0.tflite (tflite, 694256 bytes, 22 tensors)

arith.constant f4 [128]
000000 0e b3 0f be 1d 91 02 be aa c7 8d be 80 de 82 bd
       -0.14033148 -0.12750669 -0.27691394 -0.06390095
000010 8f 7c 9f be 7b b1 82 be 0d a6 50 be a8 32 9a be
       -0.31149718 -0.25526032 -0.20375843 -0.30116773
000020 1c b1 22 be 5d d9 8e be 65 90 05 be 90 11 9e bd
       -0.15887874 -0.2790021 -0.13043363 -0.077181935
000030 dc 32 87 be ff 8f 6f be fc fa 79 be ec 96 3d 3d
       -0.2640599 -0.23394774 -0.24412149 0.04628651
000040 23 95 99 bd 48 3b a9 bc cf de d9 bd f7 3a b1 be
       -0.07499149 -0.02065815 -0.106382005 -0.346153
000050 73 53 60 be cf e0 43 be 38 33 2f be 82 71 c7 be
       -0.21906833 -0.19128726 -0.17109382 -0.38953787
000060 b7 ea 9a bd 4e 8e a4 be b3 48 40 be 05 a7 2e be
       -0.075642996 -0.3213982 -0.18777733 -0.170559
000070 cf 7b 7e be f2 48 9a bd d5 b9 4f be 55 d5 88 be
       -0.24851917 -0.075334445 -0.20285733 -0.2672526
000080 46 ad 2b be c9 cd 81 be 9d 9d 3b be 40 48 27 be
       -0.16765317 -0.25352314 -0.18321843 -0.16336155
000090 e0 3e 0b bd 2e 9f 7e bd dd f0 76 be a2 a9 79 be
       -0.03399551 -0.062163524 -0.2411532 -0.24381116
0000a0 85 e6 f2 bd c0 15 9e be 85 d3 73 bd 13 ed cb be
       -0.11860374 -0.3087597 -0.059527893 -0.3982931
0000b0 80 49 fc bd 81 5f 3f be 2e 9a 5a be 32 f7 35 be
       -0.123187065 -0.18688776 -0.21347877 -0.17770079
0000c0 56 f2 91 bd 4d ab d0 be 3b 73 a8 bd fb 39 c8 bd
       -0.071263 -0.40755692 -0.082251035 -0.09776684
0000d0 b0 5c 5f be f6 59 7b be 77 bc 4c be b3 a1 65 be
       -0.21812701 -0.24546036 -0.19993769 -0.22424965
0000e0 82 72 05 be b4 01 9b be b6 08 16 be 74 97 c3 be
       -0.13031963 -0.30274737 -0.1465176 -0.38201487
0000f0 13 64 a7 be 19 1c 88 be 05 17 80 be 37 3a 5c be
       -0.32693538 -0.26583937 -0.25017563 -0.21506582
000100 86 eb c0 bd f5 4c 04 be 0e e9 bd be e7 e6 30 be
       -0.094199225 -0.12919982 -0.3709187 -0.17275582
000110 c7 fa d0 3c 28 bd 3f be e8 a7 ae be ae d0 b7 be
       0.025510205 -0.18724501 -0.34112477 -0.35901397
000120 50 33 8f be db ad 6e be df 75 a5 3c 50 d6 84 bd
       -0.27968836 -0.23308508 0.020197807 -0.06486189
000130 c9 83 81 be 8c df 7f bd aa 51 6b be e7 f4 b3 be
       -0.25295857 -0.06246905 -0.22980371 -0.35147783
000140 8e 96 fa bd f0 53 aa be 93 61 51 bd 38 81 af be
       -0.12235747 -0.33267164 -0.051118445 -0.34278274
000150 62 bb 6d be 29 81 5e be 6b 07 79 be 00 f6 94 be
       -0.23216012 -0.21728958 -0.24319236 -0.29093933
000160 47 55 8f be d8 eb 6a be 9e 86 2f bd 29 91 7c be
       -0.2799475 -0.2294153 -0.04285299 -0.24664749
000170 eb 63 cd be 74 a6 8c bd be b0 63 be 87 e5 3a be
       -0.40115294 -0.06867686 -0.2223539 -0.1825162
000180 71 28 16 be b9 88 4c be 4c 78 5f be 6c 06 88 be
       -0.14663865 -0.1997403 -0.21823233 -0.265674
000190 29 51 a6 be 7e 07 87 be 24 24 33 3c 14 bc 0d bd
       -0.32483795 -0.26372904 0.01093391 -0.034603193
0001a0 78 58 91 be d2 bf c1 be 28 3d a1 bc 98 99 36 be
       -0.2838781 -0.3784166 -0.019682482 -0.17832029
0001b0 71 0f 8e be 48 92 1c 3c 2f d9 91 be 2e 3b 98 be
       -0.27746156 0.009556361 -0.2848601 -0.2973265
0001c0 38 1b 0f be 16 41 38 bd 2f c4 6b be 7a 83 09 be
       -0.13975227 -0.044983946 -0.23024057 -0.1342906
0001d0 4e 9a bd bd 5d 54 8f bd ee de de bd 5f b7 9c be
       -0.09257947 -0.06998513 -0.10882364 -0.3060865
0001e0 b0 48 f0 bd 67 c5 93 be bd 3d 7d be 3d 7e 6b be
       -0.11732614 -0.28861544 -0.24730583 -0.22997375
0001f0 fb 5f 60 be 54 3f c8 bd 55 6b 85 be cb c1 78 be
       -0.21911614 -0.09777704 -0.2605845 -0.24292676

arith.constant1 f4 [64]
000000 f0 66 57 bd 91 e6 c1 be c0 38 89 be 71 89 2a be
       -0.052588403 -0.3787122 -0.2680111 -0.16653992
000010 e6 52 65 be c6 96 64 3c 7f 11 e2 be aa 44 83 be
       -0.22394904 0.013951963 -0.44153973 -0.25638324
000020 1f bb a0 be 62 e0 d0 bd bd c7 16 be d8 71 10 bd
       -0.31392762 -0.101990476 -0.14724632 -0.03526482
000030 fc ca 7c be a2 fd 62 be c5 fb d3 be 3f 30 fe bd
       -0.24686807 -0.22167066 -0.41403022 -0.12411546
000040 ab 42 80 be f0 41 ab be 9c 4c 4e be dd 35 40 be
       -0.25050864 -0.33448744 -0.20146412 -0.18770547
000050 9d b9 94 be f2 79 a7 be 0d 14 97 be 39 75 a1 be
       -0.29047862 -0.32710224 -0.29507485 -0.31534746
000060 d3 8c 62 be 36 4a 51 be d4 8e 47 be da a7 88 be
       -0.22124033 -0.20438465 -0.19488078 -0.2669056
000070 86 1b 13 be 51 ee 52 be 20 68 a4 be 26 a0 b5 bd
       -0.14365968 -0.20598723 -0.3211069 -0.088684365
000080 98 8a 5b bd 0a 21 6d be 35 8d 09 be fc 02 13 be
       -0.05359897 -0.23157135 -0.13432772 -0.14356607
000090 43 7a 91 be 53 f0 0d be 6d 52 9d be 32 db eb bd
       -0.2841359 -0.13861208 -0.30726948 -0.115164176
0000a0 c7 96 8b be 15 7b c6 be d3 7a 26 be 9b ce 80 bc
       -0.2726347 -0.3876578 -0.16257791 -0.015723517
0000b0 db 12 ea bd 0b e4 2f be 36 8d 91 be b0 d5 3d be
       -0.11429378 -0.17176835 -0.28428048 -0.18538547
0000c0 a3 07 42 be 60 27 1f be 0b ad 3b bc dd 4b 40 be
       -0.18948226 -0.15542364 -0.011454831 -0.1877894
0000d0 ce 1c 31 be 81 e3 3e be b6 6c 0d be 72 2f c0 be
       -0.17296144 -0.18641473 -0.13811001 -0.37536198
0000e0 74 05 90 be af 78 91 bd 45 d4 ad 3d 29 2d 91 be
       -0.2812916 -0.07103097 0.08487753 -0.28354767
0000f0 83 cc 39 be 06 0b 5a be ac 48 ac be 76 c2 6e bd
       -0.18144421 -0.21293268 -0.33649194 -0.05829092

arith.constant2 f4 [32]
000000 69 a9 39 be 56 bc 00 bf 67 f2 11 3e d6 aa 23 be
       -0.18131031 -0.5028738 0.14252625 -0.15983137
000010 09 74 68 be 67 da 42 3b b3 d8 c0 be b0 f4 98 be
       -0.22700514 0.0029732229 -0.37665328 -0.29874182
000020 df d0 1f 3d ed 9e 65 3d c2 9d f2 3c d8 bf 37 be
       0.039017554 0.056059767 0.02961624 -0.17944276
000030 80 0c b3 3d 00 64 30 3e 01 53 bd bd 0d c6 c2 bb
       0.087426186 0.17225647 -0.09244347 -0.0059440196
000040 55 bb 42 3d 41 7d b4 be e8 90 cb bd 0d 48 56 be
       0.047541935 -0.3525181 -0.09939748 -0.20925923
000050 b2 fa 2b 3e 25 c4 af 3d 43 0d 30 be 38 90 24 3e
       0.16794851 0.085823335 -0.17192559 0.1607064
000060 fb ab 74 bd 17 d7 10 be b2 cd 25 be 42 c4 e1 bc
       -0.059734326 -0.1414455 -0.16191748 -0.027559403
000070 54 a7 ce bd cb dd 90 bd 13 2c 29 be be 95 1e bf
       -0.10090509 -0.07073554 -0.16520719 -0.6194724

arith.constant3 f4 [16]
000000 8f b9 34 3e 0f 0d c3 3e 05 54 e2 3e 5d 44 94 be
       0.1764891 0.380959 0.44204727 -0.28958407
000010 8b 4b 6e 3e 26 61 11 be d6 ee 57 bd e6 bb d6 3e
       0.23271005 -0.14197215 -0.052718006 0.4194023
000020 94 57 02 3e 50 a4 8f 3e 50 10 3b 3e 85 03 48 3e
       0.12728721 0.28055048 0.18267941 0.19532593
000030 4f d8 41 3e be 87 30 be b4 1f 7c 3e 7d ff 8b 3e
       0.18930171 -0.17239282 0.24621469 0.2734336

arith.constant4 f4 [128, 512]
000000 d8 87 84 ba 16 9f c8 ba 28 95 9d bc e5 66 1d bc
       -0.0010111285 -0.00153062 -0.019236162 -0.0096070515
000010 df 45 3d 3b 3d 84 8e bc 47 e5 59 3c df 07 09 3c
       0.0028880758 -0.01739704 0.013299293 0.008363693
000020 3d bd 51 3c b2 af 79 3b 2c 69 49 3c d7 b1 52 3b
       0.012801466 0.0038099107 0.012293141 0.0032149458
000030 ff 2e 30 bc b6 fe 83 3b 6a ac a2 3a d7 5d 20 bb
       -0.010753392 0.0040281666 0.0012411003 -0.0024469995
000040 7b b7 8c 3b a5 2c 0f bb 8d ed f5 ba f1 f5 50 bb
       0.0042943335 -0.0021846679 -0.0018762812 -0.0031884874
000050 e7 a5 13 3a 6f 41 57 3b 55 5f b6 3b f9 48 a6 ba
       0.00056323264 0.0032845398 0.0055655637 -0.0012686542
000060 84 39 7d 3b 1b 2c 4e bc 5f ec 90 bb 3f 29 28 bb
       0.0038639018 -0.012583758 -0.004422709 -0.002565935
000070 fa 23 1f bb 7b 99 e3 bb b4 8b f6 bb e6 ac 30 3c
       -0.0024282918 -0.0069457865 -0.007523978 0.01078341
000080 51 d1 ba bb dc 2b 6e bb 10 f6 55 3b 8b 7b ff ba
       -0.005701222 -0.003634206 0.0032647885 -0.0019491775
000090 79 6a fe bb 9b f1 4b bb 7a d4 2f 3b 97 08 22 bb
       -0.0077641574 -0.003111935 0.0026829527 -0.0024724358
0000a0 ca da 1c bb 35 6d f7 ba 3e ea 83 ba 67 d9 38 bb
       -0.002393412 -0.0018877151 -0.0010064316 -0.0028205754
0000b0 cd 83 81 bb b0 9b 95 3a 14 be f8 3b de 7a 27 3b
       -0.0039524795 0.0011414196 0.0075910185 0.0025555412
0000c0 db ea c1 bb 8b 79 d1 bb 29 46 3d 3c b7 9f 19 3b
       -0.0059178895 -0.006392663 0.011552372 0.0023441145
0000d0 57 79 52 bc aa e2 67 3c 9c f6 36 3b 6d 10 05 3c
       -0.0128463125 0.014153162 0.0027917987 0.008121592
0000e0 cc 53 e2 b9 38 ab cd 3b 5d e2 8e 3c 57 b4 10 bb
       -0.00043168513 0.0062765144 0.017441923 -0.0022080147
0000f0 54 e8 a2 3a b9 a7 f4 3b ec c5 58 bc 97 3e 8d ba
       0.0012428858 0.007466283 -0.013230782 -0.00107761
000100 6c 2f 9c bb 01 27 88 3b a5 05 5f ba 9e 49 bb 3a
       -0.0047663953 0.0041550403 -0.0008507616 0.0014288907
000110 43 bc e4 38 b3 1c 9c bb 2f 9d 60 bb d3 e5 ff bb
       0.00010906954 -0.0047641634 -0.0034273376 -0.0078093796
000120 2e 20 4f bb e1 dc 89 bc 20 07 8c bb 91 3c d4 3a
       -0.0031604874 -0.016828956 -0.0042733103 0.0016192367
000130 bc a1 32 bc 22 af ea 3a 6b 4a 0e 3b b1 43 d7 bb
       -0.010902818 0.0017904977 0.0021711837 -0.0065693487
000140 93 b4 37 ba 26 ad 9f 3a 19 07 fb 3b 7c 5f a6 3b
       -0.00070078037 0.001218234 0.007660758 0.0050773006
000150 de e4 30 3b 39 8a 53 3b 0d 68 53 bc c7 a5 c2 bb
       0.0026991884 0.0032278432 -0.012903226 -0.0059401724
000160 8b 3b fe 3a fd 9a 19 b7 6b 78 df bb 99 7e fc 3b
       0.0019396407 -9.155597e-06 -0.006819775 0.0077055213
000170 b6 27 f5 bb 1b 07 9a 3b 34 c4 29 3b 53 81 a1 bb
       -0.0074815406 0.004700554 0.00259043 -0.0049287467
000180 38 c6 1d 3a af 54 87 3b 1a b7 35 bb 95 e5 c6 39
       0.00060186116 0.004129968 -0.0027727545 0.00037936555
000190 22 3e 13 3b 45 5e 96 bc 5e e3 4f ba 71 7e 62 3b
       0.0022467454 -0.018355498 -0.00079303037 0.0034560228
0001a0 70 6b 9e 39 d2 f0 a4 3c 33 8f 0f bc 7c 20 ae ba
       0.00030216156 0.020134363 -0.008762169 -0.0013284828
0001b0 60 15 fe 3b a6 e8 19 3b a1 9e 39 3c 50 4f b2 bb
       0.007754013 0.0023484617 0.011329324 -0.0054415837
0001c0 18 64 34 3a a5 db 30 bb 5b fb b2 3b 3a da 0a 3c
       0.000688137 -0.0026986387 0.005462093 0.008474881
0001d0 37 31 6c 3b b5 e6 a1 ba 90 d3 01 bb 9b 87 04 bc
       0.0036040077 -0.0012352081 -0.001980994 -0.0080889715
0001e0 ca ce 3a bb b4 42 1a 3b 2f ae 0f 3a e2 70 51 3c
       -0.0028504604 0.0023538293 0.00054809725 0.012783261
0001f0 f0 c6 41 bb 5e a4 13 ba 06 f3 71 bb 5e 86 77 3b
       -0.002956804 -0.00056320976 -0.0036918535 0.0037769298
000200 b4 3b a3 bb 03 6c 43 bb bd c2 f9 3b f6 6c d8 bb
       -0.0049814824 -0.0029819019 0.0076220916 -0.006604786
000210 c9 4d 89 3c c8 18 1c 3c 3a 6e 70 bb be 89 88 3b
       0.016760724 0.009527393 -0.0036686794 0.004166811
000220 53 e6 ba bb 88 63 0a 3b bc ec 41 3c e8 e7 ab 3b
       -0.0057037263 0.0021116454 0.011836227 0.0052461512
000230 af 13 76 3b 4b 19 0a bb 6e 3e e1 bb b2 c0 66 3b
       0.0037548353 -0.0021072205 -0.0068738973 0.003521007
000240 0f 20 e7 39 d8 56 0b 3c a9 57 a2 ba 48 8e 06 bb
       0.0004408364 0.008504592 -0.0012385744 -0.0020531584
000250 e3 f0 ea 39 3b b0 a4 bb a9 6c b2 bb 4a 0c 7d bb
       0.00044811433 -0.005025891 -0.005445082 -0.0038612061
000260 6a 6c 47 bb f1 f8 0f bb 3c 6f 5b bb 73 4a 3e 3b
       -0.003042961 -0.002196845 -0.003348305 0.0029036074
000270 27 b2 5e ba 23 a3 36 bc 28 2c ea bb 0e bc 71 bb
       -0.00084951747 -0.011147293 -0.007146377 -0.003688577
000280 ed 1e 73 3a 71 12 23 b9 02 0b 90 ba 65 df ac bb
       0.00092743227 -0.00015551761 -0.0010989609 -0.005275654
000290 35 b9 2b bc 98 a3 11 bb c7 72 00 bb a3 58 d8 3b
       -0.0104811685 -0.0022222754 -0.0019599663 0.006602363
0002a0 a1 72 e7 3b d3 87 93 ba 42 92 1f ba 15 d5 fd 3b
       0.0070632254 -0.0011255689 -0.0006087163 0.0077463486
0002b0 b5 9a 77 3b 43 e4 38 bc 19 00 90 bb a6 a5 8a ba
       0.0037781422 -0.011284891 -0.004394543 -0.0010577932
0002c0 cb ff ce bb 65 0e fb 3b ca 22 09 3b ef 31 9c bb
       -0.006317114 0.007661628 0.0020925277 -0.0047666947
0002d0 42 4e f9 ba af d0 c4 3a 54 cd dd ba 8c fb db 39
       -0.0019020515 0.0015015806 -0.0016922154 0.00041958352
0002e0 cd 76 7f 3a a8 7d a0 3b 2f 25 02 3b e9 83 84 b9
       0.0009745181 0.004897792 0.001985859 -0.00025275283
0002f0 7e 35 eb 3b b1 5c a6 bb e2 c7 95 bc df 56 92 bb
       0.0071780076 -0.0050769676 -0.018283788 -0.0044659222
000300 6f 88 c8 bb 36 72 0c bb 13 3b 4c 3a b5 65 a5 bb
       -0.00611978 -0.002143038 0.0007790785 -0.005047525
000310 31 c3 65 bc ae 09 d1 ba fd fc 0a bc df 13 f2 b9
       -0.014023588 -0.0015948319 -0.008483169 -0.00046172642
000320 dc 47 0d bb bc 6b 1c 3b b4 d7 ce bb 32 91 95 3b
       -0.0021557724 0.0023867926 -0.006312335 0.004564428
000330 15 b1 72 3b 97 5f a2 ba 65 df 94 3b 55 df 35 3b
       0.0037031819 -0.0012388107 0.0045432323 0.0027751524
000340 a2 25 fd ba 24 f5 e7 bc 76 62 cb 3b 29 bd 13 bb
       -0.0019313584 -0.028315134 0.006206806 -0.0022543168
000350 56 c9 49 bc 76 5d 88 3c 43 54 62 39 bd 90 d3 3a
       -0.012316069 0.016646128 0.0002158443 0.0016141158
000360 be b7 d5 3b db 89 89 bb 7e 04 29 bc 24 30 40 bb
       0.006522148 -0.004197342 -0.010316012 -0.002932557
000370 3e b7 f6 ba 9c 4c 85 b9 aa 1c b9 ba ea 9e b0 3b
       -0.0018822921 -0.00025424815 -0.0014122922 0.005390038
000380 41 5e ee 3b c3 1b 1b bc b9 b3 ee 39 10 5c 86 bb
       0.0072744195 -0.009467068 0.000455288 -0.00410033
000390 bd 27 d0 bb 96 09 74 3b e4 00 23 39 4e 07 e7 3a
       -0.0063523934 0.003723716 0.00015545223 0.0017626078
0003a0 b3 0d 90 3b 9b fd 76 bb cf a4 79 bb 43 d2 78 3a
       0.0043961643 -0.0037687782 -0.0038092618 0.00094917807
0003b0 bf d2 11 3c 87 f1 58 3b 6a 2a 2a bc 3f 25 2b bc
       0.008900343 0.0033102946 -0.010386089 -0.010445892
0003c0 fc d0 47 bb 61 f5 be 3a 5b c7 17 bc 62 e6 c4 3b
       -0.0030489555 0.0014568978 -0.009263839 0.006008909
0003d0 9f 30 98 3b b9 42 32 3a a0 fe 32 3c 06 d7 9b 3b
       0.004644468 0.00068001036 0.010924965 0.0047558574
0003e0 99 6f 53 ba b1 99 b5 39 6e 49 27 3b b9 b9 de 3b
       -0.00080656406 0.0003463752 0.0025525945 0.006797042
0003f0 c1 c5 46 3b 4f ba 44 3a 7f 75 30 3b 67 2b 2a 3c
       0.0030330273 0.0007504569 0.0026925502 0.0103863245

arith.constant5 f4 [128]
000000 23 0c 35 3f 9d 25 65 3d ce ed 5b 3b be e2 10 3f
       0.70721644 0.055944074 0.003355849 0.5659598
000010 4b 5b 01 3e 9c 0d 9e 3e ac b6 04 3f 1f ac 54 3f
       0.12632482 0.30869758 0.51841235 0.83075136
000020 51 33 4d bd 4c 67 a7 3e ca a8 23 be 17 f7 72 3e
       -0.050097767 0.32695997 -0.15982357 0.2372707
000030 1b 57 8c be 7b 6c 42 3f 8b 97 c6 3d 1d a0 3d 3d
       -0.27410206 0.7594678 0.09696873 0.046295274
000040 55 f4 19 3f 38 31 e7 3d 56 b3 de 3e c3 dc 24 bf
       0.60138446 0.112886846 0.43496197 -0.64399356
000050 a8 cf db 3e 73 3f 35 3e 70 f5 a1 3c d5 c1 08 3f
       0.42931867 0.17699985 0.019770354 0.53420764
000060 2f 84 fc be b0 cf 62 3f 4e 1b 41 3e 2f 72 5b be
       -0.49319598 0.88598156 0.18858072 -0.21430276
000070 26 34 18 3e 10 ee 64 3f 7f a6 1a bd 63 1e d0 3e
       0.14863643 0.89425755 -0.03775644 0.40648183
000080 0f 25 9e 3e 53 6a 1c 3f 0e 3a 1a bf 72 16 4d 3f
       0.30887648 0.6109974 -0.60244834 0.80112374
000090 fd df c5 3e 1c 42 b5 be b8 4b 26 3f 6c e4 91 3d
       0.38647452 -0.35402 0.6495929 0.07123646
0000a0 1b da 39 3e 16 b4 d5 3e 26 75 96 bd 00 00 7b 3e
       0.18149607 0.41738957 -0.07346563 0.24511719
0000b0 32 67 29 3f 95 25 b3 3e 7b 05 8f 3e 58 25 8e 3e
       0.6617309 0.3498961 0.2793387 0.27762866
0000c0 37 60 56 3e ef b7 ea 3e 20 17 07 3f fa cb 11 3e
       0.2093514 0.45843455 0.5276966 0.14237967
0000d0 27 59 61 3d e2 42 06 be ce 91 54 3f 62 c9 08 3f
       0.055016663 -0.13111451 0.8303498 0.53432286
0000e0 13 e7 c3 3e 0e da c2 3d 02 e2 99 3e d3 3c 9e 3e
       0.38262233 0.09514247 0.30055243 0.3090578
0000f0 0c 2d 9f 3e 21 20 17 bd 61 eb a0 3f 9c ac c3 bd
       0.31089056 -0.036895875 1.2571832 -0.09554407
000100 33 06 9c 3f 27 9a 9d 3e ae f4 14 3a b0 1c 92 3e
       1.2189392 0.3078167 0.0005682212 0.28537512
000110 80 0d 88 3e 1d b6 a9 3e 79 cf 29 3f 03 1b 03 bf
       0.265728 0.33146754 0.66332203 -0.5121309
000120 47 76 2d 3f d6 32 7f 3f ac 95 05 3f 88 b9 bf bc
       0.677586 0.99686944 0.52181506 -0.023403898
000130 c6 dd 45 3f 8e b2 ab be a4 f8 42 bf e3 94 f6 3d
       0.77291524 -0.33534664 -0.76160645 0.12040117
000140 53 88 73 be 44 f7 95 3e ad fd 34 bf 82 4f 8c 3c
       -0.23782472 0.2929021 -0.7069958 0.017127756
000150 dc f8 9b 3e 9f 7b 29 3f 5b 52 6b bd b9 8f b3 3e
       0.30463302 0.66204256 -0.057451587 0.3507059
000160 4c e7 37 3f af 83 04 3f 02 be 06 3f f9 aa d4 3e
       0.71837306 0.51763433 0.5263368 0.41536692
000170 ed ee 13 3f 02 41 02 3f 1d 9e 8f bc be fa 47 3f
       0.57786447 0.50880444 -0.017531449 0.7811698
000180 b8 a8 af be 0e 6c 96 bd 6e 4f b7 be 8d 34 5c bd
       -0.3430841 -0.073448285 -0.35802788 -0.053761054
000190 68 5d 8c 3e 8b 80 a7 3f f0 fd 00 bd b1 55 d3 3e
       0.27415013 1.3086103 -0.031492174 0.41276315
0001a0 2f 61 05 3f e2 88 98 3e f7 36 37 3f 08 21 1d bf
       0.52101415 0.29791933 0.71568245 -0.61378527
0001b0 e6 eb 95 3e 4b af 49 3f 81 84 ad 3d 09 49 01 3f
       0.2928154 0.787831 0.08472539 0.5050207
0001c0 88 82 f1 3e cf 19 1b 3f 58 a2 3b 3e 62 5d 20 3f
       0.471699 0.60586256 0.18323648 0.6264249
0001d0 30 3a 06 bf 76 ca c5 bc 0f a4 ec 3e ca 0d 16 3c
       -0.5243254 -0.024144392 0.46218917 0.009158561
0001e0 49 4e bb 3e ab 1b 61 bf 8f f3 b6 bd 1e 66 e9 3e
       0.36583164 -0.8793284 -0.08933174 0.45585722
0001f0 78 88 8a 3e 3e 0c 20 3f 10 19 4f bf 6c dd 28 3f
       0.27057242 0.6251868 -0.8089762 0.6596286

arith.constant6 f4 [128, 3, 3, 64]
000000 9e c2 15 be 25 81 b5 3d eb b0 20 3e e2 eb 18 be
       -0.14625022 0.08862523 0.15692489 -0.14933732
000010 35 73 35 3e b4 5f 36 be 4b 85 13 be 63 f2 1c bd
       0.17719729 -0.17809945 -0.14406316 -0.038317095
000020 79 3c 43 3e 31 5a e4 bd 2c 66 9b 3d 25 9c c2 bc
       0.19066037 -0.11150015 0.07587847 -0.023756096
000030 74 3c 8f be 81 67 33 be ab 12 af bc c5 ba 24 3e
       -0.2797581 -0.17519952 -0.021371206 0.16086872
000040 0e 68 22 be 93 cc be 3d 71 a4 82 3e 19 cc 5a bd
       -0.15860006 0.09316363 0.25516084 -0.0534173
000050 e0 e7 57 bd 75 9d 98 bd 2e 7c 9d 3c 89 e6 46 be
       -0.052711368 -0.074519075 0.019224253 -0.1942388
000060 00 bf 36 3e c4 00 2d bc 89 48 3b be 18 ad c1 bc
       0.17846298 -0.010559265 -0.18289389 -0.023642108
000070 49 fe 7e bd 81 b5 ce 3d d1 39 8c 3d f3 45 04 bd
       -0.062254224 0.10093213 0.06846965 -0.03229327
000080 c4 db 27 3e 48 85 97 bb be c9 0b be 6a 2f 7a bd
       0.16392428 -0.0046240427 -0.13651177 -0.061080374
000090 44 5f 1b 3e 66 a2 a5 bc 37 a4 fd 3d 18 2d 6b 3e
       0.1517306 -0.02021904 0.12384837 0.2296642
0000a0 00 3f 77 3d ec 66 d5 3d ac 0f 4c bd 72 da 2a bd
       0.060362816 0.104200214 -0.049819633 -0.041712232
0000b0 1c d6 8d bd 56 05 00 be b7 55 2f bd 79 12 bc 3d
       -0.06925604 -0.12502035 -0.042806353 0.09183211
0000c0 f8 a1 5a be 6f be 9b 3d 24 e5 ea bc 10 12 48 be
       -0.21350849 0.07604682 -0.028673716 -0.1953814
0000d0 0d 1f 67 be f9 f2 56 3e 15 f6 89 bd 43 6c 31 be
       -0.22570439 0.20991124 -0.067363895 -0.17326455
0000e0 4d f4 66 bd 89 50 6f 3d 89 b9 ce 3b 3a e1 d8 bd
       -0.056385327 0.058426414 0.0063087386 -0.105898336
0000f0 83 a4 15 bd b9 77 4a 3d eb da bd bd 5b cd a4 be
       -0.036533844 0.049430583 -0.09270271 -0.32187924
000100 76 27 15 3e 93 7d 9d 3d 16 3b 15 3e 2f 22 0b 3d
       0.14565834 0.07689967 0.14573321 0.033968147
000110 26 55 3d 3d 11 48 ed 3d 79 6a a2 bc 9c bf 31 be
       0.046223782 0.11586011 -0.01982616 -0.1735825
000120 67 9e d2 bd 86 67 e0 3d b1 1c 24 bd 25 59 27 3d
       -0.10284119 0.109572455 -0.040066425 0.0408565
000130 e8 f2 95 bd 2c e4 55 3d 31 b2 9e 3d 3b 20 56 3c
       -0.07321721 0.052219555 0.07748831 0.013069208
000140 53 de 9c 3c 96 1c 0c be 80 1a 00 be c1 5a a6 bd
       0.019148981 -0.1368278 -0.12510109 -0.08122779
000150 87 67 22 be 0d e0 14 3e 58 9c 2e bd b5 64 07 3e
       -0.15859805 0.14538594 -0.04262957 0.1322201
000160 5e e0 10 bd 70 33 d5 3d 79 51 e6 3c e1 b7 fc bd
       -0.035370223 0.104102015 0.028115021 -0.123397596
000170 dc 77 4d bd 9c 2d 94 bd 89 eb 8d bd d7 c3 9d bb
       -0.050163135 -0.07235262 -0.069296904 -0.0048146057
000180 76 df c1 3c ee 6b fb 3d 6c c1 e9 3d 3c 75 88 bd
       0.023666125 0.12276445 0.114138454 -0.06662986
000190 ca 2d 05 3d b0 3d 89 3d 0b d0 1c 3e 85 52 2a bd
       0.03251437 0.06701219 0.15313737 -0.041582603
0001a0 b1 d0 ac bd 01 09 96 3d 32 aa a7 bd 2a 07 65 be
       -0.08438242 0.07325936 -0.08186759 -0.22366014
0001b0 89 87 32 3e 66 cb 91 bd eb 88 35 bd 42 72 04 be
       0.17434515 -0.07118873 -0.04432003 -0.12934211
0001c0 6f 82 f7 3c 29 eb 21 be f5 42 a6 3a 81 61 49 3e
       0.030213563 -0.15812363 0.001268475 0.19666101
0001d0 29 6e 0f 3e 76 51 31 3c 94 81 41 bd 5c f4 cf bb
       0.14006867 0.010822644 -0.047242716 -0.0063462686
0001e0 4b e2 ab 3d 0e f6 dc 3d b8 3d 0c be 81 2f 0a 3e
       0.08392771 0.10789119 -0.13695419 0.13494684
0001f0 b2 74 c6 3d 65 6b 07 3e 3e 95 62 bd 73 1c 53 3e
       0.096902266 0.13224562 -0.05531811 0.20616321
000200 7d 9d 5f 3d 6f 3a e3 bd 30 45 86 bd 5c 5f ca bb
       0.054593552 -0.1109513 -0.06556165 -0.0061759185
000210 18 76 8b ba ef 88 68 3d 7e cb 9e b9 80 9a eb 3c
       -0.0010640053 0.056771215 -0.00030287722 0.028760195
000220 22 06 d2 bd ec b7 83 bc 90 47 66 bd 7f 59 de bd
       -0.10255076 -0.016078912 -0.05622059 -0.10856914
000230 71 a1 ab bd f4 e6 2d bc 33 fe 61 3d bb 41 ed bd
       -0.08380402 -0.010614146 0.055174064 -0.11584803
000240 12 12 3d bd 24 7d c1 bc 2f 9d 6d bd fa bd c1 bd
       -0.04615981 -0.023619242 -0.05801123 -0.09460063
000250 d5 30 2a be 8a 46 e3 bc ca e6 b7 bb 6c c3 07 3c
       -0.1662019 -0.027743597 -0.005612229 0.008286338
000260 af a1 0a be 3d 27 39 3b a9 f8 05 be 20 80 9d bd
       -0.1353824 0.0028252148 -0.13083138 -0.076904535
000270 ef aa 29 3c f4 e6 75 bd 9c 09 84 3d 0a 3a 17 3d
       0.010355695 -0.060034707 0.06447145 0.036920585
000280 cf d2 d2 bd e4 f8 65 3d 01 e5 91 bd 2a ef 1a be
       -0.10294115 0.056145564 -0.07123757 -0.15130296
000290 3e 2c d5 bc f2 0e 8d bd c3 c0 44 bd 18 4b 1d be
       -0.026022073 -0.06887616 -0.048035394 -0.15360677
0002a0 65 e9 90 bc a1 03 a9 3c e1 48 3c be 6a 67 70 bd
       -0.017689416 0.020631613 -0.18387176 -0.058692373
0002b0 39 35 9b 3d 4b 2d 35 3c b4 71 51 3e b6 b2 9b bd
       0.07578511 0.011058162 0.2045353 -0.07602446
0002c0 d8 a9 39 bd 3f 60 60 3e 48 9a 0a 3e 3c d5 c5 3c
       -0.04532799 0.21911715 0.13535416 0.02414953
0002d0 47 97 25 be 12 b3 74 3d 34 ae 40 3d c8 87 26 3d
       -0.16170989 0.059741087 0.047041133 0.040656835
0002e0 97 ff b6 bd 07 01 e3 bc 07 1d 10 3d 3c 46 10 bd
       -0.08935469 -0.02771045 0.035183933 -0.03522323
0002f0 8c 2c 84 bc be 4f 12 bd 85 d3 8b 3d 2b 39 b6 bd
       -0.016134523 -0.03572058 0.068274535 -0.08897623
000300 9c 5f f1 3c cc a0 50 3c b3 cc 2b 3d ef 72 d8 bd
       0.029464535 0.012733649 0.041943263 -0.10568797
000310 48 89 9c bd 41 a8 28 be c8 69 04 be a3 3d 16 be
       -0.07643372 -0.16470434 -0.12930977 -0.1467195
000320 5b 34 fc 3c 04 c5 0c be 37 64 89 bc 3f 5d 91 bd
       0.030786684 -0.1374703 -0.016771419 -0.070978634
000330 3b 30 9f 3d 7c 79 32 bc 44 ba 84 bd 5b 3d 6e be
       0.07772871 -0.010893222 -0.0648084 -0.23265593
000340 f1 9c 12 be de fb c9 3c be c8 2c be d3 9c 39 bd
       -0.14317681 0.024656232 -0.16873452 -0.045315575
000350 a1 e7 15 3e 01 9d e8 bb 37 f6 a0 bd b6 5e 64 3d
       0.1463914 -0.0070987944 -0.07859462 0.055754386
000360 4b 7a 50 be be cb 6d bc 4b 1a 38 bd e9 0f 4b bb
       -0.20359151 -0.014513908 -0.04494695 -0.0030984825
000370 d1 67 b5 3c 8f e7 ae bd 06 cd d7 bd c4 f4 97 3d
       0.02214423 -0.0854026 -0.10537152 0.07419732
000380 18 28 8a be 28 38 0a be b3 f8 7b be 8d 6b a3 3b
       -0.26983714 -0.13497984 -0.2460659 0.0049871863
000390 0a 65 77 3d 1e 1a 0d be 60 34 d2 bd 9f 9a 80 3d
       0.060399093 -0.13779494 -0.10263896 0.06279492
0003a0 f1 34 f4 3b 94 2a 07 be 57 25 68 bd 73 34 19 3d
       0.0074526 -0.13199836 -0.056676235 0.037403535
0003b0 2e f0 76 bc b7 87 09 be 8a 41 1a bd 8d 6f 41 3c
       -0.015071912 -0.13430677 -0.03766016 0.011806381
0003c0 2c 1e cd bd af a2 be bd 5d c7 90 3d 59 e7 45 bb
       -0.100155205 -0.09308373 0.070692755 -0.0030197708
0003d0 d7 c9 ce bd 3e e5 7f bb f4 a5 b2 bc b0 8a 3f bd
       -0.10097092 -0.003904655 -0.021807648 -0.046763122
0003e0 69 42 aa bc 26 28 af bd 9a 0c ba bd 27 c2 94 3b
       -0.02078362 -0.085525796 -0.09084435 0.0045397463
0003f0 c7 17 5b bd 20 2b 59 3d 45 64 05 be cc 18 28 bc
       -0.053489473 0.053019643 -0.13026531 -0.010259818

arith.constant7 f4 [64, 3, 3, 32]
000000 98 46 24 3d e4 0d 70 bc 23 46 9b bd 67 6b ac bd
       0.040106386 -0.014651749 -0.07581737 -0.08418923
000010 85 a1 84 ba 64 ac 61 be 9b 95 83 bd 4a c1 15 bd
       -0.0010118937 -0.22038418 -0.06425019 -0.036561288
000020 59 7e 0a 3d 1a 71 86 bd 70 39 3a 3e 33 78 73 3d
       0.0338119 -0.06564541 0.18185973 0.059440803
000030 1e 24 82 bc b4 4a b6 bc 6e fb 49 3d 90 1d 79 3d
       -0.015886363 -0.022252418 0.049312048 0.06081921
000040 23 83 90 bd c6 b0 bb bc 28 6b 6f 3d 66 c0 1a be
       -0.07056262 -0.02291144 0.0584518 -0.15112457
000050 1e ac dc 3d f1 20 a2 3d e4 e2 17 3d 41 ca 89 3d
       0.10775016 0.07916439 0.037081614 0.0672803
000060 7e a1 df bd 51 96 70 3c 8f ee 34 bd 81 b4 b2 3c
       -0.10919474 0.014684276 -0.04417282 0.021814587
000070 b4 81 cf 3d 6e d2 dd 3c ab 99 8e bd c6 30 b7 bc
       0.10132161 0.02707788 -0.069629036 -0.022362124
000080 64 22 b5 3c 40 7c c9 bd fd dc 2c be 68 7d 27 be
       0.022111125 -0.09838152 -0.16881175 -0.16356432
000090 3c 84 9c 3c 14 42 16 3d 92 a8 9d 3d 43 da 55 3d
       0.019106023 0.03668411 0.07698168 0.052210104
0000a0 3a a2 a8 bc df 2b 05 bd d1 fb 5e be fe 46 94 3d
       -0.020585168 -0.03251254 -0.21775748 0.07240103
0000b0 a2 c9 20 be 5b df a2 bc d0 e9 37 3e 89 14 1c bd
       -0.15701917 -0.019881895 0.17960286 -0.03810552
0000c0 47 19 58 be 91 43 fa bd 2e 31 74 3e 15 d8 5e bd
       -0.21103393 -0.122199185 0.23846886 -0.05440529
0000d0 ae 40 0b 3e 2e 08 e2 3d 3e 2d 29 be ce c6 8e 3d
       0.13598892 0.110367164 -0.16521165 0.06971513
0000e0 dd 13 51 bd ba ec 9e bd f3 a2 e6 bd 35 5b f6 3c
       -0.051044334 -0.07759996 -0.11261549 0.030072788
0000f0 af 9c b2 bd c0 93 a4 bd ae 48 d9 3d eb f4 3d be
       -0.08721291 -0.080359936 0.10609566 -0.1855046
000100 01 9b 80 bc 9d 44 7d be dc 1b 12 be 1c b0 b5 bd
       -0.015698912 -0.24733205 -0.1426844 -0.08871481
000110 5d 3b 1f be 4e de d2 bd df 53 ea bd 65 ca 0c be
       -0.15549989 -0.102963075 -0.114417784 -0.13749082
000120 72 7c 15 be 5a 50 1b 3e 7e ee bc bd 69 5d 10 bc
       -0.14598253 0.1516737 -0.09225176 -0.008811333
000130 b1 52 93 bd 74 3d 8d bd 87 96 2f bd 7f 9f 37 3d
       -0.071935065 -0.06896487 -0.042868163 0.04482984
000140 7e 5a 33 bd a4 a8 1c be 63 da c2 bd a4 58 82 bd
       -0.043787472 -0.15298706 -0.0951431 -0.06364563
000150 cc df 54 bc cb 9e e4 3c 0a 40 00 bd 78 b0 68 bd
       -0.01299281 0.02790775 -0.031311072 -0.05680892
000160 d3 55 c8 3d 96 35 6b 3c d4 c2 9e bd 71 f2 28 3d
       0.09781995 0.014356038 -0.07752004 0.041246835
000170 fc 06 e7 bd f7 ce 8b 3d 85 9a 50 bd 1f 10 df bd
       -0.11280629 0.06826585 -0.05092861 -0.10891747
000180 e3 43 20 be 7a 12 9c bb 82 fc 62 3d b2 e3 53 3e
       -0.15650897 -0.0047629448 0.05541659 0.20692328
000190 57 c5 62 3c 87 3f 13 3e 2f 2e 30 be a0 22 2d be
       0.013840995 0.14379703 -0.17205118 -0.1690774
0001a0 e3 a0 fc bd af bf d8 3d 98 40 b8 3d 04 dd 92 bd
       -0.12335374 0.10583436 0.08996695 -0.07171062
0001b0 d4 a9 96 3d 44 47 a6 3e 65 84 ef bd ec 2f 2f 3e
       0.07356611 0.32476246 -0.11695174 0.17108124
0001c0 80 ad 8f 3d 59 fa 2c be b1 ba a6 bd 9a de 93 bd
       0.070155144 -0.16892375 -0.08141077 -0.07220192
0001d0 89 63 a9 bc 8d 92 7a bd 5b d4 0a 3d 18 ee b5 3d
       -0.020677345 -0.061174918 0.033893924 0.088833034
0001e0 c1 1e 00 3e d7 f6 fc 3d 16 65 df 3d b4 1d e5 bd
       0.12511732 0.123517685 0.109079525 -0.11187306
0001f0 82 e8 fc 3c b6 df 81 3d b1 11 04 3d e0 b3 87 3b
       0.030872587 0.063414976 0.032243434 0.004141316
000200 0f f9 de 3b 31 6d 4a 3e a8 90 67 3d cc ef 1b 3d
       0.0068045924 0.19768216 0.05653444 0.038070485
000210 82 67 da 3b da ea 04 3e e4 bb 73 3e 90 f2 11 3e
       0.006665171 0.12980214 0.23802143 0.14252687
000220 f6 3a 50 be 63 b9 1a bd 85 ab b1 3c a9 d3 b4 bc
       -0.20334992 -0.037774455 0.021688232 -0.022073584
000230 5a ec e6 3c 70 9e f5 3d a9 21 82 3d a1 3c 9b bd
       0.028188873 0.1199311 0.063540764 -0.075799234
000240 98 04 2a 3d 8c 0d 34 be a1 d8 c7 3d 04 11 83 3b
       0.041508287 -0.17583293 0.097581156 0.003999831
000250 10 f9 1a be ce 86 86 3e 9f a7 49 be 47 32 1e be
       -0.15134072 0.26274723 -0.19692849 -0.15448867
000260 c0 cd e0 3b c5 65 00 3e 60 82 11 3e e0 43 4f be
       0.006860465 0.12538822 0.1420989 -0.20240736
000270 5e 58 c8 bd 76 a2 52 3e ed e9 01 bc 76 40 e2 3d
       -0.0978248 0.20569786 -0.007929307 0.11047451
000280 83 e3 29 3c 54 12 72 bd 74 0c 12 be 5d c4 4c be
       0.010369184 -0.05909951 -0.14262563 -0.19996782
000290 24 59 4d bb 92 5a 77 bd 03 e7 46 3d 15 6b 05 be
       -0.003133365 -0.06038911 0.048560154 -0.1302913
0002a0 8e 32 32 3e a1 29 2f 3e af 03 f6 bd 36 31 7e bd
       0.17402098 0.17105724 -0.12012421 -0.06205865
0002b0 44 89 8a 3d a3 7d f6 bd fc 35 28 3d ce 57 bf 3d
       0.067644626 -0.12035682 0.04106711 0.09342919
0002c0 74 95 fd bd 1a f0 7e bd c5 e0 d4 bb 33 28 c7 3d
       -0.123820215 -0.062240697 -0.006496521 0.09724464
0002d0 76 c7 12 3d 39 7f 3e bd f6 51 85 3d 01 cd 7f 3d
       0.035834752 -0.046508048 0.065097734 0.062451366
0002e0 52 9d 6b 3e 3d 6e 71 bd 1f 81 cc bd f0 b9 d1 ba
       0.23009232 -0.058943022 -0.099855654 -0.0016000848
0002f0 de d0 ee 3b d7 e0 63 3d 9a fc cf bd 5b bf 22 bd
       0.0072880825 0.055634346 -0.10155602 -0.039733272
000300 3c 81 a2 bd e5 70 4c be f9 87 c2 bd 09 b9 83 3d
       -0.07934806 -0.19964941 -0.09498591 0.06431777
000310 0f a1 00 3e 73 ac 14 3e de 4a 35 bd 1e de 32 be
       0.12561439 0.14518909 -0.044260852 -0.17467543
000320 20 e0 ea bd 46 30 0d 3e 78 03 03 3e 3a 63 ca bc
       -0.1146853 0.13787946 0.12794292 -0.024705518
000330 6d 56 a7 bd f1 db 13 3d 84 72 ba bd 9e 99 94 bd
       -0.08170781 0.036098424 -0.09103873 -0.07255863
000340 16 2c 2c be d5 f9 63 bc a8 db 0c bd 6c 7d 02 3e
       -0.16813692 -0.013914545 -0.034389168 0.12743157
000350 2f b5 60 bd 87 9f 9f bb 72 5f 8c bc 38 2a cd bd
       -0.05486029 -0.004871312 -0.017135356 -0.10017818
000360 0c db 00 3e 28 d3 66 be c8 8d 64 be 3f 57 87 3d
       0.1258356 -0.22541487 -0.2231971 0.06608438
000370 8b 0d 09 be ea 69 c1 bd 46 4e cc bc 97 45 79 be
       -0.13384072 -0.0944403 -0.024939667 -0.24342953
000380 bc 78 c2 3d 26 70 54 3d 5c df b2 bc bf 9d ba 3c
       0.094956845 0.051864766 -0.021835022 0.022780297
000390 e2 73 58 bc cf 28 34 3d 38 43 08 3e aa 9b 89 3d
       -0.013211222 0.04398423 0.13306892 0.06719144
0003a0 c3 90 d9 bd dc be 0d 3e 0a 32 65 3e 1b 5d 45 be
       -0.10623314 0.13842338 0.2238237 -0.19273798
0003b0 fc 74 40 3e 1b fe 0b 3e f5 c0 d9 bd 74 42 0f bc
       0.18794626 0.13671152 -0.10632507 -0.008743871
0003c0 01 f9 1f 3e 7a eb 5a bd 3a e1 2c be fd 63 75 3d
       0.15622331 -0.053447224 -0.16882792 0.05990981
0003d0 3f 31 7c bd f5 96 5c 3d 9b 98 ef bc 9a 4e 62 be
       -0.061570402 0.0538549 -0.029247573 -0.22100297
0003e0 0f 85 0a 3e 23 0c e3 3d dd 52 d1 3d f8 2e 2a 3e
       0.1352732 0.11086299 0.10220883 0.1661948
0003f0 ec 77 b2 bc 38 f9 bd bd 77 b7 9f bd d3 32 d1 3d
       -0.021785699 -0.0927605 -0.07798665 0.10214772

arith.constant8 f4 [32, 3, 3, 16]
000000 26 41 94 bd 44 90 96 3d 4e 91 7e bd 46 e6 91 3c
       -0.072389886 0.07351735 -0.062150292 0.017809998
000010 31 9c f1 bd 2f 03 15 3e 2a 3b 8c bc 05 a5 0e be
       -0.11797369 0.14551996 -0.017118055 -0.13930137
000020 a8 c3 99 3c 29 5c 62 bd d9 6c 80 bd 7b a3 cf bd
       0.018770054 -0.055263672 -0.06270761 -0.10138603
000030 a2 2f 9e 3d d4 a5 3d be 24 7d b0 3d b9 6a 19 be
       0.07723929 -0.1852029 0.08617619 -0.14982118
000040 c1 43 73 be 59 7b 26 be d2 cb be 3d fe c8 dd 3c
       -0.23756315 -0.16257991 0.093162194 0.02707338
000050 4d 21 cf bc a8 e8 0e 39 34 26 56 3d 4e 7c c8 3d
       -0.025284434 0.00013628847 0.052282527 0.09789334
000060 e3 b9 92 ba 75 66 cb bd 58 6e bc 3d 2a db 96 bd
       -0.0011194315 -0.099316515 0.09200734 -0.07366021
000070 80 51 53 3c 13 33 82 be da ed 59 3e 55 b8 ab bd
       0.012897849 -0.25429592 0.2128214 -0.08384768
000080 10 6c ab be 60 c5 3d be fb 41 5b bd 15 83 d4 3d
       -0.33480883 -0.18532324 -0.05352972 0.103765644
000090 de 7f 3b 3b b0 4b 5d bd 1d f4 be 3d 6d 8f 0e 3e
       0.002861015 -0.05402726 0.09323905 0.139219
0000a0 c2 a0 60 bd e8 b3 52 be ab 60 07 3d 5d 70 11 be
       -0.05484081 -0.20576441 0.033051174 -0.1420302
0000b0 a1 ee c1 bc 8a 83 74 be 2b 73 0b 3e 15 42 85 3b
       -0.023673357 -0.23878303 0.13618152 0.0040667155
0000c0 b9 1e a8 bc 90 dc d2 bd 0a 41 b5 3d 62 62 22 3e
       -0.020522462 -0.10295975 0.08850296 0.15857843
0000d0 44 31 06 be be 2f cf bc e6 f3 1f 3e 78 d0 b4 bd
       -0.13104731 -0.02529132 0.15620384 -0.08828825
0000e0 80 b3 95 bc cc f6 59 be af 8d 9f 3d b5 4d 3a bd
       -0.018274069 -0.21285552 0.07790696 -0.045484263
0000f0 b9 b2 18 3d 3f 9d 66 3b f6 d3 94 bd 93 a6 15 3b
       0.03727982 0.003518894 -0.07266991 0.0022834882
000100 ef de 3e bd 6a 3b d0 bc da a6 af 3c 9c e6 9e bd
       -0.046599325 -0.025418956 0.021441866 -0.07758829
000110 91 20 34 bc 19 1a 91 3d 54 66 1a 3e 2b 50 19 3e
       -0.010994093 0.07085056 0.15078098 0.14971988
000120 f7 3b 94 3e be fc 7d be fe 91 23 be 00 e5 63 3b
       0.28952 -0.24803445 -0.1597366 0.0034773946
000130 d4 1f 80 3d 8d 75 56 3e 43 e8 aa 3d c8 b8 25 3e
       0.06256071 0.2094328 0.08345082 0.1618377
000140 f1 7e 74 bd 33 1a 75 bd 0f 02 48 3e 68 41 9a bd
       -0.059691373 -0.05983944 0.19532035 -0.075320065
000150 5d a3 43 3c 6f 85 f0 bd 24 07 b2 bd c7 ee 5a 3e
       0.011940804 -0.117442004 -0.08692768 0.21380149
000160 5f cb cc 3c 05 e5 8a be 54 08 f5 bd 83 35 a2 bd
       0.024999319 -0.27127853 -0.11964479 -0.07920363
000170 03 bc 7c be 94 b7 7a 3c 9c 0e be bb a4 f4 4a 3e
       -0.24681096 0.0153025575 -0.0058000814 0.19819885
000180 b2 15 54 bc 08 3f 14 be e0 d7 b4 3c ce 6d b3 bc
       -0.012944626 -0.1447717 0.022075593 -0.021902945
000190 e8 ee 4c be ef f8 b4 bd c9 10 ac 3d c3 b2 43 3e
       -0.2001301 -0.08836543 0.08401639 0.19111161
0001a0 f6 32 ec 3c 6f 37 f0 bd f9 d3 4e bd f8 3a eb bd
       0.028832894 -0.11729323 -0.05049512 -0.11485857
0001b0 1e 6e 7d bd 25 f2 1e 3d 5b 00 fa 3c 9e 5b 0f 3e
       -0.061872594 0.038805146 0.030517748 0.13999793
0001c0 b8 80 1e 3e b8 c6 37 3d 01 a1 0a 3d 77 95 e5 bd
       0.1547879 0.044867247 0.03384495 -0.11210149
0001d0 45 ec 9c bd 05 b2 91 3c a9 90 32 be a8 21 60 3e
       -0.07662252 0.017785082 -0.17437996 0.21887839
0001e0 8b a4 ba bd b6 4f 88 bd f3 14 37 3c 9e 92 17 be
       -0.09113415 -0.06655829 0.011174428 -0.14802024
0001f0 84 c6 82 3d cd 4e 48 3e 14 1c 0e bd 3b e7 ef 3d
       0.0638552 0.1956131 -0.034694746 0.117140256
000200 63 16 f7 3d 6b 5d 8b 3d 7b ab ce 3d d2 74 b8 bd
       0.12064817 0.068049274 0.10091301 -0.09006657
000210 03 74 7e 3c 03 82 be bd 05 53 01 be 07 5e 83 bd
       0.015530589 -0.093021415 -0.12629326 -0.06414419
000220 d0 7a f0 bd 8a cd 3c bd b4 e3 0b bd f3 75 62 3c
       -0.117421746 -0.046094455 -0.0341527 0.013822067
000230 88 50 19 3d 20 0f 5d 3e 70 1b 89 3d 62 44 66 bd
       0.037430316 0.21587801 0.066946864 -0.05621756
000240 49 34 ac bc 21 22 bc bd ef ac 46 3d a9 cf 34 3d
       -0.021021025 -0.09186197 0.048504766 0.044143353
000250 e3 c9 0c bc a4 6a b7 bd 48 8f 82 bd 40 41 10 3d
       -0.008593055 -0.08955887 -0.06374985 0.035218477
000260 13 f4 71 3c 43 56 97 3d eb cd 06 3e b7 7e 8a 3d
       0.0147676645 0.073895 0.13164489 0.0676245
000270 3c 66 0e be 88 12 25 3e 4b ad c8 3c 28 6a 25 bd
       -0.13906187 0.1612035 0.024496695 -0.04038444
000280 af 95 bd 3d 73 8e 02 bd ec ff 80 3e 27 5b 11 3d
       0.092570655 -0.03187413 0.25195253 0.03548732
000290 1c 55 0a bd 99 b8 41 be 7a d7 e9 bd df b1 03 3d
       -0.033772573 -0.18918075 -0.11418052 0.032152053
0002a0 75 d8 33 be 66 b9 3a be 38 9d a6 bd 7e 9f 20 3d
       -0.1756304 -0.18234786 -0.08135456 0.039214604
0002b0 4d b5 86 bc c5 79 1e 3e ce 20 54 3c 19 27 e9 3d
       -0.016443873 0.15476139 0.012947274 0.113844104
0002c0 64 59 23 be b4 a6 2b 3e 13 e4 08 3e 2f 44 d8 3c
       -0.15952069 0.16762811 0.13368253 0.0263997
0002d0 a0 ad b4 bd 42 3e cb bc f9 04 09 3e 4e 40 fa 3d
       -0.08822179 -0.02480996 0.13380803 0.122192964
0002e0 ea 80 10 bb 1c dc 2c be 6c f6 c6 bd 6f f9 57 3d
       -0.0022049495 -0.1688084 -0.0971497 0.052728113
0002f0 26 18 ff 3d 14 00 a6 3d 87 83 3a 3d 4e 5a d1 3d
       0.12455778 0.08105484 0.04553559 0.102223024
000300 33 c4 a8 3d 85 b9 8d 3c 36 88 a7 be 69 97 1a 3c
       0.08240547 0.017300377 -0.32721108 0.009435513
000310 fd 2d af 3d 2a 0a e3 3d a7 bf a1 bc cd 18 8f bd
       0.085536934 0.11085923 -0.019744707 -0.06987152
000320 c9 bd a5 3c dc a5 d6 3d d9 15 8c bd 2b 50 d8 bd
       0.020232098 0.10480854 -0.068401046 -0.10562166
000330 d3 fc 33 bd 07 52 ac bd db 9e bf bd 4f 45 22 bd
       -0.043942284 -0.08414083 -0.09356471 -0.03961688
000340 fb 2c 1e 3e db 04 a4 3d db 1e f9 bd 37 7d 5b bd
       0.15446846 0.080087386 -0.12164088 -0.05358621
000350 84 86 5e 3b 45 68 0b 3d ae b2 fa bd 8b 10 42 bd
       0.003395469 0.034034986 -0.12241112 -0.047379058
000360 07 58 7e bc ea 8d ad 3d 1f f8 bf bd 56 37 e2 3d
       -0.015523917 0.084743336 -0.09373497 0.11045711
000370 6e 99 8f bd 06 49 18 3d b1 7e 50 bd 85 23 48 bd
       -0.07011686 0.037179016 -0.050902072 -0.048862
000380 92 b6 57 3e 1f 95 27 bc b6 61 43 3d 5d 70 8f bd
       0.21065739 -0.010228424 0.047700606 -0.070038535
000390 b9 bb 0e be e6 59 06 be 2a 65 1b bd ad 29 0e 3e
       -0.13938798 -0.13120231 -0.037938274 0.13883086
0003a0 5c 9a 39 be cb 0a 91 3c c7 b3 01 3d c7 20 51 bd
       -0.1812529 0.017705342 0.03166559 -0.05105665
0003b0 df 6a 0f be d1 be 3a 3d f8 8a 74 bc ef ba 1e 3e
       -0.14005612 0.045592133 -0.014925711 0.15500997
0003c0 7a 1e 32 be a3 c5 a1 3c eb 16 84 be 80 db 10 3e
       -0.17394438 0.01974756 -0.25798735 0.14146233
0003d0 7c 4b b9 3d c4 0e 68 3e 62 b9 85 3e 0c 0c 4d be
       0.090476006 0.22661883 0.26117998 -0.20024127
0003e0 8a bf f8 3c a3 41 6a 3d 0f b3 22 3e a9 66 96 be
       0.03036477 0.057191502 0.15888618 -0.29375198
0003f0 ca 6f 1a bd 5d 8a 33 be 4f c3 f9 3d b5 ae 32 be
       -0.037704267 -0.1753325 0.12195455 -0.17449458

arith.constant9 f4 [16, 3, 3, 3]
000000 a0 aa 9f 3e 22 02 30 be e4 91 09 be 5c 0f c4 3d
       0.31184864 -0.17188314 -0.13434559 0.09573242
000010 2e ee 62 be ef 34 45 bd c6 51 86 bd b5 52 aa bd
       -0.22161171 -0.048146185 -0.06558566 -0.08316556
000020 99 5e 20 3e 50 f9 22 3e 6b 8d 2a be eb f1 2a be
       0.15661086 0.15915418 -0.16655509 -0.16693847
000030 3f 6c db 3d 66 11 56 be 36 2c 9e 3c 93 6d 07 be
       0.10714006 -0.20905074 0.01930819 -0.13225393
000040 78 38 6e bc 87 5a a1 bd c5 68 12 be 9e 10 6e 3e
       -0.01453983 -0.07878595 -0.14297779 0.23248526
000050 79 27 b4 3e 7d 25 f6 3a d4 29 8c bc e4 60 c3 bd
       0.35186365 0.0018779483 -0.017109789 -0.09539965
000060 39 fd f3 bd d4 bf 17 3e 51 a8 1d 3e 98 5f 10 3e
       -0.11913533 0.1481927 0.15396239 0.14098966
000070 9f 5e d1 bb 55 32 4d be 53 dd cb bd d1 39 5c 3d
       -0.0063894535 -0.20038731 -0.099543236 0.053766076
000080 3e 5d 99 bc a9 59 97 bd 15 03 f1 3d c0 0d 15 bd
       -0.01872122 -0.07390148 0.11768166 -0.036390066
000090 17 19 25 3e e4 2a 6b be 97 fa 63 be 46 13 00 be
       0.16122852 -0.2296558 -0.22263561 -0.12507352
0000a0 0c 5f 2a bc ac 4f 14 3d 1d 2c 0e be f2 f9 0d 3e
       -0.0103986375 0.036208794 -0.13884015 0.13864878
0000b0 84 34 30 3e 05 d1 9f 3e 07 90 5d bd f7 79 44 3d
       0.17207533 0.31214157 -0.054092433 0.047967877
0000c0 06 d4 c1 bd 77 7e 07 bd e7 49 19 3d d4 ef 6e be
       -0.094642684 -0.03307959 0.037423994 -0.23333675
0000d0 3d fb ed 3d 29 1f 3a 3e cf 94 5a bb 18 f5 66 3d
       0.116201855 0.18175949 -0.0033352857 0.056386083
0000e0 3c d7 ab bc 9f 9c 3b be 08 13 3c 3e 86 ca 84 3e
       -0.020976655 -0.18321465 0.18366635 0.25935763
0000f0 aa ed 52 be e1 7e 82 3e 89 47 01 3e a6 c7 8a 3e
       -0.20598474 0.25487426 0.12624945 0.27105445
000100 bb 61 fb bd 72 f7 5b be c4 f4 85 bd a8 78 3a bd
       -0.122745 -0.21481112 -0.06540826 -0.045525223
000110 ab 67 52 bd d0 c4 90 bc 7f 0f 58 3d d8 a8 b2 3d
       -0.051368397 -0.017671973 0.052749153 0.08723611
000120 89 f4 6b 3d 1b e1 37 be 14 39 bd bd 59 a7 97 3e
       0.057606254 -0.17956965 -0.092394024 0.29619864
000130 c0 bb 58 be d1 09 0b be 30 09 22 be f3 fd 32 bd
       -0.21165371 -0.13577963 -0.15823817 -0.043699216
000140 1b 95 f8 3d af 0a e7 bd 74 24 09 bd 16 f3 26 3d
       0.121378146 -0.112813346 -0.03348203 0.04075917
000150 31 d4 fc bd ca 57 6b be bb 11 df bd c7 60 81 be
       -0.1234516 -0.22982708 -0.10892054 -0.25269148
000160 1e c3 bd 3c d1 9b 2b be f4 da 87 be 35 5d 6b 3e
       0.023164328 -0.16758658 -0.26534235 0.22984774
000170 4c e0 4c 3e 33 5d 2e bd 92 6f 56 3e 10 72 b9 3c
       0.20007437 -0.04256935 0.20940998 0.022637397
000180 a1 73 ab 3d 5e ab 99 3d 15 27 93 bc 8f ab b3 bd
       0.08371664 0.07503389 -0.017962972 -0.087729566
000190 59 79 73 3e 81 38 e5 3d 7e 54 83 3c 73 f4 28 3e
       0.23776759 0.11192418 0.0160315 0.164995
0001a0 d6 e0 10 3d ea 9d 4f bc cf b4 00 3e 07 67 89 3a
       0.03537067 -0.012671927 0.12568973 0.0010482975
0001b0 7e f3 0a be 33 c5 de 3d 82 d8 25 bd 90 bc 33 be
       -0.13569447 0.108774565 -0.04048968 -0.175524
0001c0 25 5b f6 bd ff b6 69 be e0 aa 1f 3e e8 73 9d bd
       -0.12029103 -0.22823714 0.15592527 -0.07688123
0001d0 fe 6f a0 be ef ec 8e 3d 58 d8 9d 3e 42 a9 98 3e
       -0.31335443 0.06978785 0.3082912 0.29816633
0001e0 5f 7d 70 3c cc e6 a3 bd 01 70 ca 3d 4d 68 f4 bc
       0.014678328 -0.080030054 0.09884644 -0.02983489
0001f0 87 06 ee bd cc a1 86 3d cc f5 a8 bc d1 3d c8 3c
       -0.11622339 0.06573829 -0.020625018 0.024443539
000200 f4 a4 1f 3d cc d8 f4 bc 87 46 9d bd a8 c0 a0 3d
       0.03897567 -0.029888533 -0.07679468 0.07849246
000210 d0 ae c0 3d 3e 13 cd 3b d3 dc 0a 3e 40 62 63 bd
       0.09408343 0.0062583974 0.135608 -0.05551362
000220 ea b9 e8 bd 27 d3 a0 bd e1 36 96 be 38 70 6c 3c
       -0.11363585 -0.07852774 -0.29338744 0.014431052
000230 c2 dc 25 3d 3f cf 22 3d 59 58 fa bd eb 78 b8 3d
       0.040493734 0.039748427 -0.12223882 0.09007438
000240 4e 86 45 be ab c1 8b 3d 73 3b 49 3e 2e e8 2c 3d
       -0.19289514 0.068240486 0.19651584 0.04221361
000250 65 f6 4c 3e 6d 58 6e 3e 90 58 b9 3b 41 dd ca 3d
       0.20015867 0.2327592 0.0056563094 0.09905482
000260 16 88 60 3d 85 86 19 3d 0a a6 ab 3d 78 66 dd bc
       0.05481728 0.037481803 0.08381279 -0.0270264
000270 17 83 29 bd 4a 8a 86 3e 31 de 86 3e 2c dc a2 3d
       -0.041384783 0.2627738 0.26341394 0.07952151
000280 74 90 8b 3e b7 4e 36 3e 00 61 2b be a2 c3 4c 3d
       0.27258646 0.17803465 -0.16736221 0.049991257
000290 57 29 90 3d 40 b2 e6 bd 52 da 9b 3d 4f 24 eb bc
       0.07039135 -0.11264467 0.07610001 -0.028703837
0002a0 18 c8 4e be 33 aa 0b 3e d9 98 08 3e 8f 74 73 be
       -0.20193517 0.13639145 0.13339557 -0.23774932
0002b0 fb 94 66 3d c2 02 39 3e b2 4b 97 be e6 44 31 3e
       0.056294423 0.18067458 -0.29549938 0.17311439
0002c0 ab 94 23 3e 52 f2 a3 3b 56 72 0d 3e f2 33 1f 3e
       0.15974681 0.005003252 0.13813147 0.1554716
0002d0 ce df 37 be 85 01 1b 3d 75 b7 7f 3c f6 ee 82 3c
       -0.17956468 0.037843246 0.015607704 0.015983086
0002e0 65 e7 04 3e 91 92 b8 bc c8 0e 74 be 7e 44 28 be
       0.12978895 -0.022530826 -0.23833764 -0.16432378
0002f0 05 93 88 bd 13 d2 61 be 52 5e 80 3e 14 cb 61 3d
       -0.06668667 -0.22052793 0.2507196 0.05512531
000300 29 17 57 be 3b db 4b 3e 15 0b ca 3d 30 8e 0b 3e
       -0.21004929 0.19907849 0.09865395 0.13628459
000310 7c 95 b4 bd 24 b7 18 3e 45 90 7c bd 86 a1 f8 3d
       -0.088175744 0.14913613 -0.061661024 0.12140183
000320 f3 09 1a 3e 08 44 7f 3d 44 90 a2 bd cb fa 13 bd
       0.15042858 0.06232074 -0.07937673 -0.036127847
000330 9d 1b 2d 3e 16 7c 81 3c ca 2b 00 be 8f a3 2f 3d
       0.16905065 0.01580624 -0.12516704 0.04288059
000340 63 ad 59 bd cc ae af 3d 57 71 7f 3d d0 e4 8a be
       -0.05314387 0.08578262 0.06236395 -0.27127695
000350 4c 86 1e be b8 fc a5 3d 4c ee c9 bd e0 3c 52 be
       -0.15480918 0.08104843 -0.09859905 -0.20531034
000360 7c 8f 54 be 36 f1 08 3e 4f 73 a1 3d 79 a7 3f 3c
       -0.2075786 0.13373265 0.078833215 0.011697643
000370 93 73 09 3e 33 f6 6b 3e 63 3a 6a 3e 35 94 ca bb
       0.13422994 0.23043136 0.22873835 -0.0061822184
000380 70 18 6b be 8b 9d af be c3 fa e5 bd 27 91 6b be
       -0.22958541 -0.34299883 -0.112294696 -0.2300459
000390 dd 3d 18 bd 1f ff 20 3d 99 9b 04 3e ab ad bd 3d
       -0.037168372 0.039305802 0.12949981 0.0926164
0003a0 93 76 02 be 05 2d 9d 3d a1 49 30 bd 22 8b 47 3e
       -0.12740545 0.076746024 -0.043038968 0.19486669
0003b0 61 e3 62 ba f4 10 79 bd d5 eb ea bd d2 f3 cb 3d
       -0.0008655098 -0.060807183 -0.11470763 0.099586144
0003c0 97 90 3e 3e 07 69 99 bd d0 b7 95 bd 84 de 6f 3e
       0.18609844 -0.074907355 -0.0731045 0.23424727
0003d0 b5 5d 93 be 1b 29 f7 bd 5a 07 4e 3c 29 30 89 bd
       -0.2878243 -0.12068387 0.012574995 -0.06698639
0003e0 3f c7 3a be 28 c8 db bc 5c aa 82 bd 5b 9d 2e bd
       -0.18240069 -0.02682884 -0.0638015 -0.042630535
0003f0 0f 1a a9 3d d3 77 2c be 17 9e 99 3b 64 7c 0c 3c
       0.082569234 -0.16842584 0.004688035 0.008574579

arith.constant10 f4 [2, 64]
000000 58 c8 66 be 20 41 a5 3b ee 6d df 3d 0c 4e a4 3b
       -0.22537363 0.005043164 0.10909639 0.0050141867
000010 b1 22 c6 3d c1 13 6f bd f7 cb a8 3d 88 6e 1c 3c
       0.096745856 -0.05836845 0.08242028 0.009547837
000020 6f 11 fb bd 28 59 39 be 65 b4 26 3d d3 59 fb 3d
       -0.122591846 -0.18100417 0.04069938 0.12272992
000030 65 f6 28 bd 13 61 93 b8 78 bd ea 3c a0 e7 ab 3d
       -0.041250605 -7.027588e-05 0.028654799 0.08393788
000040 ab b2 17 be 90 9e 5c be 9b a3 83 3d 86 6e c8 3d
       -0.1481425 -0.21544862 0.0642769 0.09786706
000050 86 fa 71 3e b6 1a 29 3e 79 5b 1b bd 09 9c 28 be
       0.23630723 0.16514096 -0.037929032 -0.16465773
000060 20 cd e0 3d 6b 2e 0b 3d 23 24 d1 bc a9 e1 fe 3b
       0.109766245 0.033979814 -0.025529927 0.0077783656
000070 4a cd 90 ba 58 4b 17 be c5 38 fe 3d 9b be b9 bd
       -0.0011047509 -0.14774835 0.12413172 -0.09069558
000080 ce 6d 0b 3d 24 64 53 3d c4 5d c3 3b 3a 66 da 3c
       0.034040265 0.051609173 0.0059621055 0.026660074
000090 b7 f7 da bd 42 de f0 3a 69 d5 cf bd 6d ac 3e 3e
       -0.10691779 0.0018376785 -0.10148127 0.18620463
0000a0 fe ef c7 3d 33 eb 8c bd bd 84 af b9 42 b1 43 3b
       0.09762572 -0.06880798 -0.000334775 0.0029860293
0000b0 08 aa eb bd f3 78 92 3d 0f 47 31 bd a2 38 d5 ba
       -0.1150704 0.071519755 -0.043280657 -0.0016267488
0000c0 c8 04 0b be c5 c5 2a ba 69 41 8e 3e 1a 20 03 be
       -0.13576043 -0.00065144553 0.2778428 -0.12805215
0000d0 f0 8e 8c bb 22 80 e3 3d 87 df 91 3d 12 d8 6f be
       -0.0042895004 0.11108424 0.071227126 -0.23422268
0000e0 9b 56 46 3e e1 17 cc bd 12 14 d4 3b 9a 26 ae 3c
       0.19368975 -0.09965492 0.006472119 0.021258641
0000f0 66 3b a0 bd 26 52 aa bd 1c 05 47 bd 78 5e 5c 3c
       -0.07823829 -0.0831645 -0.048588857 0.0134502575
000100 a7 c8 c5 3d 36 47 21 3b ff cd e6 bd e9 98 8b 3c
       0.09657412 0.0024609095 -0.112697594 0.017040687
000110 28 aa 12 be 28 40 6b 3e dd ce bc 3d 9a ff 2a 3d
       -0.14322722 0.22973692 0.092191435 0.041747667
000120 22 08 34 be 2d 04 42 bd 2e ef 8b bd 92 c2 a6 bc
       -0.17581227 -0.047367264 -0.06832729 -0.02035645
000130 95 f6 29 3e 1c ca 76 b9 bf 18 6e bd 49 74 51 bc
       0.1659797 -0.0002353568 -0.05812907 -0.012784072
000140 37 d4 c9 3c e0 f8 8f bd aa 8f c2 bd 0b 80 e8 bc
       0.024637325 -0.07029891 -0.09500058 -0.028381368
000150 65 be ff 3d 86 5b 2c bd e7 a4 44 3e 27 45 9f 3d
       0.12487487 -0.04207947 0.1920353 0.07776862
000160 66 97 9d ba 8f 6b 9a bd 24 3b 3b 3d f4 1e 11 bc
       -0.001202327 -0.075400464 0.045710698 -0.008857477
000170 3c 47 1b 3d 80 68 51 be 0b 60 15 3e 01 42 29 bd
       0.03790973 -0.2045002 0.14587419 -0.04132271
000180 14 a5 d9 3d 46 08 2f bd 9a 2c c5 3a da 15 ae 3d
       0.10627189 -0.0427325 0.00150432 0.085002616
000190 e9 21 8d bd 33 cd a9 3a 74 1a 13 3e 05 89 2a bc
       -0.068912335 0.0012954831 0.1436556 -0.010408645
0001a0 1a d6 f1 3d 9e 93 aa bc b3 70 3a 39 7f d2 69 3a
       0.11808415 -0.020822342 0.00017780326 0.0008919611
0001b0 d2 17 b5 3d fc 5d 81 be 11 3d 8b 3e 24 ee a3 ba
       0.08842434 -0.25267017 0.27195027 -0.0012506885
0001c0 25 4c 15 3d 09 b0 59 3b 04 39 b7 3d 51 4d 47 3e
       0.03644957 0.0033216497 0.08946422 0.19463088
0001d0 e3 1b 4b 38 56 d1 8f be 8e 3c 8b 3d f1 a8 10 be
       4.8424943e-05 -0.28089398 0.06798659 -0.14126946
0001e0 a8 20 56 3d 15 1f ce ba 85 f0 af bb c3 69 99 bd
       0.052277237 -0.0015725816 -0.0053692483 -0.074908756
0001f0 b0 c5 6b bd 11 cc c5 3d be ea 64 3d 5d d5 d2 3a
       -0.057561576 0.09658063 0.05588793 0.0016085316
