models/ana-cont/ana-cont_1700_s1.tflite (tflite, 415472 bytes, 22 tensors)

arith.constant f4 [64]
0	0xbddfca1e	-0.10927223
1	0xbea75d1b	-0.3268822
2	0xbe8580c9	-0.26074818
3	0xbe89ac43	-0.26889238
4	0xbd1a534d	-0.037677098
5	0xbe91153a	-0.28336507
6	0xbe277140	-0.16351795
7	0xbe9deb3b	-0.3084353
8	0xbe897e21	-0.2685404
9	0xbce93736	-0.02846871
10	0xbe8a6439	-0.2702959
11	0xbde13da7	-0.109980874
12	0xbe0888dd	-0.13333459
13	0xbea1f131	-0.31629327
14	0xbe221548	-0.1582843
15	0xbebc5f5b	-0.367915
16	0xbcb91ffb	-0.022598257
17	0xbebec0cc	-0.37256467
18	0xbea333f4	-0.31875575
19	0xbdf4b9a5	-0.119494714
20	0xbe85bfbb	-0.2612284
21	0xbe78618b	-0.2425596
22	0xbeab1563	-0.33414754
23	0xbe1c5e6e	-0.15270397
24	0xbe24d09a	-0.160952
25	0xbe5dfc01	-0.21678163
26	0xbedf1fba	-0.43578893
27	0xbde9771b	-0.11399671
28	0xbea35277	-0.31898853
29	0xbe3cd7d6	-0.1844171
30	0xbe593156	-0.21210226
31	0xbdf22148	-0.11822754
32	0xbe2e7061	-0.17035057
33	0xbcc80d3f	-0.024420379
34	0xbe1e6aff	-0.15470503
35	0xbeb4bc0c	-0.35299718
36	0xbd65a27c	-0.05606316
37	0xbe4e0170	-0.20117736
38	0xbe5090fe	-0.2036781
39	0xbe8bdfe8	-0.27319264
40	0xbdc045fe	-0.0938835
41	0xbea2e070	-0.31811857
42	0xbe89f096	-0.26941365
43	0xbe12be7d	-0.14330478
44	0xbe2031b1	-0.15643956
45	0xbe139ee9	-0.14416088
46	0xbec974f8	-0.39347053
47	0xbeb07421	-0.344636
48	0xbe670b47	-0.22562896
49	0xbe76e21c	-0.24109691
50	0xbe9373fb	-0.28799424
51	0xbeb2fd6f	-0.3495898
52	0xbe66811b	-0.22510187
53	0xbe28fdb7	-0.16503035
54	0xbe409258	-0.18805826
55	0xbe242576	-0.16029915
56	0xbde391bd	-0.11111782
57	0xbead0789	-0.3379481
58	0x3d248be8	0.040172487
59	0xbec1ce9b	-0.3785294
60	0xbe95bda6	-0.29246253
61	0xbe2a287b	-0.16617005
62	0xbe2dbdb7	-0.16966902
63	0xbedaeebc	-0.42760265

arith.constant1 f4 [64]
0	0x3d8d4550	0.06897986
1	0x3d7d92de	0.06190764
2	0xbe6e7433	-0.23286514
3	0xbeb0c1ed	-0.34522954
4	0xbe05130d	-0.12995549
5	0xbf096873	-0.53675
6	0xbdf63bac	-0.120231
7	0xbeaa8101	-0.33301547
8	0xbe87dfbc	-0.26537883
9	0xbe69d913	-0.22836713
10	0xbe61fbb0	-0.22068667
11	0xbeb26efb	-0.34850296
12	0xbe84fded	-0.2597498
13	0xbe166580	-0.14687157
14	0xbe22fa1d	-0.15915723
15	0xbe5a303e	-0.21307465
16	0x3c7e5d24	0.015525136
17	0xbe97ca56	-0.29646558
18	0xbeb29db5	-0.34885946
19	0xbe555596	-0.2083343
20	0xbce39281	-0.02777982
21	0xbee5a77a	-0.44854337
22	0xbe02d55b	-0.12776701
23	0x3cdf39b0	0.027249187
24	0xbd16c781	-0.036811356
25	0xbe7549af	-0.2395389
26	0xbec42c61	-0.38315108
27	0xbd8c8adc	-0.06862423
28	0xbe8e77a3	-0.2782565
29	0xbe293627	-0.16524564
30	0xbe099e94	-0.13439399
31	0xbeaeaa5a	-0.34114343
32	0xbe254d15	-0.16142686
33	0xbe290f02	-0.16509631
34	0xbe9a45a0	-0.30131245
35	0x3c49b375	0.012310852
36	0xbed2cbb0	-0.41171026
37	0xbde4479a	-0.111464694
38	0xbe8e62c1	-0.27809718
39	0xbe3d80cb	-0.18506162
40	0xbc999a7a	-0.018750418
41	0xbe164637	-0.14675222
42	0xbe01d3b4	-0.12678415
43	0xbdf734a8	-0.1207059
44	0xbd002c84	-0.031292453
45	0xbd89520e	-0.06705104
46	0xbe690406	-0.22755441
47	0x3d156857	0.03647646
48	0x3da4e36b	0.08051189
49	0xbe05be9d	-0.13060994
50	0xbdd17503	-0.10227396
51	0xbe8e37fc	-0.27777088
52	0xbe6d840a	-0.231949
53	0xbe7e2774	-0.24819738
54	0xbe884d39	-0.26621416
55	0xbe1c0cfa	-0.15239325
56	0xbf013c7c	-0.50482917
57	0xbec5e315	-0.38649812
58	0xbde9a803	-0.11408999
59	0xbeb19cbb	-0.34689888
60	0xbe8e64e2	-0.27811342
61	0xbebd496e	-0.36970085
62	0xbe8e01ab	-0.27735648
63	0xbda4be85	-0.08044151

arith.constant2 f4 [32]
0	0xbe769457	-0.24080025
1	0x3e609477	0.21931635
2	0xbe853c0d	-0.26022378
3	0x3d70e79e	0.058814637
4	0xbe6d04c6	-0.23146352
5	0xbec2c96d	-0.380443
6	0xbeae7f52	-0.34081513
7	0xbe64c12f	-0.22339319
8	0xbdba42f8	-0.090948045
9	0x3e1cba95	0.1530555
10	0xbe37c4a8	-0.17946112
11	0xbd21b298	-0.03947696
12	0xbd5bb230	-0.05363673
13	0x3e01a581	0.12660791
14	0xbe32738e	-0.17426893
15	0xbd6bc0b5	-0.057556827
16	0xbeb4a4fd	-0.35282126
17	0xbeb92bbd	-0.36166182
18	0xbe4b37f1	-0.19845559
19	0x3ddfe035	0.10931436
20	0xbeccb247	-0.39979765
21	0x3d18082e	0.037117176
22	0xbe37f1ba	-0.17963305
23	0xbd1bcfdd	-0.03804003
24	0xbd847534	-0.06467667
25	0x3e054ea6	0.13018283
26	0xbe7ef988	-0.24899876
27	0xbe90260c	-0.28154027
28	0x3da99ff1	0.082824595
29	0x3c7b9c66	0.0153571125
30	0xbeddc9e1	-0.43318084
31	0xbe92f893	-0.28705272

arith.constant3 f4 [16]
0	0x3eda0058	0.42578387
1	0xbd99c995	-0.07509152
2	0x3dd1d31a	0.102453426
3	0x3e780556	0.24220785
4	0x3f1b173e	0.6058234
5	0xbec98339	-0.39357927
6	0x3eeedfed	0.46655217
7	0x3eb32557	0.34989426
8	0x3eada9f7	0.33918735
9	0x3e372363	0.17884593
10	0xbdc9a3a7	-0.09845667
11	0x3eca6e3f	0.39537236
12	0x3ec0d3ba	0.37661535
13	0xbe749354	-0.23884326
14	0x3ecdb085	0.40173736
15	0x3eeaacaa	0.45834857

arith.constant4 f4 [128, 256]
0	0xbb002bbd	-0.001955732
1	0x3bcd542e	0.0062661385
2	0x3b2b2644	0.0026115337
3	0xbae7c7fb	-0.00176835
4	0x3c00529b	0.007832195
5	0x3cbd79d4	0.023129381
6	0x39aae3e1	0.0003259471
7	0x3bf9934d	0.0076164366
8	0xb40b16cd	-1.2953679e-07
9	0xba199b50	-0.000585963
10	0x3b17badd	0.002315215
11	0xbb219583	-0.0024655766
12	0x3c353ad7	0.011061392
13	0x3c0af71a	0.008481765
14	0x3b52e42c	0.0032179458
15	0x3bddb3ba	0.00676581
16	0x3b905a9a	0.004405332
17	0x3bbafaba	0.0057061585
18	0xbb321245	-0.0027171534
19	0xbaf945c0	-0.001901798
20	0xbb018c16	-0.0019767336
21	0x3b0f8239	0.0021897687
22	0xb8277fc4	-3.9934894e-05
23	0xbb27de6c	-0.0025614752
24	0x38057433	3.181789e-05
25	0x3b8f4807	0.0043726
26	0xbb8bd7b7	-0.0042676586
27	0x3b8cd7ec	0.004298201
28	0x38dc0813	0.000104919214
29	0xb8c45596	-9.36195e-05
30	0x3b34120f	0.0027476584
31	0xbb95688c	-0.004559582
32	0xbca1675d	-0.019702608
33	0x3bfd310a	0.007726793
34	0x3c2e8c0f	0.01065351
35	0xbbdd7733	-0.0067585944
36	0x3bc175b2	0.005903923
37	0x3c0372b8	0.008022957
38	0xbbafac26	-0.005361098
39	0x3ba8eb75	0.005155022
40	0x3c43aacc	0.011942577
41	0xbbe189e6	-0.006882894
42	0xbc90a6c8	-0.017657652
43	0xbc30bfd9	-0.010787928
44	0x3a137dc0	0.0005626343
45	0xbbb3460e	-0.0054709977
46	0xbabe6bcd	-0.0014527977
47	0x3b0bc514	0.0021327185
48	0x3c349dd3	0.011023956
49	0x3a7b0334	0.00095753674
50	0x3b4b6e4f	0.003104109
51	0xbbd0f154	-0.006376425
52	0xbacaf0b0	-0.0015483107
53	0x3c18b107	0.00931955
54	0xbabeb379	-0.0014549337
55	0x3bbc9e00	0.0057561398
56	0xbb4c1cdf	-0.0031145138
57	0x3c8f3946	0.017483365
58	0xbbb7182a	-0.0055875974
59	0xbb69c0fe	-0.003566801
60	0xbc0a4e16	-0.008441469
61	0xbbf67749	-0.007521544
62	0x3a788dca	0.00094815774
63	0x3b492c3e	0.0030696536
64	0x3a49876a	0.000768772
65	0x3c3e9eb6	0.011634519
66	0x3a2d80fe	0.00066186476
67	0x3bdbc13a	0.006706384
68	0x3bad75f3	0.0052936017
69	0x3abab3bd	0.001424424
70	0x3b790678	0.003799824
71	0xbbacb839	-0.0052709845
72	0x3b4830bc	0.0030546626
73	0x3a4c2b6b	0.0007788452
74	0x3c21af3e	0.009868441
75	0x3cb595bf	0.022166131
76	0x3ba70db5	0.0050980696
77	0x3b682dd0	0.0035427697
78	0xbb492973	-0.0030694872
79	0xbbb264d2	-0.0054441476
80	0x39ec4daa	0.00045071292
81	0xbc3b5d93	-0.011435884
82	0xbacfd5da	-0.0015856579
83	0x3b4d158f	0.0031293368
84	0x396f48cd	0.00022819937
85	0x3c6bb8b7	0.014387301
86	0xbcc20706	-0.02368499
87	0x3c8ca696	0.017169278
88	0xbb68287a	-0.0035424517
89	0x3ca5ed5e	0.020254787
90	0x3a7c082f	0.00096142566
91	0x3be624e1	0.0070234393
92	0x3c5493bf	0.012974679
93	0x3bb5ca40	0.0055477917
94	0x3b13cc33	0.0022552132
95	0xbc2693b1	-0.010167048
96	0x3bd70704	0.0065621156
97	0x3b9595ce	0.0045649773
98	0xba424968	-0.0007411451
99	0xbc2af8bc	-0.010435279
100	0x3c567a98	0.013090752
101	0xbb46874c	-0.0030293046
102	0x3a4a0b1d	0.00077073445
103	0xbc7ee8b5	-0.015558411
104	0xbad7e175	-0.001647039
105	0x3bb1f600	0.005430937
106	0xbbaf50d1	-0.0053502102
107	0x3ba29e7d	0.004962741
108	0xbbef623a	-0.0073054107
109	0x3b9d822f	0.004806779
110	0xbc4b07b1	-0.0123919705
111	0xbb52813c	-0.0032120487
112	0x3b082b33	0.0020777702
113	0xbbf0d767	-0.0073498967
114	0xbb2ae7de	-0.0026078145
115	0x3bd080f8	0.0063630305
116	0xbc1b3341	-0.009472669
117	0xbbec5bea	-0.0072131054
118	0xbbcd5988	-0.0062667765
119	0x3ad25c14	0.001604917
120	0xbc04a5f6	-0.008096209
121	0x3aa9427e	0.0012913493
122	0x3b879d92	0.004138657
123	0xbab61370	-0.0013891291
124	0xbb80af45	-0.0039271438
125	0xbb25a5ed	-0.0025275901
126	0x3c61a44c	0.013772082
127	0xba807afe	-0.000980228
128	0x3b85847e	0.004074632
129	0xbc588d54	-0.013217289
130	0xbb6fe273	-0.003660348
131	0xbb998212	-0.004684695
132	0xbb1c17fb	-0.0023818004
133	0x3c63b727	0.013898647
134	0xbc13731a	-0.00899961
135	0xbb1d5232	-0.002400529
136	0xbc86d0e7	-0.016457034
137	0xbaf9788d	-0.0019033119
138	0xbc4f8e59	-0.012668216
139	0x3b9063c4	0.0044064242
140	0xbac28208	-0.0014839778
141	0xbbe558fe	-0.006999134
142	0xbba294c1	-0.0049615805
143	0xbcafc602	-0.021456722
144	0xbb370ada	-0.0027930052
145	0x3c000e7f	0.007815956
146	0x3b70ab32	0.0036723134
147	0xb9d8fb54	-0.00041385985
148	0x3ac7f0d5	0.0015254269
149	0x3c01c048	0.007919379
150	0x3cd3799e	0.025814828
151	0xbb0ff0b3	-0.0021963536
152	0xbcaa1d37	-0.020765884
153	0xbb5a6831	-0.0033326263
154	0xbbe46508	-0.0069700517
155	0xbc076f3c	-0.008266266
156	0xbcb6370f	-0.02224305
157	0xbca72f0d	-0.020408178
158	0xbcb2add3	-0.021811401
159	0x3b831512	0.0040003145
160	0xbbc61421	-0.00604488
161	0xbba82220	-0.005131021
162	0xbbafb812	-0.005362519
163	0xbc109b93	-0.008826154
164	0xbab0d72d	-0.0013491862
165	0x3c2379a7	0.009977735
166	0x3be48dcd	0.006974912
167	0xbcc7ad42	-0.024374608
168	0xbc165ed4	-0.009177882
169	0xbc8f3f82	-0.017486338
170	0xbc0df5b2	-0.008664535
171	0x3c4076ea	0.011747101
172	0xbb600176	-0.0034180558
173	0xbba89ed3	-0.0051458864
174	0xbc219c31	-0.009863899
175	0x3c16ea58	0.009211145
176	0xba41962a	-0.0007384742
177	0x3b139848	0.0022521187
178	0x3bc423b4	0.0059857015
179	0xb834d3e2	-4.3112675e-05
180	0xbc4a7df0	-0.012359127
181	0x3cde9e83	0.027175194
182	0xbc304bd1	-0.010760264
183	0xbc0e314c	-0.0086787455
184	0x3b5d72f9	0.0033790453
185	0x3b204ad1	0.0024458657
186	0x3b67f782	0.003539533
187	0xbb992d26	-0.0046745716
188	0xbc59c624	-0.013291869
189	0x3c877da0	0.016539395
190	0x3c52fa23	0.01287702
191	0xbbf1e31e	-0.007381811
192	0xbb941687	-0.004519287
193	0xbcb13e88	-0.021636263
194	0xbbb54366	-0.005531716
195	0xbbfb63c4	-0.007671805
196	0xbb0317c4	-0.002000318
197	0x3bb71184	0.005586805
198	0x3ac1b25a	0.0014777884
199	0x3c470c7a	0.012148971
200	0x3c23d320	0.009999067
201	0xbd1992f0	-0.037493646
202	0x3b058451	0.0020373056
203	0xbca0ea11	-0.019642862
204	0x3c113979	0.0088638
205	0x3c62ed62	0.013850542
206	0xbb20063d	-0.002441778
207	0x3b2124f5	0.0024588678
208	0x3b967981	0.004592121
209	0xbc8d530d	-0.017251516
210	0xbbfd5530	-0.0077311024
211	0xbb9c546f	-0.0047708075
212	0xbcb4773e	-0.022029515
213	0xbac347b6	-0.0014898691
214	0x3ca24a70	0.019810885
215	0x3b8c7f5a	0.0042876424
216	0x3c093cc2	0.008376302
217	0x3b58bd5a	0.0033071847
218	0x3c4be10d	0.012443793
219	0xbbb94fd0	-0.0056552663
220	0x3b8b0830	0.0042429194
221	0x3bf26963	0.007397817
222	0x3c020dfe	0.007937906
223	0x3c05d4fd	0.008168456
224	0x3b85d2fc	0.004083989
225	0x3b2b177c	0.0026106527
226	0xbb192b09	-0.0023371598
227	0xbd04d9b7	-0.03243419
228	0x3c2d00e1	0.010559292
229	0xbb0bb0cd	-0.0021315098
230	0xbbcf7fa5	-0.006332355
231	0x3b7ebf3c	0.0038871309
232	0x3a5d7048	0.0008447212
233	0x3b3a2ab5	0.0028406803
234	0xbbc9639c	-0.0061459076
235	0xbc11b7b8	-0.0088939
236	0x3bdf2ad0	0.0068105236
237	0xbbf330d5	-0.0074215927
238	0xbbc39ebf	-0.0059698517
239	0x3b3f23fb	0.0029165733
240	0xbc732b34	-0.014841843
241	0x3c063cca	0.008193204
242	0xbc85c397	-0.016328616
243	0xbb441039	-0.0029916896
244	0xbc248a1c	-0.0100426935
245	0xbbd1f2e1	-0.0064071272
246	0xbc6f34c1	-0.01459998
247	0xbbf43e05	-0.0074536824
248	0x3bd7b6cf	0.006583072
249	0xbccc07a0	-0.02490598
250	0xbc62cc1b	-0.013842608
251	0xbbaa4636	-0.005196358
252	0x3ad94cff	0.0016578733
253	0xbb43e0c9	-0.002988862
254	0xbc5e65cf	-0.013574078
255	0xbc28a8d3	-0.010294157

arith.constant5 f4 [128]
0	0x3ee2a2a0	0.44264698
1	0x3eac34ad	0.33633938
2	0xbea41348	-0.3204596
3	0x3fad7286	1.3550575
4	0x3f446c6c	0.7672794
5	0x3f696915	0.9117597
6	0xbf4ac234	-0.7920258
7	0x3e435892	0.19076756
8	0x3f52212a	0.82081854
9	0xbf53326e	-0.82498825
10	0x3eb20171	0.34766725
11	0x3d62f3cf	0.055408295
12	0x3e8ef286	0.27919406
13	0xbf6d527f	-0.92704004
14	0x3eb4709c	0.35242164
15	0xbcc8689c	-0.024463944
16	0xbef1480f	-0.4712529
17	0x3f3b7f15	0.73240787
18	0x3ec3a3cd	0.38210908
19	0x3ebf3374	0.37343943
20	0x3ea5f804	0.32415783
21	0x3eb3262d	0.34990063
22	0x3f3058d9	0.6888557
23	0xbe36f9b8	-0.17868698
24	0xbf8ee825	-1.1164595
25	0xbc650b4b	-0.013979743
26	0x3edbee86	0.42955416
27	0x3ecdba1d	0.40181056
28	0x3f90da63	1.1316646
29	0x3f687deb	0.90817136
30	0xbdc02537	-0.09382098
31	0xbebf6549	-0.37381962
32	0x3ede6391	0.43435338
33	0x3e56be52	0.20971039
34	0x3f6d0213	0.9258129
35	0x3ec0e2ba	0.3767298
36	0x3f4494fa	0.7678982
37	0x3e9c24c0	0.30496788
38	0xbe91643f	-0.28396794
39	0xbe78b9ba	-0.24289599
40	0x3eae71f7	0.34071323
41	0x3efed7ed	0.49774113
42	0x3ee3f235	0.44520727
43	0xbf964adc	-1.1741595
44	0xbf0857eb	-0.5325915
45	0x3ebb10ed	0.3653635
46	0x3e9546d8	0.29155612
47	0x3df10706	0.11768918
48	0x3ee0d7e9	0.43914726
49	0x3e53dcac	0.20689648
50	0x3ec327b7	0.38116238
51	0x3f5bbad1	0.85831934
52	0xbe6f706e	-0.23382732
53	0xbeb2e465	-0.34939876
54	0x4008b513	2.136052
55	0x3e93dab9	0.2887781
56	0xbf01b4a5	-0.50666267
57	0x3f3ad53c	0.7298162
58	0x3f7e41c0	0.99319077
59	0x3e890951	0.2676492
60	0x3db01773	0.085982226
61	0xbf333e09	-0.70016533
62	0x3e96994a	0.29413825
63	0xbe0ba8c5	-0.13638599
64	0xbef2dd00	-0.47434235
65	0x3db334c4	0.087502986
66	0x3f86611f	1.0498389
67	0xbf9dc126	-1.2324569
68	0x3f9180ae	1.1367395
69	0xbd9a74b1	-0.07541788
70	0xbe9c69d7	-0.305495
71	0xbf2dc747	-0.678822
72	0x3ea68656	0.32524365
73	0x3e547013	0.20745878
74	0xbf5535d1	-0.8328524
75	0x3f0ef980	0.55849457
76	0x3ef49114	0.47766936
77	0xbdd376d9	-0.10325403
78	0x3f22b281	0.63553625
79	0xbdcf5ace	-0.101247415
80	0x3ed6ef91	0.4197965
81	0x3f0a2fa3	0.5397894
82	0xbf0c3771	-0.54772097
83	0x3eff70f7	0.49890873
84	0xbdb537f3	-0.08848562
85	0x3e80ab8c	0.2513088
86	0x3d97968e	0.07401763
87	0xbe404874	-0.18777639
88	0x3f10ddc3	0.5658838
89	0xbdfea407	-0.124336295
90	0x3fae1e28	1.3602953
91	0x3ea6898e	0.3252682
92	0x3f8c4bce	1.0960634
93	0xbeedfe8f	-0.46483275
94	0xbe2c3047	-0.16815291
95	0xbeb20fce	-0.34777683
96	0x3e9da2b1	0.30788186
97	0x3da48732	0.08033599
98	0x3d8bcb9e	0.06825946
99	0xbd4bb48a	-0.049732722
100	0x3f4ec0c5	0.8076289
101	0x3eeebdf4	0.46629298
102	0xbea5680d	-0.32305947
103	0x3f0c7d15	0.5487836
104	0xbd9c1bdc	-0.07622501
105	0x3ee9c18d	0.4565548
106	0x3ef40d76	0.4766652
107	0xbf901aef	-1.125822
108	0x3f98923c	1.1919627
109	0xbfbf8fe1	-1.4965783
110	0x3d8f1926	0.069872186
111	0x3e4efe44	0.20214182
112	0x3d430227	0.047609475
113	0x3f21d293	0.63211936
114	0x3cfd86b9	0.03094803
115	0x3f7103d8	0.9414649
116	0x3d225613	0.039632868
117	0x3f0020c6	0.5005001
118	0xbefa167f	-0.48845288
119	0xbd5e9fe5	-0.054351706
120	0x3c89c27c	0.01681637
121	0xbd8be1cf	-0.06830179
122	0x3f0d72a7	0.5525307
123	0xbf15c97e	-0.5851058
124	0x3f1940fe	0.59864795
125	0xbea613e3	-0.32437047
126	0xbdb21a7f	-0.0869646
127	0x3f2c8118	0.6738448

arith.constant6 f4 [64, 3, 3, 64]
0	0xbe739ebb	-0.2379102
1	0xbc914155	-0.017731348
2	0x3cfbbc24	0.03072936
3	0xbdf5589b	-0.11979791
4	0x3d350e2e	0.044202976
5	0xbdc3983f	-0.09550523
6	0x3e5ef61c	0.21773571
7	0x3d6668ec	0.056252405
8	0xbc7d00dc	-0.015442099
9	0x3bc197f9	0.005908009
10	0xbdfc7023	-0.12326076
11	0xbe5dae3e	-0.216485
12	0x3d9ca75b	0.07649108
13	0xbe7a28fa	-0.24429694
14	0xbd831304	-0.06400111
15	0xbc0202b3	-0.007935214
16	0xbd4647bc	-0.048408255
17	0x3d65d9e8	0.056116015
18	0xbd83dc01	-0.06438447
19	0xbca5fcf5	-0.02026222
20	0xbd25f7ab	-0.040519398
21	0xbd2b8f4f	-0.041884717
22	0x3db04898	0.08607596
23	0xbd98c697	-0.07459753
24	0xbe5024a1	-0.20326473
25	0xbdddd1f3	-0.1083106
26	0xbce4a00d	-0.02790835
27	0xbd53c921	-0.051705483
28	0x3d3de6aa	0.046362557
29	0xbe2085f5	-0.156761
30	0xbaf390fb	-0.0018582636
31	0xbe8c4cf5	-0.27402464
32	0xbd3660fb	-0.04452608
33	0x3d426af4	0.04746528
34	0xbd7344b6	-0.0593917
35	0xbe3376d0	-0.17525792
36	0xbe36cf11	-0.17852427
37	0xbdc66af4	-0.096883684
38	0xbb6dbf0f	-0.003627721
39	0xbe204739	-0.1565217
40	0x3e1defa9	0.15423454
41	0xbe9fcd54	-0.3121134
42	0x3d97f3ca	0.07419546
43	0xbde60516	-0.11231439
44	0x3decb380	0.115576744
45	0xbd9dea2d	-0.07710681
46	0x3d9feb22	0.0780852
47	0xbe8a4854	-0.27008307
48	0x3cb77cfd	0.022398466
49	0x3e8654ba	0.26236516
50	0x3e61be6e	0.220453
51	0xbdcc1e7e	-0.099667534
52	0x3c6aa9c2	0.0143227
53	0x3e4892c4	0.19587237
54	0x3d926bf0	0.07149494
55	0x3d8e7cf9	0.069574304
56	0xbe702dec	-0.23455018
57	0x3d320dbf	0.04347014
58	0x3de843d1	0.1134106
59	0xbdf12f64	-0.11776617
60	0x3e6e6737	0.23281561
61	0x3b18114f	0.0023203676
62	0xbce8d1a2	-0.028420273
63	0x3c7ed591	0.015553848
64	0x3e34ebf6	0.17668137
65	0x3e330a63	0.17484431
66	0xbe0ca3c3	-0.13734345
67	0x3d309f21	0.043120507
68	0xbc8462bd	-0.016160363
69	0x3e835ede	0.25658315
70	0xbd55b170	-0.05217117
71	0x3da50c3e	0.08058976
72	0x3e4270ae	0.18988296
73	0xbd460808	-0.048347503
74	0x3e23ea61	0.16007377
75	0x3e0ff662	0.14058831
76	0xbdde4e83	-0.10854819
77	0xbdabe554	-0.0839335
78	0x3e2db9ac	0.1696536
79	0x3e49df98	0.197142
80	0x3cc0c07d	0.023529286
81	0x3da80373	0.08203783
82	0x3de78c41	0.11306048
83	0xbde12df1	-0.10995091
84	0x3daec32c	0.0853332
85	0x3ddb26a6	0.10700731
86	0x3e381a0f	0.1797869
87	0xbc107119	-0.008816027
88	0x3e35291d	0.17691465
89	0x3d7adf72	0.06124825
90	0x3d9d1621	0.076702364
91	0xbe4dadc5	-0.20085819
92	0x3cc92938	0.024555787
93	0x3e60348f	0.2189505
94	0xbd0f8962	-0.035043128
95	0xbde649d7	-0.112445526
96	0xbda0efcc	-0.078582376
97	0x3d60ffb8	0.054931372
98	0xbd802ee4	-0.06258944
99	0xbc39721a	-0.011318708
100	0x3da113ca	0.078651026
101	0xbe0bc218	-0.1364826
102	0xbe1c41b6	-0.15259442
103	0x3e8d0c17	0.27548286
104	0x3dd3fd1c	0.10351011
105	0x3dbd73f0	0.09250629
106	0xbcff662c	-0.031176649
107	0xbca51232	-0.020150278
108	0xbcd616bc	-0.026133887
109	0x3e62fd81	0.22167017
110	0x3e81cfb3	0.25353774
111	0x3df9111b	0.12161466
112	0x3de7f12f	0.11325299
113	0xbdf7dd74	-0.12102786
114	0xbd943ffe	-0.07238768
115	0x3b2ef4c1	0.0026696178
116	0xbe3dea20	-0.18546343
117	0x3d3785e7	0.044805434
118	0x3dd3d157	0.10342663
119	0x3b1e95ec	0.0024198247
120	0x3e37122a	0.17878023
121	0x3d1ce164	0.038300887
122	0xbe1707cf	-0.14749072
123	0x3cfd3db7	0.030913217
124	0x3d68325c	0.05668865
125	0xbd8f0a22	-0.069843546
126	0x3de239e9	0.11046202
127	0x3e33ac1b	0.17546122
128	0xbe55359f	-0.20821236
129	0xbd570ff3	-0.052505445
130	0xbea9abf3	-0.33139
131	0x3dd2603d	0.10272262
132	0x3caddad3	0.021222508
133	0x3e23e97c	0.16007036
134	0x3d6b680b	0.05747227
135	0x3ce840ab	0.028351149
136	0xbe526e17	-0.20549808
137	0x3d9d1145	0.076693095
138	0xbd690cbe	-0.056896918
139	0x3ddc0250	0.107426286
140	0x3dbd26fb	0.092359506
141	0xbeaa44d4	-0.33255637
142	0x3d3a3975	0.04546495
143	0x3de4f578	0.11179632
144	0xbd97a6d9	-0.074048705
145	0xbe1f9921	-0.15585758
146	0xbcd23ab8	-0.025662765
147	0xbe1d5f94	-0.15368491
148	0xbcff8852	-0.031192932
149	0x3ca9e4d0	0.02073899
150	0x3dd5ea50	0.10445082
151	0xbc8ce976	-0.017201167
152	0x3e0312d8	0.12800157
153	0x3e08ae84	0.13347822
154	0xbc192a47	-0.009348459
155	0xbdf8dddc	-0.12151691
156	0x3cf3c903	0.029758936
157	0x3b90a567	0.0044142487
158	0x3e243128	0.16034377
159	0xbcc7555b	-0.024332693
160	0xbe048ad4	-0.12943584
161	0xbdb36ae0	-0.08760619
162	0x3d217ca7	0.03942552
163	0x3d0dac2b	0.03458802
164	0x3ba77462	0.0051103095
165	0xbd0c055b	-0.034184795
166	0xbebdecae	-0.37094635
167	0x3b7e5f4e	0.003881413
168	0x3ccc102c	0.024910055
169	0xbeacc3ed	-0.3374323
170	0xbdd810d5	-0.105500855
171	0x3bdfff75	0.006835873
172	0xbdf38203	-0.11890032
173	0xbded8343	-0.11597302
174	0xbd439886	-0.04775288
175	0xbce0cb9e	-0.027440842
176	0x3e05b769	0.13058247
177	0x3e389119	0.180241
178	0x3dec5b9a	0.11540909
179	0x3daa28ef	0.08308589
180	0xbe4b38cc	-0.19845885
181	0x3d9f9e09	0.07793815
182	0xbe8429fa	-0.25813276
183	0x3d975e4f	0.07391035
184	0xbe0e2817	-0.1388248
185	0xbd331424	-0.04372038
186	0xbd3983c6	-0.045291685
187	0xbe01d667	-0.12679444
188	0x3de1f13b	0.11032339
189	0x3e374513	0.17897443
190	0xbcb71ed6	-0.02235357
191	0xbb069930	-0.0020538084
192	0x3cec1ac5	0.028821358
193	0x3dbb21f8	0.091373384
194	0x3da7574e	0.08170949
195	0xbe80462e	-0.25053543
196	0x3ccf16e5	0.025279472
197	0xbd9ee785	-0.077590026
198	0x3ea83165	0.32850185
199	0xbe0fef9b	-0.14056246
200	0xbdac9d21	-0.084284075
201	0xbd305f23	-0.04305948
202	0xbe0b0c3c	-0.13578886
203	0xbdab9152	-0.08377327
204	0xbe32319a	-0.17401734
205	0x3d035fea	0.032073893
206	0x3d96eff9	0.0736999
207	0x3e06f6b4	0.13180047
208	0xbe3285cd	-0.17433853
209	0xbe6f8855	-0.2339185
210	0x3d3295a8	0.043599755
211	0xbcc254db	-0.023722103
212	0x3c316346	0.010826891
213	0xbe797f53	-0.24364977
214	0x3d8fbaf4	0.0701808
215	0xbe84bcfe	-0.2592544
216	0xbdfc7b51	-0.12328208
217	0xbd9b5f01	-0.0758648
218	0x3c3845e6	0.011247134
219	0x3de825a0	0.113353014
220	0xbcb5db10	-0.022199184
221	0xbe485cc1	-0.19566633
222	0xbe7b8c63	-0.24565272
223	0xbd77e7cb	-0.06052379
224	0xbde16bff	-0.11006927
225	0xbdf7540f	-0.1207658
226	0x3cf6c79c	0.030124478
227	0x3c93d794	0.018047132
228	0xbd3041c0	-0.043031454
229	0x3d17bcfd	0.037045468
230	0x3e1e10d0	0.15436101
231	0xbe152060	-0.14563131
232	0xbddf95a0	-0.109172106
233	0xbabb36c2	-0.0014283287
234	0x3e0f2890	0.13980317
235	0xbe0969bd	-0.13419242
236	0x3d32b44a	0.04362897
237	0xbd85bd0a	-0.06530197
238	0xbe2533f9	-0.16133107
239	0xbe07303b	-0.13201992
240	0xbe69ba46	-0.22824964
241	0xbcbb3763	-0.022853559
242	0xbb2d7043	-0.0026464618
243	0xbcad38b8	-0.02114521
244	0xbe4904b8	-0.19630706
245	0x3e08e833	0.13369827
246	0xbe49f9ea	-0.19724241
247	0xbd846638	-0.06464809
248	0x3c79941a	0.015233064
249	0x3e078c44	0.13237101
250	0x3cf47b68	0.029844001
251	0xbe71cb33	-0.2361267
252	0xbcba2081	-0.022720577
253	0x3d79fc06	0.061031364
254	0xbd0a3608	-0.033742934
255	0xbdd3a62f	-0.103344314

arith.constant7 f4 [64, 3, 3, 32]
0	0x3d92b0f1	0.07162655
1	0x3d9d2815	0.07673661
2	0x3caec1a7	0.021332575
3	0xbde17efc	-0.110105485
4	0x3de218ad	0.11039863
5	0x3ce82e70	0.028342456
6	0x3c858541	0.016298892
7	0x3dd61cc2	0.10454704
8	0x3d8cee78	0.06881422
9	0x3d3e9643	0.04653002
10	0x3e644036	0.2229012
11	0x3d9b469b	0.07581826
12	0xbd9b8b8b	-0.07594975
13	0x3dbe5c3d	0.09294937
14	0x3d8dd35b	0.069250785
15	0x3d44a79e	0.048011415
16	0xbd64f99f	-0.05590212
17	0x3d73debb	0.059538584
18	0x3dbeb3f9	0.09311671
19	0x3e1445af	0.14479707
20	0x3e6251f4	0.22101575
21	0x3ddaf102	0.106905
22	0x3df14b2c	0.11781916
23	0x3e3b2756	0.18276724
24	0x3d0faf01	0.035079006
25	0x3e37bcd7	0.1794313
26	0x3e003ba8	0.12522757
27	0x3e428de4	0.1899944
28	0x3c858397	0.016298098
29	0x3d01f198	0.031724542
30	0xbd8e5622	-0.06950022
31	0x3dee3ef4	0.11633101
32	0x3c308fe9	0.010776498
33	0x3d19d642	0.037557848
34	0x3d604c14	0.054760054
35	0xbaa00eba	-0.001221142
36	0xbd572ed9	-0.05253491
37	0x3e492f16	0.19646868
38	0xbcfffd59	-0.031248735
39	0xbca1efb2	-0.019767616
40	0x3e4a8977	0.19779001
41	0x3db7aca2	0.08968474
42	0xbe163bb6	-0.14671215
43	0xbdd6181b	-0.104538165
44	0xbdb6c8a8	-0.08924991
45	0xbdac273e	-0.08405922
46	0x3ccedac6	0.025250804
47	0xbd3683d0	-0.0445593
48	0xbde47379	-0.11154837
49	0xbdd514ba	-0.10404344
50	0x3ea5c15b	0.3237408
51	0xbde6b073	-0.11264124
52	0x3ed64fa1	0.41857627
53	0xbcf7fbab	-0.030271372
54	0xbd55f211	-0.052232806
55	0xbdc659a0	-0.09685063
56	0xbe2678f4	-0.16257077
57	0xbe261ef3	-0.16222744
58	0x3dd52797	0.10407942
59	0x3dc70d5f	0.09719347
60	0x3e175d4f	0.14781688
61	0xbd8a417d	-0.06750772
62	0x3e8f8448	0.2803061
63	0x3e466f6a	0.19378439
64	0x3d2ae398	0.041720957
65	0x3d939825	0.07206754
66	0xbe35ffca	-0.17773357
67	0xbd3adcbd	-0.04562067
68	0xbdce71e9	-0.100803204
69	0x3e048036	0.12939534
70	0x3d9452bc	0.07242343
71	0x3dce352e	0.10068737
72	0x3d9c4ddf	0.0763204
73	0xbe53d4e7	-0.20686685
74	0xbd14f2cb	-0.036364358
75	0x3d579ca4	0.05263962
76	0xbe1d2141	-0.15344717
77	0x3e2b27f2	0.16714457
78	0xbc875ebc	-0.016524665
79	0x3e7f62e1	0.24940063
80	0xbd04fcfb	-0.032467823
81	0xbe27de01	-0.16393282
82	0xbe1a8f3e	-0.15093705
83	0xbbe581d3	-0.0070040016
84	0xbd463ae6	-0.048396014
85	0x3d2a9796	0.04164847
86	0x3d5d0d28	0.053967625
87	0xbdafa481	-0.085762985
88	0xbd1d26f6	-0.038367234
89	0x3c3982ed	0.011322719
90	0x3e1096d8	0.14120042
91	0x3e8a9ba9	0.27071884
92	0x3df79bad	0.1209024
93	0x3d7a9ad2	0.061182804
94	0x3dd1bca2	0.10241057
95	0x3d98abc1	0.074546345
96	0xbe1e3750	-0.15450788
97	0x3e0a28c3	0.13492112
98	0xbe269388	-0.16267216
99	0xbe4b7622	-0.19869283
100	0x3b41f8e2	0.0029597809
101	0x3d58d3ca	0.052936353
102	0xbcf242a7	-0.029572798
103	0xbe171321	-0.14753391
104	0x3d5bf052	0.053695984
105	0x3db94740	0.09046793
106	0x3e24d2cc	0.16096038
107	0x3ce784fc	0.028261654
108	0xbe8e1f95	-0.2775847
109	0xbde5cda7	-0.11220866
110	0xbd77ccec	-0.060498163
111	0xbd93fe2a	-0.07226212
112	0xbce869ee	-0.028370824
113	0xbdcaae7d	-0.09896562
114	0xbde6ee5e	-0.11275934
115	0xbd36e1da	-0.044648983
116	0xbe3ed9ee	-0.18637821
117	0xbe282e9e	-0.16424033
118	0xbe070e0f	-0.13188957
119	0xbd411717	-0.04714116
120	0xbe4db663	-0.20089106
121	0x3e0ef7b1	0.13961674
122	0x3da520ae	0.08062874
123	0x3dc82db7	0.097743444
124	0xbd23730b	-0.039904635
125	0x3ba6e34b	0.0050930134
126	0xbe4b4e57	-0.19854103
127	0xbdbdb304	-0.0926266
128	0x3dea7cc4	0.114495784
129	0xbe03ee78	-0.12883937
130	0x3cef48a6	0.029209446
131	0x3db09153	0.086214684
132	0x3d8c704b	0.06857356
133	0xbd9db360	-0.07700229
134	0xbd8c8239	-0.068607755
135	0x3c8b8940	0.01703322
136	0xbe525ea4	-0.20543915
137	0x3e2ea823	0.17056327
138	0xbdb3b8c4	-0.087754756
139	0xbd9b59b8	-0.07585472
140	0xba68f4aa	-0.00088865554
141	0x3c1875fa	0.009305472
142	0xbe3513dd	-0.17683358
143	0x3e02b72f	0.12765191
144	0xbe34cf2b	-0.17657153
145	0xbdde37b4	-0.10850468
146	0x3cbe59d5	0.023236195
147	0x3e020abe	0.1269941
148	0x3d96e4d9	0.07367868
149	0x3e46c143	0.19409661
150	0xbe46d624	-0.19417626
151	0x3e02429c	0.12720722
152	0xbe0d555f	-0.13802098
153	0x3e2d6bc5	0.16935642
154	0xbd910d21	-0.07082582
155	0xbdb1f391	-0.08689035
156	0xbdd78434	-0.105232626
157	0xbe084d05	-0.1331063
158	0x3caa6ba2	0.020803276
159	0xbd3498d5	-0.044091064
160	0xbe242bfc	-0.16032404
161	0x3e052018	0.13000524
162	0xbdf5143f	-0.11966752
163	0xbd9cc16c	-0.0765408
164	0xbd30165a	-0.042990066
165	0xbdc63faa	-0.09680112
166	0xbe45b5d9	-0.1930765
167	0xbe4304ce	-0.19044802
168	0x3e2b0492	0.16700962
169	0x3ce08421	0.027406754
170	0xbde2c28f	-0.11072265
171	0xbd3eeeaa	-0.046614327
172	0xbe3f8b32	-0.18705443
173	0x3d4a12fe	0.04933452
174	0xbe39b23d	-0.18134399
175	0x3e18ea85	0.14933212
176	0xbdfb9332	-0.12283935
177	0xbe82f253	-0.25575504
178	0xbc4bfe65	-0.012450789
179	0xbe5e2d42	-0.21696952
180	0xbe0c954b	-0.13728826
181	0xbb4a8b35	-0.0030905728
182	0x3d6f8841	0.05847955
183	0xbd5d2af1	-0.05399603
184	0xbe85dc76	-0.2614476
185	0xbd0e3a1e	-0.034723394
186	0x3d54a40b	0.051914256
187	0x3e4ff4ae	0.20308182
188	0xbdc245e4	-0.09485987
189	0x3c11d56f	0.008900984
190	0xbd1ee2a8	-0.038790375
191	0xbc37d4eb	-0.011220197
192	0xbe81c838	-0.25348067
193	0x3d1e34ca	0.038624562
194	0x3e2fba84	0.17160994
195	0xbddebd8e	-0.108759984
196	0xbd20aba4	-0.03922619
197	0x3e4c6a86	0.1996251
198	0xbb1f0865	-0.0024266478
199	0x3dac1484	0.084023505
200	0xbd8bfa98	-0.06834906
201	0x3e3a48cc	0.18191832
202	0x3e136f4f	0.1439793
203	0xbda8b165	-0.0823696
204	0xbd7ce401	-0.06174088
205	0x3ca3a714	0.01997713
206	0x3da70165	0.08154563
207	0xbe61caa3	-0.22049956
208	0x3bc63b09	0.006049518
209	0x3d397c93	0.04528482
210	0xbdf11030	-0.11770666
211	0xbe100e49	-0.1406795
212	0xbd569b69	-0.052394304
213	0xbe5286a6	-0.20559177
214	0xbe35c8ae	-0.17752334
215	0xbd0d0368	-0.034427077
216	0xbdbb27d7	-0.09138458
217	0x3d418ca4	0.047253266
218	0xbd1a4285	-0.037661094
219	0xbdec3510	-0.11533558
220	0x3cc53a1c	0.02407556
221	0x3dcbaf8b	0.099455915
222	0xbc41bc8e	-0.01182474
223	0xbde11e41	-0.109920986
224	0x3c89ba9a	0.016812611
225	0x3dbb6095	0.09149281
226	0xbe56b5e4	-0.20967823
227	0x3d9541a8	0.072879136
228	0x3ddbaa1f	0.107258074
229	0xbde6c520	-0.11268067
230	0xbe3cfd75	-0.18456061
231	0xbd45fa29	-0.048334274
232	0xbde62860	-0.1123817
233	0xbe36f296	-0.17865977
234	0xbdc33e21	-0.095333345
235	0xbd09420e	-0.03351026
236	0xbcb8e15a	-0.022568393
237	0x3e22d8bb	0.15902989
238	0xbe116a85	-0.1420079
239	0x3c49d5f8	0.0123190805
240	0xbdda0b1b	-0.106466495
241	0x3d051d56	0.03249868
242	0xbe1fa7ae	-0.15591308
243	0xbc7a1e1e	-0.01526597
244	0xbe25cc94	-0.16191322
245	0x3cfad31a	0.03061824
246	0xbe141b61	-0.14463569
247	0xbd986447	-0.074410014
248	0xbe2ffb56	-0.17185721
249	0xbd3ceabf	-0.04612231
250	0x3ba6e018	0.005092632
251	0x3e493a52	0.19651154
252	0x3c3d83ef	0.0115671
253	0x3da2711a	0.07931729
254	0xbe7771be	-0.24164483
255	0xbe2d3450	-0.16914487

arith.constant8 f4 [32, 3, 3, 16]
0	0xbd98e5c4	-0.07465699
1	0x3d14a2fc	0.036288247
2	0x3d8abf0e	0.06774722
3	0xbd7c8f43	-0.061660063
4	0xbe175632	-0.14778975
5	0xbd89674f	-0.06709158
6	0x3d1e7731	0.03868789
7	0xbdbcc6f8	-0.09217638
8	0x3cceb298	0.025231645
9	0xbd7a5444	-0.06111552
10	0xbd90b5f8	-0.07065958
11	0x3cb59d43	0.022169715
12	0x3d7fcccb	0.062451165
13	0x3d27425a	0.040834762
14	0xbe51e181	-0.20496179
15	0xbdfbe25a	-0.122990325
16	0x3e8ea64c	0.2786125
17	0x3da2f3cb	0.07956656
18	0xbd872c55	-0.066002525
19	0x3d6b50e7	0.0574502
20	0x3c92b8a6	0.017910313
21	0x3e80552c	0.2506498
22	0xbdc990cf	-0.09842073
23	0x3d5b13f9	0.053485844
24	0xbe8c92e4	-0.2745582
25	0xbcfa1726	-0.030528616
26	0xbca4e364	-0.02012796
27	0xbd6cefb2	-0.05784578
28	0x3dac35da	0.08408709
29	0xbc802aab	-0.015645346
30	0x3d963300	0.07333946
31	0x3c03059b	0.007996942
32	0x3d82f49c	0.06394312
33	0xbdf825cb	-0.121165834
34	0x3ca6ae07	0.020346655
35	0xbd87d69d	-0.06632731
36	0xbe7ac331	-0.24488522
37	0x3d89d58a	0.067301825
38	0x3d4ded43	0.0502751
39	0xbce9322d	-0.028466308
40	0xbdc41232	-0.09573783
41	0x3c58b598	0.013226889
42	0xbd9d30f8	-0.07675356
43	0xbe93b1af	-0.288465
44	0xbd29d54c	-0.04146318
45	0xbe40dab4	-0.18833429
46	0x3e553c4e	0.20823786
47	0x3d83ef5a	0.06442137
48	0xbe683af4	-0.22678739
49	0xbd6915e9	-0.05690566
50	0x3da6550f	0.081216924
51	0x3e2c323b	0.16816036
52	0x3dfc8e6f	0.123318546
53	0xbe014eaf	-0.12627672
54	0x3ddd5d00	0.10808754
55	0x3cb46fe0	0.022026002
56	0xbc30c889	-0.010789999
57	0xbe3d484a	-0.18484607
58	0x3d705bc0	0.05868125
59	0x3d1a7826	0.03771224
60	0xbe354ea5	-0.17705782
61	0x3cccb807	0.024990095
62	0xbdc4b5f6	-0.09605019
63	0xbe030029	-0.1279303
64	0xbca6a12b	-0.020340523
65	0x3e1151e4	0.14191395
66	0xbe0ffc72	-0.14061144
67	0x3d90ed90	0.070765615
68	0x3dae5060	0.08511424
69	0x3ddb68fa	0.10713382
70	0xbd8d3be2	-0.06896187
71	0x3e1fe403	0.15614323
72	0xbdea1fc5	-0.11431841
73	0x3d819d1c	0.06328794
74	0x3dacbb02	0.084341064
75	0x3d5294e6	0.051411532
76	0x3e826c14	0.25473082
77	0x3dd30dd4	0.10305372
78	0xbe0ad021	-0.13555957
79	0xbd9b0ec9	-0.075711794
80	0x3e8a5e2b	0.2702497
81	0xbb96242c	-0.0045819487
82	0xbe317e64	-0.1733337
83	0xbd8924a4	-0.06696442
84	0x3dbe47a7	0.0929101
85	0x3e8a6c58	0.27035785
86	0xbe11c5d5	-0.14235623
87	0xbe02c4f5	-0.12770446
88	0xbd7d98dd	-0.06191336
89	0x3dfc8d78	0.123316705
90	0xbc0dd3dd	-0.008656469
91	0xbe429208	-0.19001019
92	0x3e7eef9b	0.2489609
93	0xbe08ff3f	-0.13378619
94	0x3e847d6e	0.25876945
95	0x3e8f1a28	0.27949643
96	0xbda1d92c	-0.079027504
97	0xbe460191	-0.19336535
98	0x3d99c1f8	0.075077
99	0x3dfc8dff	0.12331771
100	0xbe441f53	-0.19152574
101	0xbd72df2a	-0.059294857
102	0x3e252d55	0.16130574
103	0xbe5dba27	-0.21653043
104	0x3e675d45	0.22594173
105	0xbcec03a3	-0.028810328
106	0xba8e289c	-0.0010845843
107	0x3c85e774	0.016345717
108	0xbe8dfe39	-0.2773302
109	0x3e781609	0.24227156
110	0xbebbc64f	-0.36674735
111	0xbda0581a	-0.07829304
112	0xbe93a4d5	-0.28836694
113	0x3d7be20e	0.06149488
114	0x3dfed833	0.124435805
115	0xbd99451e	-0.07483886
116	0x3dfe0077	0.124024324
117	0x3dfa94e3	0.12235429
118	0x3d510440	0.051029444
119	0x3dacd50c	0.08439073
120	0xbb9b44d2	-0.0047384286
121	0x3cad257d	0.02113604
122	0x3dc9b288	0.09848505
123	0x3e1ca5ec	0.15297669
124	0x3daa7bbe	0.08324383
125	0x3de48f86	0.111601874
126	0xbe965719	-0.29363325
127	0xbe2508be	-0.16116616
128	0xbe035a2f	-0.12827371
129	0x3d8b91af	0.06814896
130	0xbd80aa13	-0.06282439
131	0xbd88af47	-0.066740565
132	0x3e83b175	0.25721326
133	0x3e3cb730	0.18429255
134	0x3d09ab23	0.033610474
135	0x3cf321a2	0.029679123
136	0xbd1cbe0f	-0.03826719
137	0x3d984028	0.07434112
138	0x3d5a05c8	0.05322817
139	0xbc19bfb9	-0.009384089
140	0x3ce4ff53	0.02795378
141	0x3c34d8de	0.011038033
142	0xbb19c51b	-0.0023463431
143	0x3daa9806	0.083297774
144	0x3e827833	0.2548233
145	0xbdea2c16	-0.1143419
146	0x3cf5a7d5	0.029987255
147	0x3e4f967d	0.2027225
148	0xbdbb598b	-0.09147938
149	0x3db1aefa	0.08675952
150	0xbe34156a	-0.17586294
151	0xbe336210	-0.17517877
152	0xbe9aa294	-0.30202162
153	0x3dcb9d06	0.09942059
154	0x3ccfa4a6	0.025347065
155	0xbcaf5912	-0.021404777
156	0xbd38833b	-0.045047026
157	0xbdff7385	-0.124732055
158	0x3d32fc60	0.043697715
159	0xbd1fb99c	-0.03899537
160	0xbe79a4bf	-0.24379252
161	0xbe2b745f	-0.16743611
162	0x3db2ac47	0.087242655
163	0xbdfdff49	-0.124022074
164	0xbe890a78	-0.267658
165	0xbe449b68	-0.19199908
166	0x3e8818fa	0.26581556
167	0xbe1b0aaf	-0.15140794
168	0x3e248deb	0.16069762
169	0xbda4dbfe	-0.08049773
170	0xbe45f7d6	-0.19332823
171	0x3e04414a	0.12915531
172	0xbdd68d9b	-0.10476228
173	0x3da49204	0.08035663
174	0x3daa49f1	0.083148845
175	0x3dcf3787	0.10118013
176	0xbeaf7da2	-0.34275538
177	0x3d8fb398	0.07016677
178	0x3e16b8af	0.14718889
179	0x3e144a95	0.14481576
180	0x3a80c042	0.0009822922
181	0x3d4bdfc7	0.049773958
182	0xbe0b90fd	-0.13629527
183	0x3e2613eb	0.16218536
184	0x3e56cd74	0.20976812
185	0x3de28906	0.110612914
186	0x3cfd8205	0.030945787
187	0xbd6fed6e	-0.05857604
188	0x3dcdbe8e	0.10046111
189	0xbd901d76	-0.07036869
190	0x3bb29d6c	0.005450895
191	0xbe620255	-0.22071202
192	0x3e3a77ac	0.18209714
193	0x3dcdb8aa	0.100449875
194	0xbde457eb	-0.111495815
195	0xbe2535a3	-0.16133742
196	0x3ca596cd	0.020213509
197	0x3e18c6c6	0.14919576
198	0xbde4620f	-0.11151516
199	0x3c9a4f96	0.018836778
200	0xbe8f275e	-0.27959722
201	0x3e7d68d2	0.24747017
202	0x3d0af25f	0.03392255
203	0xbdd1139e	-0.1020882
204	0x3cef2747	0.029193534
205	0xbd8afbe3	-0.06786325
206	0x3ccd65ac	0.025072895
207	0x3e4a4a75	0.19754966
208	0x3de861fd	0.11346815
209	0xbe1afce2	-0.1513553
210	0x3cb160e4	0.021652646
211	0xbba09ca7	-0.004901487
212	0xbe38ec28	-0.18058836
213	0xbe03a978	-0.12857616
214	0x3df90125	0.121584214
215	0xbe6f0940	-0.23343372
216	0xbd622610	-0.05521208
217	0xbdbe7a4c	-0.0930067
218	0xbe574992	-0.21024159
219	0xbe0e8f8f	-0.13921951
220	0xbe94300b	-0.28942904
221	0x3da0cca6	0.078515336
222	0x3dd7a0d6	0.10528724
223	0xbd6e2037	-0.05813619
224	0xbe02a951	-0.12759902
225	0x3d6dc763	0.058051478
226	0x3d04554d	0.03230791
227	0xbd2d5bb0	-0.04232377
228	0x3e4b9867	0.19882356
229	0xbdf7a1fb	-0.12091442
230	0x3e1e4d41	0.15459158
231	0x3e9d71da	0.30750924
232	0x3e4afbd9	0.19822635
233	0x3dbe3017	0.09286516
234	0x3cb3a245	0.021927962
235	0x3de5eb3b	0.11226507
236	0x3d3f9c91	0.046780173
237	0x3d4ef4ba	0.05052636
238	0xbe391b8d	-0.18076916
239	0xbb93221e	-0.004490151
240	0x3e0a1e1b	0.13488047
241	0x3df38922	0.118913904
242	0xbd97253f	-0.07380151
243	0xbd6dfaf1	-0.058100644
244	0x3d44a49e	0.048008554
245	0x3e0e4525	0.13893564
246	0xbdd1f5c6	-0.10251956
247	0x3d119b50	0.03554851
248	0xbe231548	-0.15926087
249	0x3b965a62	0.004588411
250	0x3e181da8	0.14855063
251	0xbdae2344	-0.0850282
252	0x3dc395db	0.09550067
253	0xbe163acb	-0.14670865
254	0x3e70dae7	0.23521005
255	0x3e124cad	0.14287062

arith.constant9 f4 [16, 3, 3, 3]
0	0xbddb2f30	-0.1070236
1	0x3e134b5b	0.14384215
2	0xbdbd4e15	-0.092434086
3	0xbc0ec303	-0.008713487
4	0x3e1325c3	0.14369874
5	0x3e35a51c	0.17738765
6	0xbe9ef751	-0.31048062
7	0x3e7fce60	0.2498107
8	0x3e9a6190	0.3015256
9	0x3d61654c	0.055028245
10	0xbc865076	-0.016395789
11	0xbe202ef6	-0.15642914
12	0x3e2cece1	0.16887237
13	0xbdf01635	-0.11722986
14	0x3c8b01ad	0.016968573
15	0xbe20e85d	-0.1571364
16	0x3e1b5966	0.15170822
17	0x3e0b6fe5	0.13616903
18	0x3e0b86c3	0.13625626
19	0xbe9ca9c5	-0.30598274
20	0xbe12479b	-0.14285128
21	0x3da2c2a8	0.07947284
22	0xbe7571f0	-0.23969245
23	0xbdb541d8	-0.08850449
24	0x3d4b415d	0.049622882
25	0xbc95b481	-0.018274548
26	0xbd8e75a9	-0.06956036
27	0x3e868efe	0.2628097
28	0xbdfd193e	-0.1235833
29	0xbddebf97	-0.108763866
30	0x3db49236	0.0881695
31	0xbe8446e6	-0.2583534
32	0xbe29f5ea	-0.16597715
33	0x3e0d1814	0.13778716
34	0xbe02037f	-0.12696646
35	0xbe22e91a	-0.15909234
36	0x3d4204f3	0.047368
37	0xbdba5429	-0.090980835
38	0x3ddf4d0f	0.1090337
39	0x3e4247c9	0.18972696
40	0xbeb8788b	-0.36029467
41	0x3d36dad8	0.0446423
42	0xbb8038ee	-0.0039130365
43	0xbe540d4d	-0.20708199
44	0xbd4f8a22	-0.050668843
45	0x3dda571a	0.106611446
46	0x3e8f5168	0.27991796
47	0x3e519c98	0.20469892
48	0xbdf7e711	-0.12104619
49	0xbe391174	-0.18073064
50	0x3e57d7c6	0.21078405
51	0xbdb5b0c6	-0.088716075
52	0x3e3166ca	0.17324367
53	0x3c8ea213	0.017411267
54	0xbdc89884	-0.09794715
55	0xbe0dfb59	-0.13865413
56	0xbe288c39	-0.1645974
57	0xbe91787a	-0.2841223
58	0x3dc37460	0.09543681
59	0xbe021e73	-0.12706928
60	0xbe102b9e	-0.14079139
61	0xbe1622ef	-0.14661764
62	0x3e124961	0.14285804
63	0x3d57caef	0.052683767
64	0xbe1af1bb	-0.15131275
65	0x3d0680ca	0.032837667
66	0xbccb3eb5	-0.024810174
67	0x3de9994a	0.11406191
68	0x3e7e004f	0.24804805
69	0x3de50e8a	0.11184414
70	0x3e29c43c	0.16578764
71	0x3eaf7c2d	0.34274426
72	0x3d42d2a6	0.04756417
73	0x3decd3bb	0.11563822
74	0x3e26ec93	0.16301183
75	0xbe9e065c	-0.30864227
76	0x3e3d9b0e	0.1851618
77	0x3dae1a74	0.08501139
78	0xbdfa8e38	-0.12234157
79	0xbbbe0935	-0.0057994374
80	0x3e2db124	0.16962105
81	0xbe913202	-0.28358465
82	0x3e0b6721	0.1361356
83	0x3d75014e	0.059815697
84	0xbdc35e39	-0.09539456
85	0x3e1edf0c	0.15514773
86	0x3e12a6dc	0.14321464
87	0x3e02d4fa	0.12776557
88	0xb94e93d3	-0.0001970076
89	0xbe05dbbc	-0.13072103
90	0xbe65170c	-0.22372073
91	0x3dcfebd2	0.10152401
92	0x3e67b83f	0.22628878
93	0x3e112008	0.14172375
94	0x3e224902	0.15848163
95	0x3db8c7ba	0.0902247
96	0x3e73dedc	0.23815483
97	0xbe7041c5	-0.23462589
98	0xbcee21ff	-0.029068945
99	0xbdd91b1b	-0.10600873
100	0xbdccf300	-0.10007286
101	0xbdbbbbb2	-0.091666594
102	0xbd1f29c5	-0.038858194
103	0x3d3a1155	0.045426685
104	0xbe352c78	-0.17692745
105	0x3e700154	0.23438007
106	0xbde5aee1	-0.11214996
107	0xbe16727f	-0.14692114
108	0x3dda7fdb	0.10668918
109	0xbe3e97d4	-0.18612605
110	0x3d45336e	0.04814475
111	0x3e84eb68	0.2596085
112	0xbe93e073	-0.2888218
113	0xbe1c6179	-0.15271558
114	0x3e6854b1	0.22688557
115	0xbca2ca1a	-0.01987176
116	0xbe209ef2	-0.15685633
117	0xbdc5df1c	-0.09661695
118	0xbe0910be	-0.13385293
119	0xbdc1c666	-0.094616696
120	0x3e0c947b	0.13728516
121	0x3cec622b	0.028855404
122	0xbe3d2879	-0.1847247
123	0x3c24fdde	0.010070292
124	0xbe0805b8	-0.13283432
125	0xbc92c887	-0.017917885
126	0xbe457559	-0.19283046
127	0x3d1bd12c	0.03804128
128	0x3e56d8df	0.20981167
129	0xbc47b38c	-0.012188803
130	0x3e67b39f	0.22627114
131	0x3e7f5d0d	0.2493784
132	0x3cb3f4c9	0.021967309
133	0xbc1c32a9	-0.009533563
134	0x3e1a2e35	0.15056689
135	0xbdc27cbb	-0.09496447
136	0x3cde981b	0.027172139
137	0x3e701320	0.23444796
138	0x3d3dcd51	0.046338383
139	0xbdd74336	-0.10510866
140	0x3e55a70f	0.20864509
141	0xbc194e23	-0.009357008
142	0x3e1af25f	0.1513152
143	0x3e0fe049	0.14050402
144	0x3e1349b7	0.14383589
145	0xbd067740	-0.03282857
146	0xbe4e1a86	-0.20127305
147	0x3c46b029	0.012126961
148	0xbe8d1472	-0.2755466
149	0xbd8855a8	-0.06656963
150	0x3e43b703	0.19112782
151	0xbdc6d4c8	-0.097085536
152	0xbdbac781	-0.091200836
153	0x3e1d44df	0.15358303
154	0xbe2dfef8	-0.16991794
155	0xbdd8cbed	-0.10585771
156	0x3e4af7aa	0.19821039
157	0xbe386b44	-0.18009669
158	0xbe78b246	-0.24286756
159	0x3e325ce7	0.17418252
160	0xbe3e139b	-0.18562166
161	0xbe0e5226	-0.13898525
162	0x3dafe191	0.08587945
163	0x3e3921f5	0.1807936
164	0x3db678b4	0.08909741
165	0x3e110042	0.14160255
166	0x3d9fc8d2	0.07801975
167	0xbe135e8b	-0.14391534
168	0xbcf32a5b	-0.029683283
169	0xbe5e5e06	-0.21715555
170	0xbe60d03a	-0.21954432
171	0x3cfc45bd	0.030794973
172	0x3e62310d	0.22089024
173	0x3eae12e7	0.33998796
174	0x3d579400	0.05263138
175	0x3e354d48	0.17705262
176	0x3dce6bc7	0.10079151
177	0xbe28a3fa	-0.16468802
178	0xbe5686b2	-0.2094982
179	0xbe626039	-0.22107019
180	0xbea12669	-0.31474617
181	0x3db6aa45	0.08919195
182	0xbded1561	-0.11576343
183	0x3df8ff4a	0.121580675
184	0x398b5ab7	0.00026579734
185	0x3e11b246	0.14228162
186	0xbdcdffaa	-0.1005853
187	0x3ca65e63	0.020308679
188	0x3de18bf9	0.11013026
189	0xbe290374	-0.16505224
190	0x3e400b88	0.18754399
191	0x3e271615	0.16317017
192	0xbcb25b45	-0.021772036
193	0xbe279636	-0.16365895
194	0xbdd470bb	-0.10373064
195	0x3d6beacb	0.057596963
196	0xbe30ff2f	-0.17284845
197	0xbd95602e	-0.072937354
198	0xbe0e6833	-0.13906936
199	0x3de8744b	0.11350306
200	0x3eac3527	0.33634302
201	0xbd3b0758	-0.0456613
202	0xbe08ca1a	-0.13358346
203	0xbcc73a21	-0.02431971
204	0x3df7dd8e	0.12102805
205	0xbde948fe	-0.11390875
206	0xbde4ec77	-0.111779146
207	0x3c2c8906	0.010530716
208	0x3e173f7a	0.14770308
209	0x3e4539ab	0.1926028
210	0x3de9cccc	0.11416015
211	0xbd69f969	-0.05712262
212	0xbe5517e3	-0.20809893
213	0x3e5dfc3d	0.21678253
214	0xbda86f5c	-0.08224365
215	0xbe0e0b72	-0.13871554
216	0xbd253f4e	-0.040343575
217	0x3e5d68d8	0.21622026
218	0x3e9995b5	0.2999703
219	0x3cdd13af	0.026986925
220	0x3e088ab6	0.13334164
221	0x3e2fe677	0.17177759
222	0xbd2f35ad	-0.0427758
223	0xbc12fa90	-0.008970872
224	0xbe4eda06	-0.20200357
225	0xbd9209bd	-0.07130764
226	0x3db257bd	0.08708141
227	0x3d628db7	0.05531093
228	0xbdcb50dd	-0.09927533
229	0xbe1c1e84	-0.15246016
230	0x3e0ec41a	0.13941994
231	0xbb50f53e	-0.0031884457
232	0xbe7d3b81	-0.2472973
233	0xbe1adeac	-0.15124005
234	0xbe71be88	-0.23607838
235	0x3e2a2adb	0.1661791
236	0x3da9b631	0.082867034
237	0xbe5d821f	-0.21631669
238	0x3bfc9520	0.007708207
239	0xbe3417ce	-0.17587206
240	0x3e96113a	0.29310018
241	0x3d53c25a	0.05169902
242	0xbe6686ef	-0.2251241
243	0x3e9dc838	0.30816817
244	0xbe9479f3	-0.2899929
245	0xbe8015de	-0.25016683
246	0x3c57f765	0.013181542
247	0xbd522559	-0.05130515
248	0xbdbf27c7	-0.09333759
249	0xbd4ca152	-0.049958535
250	0x3e53f45e	0.20698687
251	0x3e301e80	0.17199135
252	0xbd107859	-0.035271022
253	0xbd7705c3	-0.06030823
254	0xbdca29d7	-0.098712616
255	0xbcb3b017	-0.021934552

arith.constant10 f4 [2, 64]
0	0x3d43923e	0.04774689
1	0x3e4481b5	0.19190104
2	0x3df21a4f	0.11821424
3	0xbea094b5	-0.31363454
4	0xbd4608cc	-0.048348233
5	0xbe0c649d	-0.13710256
6	0xbe169119	-0.14703788
7	0xbd257515	-0.04039486
8	0x3c26f703	0.010190728
9	0xbe1646fa	-0.14675513
10	0x3bba0fed	0.005678168
11	0x3e3283ba	0.17433062
12	0x3e37fbf1	0.17967202
13	0xbbc5b311	-0.0060333093
14	0xb7b98ada	-2.2118376e-05
15	0x3b386e0f	0.0028141772
16	0x3a3bda0f	0.0007165977
17	0xbb62c557	-0.0034602487
18	0x3def75a8	0.11692363
19	0x3e6a3ece	0.2287552
20	0xbc9ee3dc	-0.019395761
21	0x3cac375b	0.02102249
22	0x3d52b557	0.05144247
23	0xbe36288d	-0.17788906
24	0xbe427b33	-0.1899231
25	0xbadd3fc7	-0.0016879969
26	0x3db98583	0.090586685
27	0x3a3ffa92	0.00073234097
28	0xbe107492	-0.14106968
29	0xbb52d0b4	-0.0032167854
30	0x3d59468e	0.0530458
31	0xbd110dc9	-0.035413537
32	0xbc445ae2	-0.011984559
33	0x3d381d19	0.044949625
34	0xba1d61b0	-0.0006003631
35	0xbdac8012	-0.08422865
36	0xbc175bb0	-0.009238169
37	0xbd5dc9a2	-0.05414737
38	0x3e21f30b	0.1581537
39	0x3adde827	0.0016930149
40	0x3a142a95	0.0005652097
41	0xba263060	-0.0006339606
42	0x3e433c06	0.19065866
43	0x3e8b57d5	0.27215448
44	0x39473014	0.0001899603
45	0xbb955485	-0.0045571947
46	0xbe9f3b53	-0.31099948
47	0xbc82175b	-0.015880277
48	0xbd402155	-0.046906788
49	0x3d6ccb97	0.057811346
50	0x3d0453d5	0.03230651
51	0x3e0175d0	0.12642598
52	0x3b4a4751	0.0030865262
53	0xbe26fddd	-0.16307779
54	0xbe2da076	-0.16955742
55	0x3dd361df	0.10321402
56	0x3e4f7bb5	0.20262034
57	0xbd8f123c	-0.069859
58	0x3c82cfa0	0.015968144
59	0x387dcea4	6.051235e-05
60	0x3b51a0f8	0.0031986814
61	0x3e86635c	0.2624768
62	0x3ac5e77c	0.0015098895
63	0xbdcf7ab9	-0.10130829
64	0x3c8ef532	0.017450903
65	0x3de8bde3	0.11364343
66	0x3d876f42	0.066130176
67	0x3de88a99	0.113545604
68	0xbd116763	-0.035498988
69	0xbe79a4e1	-0.24379303
70	0xbd604c73	-0.054760408
71	0x3d63d6e5	0.05562486
72	0x3e2d916e	0.16950008
73	0xbe45f846	-0.1933299
74	0xba62bf5f	-0.00086497323
75	0x3e9072ab	0.28212485
76	0xbe603a6d	-0.21897288
77	0xba2fbdb4	-0.0006703988
78	0x3a752c1e	0.0009352582
79	0x3befe3f7	0.0073208767
80	0xba82c9c3	-0.0009978343
81	0x3b1753ef	0.00230908
82	0xbe05ebfc	-0.13078302
83	0xbc83ce18	-0.016089484
84	0x3c872b11	0.016500028
85	0xbd1419e6	-0.03615751
86	0x3e069522	0.13142827
87	0x3e8f26ca	0.2795928
88	0xbcca4ead	-0.024695719
89	0x3c4fccca	0.012683103
90	0xbd388bae	-0.045055084
91	0x3a1270d7	0.00055862725
92	0x3dcfa705	0.10139278
93	0x3b71fec6	0.0036925538
94	0x3e859469	0.2608979
95	0x3c51ed59	0.012812936
96	0xbb5b69da	-0.003347984
97	0x3dc1b64c	0.094585985
98	0x3aa6bc2d	0.0012720876
99	0xbd96b115	-0.073579945
100	0x3b31715d	0.0027075626
101	0xbbad6e77	-0.0052927095
102	0xbb86a536	-0.00410905
103	0xbd3a93e7	-0.045551207
104	0xb9d5d28d	-0.00040783398
105	0xbc65c0ab	-0.014022986
106	0xbe6542ca	-0.2238876
107	0x3df6e7f7	0.120559625
108	0xb8bc32dc	-8.974012e-05
109	0x3a9ab3a9	0.001180281
110	0xbe475f32	-0.19469908
111	0xbe94eb31	-0.29085687
112	0xbd602ed7	-0.05473217
113	0x3d4db7c7	0.05022409
114	0x3c91c041	0.01779187
115	0xbe73a703	-0.23794179
116	0x3b861e48	0.0040929653
117	0xbe0d6d4b	-0.13811223
118	0x3e3e88e0	0.18606901
119	0xbdc4cab3	-0.09608974
120	0xbdb56819	-0.08857746
121	0xbdaf4415	-0.085579075
122	0x3dd54b44	0.104147464
123	0xba9038a0	-0.0011003204
124	0x3c005914	0.007833738
125	0x3daaa437	0.08332103
126	0xbb093782	-0.0020937626
127	0x3d8a43c8	0.067512095
