models/ana-cont/ana-cont_1700_s1_q.tflite (tflite, 116368 bytes, 13 tensors)

tfl.pseudo_qconst1 i1 [2, 64] scale=0.0029384908 zero_point=0
00000000: fff8 fd38 296d 3103 c902 ee02 0f00 00e4
00000010: 01fc f1fe ef00 af03 5ef7 beff fd2f e703
00000020: 3600 a403 32fd 01c8 1a01 00cc 00c6 a5c6
00000030: 03de 01ff 00ff 5958 e900 7303 b302 bdec
00000040: 052c 02bf dc0e 9602 f0ff b5fe e802 32d3
00000050: fe01 fffe 8c7e d2fe 0706 81fe 0064 dc02
00000060: 18ff 0402 a100 ef17 cbf8 0037 00bc df2c
00000070: 003a 0358 00fe 24e5 2cf6 31ff 6001 b0e3
-0.0029384908 -0.023507927 -0.008815473 0.16455549 0.12047812 0.3202955 0.14398605 0.008815473
-0.161617 0.0058769817 -0.052892834 0.0058769817 0.044077363 0.0 0.0 -0.082277745
0.0029384908 -0.011753963 -0.044077363 -0.0058769817 -0.049954344 0.0 -0.23801775 0.008815473
0.27621815 -0.026446417 -0.1939404 -0.0029384908 -0.008815473 0.13810907 -0.07346227 0.008815473
0.1586785 0.0 -0.27034116 0.008815473 0.14692454 -0.008815473 0.0029384908 -0.16455549
0.076400764 0.0029384908 0.0 -0.15280153 0.0 -0.17043246 -0.26740268 -0.17043246
0.008815473 -0.09990869 0.0029384908 -0.0029384908 0.0 -0.0029384908 0.2615257 0.25858718
-0.06758529 0.0 0.33792645 0.008815473 -0.22626379 0.0058769817 -0.19687888 -0.058769815
0.014692454 0.12929359 0.0058769817 -0.1910019 -0.10578567 0.041138873 -0.31148002 0.0058769817
-0.047015853 -0.0029384908 -0.22038682 -0.0058769817 -0.07052378 0.0058769817 0.14692454 -0.13223208
-0.0058769817 0.0029384908 -0.0029384908 -0.0058769817 -0.34086493 0.37024984 -0.13517058 -0.0058769817
0.020569436 0.017630946 -0.37318835 -0.0058769817 0.0 0.29384908 -0.10578567 0.0058769817
0.07052378 -0.0029384908 0.011753963 0.0058769817 -0.27915663 0.0 -0.049954344 0.06758529
-0.15574001 -0.023507927 0.0 0.161617 0.0 -0.19981737 -0.0969702 0.12929359
0.0 0.17043246 0.008815473 0.25858718 0.0 -0.0058769817 0.10578567 -0.07933925
0.12929359 -0.029384907 0.14398605 -0.0029384908 0.28209513 0.0029384908 -0.23507926 -0.08521623

tfl.pseudo_qconst3 i1 [64, 128] scale=0.0012334534 zero_point=0
00000000: 0000 0000 0000 0000 0000 0000 0000 0000
00000010: 0000 0000 0000 0000 0000 0000 0000 0000
00000020: 0000 0000 0000 0000 0000 0000 0000 0000
00000030: 0000 0000 0000 0000 0000 0000 0000 0000
00000040: 0000 0000 0000 0000 0000 0000 0000 0000
00000050: 0000 0000 0000 0000 0000 0000 0000 0000
00000060: 0000 0000 0000 0000 0000 0000 0000 0000
00000070: 0000 0000 0000 0000 0000 0000 0000 0000
00000080: 0000 0000 0000 0000 0000 0000 0000 0000
00000090: 0000 0000 0000 0000 0000 0000 0000 0000
000000a0: 0000 0000 0000 0000 0000 0000 0000 0000
000000b0: 0000 0000 0000 0000 0000 0000 0000 0000
000000c0: 0000 0000 0000 0000 0000 0000 0000 0000
000000d0: 0000 0000 0000 0000 0000 0000 0000 0000
000000e0: 0000 0000 0000 0000 0000 0000 0000 0000
000000f0: 0000 0000 0000 0000 0000 0000 0000 0000
0.0 0.0 0.0 0.0 0.0 0.0 0.0 0.0
0.0 0.0 0.0 0.0 0.0 0.0 0.0 0.0
0.0 0.0 0.0 0.0 0.0 0.0 0.0 0.0
0.0 0.0 0.0 0.0 0.0 0.0 0.0 0.0
0.0 0.0 0.0 0.0 0.0 0.0 0.0 0.0
0.0 0.0 0.0 0.0 0.0 0.0 0.0 0.0
0.0 0.0 0.0 0.0 0.0 0.0 0.0 0.0
0.0 0.0 0.0 0.0 0.0 0.0 0.0 0.0
0.0 0.0 0.0 0.0 0.0 0.0 0.0 0.0
0.0 0.0 0.0 0.0 0.0 0.0 0.0 0.0
0.0 0.0 0.0 0.0 0.0 0.0 0.0 0.0
0.0 0.0 0.0 0.0 0.0 0.0 0.0 0.0
0.0 0.0 0.0 0.0 0.0 0.0 0.0 0.0
0.0 0.0 0.0 0.0 0.0 0.0 0.0 0.0
0.0 0.0 0.0 0.0 0.0 0.0 0.0 0.0
0.0 0.0 0.0 0.0 0.0 0.0 0.0 0.0
0.0 0.0 0.0 0.0 0.0 0.0 0.0 0.0
0.0 0.0 0.0 0.0 0.0 0.0 0.0 0.0
0.0 0.0 0.0 0.0 0.0 0.0 0.0 0.0
0.0 0.0 0.0 0.0 0.0 0.0 0.0 0.0
0.0 0.0 0.0 0.0 0.0 0.0 0.0 0.0
0.0 0.0 0.0 0.0 0.0 0.0 0.0 0.0
0.0 0.0 0.0 0.0 0.0 0.0 0.0 0.0
0.0 0.0 0.0 0.0 0.0 0.0 0.0 0.0
0.0 0.0 0.0 0.0 0.0 0.0 0.0 0.0
0.0 0.0 0.0 0.0 0.0 0.0 0.0 0.0
0.0 0.0 0.0 0.0 0.0 0.0 0.0 0.0
0.0 0.0 0.0 0.0 0.0 0.0 0.0 0.0
0.0 0.0 0.0 0.0 0.0 0.0 0.0 0.0
0.0 0.0 0.0 0.0 0.0 0.0 0.0 0.0
0.0 0.0 0.0 0.0 0.0 0.0 0.0 0.0
0.0 0.0 0.0 0.0 0.0 0.0 0.0 0.0

tfl.pseudo_qconst5 i1 [128, 256] scale=0.00034575415 zero_point=0
00000000: f706 ecef eaf6 01f4 e2fa ecf4 0efc ff0b
00000010: 00de 040a 230b 053a f1eb f5ff f2ff f70f
00000020: eff5 fde3 e1f3 f7f8 f3fb fb18 0a06 fe34
00000030: 03eb 14ed 04f0 222d 05ee 01fd fd16 fd01
00000040: ff06 0513 f503 df00 e6f2 22f7 0008 fe0a
00000050: 0cfd 01f0 ff00 f7e9 fb1f f90a e707 f414
00000060: 13fa 0629 fde5 e9f0 1ede f6fb 07fa 02df
00000070: d80e fe0b f1d4 08e5 f8fe 09ff eded eafd
00000080: fd02 ee22 af04 0dee 2708 faf2 0efd f30d
00000090: f3c8 e0eb e91f 14eb 13f9 07f0 01ed 0b3d
000000a0: dff4 e1dc f807 00fd fce1 fcfa 00f4 0115
000000b0: f9e6 ea0c fb13 0b06 f754 0801 03e7 26e8
000000c0: 0000 021b f80c 1400 f001 0211 0b16 f1eb
000000d0: 15eb ea06 05f9 07fa fafa ff06 fcf3 f700
000000e0: 100b 2002 fef0 05ff 0005 07f9 1101 1f28
000000f0: f8e0 f630 084b e1e9 1808 1000 0913 f0d5
-0.0031117874 0.0020745248 -0.006915083 -0.0058778203 -0.007606591 -0.0034575416 0.00034575415 -0.0041490495
-0.010372625 -0.0020745248 -0.006915083 -0.0041490495 0.004840558 -0.0013830166 -0.00034575415 0.0038032955
0.0 -0.011755641 0.0013830166 0.0034575416 0.012101395 0.0038032955 0.0017287708 0.02005374
-0.0051863124 -0.007260837 -0.0038032955 -0.00034575415 -0.004840558 -0.00034575415 -0.0031117874 0.0051863124
-0.0058778203 -0.0038032955 -0.0010372624 -0.01002687 -0.010718378 -0.004494804 -0.0031117874 -0.0027660332
-0.004494804 -0.0017287708 -0.0017287708 0.008298099 0.0034575416 0.0020745248 -0.0006915083 0.017979216
0.0010372624 -0.007260837 0.006915083 -0.0065693287 0.0013830166 -0.0055320663 0.011755641 0.015558937
0.0017287708 -0.0062235747 0.00034575415 -0.0010372624 -0.0010372624 0.007606591 -0.0010372624 0.00034575415
-0.00034575415 0.0020745248 0.0017287708 0.0065693287 -0.0038032955 0.0010372624 -0.011409887 0.0
-0.008989608 -0.004840558 0.011755641 -0.0031117874 0.0 0.0027660332 -0.0006915083 0.0034575416
0.0041490495 -0.0010372624 0.00034575415 -0.0055320663 -0.00034575415 0.0 -0.0031117874 -0.007952346
-0.0017287708 0.010718378 -0.002420279 0.0034575416 -0.0086438535 0.002420279 -0.0041490495 0.006915083
0.0065693287 -0.0020745248 0.0020745248 0.01417592 -0.0010372624 -0.009335362 -0.007952346 -0.0055320663
0.010372625 -0.011755641 -0.0034575416 -0.0017287708 0.002420279 -0.0020745248 0.0006915083 -0.011409887
-0.013830166 0.004840558 -0.0006915083 0.0038032955 -0.0051863124 -0.015213182 0.0027660332 -0.009335362
-0.0027660332 -0.0006915083 0.0031117874 -0.00034575415 -0.0065693287 -0.0065693287 -0.007606591 -0.0010372624
-0.0010372624 0.0006915083 -0.0062235747 0.011755641 -0.028006086 0.0013830166 0.004494804 -0.0062235747
0.013484412 0.0027660332 -0.0020745248 -0.004840558 0.004840558 -0.0010372624 -0.004494804 0.004494804
-0.004494804 -0.019362232 -0.011064133 -0.007260837 -0.007952346 0.010718378 0.006915083 -0.007260837
0.0065693287 -0.002420279 0.002420279 -0.0055320663 0.00034575415 -0.0065693287 0.0038032955 0.021091003
-0.011409887 -0.0041490495 -0.010718378 -0.0124471495 -0.0027660332 0.002420279 0.0 -0.0010372624
-0.0013830166 -0.010718378 -0.0013830166 -0.0020745248 0.0 -0.0041490495 0.00034575415 0.007260837
-0.002420279 -0.008989608 -0.007606591 0.0041490495 -0.0017287708 0.0065693287 0.0038032955 0.0020745248
-0.0031117874 0.029043349 0.0027660332 0.00034575415 0.0010372624 -0.0086438535 0.013138657 -0.008298099
0.0 0.0 0.0006915083 0.009335362 -0.0027660332 0.0041490495 0.006915083 0.0
-0.0055320663 0.00034575415 0.0006915083 0.0058778203 0.0038032955 0.007606591 -0.0051863124 -0.007260837
0.007260837 -0.007260837 -0.007606591 0.0020745248 0.0017287708 -0.002420279 0.002420279 -0.0020745248
-0.0020745248 -0.0020745248 -0.00034575415 0.0020745248 -0.0013830166 -0.004494804 -0.0031117874 0.0
0.0055320663 0.0038032955 0.011064133 0.0006915083 -0.0006915083 -0.0055320663 0.0017287708 -0.00034575415
0.0 0.0017287708 0.002420279 -0.002420279 0.0058778203 0.00034575415 0.010718378 0.013830166
-0.0027660332 -0.011064133 -0.0034575416 0.016596198 0.0027660332 0.025931561 -0.010718378 -0.007952346
0.008298099 0.0027660332 0.0055320663 0.0 0.0031117874 0.0065693287 -0.0055320663 -0.014867429

tfl.pseudo_qconst7 i1 [64, 3, 3, 64]
00000000: bbe7 ee20 2d0b 34ed e6d5 e2f5 06cf e6ce
00000010: 10f8 e5ec f4e1 f131 06a7 ec01 d5dd 02e6
00000020: e225 0bec 27f2 2d30 130a 3f00 e114 f705
00000030: f40a cdf5 d70a e7c6 f518 ced3 4512 e8ea
00000040: bbe4 d9d2 09b3 3b3e efe4 d6c1 e5a4 1ed8
00000050: c6ac 0b1f 0a19 d3fd ecf5 0dfd f4e2 5313
00000060: 31d1 0e01 f106 eecf 070c 1f13 adf5 fcdf
00000070: 08de 30e3 f7aa f491 ecf5 2020 0435 d0c7
00000080: e6f4 d90b 1cef b5ca 9502 1dac e199 3b91
00000090: e6ea c0b9 facb 11ed c61c cdff f3e9 ecfd
000000a0: ddd9 f71a e4f4 f23a d51e ef31 bbf1 0bdb
000000b0: e308 062b 099e fd2d efe3 e71c 102f 23a8
000000c0: 2ddb 3aae 2e1f 1126 e11b c417 e6f4 4ff2
000000d0: 4b05 e8ec 280f f2e5 fae0 1d26 efba 1e11
000000e0: 00db fef8 7fb0 e0f9 19e9 21dc f313 0470
000000f0: 5c44 ce07 e015 19e4 4b34 ca49 1bd3 433f
-69 -25 -18 32 45 11 52 -19
-26 -43 -30 -11 6 -49 -26 -50
16 -8 -27 -20 -12 -31 -15 49
6 -89 -20 1 -43 -35 2 -26
-30 37 11 -20 39 -14 45 48
19 10 63 0 -31 20 -9 5
-12 10 -51 -11 -41 10 -25 -58
-11 24 -50 -45 69 18 -24 -22
-69 -28 -39 -46 9 -77 59 62
-17 -28 -42 -63 -27 -92 30 -40
-58 -84 11 31 10 25 -45 -3
-20 -11 13 -3 -12 -30 83 19
49 -47 14 1 -15 6 -18 -49
7 12 31 19 -83 -11 -4 -33
8 -34 48 -29 -9 -86 -12 -111
-20 -11 32 32 4 53 -48 -57
-26 -12 -39 11 28 -17 -75 -54
-107 2 29 -84 -31 -103 59 -111
-26 -22 -64 -71 -6 -53 17 -19
-58 28 -51 -1 -13 -23 -20 -3
-35 -39 -9 26 -28 -12 -14 58
-43 30 -17 49 -69 -15 11 -37
-29 8 6 43 9 -98 -3 45
-17 -29 -25 28 16 47 35 -88
45 -37 58 -82 46 31 17 38
-31 27 -60 23 -26 -12 79 -14
75 5 -24 -20 40 15 -14 -27
-6 -32 29 38 -17 -70 30 17
0 -37 -2 -8 127 -80 -32 -7
25 -23 33 -36 -13 19 4 112
92 68 -50 7 -32 21 25 -28
75 52 -54 73 27 -45 67 63

tfl.pseudo_qconst8 i1 [64] scale=0.004496182 zero_point=127
00000000: 34ff 1d15 5921 f010 4703 1d92 2580 10e2
00000010: 49f9 d512 cd07 be3b ecf1 c204 0ef4 a6fc
00000020: 9dbe c8f3 ef56 1526 2731 ee35 5112 df91
00000030: e50b f0fc e618 0a03 1a2b dafb 2533 b935
-0.33721364 -0.5755113 -0.44062582 -0.47659528 -0.17085491 -0.4226411 -0.642954 -0.4990762
-0.25178617 -0.5575265 -0.44062582 -1.0655951 -0.40465638 -1.1465263 -0.4990762 -0.70590055
-0.24279381 -0.60248834 -0.7643509 -0.4900838 -0.8003204 -0.53954184 -0.8677631 -0.30574036
-0.66093874 -0.63845783 -0.84977835 -0.5530304 -0.50806856 -0.6249693 -0.97567147 -0.5889998
-1.0161371 -0.8677631 -0.8228013 -0.62946546 -0.6474502 -0.18434346 -0.47659528 -0.4001602
-0.395664 -0.3507022 -0.65194637 -0.33271745 -0.20682436 -0.4900838 -0.7193891 -1.0700912
-0.692412 -0.5215571 -0.642954 -0.5889998 -0.6879158 -0.46310672 -0.52605325 -0.5575265
-0.45411438 -0.3776793 -0.74187 -0.593496 -0.40465638 -0.34170982 -0.890244 -0.33271745

tfl.pseudo_qconst9 i1 [64] scale=0.002944257 zero_point=-128
00000000: 3a0e 3309 4516 261b 5fb1 6ce2 0ee0 77c1
00000010: f70d ef2e f2db f80e 2926 d4fe 34f1 03f0
00000020: 0e18 0711 31ea ef29 f025 05fd 2a2e 38f8
00000030: 262a 0833 f114 d44d 3ef6 f80a 4f7f 1878
0.5476318 0.4180845 0.527022 0.40336323 0.58001864 0.44163856 0.48874667 0.45635986
0.65656936 0.1442686 0.69484466 0.2885372 0.4180845 0.28264868 0.7272315 0.19137672
0.3503666 0.41514024 0.32681254 0.5123007 0.33564532 0.2679274 0.35331085 0.4180845
0.49757946 0.48874667 0.2473176 0.3709764 0.5299663 0.33270106 0.3856977 0.3297568
0.4180845 0.44752708 0.3974747 0.42691728 0.5211335 0.31209126 0.32681254 0.49757946
0.3297568 0.4858024 0.39158618 0.36803213 0.5005237 0.5123007 0.5417433 0.35331085
0.48874667 0.5005237 0.40041897 0.527022 0.33270106 0.43575007 0.2473176 0.6035727
0.55940884 0.34742233 0.35331085 0.4063075 0.60946125 0.7507856 0.44752708 0.73017573

tfl.pseudo_qconst11 i1 [64, 3, 3, 32]
00000000: daad ba10 fc42 11b4 e1e6 09df 23f0 2303
00000010: 3eee 5711 09b6 ed37 ad1b eaf1 0be3 ce1a
00000020: 0af1 0318 f313 12bc 1bdc f1e2 e1e9 1918
00000030: 1ef8 01fa d8f5 f8ec edf2 16e8 e417 feda
00000040: f4d6 d1e0 c4e8 d3ed f80c fabf cc08 ec17
00000050: efc6 0cf4 d60d 16bb 10e2 01c2 db02 b4f6
00000060: fde9 2102 06e4 1bde 10a1 f502 13f2 26ce
00000070: 55bc ea11 20c9 33c0 d5e3 e257 25b9 c031
00000080: f3f2 2cd4 fce9 02d4 1ec2 fbed 9824 28bc
00000090: 0cbe fc39 faff 7ff5 eefb fc11 1dfb e908
000000a0: ee0e 1bc5 c2bc f50d 0dfc f7c5 ea1d e820
000000b0: e8bb 17f4 e216 4cf4 0be7 1308 0004 19f1
000000c0: 2d09 faeb d239 fbcf 2af4 f7ef edd5 13fe
000000d0: eac8 1cfb ec15 a5d3 2711 0ae4 091d 07e8
000000e0: 122a 25d2 0ece 0a01 20f2 e003 e3f9 15d7
000000f0: ebb4 e316 aa2a fb07 1304 f1e9 12fe eeef
-38 -83 -70 16 -4 66 17 -76
-31 -26 9 -33 35 -16 35 3
62 -18 87 17 9 -74 -19 55
-83 27 -22 -15 11 -29 -50 26
10 -15 3 24 -13 19 18 -68
27 -36 -15 -30 -31 -23 25 24
30 -8 1 -6 -40 -11 -8 -20
-19 -14 22 -24 -28 23 -2 -38
-12 -42 -47 -32 -60 -24 -45 -19
-8 12 -6 -65 -52 8 -20 23
-17 -58 12 -12 -42 13 22 -69
16 -30 1 -62 -37 2 -76 -10
-3 -23 33 2 6 -28 27 -34
16 -95 -11 2 19 -14 38 -50
85 -68 -22 17 32 -55 51 -64
-43 -29 -30 87 37 -71 -64 49
-13 -14 44 -44 -4 -23 2 -44
30 -62 -5 -19 -104 36 40 -68
12 -66 -4 57 -6 -1 127 -11
-18 -5 -4 17 29 -5 -23 8
-18 14 27 -59 -62 -68 -11 13
13 -4 -9 -59 -22 29 -24 32
-24 -69 23 -12 -30 22 76 -12
11 -25 19 8 0 4 25 -15
45 9 -6 -21 -46 57 -5 -49
42 -12 -9 -17 -19 -43 19 -2
-22 -56 28 -5 -20 21 -91 -45
39 17 10 -28 9 29 7 -24
18 42 37 -46 14 -50 10 1
32 -14 -32 3 -29 -7 21 -41
-21 -76 -29 22 -86 42 -5 7
19 4 -15 -23 18 -2 -18 -17

tfl.pseudo_qconst12 i1 [32] scale=0.004632185 zero_point=101
00000000: e921 f2e6 64c2 1a7f 8f1c c670 d8b2 ea80
00000010: defb 900d 9a0b d24b dbe2 e1ce abd1 c9e8
-0.57439095 -0.31498858 -0.5327013 -0.58828753 -0.004632185 -0.7550462 -0.3474139 0.12043682
-0.99128765 -0.33814952 -0.7365174 0.050954036 -0.6531381 -0.82916117 -0.5697588 -1.0607704
-0.625345 -0.49101162 -0.9866555 -0.4076323 -0.9403336 -0.41689667 -0.6809312 -0.12043682
-0.6392416 -0.6068163 -0.61144847 -0.69945997 -0.86158645 -0.6855634 -0.7226209 -0.5790231

tfl.pseudo_qconst13 i1 [32] scale=0.002596984 zero_point=-128
00000000: 2821 2456 eb13 04d2 4245 3f46 2122 0350
00000010: 5dfc 5c10 1d50 7f12 3546 4023 6040 3516
0.4362933 0.41811442 0.42590538 0.55575454 0.27787727 0.38175663 0.34280187 0.21295269
0.5038149 0.51160586 0.49602392 0.51420283 0.41811442 0.4207114 0.3402049 0.54017264
0.5739334 0.322026 0.57133645 0.37396568 0.40772647 0.54017264 0.6622309 0.37915966
0.4700541 0.51420283 0.49862093 0.42330837 0.5817244 0.49862093 0.4700541 0.3895476

tfl.pseudo_qconst15 i1 [32, 3, 3, 16]
00000000: 1ab3 04f4 f9ab 001e e5d4 d6f3 081c daef
00000010: 42c5 e01b 05bb f618 1cc8 b014 d500 e5f5
00000020: 280e 0123 d400 d3f2 eef5 db20 e302 b11f
00000030: c3fd 10f4 ee16 5836 0035 07df 22fe 0de8
00000040: 28db 24f9 28ef 1bca 46d3 ece7 fc35 0d0f
00000050: 7f23 c758 d0dc d502 f1d0 b32a d4e0 d10d
00000060: 984c 081b 0d1c 14f5 aa32 08fb e911 ff00
00000070: d2f9 35c5 2e09 e0f6 0717 19e4 f33e 1fe7
00000080: 4daa 2c14 09e0 e7fb 2cc6 b0cb de07 d7bb
00000090: 15ef e1eb 25f7 1cfc 05ea f405 0522 0dda
000000a0: 0eee 9be6 b7d3 f5bf e392 f129 fdf4 02f3
000000b0: c2e8 f235 dfff bdde e445 1715 d6ce ef0a
000000c0: 1de6 30ed 2c10 0836 ff0d 06fa 1023 25fe
000000d0: 24ee b1ee ddba 11db 1281 0903 f732 e709
000000e0: f1ef ed3e e9e8 d708 1003 eef3 16fa f80c
000000f0: f1fe 51e0 f9e7 fb2b de1c f7d4 06f1 f1ee
26 -77 4 -12 -7 -85 0 30
-27 -44 -42 -13 8 28 -38 -17
66 -59 -32 27 5 -69 -10 24
28 -56 -80 20 -43 0 -27 -11
40 14 1 35 -44 0 -45 -14
-18 -11 -37 32 -29 2 -79 31
-61 -3 16 -12 -18 22 88 54
0 53 7 -33 34 -2 13 -24
40 -37 36 -7 40 -17 27 -54
70 -45 -20 -25 -4 53 13 15
127 35 -57 88 -48 -36 -43 2
-15 -48 -77 42 -44 -32 -47 13
-104 76 8 27 13 28 20 -11
-86 50 8 -5 -23 17 -1 0
-46 -7 53 -59 46 9 -32 -10
7 23 25 -28 -13 62 31 -25
77 -86 44 20 9 -32 -25 -5
44 -58 -80 -53 -34 7 -41 -69
21 -17 -31 -21 37 -9 28 -4
5 -22 -12 5 5 34 13 -38
14 -18 -101 -26 -73 -45 -11 -65
-29 -110 -15 41 -3 -12 2 -13
-62 -24 -14 53 -33 -1 -67 -34
-28 69 23 21 -42 -50 -17 10
29 -26 48 -19 44 16 8 54
-1 13 6 -6 16 35 37 -2
36 -18 -79 -18 -35 -70 17 -37
18 -127 9 3 -9 50 -25 9
-15 -17 -19 62 -23 -24 -41 8
16 3 -18 -13 22 -6 -8 12
-15 -2 81 -32 -7 -25 -5 43
-34 28 -9 -44 6 -15 -15 -18

tfl.pseudo_qconst16 i1 [16] scale=0.014404404 zero_point=122
00000000: f747 5734 777f f9dc a106 655b 5f4a 6780
-1.886977 -0.7346246 -0.50415415 -1.0083083 -0.04321321 0.07202202 -1.8581681 -2.2758958
-3.1257555 -1.6709108 -0.30249247 -0.4465365 -0.3889189 -0.6914114 -0.27368367 -3.601101

tfl.pseudo_qconst17 i1 [16] scale=0.024078537 zero_point=-128
00000000: fabc bba4 a7a0 103c 7f01 dbb9 8da3 c470
2.9375815 1.4447122 1.4206337 0.8668273 0.93906295 0.7705132 3.4673092 4.526765
6.140027 3.1061313 2.1911469 1.3724766 0.31302097 0.84274876 1.6373405 5.7788486

tfl.pseudo_qconst19 i1 [16, 3, 3, 3]
00000000: ea02 f8d3 0556 c747 633c cfc7 05d1 eee5
00000010: 7f60 4ed3 85f8 afdb 02e3 17b1 94b3 81be
00000020: faec 0a91 d4fa 4236 7c36 2525 0d15 024e
00000030: 0a5d 54b8 e335 4d1b 52ac ddc5 f0c7 e922
00000040: 5409 c6f3 30f7 a79f 5a6a 7fd6 270b acf5
00000050: a6c8 fe2d e461 7fea 3c2c ed12 ccd6 223b
00000060: ff06 4bf8 bce4 0026 1df8 e6f5 5910 e3ed
00000070: 9ad2 49eb e620 f9fa d3a7 bfe1 1e30 7f23
00000080: 69bc b79f f91e ea12 cfd2 1404 d2f4 afef
00000090: 0c05 6524 0dd9 cd15 c75c 567f da10 e1ea
000000a0: 021f ad7f 7aeb 141e e60a 1bed 0df0 f7bd
000000b0: e124 e1c6 14c1 fc36 c9ee 55da e881 6231
000000c0: e712 363d ebe4 db5b 4406 05ce 24fd de10
000000d0: e9ef ffc4 f01e b5fa 1400 eee4 3ef1 a05d
000000e0: 244d e4d9 ebe5 f2b8 0a14 7fb8 e044 bbf1
000000f0: b017 58ee 2043 13fd 0549 a192 c53f 2931
-22 2 -8 -45 5 86 -57 71
99 60 -49 -57 5 -47 -18 -27
127 96 78 -45 -123 -8 -81 -37
2 -29 23 -79 -108 -77 -127 -66
-6 -20 10 -111 -44 -6 66 54
124 54 37 37 13 21 2 78
10 93 84 -72 -29 53 77 27
82 -84 -35 -59 -16 -57 -23 34
84 9 -58 -13 48 -9 -89 -97
90 106 127 -42 39 11 -84 -11
-90 -56 -2 45 -28 97 127 -22
60 44 -19 18 -52 -42 34 59
-1 6 75 -8 -68 -28 0 38
29 -8 -26 -11 89 16 -29 -19
-102 -46 73 -21 -26 32 -7 -6
-45 -89 -65 -31 30 48 127 35
105 -68 -73 -97 -7 30 -22 18
-49 -46 20 4 -46 -12 -81 -17
12 5 101 36 13 -39 -51 21
-57 92 86 127 -38 16 -31 -22
2 31 -83 127 122 -21 20 30
-26 10 27 -19 13 -16 -9 -67
-31 36 -31 -58 20 -63 -4 54
-55 -18 85 -38 -24 -127 98 49
-25 18 54 61 -21 -28 -37 91
68 6 5 -50 36 -3 -34 16
-23 -17 -1 -60 -16 30 -75 -6
20 0 -18 -28 62 -15 -96 93
36 77 -28 -39 -21 -27 -14 -72
10 20 127 -72 -32 68 -69 -15
-80 23 88 -18 32 67 19 -3
5 73 -95 -110 -59 63 41 49
