models/ana-cont/_archive/ana-cont_1800_s0.tflite (tflite, 694256 bytes, 22 tensors)

arith.constant f4 [128]
00000000: 0fb1 a1be 184f 80be baf4 a9be fc99 a7be
00000010: 542f 4bbe ed5e acbe 1caa 70be 74b9 89be
00000020: 2d80 ccbe 763c e9be facd 0c3c 017d b4be
00000030: 15df adbd 45bb 83be cdca 9dbe 269d b3be
00000040: 1dec ccbe 1a55 cdbe 0f15 44be 3139 bcbe
00000050: 96ca f5be 4034 aebe 1d60 8cbe 8ba3 a0be
00000060: 33d2 aabe 600f a4bd 93fe d4be 9d63 a1be
00000070: e433 fdbd 7907 9dbe b14a 17bf afe4 52be
00000080: 7633 dcbe 5880 18be 471c 90be 6afd 84be
00000090: 7001 9cbe 63ad abbe 5c4d a83d 3ec9 4ebe
000000a0: cbe1 9ebe c70f 02be 2f74 8fbd 8e2a a5be
000000b0: 7913 19be be38 f6bd 5e86 d9be d6a6 1ebe
000000c0: 91e7 8abe 79ce a2be 257c 32be d483 82be
000000d0: b8ac d3be 9048 1dbf 2e16 96bd 2155 9bbd
000000e0: 41d3 96be 3bb1 b9be 7f29 76be 0421 88be
000000f0: fe9a c5be ec33 a9be 14e7 34be 269a bdbe
00000100: f216 41be 12d2 e5be 816f 23be 9b9e c5be
00000110: 14ae b6be a6be 68be 336e debe f35d 96be
00000120: 9e36 b2be 782b a4bd 5867 7cbe 74e3 b1be
00000130: 9399 c3be 0007 85be e93d e5be 850c 84bc
00000140: 0f1f babe 9c3a 853c d7ec 9dbe 4128 59be
00000150: 22a0 a5be e9b4 1fbe 94c6 f3be f751 3bbe
00000160: 61f6 b5be e6f8 9ebe 4bea 6bbe 3067 49be
00000170: 4bd4 ddbc c553 93be 3dd6 61be a0db 95bb
00000180: d96f 90be dac6 c6be 7b78 8dbe 0ee3 91be
00000190: d3fc 2abe 1d35 9a3d 3dc3 d5be 0c4e 47be
000001a0: dfcd 61be cf2f ddbe c8dc c5bd 90f4 e4be
000001b0: 3692 91be 3dc8 87be bdb4 c0bd 8376 b3bd
000001c0: ebaa 4dbe 9a8a 9abe 9392 4c3e a1ff 8dbe
000001d0: 3d4c fbbe b7a2 48be aeea cc3c 5e1f aabe
000001e0: 6a5c 9dbe cb85 35be a9b4 9ebe 3e35 c2bd
000001f0: a592 32be 6fcc a8be 7cc7 9cbe c27e 20be
-0.31580397 -0.25060344 -0.33194524 -0.32734668 -0.19842273 -0.33666173 -0.23502392 -0.26899302
-0.3994154 -0.4555394 0.0085940305 -0.3525162 -0.08489815 -0.25728813 -0.30818787 -0.35080832
-0.4002389 -0.4010399 -0.19148658 -0.36762384 -0.48006123 -0.3402424 -0.2741708 -0.31374773
-0.33363494 -0.08010745 -0.41600475 -0.3152131 -0.12363413 -0.30669764 -0.59098345 -0.20595048
-0.43008012 -0.1489271 -0.28146574 -0.2597459 -0.30469847 -0.3353072 0.0821788 -0.20193955
-0.3103164 -0.12701331 -0.07004582 -0.3225903 -0.14948834 -0.120225415 -0.42485327 -0.1549333
-0.27129796 -0.3179815 -0.1743017 -0.25491202 -0.4134271 -0.61438847 -0.07328449 -0.075845964
-0.2945805 -0.3626803 -0.24039267 -0.2658769 -0.38594812 -0.33047426 -0.17666274 -0.37031668
-0.18856409 -0.44886833 -0.15960504 -0.3859757 -0.35679686 -0.22728977 -0.4344345 -0.29368553
-0.34807295 -0.080161035 -0.24648798 -0.34743845 -0.38203105 -0.25981903 -0.44773796 -0.016119251
-0.3635182 0.016263299 -0.30844757 -0.21206762 -0.32348734 -0.15596355 -0.4761244 -0.18292986
-0.35539535 -0.3104927 -0.23038594 -0.19668269 -0.027078768 -0.2877485 -0.22054382 -0.0045733005
-0.28210333 -0.38823587 -0.27630982 -0.2849354 -0.16698007 0.07529662 -0.41750517 -0.19463366
-0.2205119 -0.43200538 -0.09661251 -0.44717836 -0.28431863 -0.26519957 -0.09409473 -0.08762839
-0.20084731 -0.3018387 0.19977789 -0.27734092 -0.49081603 -0.19593321 0.025014248 -0.33227056
-0.3073457 -0.17726819 -0.30997208 -0.094828114 -0.17438753 -0.3296847 -0.30620944 -0.15673354

arith.constant1 f4 [64]
00000000: dd31 d1be a4f3 f33d f5b6 9fbd 3541 a2be
00000010: ce89 c3be 323f 0abe 07e9 b5be b31b 24be
00000020: c54b 38be 8894 8dbe 847f 38be 1474 69be
00000030: 0bbb 5abe 93f5 16bd f371 723d 6723 5fbe
00000040: c88e 0dbe 3458 11be ed2a debe 3f78 c3be
00000050: ce38 b8be 6fa7 6abe 95eb 51be f101 6abe
00000060: a97d 27be aa8a 77be 19e8 b1be 8aa5 81bd
00000070: 31cd 68be 24f4 a2be aab8 22be d1d6 c7bd
00000080: eb19 91be ec17 a5be 2e0c 89be c2bc 9bbe
00000090: 4f34 a5be 4a12 05be 8a72 80be 598e d0be
000000a0: 475d 7cbe ecf5 96be 6ac3 29be 1412 5abe
000000b0: 972d afbe 7411 b1bd 9ed5 08be 8bd8 a2bc
000000c0: 5680 bdbd aa8b 62be 7b83 c2be db9c 8dbe
000000d0: f9ed bfbe 3aec cebe ddb3 7cbe 922c 86bc
000000e0: 7312 e2be 813a acbe c24c 3ebe eca5 61be
000000f0: cbbd 8fbe fb35 80be b4fb 8bbe 3cf4 86bd
-0.40858355 0.11911705 -0.07798568 -0.31690374 -0.38191074 -0.1350067 -0.35529348 -0.16026191
-0.17997654 -0.27652383 -0.18017393 -0.22798187 -0.21360414 -0.03685529 0.0591907 -0.21790849
-0.13823998 -0.14193803 -0.43392125 -0.38177678 -0.3598084 -0.22915433 -0.20500024 -0.22852303
-0.1635653 -0.2417399 -0.3474739 -0.06330402 -0.22734524 -0.3182689 -0.15890756 -0.0975777
-0.28340086 -0.32244813 -0.26767105 -0.30417448 -0.3226647 -0.12995258 -0.25087386 -0.40733603
-0.24644957 -0.29484499 -0.16578451 -0.21295959 -0.3421447 -0.08645907 -0.13362738 -0.019878646
-0.09252994 -0.2212359 -0.37990937 -0.27658734 -0.37486246 -0.40414602 -0.24677987 -0.016378675
-0.441547 -0.33638385 -0.18583968 -0.2203595 -0.28074488 -0.25041184 -0.27340472 -0.06589553

arith.constant2 f4 [32]
00000000: bb75 91be 2c4b 60bd c9c2 1b3e a461 a3bb
00000010: bb52 a8bc b91b afbe c0c6 e8be a5ba 57be
00000020: e33f 8dbe 653a 90be bf4d 79be 60f0 88be
00000030: 0b95 e03d 56bb 63be c937 dc3d 142e a3bd
00000040: 415c e6bd 187e 163d adc5 debe a32e 43be
00000050: 6629 3f3e 36e4 843d 5574 f3bd c1ca e0ba
00000060: d886 2cbe b3eb 583d 921d 2b3e 9ead a0bd
00000070: 5492 af3d c982 95be 1936 b43c 161e f13e
-0.28410134 -0.05475919 0.15211023 -0.004986005 -0.020547261 -0.34200838 -0.45464134 -0.21067293
-0.27587804 -0.28169551 -0.24346064 -0.26745892 0.10965928 -0.22239432 0.10752828 -0.07967773
-0.11248065 0.036741346 -0.4351019 -0.19060759 0.18668136 0.0648884 -0.11887423 -0.0017150269
-0.16848314 0.052959155 0.16710499 -0.07845615 0.08572832 -0.29201344 0.021998452 0.47093266

arith.constant3 f4 [16]
00000000: 0c8d 753e d55d c13e 5458 c83e 872a 153f
00000010: 77bb c3bd 64c0 d63d 7c15 843e ff40 083e
00000020: b7e6 ffbd d1d7 e83e 63da 5dbe e5f8 de3e
00000030: 0498 48be d8e0 10be 16cc 373d 40f7 26be
0.23979586 0.377669 0.3912989 0.58268017 -0.095572405 0.10485914 0.2579764 0.13306044
-0.12495177 0.45477155 -0.21665339 0.43549266 -0.1958924 -0.14148271 0.044872366 -0.16305256

arith.constant4 f4 [128, 512]
00000000: 15e8 0e3a fdd8 5b3b 5966 27ba 0619 bf3a
00000010: 10e0 87bb 2eb3 6d2e 3943 063c ad8e 2c3c
00000020: f1aa 8d3a 71a2 0b3b 50cb d4bb 87b0 0abc
00000030: e9cc 6cbb f2a1 6a39 4aac d339 5ea7 e039
00000040: 60b4 7a3a b370 963b a2e9 d7bb cfe2 4b3b
00000050: 2a6a bdba 17f7 3538 10f0 e337 8ea5 71bb
00000060: 0d5c 4fba 82a0 b8bb d936 68ba 9bbd 3bbb
00000070: 79f8 dfba d401 203b e4d8 70bb 7fad fd38
00000080: 0d43 71ba 3d2c c639 ecd7 8939 f8e6 79ba
00000090: 5e44 1bbc f5ed 6dbb d361 91bb 2862 d639
000000a0: b6ed 35bc c909 04ba 6c7a 44bb 241c 7fbb
000000b0: 0992 1ebb 8504 8cbb 531c 88bc c466 123c
000000c0: 9526 3e3a 9336 0dbb 4be5 daba b158 df39
000000d0: 88fe 4ebb 27fc 7ebb bc74 9fb8 9b55 80ba
000000e0: 5a92 48ba f3c9 a7bb e5ec 31bb acd3 003c
000000f0: 3e6c b5ba 22d9 243a 5f21 0b3b dbd6 7a3a
00000100: e9bb 6bbb 429e 513a 23bb 86bb 8958 a73a
00000110: 8d73 34bc 6c4c b9ba 5326 a6ba e495 2abb
00000120: 9be9 58ba 515c cfbb c20b d73b 6d54 10b9
00000130: 7c9e 9c3a 3afe 33bb 360d e43a 8c47 c6bb
00000140: 2575 f3bb d223 553b 0ac1 0a3b 8da9 9639
00000150: da31 0bb9 2440 3d38 e195 b8ba c9ff 903c
00000160: d9ea 06bb 1c19 ac3b a514 31ba 6be0 e7ba
00000170: 4beb 27bc 4e52 78bb f2c1 75bb bac9 173b
00000180: 1709 b1bb 49ce abbb 788c be3a 06e6 1f3c
00000190: e274 873b 673b 0c3b e0dc 20bb 9381 9bbb
000001a0: 0572 b3bc 83d5 47ba 5db2 53bb 91a9 82bb
000001b0: 8f50 5d3a 3c6e 42ba de56 653b 2535 093c
000001c0: 8c0a 8abb 07b6 ae3a 0fed 213c 5f86 9e3b
000001d0: 9bdd 09bb 6097 90ba d007 113c af68 823a
000001e0: 10af a0bb d7ac 4b3b 174d a7bb b23e f4bb
000001f0: 6f10 0dbc e74f a8bb 65e8 9fba 9e72 153b
00000200: d4a5 313b 48f6 523b ff3d e23b 6a8a 5fba
00000210: b084 863b 04f2 ecbb 0237 e03b 664b 083b
00000220: 688d 91ba 0455 423a b439 52b8 38b5 0ebc
00000230: 312e 84bb 7586 67bc f789 9fbb 42ed faba
00000240: a829 b7b9 54d1 293c 1e63 633a f237 da3a
00000250: 9dbc 37bb f103 013a f479 f3bb 422f f7ba
00000260: e62e e839 6f38 5cbb b893 00bc 9a38 503b
00000270: 0825 303c 9bce ebba 33fd 123b 36db 493b
00000280: b9e6 023a 18bb 8fbb f0cc a23b 2c35 113c
00000290: e1f1 6bba 4375 c1ba 90cd cc3a fa4e b03b
000002a0: bc71 0d3a 76db 97ba 2225 f5ba 0190 363b
000002b0: 6cdb a9ba 81e1 423b e977 b23c a916 2f3c
000002c0: 669f 073c 4f97 9939 4fdb 97b9 fa0d a9ba
000002d0: df20 803b 43dc 0a3c f5ca e8ba e7c1 a7b6
000002e0: 04d7 233c c18c 943b 0b15 fc3a c0bd e7bb
000002f0: 654e 4bba 0bd4 11bc 4f12 453a dd2e 69bb
00000300: 468b ea3b d1e1 46ba 36f0 37b9 4785 dc3b
00000310: d44a 5939 b8d0 96bb 8d32 eb3a 1cfb 073b
00000320: ccac 23bc 4f4e 1ebc afad abbb 5578 7bbb
00000330: b52a 88ba 8164 6039 7130 743b 037f a23a
00000340: 8176 b8bb 9b6c edbb e3b6 943b a791 ef3a
00000350: a4f3 b4b3 5ea8 f03b 5ac7 c43b f31d 1cbc
00000360: 695a 163a 9869 5a3b 0e98 f93a 1693 9fb9
00000370: 1e18 66ba 4492 693b 0289 803a 7198 81bb
00000380: 6226 3abb 4023 463b d21e 25b6 c822 793a
00000390: e8ee 0f3c 6024 5d3a adb9 c63a 0739 06bb
000003a0: e708 943a b921 023d e59c c638 d124 16ba
000003b0: 4818 9838 29f0 8cb8 03bb d13b 6749 943a
000003c0: fa48 71bc a956 e939 1ef1 b0bb c723 2b3c
000003d0: dcbf d13a fcc2 503b b6f1 cd39 5ae6 fe39
000003e0: 447e a4bb 69b0 ed3a 193a 37bc 0f82 f139
000003f0: f41b d3ba e7ce fc39 39c4 8f3b d988 03ba
0.0005451453 0.0033546083 -0.00063857954 0.0014579601 -0.0041465834 5.4046705e-11 0.008194738 0.010532063
0.0010808391 0.002130654 -0.0064939633 -0.008464939 -0.0036132878 0.00022376308 0.00040373422 0.00042849308
0.0009563621 0.0045910715 -0.0065891305 0.003111053 -0.0014451195 4.3383883e-05 2.7172297e-05 -0.003687236
-0.000791014 -0.0056343684 -0.00088582706 -0.002864695 -0.00170876 0.0024415152 -0.003675037 0.00012096296
-0.0009203412 0.00037798463 0.0002629155 -0.0009533013 -0.009476749 -0.0036305164 -0.0044367104 0.00040890393
-0.011104038 -0.00050368585 -0.0029980196 -0.0038926685 -0.002419593 -0.0042729997 -0.016615069 0.008935634
0.0007253674 -0.0021547421 -0.0016700415 0.00042599955 -0.0031584818 -0.0038907619 -7.603454e-05 -0.0009791137
-0.00076512026 -0.00512051 -0.0027149257 0.0078629665 -0.0013841463 0.0006288459 0.0021229608 0.0009568759
-0.0035970157 0.00079962995 -0.004111664 0.0012767474 -0.011013878 -0.0014137155 -0.0012676216 -0.0026029283
-0.0008274556 -0.0063281436 0.006562681 -0.00013764361 0.0011949087 -0.0027464763 0.0017398957 -0.0060510095
-0.007429736 0.0032522571 0.002117219 0.00028736555 -0.00013274644 4.5120847e-05 -0.0014082753 0.017700093
-0.0020586757 0.0052520167 -0.00067550904 -0.0017690783 -0.010248969 -0.0037890854 -0.0037499634 0.002316101
-0.005402695 -0.005243097 0.0014537713 0.009759432 0.0041338066 0.0021397711 -0.0024545714 -0.004745671
-0.021904955 -0.0007623063 -0.0032302358 -0.003987499 0.0008442485 -0.0007416939 0.0034994404 0.008374487
-0.004212683 0.0013329395 0.009883179 0.0048377956 -0.0021036628 -0.0011031441 0.00885196 0.0009949411
-0.0049036816 0.0031078362 -0.0051056254 -0.007453763 -0.008609875 -0.005136478 -0.0012199996 0.0022803913
0.0027106898 0.0032190252 0.006904363 -0.00085274 0.004105173 -0.007230999 0.006842495 0.0020796894
-0.0011104764 0.0007413181 -5.0121642e-05 -0.008710198 -0.0040338268 -0.014131178 -0.0048687416 -0.0019144195
-0.00034935516 0.010364849 0.00086741324 0.0016648753 -0.0028036006 0.0004921547 -0.0074303094 -0.0018858688
0.0004428543 -0.0033602973 -0.007847719 0.0031772018 0.010751016 -0.001799065 0.002242875 0.0030800826
0.0004993487 -0.004386317 0.004968278 0.008862775 -0.00090005813 -0.0014759678 0.0015625227 0.0053805085
0.0005395671 -0.001158579 -0.0018703083 0.002785683 -0.001295907 0.0029736462 0.021785693 0.010686555
0.00827775 0.00029295168 -0.00028964362 -0.0012897842 0.0039101685 0.008475366 -0.0017760681 -4.999561e-06
0.009999994 0.0045333807 0.0019232346 -0.0070721805 -0.0007755517 -0.008900653 0.0007517682 -0.0035580911
0.007157716 -0.000758675 -0.00017541726 0.006729755 0.00020722608 -0.004602518 0.0017944142 0.0020749038
-0.009989928 -0.009662225 -0.0052392106 -0.0038371284 -0.0010388704 0.00021399745 0.0037260319 0.0012397472
-0.005629361 -0.007245613 0.0045384034 0.0018277661 -8.426221e-08 0.0073442897 0.00600521 -0.009528625
0.0005735518 0.00333271 0.0019042508 -0.0003043643 -0.00087773975 0.003564016 0.0009806457 -0.00395494
-0.0028404226 0.0030233413 -2.4604856e-06 0.0009503779 0.008784987 0.0008435901 0.0015161537 -0.0020480768
0.0011294157 0.03177044 9.4705996e-05 -0.0005727532 7.2524475e-05 -6.7204535e-05 0.0064004674 0.001131338
-0.014726872 0.0004450579 -0.005399837 0.010445542 0.0016002613 0.00318545 0.00039280736 0.0004861828
-0.005019935 0.0018134239 -0.011183285 0.00046064003 -0.0016106353 0.0004821934 0.0043874052 -0.00050176453

arith.constant5 f4 [128]
00000000: 660b c13e a730 98bd 8523 0cbe 240b b0bd
00000010: 2aed 123f 0b86 c6be 1fa7 1dbd 89e7 153f
00000020: 5dee 563e 242e 703f c546 1ebe 47e2 25be
00000030: f07e 65be 4b5a 853e 76ad a53e 8fb3 5c3f
00000040: 1e04 51bd 654f 063f 155d 2a3d 4975 e8be
00000050: ee52 0b3f e0f5 3a3e 7ff2 a23e 6c91 803e
00000060: c3a1 eabd 9acd 243f b769 a0bc 9c4c 6f3f
00000070: 8bdc 923e 901a 8f3e a7b0 83bd a2ad c33e
00000080: 2419 0a3e 60a0 84be 039f 113e 3c63 563e
00000090: 5cb0 c63e 76ca 83be ab2d 6c3f 9de6 ff3e
000000a0: b968 153f 4d9c 80be 05d5 113e 51cc 573e
000000b0: 9857 003e c721 343e d5cb e33d fdcc 003e
000000c0: 2e32 ff3d 55ab b83e 9872 bb3e a4cd 8dbe
000000d0: d99e 333f 9e91 6a3e e583 aabe 843e 42be
000000e0: ce40 543f c18a bfbd 8d77 373e 0327 2a3e
000000f0: 1329 8d3e fadf 1d3f 9d6e 503f f531 f6be
00000100: db88 c03e 63cc 3abe 2a56 af3e b223 fe3e
00000110: a897 c0bd 3299 2d3f f445 bbbc 6207 c8be
00000120: f238 083f aae8 d03e a720 323f 2dff 133e
00000130: cbea aa3d 83fd 073f d72c acbe fe98 f73e
00000140: 3fa9 1ebe 73ae 043f c26f 033f 5165 72bd
00000150: 8269 07be 1659 debc 8a26 a63e 4fcd 0bbe
00000160: 4c5f 1ebd 0e1b cd3e 3aca de3e 50a8 a9bd
00000170: c440 b23d 64db 5a3f 174c 543e 315f 3f3e
00000180: c312 363e f76c 333f e93e 763d 83db 5b3e
00000190: bf44 d03e cfe5 e63d fdb4 7d3d 953a 083f
000001a0: 0ef6 16bd 066f c73e 4863 243e f163 a53e
000001b0: 3a1a ecbe b6be 0c3f 3389 be3e eace b0be
000001c0: 7fa9 88be ea47 0e3e 793c 023f 4955 5b3d
000001d0: cad5 c13d 9756 0d3d a365 27bf 363c 713e
000001e0: 3b63 9dbe dcff 0bbf ebed 313f 92c6 74be
000001f0: cbdc 763e f93a 2d3f 9a74 cbbe b4ae 0c3f
0.3770401 -0.07431155 -0.13685425 -0.08595875 0.57393134 -0.38774142 -0.038489457 0.5855642
0.20989366 0.93820405 -0.15456684 -0.16199599 -0.22411704 0.2604545 0.32358903 0.86211485
-0.051029317 0.52464896 0.041592676 -0.4540198 0.54423416 0.18257856 0.31825635 0.25110948
-0.11456635 0.64376223 -0.019581659 0.9347627 0.28683886 0.27949953 -0.06430178 0.3821841
0.13486153 -0.25903606 0.14220814 0.20936292 0.38806427 -0.25740403 0.92257184 0.4998063
0.5836292 -0.25119248 0.14241417 0.21074034 0.12533414 0.1759101 0.11122862 0.12578197
0.12460743 0.36068216 0.36610866 -0.27695954 0.7016426 0.22907111 -0.33303753 -0.1896916
0.82911384 -0.09352637 0.17916699 0.16616444 0.275704 0.61669886 0.8141878 -0.4808499
0.37604412 -0.1824203 0.34245425 0.49636608 -0.09403926 0.6781188 -0.022860505 -0.39068133
0.5321189 0.4080251 0.69581074 0.1445281 0.083455645 0.53121203 -0.3362796 0.4835891
-0.1549425 0.5182869 0.51342404 -0.059178654 -0.13223842 -0.027142089 0.32451278 -0.13652538
-0.0386651 0.40059704 0.43513662 -0.08284056 0.08703759 0.85491014 0.20732151 0.18688656
0.17780595 0.7008814 0.06011859 0.21470456 0.4067745 0.11274301 0.061940182 0.5321439
-0.03685575 0.38951892 0.16053498 0.32302812 -0.4611376 0.549785 0.3721405 -0.34532863
-0.26691815 0.1389462 0.50873524 0.05354813 0.09464605 0.034506407 -0.6538946 0.23558125
-0.3073977 -0.54687285 0.6950366 -0.23903874 0.24107663 0.6766811 -0.39737397 0.54954076

arith.constant6 f4 [128, 3, 3, 64]
00000000: ca0c 193b 0b81 7cbd caad 563e 19ed 713d
00000010: 7ff5 363d 6b87 1b3d c325 8b3d f6b8 a7bd
00000020: ed56 abbd ff57 53be c712 89bd 1609 8c3d
00000030: 7543 af3a 797f 693e 07bd 5f3d 941a a5bd
00000040: f726 f5bd 204a 22be ede7 403e dc64 36bd
00000050: ee11 153e cb45 893e f728 86bc fc16 ea3c
00000060: edfb 03bd 449c 923d 8c63 32be f5de 123e
00000070: 170a 9f3d eb99 f93d c723 90be 19ca 2abe
00000080: d7ff 52be 3c86 893d 0dc9 c53d 5d49 1a3e
00000090: 1ba8 febd 5cf1 0bbc 2e77 b9bd 3ffb 5f3d
000000a0: 7366 83bd e750 45be 1ddd 233e 0a4e a93d
000000b0: f40a c5bd 888c 203c bb0d 32be a801 b4bc
000000c0: 975a 3e3e 669a 0b3e d42c 9c3b 84a4 9e3d
000000d0: e763 2a3e dcd5 dc3d 0d73 05bd 3e09 0fbd
000000e0: 618b 2f3d ec11 8d3d fee7 b2ba f522 97be
000000f0: e6fe ec3c 72b9 da3d 7888 08be b5bc 453e
00000100: 7b7c 18be 6ca5 363e f44b bfbc 8202 af3d
00000110: cfa5 5fbd d120 7e3c e393 4ebe 3394 8bbd
00000120: 99d2 57bd 9a4d d93d b11f 04be 2bcd 3dbe
00000130: 9182 b73c bff7 2e3e 81c0 b1be 5ff1 373e
00000140: baf3 9d3c 05df af3c 2010 a0bd fe07 34bd
00000150: 7428 3c3e f25c 04bd 7147 19be 8bf4 78bd
00000160: 8b8d 17bd d33b dbbd a70d 9cbd 5aef 64bc
00000170: 749c c9bd 63ee 5fbd 9df0 f2bc 4b29 c83d
00000180: 80a9 2ebe 531a bc3d d02c 49bd e0ff 8d3c
00000190: 00db ce3d 3257 b53c 210b dbbc 2bb0 2fbe
000001a0: 8829 4ebb be60 e1bd 5ffe 243e e006 143e
000001b0: 0253 043c fc96 7f3e 377e a33d 9bdf 0c3d
000001c0: c6b2 c93b 48fb 5d3d 831a d53c fc46 a1bd
000001d0: 34dd bdbd 9651 803e 8ce7 80be ab09 fa3d
000001e0: d89d 5d3d 38f0 073e 7c0e 77be 921b 373d
000001f0: d685 3fbe 2f62 c4bc fa01 3f3b d8df 99bd
00000200: 8835 703c d549 f93d 416b fb3d d59b a53d
00000210: 8621 4dbe c171 523e 9bac 5cbd b91c bd3e
00000220: 3e61 a33d 29f9 5b3d c0e6 483e d102 40be
00000230: 9258 3c3e 20c1 753d 41ed f6bc 1b95 18be
00000240: 0071 393e 7e8b fe3d 245f 12be cd14 2a3d
00000250: d1e8 b43d ea62 52be 3694 593e ecde 4e3e
00000260: 8b13 15ba 1ad8 d73d 082e d2bc 54de 76bc
00000270: 0198 bfbd 7a2b 4a3c 5fa3 2a3e 54d0 c43c
00000280: 7bc2 6e3e 8ee3 e33d 352f b33c 0865 74bd
00000290: 12b2 893d 74da 1f3e 008e a1bb 5056 983d
000002a0: 102d 843d 771c 983d 8a43 18be 9828 23bd
000002b0: 0dba 39be 72f1 0d3e d2c6 ccbc 254c 03be
000002c0: fa17 02be be05 f9bd edd6 36be ff86 d3bc
000002d0: 36d6 3cbe ac08 823d a332 243e 3326 a23c
000002e0: cd66 273e 64e5 00be cd57 203e 6c3e 0ebe
000002f0: d116 b7bc a8db b43d 8ba5 8fbd f9ba b03e
00000300: 74c5 8cbe fe7e 79bb 1dc7 59bd 1b03 25be
00000310: a1d6 04bd d9b4 35bd 4495 5b3c c5a5 723d
00000320: 13d3 823d f98b 853e 253e 1cbe 4ee4 093c
00000330: c5a4 8a3d 17ee fcbd bc5c 45be 0d68 36bc
00000340: c69a 6bbd ab1d dbbd c66d 2bbe 543c ca3d
00000350: 5ba4 913d 08be 3bbe ed16 b73c a043 a2bd
00000360: 6787 0d3d b0ce bfbc af35 20bd ef23 a63d
00000370: 305c 50be 2aa6 55bd b3a3 febd f868 82bc
00000380: ccdf 363e cb50 53bd cbe1 12be 6d89 753e
00000390: a746 e4bc 0dd8 d9bc 6dee 9abc 9c91 2fbd
000003a0: cdd8 243e e34b e53d 492e 18be f512 ddbd
000003b0: 8dc6 843e 4204 303e 5353 243d da1a 243c
000003c0: beea df3b ed7b 09be 6159 b53c e948 c9bd
000003d0: ca1e 5dbe b1b8 c3bd e261 3c3c a79c 34be
000003e0: 4ca2 bf3d c14d 81bd 66a5 65bd 0b57 9b3d
000003f0: 1476 9dbd 044f 08be ca45 2fbe f8f9 3e3d
0.002335357 -0.061646502 0.20964733 0.059064005 0.044667717 0.03797094 0.06794312 -0.081895754
-0.08366189 -0.20639037 -0.066930346 0.068376705 0.0013371544 0.22802533 0.05462363 -0.0806171
-0.119703226 -0.15848589 0.18838473 -0.04452978 0.14557621 0.2681106 -0.016376955 0.028575413
-0.032222677 0.071587116 -0.17420787 0.14342864 0.07765596 0.12187561 -0.28152296 -0.16678657
-0.20605408 0.06715056 0.09657488 0.15067048 -0.12434407 -0.008541431 -0.09055935 0.054682966
-0.06416025 -0.19269143 0.16002317 0.08266838 -0.0962123 0.00979913 -0.1738805 -0.021973446
0.18589245 0.13633117 0.004766086 0.077462226 0.16639672 0.10782978 -0.032580424 -0.034920923
0.04285753 0.06888184 -0.0013649461 -0.29518858 0.028930139 0.10679902 -0.13333309 0.19310267
-0.14891236 0.17836541 -0.023351647 0.085454 -0.054601487 0.015510754 -0.20173602 -0.06815376
-0.052691076 0.106105044 -0.12902714 -0.18535297 0.022401126 0.17086695 -0.3471718 0.1796317
0.019281257 0.021468649 -0.078155756 -0.043952934 0.18374807 -0.032315202 -0.14968659 -0.06078009
-0.03700022 -0.1070477 -0.076197915 -0.0139730815 -0.09844294 -0.054670703 -0.029655749 0.09773501
-0.17056847 0.091847084 -0.049115002 0.017333925 0.10100365 0.022136305 -0.026738705 -0.17157046
-0.003145786 -0.1100478 0.1611266 0.14455748 0.008076431 0.2495994 0.07983058 0.034392934
0.0061553447 0.05419472 0.026013618 -0.07874867 -0.09270707 0.25062245 -0.25176656 0.12208875
0.05410561 0.1327523 -0.24126619 0.044704027 -0.18703398 -0.023972599 0.0029145465 -0.07513398
0.0146612 0.121722855 0.122763164 0.08086363 -0.2003232 0.20551206 -0.053875547 0.36935976
0.07977532 0.053704415 0.19619274 -0.18751074 0.18393162 0.05999863 -0.030142428 -0.14900629
0.18109512 0.1242895 -0.14294106 0.041523743 0.08833469 -0.20545545 0.21247944 0.20202225
-0.0005686811 0.10539265 -0.025656715 -0.015067656 -0.09355164 0.012339467 0.16663884 0.02402512
0.23316376 0.11127387 0.021873096 -0.059666663 0.06723417 0.15610677 -0.004930258 0.07438338
0.064539075 0.07427304 -0.14869514 -0.039833635 -0.18137379 0.13861635 -0.024997149 -0.12822016
-0.12704459 -0.12159298 -0.17855425 -0.025821207 -0.1844109 0.0634931 0.16034941 0.019793605
0.16347809 -0.12587506 0.15658493 -0.13891 -0.022349747 0.088309586 -0.07013997 0.3451765
-0.27494395 -0.0038070078 -0.053168405 -0.16114466 -0.03243125 -0.044361923 0.013402287 0.05924012
0.063879155 0.26083353 -0.15258081 0.0084162485 0.067697085 -0.123500995 -0.19273657 -0.011133206
-0.05752065 -0.10699018 -0.16741094 0.09874788 0.071114264 -0.1833421 0.022349799 -0.07923055
0.034552958 -0.023413986 -0.039113697 0.081123225 -0.20347667 -0.05216042 -0.12433567 -0.015919194
0.17858809 -0.051590722 -0.14343946 0.23978205 -0.02786572 -0.026592279 -0.018912518 -0.042863473
0.16098328 0.11196115 -0.14861406 -0.107946314 0.25932732 0.17189124 0.040118527 0.010016168
0.0068334034 -0.1342618 0.022137346 -0.0982836 -0.21593776 -0.095567115 0.011497946 -0.17637883
0.093571275 -0.063136585 -0.05606594 0.075849615 -0.07688537 -0.13311392 -0.17116466 0.046625108

arith.constant7 f4 [64, 3, 3, 32]
00000000: 9795 8cbd 6947 b63d 4b69 1fbe b0f9 ad3d
00000010: 0c4a 4d3d 9e16 1ebe 6438 56be 37b0 86bc
00000020: ca8b 7a3e 702c c9bd 7b06 70bd 2ac5 87be
00000030: 60c4 113e aae1 98bd aeae f2bd e9fa 88be
00000040: a0b5 413e 8687 9ebc 36ff 933e e333 08be
00000050: fb70 f7bd 4838 cdbc e90e 793c f393 ce3d
00000060: 37f7 4bbe dd6b 33bd 6b06 093d 2179 14be
00000070: a5a5 f93c 2f27 85bd 806d 27be 9c26 4fbe
00000080: 718d 72bd b512 703d 45be 64bd 4646 9d3a
00000090: fad1 143d 6023 e43c 8e28 283d 4493 8b3d
000000a0: 755a cc3c d7b1 8ebe 123c 47bd 636c 383c
000000b0: 0dc5 3b3e 48e2 bf3d 63ca 01bd 231b 863d
000000c0: eaf9 fc3d f199 473e 2477 d73c 0813 cebd
000000d0: 4a24 80bd 520d 99bd 55f9 f7bd 5600 9ebd
000000e0: 9d66 70bd 8d52 1bbe 83e3 e3bc 685e 0fbe
000000f0: 92fc 04be 6393 74be 74da 933d 109d e7bd
00000100: c6f3 5d3e 0ded 0a3d 613b f73d a668 4a3d
00000110: a115 abbd fc6f 413e 3e67 653c cd68 4dbe
00000120: d7f6 1ebe f382 0ebe 6855 203e bb08 2ebd
00000130: cd2d f6bd ba28 553e 72da 123d 31b4 e7bd
00000140: 5fcd 59bd 61ff 70bd b8a7 eebd dc2a 503e
00000150: ca15 2e3e ca24 e9bc d04a 833d 27d4 fabd
00000160: 0315 81be 75d9 4dbe 1719 88bd feba a93d
00000170: 96f6 adbe 2cf3 253e 9efd 2b3e 6222 10be
00000180: cb9d 393e 2a65 273e 85c8 dfbd 2c8e 3f3e
00000190: 2b7d 263e 5048 a83d c099 17bd a67f cf3d
000001a0: 1412 153e c281 bbbd e120 a93d 31d1 52be
000001b0: 3646 f7bd 4ba9 b3bd 165d e1bd 46fd 4ebe
000001c0: 9685 9e3e ed83 d4bd 85e9 6f3e 1a5a 163e
000001d0: 474a 833d 7dba 8ebd 5a27 acbd b3a8 163e
000001e0: 73f6 eabd f083 543d 9293 a5bd 7030 cbbd
000001f0: 8c60 69bd 575d f63d 7432 12be ce7d d6bd
00000200: e441 49bc b0f5 3ebb 6525 d6bc 6635 febc
00000210: 8dff 03bc c1b7 d43d 78a1 253c f0a0 1c3e
00000220: 5bba 4b3e b0e5 bb3d 2819 4bbd 4f8a b63c
00000230: a85e 603e 10b6 b3bd fd4f b4bc 8dc8 4e3e
00000240: 3f13 67bc 0351 e53d ff8e ba3d 3f0d d93c
00000250: 84ab 883d 25a6 6e3d 1ff7 89bc a1bb 16be
00000260: ef1b d73d ba08 babb 2fca 8f3d b8e2 6e3e
00000270: edfb 4a3b 6840 853e d911 27bd 8c37 763b
00000280: ba74 08be 23a6 0e3d 0245 1bbc 7440 f03d
00000290: 56df 033e 13aa 0cbe 6abc 35be 6d50 6d3e
000002a0: ed6c d83d 4dde 5ebe d770 27be 2431 b63d
000002b0: af26 d53d f69e b43d 07c7 12be 7231 0b3d
000002c0: 37ce e5bd 72c6 8c3e 2a69 0d3d 15f0 06be
000002d0: 4083 d9bc bfa4 10bd e37a 3a3e 4640 3abe
000002e0: b336 5f3e 33be adbd ea3c 84bb d383 3a3e
000002f0: db8f 62bd 5bf8 a4bd 6535 e93b fd88 fd3c
00000300: d27b e5bd e6b1 1cbe 5a78 2dbd 91c6 88bd
00000310: 2e69 413e 0df6 43be ca46 a23d cb45 fabe
00000320: 5918 06be 78c0 42bc 0d76 153e db0a 6dbe
00000330: cf1f 763d b6c0 fe3d 287d cf3d b7e0 c1bd
00000340: 9b21 9abd e0e9 08bd f97c 81be 96ca 8e3d
00000350: 3c56 a4bc 2100 d3bd 2519 e8bd 1d19 863d
00000360: a289 093d 2681 19be b558 a93d d451 e3bd
00000370: d965 1cbb 1602 e2bb 010f f33d 22ac 04be
00000380: 7654 ac3d 3b91 afbd da0f d93d 9c45 3e3e
00000390: be25 19be 2917 21bc 2359 213e ec9a ffbd
000003a0: 7266 caba 5655 2fbd 5833 bd3d a715 63be
000003b0: 12f9 33be ff49 8f3d 3eab a4bd c889 1cbd
000003c0: 5260 31be 9727 1ebe 8951 ebbb 53bc 003e
000003d0: 25b9 febc 0d8c c8bd dc3a e8bd b8b7 1c3e
000003e0: 8af2 27bd 0bd5 c13b e590 a13d bbf2 8b3d
000003f0: e512 2e3b 8bfd 393e cf07 c6bd f447 03be
-0.068644695 0.08900339 -0.1556751 0.0849489 0.050119445 -0.15438315 -0.20919949 -0.016441448
0.24467388 -0.09822929 -0.05859993 -0.26517612 0.14235067 -0.07464917 -0.11849724 -0.2675393
0.1891694 -0.019351732 0.28905648 -0.13301043 -0.12082096 -0.025051251 0.015201309 0.10086813
-0.19918524 -0.04380404 0.033453386 -0.14499332 0.030474493 -0.06501614 -0.16350365 -0.20229572
-0.05921692 0.05861159 -0.055845518 0.0011999093 0.03633306 0.0278489 0.0410543 0.06815198
0.024945477 -0.27870056 -0.048641272 0.01125631 0.18336888 0.093693316 -0.03168715 0.06548145
0.12352355 0.19492318 0.026301928 -0.10062224 -0.062569216 -0.07473244 -0.12108103 -0.07714908
-0.05869161 -0.1516821 -0.027818447 -0.14000857 -0.12986973 -0.23884349 0.07219401 -0.11309254
0.21675023 0.033917475 0.120718725 0.049416207 -0.08353735 0.18890375 0.014001666 -0.2005951
-0.1552385 -0.1391714 0.1565758 -0.042488795 -0.120204546 0.20816317 0.035852857 -0.11313666
-0.053174373 -0.0588373 -0.116530836 0.2032885 0.170005 -0.028459925 0.06410754 -0.12247496
-0.25211343 -0.20102485 -0.066454105 0.08287619 -0.33977193 0.16206044 0.16795966 -0.14075616
0.181266 0.16347185 -0.10926918 0.18706578 0.16258685 0.082169175 -0.03701186 0.10131769
0.14557678 -0.09155609 0.08258224 -0.20587613 -0.120739385 -0.087725244 -0.11004083 -0.20213804
0.30961293 -0.10376725 0.23428924 0.14682809 0.06410652 -0.069691636 -0.08405943 0.14712791
-0.11472788 0.051883638 -0.080847874 -0.09921348 -0.05697684 0.12029522 -0.14277059 -0.10473214
-0.012283776 -0.002913814 -0.026140878 -0.031031322 -0.0080565335 0.10386611 0.010109298 0.15295768
0.19895308 0.09174669 -0.049584538 0.022282748 0.21911108 -0.0877496 -0.022010798 0.20193692
-0.01410371 0.111970924 0.091093056 0.026495574 0.06673339 0.058263917 -0.01684147 -0.14720012
0.10503375 -0.00567731 0.07020985 0.23328674 0.0030972913 0.260257 -0.040788505 0.003756973
-0.13325778 0.03482641 -0.009476902 0.117310435 0.12878165 -0.13736753 -0.17747656 0.23175211
0.10567651 -0.21764489 -0.16351639 0.088960916 0.10407769 0.08819382 -0.14333735 0.0339827
-0.11220973 0.27495152 0.03452412 -0.13177522 -0.026551843 -0.035313364 0.1821094 -0.18188581
0.2179821 -0.08483543 -0.004035582 0.1821435 -0.055312973 -0.080551825 0.007116961 0.03094911
-0.112052575 -0.15302238 -0.042351104 -0.066784985 0.18887779 -0.1913683 0.07923658 -0.48881373
-0.13095225 -0.011886708 0.14595814 -0.23148672 0.06008893 0.124391004 0.101312935 -0.09466689
-0.07525941 -0.033426166 -0.2529066 0.06972234 -0.020060651 -0.10302759 -0.11332921 0.06547759
0.033578523 -0.14990672 0.08268873 -0.11099592 -0.0023864417 -0.0068972213 0.11868096 -0.12956288
0.08414547 -0.085726224 0.105987266 0.18581241 -0.14955804 -0.009832182 0.15756659 -0.12480721
-0.0015441908 -0.042805992 0.09238309 -0.22176228 -0.17575482 0.069965355 -0.08040474 -0.038217336
-0.173219 -0.1544479 -0.0071813506 0.1257184 -0.031094143 -0.097923376 -0.113393515 0.15304458
-0.041002788 0.0059152893 0.078889646 0.068334065 0.0026561555 0.18163125 -0.09669458 -0.12820417

arith.constant8 f4 [32, 3, 3, 16]
00000000: 0edd 4dbe 73d0 ce3d e617 c7bd 7997 b63c
00000010: 57e2 4b3e 8a0e af3c 094a 9bbe fa69 17bc
00000020: a7ba ff3d a262 483e 6a39 b9bd 4482 91be
00000030: 01b2 b63d b41e 10be dc90 b2ba 82d9 80bd
00000040: c617 c1bd eac3 9c3e 0a68 cabc eefd 463e
00000050: defd 413e 9a6c 553d c97b 1fbe 9f87 883c
00000060: 49d0 0abc 7e4d b23c 737a 7a3d 4404 9bbe
00000070: fe66 5b3d 0f50 3b3e e8de 383c 0198 7c3c
00000080: 2d21 7cbd 3979 fa3d 319c 8d3e 92ed 0f3e
00000090: 6d18 033e 4a5d bf3c 4af8 003c f5c2 f63d
000000a0: 222a 18be 6a67 5f3d 3271 6c3c bab6 43be
000000b0: 8d8d a8bc f4c7 b53d 7307 8dbd eefc d4bd
000000c0: ea68 91bd 59ff 72be 45e3 9cbe d814 b03c
000000d0: 6bf9 733e 3d83 7e3c 3b32 82be 97d6 14bd
000000e0: 2639 15bd 8a44 68be c2a5 9b3a 5072 053e
000000f0: 4cc4 013e 80cc e63d 7bc0 42be 515e 10bd
00000100: 6f73 bdbc 70f4 1ebe afac a6bb dbe6 b03d
00000110: 7652 e13c 79db 44be c333 7abe 4b4d 9ebd
00000120: b64f ae3d 3ca6 76bc f6a1 393d 9014 cabc
00000130: 08de 593d 2f43 e33d 75d3 12be 3558 c3bd
00000140: 3141 b7bd b18a 31be 010d b43c 60e4 ac3d
00000150: 2553 de3d 36c8 a2bc f9f0 d8bd 5b6f 04be
00000160: 336b 5fbe 0f93 07bd 7fa2 53bc 5106 7d3d
00000170: 5cbe a1ba 8b03 e03d 0eb8 d6bd d617 71bd
00000180: d302 7d3d ecab 11be ad67 063e da77 5dbe
00000190: 07e5 8d3c c531 e5bd fc68 a73d 42db bf3d
000001a0: 0a2c 453d 9ff3 87be 52a9 12be 0bf2 463e
000001b0: 9410 4bbd 6a1b b7bc aac3 fdbc 561d 56bd
000001c0: 2a4c 913d 6043 893d b22b 613e 4e11 30be
000001d0: b558 0c3e 7cf1 b2bc ac5e 12be 6c2e 8bbd
000001e0: 3bb4 013d 7e4e 4abe 5810 c6bd 78a2 573e
000001f0: fc2d 193e 7041 0e3e 8ad5 a53d da2c 39bd
00000200: 2a3e 093e 7a2f 91bd 8700 153d 3bcd 66be
00000210: 695d 233d 5252 79be 3ea0 6abe 4ba0 febd
00000220: 6ee5 aebe a979 06be 8955 84bd 67fe 7c3e
00000230: d68b 403c b178 6bbd 2226 ee3d 4877 cf3c
00000240: 58cc 243c cfe8 9a3e da54 5a3e 2bac a63c
00000250: d655 373d e887 123e 7b01 d73d 0b55 a43d
00000260: a016 52bd efb3 87bd 7135 69bd ad5f 78be
00000270: 59a2 5fbe e13c 87bc d55d 273e fca1 47bd
00000280: fb20 7ebe 81d6 c53e 4f4d 0a3e cdd2 1c3e
00000290: 9221 0c3e 40d1 84bd 9ec9 633e 8811 dabd
000002a0: 69b2 103e 33bc 853c a95f f6bd 31e2 01be
000002b0: 9176 e7bd 158e 5a3e 9e89 17bd 5a68 be3c
000002c0: f769 913d 5c62 3abd f504 1cbe 475d 5a3d
000002d0: 6217 283d 27a4 073d 2ff9 00bd d827 2b3d
000002e0: e65a 02bd 181b 073e 54ba f83c 0896 043d
000002f0: aae8 5bbd 93c6 a5bd cc03 df3d 4a13 c4bc
00000300: 0f57 edbd 934e b63d 551a c63d 754b 74bd
00000310: 2de8 59bd 7f39 173d 45f6 503e e57c 0dbe
00000320: fdcd 203e 1676 e1bb 094a 22be e9f8 70bc
00000330: 4e75 383c a4ac 03bd 7dc0 513d 984c 2abe
00000340: 475c 103e c78e 09be 2cde a9bd 8b2d f93d
00000350: 8136 433d 8b8a 8abd 77e7 0a3d 5909 213d
00000360: ec9b c4bc 5946 bcbd 1a02 4fbd 6ef2 b03d
00000370: e267 f23d 5256 30bd cff8 01be e023 933c
00000380: f152 953e 22cc dfbd 4135 18bd 9535 0fbe
00000390: 9303 4dbd 4416 143e 31b2 e2bd f919 b53d
000003a0: 3a7a 07be a863 683c 6f09 453c de67 df3e
000003b0: 1719 003e 722b 2abd 06cd bbbd 2d9f 173e
000003c0: f980 1f3c 1082 9ebd 9088 47be a95e a2bc
000003d0: 2ff8 d9bc 8d81 babc ac1a a3bd 7ad1 d9bd
000003e0: 0e90 01be 644f c83d f26d 243d bc66 be3b
000003f0: 7233 8b3d eedb 1abd aac2 2a3e 7a33 6ebe
-0.20103857 0.10098352 -0.09721355 0.022289025 0.1991056 0.021369237 -0.30329922 -0.009241575
0.12486773 0.19568875 -0.09044154 -0.28419697 0.0892067 -0.14074212 -0.0013623494 -0.06291486
-0.094283625 0.3061822 -0.024707813 0.19432804 0.18944499 0.052105524 -0.15574564 0.016666232
-0.008472511 0.021765467 0.061151933 -0.30276692 0.053565018 0.18292259 0.011283614 0.0154171
-0.061555076 0.12230153 0.27658227 0.1405547 0.12802286 0.023359913 0.007871697 0.12048904
-0.14859822 0.054541983 0.014431285 -0.19112673 -0.02057531 0.08876029 -0.068861865 -0.10399805
-0.07100089 -0.2373022 -0.30642143 0.021494314 0.23825614 0.015534219 -0.25428948 -0.03633746
-0.036431454 -0.22682396 0.0011874961 0.13031888 0.12672538 0.11269474 -0.19018738 -0.035246197
-0.023126332 -0.15522933 -0.0050865035 0.08637782 0.02750514 -0.19224347 -0.24433808 -0.07729586
0.085112974 -0.015054282 0.045320474 -0.024668008 0.05319026 0.11096799 -0.14338477 -0.095383085
-0.08947981 -0.17338063 0.021978857 0.084419966 0.10855702 -0.019870859 -0.10592837 -0.12933104
-0.21818237 -0.03309923 -0.01291716 0.061773602 -0.0012340057 0.10938176 -0.104843244 -0.058860622
0.06177027 -0.14225739 0.13125487 -0.21627751 0.017321123 -0.111911334 0.08174321 0.09367992
0.048137702 -0.26553056 -0.14322403 0.1942827 -0.049576357 -0.02235194 -0.030977089 -0.05227407
0.07094605 0.06702304 0.21989325 -0.17194101 0.13705714 -0.021843664 -0.14293927 -0.06795964
0.03166602 -0.19756505 -0.09671086 0.2105807 0.14958948 0.1389215 0.0809737 -0.04520879
0.1340262 -0.070891336 0.036377456 -0.22539227 0.039884005 -0.24347809 -0.2291269 -0.12432917
-0.34159416 -0.13132347 -0.06461627 0.24706422 0.0117520895 -0.057488147 0.11628367 0.025325432
0.010058485 0.30255744 0.21321431 0.020345768 0.044759594 0.14309657 0.10498329 0.08024033
-0.051291108 -0.066261165 -0.05693573 -0.24255247 -0.21839274 -0.016508522 0.16344388 -0.048738465
-0.24817269 0.38640216 0.13506053 0.15314789 0.13684681 -0.06485224 0.2224488 -0.10647875
0.14130558 0.016325092 -0.120299645 -0.12683941 -0.113019116 0.21343262 -0.036996476 0.023243118
0.07100289 -0.04550396 -0.15236266 0.053311612 0.041037925 0.033115532 -0.03148764 0.041786045
-0.03182497 0.13193929 0.030362286 0.032369643 -0.053688683 -0.08094516 0.10889396 -0.023934979
-0.11588871 0.089017056 0.09672991 -0.059642274 -0.053199936 0.036920067 0.20406444 -0.13817175
0.15703578 -0.006880532 -0.15848555 -0.014707782 0.011258436 -0.032147065 0.05120896 -0.1663078
0.14097701 -0.13433371 -0.08294329 0.1216689 0.0476594 -0.06764706 0.03391215 0.039315555
-0.02400013 -0.09193105 -0.050539114 0.0863999 0.1183622 -0.04305107 -0.12692569 0.017961442
0.29164842 -0.10927607 -0.037160162 -0.13985284 -0.050052237 0.14461619 -0.110691436 0.088428445
-0.1323022 0.014183916 0.012026175 0.43633932 0.12509571 -0.04154534 -0.091699645 0.14806814
0.009735339 -0.07739651 -0.19485688 -0.019820528 -0.026607601 -0.022766853 -0.07964072 -0.106356576
-0.12652609 0.097807676 0.040143915 0.0058105867 0.06796922 -0.037807398 0.16675821 -0.23261824

arith.constant9 f4 [16, 3, 3, 3]
00000000: 66c6 5cbd b18a a1be edc9 97be 1735 65bd
00000010: ec97 35be 331d 01be 4c85 fc3d b633 173e
00000020: 4bbc 363e 7b1c 0fbe 60b4 b3bd 1f4d 01be
00000030: bf57 e23d b887 a2bc 0397 863d 8070 86bc
00000040: ecc3 293e 12c6 a13e dff6 23be c4b5 8d3d
00000050: 123d 30bc 5bb4 88bd 1ab5 343d a027 2ebd
00000060: f52d 283c c5cc 813e c063 413e e831 9abe
00000070: 0bd5 8c3e 99d9 863e 7a36 e2bd b049 babd
00000080: f0a8 2dbd 55f0 a53d 8cc9 533d 8c82 153d
00000090: 2c30 14be 1b70 853e ceff 063e 2213 7a3d
000000a0: 52fe 4cbd 1cb7 1e3e ae2a 273e 07ab 82be
000000b0: 67bc 7fbe e300 ffbd a245 cebc e673 883d
000000c0: f7b1 a43d 6e74 53bd be1e b6bd c462 883e
000000d0: 5976 48be d45b 1bbe 916e 9cbe e0a1 c53d
000000e0: 84da 19bd 92cf 58bb 10c6 343e 7caf a93e
000000f0: 599d 08be 322b 313e 826d 5bbd ba1a 193d
00000100: 3687 47bd 0e74 2a3e 0f10 b13d c457 bf3d
00000110: 077a bc3e 6f5d 8abd d451 a43a b279 8bbd
00000120: 1ea6 e33d 0783 d6bd 9387 b63d 04f3 45be
00000130: 2b89 bc3c 8641 33bd cec6 80be a96c 84be
00000140: 0d06 eebc 2d8e 45be 0ebc 273e b8bf 1d3d
00000150: 06a7 0cbe 5b2e 333e 19f1 5e3e 174e f6bd
00000160: 9454 d6bd 7cdc 083e 7d0e 243e 43d7 ebbd
00000170: 7619 173d 9d3b 123e 01f5 97be 5cf0 55bd
00000180: 5b97 b93c 4032 61be 4b13 b0bd 3fbc 713e
00000190: a3b8 38be d001 8cbd 35a6 613e 2f9a 32be
000001a0: 6283 20be 494a 3d3e c811 2d3e 4c95 113e
000001b0: ac1b bbbb 4a16 3fbe 7a47 8cbd 3e8e 0bbc
000001c0: 30d4 6abe 8d70 8cbd 3e77 9ebd 747e c7bc
000001d0: 1d6b e73d 00c5 fcbc 15a2 69be 83a6 1ebd
000001e0: 4348 8d3e b322 9dbe f2be aabe eccb a13c
000001f0: 32c3 babc 4f85 ff3c cfef 283e db3c 2abe
00000200: f1e5 b93d 1162 943e 7dc0 7bbe 6a65 ef3d
00000210: 26ca 573e 47ac e6bd 793e 193e 6c25 81be
00000220: 443c 05be 53de 92bd 4e4d 673c 7af8 9e3e
00000230: 4e48 d13d 0c6e 823e b7ad 3a3e 799f 273e
00000240: df1b 38be 132d 233d 3d1a 9bbe 8205 2ebd
00000250: 0490 57be 2d90 8abe d2a8 8a3e 5329 f23c
00000260: ffbd 433e 3b79 2fbc 7ee1 9c3d 2a6e 343e
00000270: 1f60 5dbd 5f61 b6bc 0f66 bfbd 4f16 aa3b
00000280: 4127 1fbe ac1c 123d a1eb b0bd 6d0d cb3d
00000290: 79bb 943e b8a1 123d e03f a43d 4528 863e
000002a0: aad3 63bc 58ea 4cbd 3fe8 cc3c 7e11 0cbd
000002b0: 1c27 743e 5414 923e f5e1 b7bd bcba 9dbd
000002c0: 2ed1 e7bd e57e 423e 87b6 0fbe 2361 98be
000002d0: e380 72bc 9622 f63d 9c0a b6bc 4365 3d3c
000002e0: 41e8 ecbd 76c0 48be 9832 e23c 381e 12be
000002f0: 741b 4bbe 2a9c d6bc bee5 34be 6b0d 203e
00000300: 939d 363d 4e0e 6c3d 2f77 41ba 7830 d4bd
00000310: b019 2e3e ec83 b93e 6857 013e eb60 81be
00000320: c8ec dfbd 9263 47bd 5444 84bd c902 ebbd
00000330: 8bbf e6bd 9ad3 973e b58f f93d 72a2 403e
00000340: 16cf d3bc 58a7 75bd 5547 98bc db5f 1fbe
00000350: be9a 68be e282 5abe 576e 9dbd 22cb bb3d
00000360: 8ee9 103e 7292 d63e 9c0f fc3d dcc2 883d
00000370: dab3 763d 9437 903d 6ad9 d3bd eaac 863e
00000380: 90ef 333e 6534 1f3e 6c4c 2cbe 863a d4bd
00000390: 4498 cebd aa51 8fbd 36bd 18be 1ac8 023e
000003a0: 52a8 e1bd a0fe 11be 9581 f9bb b2ec 3fbe
000003b0: fadf 1ebe 4466 623d 0e8c 34be 2771 21be
000003c0: c0ec 903c f649 8abe 53c1 5abe edeb 853d
000003d0: 2661 193d ea2d bfbd c68c dbbd 9789 083e
000003e0: fe65 f13d 5559 6cbe 724d 4d3e 3bc2 853e
000003f0: 00fa 3a3e bdde 18be 163b 7fbd d64f dbbb
-0.053900145 -0.31551126 -0.29646245 -0.055958834 -0.17733735 -0.12608795 0.12330112 0.1476582
0.17845266 -0.13975708 -0.08774638 -0.12627076 0.110518925 -0.019840106 0.06571772 -0.016411066
0.16578645 0.31596428 -0.16012143 0.06919435 -0.010756748 -0.06675025 0.044118024 -0.042518258
0.010264863 0.2535154 0.18885708 -0.301162 0.2750629 0.2633789 -0.11045547 -0.09096086
-0.04239744 0.0810248 0.051705882 0.036501452 -0.14471501 0.26062092 0.13183519 0.061053403
-0.050047226 0.15499538 0.16324875 -0.25521109 -0.24974214 -0.12451341 -0.025179688 0.06662731
0.080417566 -0.051624708 -0.08892582 0.26637852 -0.19576396 -0.15171748 -0.30553105 0.09650016
-0.03756191 -0.0033082706 0.1765368 0.33141696 -0.13341273 0.17301634 -0.05357123 0.037379004
-0.04871293 0.16645834 0.08645641 0.09342912 0.3681185 -0.06756102 0.0012536594 -0.06810321
0.11115669 -0.1047421 0.089125775 -0.19330984 0.023014626 -0.04376366 -0.25151676 -0.2586415
-0.02905562 -0.19292517 0.16380331 0.038512915 -0.1373559 0.17498152 0.21771659 -0.12026613
-0.10465351 0.13365358 0.16021152 -0.11515667 0.036889516 0.14280553 -0.2967911 -0.052231178
0.02265518 -0.21991825 -0.0859743 0.23606966 -0.18039183 -0.06836283 0.22036059 -0.17441629
-0.15675119 0.18485369 0.16901314 0.14217108 -0.005710086 -0.18660846 -0.068495706 -0.0085178
-0.22932506 -0.06857405 -0.077375874 -0.02435229 0.11299727 -0.030855656 -0.22815736 -0.038733017
0.27594194 -0.30690536 -0.33348805 0.019750558 -0.022798155 0.031191496 0.1649773 -0.16624777
0.09077061 0.2898107 -0.24585147 0.11689265 0.21073207 -0.11263328 0.14965238 -0.25223863
-0.13011271 -0.07171311 0.014117552 0.31048948 0.10218869 0.25474584 0.1823033 0.16369428
-0.17979382 0.039837908 -0.30293456 -0.04248572 -0.21051031 -0.27063122 0.27081925 0.02956072
0.19115447 -0.010710056 0.07660197 0.17620149 -0.054046746 -0.022263227 -0.09345638 0.0051906477
-0.15542318 0.035671875 -0.08638693 0.0991467 0.2904928 0.03579876 0.08019996 0.26202598
-0.013905445 -0.050028175 0.025013087 -0.03419637 0.23843044 0.28531134 -0.08978645 -0.077016324
-0.11319195 0.18993719 -0.14034472 -0.2976161 -0.014801237 0.120183155 -0.022221856 0.011559787
-0.115677364 -0.19604668 0.027612016 -0.1426934 -0.19834691 -0.026197512 -0.17665765 0.15630119
0.04458387 0.05763083 -0.00073801255 -0.10360807 0.17001987 0.3623346 0.12630999 -0.25269255
-0.10933834 -0.048678942 -0.06458345 -0.114751406 -0.11267003 0.29653627 0.12185613 0.18811968
-0.025855582 -0.059974045 -0.018588701 -0.1556391 -0.2271528 -0.2133899 -0.07687061 0.09169604
0.14151594 0.41908604 0.12307665 0.066777915 0.060230114 0.07041851 -0.10344203 0.26303798
0.17571855 0.1554733 -0.16826028 -0.10362725 -0.10087636 -0.06997998 -0.14915928 0.12771645
-0.11018433 -0.14257288 -0.0076143243 -0.18742636 -0.15515128 0.05527331 -0.17631552 -0.1576582
0.017691016 -0.27009553 -0.2136281 0.0653914 0.037446164 -0.09334929 -0.1072021 0.13333736
0.117870316 -0.23080952 0.20049074 0.2612475 0.1825943 -0.14928718 -0.062312208 -0.006692867

arith.constant10 f4 [2, 64]
00000000: 532c bcba 9972 e73d b06d 4a3e d02d 833e
00000010: 4e76 0f3b e834 9cbe 0153 1f3d 710f 31bd
00000020: 26b2 1a3c 8f26 403d df58 5a3c d07d 193e
00000030: 7736 19be 0e64 ceba 3931 26be d1bb 973d
00000040: 32f9 22b9 e955 17be 6405 0ebc e43c 9e3b
00000050: 4410 a6ba b859 ef3d 4d12 563e 9b0d 4b3c
00000060: 4b5a 25ba 8877 5db8 08db b3bb 0100 64ba
00000070: dd2f 9c39 63ef aa3c 0d01 493b 8118 523e
00000080: 1bb1 04bc 6b24 d5bd 2701 45be 8f08 c9ba
00000090: 7429 35bb efda 043e d827 023e d1b4 53bc
000000a0: ef54 b63d f830 00bd f9bc 92bd 629b d7ba
000000b0: 69aa b13d c8de 6f3d a70f 90bb 6cca 013b
000000c0: 00d3 05bd c306 153e e9ae 503e ed71 fbbd
000000d0: f120 59bc 4753 b33c 7af6 ddba c224 92bd
000000e0: c7ed c03b a8d4 74b9 d8f2 09bc 9062 94be
000000f0: 0787 133c 9d1c 0cbb 0700 703d d035 59bd
00000100: 7397 8aba 3965 003c 65d9 21bd 90f4 4a3e
00000110: dd96 fcba c0c3 d43b 9779 ccbd 8c47 793c
00000120: 86c4 0ebc e222 5f3e 3916 8bbe 71bd b23d
00000130: 5b38 67be eac5 783b 06eb 8dbd eab1 fb3d
00000140: a3a8 8bb8 1ed1 323e 85ec f8bd ac6b f73c
00000150: 7f20 0c38 aad2 0d3e cea8 1abe 8c56 16bc
00000160: c728 98bc d5b5 20ba e741 deba 543c df38
00000170: 8bcc 203a 1163 acbb b99f f53a 458b 553d
00000180: 2ce6 1dbc 6896 243d 87d8 b3bd 6485 203b
00000190: 40ca 5c3a 552a 393e 2327 2b3e 2619 7fbc
000001a0: 8dd4 90bd e3cd 703e 61c6 693e 8712 babb
000001b0: fb32 29be c5f2 8a3e 46e9 96bd f7bd 1db9
000001c0: 0acf a93b 7eb3 ed3d b47b 04bd 53c8 1d3a
000001d0: e47c bdbd 2b32 babe 5b0e dd3a 745a 7c3d
000001e0: d3dc 0eba e043 9139 c35b 7e3c 07de f13d
000001f0: dc69 89bd 0c22 3bbb e25f b4bd e0f9 2f3c
-0.0014356471 0.11301155 0.19768405 0.2562089 0.0021890583 -0.30509114 0.038897518 -0.043227617
0.009441888 0.046911772 0.013326853 0.149894 -0.14962183 -0.0015746371 -0.16229714 0.0740887
-0.00015542356 -0.14778866 -0.008668277 0.004829036 -0.0012669642 0.11687034 0.20905419 0.0123933805
-0.0006307705 -5.2801828e-05 -0.005488757 -0.00086975103 0.000297903 0.020866102 0.0030670792 0.2051716
-0.008098866 -0.10407337 -0.19238721 -0.0015337634 -0.0027643116 0.12974142 0.12710512 -0.012921528
0.089029185 -0.0312967 -0.0716495 -0.0016449506 0.08675081 0.05856207 -0.004396397 0.001980449
-0.03267193 0.1455336 0.20379223 -0.12277589 -0.013252483 0.021890296 -0.0016934418 -0.07135917
0.0058877203 -0.00023348874 -0.008419715 -0.28981447 0.009004361 -0.002137936 0.058593776 -0.053029835
-0.00105737 0.007836633 -0.039513964 0.19819856 -0.0019271035 0.006493062 -0.09984129 0.015214812
-0.008713847 0.2179065 -0.27165392 0.08727539 -0.22580092 0.0037959763 -0.06929593 0.12289794
-6.6594475e-05 0.17462584 -0.121544875 0.03020271 3.3408865e-05 0.13849893 -0.15103456 -0.009175908
-0.018574132 -0.0006130611 -0.0016956896 0.000106447056 0.0006133995 -0.005260833 0.0018739618 0.05213477
-0.009637397 0.0401825 -0.08781534 0.002449357 0.00084224716 0.18082555 0.16714148 -0.015569961
-0.07071791 0.2351604 0.22829582 -0.005678478 -0.16523354 0.27138343 -0.07368712 -0.00015043454
0.0051821517 0.11606501 -0.032344535 0.00060189253 -0.092523366 -0.363664 0.001686524 0.0616097
-0.00054497755 0.00027707126 0.015524807 0.118099265 -0.06709644 -0.002855423 -0.08807351 0.010740727
