models/ana-class100/_archive/ana-class100_0190_s2_q.tflite (tflite, 136984 bytes, 19 tensors)

tfl.pseudo_qconst1 i1 [100, 64] scale=0.0033810171 zero_point=0
0	0x0f	0.050715256
1	0xcf	-0.16566984
2	0x01	0.0033810171
3	0xf4	-0.040572204
4	0xcc	-0.17581289
5	0x22	0.11495458
6	0x1f	0.104811534
7	0x12	0.06085831
8	0xf7	-0.030429155
9	0xeb	-0.07100136
10	0x39	0.19271797
11	0xd5	-0.14538373
12	0xc6	-0.196099
13	0x00	0.0
14	0xbe	-0.22314712
15	0x41	0.21976611
16	0x34	0.17581289
17	0xca	-0.18257493
18	0x16	0.07438238
19	0xe9	-0.07776339
20	0x13	0.06423932
21	0xce	-0.16905086
22	0x23	0.1183356
23	0xcb	-0.17919391
24	0xce	-0.16905086
25	0xe0	-0.10819255
26	0x3a	0.196099
27	0x24	0.12171662
28	0xc8	-0.18933696
29	0xd1	-0.1589078
30	0x01	0.0033810171
31	0xc0	-0.2163851
32	0xcf	-0.16566984
33	0xf6	-0.033810172
34	0xc7	-0.19271797
35	0xbd	-0.22652815
36	0xcb	-0.17919391
37	0x27	0.13185968
38	0xbd	-0.22652815
39	0xf0	-0.054096274
40	0xd6	-0.14200272
41	0xec	-0.067620344
42	0x1e	0.10143051
43	0xd8	-0.13524069
44	0x1c	0.09466848
45	0xb7	-0.24681425
46	0xbd	-0.22652815
47	0x30	0.16228881
48	0x18	0.08114441
49	0x3a	0.196099
50	0xe6	-0.08790644
51	0xe7	-0.08452543
52	0xf2	-0.04733424
53	0xd1	-0.1589078
54	0x2f	0.1589078
55	0xc3	-0.20624204
56	0xcf	-0.16566984
57	0x13	0.06423932
58	0xc3	-0.20624204
59	0xe7	-0.08452543
60	0xee	-0.06085831
61	0xc8	-0.18933696
62	0x37	0.18595594
63	0xfd	-0.010143051
64	0x01	0.0033810171
65	0xd1	-0.1589078
66	0xe2	-0.10143051
67	0xd3	-0.15214577
68	0xcd	-0.17243187
69	0x21	0.11157356
70	0x2e	0.15552679
71	0xf3	-0.04395322
72	0x08	0.027048137
73	0x04	0.0135240685
74	0x43	0.22652815
75	0xf4	-0.040572204
76	0xcb	-0.17919391
77	0x28	0.13524069
78	0xbc	-0.22990917
79	0xc6	-0.196099
80	0x37	0.18595594
81	0xd1	-0.1589078
82	0x14	0.067620344
83	0xf3	-0.04395322
84	0xf8	-0.027048137
85	0xd2	-0.15552679
86	0x2d	0.15214577
87	0xd1	-0.1589078
88	0xfa	-0.020286102
89	0xfb	-0.016905086
90	0x42	0.22314712
91	0x22	0.11495458
92	0xdf	-0.11157356
93	0xcf	-0.16566984
94	0x28	0.13524069
95	0xbb	-0.23329018
96	0xd4	-0.14876476
97	0xf1	-0.050715256
98	0xc4	-0.20286103
99	0xba	-0.2366712
100	0xff	-0.0033810171
101	0x25	0.12509763
102	0xbe	-0.22314712
103	0xf0	-0.054096274
104	0xdf	-0.11157356
105	0xf9	-0.02366712
106	0xe0	-0.10819255
107	0x12	0.06085831
108	0x2a	0.14200272
109	0xc5	-0.19948001
110	0xd2	-0.15552679
111	0x36	0.18257493
112	0xb5	-0.25357628
113	0x30	0.16228881
114	0xe7	-0.08452543
115	0xba	-0.2366712
116	0xec	-0.067620344
117	0xc1	-0.21300408
118	0x1e	0.10143051
119	0xcc	-0.17581289
120	0xd0	-0.16228881
121	0x16	0.07438238
122	0xc6	-0.196099
123	0xca	-0.18257493
124	0x0a	0.033810172
125	0xc6	-0.196099
126	0x31	0.16566984
127	0xe1	-0.104811534
128	0x0c	0.040572204
129	0xcf	-0.16566984
130	0xd9	-0.13185968
131	0xc5	-0.19948001
132	0xcc	-0.17581289
133	0x24	0.12171662
134	0x2c	0.14876476
135	0xce	-0.16905086
136	0x29	0.1386217
137	0x09	0.030429155
138	0x41	0.21976611
139	0x08	0.027048137
140	0xf2	-0.04733424
141	0xf7	-0.030429155
142	0xca	-0.18257493
143	0x03	0.010143051
144	0x31	0.16566984
145	0xc2	-0.20962307
146	0xfe	-0.0067620343
147	0x1d	0.0980495
148	0xdd	-0.1183356
149	0xc6	-0.196099
150	0x25	0.12509763
151	0xd8	-0.13524069
152	0x01	0.0033810171
153	0x12	0.06085831
154	0x42	0.22314712
155	0x14	0.067620344
156	0xfe	-0.0067620343
157	0xdc	-0.12171662
158	0x3c	0.20286103
159	0xc0	-0.2163851
160	0xce	-0.16905086
161	0xdd	-0.1183356
162	0xf5	-0.03719119
163	0xb8	-0.24343324
164	0xf7	-0.030429155
165	0x2a	0.14200272
166	0xca	-0.18257493
167	0xf1	-0.050715256
168	0xd9	-0.13185968
169	0xf7	-0.030429155
170	0xd9	-0.13185968
171	0xf2	-0.04733424
172	0x24	0.12171662
173	0xfd	-0.010143051
174	0xda	-0.12847865
175	0x42	0.22314712
176	0xdc	-0.12171662
177	0x26	0.12847865
178	0x00	0.0
179	0xb2	-0.26371935
180	0xdd	-0.1183356
181	0xc7	-0.19271797
182	0x20	0.10819255
183	0xbf	-0.21976611
184	0xc9	-0.18595594
185	0x19	0.08452543
186	0xc9	-0.18595594
187	0xca	-0.18257493
188	0x1a	0.08790644
189	0xeb	-0.07100136
190	0x2b	0.14538373
191	0xcf	-0.16566984
192	0x0a	0.033810172
193	0xe6	-0.08790644
194	0xc8	-0.18933696
195	0xe8	-0.08114441
196	0xcc	-0.17581289
197	0x2a	0.14200272
198	0x2e	0.15552679
199	0xe2	-0.10143051
200	0x30	0.16228881
201	0xdd	-0.1183356
202	0x40	0.2163851
203	0x1e	0.10143051
204	0x00	0.0
205	0x1d	0.0980495
206	0xe5	-0.091287464
207	0x01	0.0033810171
208	0x2e	0.15552679
209	0xcb	-0.17919391
210	0xee	-0.06085831
211	0xdb	-0.12509763
212	0xdd	-0.1183356
213	0xc4	-0.20286103
214	0x1d	0.0980495
215	0xd9	-0.13185968
216	0x05	0.016905086
217	0x24	0.12171662
218	0x3d	0.20624204
219	0x16	0.07438238
220	0x16	0.07438238
221	0xd8	-0.13524069
222	0x48	0.24343324
223	0xc5	-0.19948001
224	0xd0	-0.16228881
225	0xd4	-0.14876476
226	0x09	0.030429155
227	0xc3	-0.20624204
228	0xee	-0.06085831
229	0x27	0.13185968
230	0xcc	-0.17581289
231	0xf2	-0.04733424
232	0xd8	-0.13524069
233	0xea	-0.07438238
234	0x2c	0.14876476
235	0xf6	-0.033810172
236	0x1d	0.0980495
237	0x1c	0.09466848
238	0x04	0.0135240685
239	0x3f	0.21300408
240	0xea	-0.07438238
241	0x08	0.027048137
242	0x10	0.054096274
243	0xa9	-0.2941485
244	0xec	-0.067620344
245	0xc7	-0.19271797
246	0x1d	0.0980495
247	0xb9	-0.24005222
248	0xcf	-0.16566984
249	0x1c	0.09466848
250	0xc1	-0.21300408
251	0xce	-0.16905086
252	0xfa	-0.020286102
253	0xf6	-0.033810172
254	0x29	0.1386217
255	0xca	-0.18257493

tfl.pseudo_qconst2 i1 [64] scale=0.0106834285 zero_point=121
0	0xb2	-2.1260023
1	0x89	-2.5640228
2	0xa0	-2.318304
3	0x75	-0.042733714
4	0x84	-2.61744
5	0xcb	-1.8589165
6	0xbd	-2.0084846
7	0x75	-0.042733714
8	0xb4	-2.1046355
9	0x76	-0.032050285
10	0x91	-2.4785554
11	0x97	-2.414455
12	0xcf	-1.8161829
13	0x6d	-0.12820114
14	0x97	-2.414455
15	0x79	0.0
16	0xc2	-1.9550674
17	0xb7	-2.072585
18	0xb1	-2.1366856
19	0x77	-0.021366857
20	0xc1	-1.9657508
21	0xd9	-1.7093486
22	0xb5	-2.093952
23	0x9f	-2.3289874
24	0xd5	-1.7520822
25	0xbc	-2.019168
26	0xaa	-2.2114697
27	0x89	-2.5640228
28	0xb3	-2.1153188
29	0xb4	-2.1046355
30	0x89	-2.5640228
31	0xa2	-2.2969372
32	0xc4	-1.9337006
33	0xb9	-2.0512183
34	0xae	-2.168736
35	0xa5	-2.2648869
36	0x66	-0.20298514
37	0xea	-1.5277302
38	0x80	-2.6601737
39	0xb8	-2.0619018
40	0xf1	-1.4529463
41	0x77	-0.021366857
42	0x7f	0.06410057
43	0x71	-0.08546743
44	0x6b	-0.14956799
45	0xdb	-1.6879817
46	0x60	-0.2670857
47	0xc8	-1.8909669
48	0x79	0.0
49	0x21	-0.9401417
50	0xcc	-1.8482331
51	0x71	-0.08546743
52	0x78	-0.0106834285
53	0xdf	-1.6452479
54	0xce	-1.8268663
55	0xae	-2.168736
56	0xbc	-2.019168
57	0xad	-2.1794195
58	0xbd	-2.0084846
59	0xe2	-1.6131977
60	0x72	-0.074783996
61	0xbf	-1.9871176
62	0x89	-2.5640228
63	0xc1	-1.9657508

tfl.pseudo_qconst3 i1 [64] scale=0.113734074 zero_point=-128
0	0x91	1.9334793
1	0x90	1.8197452
2	0x8f	1.706011
3	0xd6	9.781131
4	0x8f	1.706011
5	0x8f	1.706011
6	0x8f	1.706011
7	0x21	18.311186
8	0x8e	1.592277
9	0x35	20.585867
10	0x8d	1.4785429
11	0x90	1.8197452
12	0x8d	1.4785429
13	0xf8	13.648088
14	0x92	2.0472133
15	0xf0	12.738216
16	0x91	1.9334793
17	0x8f	1.706011
18	0x90	1.8197452
19	0x2a	19.334793
20	0x90	1.8197452
21	0x8f	1.706011
22	0x8f	1.706011
23	0x8f	1.706011
24	0x8b	1.2510748
25	0x90	1.8197452
26	0x91	1.9334793
27	0x92	2.0472133
28	0x90	1.8197452
29	0x92	2.0472133
30	0x8d	1.4785429
31	0x90	1.8197452
32	0x8d	1.4785429
33	0x8d	1.4785429
34	0x8f	1.706011
35	0x8f	1.706011
36	0xae	5.231767
37	0x8d	1.4785429
38	0x92	2.0472133
39	0x90	1.8197452
40	0x8e	1.592277
41	0x7f	29.00219
42	0x6c	26.841242
43	0x46	22.519346
44	0x9c	3.184554
45	0x8f	1.706011
46	0xb0	5.4592357
47	0x90	1.8197452
48	0x0d	16.036505
49	0x8c	1.3648089
50	0x8f	1.706011
51	0xae	5.231767
52	0x13	16.718908
53	0x8f	1.706011
54	0x92	2.0472133
55	0x91	1.9334793
56	0x91	1.9334793
57	0x92	2.0472133
58	0x90	1.8197452
59	0x90	1.8197452
60	0x60	25.476433
61	0x92	2.0472133
62	0x92	2.0472133
63	0x93	2.1609473

tfl.pseudo_qconst5 i1 [64, 3, 3, 64]
0	0x1e	30
1	0xfe	-2
2	0xe9	-23
3	0x09	9
4	0x14	20
5	0xe3	-29
6	0xf9	-7
7	0xe0	-32
8	0xfe	-2
9	0x20	32
10	0xfa	-6
11	0xeb	-21
12	0x15	21
13	0xe1	-31
14	0x13	19
15	0x1b	27
16	0xe0	-32
17	0xfc	-4
18	0x13	19
19	0x08	8
20	0x01	1
21	0xec	-20
22	0x01	1
23	0xf1	-15
24	0xe2	-30
25	0xfa	-6
26	0xfa	-6
27	0xf0	-16
28	0xef	-17
29	0x1a	26
30	0xef	-17
31	0x00	0
32	0x0c	12
33	0xdd	-35
34	0xe6	-26
35	0xe8	-24
36	0x04	4
37	0xe7	-25
38	0xed	-19
39	0x11	17
40	0x25	37
41	0xfd	-3
42	0xeb	-21
43	0xf5	-11
44	0x04	4
45	0x06	6
46	0xe1	-31
47	0x24	36
48	0x24	36
49	0xf0	-16
50	0xe8	-24
51	0x15	21
52	0xe9	-23
53	0x06	6
54	0x18	24
55	0xe7	-25
56	0xfc	-4
57	0x1c	28
58	0x05	5
59	0x02	2
60	0xfb	-5
61	0x21	33
62	0x1e	30
63	0x11	17
64	0x18	24
65	0x19	25
66	0xe6	-26
67	0xfe	-2
68	0x1b	27
69	0x13	19
70	0xdd	-35
71	0x08	8
72	0xf4	-12
73	0xec	-20
74	0x08	8
75	0x1b	27
76	0xfb	-5
77	0xe0	-32
78	0xe8	-24
79	0xeb	-21
80	0xeb	-21
81	0xed	-19
82	0x08	8
83	0x01	1
84	0x22	34
85	0x15	21
86	0xf9	-7
87	0x00	0
88	0xe9	-23
89	0xf2	-14
90	0x1f	31
91	0x19	25
92	0xdc	-36
93	0xe2	-30
94	0xfb	-5
95	0x1c	28
96	0xe7	-25
97	0xff	-1
98	0xf4	-12
99	0xf0	-16
100	0xef	-17
101	0xfc	-4
102	0xe9	-23
103	0xfa	-6
104	0xfb	-5
105	0xdc	-36
106	0x26	38
107	0xe1	-31
108	0x09	9
109	0x10	16
110	0xec	-20
111	0xe4	-28
112	0xfa	-6
113	0x1b	27
114	0xec	-20
115	0xfb	-5
116	0xfa	-6
117	0x0b	11
118	0x12	18
119	0xfd	-3
120	0xdf	-33
121	0x1e	30
122	0x0a	10
123	0xe4	-28
124	0xeb	-21
125	0xf6	-10
126	0x0e	14
127	0xde	-34
128	0x09	9
129	0x23	35
130	0x10	16
131	0x0d	13
132	0xf6	-10
133	0x16	22
134	0x00	0
135	0x1f	31
136	0x05	5
137	0x0a	10
138	0xf1	-15
139	0x03	3
140	0xef	-17
141	0x24	36
142	0x16	22
143	0x05	5
144	0xf8	-8
145	0xe7	-25
146	0x25	37
147	0xfe	-2
148	0x0f	15
149	0x08	8
150	0xdb	-37
151	0xee	-18
152	0xe3	-29
153	0xe2	-30
154	0x05	5
155	0x02	2
156	0xe4	-28
157	0x26	38
158	0xff	-1
159	0xdc	-36
160	0xdc	-36
161	0xe4	-28
162	0x13	19
163	0xdc	-36
164	0x0b	11
165	0xe3	-29
166	0xdd	-35
167	0x09	9
168	0xea	-22
169	0x14	20
170	0xf1	-15
171	0xf0	-16
172	0x02	2
173	0xe3	-29
174	0xe3	-29
175	0x00	0
176	0x24	36
177	0x0a	10
178	0xe1	-31
179	0xef	-17
180	0x1a	26
181	0xe2	-30
182	0xeb	-21
183	0xf7	-9
184	0x13	19
185	0x04	4
186	0x15	21
187	0x13	19
188	0xe8	-24
189	0xfd	-3
190	0x19	25
191	0xdd	-35
192	0xff	-1
193	0x08	8
194	0xdc	-36
195	0x13	19
196	0x15	21
197	0x0b	11
198	0xde	-34
199	0x24	36
200	0x1a	26
201	0x0a	10
202	0xe6	-26
203	0xf6	-10
204	0xe6	-26
205	0xf0	-16
206	0xff	-1
207	0xe9	-23
208	0x0c	12
209	0x23	35
210	0x07	7
211	0x1b	27
212	0x1c	28
213	0x17	23
214	0xda	-38
215	0xfd	-3
216	0x08	8
217	0xfa	-6
218	0xf5	-11
219	0xdd	-35
220	0xf5	-11
221	0xf0	-16
222	0x1d	29
223	0xde	-34
224	0xf4	-12
225	0x12	18
226	0xf9	-7
227	0xdf	-33
228	0xe8	-24
229	0x23	35
230	0xfc	-4
231	0xe6	-26
232	0x12	18
233	0x1e	30
234	0xe5	-27
235	0x09	9
236	0xdb	-37
237	0xfa	-6
238	0x03	3
239	0xda	-38
240	0x00	0
241	0x12	18
242	0x23	35
243	0xdb	-37
244	0x19	25
245	0x20	32
246	0x04	4
247	0xf8	-8
248	0x1a	26
249	0xf5	-11
250	0xe2	-30
251	0x1d	29
252	0x1b	27
253	0x09	9
254	0x22	34
255	0x12	18

tfl.pseudo_qconst6 i1 [64] scale=0.0051421532 zero_point=127
0	0xbd	-0.9975777
1	0xcf	-0.905019
2	0xdf	-0.8227445
3	0xa5	-1.1209894
4	0xc0	-0.98215127
5	0xe7	-0.7816073
6	0xd8	-0.8587396
7	0xa4	-1.1261315
8	0xbc	-1.0027199
9	0x9e	-1.1569844
10	0xa4	-1.1261315
11	0xbd	-0.9975777
12	0xaf	-1.0695679
13	0xc3	-0.9667248
14	0xe1	-0.8124602
15	0x9d	-1.1621267
16	0x95	-1.2032639
17	0xb3	-1.0489993
18	0xc2	-0.97186697
19	0x0c	-0.59134763
20	0xb2	-1.0541414
21	0xc9	-0.9358719
22	0xfc	-0.6736221
23	0xc2	-0.97186697
24	0x0b	-0.5964898
25	0xc5	-0.9564405
26	0xbb	-1.0078621
27	0xcb	-0.9255876
28	0xc4	-0.96158266
29	0xb2	-1.0541414
30	0xb6	-1.0335728
31	0xe7	-0.7816073
32	0xb0	-1.0644257
33	0xa3	-1.1312737
34	0xcd	-0.9153033
35	0x80	-1.311249
36	0xb9	-1.0181464
37	0x96	-1.1981217
38	0xd0	-0.89987683
39	0xf7	-0.69933283
40	0xdd	-0.83302885
41	0xd2	-0.8895925
42	0xea	-0.7661808
43	0xb3	-1.0489993
44	0xc1	-0.9770091
45	0xbc	-1.0027199
46	0xb0	-1.0644257
47	0xb2	-1.0541414
48	0x9a	-1.177553
49	0x27	-0.4525095
50	0xd0	-0.89987683
51	0xcd	-0.9153033
52	0xef	-0.74047005
53	0xd2	-0.8895925
54	0x87	-1.275254
55	0xbc	-1.0027199
56	0xb0	-1.0644257
57	0x97	-1.1929796
58	0xd1	-0.8947347
59	0x91	-1.2238325
60	0xf7	-0.69933283
61	0xd8	-0.8587396
62	0xe5	-0.7918916
63	0xd1	-0.8947347

tfl.pseudo_qconst7 i1 [64] scale=0.0038465033 zero_point=-128
0	0x32	0.6846776
1	0x31	0.6808311
2	0x42	0.74622166
3	0x4d	0.7885332
4	0x7f	0.9808583
5	0x72	0.9308538
6	0x55	0.8193052
7	0x4b	0.78084016
8	0x4a	0.7769937
9	0x49	0.77314717
10	0x32	0.6846776
11	0x4b	0.78084016
12	0x42	0.74622166
13	0x39	0.7116031
14	0x3a	0.71544963
15	0x39	0.7116031
16	0x2f	0.6731381
17	0x3e	0.7308356
18	0x3a	0.71544963
19	0x3d	0.72698915
20	0x41	0.74237514
21	0x3d	0.72698915
22	0x4c	0.7846867
23	0x35	0.6962171
24	0x40	0.7385286
25	0x57	0.82699823
26	0x65	0.88084924
27	0x4d	0.7885332
28	0x29	0.65005904
29	0x31	0.6808311
30	0x4f	0.7962262
31	0x24	0.63082653
32	0x31	0.6808311
33	0x43	0.7500681
34	0x5d	0.8500772
35	0x3b	0.7192961
36	0x2e	0.66929156
37	0x30	0.6769846
38	0x4e	0.7923797
39	0x31	0.6808311
40	0x4a	0.7769937
41	0x4d	0.7885332
42	0x59	0.8346912
43	0x50	0.80007267
44	0x38	0.70775664
45	0x67	0.8885423
46	0x47	0.7654542
47	0x1d	0.603901
48	0x53	0.8116122
49	0x5c	0.84623075
50	0x58	0.8308447
51	0x4d	0.7885332
52	0x46	0.76160765
53	0x2a	0.6539056
54	0x4c	0.7846867
55	0x56	0.8231517
56	0x45	0.7577612
57	0x3c	0.7231426
58	0x1a	0.5923615
59	0x57	0.82699823
60	0x42	0.74622166
61	0x63	0.87315625
62	0x6d	0.9116213
63	0x3d	0.72698915

tfl.pseudo_qconst9 i1 [64, 3, 3, 48]
0	0xf7	-9
1	0xfa	-6
2	0xe1	-31
3	0xa2	-94
4	0x25	37
5	0x13	19
6	0x15	21
7	0x04	4
8	0x14	20
9	0x0c	12
10	0x17	23
11	0x19	25
12	0xa0	-96
13	0x12	18
14	0xe3	-29
15	0x1d	29
16	0x20	32
17	0x09	9
18	0xff	-1
19	0x24	36
20	0xd3	-45
21	0xff	-1
22	0xe9	-23
23	0xb3	-77
24	0x1b	27
25	0x87	-121
26	0x3f	63
27	0xbe	-66
28	0xed	-19
29	0xbd	-67
30	0x28	40
31	0x2d	45
32	0x0d	13
33	0x01	1
34	0x34	52
35	0xce	-50
36	0x06	6
37	0xb1	-79
38	0xc4	-60
39	0x11	17
40	0xfc	-4
41	0xab	-85
42	0xfe	-2
43	0x32	50
44	0x0a	10
45	0xcb	-53
46	0x06	6
47	0xac	-84
48	0x14	20
49	0xec	-20
50	0xe8	-24
51	0x0f	15
52	0xf8	-8
53	0xc9	-55
54	0xe4	-28
55	0xf1	-15
56	0xf8	-8
57	0x0f	15
58	0xf1	-15
59	0xec	-20
60	0x3a	58
61	0xb6	-74
62	0xfd	-3
63	0x14	20
64	0x29	41
65	0xe8	-24
66	0x20	32
67	0xbd	-67
68	0xe4	-28
69	0x6e	110
70	0xf7	-9
71	0x12	18
72	0x11	17
73	0x13	19
74	0x11	17
75	0xe0	-32
76	0x28	40
77	0x37	55
78	0x17	23
79	0xe6	-26
80	0xbe	-66
81	0xd7	-41
82	0x27	39
83	0xcb	-53
84	0xbb	-69
85	0x1e	30
86	0x1c	28
87	0xee	-18
88	0x15	21
89	0xe2	-30
90	0xcd	-51
91	0xe3	-29
92	0x17	23
93	0xf5	-11
94	0xe1	-31
95	0xed	-19
96	0x34	52
97	0xe9	-23
98	0xe6	-26
99	0x2d	45
100	0xd7	-41
101	0x09	9
102	0xbe	-66
103	0x49	73
104	0xfb	-5
105	0x13	19
106	0x3d	61
107	0x18	24
108	0xef	-17
109	0xb0	-80
110	0x06	6
111	0xfb	-5
112	0x0d	13
113	0x0f	15
114	0xfb	-5
115	0xcd	-51
116	0x4f	79
117	0x18	24
118	0x19	25
119	0xc4	-60
120	0xee	-18
121	0x1d	29
122	0x50	80
123	0x25	37
124	0xe5	-27
125	0xda	-38
126	0x05	5
127	0xf7	-9
128	0x13	19
129	0x98	-104
130	0x15	21
131	0x13	19
132	0x13	19
133	0xb0	-80
134	0xfc	-4
135	0x1c	28
136	0xe4	-28
137	0xfd	-3
138	0xfe	-2
139	0xa3	-93
140	0xeb	-21
141	0x00	0
142	0x1b	27
143	0x37	55
144	0xf5	-11
145	0xfa	-6
146	0xf6	-10
147	0xaf	-81
148	0xe2	-30
149	0xc8	-56
150	0xd0	-48
151	0xf7	-9
152	0xdf	-33
153	0x29	41
154	0xe1	-31
155	0xe7	-25
156	0x35	53
157	0xf9	-7
158	0xd1	-47
159	0x12	18
160	0x1b	27
161	0xf0	-16
162	0xe1	-31
163	0xd4	-44
164	0xe1	-31
165	0x31	49
166	0x39	57
167	0x20	32
168	0xf6	-10
169	0xb1	-79
170	0x3d	61
171	0xe5	-27
172	0x25	37
173	0x1a	26
174	0x26	38
175	0xca	-54
176	0x1b	27
177	0xec	-20
178	0xcc	-52
179	0x10	16
180	0x0f	15
181	0x0e	14
182	0xff	-1
183	0xf8	-8
184	0xad	-83
185	0x05	5
186	0x9e	-98
187	0xfc	-4
188	0xf9	-7
189	0x10	16
190	0x15	21
191	0x29	41
192	0x37	55
193	0xab	-85
194	0x08	8
195	0xe7	-25
196	0xe4	-28
197	0x34	52
198	0x1e	30
199	0x1f	31
200	0xd8	-40
201	0xf5	-11
202	0x15	21
203	0x11	17
204	0x00	0
205	0x16	22
206	0xf0	-16
207	0x92	-110
208	0x1a	26
209	0x18	24
210	0xde	-34
211	0xfc	-4
212	0xe0	-32
213	0x33	51
214	0x05	5
215	0xf1	-15
216	0xfb	-5
217	0x29	41
218	0x14	20
219	0xe6	-26
220	0x00	0
221	0xe0	-32
222	0xa2	-94
223	0xc6	-58
224	0x1b	27
225	0x0e	14
226	0x18	24
227	0x0b	11
228	0x0f	15
229	0xb1	-79
230	0xfb	-5
231	0xd8	-40
232	0xcf	-49
233	0x00	0
234	0xea	-22
235	0xfa	-6
236	0xaa	-86
237	0x02	2
238	0x21	33
239	0x0c	12
240	0x10	16
241	0xf0	-16
242	0x2f	47
243	0xe7	-25
244	0xfb	-5
245	0xf3	-13
246	0xfa	-6
247	0x0a	10
248	0x4a	74
249	0xb1	-79
250	0xb7	-73
251	0xed	-19
252	0xe8	-24
253	0x07	7
254	0x2c	44
255	0xdc	-36

tfl.pseudo_qconst10 i1 [48] scale=0.003676745 zero_point=119
0	0xd2	-0.6066629
1	0xf7	-0.47062337
2	0x05	-0.41914895
3	0xf1	-0.49268386
4	0x7f	0.02941396
5	0xbf	-0.6765211
6	0xc2	-0.66549087
7	0xfa	-0.45959315
8	0xfb	-0.4559164
9	0x13	-0.3676745
10	0xc6	-0.6507839
11	0xc5	-0.6544606
12	0xca	-0.6360769
13	0xc4	-0.6581374
14	0xc4	-0.6581374
15	0x0d	-0.38973498
16	0x41	-0.19854423
17	0x23	-0.3088466
18	0x5a	-0.10662561
19	0x09	-0.40444195
20	0xa1	-0.78682345
21	0xac	-0.74637926
22	0x62	-0.07721165
23	0xf3	-0.48533034
24	0xe3	-0.5441583
25	0xe7	-0.5294513
26	0x46	-0.18016051
27	0x07	-0.41179544
28	0xad	-0.7427025
29	0x80	-0.90815604
30	0x09	-0.40444195
31	0xc2	-0.66549087
32	0xcb	-0.63240016
33	0xce	-0.6213699
34	0x95	-0.8309444
35	0xc9	-0.63975364
36	0xd1	-0.6103397
37	0x8d	-0.86035836
38	0xea	-0.51842105
39	0xe0	-0.55518854
40	0xe0	-0.55518854
41	0xdf	-0.55886525
42	0xf6	-0.47430012
43	0x0b	-0.39708847
44	0xbd	-0.6838746
45	0x9f	-0.79417694
46	0xe2	-0.547835
47	0xa4	-0.7757932

tfl.pseudo_qconst11 i1 [48] scale=0.10327045 zero_point=-128
0	0x85	0.51635224
1	0x86	0.6196227
2	0x85	0.51635224
3	0x86	0.6196227
4	0xc2	6.81585
5	0x85	0.51635224
6	0x84	0.4130818
7	0x88	0.8261636
8	0x86	0.6196227
9	0x85	0.51635224
10	0x85	0.51635224
11	0x85	0.51635224
12	0x85	0.51635224
13	0x84	0.4130818
14	0x84	0.4130818
15	0x84	0.4130818
16	0x8f	1.5490568
17	0x88	0.8261636
18	0x61	23.235851
19	0x85	0.51635224
20	0x84	0.4130818
21	0x85	0.51635224
22	0x7f	26.333965
23	0x86	0.6196227
24	0x85	0.51635224
25	0x85	0.51635224
26	0xa4	3.7177362
27	0x85	0.51635224
28	0x84	0.4130818
29	0x83	0.30981135
30	0x85	0.51635224
31	0x85	0.51635224
32	0x85	0.51635224
33	0x85	0.51635224
34	0x84	0.4130818
35	0x85	0.51635224
36	0x85	0.51635224
37	0x84	0.4130818
38	0x85	0.51635224
39	0x85	0.51635224
40	0x85	0.51635224
41	0x86	0.6196227
42	0x85	0.51635224
43	0x85	0.51635224
44	0x85	0.51635224
45	0x84	0.4130818
46	0x85	0.51635224
47	0x84	0.4130818

tfl.pseudo_qconst13 i1 [48, 3, 3, 48]
0	0xc4	-60
1	0xe3	-29
2	0xee	-18
3	0x13	19
4	0xaf	-81
5	0xcb	-53
6	0xfe	-2
7	0x05	5
8	0xf8	-8
9	0xf5	-11
10	0xbc	-68
11	0xe5	-27
12	0xf9	-7
13	0x1c	28
14	0xca	-54
15	0xe8	-24
16	0xa1	-95
17	0xc0	-64
18	0xea	-22
19	0xea	-22
20	0x21	33
21	0x23	35
22	0xa0	-96
23	0xd7	-41
24	0x00	0
25	0x97	-105
26	0xf2	-14
27	0x05	5
28	0x24	36
29	0xaf	-81
30	0xec	-20
31	0xac	-84
32	0xfa	-6
33	0xf6	-10
34	0xdc	-36
35	0xef	-17
36	0x40	64
37	0xe8	-24
38	0xb2	-78
39	0xbc	-68
40	0x1a	26
41	0xcf	-49
42	0xc1	-63
43	0x82	-126
44	0xd9	-39
45	0xc3	-61
46	0x17	23
47	0x22	34
48	0x19	25
49	0x6c	108
50	0xb8	-72
51	0xf3	-13
52	0xfb	-5
53	0xc8	-56
54	0xea	-22
55	0x14	20
56	0x06	6
57	0x4d	77
58	0xff	-1
59	0x01	1
60	0x23	35
61	0xd6	-42
62	0xe6	-26
63	0xe5	-27
64	0x0d	13
65	0xfd	-3
66	0xe9	-23
67	0x23	35
68	0xfc	-4
69	0xdd	-35
70	0x0b	11
71	0xd0	-48
72	0xed	-19
73	0x03	3
74	0xe8	-24
75	0xcc	-52
76	0x03	3
77	0x13	19
78	0x05	5
79	0x11	17
80	0x17	23
81	0xe0	-32
82	0x36	54
83	0x26	38
84	0xfa	-6
85	0xf2	-14
86	0x0c	12
87	0xf3	-13
88	0xee	-18
89	0xb7	-73
90	0xe2	-30
91	0xff	-1
92	0x2b	43
93	0x08	8
94	0x04	4
95	0xc5	-59
96	0x25	37
97	0xe7	-25
98	0xda	-38
99	0xc3	-61
100	0x32	50
101	0xe4	-28
102	0xe8	-24
103	0x02	2
104	0x0f	15
105	0x03	3
106	0x14	20
107	0x90	-112
108	0xea	-22
109	0xdf	-33
110	0xc1	-63
111	0x81	-127
112	0xd0	-48
113	0xc3	-61
114	0x20	32
115	0x11	17
116	0x09	9
117	0xd3	-45
118	0xce	-50
119	0xc0	-64
120	0x1d	29
121	0xd6	-42
122	0xe2	-30
123	0xef	-17
124	0x42	66
125	0xe9	-23
126	0x07	7
127	0x0f	15
128	0x46	70
129	0xff	-1
130	0xe8	-24
131	0xc6	-58
132	0x33	51
133	0x0e	14
134	0x3d	61
135	0xfe	-2
136	0x0b	11
137	0xff	-1
138	0x0c	12
139	0xf3	-13
140	0x0d	13
141	0xa1	-95
142	0xd2	-46
143	0x00	0
144	0x16	22
145	0xce	-50
146	0xf2	-14
147	0xeb	-21
148	0x0f	15
149	0xec	-20
150	0xd7	-41
151	0xc6	-58
152	0x3d	61
153	0xd1	-47
154	0xe3	-29
155	0xbb	-69
156	0xd3	-45
157	0xbf	-65
158	0x11	17
159	0xf5	-11
160	0xdd	-35
161	0xe7	-25
162	0xfb	-5
163	0xbe	-66
164	0x05	5
165	0xdb	-37
166	0xc9	-55
167	0x06	6
168	0x08	8
169	0x2f	47
170	0xdb	-37
171	0xf5	-11
172	0xd9	-39
173	0xeb	-21
174	0xc3	-61
175	0xd9	-39
176	0x10	16
177	0xe5	-27
178	0x0a	10
179	0xff	-1
180	0xdf	-33
181	0x08	8
182	0xe3	-29
183	0xc7	-57
184	0xc9	-55
185	0x92	-110
186	0xda	-38
187	0xec	-20
188	0xd6	-42
189	0xfe	-2
190	0xf8	-8
191	0xb5	-75
192	0x04	4
193	0xf3	-13
194	0x0f	15
195	0x1e	30
196	0xe3	-29
197	0x17	23
198	0x21	33
199	0x14	20
200	0x0e	14
201	0xaf	-81
202	0x04	4
203	0x25	37
204	0xa7	-89
205	0x0e	14
206	0x27	39
207	0x06	6
208	0x28	40
209	0x4b	75
210	0xee	-18
211	0xfe	-2
212	0xe9	-23
213	0xf9	-7
214	0xf4	-12
215	0x1b	27
216	0x0a	10
217	0x15	21
218	0xdb	-37
219	0xe9	-23
220	0xb9	-71
221	0x18	24
222	0xf0	-16
223	0x13	19
224	0xde	-34
225	0x10	16
226	0x01	1
227	0x21	33
228	0x2a	42
229	0xd6	-42
230	0xef	-17
231	0x3e	62
232	0x57	87
233	0x22	34
234	0x2b	43
235	0xee	-18
236	0xc9	-55
237	0x1e	30
238	0x04	4
239	0xf1	-15
240	0xeb	-21
241	0xe3	-29
242	0x1d	29
243	0x2d	45
244	0xd9	-39
245	0x1a	26
246	0xef	-17
247	0x0f	15
248	0xe1	-31
249	0xf8	-8
250	0x1e	30
251	0x04	4
252	0x3d	61
253	0x1c	28
254	0x01	1
255	0x0f	15

tfl.pseudo_qconst14 i1 [48] scale=0.0067394613 zero_point=127
0	0xc6	-1.2468003
1	0xc8	-1.2333214
2	0xb8	-1.3411528
3	0xd0	-1.1794057
4	0xb9	-1.3344133
5	0xd3	-1.1591873
6	0xc4	-1.2602793
7	0xd7	-1.1322294
8	0xe1	-1.0648348
9	0x90	-1.6107312
10	0xbe	-1.300716
11	0xae	-1.4085474
12	0xba	-1.3276739
13	0xc2	-1.2737582
14	0xbe	-1.300716
15	0xa5	-1.4692025
16	0xc1	-1.2804977
17	0xc7	-1.2400609
18	0xb7	-1.3478923
19	0xd6	-1.138969
20	0xd6	-1.138969
21	0xf0	-0.963743
22	0xc8	-1.2333214
23	0xb2	-1.3815895
24	0xaf	-1.4018079
25	0xd2	-1.1659268
26	0xc2	-1.2737582
27	0x80	-1.7185626
28	0xe2	-1.0580955
29	0xb4	-1.3681107
30	0xbc	-1.3141949
31	0xdc	-1.0985322
32	0xa5	-1.4692025
33	0xc6	-1.2468003
34	0xc5	-1.2535398
35	0xc0	-1.2872372
36	0xdb	-1.1052717
37	0xa8	-1.4489841
38	0xe8	-1.0176587
39	0xa3	-1.4826815
40	0xde	-1.0850533
41	0xa3	-1.4826815
42	0xc1	-1.2804977
43	0xb5	-1.3613712
44	0xd2	-1.1659268
45	0xc1	-1.2804977
46	0xca	-1.2198426
47	0xed	-0.98396134

tfl.pseudo_qconst15 i1 [48] scale=0.0042374292 zero_point=-128
0	0x4a	0.8559607
1	0x40	0.8135864
2	0x60	0.9491842
3	0x34	0.7627373
4	0x4c	0.86443555
5	0x46	0.839011
6	0x46	0.839011
7	0x3f	0.809349
8	0x2a	0.72036296
9	0x05	0.56357807
10	0x2f	0.7415501
11	0x27	0.70765066
12	0x3a	0.7881618
13	0x7f	1.0805445
14	0x79	1.0551199
15	0x3b	0.7923993
16	0x23	0.69070095
17	0x31	0.750025
18	0x2f	0.7415501
19	0x2a	0.72036296
20	0x60	0.9491842
21	0x46	0.839011
22	0x53	0.89409757
23	0x2c	0.72883785
24	0x4d	0.86867297
25	0x24	0.6949384
26	0x3a	0.7881618
27	0x0e	0.60171497
28	0x3d	0.8008741
29	0x12	0.6186647
30	0x3c	0.7966367
31	0x2d	0.73307526
32	0x57	0.9110473
33	0x2e	0.7373127
34	0x2c	0.72883785
35	0x12	0.6186647
36	0x76	1.0424076
37	0x35	0.7669747
38	0x47	0.8432484
39	0x1a	0.6525641
40	0x51	0.88562274
41	0x0b	0.58900267
42	0x31	0.750025
43	0x35	0.7669747
44	0x53	0.89409757
45	0x26	0.70341325
46	0x25	0.69917583
47	0x1d	0.6652764

tfl.pseudo_qconst17 i1 [48, 3, 3, 32]
0	0xde	-34
1	0x0a	10
2	0xc7	-57
3	0x20	32
4	0xe0	-32
5	0xf1	-15
6	0x25	37
7	0x3c	60
8	0xff	-1
9	0xf2	-14
10	0xff	-1
11	0x29	41
12	0xfe	-2
13	0xfd	-3
14	0x23	35
15	0x2d	45
16	0xf8	-8
17	0xd6	-42
18	0x11	17
19	0xc3	-61
20	0x04	4
21	0x0f	15
22	0xc8	-56
23	0xe3	-29
24	0x90	-112
25	0x08	8
26	0x0c	12
27	0xf4	-12
28	0x06	6
29	0x0c	12
30	0xcc	-52
31	0x45	69
32	0x87	-121
33	0x1b	27
34	0x00	0
35	0x0f	15
36	0xc4	-60
37	0x14	20
38	0x08	8
39	0x1d	29
40	0xa0	-96
41	0xe7	-25
42	0xd5	-43
43	0xf4	-12
44	0x08	8
45	0xd5	-43
46	0xd7	-41
47	0xd2	-46
48	0x2d	45
49	0xeb	-21
50	0x28	40
51	0xe6	-26
52	0x17	23
53	0x1b	27
54	0xf3	-13
55	0xd8	-40
56	0x08	8
57	0x12	18
58	0xe4	-28
59	0xfe	-2
60	0x0f	15
61	0xe0	-32
62	0xf6	-10
63	0xe1	-31
64	0xc6	-58
65	0x2a	42
66	0x25	37
67	0xe3	-29
68	0x2d	45
69	0x0d	13
70	0xdd	-35
71	0xef	-17
72	0xb2	-78
73	0x06	6
74	0xe2	-30
75	0xc8	-56
76	0xfa	-6
77	0xc6	-58
78	0xec	-20
79	0x19	25
80	0xfc	-4
81	0xf1	-15
82	0x05	5
83	0xe9	-23
84	0x2c	44
85	0xf8	-8
86	0xfa	-6
87	0x1b	27
88	0xf4	-12
89	0xf8	-8
90	0xe1	-31
91	0x10	16
92	0xe7	-25
93	0xcd	-51
94	0xcb	-53
95	0xd9	-39
96	0xd1	-47
97	0x14	20
98	0xe3	-29
99	0xfb	-5
100	0x0f	15
101	0x17	23
102	0x1e	30
103	0x07	7
104	0xb6	-74
105	0xf7	-9
106	0x00	0
107	0x01	1
108	0x14	20
109	0xe7	-25
110	0x3d	61
111	0xd9	-39
112	0x1d	29
113	0xe0	-32
114	0x19	25
115	0xf5	-11
116	0x12	18
117	0x19	25
118	0x9d	-99
119	0xd7	-41
120	0x46	70
121	0xc9	-55
122	0xef	-17
123	0xdd	-35
124	0x01	1
125	0xe3	-29
126	0xd0	-48
127	0x1f	31
128	0xe2	-30
129	0xf7	-9
130	0x2e	46
131	0x19	25
132	0x1b	27
133	0xe8	-24
134	0x0f	15
135	0xd1	-47
136	0xc8	-56
137	0xcb	-53
138	0xf2	-14
139	0xf4	-12
140	0xf8	-8
141	0xfb	-5
142	0xef	-17
143	0x0d	13
144	0xfa	-6
145	0xfa	-6
146	0x10	16
147	0xf9	-7
148	0x05	5
149	0xd5	-43
150	0x18	24
151	0xbf	-65
152	0xf9	-7
153	0x0b	11
154	0x05	5
155	0x08	8
156	0x0a	10
157	0xf7	-9
158	0xe9	-23
159	0xd7	-41
160	0xc6	-58
161	0x11	17
162	0x2b	43
163	0x27	39
164	0x24	36
165	0xdf	-33
166	0xe7	-25
167	0xb4	-76
168	0xae	-82
169	0xe9	-23
170	0x11	17
171	0x22	34
172	0xf4	-12
173	0xec	-20
174	0x30	48
175	0x12	18
176	0xdc	-36
177	0x1e	30
178	0xd7	-41
179	0x05	5
180	0xfa	-6
181	0xe2	-30
182	0x13	19
183	0x1a	26
184	0xc0	-64
185	0x07	7
186	0xfa	-6
187	0x17	23
188	0xe3	-29
189	0x21	33
190	0x0e	14
191	0xfe	-2
192	0x2b	43
193	0xf1	-15
194	0x03	3
195	0xd3	-45
196	0x15	21
197	0x0c	12
198	0xce	-50
199	0xd4	-44
200	0xd0	-48
201	0x0f	15
202	0xf1	-15
203	0xfa	-6
204	0x04	4
205	0xb5	-75
206	0x0a	10
207	0xfa	-6
208	0x48	72
209	0x0d	13
210	0x2b	43
211	0x00	0
212	0x1b	27
213	0xe1	-31
214	0xf5	-11
215	0x02	2
216	0x21	33
217	0xe9	-23
218	0x00	0
219	0x07	7
220	0x2f	47
221	0xe4	-28
222	0x07	7
223	0xf7	-9
224	0x01	1
225	0xe0	-32
226	0x07	7
227	0x0b	11
228	0x2f	47
229	0x0d	13
230	0xdd	-35
231	0xb4	-76
232	0x1f	31
233	0xf8	-8
234	0xf1	-15
235	0x11	17
236	0xd1	-47
237	0xdd	-35
238	0x0e	14
239	0xfb	-5
240	0xf8	-8
241	0x19	25
242	0xd4	-44
243	0xf7	-9
244	0xde	-34
245	0xf0	-16
246	0x10	16
247	0xe5	-27
248	0x9b	-101
249	0x13	19
250	0x10	16
251	0xe3	-29
252	0x0f	15
253	0x19	25
254	0x23	35
255	0xe1	-31

tfl.pseudo_qconst18 i1 [32] scale=0.0034937484 zero_point=127
0	0x5a	-0.12926869
1	0xd7	-0.5869497
2	0x91	-0.8315121
3	0xe1	-0.55201226
4	0x99	-0.8035621
5	0x0c	-0.40178105
6	0x9f	-0.7825996
7	0xeb	-0.51707476
8	0x10	-0.38780606
9	0x09	-0.41226232
10	0x45	-0.2026374
11	0xe0	-0.555506
12	0x63	-0.09782495
13	0xe2	-0.5485185
14	0xce	-0.6183935
15	0xc9	-0.63586223
16	0x10	-0.38780606
17	0xfc	-0.45768103
18	0x10	-0.38780606
19	0xc7	-0.6428497
20	0xec	-0.51358104
21	0xd1	-0.60791224
22	0x24	-0.31793112
23	0x65	-0.09083746
24	0x2e	-0.2829936
25	0xd3	-0.60092473
26	0xc4	-0.6533309
27	0x87	-0.8664496
28	0x80	-0.89090586
29	0xa7	-0.75464964
30	0x94	-0.82103086
31	0x0f	-0.3912998

tfl.pseudo_qconst19 i1 [32] scale=0.00218782 zero_point=-128
0	0x43	0.4266249
1	0x61	0.49225947
2	0x27	0.36536592
3	0x57	0.4703813
4	0x1f	0.34786338
5	0x3a	0.4069345
6	0x41	0.42224926
7	0x48	0.437564
8	0x26	0.3631781
9	0x3c	0.41131014
10	0x30	0.38505632
11	0x33	0.39161977
12	0x2f	0.3828685
13	0x3d	0.41349795
14	0x54	0.46381783
15	0x2c	0.376305
16	0x40	0.4200614
17	0x5a	0.47694474
18	0x5b	0.47913256
19	0x24	0.35880247
20	0x70	0.5250768
21	0x44	0.4288127
22	0x2d	0.37849283
23	0x7f	0.55789405
24	0x3e	0.41568577
25	0x3d	0.41349795
26	0x1f	0.34786338
27	0x25	0.3609903
28	0x2b	0.3741172
29	0x3b	0.40912232
30	0x33	0.39161977
31	0x78	0.54257935

tfl.pseudo_qconst21 i1 [32, 3, 3, 32]
0	0xd0	-48
1	0x01	1
2	0x35	53
3	0xfd	-3
4	0xfb	-5
5	0xdb	-37
6	0x1a	26
7	0xc2	-62
8	0x39	57
9	0x1e	30
10	0xeb	-21
11	0x0d	13
12	0x0d	13
13	0x13	19
14	0x08	8
15	0xee	-18
16	0xda	-38
17	0xef	-17
18	0x37	55
19	0x30	48
20	0x3a	58
21	0x12	18
22	0xdc	-36
23	0xe3	-29
24	0xa1	-95
25	0x34	52
26	0xf9	-7
27	0x00	0
28	0x1b	27
29	0xf9	-7
30	0x0c	12
31	0x37	55
32	0x0a	10
33	0x1f	31
34	0x00	0
35	0x01	1
36	0xb3	-77
37	0xd4	-44
38	0xdf	-33
39	0x0e	14
40	0xad	-83
41	0xf4	-12
42	0x12	18
43	0x2c	44
44	0x1f	31
45	0xdb	-37
46	0xf9	-7
47	0x1e	30
48	0xf2	-14
49	0xec	-20
50	0xbf	-65
51	0x09	9
52	0xce	-50
53	0xf4	-12
54	0xfd	-3
55	0x12	18
56	0xf4	-12
57	0xd8	-40
58	0x10	16
59	0x2e	46
60	0xc2	-62
61	0xce	-50
62	0xe9	-23
63	0x00	0
64	0xeb	-21
65	0xb8	-72
66	0x06	6
67	0xe1	-31
68	0xe9	-23
69	0xce	-50
70	0x12	18
71	0x35	53
72	0x38	56
73	0xc9	-55
74	0xe8	-24
75	0xb2	-78
76	0xfc	-4
77	0xca	-54
78	0xf4	-12
79	0x00	0
80	0x09	9
81	0x36	54
82	0xe8	-24
83	0xa9	-87
84	0xac	-84
85	0xff	-1
86	0x34	52
87	0xf3	-13
88	0x1a	26
89	0x22	34
90	0xdf	-33
91	0xe3	-29
92	0x51	81
93	0x0f	15
94	0xb9	-71
95	0x09	9
96	0xeb	-21
97	0x1b	27
98	0xfe	-2
99	0xd5	-43
100	0x11	17
101	0x0b	11
102	0x4d	77
103	0xbb	-69
104	0x2b	43
105	0x10	16
106	0xec	-20
107	0x26	38
108	0x35	53
109	0x1e	30
110	0x0a	10
111	0x0d	13
112	0xd9	-39
113	0xfc	-4
114	0x36	54
115	0x40	64
116	0x30	48
117	0x04	4
118	0xb8	-72
119	0x01	1
120	0xae	-82
121	0x0b	11
122	0x17	23
123	0x15	21
124	0x17	23
125	0x24	36
126	0x35	53
127	0xcb	-53
128	0x0b	11
129	0x1a	26
130	0xdb	-37
131	0x19	25
132	0xf9	-7
133	0xee	-18
134	0x03	3
135	0xee	-18
136	0xc0	-64
137	0xfc	-4
138	0x13	19
139	0x39	57
140	0x16	22
141	0xea	-22
142	0x29	41
143	0x38	56
144	0x15	21
145	0xf4	-12
146	0xf7	-9
147	0xf0	-16
148	0xe9	-23
149	0x18	24
150	0xf7	-9
151	0x19	25
152	0xfc	-4
153	0xa5	-91
154	0xe9	-23
155	0x41	65
156	0xcf	-49
157	0xe6	-26
158	0x28	40
159	0xea	-22
160	0x0d	13
161	0xb1	-79
162	0xff	-1
163	0xff	-1
164	0x05	5
165	0xf6	-10
166	0xdf	-33
167	0xf3	-13
168	0x23	35
169	0xdd	-35
170	0xe3	-29
171	0xdf	-33
172	0x47	71
173	0xd9	-39
174	0xaa	-86
175	0xb4	-76
176	0x3f	63
177	0x36	54
178	0x4f	79
179	0xd7	-41
180	0x03	3
181	0xc8	-56
182	0xfc	-4
183	0xff	-1
184	0x0b	11
185	0x53	83
186	0xd7	-41
187	0xe0	-32
188	0x2b	43
189	0x2a	42
190	0xf0	-16
191	0x41	65
192	0xb8	-72
193	0x16	22
194	0x10	16
195	0x2b	43
196	0x2c	44
197	0xe1	-31
198	0xfc	-4
199	0xb6	-74
200	0xeb	-21
201	0xef	-17
202	0x9e	-98
203	0x1e	30
204	0x1b	27
205	0x41	65
206	0xf6	-10
207	0x3d	61
208	0x81	-127
209	0xe9	-23
210	0xb3	-77
211	0xdf	-33
212	0x30	48
213	0x2d	45
214	0xaa	-86
215	0x0f	15
216	0xef	-17
217	0xe9	-23
218	0x1f	31
219	0x10	16
220	0xf6	-10
221	0xcb	-53
222	0x29	41
223	0x86	-122
224	0x0f	15
225	0xe9	-23
226	0xe4	-28
227	0xa8	-88
228	0x0b	11
229	0xb1	-79
230	0x0a	10
231	0x34	52
232	0xb1	-79
233	0x04	4
234	0x3f	63
235	0xf7	-9
236	0x54	84
237	0xee	-18
238	0x1f	31
239	0x1d	29
240	0x30	48
241	0xdf	-33
242	0xd7	-41
243	0xcc	-52
244	0x02	2
245	0xfc	-4
246	0x37	55
247	0xee	-18
248	0x08	8
249	0xde	-34
250	0x37	55
251	0x19	25
252	0x08	8
253	0xe7	-25
254	0x09	9
255	0x1f	31

tfl.pseudo_qconst22 i1 [32] scale=0.007469861 zero_point=127
0	0x80	-1.9048145
1	0xd3	-1.284816
2	0x0d	-0.8515641
3	0x06	-0.9038532
4	0x22	-0.6946971
5	0x3b	-0.50795054
6	0x0f	-0.8366244
7	0xf3	-1.0457805
8	0x08	-0.88891345
9	0x02	-0.9337326
10	0xdd	-1.2101175
11	0xfc	-0.97855175
12	0x1f	-0.71710664
13	0xb7	-1.4939722
14	0xea	-1.1130092
15	0xdf	-1.1951778
16	0xf7	-1.0159011
17	0x19	-0.7619258
18	0x00	-0.94867235
19	0x31	-0.5826492
20	0x08	-0.88891345
21	0x2f	-0.5975889
22	0xf4	-1.0383106
23	0xf3	-1.0457805
24	0xf0	-1.0681901
25	0x14	-0.7992751
26	0xa5	-1.6284297
27	0x04	-0.9187929
28	0x07	-0.8963833
29	0x05	-0.911323
30	0x26	-0.66481763
31	0x12	-0.8142148

tfl.pseudo_qconst23 i1 [32] scale=0.02130969 zero_point=-128
0	0xfb	2.6210918
1	0xee	2.344066
2	0x4a	4.3045573
3	0x6a	4.9864674
4	0x3c	4.006222
5	0x6e	5.0717063
6	0x1c	3.3243117
7	0x3f	4.070151
8	0x7f	5.433971
9	0x29	3.6013377
10	0xe6	2.1735885
11	0xed	2.3227563
12	0x9a	0.55405194
13	0xf2	2.4293048
14	0x0d	3.0046663
15	0x07	2.8768082
16	0x3c	4.006222
17	0x12	3.1112149
18	0xe7	2.1948981
19	0x10	3.0685954
20	0x2c	3.6652668
21	0xc2	1.4064395
22	0x10	3.0685954
23	0x4c	4.347177
24	0x26	3.5374086
25	0x55	4.5389643
26	0xea	2.2588272
27	0xbf	1.3425105
28	0x2c	3.6652668
29	0xed	2.3227563
30	0x4b	4.325867
31	0x3b	3.9849122

tfl.pseudo_qconst25 i1 [32, 5, 5, 3]
0	0xd7	-41
1	0xc2	-62
2	0xc6	-58
3	0x8c	-116
4	0x1a	26
5	0x0b	11
6	0xab	-85
7	0x47	71
8	0x3a	58
9	0xd2	-46
10	0x3e	62
11	0x00	0
12	0xee	-18
13	0xea	-22
14	0x28	40
15	0xb1	-79
16	0x13	19
17	0x1d	29
18	0xe9	-23
19	0x2a	42
20	0x32	50
21	0x96	-106
22	0x69	105
23	0x2c	44
24	0xb7	-73
25	0x1f	31
26	0x30	48
27	0xcf	-49
28	0x46	70
29	0x18	24
30	0xdc	-36
31	0x34	52
32	0x30	48
33	0xd2	-46
34	0x02	2
35	0x16	22
36	0xe8	-24
37	0x35	53
38	0x08	8
39	0xe8	-24
40	0x2c	44
41	0x2a	42
42	0xeb	-21
43	0x04	4
44	0xea	-22
45	0x2d	45
46	0xf3	-13
47	0x2c	44
48	0x05	5
49	0x12	18
50	0x1d	29
51	0xf1	-15
52	0x2c	44
53	0x06	6
54	0x19	25
55	0xf0	-16
56	0xfe	-2
57	0x6a	106
58	0x18	24
59	0xe2	-30
60	0x28	40
61	0xe7	-25
62	0xde	-34
63	0x47	71
64	0xdd	-35
65	0xaa	-86
66	0x52	82
67	0xc2	-62
68	0xd6	-42
69	0x48	72
70	0xdc	-36
71	0x90	-112
72	0x33	51
73	0x81	-127
74	0xa4	-92
75	0x35	53
76	0x1b	27
77	0xec	-20
78	0x06	6
79	0x46	70
80	0x66	102
81	0x0d	13
82	0x54	84
83	0x05	5
84	0xd4	-44
85	0xfa	-6
86	0x48	72
87	0xfa	-6
88	0xd2	-46
89	0xed	-19
90	0xf1	-15
91	0xae	-82
92	0xab	-85
93	0xf9	-7
94	0xc2	-62
95	0xea	-22
96	0x1c	28
97	0x4e	78
98	0x52	82
99	0xe8	-24
100	0x5a	90
101	0x62	98
102	0x9f	-97
103	0xc3	-61
104	0xe0	-32
105	0x24	36
106	0xc1	-63
107	0xc4	-60
108	0xd6	-42
109	0xd6	-42
110	0xbe	-66
111	0x06	6
112	0x17	23
113	0x5d	93
114	0xdf	-33
115	0x76	118
116	0x5c	92
117	0xf4	-12
118	0x17	23
119	0x07	7
120	0x0c	12
121	0xd2	-46
122	0x81	-127
123	0xe6	-26
124	0xc6	-58
125	0xc3	-61
126	0x01	1
127	0x35	53
128	0x0b	11
129	0xe2	-30
130	0x47	71
131	0x56	86
132	0x06	6
133	0x32	50
134	0x2f	47
135	0x67	103
136	0xc5	-59
137	0x96	-106
138	0x2c	44
139	0xe5	-27
140	0xc6	-58
141	0x08	8
142	0xaa	-86
143	0x97	-105
144	0x1f	31
145	0x12	18
146	0x03	3
147	0xf6	-10
148	0x3b	59
149	0x34	52
150	0x45	69
151	0xd4	-44
152	0xc3	-61
153	0x09	9
154	0xf2	-14
155	0x09	9
156	0xee	-18
157	0x28	40
158	0xfd	-3
159	0x8e	-114
160	0x4e	78
161	0x34	52
162	0x92	-110
163	0x66	102
164	0x5d	93
165	0x31	49
166	0xdc	-36
167	0xc6	-58
168	0x1a	26
169	0xf4	-12
170	0xea	-22
171	0x2d	45
172	0xd0	-48
173	0xc8	-56
174	0x91	-111
175	0x41	65
176	0x3e	62
177	0x87	-121
178	0x7c	124
179	0x65	101
180	0x3f	63
181	0xbc	-68
182	0xef	-17
183	0x7f	127
184	0x9c	-100
185	0xe8	-24
186	0x3e	62
187	0xb5	-75
188	0xe3	-29
189	0xb8	-72
190	0xda	-38
191	0x0b	11
192	0xbc	-68
193	0x69	105
194	0x3a	58
195	0x1f	31
196	0xe1	-31
197	0xd3	-45
198	0x5c	92
199	0xf3	-13
200	0xd8	-40
201	0x60	96
202	0xf6	-10
203	0xaf	-81
204	0xd1	-47
205	0xc6	-58
206	0x25	37
207	0xb0	-80
208	0x5e	94
209	0x46	70
210	0x28	40
211	0x31	49
212	0xff	-1
213	0x07	7
214	0xc4	-60
215	0xdc	-36
216	0x55	85
217	0x85	-123
218	0xf1	-15
219	0xf9	-7
220	0x29	41
221	0xd2	-46
222	0xe0	-32
223	0xe9	-23
224	0x3e	62
225	0x4b	75
226	0xf1	-15
227	0x27	39
228	0x63	99
229	0xb1	-79
230	0xcf	-49
231	0x57	87
232	0xd7	-41
233	0xbb	-69
234	0x05	5
235	0xdd	-35
236	0xc3	-61
237	0x1e	30
238	0xef	-17
239	0x0d	13
240	0x33	51
241	0xd4	-44
242	0xb0	-80
243	0x1c	28
244	0xe7	-25
245	0xc6	-58
246	0x18	24
247	0xd7	-41
248	0xdf	-33
249	0x10	16
250	0x12	18
251	0xee	-18
252	0xf0	-16
253	0xfc	-4
254	0x10	16
255	0x49	73
